img/Datos/Models/model-lat1.pth (torch, 191458 bytes, 15 tensors)

encoder.0.weight f4 [128, 99]
-0.06540956 0.061521433 0.018209398 0.054723244 -0.057005152 0.03127376 -0.035266332 -0.09447997
-0.089871846 0.06807443 0.05118234 -0.10166229 0.08657983 -0.07768242 -0.022034781 0.05609473
-0.00027900824 0.02206231 -0.06492285 -0.0614979 -0.06307477 0.07851279 -0.053085424 -0.06319011
-0.037164036 -0.040472668 0.024598565 -0.06918117 0.029934268 -0.089196436 0.045261957 -0.049724273
0.09058004 0.046398714 -0.0761252 0.07204198 0.011076831 -0.069068015 -0.073204495 0.023054684
-0.0318797 0.020901548 -0.050172787 -0.098011866 -0.099920064 -0.09801793 -0.04415469 0.07715874
0.03974924 0.025718627 -0.11901176 -0.003992314 0.029887635 -0.09736374 0.047016703 0.06652287
0.051951405 -0.104764745 0.035931133 0.037278943 -0.0863117 0.0043197414 0.027377827 0.046353977
0.00043706075 -0.01970758 0.017627254 -0.015771382 0.063211985 0.056751713 -0.060202044 0.07689752
0.055891655 0.047402054 -0.04824066 -0.036142576 0.013650187 -0.0808739 -0.016344877 -0.023696432
0.05853175 -0.10166576 0.06626049 0.01854 -0.03764486 -0.008291886 0.08438907 0.044180784
-0.07498546 -0.031118147 0.017985204 0.064620346 -0.0764262 0.06925879 0.03393584 -0.00365337
-0.10658618 0.008996515 0.020369029 -0.048631057 0.07894152 -0.017227408 0.09240217 -0.06015822
-0.06104522 -0.06100356 -0.07188403 0.055323053 0.007830832 -0.030418053 0.07387174 -0.07972201
-0.088483825 0.09059792 0.040780958 0.012515 -0.049917277 -0.10202678 -0.078986555 0.0508458
-0.09657738 -0.059940733 0.068796836 0.012628901 -0.006372174 0.01518521 0.030856447 0.043540932
-0.04969995 0.09451539 -0.041925114 -0.030781597 -0.0445126 -0.02406773 -0.056125205 -0.04327202
0.087562725 0.08761349 0.015726583 0.07586423 0.007413485 0.012000978 -0.008147977 -0.041238792
-0.069878615 -0.002719739 -0.07931608 0.028695941 -0.019555656 -0.035019115 0.057854425 -0.11720864
-0.061851185 -0.047809947 -0.04957974 -0.07251718 0.041401673 -0.050674655 0.010259741 0.04212389
0.07335758 -0.10836485 0.075897686 0.09411834 0.022673586 0.054639984 -0.016527602 0.09548329
-0.10131929 -0.029429289 0.030329926 0.0006943196 0.024757313 -0.083839014 -0.015794244 0.047190327
0.026439413 -0.10905084 0.087806284 0.06491004 0.055564146 -0.03217514 0.049418278 -0.046188984
0.043574654 -0.07282139 -0.08170598 -0.11706929 0.0077576954 -0.048557665 0.05385429 0.032905027
-0.08654915 -0.05990698 -0.017995836 -0.09373411 0.06409012 0.015008478 -0.076280326 -0.066621065
0.08706741 -0.073114105 -0.05317381 -0.07157766 0.031233506 -0.022840293 -0.018193392 0.014851484
0.1001618 0.0891874 0.034413468 0.07804187 -0.033207323 -0.09807754 0.03708336 0.029696735
0.010301776 -0.06307967 0.046284862 -0.06447362 0.01023699 0.049987264 0.07262585 -0.02773251
0.0073256125 -0.063413896 -0.0069252932 0.022973377 0.018151565 0.04413559 0.10758987 0.06144339
0.029508559 -0.020589776 0.108833954 0.0022633288 0.046609517 0.10353931 -0.015688328 0.067032516
0.06426876 0.01610714 -0.08050962 -0.08526079 0.012448341 0.03739961 0.05653024 0.07075289
0.049304217 -0.053563587 0.0833765 -0.07792461 0.011943163 -0.005484988 -0.10489317 -0.035603672
00000000: 73f5 85bd e6fd 7b3d e02b 953c 7b25 603d
00000010: 3c7e 69bd ea18 003d 6e73 10bd b77e c1bd
00000020: bb0e b8bd 9b6a 8b3d 93a4 513d 5234 d0bd
00000030: c450 b13d f617 9fbd 4982 b4bc 96c3 653d
00000040: da47 92b9 04bc b43c 45f6 84bd 39e5 7bbd
00000050: 582d 81bd 50cb a03d 1a70 59bd d169 81bd
00000060: 5139 18bd abc6 25bd ee82 c93c dbae 8dbd
00000070: b638 f53c 9fac b6bd 9a64 393d aeab 4bbd
00000080: 0782 b93d 940c 3e3d 87e7 9bbd bf8a 933d
00000090: 997b 353c 8873 8dbd 3dec 95bd 2ddd bc3c
000000a0: 4a94 02bd b939 ab3c fb81 4dbd 72ba c8bd
000000b0: e4a2 ccbd a0bd c8bd 8cdb 34bd 6705 9e3d
000000c0: 19d0 223d dfaf d23c 70bc f3bd f5d1 82bb
000000d0: ead6 f43c a466 c7bd 9694 403d 243d 883d
000000e0: ffca 543d e68e d6bd 862c 133d ceb1 183d
000000f0: 30c4 b0bd 9e8c 8d3b 7747 e03c abdd 3d3d
00000100: 4d25 e539 ca71 a1bc 0867 903c fc32 81bc
00000110: 4975 813d 7c74 683d 6b96 76bd 727c 9d3d
00000120: a6ee 643d a828 423d 0098 45bd 3d0a 14bd
00000130: 09a5 5f3c 37a1 a5bd b1e5 85bc 051f c2bc
00000140: fdbe 6f3d 2336 d0bd 94b3 873d 33e1 973c
00000150: 7f31 1abd b1da 07bc 2dd4 ac3d e9f6 343d
00000160: fa91 99bd 7ceb febc b555 933c ac57 843d
00000170: 5785 9cbd 8dd7 8d3d 4f00 0b3d 616d 6fbb
00000180: db49 dabd 1e66 133c f3dc a63c 5c31 47bd
00000190: 17ac a13d 7e20 8dbc 593d bd3d 7768 76bd
000001a0: 8d0a 7abd dede 79bd ef37 93bd 6d9a 623d
000001b0: e44c 003c 482f f9bc 114a 973d 4b45 a3bd
000001c0: 0237 b5bd 678b b93d ef09 273d b70b 4d3c
000001d0: 0f76 4cbd 6bf3 d0bd b4c3 a1bd b043 503d
000001e0: 5dca c5bd 6a84 75bd 5be5 8c3d 73e9 4e3c
000001f0: abcd d0bb 63cb 783c a9c6 fc3c fa57 323d
00000200: 2d92 4bbd 4991 c13d abb9 2bbd b029 fcbc
00000210: d852 36bd b029 c5bc 8be3 65bd 003e 31bd
00000220: 1654 b33d b46e b33d 09d5 803c b55e 9b3d
00000230: d2ec f23b c09f 443c 187f 05bc 02ea 28bd
00000240: 851c 8fbd a63d 32bb 7870 a2bd c013 eb3c
00000250: 2f33 a0bc 3470 0fbd c3f8 6c3d 150b f0bd
00000260: ab57 7dbd 5dd4 43bd 2014 4bbd e383 94bd
00000270: cd94 293d 3a90 4fbd 7918 283c 1a8a 2c3d
00000280: 803c 963d 64ee ddbd 3f70 9b3d 1ec1 c03d
00000290: f5bd b93c 2dce 5f3d e564 87bc be8c c33d
000002a0: 7d80 cfbd b115 f1bc 7776 f83c 0003 363a
000002b0: d9cf ca3c cab3 abbd ee62 81bc a54a 413d
000002c0: 7897 d83c 0c56 dfbd c8d3 b33d 8eef 843d
000002d0: 3b97 633d 14ca 03bd d26a 4a3d a930 3dbd
000002e0: 567b 323d 6223 95bd 7755 a7bd 06c2 efbd
000002f0: 4434 fe3b 67e4 46bd 5196 5c3d 6cc7 063d
00000300: ae40 b1bd 0561 75bd 016c 93bc abf7 bfbd
00000310: ae41 833d 1fe6 753c dc38 9cbd a070 88bd
00000320: 6650 b23d d9bc 95bd c8cc 59bd 4f97 92bd
00000330: 69dd ff3c 911b bbbc 4f0a 95bc a453 733c
00000340: a121 cd3d e2a7 b63d 23f5 0c3d 6ad4 9f3d
00000350: 6704 08bd e1dc c8bd b9e4 173d 9146 f33c
00000360: c8c8 283c ea2f 81bd 3295 3d3d bf0a 84bd
00000370: 0cb9 273c 72bf 4c3d ddbc 943d 4a2f e3bc
00000380: b10b f03b 25df 81bd 92ed e2bb aa32 bc3c
00000390: 97b2 943c 85c7 343d 1458 dc3d 10ac 7b3d
000003a0: efbb f13c e4ab a8bc 56e4 de3d 5b54 143b
000003b0: 9fe9 3e3d 6b0c d43d cf84 80bc 5848 893d
000003c0: 579f 833d 1ff3 833c 3ae2 a4bd 369d aebd
000003d0: 20f4 4b3c 5530 193d 418c 673d e4e6 903d
000003e0: 38f3 493d 7e65 5bbd 4cc1 aa3d f096 9fbd
000003f0: 42ad 433c 6abb b3bb 3bd2 d6bd 28d5 11bd

encoder.0.bias f4 [128]
-0.070282474 -0.21464281 -0.15052404 -0.29452688 -0.25240493 -0.06368913 -0.014056016 -0.12476922
-0.027216464 -0.08186222 -0.107844464 -0.096833415 -0.0960591 0.09345781 -0.24441968 -0.09934577
-0.39131796 -0.23233272 -0.06431858 -0.08654824 -0.08970212 0.22409473 -0.070338786 -0.28820094
-0.056185424 -0.16391553 -0.24514432 -0.057501357 -0.32876515 -0.0022373605 -0.05859518 -0.2557329
-0.10441088 -0.6662039 -0.2214136 -0.10796137 -0.35601476 -0.08553336 -0.07479665 -0.016138904
-0.0023850882 -0.14375924 -0.063201495 -0.27216652 -0.22708851 -0.19070399 -0.38158825 -0.2942691
-0.058231004 -0.099453285 -0.33411083 -0.3430359 -0.60380507 -0.21928695 -0.09988254 -0.31015
-0.071486995 -0.37861377 -0.303131 -0.108926035 -0.29612303 -0.060447235 0.033851065 -0.0994482
-0.16843428 -0.18334469 -0.19335741 -0.27875823 -0.33450273 -0.29003313 -0.24073148 0.18737851
-0.30177343 -0.100785665 -0.1478303 -0.17135867 -0.24255641 -0.031111296 -0.25122035 -0.08969473
-0.281088 -0.29018682 -0.00040232166 -0.280022 -0.2240224 0.014265017 -0.1996555 -0.3022041
-0.3272858 -0.05583535 -0.41555613 -0.36667535 -0.4027826 -0.24323106 -0.0914327 0.053905245
-0.110687 0.11325606 -0.2360906 -0.28852504 -0.24872814 -0.3699738 -0.27804676 -0.63094217
-0.17074095 -0.2962813 -0.22233987 -0.13559753 -0.011761877 -0.1304598 -0.4476563 -0.5695927
-0.04343529 -0.06950759 -0.2780344 -0.110690154 -0.25530177 -0.34154952 0.023371162 -0.08155131
-0.10752604 -0.2666964 -0.2721517 -0.16243255 -0.023915676 -0.04482399 -0.19116849 -0.16693361
00000000: 42f0 8fbd 53cb 5bbe f922 1abe 3acc 96be
00000010: 383b 81be 726f 82bd 344b 66bc 0187 ffbd
00000020: 10f5 debc 61a7 a7bd 8fdd dcbd 9950 c6bd
00000030: a2ba c4bd cf66 bf3d 2749 7abe cc75 cbbd
00000040: d45a c8be a1e8 6dbe 76b9 83bd 3440 b1bd
00000050: bfb5 b7bd 1779 653e c80d 90bd 138f 93be
00000060: b022 66bd 79d9 27be 1d07 7bbe 8b86 6bbd
00000070: e853 a8be aea0 12bb 8001 70bd 6cef 82be
00000080: 5fd5 d5bd 578c 2abf 3fba 62be da1a ddbd
00000090: 9147 b6be 1d2c afbd fc2e 99bd bc35 84bc
000000a0: 244f 1cbb 9f35 13be c96f 81bd 6959 8bbe
000000b0: e489 68be e847 43be 895f c3be 71aa 96be
000000c0: a283 6ebd 2aae cbbd 9310 abbe 67a2 afbe
000000d0: f892 1abf c28c 60be 388f ccbd fbcb 9ebe
000000e0: c667 92bd aad9 c1be fd33 9bbe 9d14 dfbd
000000f0: 709d 97be 8597 77bd 6aa7 0a3d 7fab cbbd
00000100: 097a 2cbe b6be 3bbe 7cff 45be 66b9 8ebe
00000110: f143 abbe 397f 94be 5082 76be 27e0 3f3e
00000120: 0c82 9abe b768 cebd d360 17be a678 2fbe
00000130: b560 78be 1edd febc f49f 80be dfb1 b7bd
00000140: c4ea 8fbe 5e93 94be b3ee d2b9 0b5f 8fbe
00000150: 2166 65be d1b7 693c 7e72 4cbe 7fba 9abe
00000160: 0192 a7be 9cb3 64bd c6c3 d4be dfbc bbbe
00000170: 8539 cebe 9011 79be 1141 bbbd bfcb 5c3d
00000180: deaf e2bd cbf2 e73d bcc1 71be 8eb9 93be
00000190: 97b2 7ebe 356d bdbe 255c 8ebe 6d85 21bf
000001a0: b7d6 2ebe 2fb2 97be 10ad 63be 14da 0abe
000001b0: e3b4 40bc 4197 05be 3533 e5be d4d0 11bf
000001c0: 34e9 31bd ff59 8ebd 865a 8ebe 85b1 e2bd
000001d0: eab6 82be 94df aebe e174 bf3c 6004 a7bd
000001e0: 9d36 dcbd 6e8c 88be 7857 8bbe b854 26be
000001f0: cfea c3bc 5c99 37bd acc1 43be a5f0 2abe

encoder.3.weight f4 [64, 128]
-0.045578722 -0.0076622656 -0.04380714 0.083873324 0.036243528 0.036556732 -0.0169196 0.02007564
0.08205924 0.03359441 -0.08739796 -0.21530943 -0.00087107916 -0.11907228 -0.020704888 0.022973916
-0.015158486 -0.0560765 0.019322133 -0.093473434 0.055689584 0.007935179 0.06763202 -0.0011141768
-0.1380297 -0.06646441 -0.082306296 0.031378936 0.10216398 -0.07012454 -0.0742861 0.0071085384
0.10503173 -0.059800386 -0.0074895257 0.03159013 0.077782944 -0.011252128 0.029854227 0.012252356
-0.10317083 0.026865572 0.064851366 -0.065193295 0.05719931 -0.021356365 0.08097569 -0.022517262
-0.10105416 -0.060604427 0.02417106 0.012109819 -0.085627936 -0.11316753 0.045604873 0.017938977
0.07851763 0.07264825 0.03839163 0.008115636 0.035236236 -0.06507324 -0.14104156 -0.03391945
0.049861837 -0.060058143 -0.030508175 0.015310908 0.015231151 -0.0042826883 0.0697683 -0.015258442
-0.0028924302 0.030372806 0.011473013 0.0053044534 -0.08734973 -0.0776046 -0.038929768 0.029968746
0.038406648 0.017171083 0.072180524 -0.0015617935 -0.08750822 -0.14880313 -0.08443623 0.02370014
0.0476245 -0.036824238 0.06263848 0.10305042 -0.026249437 0.0694708 -0.008245495 -0.040746454
0.028236464 -0.028097395 0.10155897 0.0036854146 0.029286603 0.010090919 -0.03063329 -0.056346565
0.02999515 -0.009725874 0.049550597 0.009957887 -0.019565623 -0.09879757 -0.005559404 0.120905764
0.0013571994 0.019207196 0.05082075 -0.11232429 -0.08701055 0.115935005 -0.007882217 0.03245903
0.08175768 -0.001700136 0.032646473 0.08739199 -0.06623814 -0.03492643 -0.007155134 -0.03404805
-0.045547362 -0.015357699 0.047572847 -0.013429666 0.05283533 0.024419274 -0.1127437 0.02784617
-0.022465967 0.04800799 0.016409203 0.004349737 0.031194108 -0.17413613 -0.013835245 0.07432735
0.08973422 0.053295806 -0.07012138 -0.020003598 0.109234005 -0.06633169 -0.003650105 0.07178811
-0.061343428 0.029923152 0.08743713 0.011327938 0.062316723 -0.22222653 0.06365361 0.10912377
0.058788102 0.2025999 0.1023445 0.08614834 0.10526381 -0.049738318 -0.021915462 -0.011282488
-0.02676696 0.010434718 0.073280685 0.09612912 -0.044789903 0.107495695 0.11078899 0.11928627
-0.016382042 -0.052338485 0.108818926 0.019004172 0.21789609 -0.051680498 0.1079311 -0.016814612
0.07570782 0.07678258 0.10994875 -0.026916886 0.00810242 0.017263506 -0.10757889 0.095209874
-0.04690298 -0.023469081 -0.03415197 -0.015533636 0.07732112 -0.030698411 0.045451872 -0.23300603
-0.011453878 -0.040184144 0.058501408 0.091948494 0.09678009 -0.014454372 0.040130023 0.01757238
0.08744042 -0.014163815 0.062045354 0.06178506 0.059537124 -0.010370565 0.06099868 0.103482865
0.040938016 -0.02760302 0.058756668 0.12531473 0.014943002 0.051468343 0.025821552 -0.0621573
0.09965951 -0.11631543 -0.023110248 0.008762787 0.023183735 0.09546367 -0.047383312 0.1812468
0.07022487 0.040377732 0.059564054 -0.034202736 0.0653932 0.0049702222 0.039289273 0.02669154
-0.0039674835 -0.047579486 0.013825259 0.09915959 0.044404212 -0.02373966 0.054401178 0.08369127
0.018240146 0.08358326 0.029032234 -0.007640356 -0.13899401 0.06885581 0.11566229 0.087143876
00000000: c1b0 3abd be13 fbbb 1e6f 33bd c7c5 ab3d
00000010: 1874 143d 83bc 153d f99a 8abc ab75 a43c
00000020: ad0e a83d 4b9a 093d b4fd b2bd 137a 5cbe
00000030: 2259 64ba 2bdc f3bd 4c9d a9bc cb33 bc3c
00000040: 4c5b 78bc 79b0 65bd 7349 9e3c 006f bfbd
00000050: c31a 643d 8e02 023c a882 8a3d 9209 92ba
00000060: a857 0dbe 7e1e 88bd 3490 a8bd 3387 003d
00000070: 593b d13d 749d 8fbd 5023 98bd beee e83b
00000080: e01a d73d 40f1 74bd b26a f5bb a764 013d
00000090: aa4c 9f3d d85a 38bc da90 f43c 1bbe 483c
000000a0: 3a4b d3bd 3015 dc3c cbd0 843d 1084 85bd
000000b0: d349 6a3d 8bf3 aebc 95d6 a53d 1f76 b8bc
000000c0: 7cf5 cebd 593c 78bd 6302 c63c 4368 463c
000000d0: b35d afbd 61c4 e7bd 2dcc 3a3d c3f4 923c
000000e0: dacd a03d 9bc8 943d 8b40 1d3d 72f7 043c
000000f0: df53 103d 1e45 85bd 336d 10be 1fef 0abd
00000100: ed3b 4c3d 87ff 75bd 48ec f9bc 9ada 7a3c
00000110: 148c 793c cb55 8cbb afe2 8e3d 8bfe 79bc
00000120: ed8e 3dbb 64d0 f83c 4ef9 3b3c fbd0 ad3b
00000130: 6ae4 b2bd 29ef 9ebd d274 1fbd 0481 f53c
00000140: 4a50 1d3d 5faa 8c3c 62d3 933d 18b5 ccba
00000150: 8237 b3bd d95f 18be e7ec acbd cc26 c23c
00000160: e811 433d 03d5 16bd 9a48 803d 190c d33d
00000170: 0f09 d7bc b546 8e3d 1d18 07bc c1e5 26bd
00000180: 2850 e73c 822c e6bc 26fe cf3d ff86 713b
00000190: 75ea ef3c 6254 253c aaf2 fabc a8cb 66bd
000001a0: 64b8 f53c 4659 1fbc 91f5 4a3d 6826 233c
000001b0: 1648 a0bc 6156 cabd a92b b6bb 719d f73d
000001c0: 0ee4 b13a 6958 9d3c 6b29 503d 470a e6bd
000001d0: 9632 b2bd 556f ed3d 6a24 01bc c3f3 043d
000001e0: 9270 a73d 19d7 deba 4fb8 053d 92fa b23d
000001f0: dda7 87bd 040f 0fbd 9d75 eabb f875 0bbd
00000200: df8f 3abd dc9e 7bbc bfdb 423d 1a08 5cbc
00000210: dc69 583d ee0a c83c 2be6 e6bd a71d e43c
00000220: 8c0a b8bc 07a4 443d 986c 863c 3d88 8e3b
00000230: c98a ff3c be50 32be 39ad 62bc f038 983d
00000240: 93c6 b73d b44c 5a3d cc9b 8fbd 96de a3bc
00000250: 14b6 df3d e9d8 87bd 9a36 6fbb a505 933d
00000260: 3f43 7bbd 6621 f53c 3d12 b33d d198 393c
00000270: d23f 7f3d 5a8f 63be d35c 823d 487c df3d
00000280: cbcb 703d 5976 4f3e fe99 d13d 8a6e b03d
00000290: 8d94 d73d 68ba 4bbd 0e88 b3bc 2fda 38bc
000002a0: 6246 dbbc 61f6 2a3c 2f14 963d 58df c43d
000002b0: 9e75 37bd b426 dc3d 57e5 e23d 5c4c f43d
000002c0: a233 86bc e160 56bd 75dc de3d a3ae 9b3c
000002d0: 2720 5f3e eeae 53bd fb0a dd3d ccbe 89bc
000002e0: b40c 9b3d 2f40 9d3d cf2c e13d cd80 dcbc
000002f0: 03c0 043c 326c 8d3c 5252 dcbd 65fd c23d
00000300: 571d 40bd 3b42 c0bc f0e2 0bbd cb80 7ebc
00000310: 895a 9e3d 3c7b fbbc be2b 3a3d 2299 6ebe
00000320: 0ca9 3bbc 2198 24bd 2c9f 6f3d 7e4f bc3d
00000330: a434 c63d 08d2 6cbc 615f 243d f4f3 8f3c
00000340: f713 b33d 590f 68bc 4523 7e3d 5512 7d3d
00000350: 33dd 733d 4de9 29bc c0d9 793d d3ee d33d
00000360: 9fae 273d bb1f e2bc d5aa 703d 8152 003e
00000370: 7ed3 743c 78d0 523d b887 d33c a798 7ebd
00000380: 491a cc3d c936 eebd b451 bdbc cb91 0f3c
00000390: d1eb bd3c 7582 c33d 0115 42bd c398 393e
000003a0: 0fd2 8f3d 1f63 253d 70f9 733d 2b18 0cbd
000003b0: dfec 853d 3fdd a23b caed 203d 37a8 da3c
000003c0: aa01 82bb b5e2 42bd 5783 623c 2f14 cb3d
000003d0: 31e1 353d ad79 c2bc c5d3 5e3d 5466 ab3d
000003e0: 5c6c 953c b32d ab3d 02d5 ed3c f45b fabb
000003f0: 7254 0ebe 4604 8d3d 5ae0 ec3d 7d78 b23d

encoder.3.bias f4 [64]
-0.22726761 -0.5019908 0.121873245 -0.3166386 -0.31225413 -0.042114154 -0.00059919764 0.016191415
-0.35990793 -0.039350078 0.05402933 -0.1917585 -0.19905792 0.031528514 -0.028942067 -0.015559484
0.108630925 0.07855613 0.096357964 -0.04914822 0.0080692535 0.0813914 -0.08675993 -0.24059711
-0.08754019 -0.0565749 0.0385984 -0.1683327 0.016103515 -0.25311124 0.13531433 -0.20581661
-0.08482897 -0.37152198 0.05054507 -0.051169854 -0.13477926 0.07046519 0.11191946 0.023845896
-0.05099394 0.0062230155 -0.014973927 -0.029080933 -0.17025408 0.063671835 -0.1031905 -0.20773269
-0.014300609 0.109109975 0.06348712 0.012480301 0.07407864 -0.0015618795 -0.091396585 0.06564372
-0.062463433 0.049921576 -0.008197455 -0.18715988 0.06965775 -0.19615775 -0.013968255 0.017032249
00000000: d7b8 68be 7882 00bf ae98 f93d 741e a2be
00000010: c6df 9fbe e47f 2cbd 7913 1dba dca3 843c
00000020: da45 b8be 8c2d 21bd dc4d 5d3d 575c 44be
00000030: d7d5 4bbe 0b24 013d ea17 edbc 35ed 7ebc
00000040: e479 de3d 09e2 a03d 5357 c53d a54f 49bd
00000050: e734 043c 89b0 a63d 31af b1bd 175f 76be
00000060: 4548 b3bd 15bb 67bd 5b19 1e3d 685f 2cbe
00000070: 85eb 833c cc97 81be d78f 0a3e 97c1 52be
00000080: d0ba adbd 2138 bebe 5908 4f3d 7b97 51bd
00000090: 9303 0abe 0e50 903d 0836 e53d 7858 c33c
000000a0: 06df 50bd 70ea cb3b 3455 75bc 233b eebc
000000b0: 1657 2ebe 6166 823d 8a55 d3bd e1b7 54be
000000c0: 1a4d 6abc 0d75 df3d 8905 823d 2d7a 4c3c
000000d0: 8bb6 973d fbb7 ccba 222e bbbd 3770 863d
000000e0: a8d9 7fbd 917a 4c3d 9e4e 06bc d7a6 3fbe
000000f0: b9a8 8e3d 94dd 48be 1cdb 64bc 3787 8b3c

encoder.6.weight f4 [32, 64]
0.015621088 0.085771576 -0.020194372 0.040791277 0.10361498 -0.05111109 -0.100090094 -0.015173919
0.1278195 -0.14667632 -0.022501795 0.09703885 0.06594458 -0.043626368 0.01953706 -0.0011170692
-0.12385934 -0.14883244 0.031185543 0.09403733 0.003916888 0.043451834 0.04430324 0.062201656
0.11812634 0.017184176 -0.13794212 -0.17419791 0.036862433 -0.18523735 -0.018833604 0.09044252
0.07392646 0.10219905 -0.032691065 -0.13767442 -0.013365136 -0.0818787 0.0041709905 0.10170143
-0.005177789 -0.053796 0.00048137765 0.018840674 0.030046409 -0.026257932 -0.09832575 0.10604988
-0.12585492 -0.08066277 -0.02821379 0.03737835 -0.07806043 0.028345784 0.059065435 -0.14659184
0.1295831 -0.09934908 0.04695532 -0.013889072 -0.15191782 -0.04007212 0.114600986 -0.18921956
0.113787346 0.015636127 -0.043113288 0.054419443 0.14820096 -0.10383012 0.09636981 0.07752715
-0.04340981 -0.033222966 -0.10353351 0.09093626 -0.09364661 0.11559759 0.09246114 0.060391642
0.02467269 -0.030812422 -0.13456519 -0.014517728 0.12608163 -0.15587418 -0.09178204 -0.056933817
-0.12483367 0.009088253 -0.08518381 0.13493948 -0.12404357 -0.07543521 -0.016070215 -0.044465505
0.0054801623 0.007274843 0.069551185 0.13818046 -0.10010111 0.0006335952 -0.11551568 -0.009961364
0.018598393 0.019792192 -0.043676496 -0.12101824 0.05975742 0.07687783 -0.09381974 0.055948075
0.041595243 0.08986591 0.025501767 -0.03141066 0.1271759 0.052128173 -0.03340511 0.08856244
0.019881392 0.04539829 0.10968769 0.023446402 0.11323422 -0.09261536 -0.12120226 -0.031805713
0.078502655 0.14327888 -0.080433965 -0.02952362 0.10927619 -0.016054101 0.05037707 -0.0303988
-0.035299275 0.13113792 -0.0875724 0.08446957 0.011377543 0.06362285 -0.09716288 -0.043627474
-0.034319248 -0.037222106 -0.06810585 -0.06388412 0.13754992 -0.14457643 -0.032797653 -0.1468149
-0.10458002 -0.14504309 0.05263316 0.1419668 -0.13115288 -0.061924007 0.13847697 0.11915074
0.046364885 0.0811763 0.09487873 0.15069467 -0.095233984 0.014733873 -0.026651315 0.13906945
-0.108475655 0.1144158 -0.2941861 -0.09277655 0.053786483 0.10947491 0.15647483 0.15312432
0.013467116 0.1263619 0.054185286 0.13934897 -0.059775066 -0.14840592 -0.16311505 -0.039049923
-0.048205152 0.018677989 0.08872562 0.16969538 0.009676396 -0.07319267 -0.15157372 0.06517671
0.019817125 0.1798973 -0.026403068 -0.050848443 0.057235695 -0.14896147 0.02517455 0.019957231
0.07762096 0.15191023 -0.09264933 0.025783492 -0.08353576 -0.08566246 0.13950971 0.09320577
0.061588224 -0.0707534 -0.0012816612 -0.10333293 0.014339705 -0.059092615 -0.13322708 -0.13723986
-0.05859007 -0.0032173598 0.0886373 -0.029983427 -0.0040616733 0.02234566 0.0016508662 0.06664274
-0.15292387 0.1235602 -0.02309237 0.16388887 -0.16612302 -0.049022052 0.0041063307 0.14305905
-0.08514586 0.028347105 -0.15290375 -0.09374187 0.07841943 -0.020394828 0.031068584 0.14807895
-0.07238526 0.06491813 0.048664857 0.038888775 0.03464834 -0.16038187 -0.1259234 0.076795496
0.12467595 0.11218184 0.10351545 -0.017730473 0.040211365 0.0007004177 -0.17045483 -0.0805318
00000000: 98ef 7f3c 02a9 af3d ab6e a5bc c114 273d
00000010: 1734 d43d dd59 51bd 09fc ccbd 079c 78bc
00000020: 1de3 023e 5132 16be af55 b8bc 4ebc c63d
00000030: f40d 873d 90b1 32bd 2f0c a03c 9f6a 92ba
00000040: f7a9 fdbd 8867 18be d378 ff3c a596 c03d
00000050: 3d59 803b 8dfa 313d 5077 353d 2ac7 7e3d
00000060: 39ec f13d d4c5 8c3c b340 0dbe f060 32be
00000070: 10fd 163d dcae 3dbe ee48 9abc ee39 b93d
00000080: c266 973d bc4d d13d 11e7 05bd 86fa 0cbe
00000090: 72f9 5abc 05b0 a7bd ceac 883b d748 d03d
000000a0: 71aa a9bb 3259 5cbd 6a61 fc39 c257 9a3c
000000b0: e323 f63c e01a d7bc 035f c9bd ae30 d93d
000000c0: 1de0 00be 8632 a5bd 9b20 e7bc 0a1a 193d
000000d0: 26de 9fbd 6b35 e83c 99ee 713d 2c1c 16be
000000e0: 6fb1 043e 8877 cbbd 3954 403d fe8e 63bc
000000f0: 5890 1bbe aa22 24bd ecb3 ea3d c6c2 41be
00000100: 5709 e93d 5617 803c 8f97 30bd ece6 5e3d
00000110: fec1 173e e3a4 d4bd 895d c53d 8ec6 9e3d
00000120: 7cce 31bd ce14 08bd 6009 d4bd ca3c ba3d
00000130: cbc9 bfbd 6ebe ec3d 445c bd3d 3a5d 773d
00000140: 621e ca3c 556a fcbc 75cb 09be c4db 6dbc
00000150: 8b1b 013e 7b9d 1fbe 39f8 bbbd 6f33 69bd
00000160: cca8 ffbd e5e6 143c d974 aebd 932d 0a3e
00000170: 8e0a febd c67d 9abd afa5 83bc 7621 36bd
00000180: ef92 b33b ce61 ee3b da70 8e3d 2e7f 0d3e
00000190: d001 cdbd db17 263a 7c93 ecbd fd34 23bc
000001a0: a85b 983c 3c23 a23c 20e6 32bd 69d8 f7bd
000001b0: 32c4 743d 2072 9d3d 9024 c0bd cf29 653d
000001c0: c65f 2a3d 9e0b b83d 15e9 d03c 77a8 00bd
000001d0: 663a 023e 5a84 553d ccd3 08bd 3960 b53d
000001e0: 4dde a23c 8ff3 393d f1a3 e03d ab12 c03c
000001f0: 58e7 e73d 1fad bdbd e438 f8bd b546 02bd
00000200: 00c6 a03d b3b7 123e 90ba a4bd 85db f1bc
00000210: 32cc df3d e483 83bc 3058 4e3d e706 f9bc
00000220: f995 10bd 0549 063e 2959 b3bd 62fe ac3d
00000230: e068 3a3c b24c 823d 55fd c6bd b9b2 32bd
00000240: 5792 0cbd 3576 18bd 147b 8bbd add5 82bd
00000250: e3d9 0c3e d80b 14be d556 06bd a556 16be
00000260: 0d2e d6bd 2d86 14be de95 573d bf5f 113e
00000270: f14c 06be 07a4 7dbd e8cc 0d3e 4e05 f43d
00000280: 1be9 3d3d c33f a63d c84f c23d b44f 1a3e
00000290: 090a c3bd 5866 713c dc53 dabc 3968 0e3e
000002a0: 7c28 debd d552 ea3d 8f9f 96be a201 bebd
000002b0: 374f 5c3d 6234 e03d f03a 203e 9fcc 1c3e
000002c0: 2ea5 5c3c 0465 013e 64f1 5d3d 7fb1 0e3e
000002d0: b3d6 74bd b9f7 17be a207 27be d0f2 1fbd
000002e0: c472 45bd 9502 993c c7b5 b53d a0c4 2d3e
000002f0: bf89 1e3c 0ae6 95bd 2436 1bbe 5e7b 853d
00000300: 8657 a23c ff36 383e 3f4b d8bc 7546 50bd
00000310: fa6f 6a3d 5b89 18be dc3a ce3c 597d a33c
00000320: bdf7 9e3d 5b8e 1b3e efbe bdbd e737 d33c
00000330: cc14 abbd cd6f afbd a2db 0e3e abe2 be3d
00000340: ef43 7c3d 29e7 90bd 6afd a7ba 37a0 d3bd
00000350: 15f1 6a3c 190b 72bd ae6c 08be 9b88 0cbe
00000360: 24fc 6fbd 57da 52bb 7987 b53d ce9f f5bc
00000370: c917 85bb 3f0e b73c e161 d83a fd7b 883d
00000380: 1398 1cbe 210d fd3d 362c bdbc 7cd2 273e
00000390: 271c 2abe 59cb 48bd 668e 863b 127e 123e
000003a0: f460 aebd 3038 e83c cd92 1cbe bdfb bfbd
000003b0: 5e9a a03d 0e13 a7bc 8b83 fe3c 02a2 173e
000003c0: b93e 94bd ccf3 843d cd54 473d d649 1f3d
000003d0: 6beb 0d3d 253b 24be 10f2 00be f546 9d3d
000003e0: 1b56 ff3d 98bf e53d e9ff d33d 7f3f 91bc
000003f0: acb4 243d 3c9c 373a b68b 2ebe dbed a4bd

encoder.6.bias f4 [32]
0.026354428 0.0063181226 0.10217322 0.03430707 -0.14439823 0.08505254 0.014719896 0.087975666
0.04808605 0.114782706 0.067699336 0.017839253 0.07189205 0.054681055 0.07466987 0.11387687
0.08030001 0.111196205 -0.033159498 0.0153481215 0.079009734 -0.06715821 -0.067854986 0.09534694
0.07155571 -0.0026263853 0.035983633 0.100323364 0.043400314 0.061581183 0.05585024 -0.037065856
00000000: 3ee5 d73c 4108 cf3b 3140 d13d 9285 0c3d
00000010: 21dd 13be 0730 ae3d b82b 713c 962c b43d
00000020: e1f5 443d 3213 eb3d f3a5 8a3d a023 923c
00000030: 243c 933d 3ef9 5f3d 84ec 983d 4738 e93d
00000040: 5574 a43d d6ba e33d 41d2 07bd b076 7b3c
00000050: dbcf a13d 3e8a 89bd 8ef7 8abd 4245 c33d
00000060: cd8b 923d 6f1f 2cbb 9363 133d 5676 cd3d
00000070: 87c4 313d 8d3c 7c3d 39c3 643d 5ed2 17bd

encoder.9.weight f4 [1, 32]
-0.17548402 0.17274325 0.11007917 0.15059206 0.19401167 0.15675843 -0.098132774 -0.08404562
0.15538076 0.08269005 -0.13805188 -0.18004318 0.1719697 0.14032146 -0.10224442 0.1078337
-0.09769484 0.13562098 -0.13864246 -0.110990316 -0.13966915 -0.16680078 -0.111640856 0.167754
0.10504901 0.14609861 0.16306813 0.16469203 0.16813876 0.081293575 0.11805332 -0.14988296
00000000: 15b2 33be 9be3 303e 3071 e13d ce34 1a3e
00000010: ffaa 463e 4885 203e d6f9 c8bd 1c20 acbd
00000020: 221c 1f3e 6759 a93d 795d 0dbe 3d5d 38be
00000030: d318 303e 6eb0 0f3e 8665 d1bd ead7 dc3d
00000040: 3b14 c8bd 3ae0 0a3e 4af8 0dbe e44e e3bd
00000050: 6e05 0fbe d3cd 2abe f6a3 e4bd b4c7 2b3e
00000060: ef23 d73d e09a 153e 55fb 263e 07a5 283e
00000070: 912c 2c3e 3f7d a63d f0c5 f13d eb7a 19be

decoder.0.weight f4 [32, 1]
-0.5901461 -0.16102485 0.71539444 -0.97297174 0.33541664 -0.81983024 0.3066987 0.87640274
0.50485706 0.19700848 0.75509596 0.43720284 -0.9075621 -0.16860874 0.29041886 -0.980735
0.7663149 0.9560089 0.7912415 0.612395 -0.050456487 -0.12329854 0.409318 0.19932565
-0.041274093 -0.90305287 -0.05744974 -0.51992583 0.99790454 -0.65440077 0.26843655 0.590742
00000000: d113 17bf b3e3 24be 1724 373f ad14 79bf
00000010: bbbb ab3e 65e0 51bf 9d07 9d3e ee5b 603f
00000020: 503e 013f 97bc 493e f84d 413f 0dd9 df3e
00000030: fd55 68bf c5a7 2cbe c8b1 943e 7311 7bbf
00000040: 372d 443f 00bd 743f ce8e 4a3f ebc5 1c3f
00000050: 76ab 4ebd f283 fcbd 2192 d13e 061c 4c3e
00000060: 060f 29bd 792e 67bf 6b50 6bbd dc19 05bf
00000070: ac76 7f3f cf86 27bf 8470 893e de3a 173f

decoder.0.bias f4 [32]
0.9348318 -0.30058354 0.33406416 -0.13572887 -0.51601326 0.8110984 0.1997783 0.9627127
0.6802662 -0.2690685 0.4443876 0.30827647 0.66320133 -0.93124163 0.036776725 -0.17711814
0.14246912 1.0570301 0.6954673 0.12543374 -0.64316714 -0.59398955 -0.103447415 0.79121476
0.96413374 -0.16413854 1.049621 0.5199748 0.15559013 -0.5312503 0.60383606 -0.36699298
00000000: 2351 6f3f 16e6 99be 750a ab3e 82fc 0abe
00000010: 7219 04bf 25a4 4f3f af92 4c3e 5774 763f
00000020: ed25 2e3f 59c3 89be c686 e33e 6ad6 9d3e
00000030: 90c7 293f da65 6ebf 31a3 163d 755e 35be
00000040: 6de3 113e c34c 873f 250a 323f b471 003e
00000050: 9aa6 24bf b30f 18bf 3ddc d3bd 0d8d 4a3f
00000060: 78d1 763f ef13 28be fb59 863f 121d 053f
00000070: 0553 1f3e 0500 08bf 0095 1a3f 81e6 bbbe

decoder.2.weight f4 [64, 32]
-0.011510133 -0.0038068455 -0.14098252 -0.15568665 0.044241 0.14028189 -0.09831329 -0.14362536
0.15015659 -0.11730996 0.027868051 0.08276258 -0.005462315 -0.14955756 -0.27013633 -0.011509473
-0.21929353 0.14733446 -0.08463687 0.033351216 -0.22254013 -0.010939368 -0.26713678 0.15745518
-0.020790903 0.10564879 0.16775231 0.07963675 -0.23189127 -0.13077545 -0.12512127 -0.08884728
0.012275037 0.0152399745 0.14383097 0.04059656 0.15105295 -0.088777594 0.0968055 -0.022797761
0.0034969372 0.18526378 0.00078391354 0.18753122 -0.1303338 0.033316705 -0.08417031 0.12564927
0.16849065 -0.05269283 0.04985206 0.013275377 0.040018007 -0.1503823 -0.08659613 0.025030581
-0.15038991 -0.13336153 -0.11346648 -0.0062459945 0.05211345 -0.0254604 0.13489825 -0.04234904
-0.09141474 -0.1742173 0.1672488 0.053515643 -0.082615405 -0.093398534 0.056206018 -0.073500074
0.05584538 -0.075466245 0.011069939 0.09089975 -0.15492812 -0.17609933 -0.12884426 -0.040062204
0.037407756 0.037554905 -0.022818655 -0.1353758 -0.15009445 -0.10471287 -0.034382492 -0.1370087
0.08281018 0.017147154 -0.111676544 -0.073574364 -0.09958141 0.10113369 -0.04689601 0.10796873
0.06377438 0.16120574 0.11491923 -0.07990754 0.019055525 0.02912307 -0.045053773 -0.1165068
0.018891785 -0.05025815 -0.018114978 -0.13874845 -0.059117313 0.50007033 0.044087756 0.11758737
-0.017814357 0.10752904 0.035632454 0.02230893 0.63324374 0.18247998 -0.0373773 0.13779847
-0.061702576 -0.12181212 0.15664147 0.026445435 -0.08775356 0.11493608 0.20478831 -0.028058188
-0.11326623 0.06641133 -0.4557569 0.15277396 -0.12338291 0.0818461 0.02292133 -0.015338241
0.3079866 0.14325057 -0.14841564 -0.1256485 0.17963785 0.14323528 -0.072465 -0.12613477
-0.04562153 -0.046500415 -0.24654464 -0.06486849 0.12704869 -0.11080184 -0.12864721 0.098154604
-0.007511006 0.13617581 0.07256515 0.012276431 0.111907214 0.07540478 0.099370725 -0.10104962
-0.10553109 0.14718631 -0.058109116 -0.18343315 -0.1669292 -0.1453049 0.11367468 -0.12891994
0.10339506 0.08203221 0.15496875 0.04020817 -0.13649382 0.174444 0.08889266 0.02312208
0.06415454 0.14931256 0.060110703 -0.020246584 -0.103051364 -0.053346507 0.0996001 0.13588065
-0.062643886 -0.14785782 0.028687906 -0.16836284 0.024236763 0.06298641 0.15760128 0.09215137
0.10338414 -0.0019987114 -0.068609096 -0.060741384 -0.00877275 0.10964197 0.11802459 0.05900393
-0.00058088434 0.10915981 0.05986784 -0.20341314 0.1746627 -0.072326615 -0.34858277 0.112143755
-0.22592458 -0.11178076 0.07785978 -0.2618346 -0.42300743 0.07421633 0.13218753 -0.039221287
0.08548813 -0.16958927 0.1924932 -0.12642352 -0.035213027 0.09738177 -0.118810356 -0.0477612
-0.43360272 -0.0007069707 0.032911185 -0.08429496 -0.014276429 -0.5408388 0.07396497 0.14663184
0.016533136 0.10513786 -0.11566999 -0.08707007 -0.011310494 -0.11943563 -1.2433637e-05 0.009895831
0.0030765163 0.11666936 0.18046397 0.19001509 -0.07063428 -0.10993535 0.19929112 0.02420699
-0.15002064 0.008248448 -0.16358668 -0.3746527 0.11123614 0.11348511 -0.08017823 0.017787017
00000000: ff94 3cbc 457c 79bb b95d 10be 526c 1fbe
00000010: 0d36 353d 0ea6 0f3e 7a58 c9bd 8712 13be
00000020: a6c2 193e 3440 f0bd 8a4b e43c 6d7f a93d
00000030: 38fd b2bb 9e25 19be 4f4f 8abe 3b92 3cbc
00000040: 7c8e 60be d8de 163e 1856 adbd 499b 083d
00000050: 8fe1 63be 093b 33bc 27c6 88be ee3b 213e
00000060: af51 aabc 655e d83d 43c7 2b3e 9818 a33d
00000070: e874 6dbe 00ea 05be ca1f 00be 90f5 b5bd
00000080: 3d1d 493c 16b1 793c 6d48 133e 9448 263d
00000090: a0ad 1a3e 07d1 b5bd f641 c63d 5fc2 babc
000000a0: df2c 653b cab5 3d3e 8c7f 4d3a 2f08 403e
000000b0: 3976 05be 1977 083d 7c61 acbd 34aa 003e
000000c0: d088 2c3e 70d4 57bd ac31 4c3d f880 593c
000000d0: ece9 233d d1fd 19be 5059 b1bd ef0c cd3c
000000e0: d0ff 19be ed8f 08be 1d61 e8bd 33ab ccbb
000000f0: ea74 553d 5492 d0bc c422 0a3e 3076 2dbd
00000100: a737 bbbd 0566 32be 4543 2b3e 3833 5b3d
00000110: 4432 a9bd bb47 bfbd 4838 663d 3587 96bd
00000120: 20be 643d 0c8e 9abd b05e 353c a629 ba3d
00000130: 7aa5 1ebe 6253 34be c0ef 03be 4418 24bd
00000140: e038 193d 2cd3 193d 30ee babc f49f 0abe
00000150: 5cb2 19be b473 d6bd a8d4 0cbd 024c 0cbe
00000160: 6298 a93d 3078 8c3c acb6 e4bd 28ae 96bd
00000170: 57f1 cbbd 2e1f cf3d 0816 40bd b61e dd3d
00000180: 249c 823d 1e13 253e c65a eb3d 90a6 a3bd
00000190: 551a 9c3c 8193 ee3c 4e8a 38bd 1e9b eebd
000001a0: f2c2 9a3c 7ddb 4dbd dd65 94bc 1314 0ebe
000001b0: ff24 72bd 9c04 003f 5d95 343d a6d1 f03d
000001c0: 6aef 91bc 2f38 dc3d 56f3 113d 38c1 b63c
000001d0: 431c 223f 08dc 3a3e f118 19bd 0b1b 0d3e
000001e0: d7bb 7cbd a278 f9bd 9f66 203e 19a4 d83c
000001f0: 23b8 b3bd 9c63 eb3d 07b4 513e 49da e5bc
00000200: 20f8 e7bd aa02 883d f858 e9be c770 1c3e
00000210: 2eb0 fcbd ee9e a73d 83c5 bb3c 3f4d 7bbc
00000220: 6bb0 9d3e 47b0 123e 45fa 17be 00aa 00be
00000230: fcf2 373e 45ac 123e 8868 94bd 7929 01be
00000240: a4dd 3abd 3877 3ebd 3376 7cbe c5d9 84bd
00000250: 0d19 023e 13ec e2bd 18bc 03be 4805 c93d
00000260: e31e f6bb ac71 0b3e 0a9d 943d 1523 493c
00000270: 9c2f e53d d26d 9a3d e182 cb3d 1af3 cebd
00000280: af20 d8bd 02b8 163e d303 6ebd e6d5 3bbe
00000290: 7def 2abe cfca 14be 45ce e83d 9703 04be
000002a0: cac0 d33d 8100 a83d 21b0 1e3e 52b1 243d
000002b0: 09c5 0bbe 73a1 323e 5b0d b63d 846a bd3c
000002c0: 7563 833d 64e5 183e a436 763d 2adc a5bc
000002d0: 980c d3bd de81 5abd 23fb cb3d 4c24 0b3e
000002e0: 704b 80bd 0a68 17be e602 eb3c 4f67 2cbe
000002f0: 2d8c c63c 05ff 803d 3b62 213e dcb9 bc3d
00000300: 10bb d33d d0fc 02bb ed82 8cbd f5cb 78bd
00000310: 95bb 0fbc f88b e03d e0b6 f13d 1bae 713d
00000320: 7d46 18ba 2e8f df3d fb37 753d 894b 50be
00000330: c7da 323e fa1f 94bd 7179 b2be a0ab e53d
00000340: c658 67be 50ed e4bd f374 9f3d 2f0f 86be
00000350: 6e94 d8be bbfe 973d 2b5c 073e 80a6 20bd
00000360: 6714 af3d cfa8 2dbe f01c 453e 2b75 01be
00000370: 893b 10bd 1870 c73d d852 f3bd 40a1 43bd
00000380: 2d01 debe 0054 39ba e1cd 063d d6a2 acbd
00000390: afe7 69bc 6974 0abf f27a 973d a826 163e
000003a0: 8070 873c 8552 d73d 63e4 ecbd cb51 b2bd
000003b0: a64f 39bc ab9a f4bd 109a 50b7 2022 223c
000003c0: 619f 493b 58f0 ee3d 8ccb 383e 5193 423e
000003d0: b5a8 90bd c925 e1bd f912 4c3e bd4d c63c
000003e0: 039f 19be 8024 073c 4483 27be 7bd2 bfbe
000003f0: c6cf e33d e26a e83d 7c34 a4bd 14b6 913c

decoder.2.bias f4 [64]
0.15148826 -0.14694002 0.039909035 0.108821705 -0.08596347 0.16236141 -0.08857814 -0.00647005
-0.009691982 0.10034617 0.10498549 0.18213713 0.110653594 0.31419381 -0.004064601 0.17991717
0.16428007 0.098169364 -0.09246669 0.17376818 -0.10400683 0.13404177 0.06529009 -0.007448268
0.19582793 -0.0726528 -0.06988137 0.09461878 -0.022093508 -0.035928242 -0.1480726 -0.093544856
0.015147095 -0.043023404 0.10436252 -0.09396499 0.07915658 0.07329842 -0.0007793388 0.070019074
-0.08432696 -0.022395687 -0.052810103 -0.1463587 0.11845479 0.018236931 0.2029855 -0.10056121
0.1903249 0.056432158 -0.11418828 -0.07343502 -0.047164965 0.04898667 -0.1453052 -0.007650757
-0.18866347 -0.0404968 -0.098709665 0.18838057 -0.010037973 0.12433433 0.27639604 0.12462488
00000000: bd1f 1b3e 7277 16be a877 233d eadd de3d
00000010: 9e0d b0bd 1242 263e 7568 b5bd b702 d4bb
00000020: 1ecb 1ebc 4b82 cd3d a202 d73d 2882 3a3e
00000030: 5a9e e23d 03de a03e 5830 85bb 353c 383e
00000040: 0939 283e 050d c93d 2d5f bdbd 49f0 313e
00000050: 8801 d5bd 3f42 093e d0b6 853d 9a10 f4bb
00000060: 1e87 483e feca 94bd f71d 8fbd 7ec7 c13d
00000070: 72fd b4bc 7e29 13bd 58a0 17be 7294 bfbd
00000080: 852b 783c 4f39 30bd 04bc d53d b770 c0bd
00000090: d81c a23d 7b1d 963d 8b4c 4cba 2966 8f3d
000000a0: 9db3 acbd 2977 b7bc 684f 58bd 0edf 15be
000000b0: 6d98 f23d 9e65 953c 6edb 4f3e 09f3 cdbd
000000c0: 88e4 423e 6825 673d 8cdb e9bd 1a65 96bd
000000d0: 0d30 41bd 3fa6 483d e3ca 14be 34b3 fabb
000000e0: ff30 41be f9df 25bd 4b28 cabd d6e6 403e
000000f0: 4f76 24bc ffa2 fe3d c883 8d3e 543b ff3d

decoder.4.weight f4 [128, 64]
-0.005393319 -0.009401724 0.11716358 0.062022857 -0.19515479 0.10437773 -0.17491938 0.06188913
0.10506797 -0.011107033 -0.107030645 0.01973019 0.16752805 0.0066276416 0.09850755 -0.09123503
-0.028935932 0.02996597 -0.08510117 0.03509724 -0.08323364 -0.06943638 0.113781385 -0.08392143
0.11902258 0.0071329065 -0.1947683 -0.07931285 -0.10758485 -0.041831534 0.042331964 0.09036979
-0.42864135 0.023056094 -0.020428391 -0.097503744 0.044090007 -0.007778704 -0.020265067 -0.15363729
-0.08977514 -0.08168237 0.113410175 0.087370515 -0.044971995 0.10714407 0.06822064 -0.013420816
0.071031325 0.10921559 -0.05501762 -0.038994152 0.09703916 -0.17740908 0.026263284 -0.08087061
0.08980107 0.029279238 0.045355782 -0.4457997 0.04898877 -0.03978227 0.08299637 -0.20369816
0.059613016 0.06639581 -0.05913335 0.11577454 -0.106675565 -0.106784314 0.14111704 0.07191332
-0.047812525 0.016984941 -0.031150386 -0.025345631 -0.16647302 0.10855264 0.013081127 0.056819007
0.08087636 0.05256752 -0.07686383 -0.10874063 -0.015440837 -0.10762076 -0.00429484 0.045784596
-0.11043936 0.013089523 0.0959999 0.08623578 0.008236033 -0.019137023 -0.08844294 0.01762621
0.05972722 0.008440298 0.010777164 -0.036693905 -0.017123876 -0.02964495 0.027347954 0.004117817
0.05149486 -0.08603807 -0.084125005 0.076366894 -0.08879168 0.014466947 -0.09291949 0.1102828
0.08745958 -0.1262949 0.11994493 0.010020894 -0.0013371722 -0.09250816 0.029453395 -0.010057682
-0.11129119 0.11978837 -0.052950375 0.06840682 -0.06767702 0.001603734 -0.03547568 0.02063673
0.023707733 0.11838577 -0.098829105 -0.07284658 0.07665478 -0.047834 0.075673595 0.14767136
0.07207865 -0.1002061 -0.0697086 -0.0050388244 -0.16200957 -0.11544376 0.040367804 0.07015158
0.08138909 0.12328287 0.0058924966 0.08345148 -0.022290185 0.07268158 -0.111100845 -0.09195323
0.07176408 -0.12910466 -0.0038171117 -0.022710238 0.06097522 0.083479 0.09946151 -0.01784484
0.03380356 -0.12849504 0.025347512 -0.00970216 0.01282909 0.005141932 0.12541807 0.07108519
-0.009900593 0.079795696 -0.12286905 0.027868966 -0.10578064 -0.02749212 0.046278436 0.031081408
-0.027908668 -0.11864885 -0.11083093 0.10679123 0.0365761 -0.029118465 0.04091026 -0.08846446
-0.086963125 -0.016525617 0.020317456 0.09822118 -0.06025934 0.12723497 0.10424479 -0.005074704
-0.08579427 -0.05336214 -0.057475135 -0.037308246 -0.1071236 -0.07301906 0.08913387 -0.07571376
-0.0028361615 -0.06433789 -0.10717623 0.13648158 -0.14205594 0.06570724 0.0155992815 -0.14205186
0.06588688 0.104440145 -0.04671759 0.05136305 0.06507641 -0.0041686515 0.10807455 -0.0023957011
0.024756161 0.04136226 0.096183896 -0.1542253 0.07604934 -0.06260788 -0.06703457 -0.09237235
0.023746645 -0.119387016 -0.06849175 0.05598075 0.14978789 -0.03991276 0.06876574 0.11060085
0.016189137 0.062058855 -0.04713484 0.0026852435 -0.09672258 0.07591622 -0.052948356 -0.023854254
0.1432463 0.02013148 -0.06189157 -0.036644995 -0.0668318 0.014525407 -0.008101024 -0.017112786
0.056913614 0.041557122 -0.008998956 0.09871103 0.09197123 0.11190365 -0.008702322 0.14203344
00000000: 70ba b0bb b009 1abc 76f3 ef3d ae0b 7e3d
00000010: a8d6 47be fec3 d53d 111e 33be 757f 7d3d
00000020: e02d d73d 46fa 35bc e232 dbbd 35a1 a13c
00000030: 798c 2b3e b02c d93b 54be c93d 6ed9 babd
00000040: 0c0b edbc 327b f53c 8649 aebd 20c2 0f3d
00000050: 6676 aabd a934 8ebd 3706 e93d 00df abbd
00000060: 1cc2 f33d 28bb e93b 5771 47be c76e a2bd
00000070: 7255 dcbd 8b57 2bbd 4864 2d3d cc13 b93d
00000080: e176 dbbe 22e0 bc3c 7159 a7bc 0bb0 c7bd
00000090: b997 343d 80e4 febb ed02 a6bc 1853 1dbe
000000a0: 07dc b7bd 1649 a7bd 9843 e83d 50ef b23d
000000b0: 8e34 38bd 5a6e db3d 43b7 8b3d fbe2 5bbc
000000c0: df78 913d 6cac df3d 285a 61bd 55b8 1fbd
000000d0: 78bc c63d baaa 35be 1926 d73c 7e9f a5bd
000000e0: a0e9 b73d 03db ef3c fcc6 393d dc3f e4be
000000f0: 73a8 483d bcf2 22bd 00fa a93d 4096 50be
00000100: c72c 743d 87fa 873d d035 72bd 341b ed3d
00000110: b878 dabd bcb1 dabd fc80 103e 4a47 933d
00000120: 11d7 43bd 0124 8b3c 182f ffbc a4a1 cfbc
00000130: e777 2abe d950 de3d 3952 563c 0cbb 683d
00000140: 81a2 a53d 0a51 573d c96a 9dbd 68b3 debd
00000150: 90fb 7cbc 4668 dcbd bbbb 8cbb a188 3b3d
00000160: 082e e2bd 7075 563c 989b c43d 629c b03d
00000170: 6df0 063c 3fc5 9cbc 9221 b5bd d764 903c
00000180: 88a4 743d 2d49 0a3c b492 303c 594c 16bd
00000190: 5f47 8cbc f7d9 f2bc d108 e03c c1ee 863b
000001a0: 46ec 523d ba34 b0bd bb49 acbd 3f66 9c3d
000001b0: 6ad8 b5bd c606 6d3c 934c bebd f3db e13d
000001c0: 021e b33d 7353 01be b0a5 f53d ad2e 243c
000001d0: 0e44 afba eb74 bdbd 3f48 f13c fac8 24bc
000001e0: a3ec e3bd 9b53 f53d 7ee2 58bd e018 8c3d
000001f0: 409a 8abd 6234 d23a f24e 11bd 5c0e a93c
00000200: b836 c23c 3d74 f23d ea66 cabd 9630 95bd
00000210: 2efd 9c3d 96ed 43bd c2fa 9a3d 2937 173e
00000220: f99d 933d db38 cdbd 62c3 8ebd b91c a5bb
00000230: d6e5 25be c76d ecbd b658 253d a2ab 8f3d
00000240: 53af a63d bb7b fc3d d815 c13b 9ce8 aa3d
00000250: e899 b6bc 15da 943d d788 e3bd fa51 bcbd
00000260: 0cf9 923d 0334 04be 8228 7abb d20a babc
00000270: 27c1 793d 0af7 aa3d 7ab2 cb3d 582f 92bc
00000280: 9a75 0a3d 3494 03be 96a5 cf3c cff5 1ebc
00000290: 1a31 523c a77d a83b 986d 003e 1d95 913d
000002a0: 1936 22bc ed6b a33d c5a2 fbbd 754d e43c
000002b0: 85a3 d8bd 2837 e1bc 758e 3d3d 709e fe3c
000002c0: b8a0 e4bc 2bfe f2bd 54fb e2bd 5cb5 da3d
000002d0: d2d0 153d d989 eebc 8491 273d db2c b5bd
000002e0: b919 b2bd bb60 87bc cb70 a63c 3028 c93d
000002f0: 7fd2 76bd e249 023e 4b7e d53d b449 a6bb
00000300: e8b4 afbd 4292 5abd 0c6b 6bbd 88d0 18bd
00000310: 9e63 dbbd 048b 95bd d28b b63d d10f 9bbd
00000320: e5de 39bb 95c3 83bd 367f dbbd d4c1 0b3e
00000330: 1d77 11be 8491 863d 2194 7f3c 0b76 11be
00000340: b3ef 863d b7e4 d53d f25a 3fbd 1062 523d
00000350: c846 853d 2f99 88bb 3156 dd3d 3201 1dbb
00000360: 6fcd ca3c 796b 293d 10fc c43d 3ded 1dbe
00000370: c2bf 9b3d 8f38 80bd 6c49 89bd b72d bdbd
00000380: 5388 c23c 2e81 f4bd 6745 8cbd 124c 653d
00000390: ff61 193e 907b 23bd 0dd5 8c3d b382 e23d
000003a0: 159f 843c 6d31 7e3d 7610 41bd e9fa 2f3b
000003b0: 7d16 c6bd f779 9b3d 60e0 58bd ff69 c3bc
000003c0: 28af 123e c6ea a43c 0482 7dbd 1019 16bd
000003d0: 1cdf 88bd f9fb 6d3c 28ba 04bc 1d30 8cbc
000003e0: 401e 693d cd37 2a3d 5b70 13bc 0229 ca3d
000003f0: 6a5b bc3d be2d e53d 2f94 0ebc 3771 113e

decoder.4.bias f4 [128]
0.09110142 0.0667529 -0.10802988 0.15476285 -0.014128923 -0.030387828 0.01827279 -0.05990547
0.096807 0.42295748 0.06146492 0.123256095 -0.019519161 0.06743408 0.10084788 -0.0020558157
0.15519302 0.07328899 -0.11877674 0.12272428 -0.019190673 -0.05221075 -0.018622532 0.18757173
-0.040465984 0.09770249 -0.08157106 0.115834825 0.03751622 0.015645906 0.012964708 0.0061781164
0.13313416 0.11332281 -0.099078946 -0.054908257 0.07964535 -0.036181677 0.017824858 -0.12598866
0.08383407 0.034833383 0.060941234 0.047591258 0.07869995 0.068647906 0.11554546 0.15323278
-0.107097715 -0.07949656 0.1574788 0.02118112 -0.11605939 0.06168099 0.100450456 0.03090882
0.14927423 0.1736501 -0.100963 -0.066265665 0.1240064 0.015825268 0.08125401 -0.06974942
0.06461345 0.017397275 0.025718976 -0.041558444 0.050802555 0.001691182 0.038479988 -0.08850442
-0.12865052 -0.03842401 0.07855262 -0.06354473 0.05916936 0.122536145 0.037298787 0.09589565
0.09085092 0.08900573 0.040162247 0.053347252 -0.016501905 0.09479232 -0.037145246 0.058193743
-0.11093105 0.01654106 0.0013896741 -0.021118524 0.00823582 0.13892497 -0.1201095 -0.11550583
0.10616274 -0.0562807 -0.0146225095 0.19176297 -0.07758914 -0.12303923 0.022470772 -0.04934974
0.057570025 -0.043052297 -0.058648575 0.14795008 0.15702407 -0.04118233 0.07512207 0.019861892
0.07228469 0.18247542 0.00816785 -0.036657818 0.03295361 0.01787507 -0.04147118 -0.021297425
0.09023529 -0.09142618 0.14281762 0.14469872 -0.04558918 0.061049283 0.099982075 0.08215761
00000000: 6293 ba3d bfb5 883d c53e ddbd 277a 1e3e
00000010: 007d 67bc e5ef f8bc d1b0 953c 705f 75bd
00000020: c042 c63d e28d d83e a4c2 7b3d b16d fc3d
00000030: a6e6 9fbc e11a 8a3d 5589 ce3d ddba 06bb
00000040: ebea 1e3e 8a18 963d 3841 f3bd de56 fb3d
00000050: c235 9dbc f0da 55bd 488e 98bc ce12 403e
00000060: a9bf 25bd 3e18 c83d ba0e a7bd cf3a ed3d
00000070: 9caa 193d d82b 803c ed69 543c cc71 ca3b
00000080: 5254 083e ca15 e83d e7e9 cabd 7be7 60bd
00000090: 1a1d a33d 3d33 14bd 7005 923c 2c03 01be
000000a0: 32b1 ab3d 73ad 0e3d 849d 793d 0def 423d
000000b0: 702d a13d 4697 8c3d 19a3 ec3d 0ee9 1c3e
000000c0: 0c56 dbbd 18cf a2bd 1f42 213e 0784 ad3c
000000d0: 8cb0 edbd 35a5 7c3d f8b8 cd3d 7e34 fd3c
000000e0: 58db 183e 55d1 313e b0c5 cebd 4bb6 87bd
000000f0: 11f7 fd3d fea3 813c 8168 a63d c9d8 8ebd
00000100: 0e54 843d bb84 8e3c 9ab0 d23c 3039 2abd
00000110: 5716 503d a7aa dd3a 319d 1d3d ce41 b5bd
00000120: f6bc 03be 7f62 1dbd 32e0 a03d bd23 82bd
00000130: 925b 723d 3bf4 fa3d 9dc6 183d f064 c43d
00000140: 0c10 ba3d a348 b63d 2b81 243d a682 5a3d
00000150: 012f 87bc 7a22 c23d 9d25 18bd 905c 6e3d
00000160: d12f e3bd 1e81 873c ba25 b63a c100 adbc
00000170: 88ef 063c 5942 0e3e f8fb f5bd 528e ecbd
00000180: da6b d93d 9786 66bd 4093 6fbc 835d 443e
00000190: 0ee7 9ebd fefb fbbd a014 b83c f422 4abd
000001a0: 8cce 6b3d 9b57 30bd 7d39 70bd 3a80 173e
000001b0: ebca 203e ceae 28bd 9ad9 993d 68b5 a23c
000001c0: ff09 943d d6da 3a3e 72d2 053c 8226 16bd
000001d0: 5dfa 063d bd6e 923c afdd 29bd f077 aebc
000001e0: 48cd b83d a63d bbbd c83e 123e e72b 143e
000001f0: b8bb 3abd d00e 7a3d 67c3 cc3d 4042 a83d

decoder.6.weight f4 [99, 128]
0.049217656 0.009301721 -0.10277423 -0.035048705 0.0015449673 -0.05445858 0.032732923 0.076515526
0.1074389 -0.31412056 -0.014407173 -0.045023758 -0.0072753853 -0.00079807005 -0.13968389 0.089954294
-0.08960091 0.029944152 0.10133678 -0.16191638 0.05058531 -0.035665765 -0.03362285 -0.040241886
-0.020696744 -0.05429086 -0.021033563 -0.06830817 0.03459959 0.027950987 -0.11187114 0.034953233
0.04199205 -0.0075132996 -0.034545783 -0.028555322 -0.06373583 0.036653634 0.03747701 0.013486719
-0.009484708 0.095190234 -0.06558024 -0.03887741 -0.063949525 0.07266708 0.31713897 -0.10839308
-0.014829569 -0.04338956 0.052145492 -0.081586875 -0.07322775 -0.033944394 -0.058479413 0.018239377
-0.009291107 0.019198807 -0.039471675 -0.0980173 0.06430061 0.012709114 -0.06801148 0.0038358741
-0.06895497 0.07684074 0.13850074 -0.062374774 -0.008932348 -0.00949454 -0.09819432 0.08502048
0.03822097 -0.0556529 -0.017508922 -0.056848474 0.028198287 0.0024403532 -0.04660733 0.04019576
-0.047569413 -0.04139896 -0.041367225 -0.01694729 0.033510387 0.037951317 0.066508666 0.0019768004
-0.004053954 -0.0533775 -0.0770473 -0.024249654 -0.04976661 -0.04615896 -0.0019906487 -0.03136305
0.059798636 -0.06514944 -0.06514248 0.07178284 -0.00338274 0.037093244 -0.0012001555 0.083837
0.10143808 -0.004131507 -0.045957822 -0.109633386 -0.082204685 0.008538527 0.08388535 -0.018173225
0.25497591 0.017395483 0.0021355988 0.0038031426 0.01619153 0.028095918 0.11153677 -0.09223436
-0.03583011 0.08844416 -0.039268114 0.034296025 0.07450075 0.008210704 0.07149294 0.031954348
-0.09804304 0.06655039 -0.03837099 -0.012080242 0.011867434 0.028372828 -0.0022373826 -0.059393182
0.06436293 -0.24945252 0.067944326 0.22787161 -0.039097715 0.086441875 0.0020123865 -0.02015232
-0.1132671 0.030293101 -0.0014739807 -0.0803281 -0.0022624247 -0.036411364 0.04595562 -0.033729084
-0.09122636 -0.005838399 0.0057845786 -0.03669924 -0.07890765 -0.032100156 0.09276972 -0.09571351
0.031632584 0.08744653 0.05191714 -0.022148442 -0.025023526 -0.10637927 -0.05668886 0.028373612
0.05881115 0.0415089 -0.037928496 -0.047747362 -0.033996154 -0.030197497 0.09291348 -0.050025403
0.087477885 -0.067066066 0.064091265 0.038914923 0.030966818 -0.015771266 -0.057931572 0.09974876
-0.004282482 0.009174448 -0.049949188 0.025780475 -0.024803655 0.12938932 -0.072591476 -0.03407244
-0.039476562 -0.013644876 0.19924466 -0.050616216 0.0006803089 -0.040193815 -0.07710012 -0.07280806
-0.056136463 0.1152634 0.062531754 -0.11069257 0.10949949 -0.062037583 0.11039621 -0.028858662
-0.02662847 -0.02082386 -0.12474366 0.05469352 -0.025574526 0.07036302 0.009079446 0.03497055
-0.05634815 -0.007682932 0.021658028 0.1218772 0.0981758 0.059692755 0.017293159 0.04633468
-0.03860806 0.048723236 0.03132356 0.05416552 0.05021405 0.051238343 -0.035466846 0.016347215
0.014705527 -0.050231263 0.031963784 0.031746496 -0.046528723 -0.092991546 -0.020265881 0.08437062
0.19623424 -0.08395566 0.055967826 -0.062163446 -0.030851454 0.07390692 0.1230166 -0.043540504
-0.013514169 0.067397304 0.02492178 -0.047454394 -0.006251755 0.08063031 -0.08973783 0.11754014
00000000: 7498 493d 3f66 183c 4c7b d2bd 3b8f 0fbd
00000010: 8080 ca3a f60f 5fbd f512 063d 2cb4 9c3d
00000020: ed08 dc3d 69d4 a0be 100c 6cbc d56a 38bd
00000030: 5b66 eebb 9335 51ba 4b09 0fbe f539 b83d
00000040: af80 b7bd 704d f53c a889 cf3d 68cd 25be
00000050: 8b32 4f3d 4416 12bd 1db8 09bd add4 24bd
00000060: 388c a9bc 1860 5ebd 944e acbc 27e5 8bbd
00000070: 4db8 0d3d 78f9 e43c b21c e5bd 1f2b 0f3d
00000080: dbff 2b3d 2032 f6bb e17f 0dbd daec e9bc
00000090: ee87 82bd 1f22 163d 7e81 193d 66f7 5c3c
000000a0: c065 1bbc 19f3 c23d ef4e 86bd eb3d 1fbd
000000b0: f8f7 82bd 7ad2 943d 0a60 a23e 31fd ddbd
000000c0: b8f7 72bc 40b9 31bd 8396 553d 0517 a7bd
000000d0: 6ef8 95bd 4709 0bbd 1c88 6fbd bf6a 953c
000000e0: ba39 18bc d146 9d3c 0dad 21bd 4bbd c8bd
000000f0: 0ab0 833d e339 503c 9a49 8bbd 4a63 7b3b
00000100: 4338 8dbd ae5e 9d3d 23d3 0d3e b17c 7fbd
00000110: fc58 12bc fd8e 1bbc 1b1a c9bd 381f ae3d
00000120: 988d 1c3d 4cf4 63bd df6e 8fbc f2d9 68bd
00000130: 1800 e73c 55ee 1f3b 54e7 3ebd 4fa4 243d
00000140: 25d8 42bd f591 29bd ae70 29bd 0bd5 8abc
00000150: 3042 093d d772 1b3d b235 883d 358d 013b
00000160: 08d7 84bb 5ea2 5abd faca 9dbd 36a7 c6bc
00000170: 13d8 4bbd 2d11 3dbd 8b75 02bb 8b76 00bd
00000180: 6aef 743d 126d 85bd 6c69 85bd e202 933d
00000190: f6b0 5dbb 16ef 173d 894e 9dba bcb2 ab3d
000001a0: c5be cf3d 9861 87bb 453e 3cbd 7887 e0bd
000001b0: ee5a a8bd 2ee5 0b3c 15cc ab3d 04e0 94bc
000001c0: 348c 823e f980 8e3c 67f5 0b3b 253e 793b
000001d0: 19a4 843c 6929 e63c 646d e43d 5ee5 bcbd
000001e0: 98c2 12bd 3622 b53d 9ad7 20bd fd79 0c3d
000001f0: d993 983d 3086 063c e46a 923d 90e2 023d
00000200: caca c8bd 924b 883d e62a 1dbd 35ec 45bc
00000210: a06f 423c 226e e83c 0da1 12bb 4446 73bd
00000220: b6d0 833d 7b70 7fbe 6526 8b3d 2d57 693e
00000230: ed24 20bd 7008 b13d 3ee2 033b 7a16 a5bc
00000240: 95f8 e7bd 3d29 f83c 9632 c1ba 0f83 a4bd
00000250: 3045 14bb 1524 15bd f63b 3c3d 8227 0abd
00000260: e3d4 babd 0a50 bfbb 908c bd3b f151 16bd
00000270: 569a a1bd 747b 03bd 0dfe bd3d 7205 c4bd
00000280: 2b91 013d 2b17 b33d 11a7 543d a670 b5bc
00000290: 23fe ccbc 60dd d9bd 9432 68bd c76f e83c
000002a0: f6e3 703d 3c05 2a3d e95a 1bbd bd92 43bd
000002b0: 8d3f 0bbd be60 f7bc 6c49 be3d 70e7 4cbd
000002c0: 9b27 b33d ef59 89bd 4842 833d 4165 1f3d
000002d0: 20ae fd3c be32 81bc a849 6dbd 1449 cc3d
000002e0: 1054 8cbb 6d50 163c 8597 4cbd 9331 d33c
000002f0: 0931 cbbc a27e 043e d7aa 94bd 8b8f 0bbd
00000300: 2db2 21bd c28e 5fbc cb06 4c3e f352 4fbd
00000310: c256 323a 45a2 24bd abe6 9dbd 641c 95bd
00000320: 59ef 65bd 380f ec3d a610 803d c9b2 e2bd
00000330: 4541 e03d 1f1b 7ebd 6817 e23d 0069 ecbc
00000340: f323 dabc cd96 aabc 9b79 ffbd 5006 603d
00000350: ab81 d1bc 7d1a 903d f5c1 143c 483d 0f3d
00000360: 51cd 66bd 1bc1 fbbb 2d6c b13c c19a f93d
00000370: 6510 c93d 6480 743d 62aa 8d3c 6fc9 3d3d
00000380: 7c23 1ebd 0492 473d 224d 003d aadc 5d3d
00000390: 3fad 4d3d 4cdf 513d af45 11bd 98ea 853c
000003a0: 73ef 703c 4cbf 4dbd 75ec 023d 9d08 023d
000003b0: e794 3ebd 5a72 bebd a204 a6bc 81ca ac3d
000003c0: a1f1 483e f2f0 abbd 853e 653d 199f 7ebd
000003d0: 30bc fcbc 835c 973d 21f0 fb3d 8757 32bd
000003e0: 886a 5dbc 9907 8a3d c328 cc3c 8a5f 42bd
000003f0: 86db ccbb 8121 a53d 78c8 b7bd e3b8 f03d
