img/Datos/Models/model-lat6.pth (torch, 192738 bytes, 16 tensors)

encoder.0.weight f4 [128, 99]
00000000: a0ad 023d be58 813d f2cb 1b3d 0158 68bd
00000010: bb29 273c e460 103a 4ee3 2d3c 41fd 0c3b
00000020: 2433 ba3c b834 283c 8882 b7bd 2da2 c03d
00000030: d6b5 8a3d f757 adbd e160 b63d d22e 9e3d
00000040: 8741 da3c 3fd7 c83d f80c 8a3d 3009 94bc
00000050: e7cc 073b 9b0e 9abd ee43 0cbd 897e ffbc
00000060: a418 f6bc a35a 21bd b669 3abd d404 f4ba
00000070: 7612 df3c e6cb 97bd 5f1d 8ebd 4329 10bd
00000080: 4772 8dbd 3d35 37bd 62c6 66bc 6abc 49bd
00000090: 78fd ea3c 48d6 353d f981 3c3d 48ef 893a
000000a0: 141d ce3d 9577 c9bc 0565 5dbb 01ca 053d
000000b0: 4fcd 72bb 5fd1 543d 3c10 c53a 3db7 debd
000000c0: 3c82 623d 2117 c23b b22c bcbd 6fab d2bd
000000d0: c799 6ebd 686f 43bd 0247 f5bd 5581 87bc
000000e0: d64d 22bb 4990 49bd 973b 603d 492f eabc
000000f0: 735f acbd 5569 00bd 5ca6 43bc 11bd f4bd
00000100: bd2d a2bd ec15 ccbd 49f1 b3bd 4f72 b4bc
00000110: b556 acbd 1a50 a4bd 0786 aebd cc32 92bc
00000120: 4af4 86bb c429 ffbd 2a24 243d 2191 eebd
00000130: 4152 6fbd 9ef8 963c a600 20bc c5b5 41b8
00000140: 08aa 42bb afc9 88bd 74e5 5a3d 89d5 e83a
00000150: 443f 11bd f53c b9bc 31f3 6dbd 0d02 c3bd
00000160: 4250 193d aca7 7fbb 4825 253d 0b53 943d
00000170: b4dd 113d 8e1c cdbd 5c08 7a3d 2c3e b6bd
00000180: 3494 32bd 95c7 ae3d 6c93 353a 5e2d d63c
00000190: 9425 4fbd d0dc ed3b a233 ebbd 7854 5ebd
000001a0: cf14 c03c 3a70 4a3d 6a1c c4bc e14b 553c
000001b0: fd7b 18bd 6f01 04be 4a19 32ba 241e 48bd
000001c0: ab96 07bd 4f8a 513b 9faf f73c a09c b2bd
000001d0: c3b0 103c 2bad 80bd 93cc febd fcf8 323b
000001e0: 84d1 80bd 2847 efba 9052 043c 95b1 45bc
000001f0: 6479 2a3d c310 ad3c 3b37 503d cc57 a3bd
00000200: acd4 42bd b557 81bb 7767 debd 1636 2bbd
00000210: e535 57bc cca3 c3bb c2d0 ad3c 90d1 82bd
00000220: 0e12 b6bc ddff c0bc 6b9f 0d3b 5c29 fe3c
00000230: c839 cebd 6253 f9bd 061a b0bd 16e4 aebc
00000240: e9ec c7bb ee7a e2bd 3a44 b3bc ac2b cdbd
00000250: 761d 03bc ca38 d5bd d2b5 0eba ed32 3fbd
00000260: 93f0 4abd 2c0b 82bd 94eb ec3c 5c2b 1e3c
00000270: 7fed 813d bf06 4cbd c4c8 4abd 233d b0bc
00000280: 27e7 d0bd a8b8 27bc c5e3 b6bd 658c 29bc
00000290: 20b1 cdbd a6b7 41bc aeb8 abbd d59b a6bc
000002a0: bbe2 bfbc d6f5 c8bc 68fc d9bd 28ad 36bd
000002b0: c3fe 10bd c732 3b3d 6814 cdbd 9303 57bd
000002c0: 8136 65bd 2c3c 4bbc 88c2 223c 9a7b 9dbd
000002d0: cfef 9cbd 7f39 6cbd 0f6e 57bd 3e62 86bd
000002e0: 49fc 183c fe64 b2bd 7d48 463d 12ee 98bd
000002f0: 4d02 c03d cfdd b83d b0f7 aabd d016 b83d
00000300: 73cd b7bd a8bf be3d 4f07 c3bd 337c 963d
00000310: 8767 a0bc 25cf 593d 3bf4 abbc 25b6 193c
00000320: 9dd9 abbd 7a5b d1bb 13d5 fdbd fc28 52bc
00000330: 9c5e c6bd f1f0 c9bd dfa8 bfbd 6495 013d
00000340: 48e4 8fbd 9754 c3bc 704a 763d 4d05 a6bd
00000350: ea43 38bd 91fc d7bd 94e0 51bd 392e 873a
00000360: 71f5 81bd 3b43 92bc e105 8fbb 2cc0 48bc
00000370: d618 34bd fee4 aabc 0125 19bd fe18 1d3d
00000380: 9b3c 24bd 05d9 f2bc 432c b8bd 9a83 d9bd
00000390: b82a 8abc 0b6f babc 9b0d 253d a4fd 82bd
000003a0: e1c5 99bd 83c4 ce3c 55ba f9bd 92e5 343d
000003b0: 250e e4bc 75df 8cbd 48f6 823c bc08 dfbd
000003c0: 3b16 34bd 3508 aabd 2366 133c 1e0d cabd
000003d0: e8d5 dcbd f33f 0ebd 19a2 52bd 0d68 b13c
000003e0: ed21 243b 1dee 96bc 923b ae3c 1686 5f3d
000003f0: 8704 343c 8dc8 a0bd 49c4 69bd e22b bbbd
0.031903863 0.06315754 0.038036294 -0.056724552 0.01020282 0.0005507602 0.010613276 0.0021513256
0.022729464 0.010266475 -0.08960444 0.094059326 0.06772964 -0.084640436 0.08905197 0.07723774
0.026642574 0.0980668 0.06740755 -0.018070787 0.0020721497 -0.07522317 -0.03424447 -0.031188266
-0.030041046 -0.03939308 -0.04551097 -0.0018617162 0.027230483 -0.074119374 -0.06939196 -0.0351956
-0.06906562 -0.044728506 -0.014085384 -0.04925195 0.028685316 0.044393808 0.04602239 0.0010523582
0.1006414 -0.024593154 -0.0033782136 0.03266335 -0.0037048643 0.051957484 0.0015034745 -0.10874794
0.055299982 0.0059231673 -0.091882125 -0.102866046 -0.058252122 -0.047713667 -0.11976434 -0.016541163
-0.0024765632 -0.049209867 0.05474433 -0.028587 -0.08416643 -0.031350452 -0.011941519 -0.11950124
-0.0791888 -0.09965119 -0.08786256 -0.022027163 -0.084149756 -0.08023091 -0.085216574 -0.017846487
-0.004118477 -0.12459138 0.04007355 -0.11648775 -0.058428053 0.018429097 -0.00976578 -4.6184072e-05
-0.0029703397 -0.06679093 0.05344148 0.0017763834 -0.035460725 -0.022612074 -0.058093254 -0.095218755
0.037430055 -0.0039009852 0.040318757 0.07242402 0.035611823 -0.10015212 0.06104313 -0.08898577
-0.04359837 0.08534161 0.00069265696 0.02614468 -0.050572947 0.007258989 -0.114844576 -0.054279774
0.023447422 0.049423434 -0.02393933 0.013018579 -0.03722762 -0.12891172 -0.00067939295 -0.04885687
-0.033102673 0.0031973307 0.03023511 -0.0872128 0.008831206 -0.06283029 -0.12441363 0.002730905
-0.06289962 -0.0018255459 0.008076325 -0.012066265 0.041619673 0.021126157 0.050833922 -0.0797573
-0.0475661 -0.003947223 -0.10859578 -0.041799627 -0.013135408 -0.005970454 0.021217708 -0.06387627
-0.022225406 -0.023559505 0.0021609913 0.031025581 -0.10069615 -0.12174107 -0.085987136 -0.021348994
-0.00610124 -0.11058603 -0.021883119 -0.100180954 -0.0080026295 -0.10411222 -0.00054439635 -0.046679426
-0.049545836 -0.06349787 0.028920926 0.009653892 0.06344127 -0.04981112 -0.04950787 -0.021513527
-0.10200339 -0.010236897 -0.08930162 -0.010348414 -0.100435495 -0.01182357 -0.08384834 -0.020337978
-0.023423543 -0.024531286 -0.10643846 -0.04459873 -0.03539921 0.045702722 -0.10013658 -0.052493643
-0.055960182 -0.012404483 0.009934075 -0.07689591 -0.07662927 -0.05767202 -0.052595194 -0.06561707
0.009337493 -0.08710669 0.048408974 -0.07467283 0.09375439 0.09026682 -0.08348024 0.08988726
-0.08974733 0.09313899 -0.095228784 0.07347908 -0.019580616 0.053176064 -0.020990482 0.009381806
-0.08391116 -0.0063890787 -0.12394156 -0.012827154 -0.09686014 -0.09860409 -0.093583815 0.03163661
-0.07025963 -0.023844047 0.060129583 -0.0810648 -0.044986643 -0.1054622 -0.051239565 0.0010313458
-0.06345642 -0.017854324 -0.0043647145 -0.012252849 -0.043968998 -0.020861145 -0.037388805 0.038353913
-0.04009686 -0.029644499 -0.08992817 -0.10620804 -0.016866073 -0.022758028 0.04029618 -0.06396034
-0.075084455 0.025240188 -0.12193743 0.044164248 -0.027838776 -0.068785585 0.015986577 -0.10890338
-0.043966513 -0.083023466 0.008996519 -0.09865783 -0.10782987 -0.034728955 -0.05142412 0.02165606
0.0025044635 -0.018424088 0.02126864 0.054571234 0.0109874075 -0.07850752 -0.057071958 -0.09139229

encoder.0.bias f4 [128]
00000000: 7cc0 debd a1cd 07be 65b9 09bd 7488 c4bd
00000010: 257e 04be 960d 683d a0ff ef3d b099 02be
00000020: 091e e43d 9461 5ebc ab78 073d afc2 3e3d
00000030: bc02 c0bd 2358 9d3d 6823 023e 8ba5 e03c
00000040: 1a0e b9bd 86d9 593d e538 4bbc acbb ba3d
00000050: 7d37 acbd 0bb5 eebd 2b06 01be ba23 e43b
00000060: 492a c4bd 0397 7bbd d9a1 c93c afa0 163e
00000070: 66ca c33d 3417 04be b175 25bc 5d6c 0bbd
00000080: 02e8 fcbc d4ac 1a3d 36f2 bcbd 8b3e 2bbe
00000090: 08ff 0f3e 1a70 4b3e 16a3 6a3d 8e7d c3bd
000000a0: ccc8 cb3d 3d2f 3fbd 086b 4ebd 18b0 e33d
000000b0: 3ba2 9cbd 0177 09bd 74d5 7dbd 2132 edbd
000000c0: f38b 4f3e 5662 abbc ca81 12be 7c3f 8c3d
000000d0: 7bbc 99bd 9592 07be bca5 113e 29e5 edbd
000000e0: c23e 6dbd 887b 11be ae85 4d3d 5219 1a3c
000000f0: dfb5 3eba 5ce6 e0bc 9e98 39bd c27f 2d3d
00000100: cba2 4f3c df99 62bd eefc 873b 7ea5 eebd
00000110: 1d2b 4dbd e4ae 833d 32d4 51bc ca8a 86bd
00000120: ee66 b8bd a923 903d ed94 953d 493f bbbd
00000130: e8a7 08be d53f 84bd a055 0d3e 1949 a33b
00000140: 77af 3bbd ed50 223d 23c4 b0bd 51be 113e
00000150: 4ecd 88bd bb54 123e ec5e bdbd ee2f 5bbc
00000160: dbf1 28bc 06d5 65bc 6f77 3a3d bdac 0ebd
00000170: a00a 92bd 9895 04be af08 93bd f000 843d
00000180: f2f7 62bd 6c5f 093d d891 ad3d be96 823d
00000190: c728 05be 318f d2bd 2b38 3abd a5ac 933c
000001a0: aacf 1fbc 1f29 1dbe feda 0a3d 63d3 ee3d
000001b0: 96e6 18be 540f b7bd 7f70 da3c 12b5 55bd
000001c0: 61c8 0a3d da13 2bbe 6fae 27bd 1514 34be
000001d0: 2eaf 47bd 6aec b1bc df15 e63c 0e81 73bd
000001e0: 2ed4 2abd abc8 96bd d4cc 1bbc 9023 03bd
000001f0: 039c 633d 3a08 ab3b 92bc 35bd 5990 1bbd
-0.10876557 -0.13262035 -0.03362407 -0.09596339 -0.12938745 0.05665358 0.117186785 -0.1275394
0.11138541 -0.013573069 0.033074062 0.046572383 -0.093755215 0.07682826 0.12708819 0.027422687
-0.09035893 0.053185962 -0.012403701 0.09117827 -0.08409021 -0.11655625 -0.12600009 0.0069622668
-0.09578378 -0.061423313 0.024613308 0.14709733 0.09560089 -0.12899476 -0.010098861 -0.03403889
-0.030872349 0.037762478 -0.092258856 -0.16723077 0.1406213 0.19866982 0.057284437 -0.09545432
0.09950408 -0.04667591 -0.05039504 0.111175716 -0.076481305 -0.033560757 -0.061971143 -0.11581827
0.2026823 -0.020920914 -0.14307323 0.06848046 -0.07506653 -0.1323951 0.14223379 -0.116159745
-0.05792118 -0.1420728 0.050176315 0.009405451 -0.0007275026 -0.027453594 -0.045311563 0.042358167
0.01267309 -0.055322524 0.0041500246 -0.11652659 -0.050089944 0.06429842 -0.012806939 -0.06569441
-0.09004007 0.07038052 0.07303796 -0.0914293 -0.13345301 -0.064574875 0.13802195 0.004983079
-0.045821633 0.039627958 -0.0863116 0.14232756 -0.06679784 0.14290135 -0.092466205 -0.013378127
-0.010311569 -0.0140278395 0.045524057 -0.034832705 -0.07130933 -0.1294769 -0.07179391 0.06445491
-0.05541224 0.033538267 0.08475083 0.06376408 -0.13003837 -0.10281218 -0.045463722 0.01802666
-0.009754101 -0.15347718 0.033900253 0.116614126 -0.14931712 -0.089384705 0.02666497 -0.052174635
0.033882502 -0.16706792 -0.040937837 -0.17585786 -0.04875105 -0.021719176 0.0280866 -0.059449248
-0.041706257 -0.07362493 -0.009509284 -0.032016337 0.055568706 0.0052194865 -0.044369288 -0.037979458

encoder.3.weight f4 [64, 128]
00000000: 4dd6 85bb 6267 893d 67bd 553c 7fab e7bc
00000010: 625f d93d 2830 ee3c f88a 48bd 62d5 bb3d
00000020: ff77 833d 18d1 04bd b2cc a73d c694 b73d
00000030: 4270 0f3d 2ffa ebbc e8a6 08bd 5a57 65bd
00000040: f7e9 033d b31f 923c 8096 553d fde8 cd3c
00000050: ded5 403d c2b8 1e3d 0cbd bbbc f99e 32bc
00000060: 7fb2 a737 2c43 763d 55c2 943d 0dd1 90bb
00000070: 2c99 8cbd e13f 813c c507 a0bc 8a6b 133d
00000080: b6c4 913d 9369 843d 889e c83d 6a9a 8abc
00000090: 73b3 513c 2a1d 943d 0bde 1e3d f9fa b33d
000000a0: 25aa b1bb 0646 653d a888 6d3d 43e4 6d3d
000000b0: a52c a43d d663 32bd dc11 c1bc 469a d93b
000000c0: f8a6 8b3d cf89 8b3d f5c3 0bbd 296d a63d
000000d0: 7468 873d 2c74 ae3d c144 14bd caa1 913d
000000e0: 9173 b83d e670 d93d 9988 34bc c2ea 0abc
000000f0: 5546 c4bc e762 9d3d 4474 7e3d 7367 9f3c
00000100: 4239 863a eab1 ee3d aebc ad3d 5247 4ebc
00000110: f95e f3bc 4010 953d 1e1e 27bd 8118 2c3d
00000120: 667d 7dbb 41f6 b23c dff2 653d 8104 a13d
00000130: dbeb 9ebd 8e56 8b3d c39e 4e3d 0101 5abd
00000140: cdf9 d13d 3d12 22bd 02c5 5a3d 305a 61bc
00000150: fbf9 243d ff34 b93c a024 043d 6257 9a3d
00000160: d2da 713d 1d16 a13d f1b4 d8bc 93ed f1bc
00000170: fa82 0c3d abe8 3a3d 7492 983d eb7f 763d
00000180: e25d 973d 4c62 1c3c e3c3 bdbd d783 1a3d
00000190: 4afe 433d feac 7b3b 560a 97bc 3216 823d
000001a0: a73b 963b 577a 803d e01a 073d 72d0 913d
000001b0: f79d 9bbc 4cea 933c 3379 233d 03bc 933d
000001c0: eb72 cc3d 6c24 52bc f76a 48bd 7058 293d
000001d0: 61cb 7b3c d33b 843d ee0b 7f3d a60e 493c
000001e0: a282 4abc 7ee5 9c39 e280 c63d 227a 523d
000001f0: 0cae 4bbd 207b 043d 18ec 663d e52a dc3d
00000200: d79c 09bb c648 7c3d 2c63 783d 3119 b0bd
00000210: 68b5 913d f772 a43d 6e8d 6b3d ac9d 123d
00000220: ab57 893d dab6 8c3d 0ddb a6bd c866 4ebc
00000230: e3f7 013d 5479 57bd 1eec 6e3d e171 5ebd
00000240: 2733 a33d de16 a13d 5923 7abc 6a71 173d
00000250: 83a3 9fbd d7e2 023c 14a8 bd3d bab3 6c3c
00000260: ae40 ea3c 1e0c c03d e557 29bd 135d 963c
00000270: c0db 0f3d 2ffd 96bd bee6 b63d e586 b63c
00000280: 5f07 4bbd fd1f 23bd 6375 983c 527c 2f3d
00000290: e4e3 d0bc a68c 423d e6d0 743d bcc6 843d
000002a0: 10b9 9bbd d0da 7b3d e54a 583d a73e 8c3d
000002b0: 3367 ccbb a61d 213d a81e 153d 2217 eb3d
000002c0: c2a9 bdbc e0bb c93d 8b24 35bd c523 bd3d
000002d0: 298a 70bb 09a8 93bd d05e 903d 4630 6fbc
000002e0: 1e90 1ebd b235 3ebd 69d1 29bd 8465 fcbc
000002f0: 8930 82bc 207a 4c3c 875c 573a fcfa f53c
00000300: d1b2 7c3d e16c e23c ce8a 3ebb f56c 953d
00000310: ad04 acba 5326 bd3d adc1 1d3d 489e 06bc
00000320: fd88 cc3d b528 c53b 0edf e13c fcc1 2f3d
00000330: f22c 623d 91b9 c53d 9983 973c 27f2 09bd
00000340: 4f76 cfbb 0e90 75bd 781a 7f3b 1900 8dbd
00000350: d7e0 63bd 8931 b63d afe9 b53d 3174 80bd
00000360: 618e cfbc 5ee3 363c d43a 343d 5259 e83c
00000370: e7cf ddbb 3be0 8abb f61e c23d 3846 e23c
00000380: 00e7 e83c f983 f83b c7c8 da3d c00d df3c
00000390: 595c 1e3d 07cc d13b ab5e ff3d df15 bcbd
000003a0: f2b6 d43d 7f90 ca3c 7783 043d 3b2b 20bc
000003b0: bf15 26bd ace2 a43b 3340 bfbc 2425 093c
000003c0: 4de4 b93c c326 323d fe8e ef3d 793e b53c
000003d0: 722a da3c 6073 09bb 15ab 93bb 89dc 973d
000003e0: bab0 213d c625 ae3d 1489 903d ff28 1d3d
000003f0: b6cf fcb8 e335 2dbd d932 943d e285 00bd
-0.0040843845 0.06709172 0.013045645 -0.028280018 0.10613896 0.029075697 -0.048960656 0.09171559
0.06419372 -0.03242597 0.081933394 0.08963923 0.035019167 -0.02880582 -0.0333623 -0.055991508
0.03220555 0.017837381 0.05214548 0.025135512 0.04707896 0.038750418 -0.022917293 -0.01090216
1.999107e-05 0.060122654 0.072636284 -0.004419452 -0.06865153 0.01577753 -0.019534955 0.03599123
0.07117598 0.06465449 0.097958624 -0.016919333 0.012799132 0.07232125 0.038785975 0.087881036
-0.005421894 0.055974983 0.057991654 0.058079015 0.08016328 -0.043552242 -0.023568086 0.0066407053
0.06818956 0.06813394 -0.034122426 0.081262894 0.0661172 0.08518252 -0.03619838 0.07110937
0.090064175 0.10617237 -0.011018896 -0.008478822 -0.023959318 0.0768488 0.0621226 0.019458508
0.0010240453 0.11655028 0.084832534 -0.012590246 -0.029708372 0.0727849 -0.040800206 0.042015556
-0.003867948 0.021845939 0.056139823 0.07862187 -0.077598296 0.06803618 0.050444376 -0.053223614
0.10252724 -0.039568175 0.053410538 -0.0137544125 0.040277462 0.022608278 0.03226149 0.07536198
0.059046574 0.07865546 -0.026453467 -0.02953223 0.034304596 0.045632046 0.07449809 0.060180586
0.073909536 0.00954492 -0.09265878 0.03772339 0.04784993 0.0038402672 -0.018437546 0.0635189
0.004584748 0.062733345 0.032984614 0.07119836 -0.018996222 0.018056057 0.039910506 0.07213595
0.09982856 -0.012826066 -0.048930135 0.041344106 0.0153683135 0.06456723 0.062267236 0.012271559
-0.012360247 0.00029925624 0.09692551 0.051386006 -0.04972653 0.032343984 0.0563775 0.10750369
-0.0020998025 0.06159284 0.060641453 -0.08598555 0.071146786 0.0802974 0.057507925 0.0357949
0.067061745 0.06870814 -0.08147249 -0.012597747 0.031730544 -0.052605942 0.058330648 -0.054307822
0.07968741 0.0786569 -0.015267217 0.036973394 -0.07794859 0.007988653 0.09260574 0.014447147
0.028595295 0.09377311 -0.04134359 0.018354928 0.03512168 -0.0737251 0.08930729 0.02228112
-0.049567576 -0.03982543 0.018610662 0.04284317 -0.025499292 0.047497414 0.059769534 0.06483218
-0.07603657 0.061487973 0.0528058 0.068478875 -0.0062378882 0.039334916 0.03640619 0.114790216
-0.023152236 0.098502874 -0.044224303 0.09235338 -0.0036703444 -0.072097845 0.07049334 -0.014598912
-0.03871166 -0.046437927 -0.041459475 -0.030810125 -0.015892284 0.012480289 0.0008215387 0.030026905
0.06169397 0.027639808 -0.0029074433 0.072961725 -0.0013123952 0.092358254 0.03851478 -0.008216448
0.09987066 0.0060168155 0.027572181 0.042909607 0.055218644 0.096545346 0.018495368 -0.0336782
-0.006331242 -0.059951834 0.0038925689 -0.06884784 -0.055634346 0.08896167 0.08882462 -0.06272162
-0.025336446 0.011162607 0.044001415 0.028362904 -0.0067691687 -0.004238156 0.094785616 0.027621374
0.028430462 0.0075840917 0.106828265 0.027228236 0.03866229 0.006402496 0.12469228 -0.09183859
0.103864565 0.024727104 0.032351937 -0.009775932 -0.040548082 0.005031904 -0.023346042 0.008370671
0.02269187 0.043493997 0.116971955 0.022124516 0.026631568 -0.002097331 -0.0045064786 0.074151106
0.03947518 0.085032985 0.070573956 0.038369175 -0.000120549856 -0.04228772 0.07236261 -0.03137768

encoder.3.bias f4 [64]
00000000: 26dd 8939 9598 b6bb 46d5 433a 6e5c 30bc
00000010: 5edb e4ba 0615 29bb a136 0f39 5aa8 e3ba
00000020: dd69 75bb 4637 82b9 97b7 403c 883e 45bd
00000030: 7da3 79bb d1b4 b6bc 6a05 20bb d582 a7bb
00000040: 2b74 9dba b328 96bb b6e0 0fbb 6e92 8539
00000050: aaa7 5dbb a88c baba ba91 98b8 88f4 65ba
00000060: 38d8 71bb e71d aaba 4aa1 08b9 8218 18bb
00000070: 4cc3 bebb 3c35 97bb b8b4 063b 4abc d1bb
00000080: d4dd 26bb 9802 17ba fedf 02bc 7579 6dbb
00000090: 4c58 733a 937a a2bb c589 eeba 9e1c 97bb
000000a0: 81e1 73ba d445 8fbc 442f feb9 1397 5dbb
000000b0: 292e d6bb a800 1cbc cdcc 84bb 0a12 f0ba
000000c0: 0cba d2bb e52b 81bb 1e3c 0fbb 9a61 80bb
000000d0: fcfd 1ab9 118a f3ba ed2b df3b 07c8 b6bb
000000e0: c53d 39ba e6e0 09bb 0602 8abb 30df 82bb
000000f0: 2033 9bbb 3dd5 97bb 1ccc d9ba 33bc b4ba
0.00026295445 -0.0055723884 0.000747044 -0.010764224 -0.0017460396 -0.0025799884 0.00013657894 -0.0017368898
-0.0037447133 -0.00024836714 0.011762521 -0.048155338 -0.0038091831 -0.022303017 -0.002441729 -0.005112032
-0.001201277 -0.0045824884 -0.0021954007 0.00025476835 -0.003382186 -0.0014232593 -7.2750685e-05 -0.0008772095
-0.0036902558 -0.0012978882 -0.00013030056 -0.0023207967 -0.005821621 -0.0046145003 0.0020554494 -0.0064006196
-0.002546181 -0.00057605794 -0.007987974 -0.0036235724 0.00092828716 -0.0049584596 -0.0018199018 -0.0046115657
-0.0009303317 -0.017489351 -0.0004848187 -0.003381197 -0.0065362644 -0.009521641 -0.0040527345 -0.0018315923
-0.00643087 -0.003942 -0.00218559 -0.003917885 -0.00014781201 -0.0018580576 0.0068106563 -0.0055780443
-0.00070663943 -0.002103859 -0.004211667 -0.003993891 -0.004736319 -0.0046335743 -0.0016616615 -0.0013788998

encoder.6.weight f4 [32, 64]
00000000: 518f 473d 8b86 ab3d 95e8 36bd 0247 04bd
00000010: 7fab 35bc 9c00 813d 21c2 2e3d c8e7 70bc
00000020: ef7c 023d 3bc6 133e 5dd8 b13c 94df fc3c
00000030: 38e6 8b3d 2128 9d3d 991f 8a3d 0f64 863a
00000040: d55a 733d f1dc eb3d 513f 083e aaa0 323d
00000050: 057a b23d a709 e83d af8b d33d 19f1 88bc
00000060: 3610 463d cb21 6d3d 74b8 a83d ad8e 573d
00000070: 9cd6 333c 1fd4 60bd 2960 85bd f8e7 2bbc
00000080: f64a 093e b60c a03d 6d0d 8f3d 4d5d 5e3d
00000090: 1bee 873d d687 013d 798b a13d be4a ac3d
000000a0: 4e64 dc3d 0719 ec3d 5b20 a33c a5cb ec3d
000000b0: e5dc 333d 1c28 013e 48d8 b13d 574f e73c
000000c0: 7a1b 993d 195c ee3d 4b02 6a3b a8c3 2d3c
000000d0: ad1b 1dbc f196 7d3d 725e 7b3c ed1d 2a3d
000000e0: 1f5d 853d 5bf8 d8bb 3637 9f3d 1d38 ee3d
000000f0: 3faf 5a3d afb1 803d 0d72 58bc ac76 ce3d
00000100: 68fd a63d 5ac4 bf3d a650 c6bd bc9a bb3d
00000110: b69e f13d 57ac bbbd e168 e53d 6086 57bd
00000120: ce9d 033d 7f20 9fbc ed7b c33c ffe1 383d
00000130: 717f 813c 3954 cf3d 790e 033e 8112 2b3d
00000140: d32b 15bd 75d6 553d f182 f83d efdd 0e3e
00000150: 6207 6b3d 6d11 5b3d 4185 0b3e 551c 15be
00000160: 6362 abbd 1b9b d13d a8ef b33d 699d 003e
00000170: 9566 49bd 510f 94bd ee06 eebc d84b e03d
00000180: 236f b33d 8e30 c23d 51c8 a4bc b2ce d63c
00000190: d87d 0b3c 1d20 f53d a218 0e3e 69b6 a83d
000001a0: 0d38 823d c84c 513c a96e 743d 7fec 6fbc
000001b0: 8001 51bb f7a1 db3d 87b2 463d 3892 bd3c
000001c0: 2cc1 debc caea b83d 5e04 003e d22c 3f3d
000001d0: f1ed d93c f35b d73d 358a d93d b879 59bd
000001e0: 5caf d53d 540b 5e3d ab66 4a39 edef a33d
000001f0: 844c 1dbd 1614 7dbc 8d88 aabc a71d ef3c
00000200: 338d 9f3d 9848 a53d 780d 31bd be3c d93d
00000210: 9cec 0b3d 1c62 be3d 3e43 c23d 6bcc cf3c
00000220: 274a c23d 9a54 833d 67a2 d73d 047b 1d3e
00000230: 9e11 02bd aa05 973d de39 363d f27c 173d
00000240: 6366 60bc 1e28 31bc cbfe 25bd 0926 6f3c
00000250: c4af 7dbc 69bb b83d ad71 44bb 57c9 b43d
00000260: 3380 f23d 29ca 503c abb2 883d 533e 3cbc
00000270: 5d99 723d 1e49 97bd 5d00 35bd 64e2 d7bc
00000280: e51e f93b 9d28 8cbc 35e3 083d 37af 813c
00000290: c2a6 d23d 0107 8c3d b1c3 273d 517e 913d
000002a0: 9953 d43d cd67 39bd df7e f23d 4b26 b8bb
000002b0: 2c83 35bd 2e62 23bd 9419 30bc 2209 563d
000002c0: 5864 723d cdbf 4cbc 0a37 023e 9ec6 f0bc
000002d0: 5a7c a73d 93fd a3bc 8dda 543c d8cd aa3d
000002e0: fdf1 cc3d 4867 a73d 9cf2 743d 0cc5 97bd
000002f0: 2ac1 ea3d e038 46bd d24f a13b 9d48 a7bc
00000300: f977 fe3d ce75 ffbc 072c d83d 78ac 253d
00000310: abb0 a53d 6071 a33d 9ef3 98bd 8caf c13d
00000320: 7d4b 313c 07ea 01bd 4d3e b73d 2aa0 023e
00000330: 68a2 ae3d 9824 92bc 17a1 3ebd 055e fd3d
00000340: cf95 063e 9071 f4bc 7f8f 6dbd 4ea3 df3d
00000350: 1fae aa3b 4222 ba3d 899d 333d ac88 80bc
00000360: 6577 2e3d b9cb 7c3c 2e61 053d ee1e 2e3d
00000370: 00b7 023e e810 bb3d 39b5 173e 4dce 5cbc
00000380: f2dc d53d 3217 113e 881b 583d b64b 093e
00000390: 13d1 aa3d cb0d f43d 2002 9e3d 0f0c ac3d
000003a0: 2f6a 8d3d 3f84 8e3d ca9f 45bd 48f0 c6bc
000003b0: 6ad1 36bd 41f8 aa3d 3ce9 173e 164a a6bc
000003c0: 60fa 07bc 32fc e6bc 4013 e6bb e92b c63d
000003d0: 5619 cb3c f28c ed3d 4a27 003e 149c acbc
000003e0: 8da8 c53d 979e f73d 5705 84bc aa38 043e
000003f0: 3088 88bc 2bc9 a73d b05c c43d 5198 5e3b
0.04872066 0.083752714 -0.0446554 -0.03229428 -0.011088251 0.06298944 0.042665605 -0.014703698
0.031857427 0.14431088 0.021709615 0.03086833 0.0683102 0.076736696 0.06744308 0.0010253208
0.059412796 0.115167506 0.13305403 0.043610252 0.0871468 0.11329966 0.10329377 -0.016716527
0.048355304 0.057893556 0.08238307 0.0526263 0.01097646 -0.054889794 -0.06512482 -0.010492317
0.13407502 0.078149244 0.06984983 0.054288197 0.06637212 0.031623684 0.078879304 0.084126934
0.10761319 0.11528211 0.01991289 0.115622796 0.043911833 0.12612957 0.086838305 0.028236074
0.07475944 0.1163866 0.0035706933 0.01060573 -0.009589118 0.061911527 0.015342342 0.041532446
0.06511902 -0.006621403 0.077742025 0.116317965 0.053389784 0.062838905 -0.013210786 0.100812286
0.08153802 0.09363623 -0.09683351 0.091603726 0.1179785 -0.091637306 0.11201645 -0.052618384
0.032132916 -0.019424675 0.023862803 0.0451374 0.01580784 0.10123486 0.1279849 0.041765694
-0.036418747 0.052206475 0.1213435 0.13951848 0.057380088 0.053483415 0.13625051 -0.14561589
-0.08368375 0.10234662 0.08785945 0.12560047 -0.049170095 -0.07229484 -0.029056039 0.10951966
0.08761432 0.09481917 -0.02011505 0.026221607 0.00851389 0.11969016 0.13876584 0.08237917
0.06358347 0.012774654 0.059675846 -0.014643787 -0.0031891763 0.10724252 0.0485101 0.023141012
-0.02719172 0.090291575 0.12501666 0.046673603 0.026602717 0.10515585 0.10622064 -0.053094596
0.10433838 0.054210022 0.00019302468 0.080047466 -0.03840305 -0.015446683 -0.020817066 0.029188944
0.077906035 0.08070487 -0.043225735 0.10607289 0.034161195 0.09296057 0.09485482 0.025366029
0.094868 0.06412621 0.10529023 0.15378958 -0.031755082 0.07374127 0.04448878 0.03698439
-0.013696286 -0.010812787 -0.040526193 0.014596471 -0.0154838 0.09020121 -0.0029974983 0.08827465
0.11840858 0.012743511 0.06674703 -0.011489469 0.05922829 -0.07386993 -0.0441898 -0.026353069
0.00760256 -0.01710921 0.033419807 0.01583062 0.10285713 0.068372734 0.04095811 0.07104171
0.103675075 -0.045265008 0.11840605 -0.0056197993 -0.04431455 -0.039888553 -0.010748286 0.052254803
0.059177727 -0.012496901 0.12716308 -0.029391583 0.08178015 -0.020018375 0.01299156 0.08340043
0.10007093 0.08173996 0.059801683 -0.074106306 0.11462624 -0.048394084 0.0049228454 -0.020420367
0.12425227 -0.031184103 0.105552725 0.040447682 0.08090337 0.07980609 -0.07468341 0.09457311
0.01082122 -0.031717326 0.0894743 0.1275641 0.0852707 -0.017839715 -0.046540346 0.123714484
0.13143085 -0.029839307 -0.057998177 0.1091982 0.005208745 0.090885654 0.04385141 -0.01569017
0.042594332 0.015429431 0.03256338 0.042509966 0.12765121 0.09134084 0.14815225 -0.01347692
0.104425326 0.14169005 0.05276063 0.13407788 0.08340659 0.11916693 0.07715249 0.084007375
0.069050185 0.06958818 -0.04824809 -0.024284497 -0.044633307 0.08348132 0.14835066 -0.020298999
-0.00829944 -0.028196428 -0.0070213377 0.09676344 0.024792355 0.11599149 0.12514988 -0.021070518
0.09651289 0.120907955 -0.016115827 0.1291224 -0.016666502 0.081926666 0.09587991 0.00339653

encoder.6.bias f4 [32]
00000000: f9ff 75bb bf95 703d bdd3 46bc 4b6c 6a3d
00000010: 12cd 813d 3fb3 c1bb f5e5 f7bb 07f1 d8bb
00000020: 2b51 3e3d e79f 7b3d 7d23 343d 6afc 313d
00000030: 4ec5 743d bec5 4fbc 747e 3a3d e108 2cbc
00000040: c778 813d 6dd5 623d 5849 16bc 15e2 b5bb
00000050: a531 2ebb 6db6 64bc 2ba0 123d efde 1f3d
00000060: 1719 493d 931c 64b8 c86d 04bc 4482 443d
00000070: 8619 4f3d 7aa5 293d b3cb 863d 2a86 883d
-0.0037536605 0.05873656 -0.012135443 0.057232182 0.06337942 -0.0059112604 -0.007565255 -0.0066205296
0.046464127 0.06143179 0.043979157 0.04345361 0.059758477 -0.012681423 0.04553075 -0.010500164
0.063218646 0.05537932 -0.00917276 -0.0055506327 -0.0026579883 -0.013959509 0.03579728 0.039030965
0.049096193 -5.4386048e-05 -0.0080828145 0.047975793 0.05056145 0.041417576 0.06581821 0.06666215

encoder.9.weight f4 [6, 32]
00000000: a5f4 e0bc 5a6d 3b3e c271 9bbd 8793 14bd
00000010: 3cd1 153e ab9a c9bc 61a5 edbd b658 1ebe
00000020: 2ae3 fbbc 699e c93c 8245 163e 0910 013e
00000030: 3ee3 263d a104 cfbd f9d4 11bd e535 57bc
00000040: 48fd c83d ac71 843d 5c64 833b 1693 853b
00000050: ace5 62bd 7574 c5bd 7abc 4b3e b9bf fe3d
00000060: 77f3 413e e7e5 b0bc 9c1c 10bd 6154 453e
00000070: d7c2 453e ad7b 1d3e c952 12bd 27c1 213e
00000080: e139 1d3e e6a5 d6bd 2668 043e 3340 8a3c
00000090: 0365 afbb 14bd 41bd 9821 b5bd 288b c73d
000000a0: 877f bd3d 2756 9c3c d5e9 d1bd ca28 043e
000000b0: b460 963d e64e 06bd 0bdb 7e3d f4e0 8f3d
000000c0: f474 683d 5f6c fcbc 8aba e43d 49ae 32bc
000000d0: 7e0a 8dbd 01bb c73c 9920 203d 4cae 22be
000000e0: 9be3 9cbd ece7 76bd 385f bc3d db82 d8bd
000000f0: 0205 2b3d ee47 033c 32e7 e3bd 90a4 67bd
00000100: c5ac ae3c 96aa 683d 42f4 e5bc 3842 a5bd
00000110: 1a83 a6bd 3881 8cbc 4c05 e93d 9653 743d
00000120: c6c5 fcbd 6f93 56bd cf3f ca3d 2d05 803c
00000130: 7c7f 25be 64c2 643d 48bf 1dbe c771 e53d
00000140: a01f cebd cf01 1bbd 6c5f e73d c4c9 a9bd
00000150: 23ff f63d 65e2 4f3d 737b e53d 0802 9dbc
00000160: 77f8 2d3d c6a4 ef3d dda0 093e 6ece 9cbc
00000170: ee02 ba3c df02 8d3c cb4a 1ebe f1b0 e8bd
00000180: 19a9 4abb 259e a33c 7086 bfbd 5e15 063e
00000190: db3a 713c f010 12bd 5eea 4e3d f532 163d
000001a0: 56d5 343d 64c3 37bd 45f0 0d3e 093d 123d
000001b0: 37d6 d83d 44e9 aabd 2a6f a6bc c861 09bc
000001c0: 54c1 be3d fc04 0abe 2834 a63c 8008 cebd
000001d0: f21f ee3d f915 d0bd bb58 913d ae3e 17bd
000001e0: 43b3 e33d 9095 2c3d 7f75 ef3b c7cf e7bd
000001f0: 3f93 e73c 59b5 bbbd 862c 1b3e bb75 5b3d
00000200: 251d 42be 4d37 003e 379c bbbd 090f 02bd
00000210: 8ce7 d23d 9923 b73d a0bb 2a3d 77dc 18be
00000220: 0a55 a0bd e155 12be d80f cbbd a0cf 0fbd
00000230: 5f37 22bc c12d 273d 2614 f2bc 41a3 00be
00000240: bf4f 653d 7ebe a13c 2ba2 01be 2167 523d
00000250: 2cc4 023d e807 d73c 02a2 c5bd d35d e9bd
00000260: 6c90 1abe 5ccb 1ebe baa6 0cbe 5eae aebd
00000270: c283 0abd 327d 2bbe b542 9d3d afd0 5f3c
00000280: 5d59 623d 6067 c9bd 4299 b43d c607 13be
00000290: 2e06 52bd 1779 4c3d 0ebf f1bc 52ec 553d
000002a0: 3705 28be 724a 27be d0f9 9bbd 4c0a 23be
000002b0: 1e5a d7bd f7c9 a53c 79a5 1ebe 26f0 183d
000002c0: 3923 27bd 6c59 c2bd 641a 463d 34c7 c83d
000002d0: 8f96 7cbd ebc3 50bb 89a0 cebd 4ade 30bd
000002e0: 4b40 9cbc 1378 a23c d732 3f3c 86a7 c1bc
000002f0: 330e 2bbd 91ac ecbd d65e c8bd e160 3c3d
-0.027460406 0.18303433 -0.07590057 -0.036273506 0.14630598 -0.024609884 -0.11603809 -0.15463528
-0.030747969 0.024611669 0.14674953 0.12603773 0.04074406 -0.10108305 -0.035603497 -0.013135408
0.098139346 0.06466994 0.0040097665 0.004076372 -0.055394813 -0.09641353 0.19896117 0.12438912
0.1894053 -0.021594001 -0.035183534 0.19270469 0.19312607 0.1537921 -0.03572348 0.15796338
0.1535411 -0.10480861 0.12930354 0.016876316 -0.0053526177 -0.04729946 -0.08844298 0.09743339
0.092528395 0.01908405 -0.10249678 0.12906185 0.073426634 -0.032790087 0.062220614 0.07025328
0.05675216 -0.030813394 0.11168392 -0.010905811 -0.06886767 0.024381163 0.039093588 -0.15886801
-0.076606 -0.06027977 0.09197849 -0.10571834 0.041752823 0.008012755 -0.111280814 -0.056553423
0.021322617 0.05680331 -0.028070573 -0.08069271 -0.081304744 -0.01715146 0.113779634 0.059650026
-0.1234241 -0.052386697 0.09875452 0.015627468 -0.16161913 0.055849448 -0.15405 0.11203342
-0.10064626 -0.03784352 0.11297497 -0.08290437 0.12060382 0.050753016 0.11205187 -0.019166008
0.042473283 0.1170135 0.1344027 -0.019141402 0.022706475 0.017213283 -0.15458219 -0.11361874
-0.0030923544 0.01997287 -0.09351814 0.13094088 0.014723505 -0.035660684 0.05051648 0.03666969
0.044148766 -0.044864073 0.13861187 0.03570274 0.10587733 -0.08345273 -0.020316679 -0.008385129
0.09314218 -0.13478464 0.020288542 -0.10060215 0.11627187 -0.10160441 0.07097002 -0.03692501
0.11118176 0.04213482 0.007307708 -0.11318927 0.028268455 -0.09165449 0.15153703 0.053579073
-0.1895643 0.12521096 -0.09160655 -0.03175262 0.1029807 0.089423366 0.04168284 -0.1492785
-0.0782872 -0.14290573 -0.09915131 -0.035110116 -0.009900897 0.04081512 -0.029550623 -0.12562276
0.055984255 0.019744154 -0.12659518 0.051367883 0.031925365 0.026248887 -0.09650041 -0.11394849
-0.15094155 -0.15507263 -0.13735476 -0.08529352 -0.03381706 -0.16746977 0.07678739 0.013660594
0.055261005 -0.0983417 0.08818294 -0.14358434 -0.051275425 0.049920168 -0.029510047 0.052227326
-0.1640824 -0.16336992 -0.07616007 -0.15921897 -0.10515235 0.020237906 -0.1549281 0.0373384
-0.040805075 -0.09489712 0.04836501 0.0980362 -0.06166702 -0.0031855057 -0.100892134 -0.04318074
-0.019073626 0.019832646 0.011669836 -0.023639452 -0.04176159 -0.11556352 -0.097837135 0.04599083

encoder.9.bias f4 [6]
00000000: 1110 27be 9292 88bd 5cbc 823d 60aa ee3d
00000010: c124 f83d 1609 233e
-0.16314723 -0.06668581 0.06383583 0.1165359 0.12116385 0.15921435

decoder.0.weight f4 [32, 6]
00000000: 9478 4cbe fa65 933e aa08 89bd 5847 6c3e
00000010: 962e cb3e c156 82be 6ba5 4abe c508 403e
00000020: 52d5 9bbe f821 503e f854 00be c74f 99be
00000030: d116 a5be 7bd4 a5be 5462 eabc 5644 7cbe
00000040: d6a5 463e 5eff a33e ed34 5bbd 0b17 91be
00000050: 3bcd 913e f793 873e fdf6 dcbd 6d12 94be
00000060: ca35 02bd f6bc 85bd b950 9abe 95ea 0b3d
00000070: 12b7 11be 773b 4ebe 8de1 493e 3071 b73e
00000080: 5c11 cebe 717f b63e 33be e3bd b3bc 7bbe
00000090: 7d2a f4be e971 a4be b857 203e 06bc 8c3e
000000a0: 58b8 b1be f160 7d3e 3068 44bd f415 bcbe
000000b0: 50b7 c23d d3ea a9be 1d01 a63e b816 f53d
000000c0: ef9e 573e b037 473e 5dbd 983e d880 9dbe
000000d0: a72b cf3c 0c50 39be 02cb 47be 65e5 4bbe
000000e0: 6640 1c3e 5158 c4bb 7c16 e8bb accb c8bd
000000f0: b314 813e a699 02bd 1eac 1f3e 0e28 2cba
00000100: 03f6 693e cd43 a63e 2756 ccbb a5da 98bd
00000110: b810 9fbd a762 2b3e 3fe4 a93d c982 21bd
00000120: 22ed a8be 3ce0 b13e b42f 0bbd 09f0 0bbe
00000130: cc7f a6be 8b6e 983e ab9a bbbe d095 3dbe
00000140: 549e 02be 4ced 09be 9eb3 c4be 8117 c9bd
00000150: 79f0 2fbd 08a6 7e3e 9d3b a43e 7c2c 65bd
00000160: cfd3 3b3b 7b7f 8abd 4016 b5be 7420 823e
00000170: 4a88 833e e18c 913d 9694 6c3d 391b 0b3f
00000180: 3234 9ebe 4dbd 9b3e d686 acbe be92 c0bc
00000190: 4ed2 45bd 1104 913e 605b b4be b1a6 6a3e
000001a0: 2444 a93e 5384 3cbe db81 d93e ca84 ce3e
000001b0: eb2c 9b3e 3861 f3bd b7f0 a4be 2a0e 3fbe
000001c0: 36cd a6bd 0082 96be bb86 f0bc 594e a1be
000001d0: 3a62 493d 1acb 993e 909d cf3d 8e57 ca3e
000001e0: c34b f7bd eaa5 3bbe a546 f23d dc28 f93d
000001f0: f4f2 0d3d c514 9e3e 4da8 3dbe de5a 22be
00000200: 2d87 b9be 6f8b 96be 277a 113e 1b48 d5bb
00000210: 087f c23e b69b 4e3e 8b8b 2b3e ece6 8f3e
00000220: 3a17 d53e 12ea d13e 0ef1 d4bc 7ef3 c6be
00000230: 3d09 b1be 4b14 98be 0cc5 afbe ec40 163e
00000240: 6934 8e3e 08e9 773d 2b3e 40be 85b5 6abe
00000250: e030 d53d 700a c23b c15b 893e 929d 31bc
00000260: 3581 ffbd b6af 93bd ddab b33c 3d76 bdbc
00000270: 1f7f 1cbe 20ac 0abe f900 97bd 57ea c4be
00000280: 6c9d 813d 5e6b 00be 7d2d 983e 700f 7abe
00000290: 0f62 19be 5d82 98be cf2f 02bc f299 21be
000002a0: 66ff c8be 0a73 ee3c 8487 f2bd d2d3 7fbe
000002b0: 33e6 8b3e d751 3d3d edca ac3e 5af3 313e
000002c0: 02bd aabe e92b 7e3d 7f63 8a3e 73f1 7a3e
000002d0: edf5 9fbe 3f1f c4bc caf2 a8be bc4b 903e
000002e0: 2e1c 91bd accc 21be 667d 24be 1095 6abe
000002f0: 576a 253e f280 19be c1cc 05be d6a2 24be
-0.19967872 0.2878874 -0.06691106 0.2307409 0.3968398 -0.25456813 -0.19789664 0.18753345
-0.30436188 0.20325458 -0.12532413 -0.29943678 -0.3224397 -0.32388672 -0.02861134 -0.24635443
0.19399199 0.32030767 -0.05351727 -0.28337893 0.2847689 0.26480076 -0.10789297 -0.28920308
-0.03178958 -0.06530182 -0.30139711 0.03415926 -0.14229992 -0.20139872 0.19714947 0.35828543
-0.4024762 0.35644105 -0.11120262 -0.24583702 -0.47688666 -0.32118157 0.15658462 0.274872
-0.34710956 0.24744011 -0.047950923 -0.367355 0.0950762 -0.3318697 0.32422724 0.11967224
0.21056722 0.19454837 0.29831973 -0.30762362 0.02528937 -0.18096942 -0.19511035 -0.19911726
0.15258941 -0.0059919734 -0.0070827585 -0.09804472 0.25211105 -0.03188481 0.15593001 -0.0006567248
0.22847752 0.32473603 -0.006235856 -0.07463578 -0.07766861 0.16736852 0.082954876 -0.039431367
-0.32993418 0.3474139 -0.03398104 -0.13665785 -0.32519376 0.29771838 -0.3664144 -0.1851418
-0.1275571 -0.13469428 -0.38418287 -0.09818936 -0.042953942 0.24868023 0.3207673 -0.055950627
0.0028660183 -0.06762596 -0.35368538 0.25415385 0.25689918 0.07106949 0.05775889 0.54338413
-0.30899197 0.30417863 -0.33696622 -0.023507472 -0.048296265 0.28323415 -0.35225964 0.2291515
0.330598 -0.18409853 0.42481884 0.40335685 0.30307707 -0.118837774 -0.322149 -0.18657747
-0.0814461 -0.29396057 -0.02936112 -0.31505087 0.04916594 0.30037767 0.101374745 0.39519924
-0.12074997 -0.1832501 0.118298806 0.121659964 0.034655526 0.3087522 -0.18521233 -0.15854976
-0.36235943 -0.29403254 0.14206754 -0.00650884 0.37987542 0.20176587 0.1675245 0.28105867
0.41619283 0.40998894 -0.02599385 -0.38857645 -0.3457736 -0.29702982 -0.34330022 0.14673203
0.2777436 0.06052497 -0.18773715 -0.22920807 0.10409713 0.0059216544 0.26827815 -0.01084079
-0.12475816 -0.072112486 0.021932537 -0.02312767 -0.15282868 -0.13542223 -0.073732324 -0.38460037
0.06328854 -0.12540957 0.29722205 -0.24419951 -0.14978813 -0.2978696 -0.007945969 -0.15781382
-0.39257354 0.02910759 -0.11842254 -0.24983147 0.27324066 0.046220627 0.3374857 0.17377988
-0.33347327 0.062053595 0.27029034 0.24506168 -0.31242314 -0.02394068 -0.32997733 0.2818278
-0.07085453 -0.15800732 -0.1606346 -0.22908425 0.16153847 -0.14990595 -0.13066389 -0.16077742

decoder.0.bias f4 [32]
00000000: dc4c e9bd 190f cb3e 16ea c33e 39c8 4bbd
00000010: aadd 9d3e 7e63 273d 3ce5 64bd 46aa a6bd
00000020: abb2 663d 027a 743e 8f88 4b3d 9a27 293e
00000030: 8306 e73e 95d8 04bd 6b1d 3bbe 19ba cebd
00000040: e9e3 88bd 5012 bfbd cc98 03bf d0f7 1dbe
00000050: f030 29bf f6dc 00bd 1f7a fcbd 746a b4bc
00000060: 5f76 9ebe cf51 263d 7738 793d aea9 403d
00000070: 8083 9f3c c10b 2f3e 97c6 33be 8451 82bc
-0.11391613 0.39659956 0.3826453 -0.049751494 0.3083318 0.040866368 -0.055882677 -0.08137946
0.056322735 0.23874667 0.04969078 0.16519013 0.45122156 -0.03243311 -0.18272941 -0.10094089
-0.066840954 -0.09329665 -0.51405025 -0.15426564 -0.660903 -0.031460725 -0.1232798 -0.022023417
-0.30949685 0.040605363 0.060844865 0.04703682 0.019471884 0.17094328 -0.17556225 -0.01590801

decoder.2.weight f4 [64, 32]
00000000: 58ac cf3c d688 433d 68bf 38bd 07a6 813d
00000010: 5b75 d9bd 4bac 64bd a7c8 84bd 69c5 7dbd
00000020: 8fa6 8bbd 9455 d9bd bc68 ae3c ffbb 263e
00000030: ac5e 9e3c f08b afbd daa2 25bd 1370 13be
00000040: 2291 753c 4e57 47be e816 2cbe d5f7 803d
00000050: d1b1 4bbe 0377 d63d 7f09 583c 22b9 56bc
00000060: 22bc 853b cc01 4abe d498 d3bd d501 c23d
00000070: 7e84 933d 9717 0dbd cd74 13be 6afc 0f3c
00000080: 8dca 01be 9f8f 25bc 454d 0bbe eda6 a8bd
00000090: 588f acbc d3de 0a3e 82a5 28be 9028 2fbd
000000a0: 09f9 34be 3053 003e b320 56bd d8a1 bc3d
000000b0: c751 f7bc 616c 0dbe ebbb e13c 1ab6 563c
000000c0: ea4b f3bd 7a2f f8bd 8330 e9bd c23d 9cbd
000000d0: 18ed 0f3e 2dcb 733d 519e b4bd d46e 53be
000000e0: 8040 1e3d 0818 abbd 0e3f 23be 9b48 03be
000000f0: eab2 21be d979 07be b549 3cbd 0a32 e83d
00000100: 5ea3 43be 4603 3a3d 2217 8d3d 2399 b53d
00000110: 97a1 323d 6b1e d23d 29bc f23d 5092 603d
00000120: 9cbe c9bd 01cc 203e ae75 1f3d a73a 153e
00000130: cd0c 103d b075 19be c28f 2d3d 641d cf3d
00000140: d02e 5b3c 9dca 2b3d 28f0 f6bd 86aa 49bd
00000150: bd11 9b3c 5313 d3bc 5cbb 063e 4ad8 663d
00000160: 3d77 703d 6005 fb3d cc24 88bd c209 efbd
00000170: 2609 e8bd ba5b 69bc c769 cdbd 700c 12be
00000180: bf57 28be 316f 22be 60aa 0fbe c8ee 14be
00000190: 9532 55be a12d 3bbd e8cd dabd 9831 17be
000001a0: 0b4b 6a3d 207c 91bc b5d9 cc3d 71c7 cc3c
000001b0: 9f61 2b3d 303e 02bd e8eb c93d 88bb 0cbe
000001c0: c715 a53d cced 843d 51e8 d13b a24a 813d
000001d0: 1424 babd fd86 01bd b659 83bb 13d2 8ebd
000001e0: 2065 45be 2699 313d cf3c 503d ad87 04bd
000001f0: 8ca8 9bbd 8633 ecbd cab3 c53d 1015 aebc
00000200: 2cd4 29be d4e9 ff3d 34eb cd3d 5f34 c93d
00000210: 851c f53d f454 2bbe 523b ddbd 1a6b 4cba
00000220: c35e 7d3c dbe2 b73d 16f2 53bc 58a6 c5bd
00000230: 79bf c43d c1a4 e03c 56da e23a 221f 263c
00000240: 8eaf dbbc 27b1 f2bd 33df 2bbc 9cc4 a33d
00000250: 491d 21be f3d4 d33d ece5 afbd 7814 ba3b
00000260: 0696 3fbe 6ef3 1a3e 65c7 31be d2e4 9a3d
00000270: 5697 cc3d f70f 683d 733b d33d 81dc d43d
00000280: e950 23bd 83a4 f93d 8cf8 cfbc 2947 b03d
00000290: ecde a7bd 4a0b b1bc 3c43 943d b148 c13d
000002a0: a810 c8bd 358e e13c 3222 27bd b16b 743d
000002b0: 7cf0 14be 418c c93d 69ed c8bd 66b4 f23c
000002c0: 6b63 f63d f15f d1bd 0ee8 21bc 40cc 033e
000002d0: af55 0fbe a137 c7bd ca38 a53d 381f 2abd
000002e0: c473 323d 8277 9bbd 43c2 163e f0b5 4ebd
000002f0: 0347 cabd 921f d53c beea 7f3d 14aa 76bd
00000300: 954b cb3c e79c f43d 6161 4ebe 8e71 49bd
00000310: 1cbe f1bc 374b 253d f615 913d b535 69bd
00000320: 3776 52bd 2dfe 033e bea6 973d a41c 1c3c
00000330: 9b93 0fbe 7c8b a6bc 7e81 0dbc 7e67 a53d
00000340: 781b e23d dd80 16be b985 9c3c 6568 613c
00000350: 2a4b 46bd 600f b33d 1581 5fbd db67 ce3d
00000360: f890 62bd 1627 7e3d c7d6 cfbb e4c7 253d
00000370: 4aff 113e 37bb 323c 3143 2fbe c8a3 3d3c
00000380: 8e79 203d 915e 37bd cfe2 aebd 3e3f 31be
00000390: b371 193e f738 90be 32b0 44be 0896 31be
000003a0: f770 94bb 14bb f93d 6b45 83be 09d5 e53d
000003b0: dcb0 ccbd c6c3 95be 1c0f 333d 43f4 f1be
000003c0: 6baa 48be 6bc7 04be 0290 d33d a25f a03d
000003d0: dec2 343c 597c 4fbb a9cc 6dbd b0b7 42be
000003e0: 0ad2 5abc 22ed b7bd 2600 7fbe cffb 4dbe
000003f0: e77f 18be 2fa0 bfbd 3235 05be 3483 9cbd
0.025350735 0.04773792 -0.045104414 0.06330495 -0.10618087 -0.055828374 -0.06483584 -0.061955843
-0.06818878 -0.10612026 0.021290176 0.16282652 0.019332252 -0.08571613 -0.04043851 -0.14398222
0.014988216 -0.19466898 -0.16805613 0.0629727 -0.1989205 0.104719184 0.013185858 -0.013105663
0.004081265 -0.19727248 -0.10331884 0.09473006 0.07203005 -0.034446325 -0.14400025 0.008788208
-0.12674923 -0.010105043 -0.13603695 -0.082349636 -0.021064445 0.13561563 -0.16469386 -0.042763293
-0.17673124 0.12531734 -0.05227728 0.09210557 -0.030190362 -0.13810875 0.027555427 0.01310494
-0.11879714 -0.121184304 -0.11386206 -0.07628967 0.14055288 0.059519935 -0.08819259 -0.20647746
0.03863573 -0.08354193 -0.15942022 -0.12820666 -0.15790907 -0.13230075 -0.04596873 0.11337669
-0.19105288 0.045413278 0.06889178 0.08867099 0.043611135 0.10259708 0.11852295 0.054827034
-0.09850809 0.15702821 0.038930587 0.14573155 0.035168458 -0.149863 0.042373426 0.10113028
0.01337786 0.041941274 -0.12057525 -0.04923489 0.018929357 -0.02576605 0.1315741 0.056358613
0.058707464 0.122568846 -0.066476434 -0.11671783 -0.1132987 -0.014243061 -0.10029941 -0.14262557
-0.16439722 -0.15862729 -0.14029837 -0.14544213 -0.20820077 -0.045697812 -0.10683805 -0.14765012
0.057200473 -0.017759383 0.10002462 0.024997445 0.041841146 -0.031797588 0.09859449 -0.13743412
0.08060794 0.06490669 0.006405868 0.06313063 -0.090889126 -0.031622875 -0.004008497 -0.06973662
-0.19276857 0.043358944 0.05083924 -0.032355953 -0.07600507 -0.11533265 0.09653433 -0.021250278
-0.16584843 0.12495771 0.10054627 0.09824442 0.1196833 -0.16731626 -0.1080233 -0.0007797942
0.0154644875 0.08978816 -0.012936136 -0.09650868 0.09606833 0.02742231 0.0017307501 0.010139259
-0.02681711 -0.118501954 -0.010490227 0.07996485 -0.15733828 0.10343351 -0.08588776 0.0056787096
-0.18709573 0.15131924 -0.17361219 0.07563175 0.099898025 0.05665585 0.103140734 0.1039362
-0.039872084 0.12189581 -0.025387071 0.08607323 -0.08196816 -0.021611828 0.072393864 0.09437693
-0.09768802 0.02753363 -0.040804096 0.059673015 -0.14544863 0.098412044 -0.098109074 0.029627036
0.12030681 -0.102233775 -0.009881986 0.12870884 -0.1399753 -0.09727407 0.08067472 -0.04153368
0.043567434 -0.07591154 0.14722542 -0.050466478 -0.09876826 0.02601603 0.062479727 -0.060220793
0.024816314 0.11943989 -0.20154335 -0.04918056 -0.029509597 0.040354934 0.07084267 -0.056935985
-0.05138227 0.12889929 0.074048504 0.009528313 -0.14021151 -0.020330183 -0.00863683 0.0807638
0.110403955 -0.14697595 0.019106733 0.0137578 -0.048411526 0.08743167 -0.05456646 0.100784026
-0.055314034 0.062048994 -0.006342742 0.040473834 0.14257541 0.010908893 -0.17115475 0.011574693
0.039178424 -0.04476792 -0.08539354 -0.17309281 0.14984779 -0.2816846 -0.19207838 -0.17342389
-0.004530068 0.121938854 -0.256389 0.11222274 -0.09994671 -0.29250926 0.04371558 -0.4725667
-0.1959626 -0.12966697 0.10330202 0.078307405 0.011032788 -0.003165981 -0.058056507 -0.19015384
-0.013355741 -0.08980776 -0.249024 -0.20115589 -0.14892541 -0.093567245 -0.13008574 -0.076422125

decoder.2.bias f4 [64]
00000000: 8889 9ebe c35b 53be 8b76 b23e 2483 3cbe
00000010: 51f9 b73e f786 23bd de2d 973d 0a54 123e
00000020: cbc7 593d 7dab 0abd 4bae 04be 7e88 b93e
00000030: 9be9 743e 1801 483d 5768 353e d7e0 ae3e
00000040: 0da0 02be 3ddd 053e 22b6 4b3e 484f bf3e
00000050: b0fe d5bc 2758 133e 38b9 f43d 71f6 bfbd
00000060: 1340 b7bd 813e 0b3e 37ea e43d 794e 523e
00000070: 80e8 24bf 4947 693e 36b9 aebd 6608 693d
00000080: 2f18 8dbd 1ef9 163c 273e a7be fc88 d43c
00000090: 4d47 cf3e 5910 293e 1516 7f3d 59bc a13e
000000a0: 2b51 87be 8177 8e3d 12df ef3d 8ecb 273d
000000b0: aaf0 f1bc ef6c 213c 8a0c 2c3d 0950 493d
000000c0: ed6f b53c c907 263e 896c a03b d32e 22bd
000000d0: f8a1 07be f1fd aa3c 9f3d 4fbe c495 f73d
000000e0: f52b c93d 953a 643e f3ed e93d 6dcb 98bc
000000f0: d857 96bd f5cc 0d3e 0844 c33d b461 863c
-0.30964303 -0.20640473 0.34856066 -0.18409401 0.359324 -0.039923634 0.07381795 0.14289871
0.053169053 -0.03385495 -0.12957112 0.36236948 0.23917238 0.048829168 0.17715584 0.34155914
-0.12756367 0.13072677 0.19893697 0.37365174 -0.026122421 0.14389096 0.1194939 -0.09373177
-0.08947768 0.13598062 0.111774854 0.20537747 -0.64417267 0.227811 -0.0853142 0.056892775
-0.06889378 0.009214668 -0.32664606 0.025944225 0.40484086 0.16510142 0.06227692 0.3158901
-0.26429114 0.06956387 0.11712469 0.04096561 -0.029533703 0.009852632 0.042004146 0.049148593
0.022148097 0.16213907 0.004895751 -0.039595436 -0.1324538 0.020873042 -0.2023835 0.120891124
0.09822837 0.22287972 0.11422338 -0.018651688 -0.073409736 0.13847716 0.0953446 0.01640401

decoder.4.weight f4 [128, 64]
00000000: 46b7 64bd 0951 3dbd 92b4 95bd 82c3 dd3d
00000010: bdca c1bc 3bbe 363d 85b5 5fbc 0408 7f3e
00000020: b29e fc3d f539 16bc dba3 a0bc 0488 e13d
00000030: 27ce 5e3c d352 193c 4a60 913e 3d29 4a3e
00000040: 5da5 ca3c 191c 423e b1cd 283e 0c68 dc3d
00000050: a40d 413c e348 b9bd 62d9 9a3d 36b3 f2bc
00000060: cc2a 9bbd 4052 a23e f01a 0e3e 64a4 393d
00000070: d49f 023e a054 ae3d 348c 5e3d fb6b 333d
00000080: 687f 7e3d 084b 63bd 6b4d 2e3d e719 0ebd
00000090: 00a8 a0bc 3a14 ee3c afb9 123e 3ae8 d53d
000000a0: 5b59 45bc 41fd 82bb b1cc cd3d caea 8cbd
000000b0: 8367 92bd 39bf 013e a9fa 00bd bf80 293d
000000c0: e2c6 bfbc ba6c 583c f447 be3d 83c0 7dbc
000000d0: 6aa5 a73d 5e9f 76bd 82f6 94bb d218 82bb
000000e0: 66aa 673d b628 e53d fd26 41bd 5c5d 943d
000000f0: 3408 50bd 656f 083d bd20 3e3d 142f dabd
00000100: 40e1 d33d a591 583d 1f39 5c3c 1de3 a43d
00000110: ae0e dc3a 9732 89bd 9a44 e9bc e9f1 17be
00000120: d75b 84bc 7aec cabd 1dcb 5e3d 256c 743d
00000130: e834 fe3c 0384 bbbd 5002 5bbe 758b ea3d
00000140: 0421 5c3d 9fec bdbd 948a a8bd 0576 d43c
00000150: 54c6 963d 9b7f 953d 428e d6bd 1b73 43bc
00000160: 3989 4c3d 0d5e 8ebe 3216 7e3d 019b 7fbd
00000170: dd5e e9bd 91b2 3d3c 1a52 89bd 601c 373d
00000180: 8774 81bc 7dad 89bd 4925 f3bc 0925 bd3d
00000190: 6288 7c3d e4f5 5f3c b63b cf3c e5f6 0cbc
000001a0: 5e0d 103d 6232 a43b 8a05 c63c fe83 8abd
000001b0: fc1c 843d 336b 913d 886d 163d b37c c23c
000001c0: cf18 0dbd 30fc 04be 7282 a4bd decc db3c
000001d0: c125 e03d 0eb7 f53c a42e 2a3d d91d f4bc
000001e0: 4efa c5bd 8b67 23bd 5a80 a5bd 9a1f 00be
000001f0: 0bb0 a1bd 887b e5bc 27eb f43c 374c 713c
00000200: 470a 8fbd fe82 223d 403f 1f3e 1364 a4bd
00000210: e7c3 7c3d 1b2b c0bd 6544 4d3d 4319 ed3d
00000220: 4a14 a0bb 0799 843d a529 643d 68e7 b43c
00000230: 9678 ad3d eef1 51bd 7e49 593e 7761 093e
00000240: 169e 1cbe 89b0 d23d 96c9 0f3e 9b96 943d
00000250: f4b7 3ebc 52ed 28bd 7664 06bd b7dc d5bd
00000260: 56cf 38be 48f7 993e 1f74 523e ac51 27bc
00000270: ca7f 07be 2cff 23bd 2d16 1cbe 7b2d d8bc
00000280: 3a18 f8bc 5dfc 0bbe f489 09be dc1a c43b
00000290: 80d2 273d 56be 623c b83e a33e 29f7 193e
000002a0: 726c 31be dc9e a7bd 4a2b 823c 19a5 30be
000002b0: 620b e93b d7ea 3fbe 66e3 ef3c 6db4 733d
000002c0: 10af 7cbd 3772 3c3e 7396 f1bd c2cb 6bbd
000002d0: 6d26 883b f306 b9bb f454 63bd f3b7 14bc
000002e0: d825 f4bd 7727 92bd 15c3 673c c0b9 a83c
000002f0: 8c74 5cbe d5b8 c53d 0a46 12be 895a 06bb
00000300: a9cf 723d 2f80 7ebc 2a5d 80bd b1a0 b2bd
00000310: 7f9e cabd 3192 3cbd 8872 a1bd 3db3 743b
00000320: b4ca debd b566 64bd 3841 ccbd 5f11 903d
00000330: 18bc d3bd 1d2c fabd 0cdd 27bc 43cb d4bd
00000340: 71bb a7bd 1bc5 bcbd d43c 9bbd 1a3a 17bd
00000350: 4d53 483c b62b a33b c1c4 d0bd 41a0 80bb
00000360: a7ea 983d 847e 883c 25a0 d3bd 5af4 03be
00000370: da76 92bd b773 2d3c 2aaf a2bc 1b00 02be
00000380: b388 68bd 3371 d4bc 79f4 0b3d 9294 ebbd
00000390: add0 bbbd 9f19 acbd a0b7 55bc b940 19be
000003a0: 5801 d13c 698a efbd 0637 a23d 6794 753d
000003b0: e49f 853c 67f7 debd 0745 fcbd 7c39 34bd
000003c0: 1c01 683d 1861 de3a 1d80 ea3c 0128 cf3c
000003d0: caad 6f3d 0b4e 083d 7b74 f03c f979 11bd
000003e0: d4ef f6bd 378a 1fbd 9bd0 753d a184 133d
000003f0: d408 32bb 9ee0 d4bc 2541 13be c355 05be
-0.055838846 -0.04621986 -0.07309832 0.10828306 -0.023656243 0.04461501 -0.0136541175 0.24905401
0.12334956 -0.0091690915 -0.019609382 0.11012271 0.013598955 0.009358126 0.28393775 0.19742294
0.024737054 0.18956031 0.16484715 0.10762033 0.011783037 -0.09047105 0.07560994 -0.02962647
-0.07576522 0.31703377 0.13877463 0.04532279 0.12756282 0.08512235 0.054332927 0.04380415
0.062133223 -0.055491477 0.0425543 -0.03469267 -0.019611359 0.02906238 0.14328645 0.10444684
-0.01204523 -0.0039974754 0.100488074 -0.0688072 -0.071486495 0.12670602 -0.03148905 0.041382547
-0.023410264 0.013209516 0.09291068 -0.015487793 0.08185847 -0.06021058 -0.0045459876 -0.003970244
0.05655899 0.111894056 -0.047156323 0.072443694 -0.050789073 0.03330936 0.04641794 -0.10653511
0.103456974 0.052873272 0.013441353 0.08051131 0.0016789043 -0.06699102 -0.028475095 -0.14838375
-0.016157074 -0.099083856 0.054392923 0.059673447 0.031031087 -0.091560386 -0.21387601 0.114523806
0.053742424 -0.092736475 -0.08229557 0.025935182 0.07362047 0.072997294 -0.10476352 -0.011929299
0.049935553 -0.2780613 0.062032886 -0.062403683 -0.11395047 0.011578218 -0.06705113 0.044704795
-0.015802635 -0.067225434 -0.029680865 0.092355795 0.061653502 0.013669465 0.025297027 -0.008603786
0.035168998 0.005010889 0.024172563 -0.06763457 0.06450841 0.07100525 0.03672555 0.023741102
-0.034447487 -0.12986827 -0.08032693 0.026831087 0.10944701 0.029994514 0.041548386 -0.029799389
-0.096668825 -0.03989367 -0.08081122 -0.12512055 -0.07894906 -0.028013006 0.029897286 0.014727644
-0.06984382 0.039675705 0.15551472 -0.080269 0.061710265 -0.09383222 0.050114054 0.11577084
-0.004885231 0.064745 0.055703778 0.022083 0.084702656 -0.051256113 0.21219441 0.13416086
-0.1529468 0.10287578 0.14041743 0.07255288 -0.0116405375 -0.04124195 -0.03281065 -0.10442489
-0.18047842 0.30071473 0.20552109 -0.010212343 -0.13232341 -0.040038273 -0.15242834 -0.026388874
-0.03028499 -0.13670488 -0.13431531 0.005984647 0.040972233 0.013839325 0.31883788 0.1503569
-0.17326525 -0.08184597 0.015889782 -0.1725048 0.0071119526 -0.18741928 0.029283237 0.05949824
-0.06169039 0.18402945 -0.11796274 -0.057567365 0.0041549713 -0.0056465804 -0.05550094 -0.00907706
-0.119212806 -0.071364336 0.014145632 0.020596385 -0.21528834 0.096543945 -0.1428453 -0.002050074
0.05928007 -0.015533491 -0.0626777 -0.08722056 -0.09893512 -0.046037856 -0.07883173 0.003733828
-0.10878506 -0.05576201 -0.09973377 0.07034563 -0.103386104 -0.12215445 -0.010245573 -0.103903316
-0.081900485 -0.092172824 -0.075799614 -0.036920644 0.012226892 0.004979576 -0.10193778 -0.0039253538
0.074666314 0.01666189 -0.103332795 -0.12886181 -0.071515754 0.010586671 -0.019858915 -0.12695353
-0.05677099 -0.025932884 0.034168694 -0.11502947 -0.09170661 -0.08403324 -0.013044268 -0.14966096
0.025513336 -0.116963215 0.07920651 0.05995598 0.016311593 -0.10887032 -0.123178534 -0.044000134
0.056641683 0.0016966192 0.028625542 0.02528763 0.058515348 0.033277553 0.029352417 -0.035516713
-0.12057462 -0.03895017 0.060013395 0.036015157 -0.0027165907 -0.025986012 -0.1438032 -0.13020997
