img/Datos/Models/model-lat7.pth (torch, 192994 bytes, 16 tensors)

encoder.0.weight f4 [128, 99]
0	0xbdc72514	-0.09723869
1	0x3d8fd9eb	0.070239864
2	0x3d9e4cb0	0.07729471
3	0xbddd5a6c	-0.10808262
4	0xbce984a0	-0.028505623
5	0xbd80f856	-0.06297366
6	0xbdaa3977	-0.08311742
7	0xbdb3a184	-0.08771041
8	0x3db10894	0.08644214
9	0x3b5a0593	0.0033267483
10	0xbd133365	-0.035937686
11	0xbdc00075	-0.09375087
12	0x3d8003d1	0.06250728
13	0x3d40f868	0.0471119
14	0x3d966294	0.07343021
15	0xbd82eb48	-0.063925326
16	0x3d995b92	0.07488169
17	0xbd4dfe42	-0.050291307
18	0xbc9e8c56	-0.019354027
19	0xbd22814f	-0.0396741
20	0xbdc09111	-0.09402669
21	0xbde84129	-0.11340553
22	0xbdd6817a	-0.104739144
23	0x3cae2f2d	0.02126273
24	0x3d4d9ba9	0.050197277
25	0xbcb8b7df	-0.022548614
26	0x3d00db48	0.031459123
27	0xbd47e4a9	-0.04880205
28	0x3bacb567	0.0052706483
29	0xbd0c7499	-0.034290884
30	0xbcca2048	-0.024673596
31	0xbcf309e0	-0.029667795
32	0xbdbb1698	-0.09135169
33	0xbc5073d6	-0.01272293
34	0x3d658e28	0.056043774
35	0x3b5c3b64	0.0033604736
36	0xbc003bcf	-0.0078267595
37	0xbd6cac74	-0.05778165
38	0xbd3b2201	-0.045686726
39	0x3c716722	0.014734061
40	0xbad95f7a	-0.001658424
41	0x3ce2cf31	0.027686687
42	0xbd7e2e83	-0.062056076
43	0xbda296d9	-0.07938928
44	0xbbd2c6ed	-0.006432405
45	0xbd8a74b8	-0.067605436
46	0x3d80f7cf	0.06297266
47	0xbd1fbaed	-0.038996626
48	0xbdcb3acc	-0.09923324
49	0x3d62034e	0.055178933
50	0xbcf36f87	-0.029716266
51	0xbd76a823	-0.06021894
52	0x3d778bda	0.060436107
53	0xbca5ba0d	-0.020230317
54	0x3d970cfc	0.073755234
55	0xbb635239	-0.003468646
56	0x3d960d6a	0.07326777
57	0xba6851e8	-0.00088623026
58	0x3bbe10cc	0.005800342
59	0x3d99d05d	0.07510445
60	0xbd8675d3	-0.06565442
61	0x3da155b2	0.07877673
62	0xbd7af368	-0.061267287
63	0xbdd27963	-0.10277059
64	0x3d66cdb3	0.056348514
65	0x3b2671ad	0.0025397346
66	0xbd8580e8	-0.065187275
67	0xbc667ca3	-0.014067802
68	0xbc793b16	-0.015211841
69	0x3c376b30	0.011194989
70	0x3d32eaa0	0.043680787
71	0xbde13e3f	-0.109982006
72	0x3d4d5273	0.050127458
73	0x3d99cedb	0.07510158
74	0xbd5d6e17	-0.054060068
75	0xbd027052	-0.0318454
76	0x3db95760	0.090498686
77	0xbbef2f0d	-0.00729931
78	0xbd95061c	-0.07276556
79	0xbd1f6639	-0.038915846
80	0xbca3047e	-0.019899603
81	0xbd85839b	-0.065192424
82	0xbd2f35fe	-0.0427761
83	0xbd2bcacb	-0.041941445
84	0xbc5118a7	-0.012762225
85	0xbdc16522	-0.09443118
86	0xbd5430e3	-0.051804435
87	0x3d4aef8c	0.049544856
88	0xbd49c160	-0.049256682
89	0x3ace1dc3	0.0015725422
90	0xbcd9bd25	-0.026579449
91	0xbdb0ad69	-0.08626825
92	0xbb2f7b7d	-0.0026776486
93	0xbdbc1212	-0.09183134
94	0xbd5ea112	-0.054352827
95	0xbd3a1ef5	-0.04543968
96	0x3d47e91e	0.048806302
97	0xbcc7d52c	-0.02439364
98	0xbaf9ee5a	-0.0019068227
99	0x3da356d3	0.07975545
100	0xbdb60941	-0.08888484
101	0xbba0ee6d	-0.004911235
102	0xbd5af2bd	-0.05345415
103	0x3baa9bf1	0.005206578
104	0x3b285708	0.002568664
105	0xbddc2f7f	-0.10751247
106	0x3d9198a4	0.07109192
107	0xbd8292c9	-0.06375653
108	0x3d0571fb	0.032579403
109	0xbcc2cfeb	-0.023780784
110	0xbd8d1cbd	-0.06890247
111	0x3dbf3a81	0.093373306
112	0x3cc09bdf	0.023511825
113	0x3dcd5259	0.10025472
114	0x3d91a05d	0.07110665
115	0x3d9d8adf	0.07692503
116	0x3d9d1082	0.07669164
117	0x3d3cbe06	0.046079658
118	0x3cceac8f	0.025228767
119	0x3d83822f	0.06421315
120	0x3daa30b1	0.083100684
121	0x3e04061d	0.12892957
122	0x3df8b70e	0.1214429
123	0x3d0c8878	0.034309834
124	0x3d9b1f12	0.075742856
125	0x3de76c6e	0.11299978
126	0x3d336dfc	0.04380606
127	0xbd370348	-0.044680864
128	0x3cef792f	0.02923259
129	0x3e0375d6	0.1283792
130	0xbd35bde8	-0.04437056
131	0xbc0cb0d7	-0.008587084
132	0x3e0c0b9e	0.13676307
133	0xbd267d31	-0.040646736
134	0x3d443b90	0.047908366
135	0xbd1e95c6	-0.038717054
136	0x3ddbbdf1	0.10729588
137	0x3d546eda	0.05186353
138	0x3d839eac	0.06426749
139	0x3de4d021	0.1117251
140	0xbd00c09d	-0.03143369
141	0xbc9a7bf9	-0.018857943
142	0x3dd5539b	0.10416337
143	0x3daf78e1	0.08567978
144	0x3d997a40	0.074940205
145	0xbd0be96a	-0.034158148
146	0xbd7277fd	-0.05919646
147	0xbd656e4a	-0.056013383
148	0x3d388a2e	0.045053653
149	0x3d965cb1	0.07341898
150	0xbce624dc	-0.028093748
151	0x3d19b34f	0.037524518
152	0x3c442631	0.011971996
153	0xbd6ecd01	-0.058300976
154	0xbd3a1b2a	-0.045436062
155	0xbd3481f7	-0.044069257
156	0xbc64d5ab	-0.013966958
157	0x3dcf1969	0.101122685
158	0xbcad5a52	-0.021161232
159	0x3d25bafe	0.040461533
160	0x3da037dc	0.07823154
161	0xbdc46bcf	-0.09590875
162	0x3d4f3945	0.050591726
163	0x3d1d900f	0.038467463
164	0xbd98897a	-0.074480966
165	0x3daca041	0.084290035
166	0xbd70eec2	-0.058821447
167	0xbd7608ca	-0.060066976
168	0x3d541354	0.051776245
169	0xbddcd581	-0.1078291
170	0xbd3eb097	-0.046555128
171	0xbd9d671e	-0.07685684
172	0x3d86f5b9	0.065898366
173	0x3b0abd9a	0.002117014
174	0xbbd6191d	-0.0065337555
175	0x3d86cef4	0.06582442
176	0xbd27e559	-0.040990207
177	0x3d8dacf5	0.069177546
178	0x3d5c9177	0.053849664
179	0xbd273950	-0.04082614
180	0xbcbfb1ce	-0.023400214
181	0x3d89259b	0.06696626
182	0xbd842854	-0.064530045
183	0xbde689ee	-0.11256777
184	0x3cb37000	0.021903992
185	0xbc2dc3f5	-0.010605802
186	0xbd17cb90	-0.037059367
187	0xbd975e72	-0.07391061
188	0xbda8d11a	-0.08243008
189	0xbc27e2c7	-0.010246939
190	0x39842f2b	0.00025212145
191	0x3d009edb	0.031401496
192	0xbd34ec83	-0.044170868
193	0xbdaa317b	-0.08310219
194	0xbcfd7ce9	-0.03094335
195	0xbdb0571f	-0.08610367
196	0xbe05a153	-0.13049822
197	0xbd8a0fe0	-0.06741309
198	0xbdab176a	-0.08354075
199	0xbe146ace	-0.14493868
200	0xbdf6910e	-0.12039386
201	0x3d284a1e	0.04108631
202	0xbc2ea935	-0.010660459
203	0xbe076cb9	-0.13225068
204	0x3d0863db	0.033298355
205	0xbb105c63	-0.0022027723
206	0x3d1cf034	0.038315013
207	0xbddd0281	-0.10791493
208	0x3d0c781b	0.03429423
209	0xbda72f0d	-0.08163271
210	0xbdd0bf20	-0.10192704
211	0xbdd638e8	-0.10460073
212	0x3d500b15	0.05079182
213	0xbc60cf71	-0.013721333
214	0x3d80cfba	0.06289621
215	0xbdc47cf8	-0.095941484
216	0xbd238383	-0.03992034
217	0xbd98adb6	-0.07455008
218	0xbd29e34d	-0.041476537
219	0xbd698d96	-0.057019792
220	0xbd023037	-0.031784263
221	0xbd7245a5	-0.05914845
222	0xbdfaba2f	-0.12242543
223	0x3c348fdd	0.011020628
224	0x3d272d38	0.04081461
225	0xbba77fea	-0.005111684
226	0xbde860c4	-0.113465816
227	0xbdbfb0b6	-0.09359877
228	0x3ae4296a	0.0017407362
229	0x3caa20e5	0.020767638
230	0xbdee6208	-0.11639792
231	0x3c070117	0.008240006
232	0x39310ffb	0.00016885989
233	0x3c6af3ff	0.0143404
234	0xbdb799a7	-0.08964854
235	0xbd6ecdb5	-0.058301646
236	0xbdb03a6c	-0.08604893
237	0xbd207421	-0.03917325
238	0xbda5f6e2	-0.0810373
239	0x3d22c690	0.039740145
240	0xbd39f2f3	-0.04539771
241	0x3d98e33a	0.07465215
242	0x3da010ad	0.07815681
243	0xbc0d0924	-0.008608136
244	0x3d98c1cd	0.074588396
245	0x3d818190	0.0632354
246	0x3b914720	0.0044335276
247	0x3cf5fa0b	0.030026456
248	0xbc8b75f2	-0.017024014
249	0xbdabd183	-0.083895706
250	0x3db83dc5	0.089961566
251	0xbdabe88c	-0.08393964
252	0xbcf14d7b	-0.02945589
253	0x3c8ac54f	0.016939787
254	0xbd92ed0a	-0.07174118
255	0xbca43073	-0.020042634

encoder.0.bias f4 [128]
0	0xbdaaaa7a	-0.08333297
1	0xbece1f5d	-0.40258303
2	0xbd840a14	-0.06447235
3	0xbda53961	-0.08067585
4	0xbe00970d	-0.12557621
5	0xbe86d3b0	-0.2633338
6	0xbe23d326	-0.15998515
7	0xbe957cd2	-0.29196793
8	0xbe8e055d	-0.27738467
9	0xbe1d1852	-0.15341309
10	0xbe1a6100	-0.15076065
11	0xbde98bc6	-0.11403613
12	0xbe1a0e73	-0.15044574
13	0xbeabcce2	-0.3355475
14	0xbf0d6df9	-0.5524593
15	0xbe961a73	-0.29317054
16	0xbe6d63c1	-0.23182584
17	0xbe4eb7aa	-0.2018725
18	0xbdab6d4b	-0.08370455
19	0xbdb0f04c	-0.08639583
20	0xbe1188e0	-0.1421237
21	0xbec7434f	-0.3891854
22	0xbe7ca591	-0.24672534
23	0xbdf68ade	-0.120382056
24	0xbeafdbb4	-0.34347308
25	0xbe7c2430	-0.2462318
26	0xbe995d57	-0.29954025
27	0xbdc89242	-0.097935215
28	0xbe70e66a	-0.23525396
29	0x3e65dd15	0.22447617
30	0xbe91e7eb	-0.28497252
31	0xbec553cc	-0.38540494
32	0xbdb82445	-0.08991293
33	0xbdf0362c	-0.117290825
34	0xbeac4157	-0.336436
35	0xbea57858	-0.32318377
36	0xbe998767	-0.29986116
37	0xbe731c68	-0.23741305
38	0xbd9188c2	-0.071061626
39	0xbdcd4c4d	-0.10024319
40	0x3dbb9188	0.09158617
41	0xbe107598	-0.14107358
42	0xbe211e27	-0.15734158
43	0xbe75d587	-0.24007235
44	0x3d4d4e92	0.05012376
45	0xbedd08c4	-0.4317075
46	0xbe906036	-0.28198403
47	0xbe1d506b	-0.15362708
48	0xbe5fc182	-0.21851161
49	0xbd2ae4f8	-0.041722268
50	0xbe20152f	-0.15633081
51	0xbec8a824	-0.3919078
52	0xbdaec081	-0.08532811
53	0xbd1d8151	-0.038453404
54	0xbeddb7b7	-0.43304226
55	0xbedb5bf4	-0.42843592
56	0xbdec4207	-0.11536031
57	0xbe7a6aba	-0.24454775
58	0xbe792691	-0.24331118
59	0xbe36918c	-0.17828959
60	0xbe77e523	-0.24208502
61	0xbe57a590	-0.21059251
62	0xbe7a9278	-0.24469936
63	0xbe07d4b8	-0.1326474
64	0xbd845bd4	-0.06462827
65	0xbe8d04a2	-0.27542597
66	0xbe635b9c	-0.22202915
67	0xbea819d1	-0.32832196
68	0xbe8a0e58	-0.26964068
69	0xbe7f0c64	-0.2490707
70	0xbe2c2b73	-0.1681345
71	0xbdb36759	-0.087599464
72	0xbe4c6bb9	-0.19962968
73	0xbe6e20a1	-0.23254634
74	0xbe901492	-0.28140694
75	0xbecf34d0	-0.4046998
76	0xbe12d7de	-0.1434016
77	0xbece87a9	-0.40337875
78	0xbcf8b397	-0.030359073
79	0xbe842c9f	-0.25815293
80	0xbe9a7b8e	-0.3017239
81	0xbe9debf8	-0.30844092
82	0xbe6701b2	-0.2255924
83	0xbdad86fe	-0.08473013
84	0xbe6922fa	-0.22767249
85	0xbe89c057	-0.26904556
86	0xbf02c617	-0.5108351
87	0x3d4d29fa	0.05008886
88	0xbe339bce	-0.17539904
89	0xbdf507fc	-0.119644135
90	0xbe72c2dc	-0.23707145
91	0xbdc4aa16	-0.09602754
92	0xbe6da949	-0.23209108
93	0xbe1f5edb	-0.15563528
94	0xbe0cd720	-0.13753939
95	0xbd6e9da2	-0.0582558
96	0xbd26fd14	-0.040768698
97	0xbebd6f96	-0.36999196
98	0xbdeafe93	-0.114743374
99	0xbebdd486	-0.37076205
100	0xbe85ac06	-0.26107806
101	0xbe13e37a	-0.14442244
102	0xbdde3c4d	-0.10851345
103	0xbd393b53	-0.04522259
104	0xbe3bcca3	-0.18339781
105	0xbe91dc5b	-0.2848843
106	0xbe71ba73	-0.23606281
107	0xbe84b898	-0.25922084
108	0xbf159d4f	-0.5844316
109	0xbec61e4d	-0.38694993
110	0xbe1eb95b	-0.15500395
111	0xbe8ddba0	-0.27706623
112	0xbd21d391	-0.039508406
113	0xbe8b0c6f	-0.27157924
114	0xbe3cd328	-0.18439925
115	0xbe8e4b04	-0.27791607
116	0xbe08ada6	-0.13347492
117	0xbe80f351	-0.25185636
118	0xbea392ba	-0.3194788
119	0xbe22f6d0	-0.15914464
120	0xbe321e20	-0.17394304
121	0xbdc33d6f	-0.09533202
122	0xbe644dda	-0.22295323
123	0xbe896c77	-0.26840565
124	0xbdfc0149	-0.123049326
125	0xbed0e63d	-0.40800658
126	0xbecdd0d3	-0.40198383
127	0xbe200cb1	-0.15629841

encoder.3.weight f4 [64, 128]
0	0xbd548e29	-0.051893387
1	0x3da5cf33	0.08096161
2	0x3ce67fb1	0.02813706
3	0x3c3a0236	0.011353066
4	0x3e33a8a9	0.17544807
5	0x3cccd683	0.02500463
6	0xbd8054d8	-0.06266183
7	0xbd9156d4	-0.07096639
8	0x3ce0918b	0.02741315
9	0xbd6b45b9	-0.05743954
10	0xbd46bba3	-0.048518788
11	0x3bf4ca2c	0.00747039
12	0xbcdc09c0	-0.026860118
13	0xbd2edfaa	-0.04269377
14	0x3d23e4c1	0.04001308
15	0xbdbec51d	-0.0931494
16	0x3d546ab3	0.05185957
17	0x3dcb1f8d	0.09918127
18	0x3d821004	0.06350711
19	0xbd760578	-0.06006381
20	0xbbfd9ddf	-0.007739767
21	0x3d3c73cb	0.046008866
22	0xbc4c04c1	-0.012452305
23	0x3c14ec4a	0.009089539
24	0x3d8569ef	0.06514346
25	0xbdb4c168	-0.08825952
26	0xbd6a03d7	-0.05713257
27	0x3e5be637	0.21474539
28	0x3bcd45fe	0.0062644472
29	0x3cc66dcc	0.024222277
30	0x3d31bbf5	0.04339214
31	0x3c347040	0.011013091
32	0x3db59123	0.08865573
33	0xbd88c75d	-0.066786505
34	0x3dbb8df4	0.09157935
35	0x3cbf4fae	0.023353424
36	0x3e025a8b	0.12729852
37	0x3cbb3821	0.022853913
38	0x3d00d909	0.03145698
39	0xbd3f9e43	-0.04678179
40	0x3d0c8a1a	0.03431139
41	0x3db044fe	0.08606909
42	0x3d46e1e1	0.04855526
43	0x3df79db3	0.120906256
44	0xbdb8483c	-0.089981526
45	0x3d6d5671	0.057943765
46	0x3dac2cea	0.08407004
47	0xbc921b2e	-0.017835226
48	0x3d50b360	0.050952315
49	0x3e8f3c9c	0.2797593
50	0x3dd8409e	0.105592
51	0x3bfa01a8	0.007629592
52	0x3d8448cc	0.064591974
53	0x3bcdaaa8	0.0062764473
54	0xbc08efb0	-0.008357927
55	0x3d340e71	0.043959085
56	0xbca8f27c	-0.020623438
57	0xbd0b2b49	-0.033976827
58	0xbd343f7b	-0.044005852
59	0xbd4c8cd1	-0.04993898
60	0xbc6b6e86	-0.014369613
61	0x3d34c442	0.04413248
62	0x3dab279d	0.08357165
63	0xb7746f38	-1.45694285e-05
64	0x3daa1506	0.08304791
65	0xbd69db18	-0.05709371
66	0x3d64ec41	0.05588937
67	0xbc93498a	-0.017979402
68	0x3de642cf	0.112432115
69	0xbd4e7251	-0.05040199
70	0xbc568a26	-0.013094461
71	0x3d49843a	0.049198367
72	0xbd8092d3	-0.062780045
73	0x3d567d03	0.052365314
74	0x3da4b864	0.08042982
75	0x3cce6a9e	0.025197323
76	0xbdbe3222	-0.09286906
77	0x3d24021b	0.04004107
78	0x3d464013	0.04840095
79	0x3d7bbf4c	0.06146173
80	0x3d681463	0.056660067
81	0x3d7d29ec	0.061807558
82	0x3d24cdf8	0.04023549
83	0xbcb3e59d	-0.021960074
84	0x3dbfc45a	0.09363623
85	0xba9a207b	-0.0011758948
86	0xbccb1423	-0.024789875
87	0xbcbefef8	-0.023314938
88	0x3a8dd70e	0.0010821538
89	0xbcc8f9c8	-0.024533167
90	0x3d751a92	0.059839793
91	0xbcc02a49	-0.023457663
92	0x3d5d0372	0.053958364
93	0x3d47d336	0.04878541
94	0x3dc23b13	0.09483924
95	0x3c9281ea	0.017884213
96	0x3d45da06	0.048303626
97	0xbd66986c	-0.056297705
98	0xbbdc064a	-0.006714617
99	0x3d88e7a8	0.0668481
100	0xbd0ecc87	-0.03486302
101	0x3d6c799f	0.057733174
102	0x3c59ea8a	0.013300547
103	0xbd43dbc0	-0.04781699
104	0x3ca3c3cd	0.019990826
105	0xbcd419c6	-0.025891196
106	0x3db9151d	0.0903723
107	0xbce57597	-0.028010173
108	0x3e02b5c9	0.12764658
109	0x3d8ba386	0.06818299
110	0x3c3317f8	0.010931008
111	0xbc8bdda6	-0.017073464
112	0xbb546419	-0.0032408296
113	0x3dabdc32	0.08391608
114	0x3d937dcb	0.072017275
115	0xbab20f47	-0.0013584875
116	0x3ca44044	0.020050175
117	0xbdd9029c	-0.10596201
118	0x3d490b75	0.049083192
119	0x3c7b9737	0.015355877
120	0x3c8f9ff2	0.017532323
121	0x3d9d3014	0.07675186
122	0xbd8d6167	-0.06903344
123	0x3dd99bd3	0.10625424
124	0x3dd25d4b	0.102717005
125	0x3d1e1ccf	0.038601693
126	0x3d1aae5b	0.037763935
127	0x3cb88563	0.022524541
128	0x3dc0b849	0.094101496
129	0xbcea2c9b	-0.028585723
130	0xbd503f45	-0.05084159
131	0xbd5f3356	-0.054492317
132	0xbd2ed2ab	-0.042681377
133	0xbc70d099	-0.014698171
134	0x3d08f72b	0.033438843
135	0x3de80541	0.11329127
136	0x3dbc4f6a	0.091948345
137	0xbd494d41	-0.04914594
138	0x3d193585	0.037404556
139	0x3b7e6aaf	0.0038820913
140	0x3d064711	0.032782618
141	0x3d69bdd5	0.057065804
142	0x3dd5ea74	0.10445109
143	0x3c140f2c	0.00903682
144	0xbd4aa34c	-0.04947214
145	0x3caf1722	0.021373335
146	0x3d82e42c	0.063911766
147	0xbd82765a	-0.0637023
148	0x3dc4ac5c	0.096031874
149	0x3c023452	0.007947044
150	0x3db011fe	0.08597182
151	0xbd136b59	-0.035991047
152	0x3a3cfa5c	0.00072089373
153	0x3daac4a3	0.08338287
154	0x3db7efa4	0.08981255
155	0xbd70560e	-0.05867582
156	0x3d07e37e	0.033175938
157	0xbdefbadc	-0.117055625
158	0x3d578955	0.052621204
159	0x3d676317	0.056490984
160	0x3dbfb384	0.09360412
161	0x3c913d1f	0.01772934
162	0x3d9c99eb	0.07646545
163	0x3ddabe63	0.10680845
164	0xbd0c17bb	-0.03420232
165	0x3dc8328a	0.097752646
166	0x3c9cfb29	0.019162731
167	0x3d3544e6	0.04425516
168	0xbcc0a514	-0.023516215
169	0xbd57e4b9	-0.05270836
170	0xbd106c32	-0.035259433
171	0xbd8b71dd	-0.06808827
172	0xbd07f51b	-0.033192735
173	0xbd5cd817	-0.053917017
174	0x3c963329	0.018334942
175	0x3dad199b	0.084521495
176	0xbcbef773	-0.023311352
177	0xbd429085	-0.047501106
178	0x3d17b30a	0.03703598
179	0x3d5f4d7a	0.054517247
180	0xbd842c6f	-0.064537875
181	0x3db8e195	0.09027401
182	0x3e0bd780	0.13656425
183	0x3cad211d	0.021133954
184	0x3d333ff9	0.04376218
185	0x3db34c3c	0.08754775
186	0x3de3bf1e	0.11120437
187	0x3dd97eb4	0.1061987
188	0x3ce72a4c	0.02821841
189	0x3d277bba	0.04088948
190	0xbca975d8	-0.020686075
191	0xbb9ecebd	-0.0048464225
192	0x3cb5df09	0.022201078
193	0x3d92dc72	0.07170953
194	0xbc987b0f	-0.018613366
195	0x3db67742	0.089094654
196	0x3dd9766b	0.106182896
197	0x3da6b192	0.081393376
198	0x3d857505	0.0651646
199	0xbc516819	-0.0127811665
200	0x3d9b4b22	0.0758269
201	0x3d28f390	0.041247904
202	0xbd4bd374	-0.049762204
203	0x3daeae4d	0.08529339
204	0xbb88fd0d	-0.0041805566
205	0x3d304ea2	0.04304374
206	0x3d5f87ac	0.054572746
207	0x3d8b5c65	0.06804732
208	0x3c8e29c0	0.017353892
209	0x3d83ca28	0.064350426
210	0xbc0630a9	-0.008190312
211	0x3d74e30a	0.059786834
212	0x3d8180d8	0.06323403
213	0x3dbef458	0.093239486
214	0x3d00f907	0.03148749
215	0xbd48f90a	-0.049065627
216	0x3c0c82e4	0.008576129
217	0xbcce4e82	-0.02518392
218	0x3da8c400	0.08240509
219	0xbc7df6d9	-0.015500748
220	0x3d8a8402	0.0676346
221	0xbd697cd8	-0.057003826
222	0x3bce812c	0.0063020196
223	0x3d14cd89	0.036328826
224	0xbd999a28	-0.07500106
225	0x3da11036	0.0786442
226	0x3c55183d	0.013006267
227	0x3d83d650	0.06437361
228	0x3ddb0b62	0.106955305
229	0xbcdf06b6	-0.02722488
230	0xbd2d7bb8	-0.042354316
231	0x3c96d106	0.018410217
232	0x3d39382b	0.04521958
233	0x3cf25bb1	0.029584737
234	0x3d3ff9ac	0.046868965
235	0xbbb1f4cd	-0.005430794
236	0xbcaf6a44	-0.021412976
237	0x3b577cce	0.0032880786
238	0xbd15e535	-0.036595542
239	0xbcc1f080	-0.02367425
240	0x3d95195c	0.072802275
241	0x3d80bafe	0.06285666
242	0x3cae41ad	0.021271551
243	0xbc759678	-0.014989488
244	0x3d77daf9	0.060511563
245	0xbd22b3d5	-0.039722282
246	0xbc108281	-0.008820177
247	0x3d9cbf44	0.076536685
248	0x3da0a325	0.07843617
249	0x3d4869f2	0.048929162
250	0x3d3f67f8	0.04673001
251	0x3c34f9a7	0.01104585
252	0x3d9ce61b	0.07661077
253	0x3dc1adee	0.094570026
254	0x3d77211d	0.060334314
255	0x3da7cafb	0.08193012

encoder.3.bias f4 [64]
0	0xbc000100	-0.007812738
1	0xbea80988	-0.32819772
2	0xbc48270b	-0.01221634
3	0xbe15e501	-0.1463814
4	0xbdb0bd57	-0.08629864
5	0xbe4bf9fe	-0.19919583
6	0xbd9e67e7	-0.077346615
7	0xbe41ab5b	-0.18913023
8	0xbe16104b	-0.14654653
9	0xbe2b9871	-0.1675737
10	0xbe710d19	-0.23540153
11	0xbdb7b265	-0.08969573
12	0xbc94c282	-0.018159155
13	0xbd902898	-0.07038993
14	0x3a1d1a8c	0.00059930305
15	0xbe5c3afc	-0.21506876
16	0xbdb0346d	-0.086037494
17	0xbe4f8acb	-0.20267789
18	0xbd130d0d	-0.035901118
19	0xbd0a5302	-0.03377057
20	0xbd04f8ec	-0.032463953
21	0xbeaadff2	-0.33373982
22	0xbe26f700	-0.1630516
23	0xbe919293	-0.2843214
24	0xbdac39e8	-0.08409482
25	0xbd66ba23	-0.056329858
26	0xbe059514	-0.1304515
27	0xbcd63b45	-0.026151309
28	0xbe61dd8e	-0.22057173
29	0xbe791ab1	-0.24326588
30	0xbe2ed763	-0.17074351
31	0xbd998b85	-0.07497314
32	0xbee7ecd4	-0.45297873
33	0xbd65bcaf	-0.056088146
34	0xbe6fd0cf	-0.23419498
35	0xbcf66e85	-0.030081997
36	0x3d0307c5	0.03198983
37	0xbe992e2f	-0.29918048
38	0xbe1b19e2	-0.15146592
39	0x399b6b8c	0.00029644032
40	0xbe259291	-0.16169192
41	0x3ca95849	0.02067198
42	0xbe0b5438	-0.13606346
43	0xbe03189a	-0.12802354
44	0x3de1e340	0.110296726
45	0xbdd5d382	-0.104407325
46	0xbe39c3b8	-0.18141067
47	0x3c583e72	0.013198482
48	0xbcca8392	-0.02472094
49	0xbde14750	-0.1099993
50	0xbd6a22bb	-0.057162028
51	0xbe37594a	-0.17905155
52	0xbde66a78	-0.11250776
53	0xbdfcf5ba	-0.12351556
54	0xbe78c62a	-0.24294344
55	0xbe6d06db	-0.23147146
56	0xbe9c8dcc	-0.30576932
57	0xbdb8980a	-0.09013374
58	0xbdb1f9d8	-0.08690232
59	0xbc691cec	-0.014228087
60	0xbabe98ea	-0.0014541422
61	0x3e1cfbd5	0.15330441
62	0x3d3df737	0.04637834
63	0xbe0d051c	-0.1377148

encoder.6.weight f4 [32, 64]
0	0x3dc887b4	0.09791508
1	0x3d72dff9	0.05929563
2	0x3db92b78	0.09041494
3	0x3d8f642e	0.0700153
4	0x3cbb9919	0.022900151
5	0x3d7c1efc	0.061552987
6	0x3d4b4eb2	0.049635597
7	0xbb3b404c	-0.002857226
8	0xbd9177f9	-0.07102961
9	0x3cc89af7	0.024487955
10	0x3d438325	0.04773249
11	0xbd037019	-0.032089327
12	0xbdeb3311	-0.114843495
13	0xbdc0fc7c	-0.094231576
14	0xbd90bad9	-0.07066888
15	0x3cfc6254	0.030808605
16	0x3d43fe75	0.04785009
17	0xbd967de3	-0.0734823
18	0xbdd4dd0e	-0.10393725
19	0x3dac3a46	0.08409552
20	0x3d207c3f	0.03918099
21	0xbdb1174d	-0.086470224
22	0xbded58e1	-0.11589218
23	0xbd04ac52	-0.0323909
24	0x3dbb1d7e	0.091364846
25	0x3dd9584b	0.10612544
26	0xbd4e3de5	-0.050351996
27	0xbde8b66a	-0.11362918
28	0xbcc10511	-0.023561986
29	0xbbbe64d3	-0.005810359
30	0x3ddaba5f	0.10680079
31	0xbdb53a99	-0.08849067
32	0x3dbfdc4a	0.09368189
33	0x3d50f68f	0.051016387
34	0x3d8410b2	0.06448497
35	0xbdf1e8e4	-0.118119985
36	0x3db6b98d	0.0892211
37	0xbe4e7443	-0.20161538
38	0x3cfc4567	0.030794812
39	0xbd98320e	-0.07431422
40	0xbc10ae0b	-0.008830558
41	0xbd837d04	-0.06420329
42	0xbe18e5f7	-0.14931475
43	0xbe24cff9	-0.1609496
44	0x3e7e7256	0.24848303
45	0x3d5efd20	0.054440618
46	0x3e10aebe	0.14129159
47	0xbcd30a7e	-0.025761839
48	0x3dd7132a	0.10501702
49	0xbd8c4634	-0.06849328
50	0xbd4ad598	-0.049520105
51	0x3db0dba2	0.08635642
52	0xbe177bb6	-0.14793286
53	0x3da8d57d	0.08243845
54	0xbc40f853	-0.011777955
55	0xbac6fa04	-0.0015180712
56	0x3e459c76	0.19297966
57	0xbe001c1b	-0.12510721
58	0x3d334be0	0.043773532
59	0xbd87ddbc	-0.06634089
60	0xbd5c7e63	-0.05383147
61	0xbbb1c56d	-0.0054251463
62	0x3d1d91ba	0.038469054
63	0xbd8bedae	-0.06832443
64	0x3dd4b0ce	0.10385285
65	0x3dacac7f	0.084313385
66	0xbd1d7dc8	-0.038450032
67	0x3d0137da	0.031547405
68	0x3cb8555f	0.022501646
69	0xbcc07565	-0.023493478
70	0x3d53ac32	0.05167789
71	0x3dafde15	0.08587281
72	0xbdfea4e1	-0.12433792
73	0xb8e6548c	-0.00010983003
74	0x3c6a6c34	0.014308024
75	0xbdc1fe04	-0.09472278
76	0xbe21f6b4	-0.15816766
77	0x3c1f9b6c	0.009741645
78	0xbceab7e4	-0.028652139
79	0xbdc1b6f1	-0.094587214
80	0xbd9f078b	-0.077651106
81	0xbcad1b78	-0.021131262
82	0xbd15a3b4	-0.036533073
83	0x3c74ba6c	0.014937025
84	0x3c73c2be	0.014877973
85	0x3da366c2	0.07978584
86	0xbd89eccb	-0.06734618
87	0xbcae8485	-0.021303425
88	0xbca0aa34	-0.01961241
89	0x3e083391	0.13300921
90	0x3cf9e702	0.03050566
91	0xbdbe2ad1	-0.0928551
92	0x3db070a7	0.08615237
93	0xbdee7b55	-0.116446175
94	0xbd9d92cc	-0.07694015
95	0x3bcaf02b	0.006193181
96	0x3c801d62	0.01563901
97	0x3d563009	0.052291904
98	0x3d4a275f	0.049353953
99	0xbd1f5497	-0.03889903
100	0x3abb23f1	0.0014277679
101	0xbe217a9c	-0.15769428
102	0xbe3d75df	-0.18501996
103	0x3d150a35	0.036386687
104	0xbc51ed13	-0.012812871
105	0x3dcfd689	0.10148341
106	0xbd44420d	-0.047914553
107	0xbe3783de	-0.17921397
108	0xbd48639b	-0.048923116
109	0x3cd2394b	0.025662085
110	0x3d87f1b1	0.06637896
111	0xbda94337	-0.08264773
112	0x3d9758c6	0.07389979
113	0xbd49d171	-0.049272005
114	0xbb09d4d4	-0.0021031396
115	0x3d21c862	0.03949774
116	0xbe0036e7	-0.12520944
117	0x3d5bec90	0.0536924
118	0x3cca2142	0.024674062
119	0xbacc9386	-0.001560793
120	0x3d0d2ac9	0.03446463
121	0xbddde27d	-0.10834215
122	0x3cdf50ff	0.027260302
123	0xbe483167	-0.19550095
124	0xba1daf8e	-0.00060152344
125	0xbe090646	-0.133813
126	0xbc18bf0f	-0.009322896
127	0xbd79b7ea	-0.06096641
128	0xbdb06776	-0.086134836
129	0x3cbd6f12	0.023124252
130	0xbda42384	-0.080145866
131	0x3e007b59	0.12547053
132	0x3d823944	0.06358579
133	0xbd753717	-0.05986699
134	0xbd129128	-0.035782963
135	0x3c9de0e8	0.019272283
136	0x3d2329f2	0.039834924
137	0x3cbb458c	0.022860311
138	0x3c6e8e22	0.014560254
139	0x3e06b80b	0.13156144
140	0x3df8c1d0	0.12146342
141	0xbc213807	-0.009840018
142	0xbd16d5e8	-0.03682509
143	0xbd840e37	-0.06448024
144	0xbc77bf76	-0.015121331
145	0x3d9e9507	0.077432685
146	0xbba566e5	-0.0050476664
147	0xbe0b1cae	-0.13585159
148	0xbdbd9413	-0.092567585
149	0x3da17466	0.07883529
150	0x3de860f0	0.11346614
151	0x3d996648	0.07490212
152	0xbcb1302d	-0.021629417
153	0xbd9d8b1f	-0.07692551
154	0xbe054665	-0.13015135
155	0x3d89d46c	0.067299694
156	0xbd413476	-0.04716917
157	0x3de8915d	0.11355851
158	0xbd4fa695	-0.050695974
159	0x3dac6dc7	0.08419376
160	0x3ca41cc9	0.020033257
161	0xbde40871	-0.111344226
162	0x3df29a8b	0.11845883
163	0x3d1912f2	0.037371583
164	0xbe7efee0	-0.24901915
165	0x3d6669b3	0.056253146
166	0x3d2d10d2	0.04225237
167	0xbced4f16	-0.028968375
168	0xbd3e856a	-0.046513952
169	0xbbd195c0	-0.0063960254
170	0x3e05833e	0.13038346
171	0xbd952905	-0.072832145
172	0xbd2ae4f9	-0.04172227
173	0x3d65f65c	0.05614315
174	0xbea97eba	-0.33104497
175	0xbb4b9cf2	-0.0031068888
176	0xbd3071ad	-0.04307716
177	0x3da986a8	0.08277637
178	0xbcab4c0b	-0.020910284
179	0xbe00d877	-0.12582575
180	0x3db41d66	0.0879467
181	0x3cf1135c	0.029428177
182	0x3d4a326c	0.049364492
183	0xbe3ab6a4	-0.18233734
184	0xbc085a74	-0.008322347
185	0xbdc24647	-0.094860606
186	0xbe064731	-0.13113095
187	0x3e0572df	0.13032101
188	0xbd89e4fa	-0.06733127
189	0x3d3dfd75	0.046384294
190	0x3c86ddd9	0.016463207
191	0x3cf8fed4	0.030394949
192	0x3cd91fd5	0.026504437
193	0x3c35510b	0.011066685
194	0x3d37b6ce	0.04485207
195	0xbd58082e	-0.052742176
196	0x3d64cb16	0.05585774
197	0x3d9071ff	0.07052993
198	0x3db71842	0.08940174
199	0x3c2a38fc	0.010389563
200	0xbec4bcf3	-0.38425407
201	0xbd23c416	-0.039981924
202	0xbd4fa2a1	-0.050692204
203	0xbd9457dd	-0.07243321
204	0xbe54fb83	-0.20799069
205	0x3d95df01	0.07317925
206	0xbd58311f	-0.05278122
207	0x3bc8f65c	0.006132884
208	0x3dd8ef33	0.10592499
209	0xbcfd8f51	-0.030952128
210	0xbd3b9129	-0.045792732
211	0x3d818273	0.06323709
212	0x3d07c9af	0.033151325
213	0xbc82fa4f	-0.015988497
214	0x3d8f6c9a	0.07003136
215	0xbd828fb9	-0.06375069
216	0x3dec57ba	0.1154017
217	0x3cf56ca8	0.029959038
218	0x3be0ab3d	0.0068563507
219	0xbe74565b	-0.23861067
220	0x3e1d2483	0.1534596
221	0xbe5875f8	-0.21138752
222	0xbe99b454	-0.30020392
223	0xbe5cbbe1	-0.21556045
224	0x3ce79fba	0.028274406
225	0xbbab79a6	-0.0052330075
226	0x3e022e5f	0.12713002
227	0xbe97157b	-0.29508576
228	0x3e0251fa	0.12726584
229	0xbeb2b384	-0.34902585
230	0xbc195283	-0.009358051
231	0x3dd4daf0	0.103933215
232	0x3e0fda39	0.14048089
233	0xbd7b1f41	-0.061309103
234	0xbe70aea7	-0.23504125
235	0xbe94eb6f	-0.29085872
236	0x3df0d635	0.11759607
237	0xbd8bc1e9	-0.06824095
238	0x3b38f0cb	0.0028219696
239	0xbd75e006	-0.0600281
240	0x3dcb1fd0	0.09918177
241	0xbe9a620a	-0.30152923
242	0xbd6c59c5	-0.0577028
243	0x3c955174	0.018227316
244	0xbe43d049	-0.19122423
245	0xbdbbf8c9	-0.091783114
246	0xbb59f17d	-0.003325551
247	0xbb4ef36b	-0.0031578194
248	0x3cc81d21	0.024427952
249	0xbe7cfdcc	-0.24706191
250	0x3de12828	0.10993987
251	0xbd9e98cc	-0.077439874
252	0x3d9f742d	0.07785831
253	0x3e0aa28f	0.13538574
254	0x3d828cdf	0.06374525
255	0xbd5591d2	-0.05214102

encoder.6.bias f4 [32]
0	0x3d170c3a	0.036876895
1	0xbdedfd64	-0.11620596
2	0xbdb59ca5	-0.08867768
3	0x3d73d428	0.0595285
4	0xbc8d92d1	-0.017281922
5	0xbe33cdce	-0.17558977
6	0xbdfa7ae8	-0.12230474
7	0xbdd287aa	-0.10279782
8	0x3dd54aea	0.10414679
9	0xbe33966b	-0.17537849
10	0xbdc5233f	-0.09625863
11	0x3d318db0	0.043348014
12	0xbc9f23db	-0.019426277
13	0x3e010207	0.1259843
14	0xbb72a234	-0.003702295
15	0x3cd39ef2	0.025832627
16	0x3be06e3a	0.0068490775
17	0xbe336360	-0.17518377
18	0x3e24b904	0.16086203
19	0xbd548cd8	-0.05189213
20	0x3d776bda	0.06040559
21	0xbafb7ba8	-0.0019186633
22	0x3d9cafeb	0.07650741
23	0x3d34b1be	0.04411482
24	0xbdc5677d	-0.096388794
25	0x3dd4fbad	0.10399566
26	0xbb8047d2	-0.0039148116
27	0x3e52bf12	0.205807
28	0x3df33714	0.1187574
29	0xbe22e599	-0.15907897
30	0xbe305652	-0.17220429
31	0x3c5b89c5	0.013399546

encoder.9.weight f4 [7, 32]
0	0x3e0f9fc5	0.14025791
1	0x3e3cfba3	0.18455367
2	0xbd82bad1	-0.06383289
3	0x3da9b58b	0.0828658
4	0x3d56c500	0.052433968
5	0xbe047c0c	-0.12937945
6	0xbcb7a8e0	-0.022419393
7	0x3e1b6eda	0.15179005
8	0x3d7ecda1	0.06220782
9	0xbebc1c03	-0.3674012
10	0xbcdd97bb	-0.02704989
11	0x3df49259	0.11941976
12	0x3da54e57	0.08071583
13	0x3b020b7b	0.0019843269
14	0x3e02bcbb	0.12767307
15	0xbdbce3c9	-0.09223134
16	0xbc11a89d	-0.008890298
17	0xbe81f850	-0.2538476
18	0xbd0e562b	-0.034750145
19	0x3d261783	0.040549766
20	0xbe0cd247	-0.1375209
21	0x3e4c7f7f	0.19970511
22	0xbdc109f2	-0.09425725
23	0xbdc0197d	-0.093798615
24	0xbddd29e0	-0.10799003
25	0x3d318059	0.043335292
26	0x3e1c3ad7	0.1525682
27	0x3c9f475a	0.019443203
28	0x3dea49d3	0.11439862
29	0xbe321e05	-0.17394264
30	0x3db9c52f	0.09070813
31	0x3e174469	0.1477219
32	0xbbefa1a1	-0.007312969
33	0x3e0ccbef	0.1374967
34	0x3dad3aa7	0.08458453
35	0xbc7733f3	-0.015088069
36	0x3ce869fe	0.028370854
37	0xbdb68856	-0.08912723
38	0x3e0e9d60	0.13927221
39	0xbda86740	-0.082228184
40	0xbd0fd625	-0.035116334
41	0xbd8916a7	-0.06693774
42	0xbdda0001	-0.10644532
43	0x3dc9d599	0.09855194
44	0x3e2f6675	0.17128928
45	0x3e4346f2	0.19070032
46	0x3de84208	0.113407195
47	0xbdb1ffac	-0.08691344
48	0xbe19558a	-0.14974037
49	0xbc90ad53	-0.017660772
50	0x3dbb0563	0.09131887
51	0xbe1e7afa	-0.154766
52	0x3c22dc3e	0.009940205
53	0xbd936d4b	-0.0719858
54	0xbe362275	-0.17786582
55	0x3cf762dc	0.030198507
56	0xbd16d8e5	-0.03682794
57	0x3dfd1add	0.123586394
58	0xbdd61022	-0.10452296
59	0xbe2a0efa	-0.16607276
60	0x3e57dbbf	0.2107992
61	0x3d44face	0.04809075
62	0x3e02a5f8	0.12758625
63	0x3d1e8596	0.038701616
64	0xbe029e69	-0.12755741
65	0x3d266f90	0.040633738
66	0x3e032953	0.12808733
67	0xbcf05152	-0.029335652
68	0xbc809d34	-0.01569996
69	0x3e07ce33	0.13262253
70	0x3dbc82a7	0.092046075
71	0xbe09b42e	-0.1344764
72	0xbe3506ae	-0.1767833
73	0x3dc2cae1	0.09511352
74	0xbe309858	-0.17245615
75	0x3cce37a0	0.025173008
76	0xbc8cfc92	-0.017210279
77	0xbd926c27	-0.07149535
78	0x3e3389d0	0.1753304
79	0xbe1e22d6	-0.15442976
80	0xbd615c07	-0.055019405
81	0x3df0983a	0.11747785
82	0x3d8875d8	0.06663102
83	0xbe0291aa	-0.12750879
84	0x3db9b452	0.090675965
85	0x3e6a1cae	0.22862503
86	0xbcae805e	-0.021301445
87	0x3e85daab	0.26143393
88	0x3db69ca0	0.089165926
89	0x3e31ec0f	0.17375205
90	0x3d4b3e0a	0.049619712
91	0xbdbcc5e8	-0.09217435
92	0xbd4c9f28	-0.04995647
93	0x3da3b2ed	0.07993112
94	0x3e57a1c9	0.2105781
95	0xbc88fc65	-0.016721914
96	0xbd364a59	-0.044504497
97	0x3d9c3e71	0.07629097
98	0x3d948d1e	0.072534785
99	0xbd1a426e	-0.03766101
100	0x3cd23b0f	0.025662927
101	0x3dbda876	0.09260647
102	0xbd20b929	-0.039239082
103	0xbd982157	-0.07428234
104	0x3d72ab0c	0.059245154
105	0xbcb29d6e	-0.021803584
106	0x3d3b8016	0.04577645
107	0xbd3172fa	-0.04332254
108	0x3b9e3fbf	0.0048293765
109	0xbdebab5a	-0.11507292
110	0x3bb50194	0.00552387
111	0x3d7ecc34	0.062206462
112	0xbd657f07	-0.056029346
113	0x3e279639	0.16365899
114	0xbd1790a9	-0.037003193
115	0xbe32f8d9	-0.1747774
116	0x3e0216e6	0.12704048
117	0x3e235a38	0.15952384
118	0xbd07a935	-0.033120353
119	0x3b784a98	0.0037886258
120	0x3e0935b9	0.133994
121	0xbd8b90f9	-0.06814761
122	0xbde9ed3c	-0.11422202
123	0x3d12aba4	0.03580822
124	0xbbb54cf8	-0.005532857
125	0x3e1c9a83	0.15293317
126	0xbdd30ec9	-0.103055544
127	0x3c1af716	0.009458324
128	0x3e248b27	0.16068707
129	0x3dc1272d	0.094313
130	0xbd06af1f	-0.032881852
131	0x3ddfa269	0.10919649
132	0x3d41e933	0.047341537
133	0x3e26cbef	0.16288732
134	0x3d9c61e8	0.07635862
135	0x3e10ba0a	0.14133468
136	0x3d423b3b	0.047419768
137	0xbd36a37c	-0.044589505
138	0x3d03e562	0.03220118
139	0x3e3d5573	0.18489628
140	0x3e2ff06a	0.17181554
141	0xbd1fe71b	-0.03903876
142	0xbe28b590	-0.1647551
143	0x3d97f530	0.07419813
144	0x3d81a9f4	0.06331244
145	0x3d6634b0	0.05620259
146	0xbe6dce1d	-0.23223157
147	0xbe1797cc	-0.14804
148	0x3d03a60c	0.032140777
149	0x3c449e7a	0.012000674
150	0x3d5d1b6b	0.053981226
151	0xbda19069	-0.07888872
152	0x3e0119fc	0.12607569
153	0xbe35c75b	-0.1775183
154	0x3e1732e0	0.14765501
155	0xbdb6ac51	-0.089195855
156	0xbdc06fd5	-0.0939633
157	0x3d366ebe	0.044539206
158	0xbe437597	-0.19087826
159	0x3d69caf9	0.057078335
160	0x3d8f8618	0.07007998
161	0xbe298066	-0.16552886
162	0x3db510dc	0.08841106
163	0xbe000ef2	-0.12505701
164	0xbe1516f2	-0.14559534
165	0x3e166545	0.14687069
166	0x3df7ac70	0.12093437
167	0xbe318b4f	-0.17338298
168	0x3c14a77f	0.009073137
169	0x3e38fc61	0.18065025
170	0xbdd75fbc	-0.10516307
171	0x3dba3866	0.090927884
172	0x3e3ea0d4	0.18616039
173	0x3e2b33c6	0.16718969
174	0xbc5374f7	-0.012906305
175	0x3d1c3c5a	0.038143493
176	0xbdd3d91f	-0.10344147
177	0xbdd5f1eb	-0.10446533
178	0x3d8d3a27	0.06895857
179	0x3e688a45	0.22708996
180	0xbdcc9222	-0.0998881
181	0x3d2a1022	0.04151929
182	0xbe0207b4	-0.12698251
183	0x3df85d24	0.1212714
184	0x3dc63c6e	0.09679495
185	0x3b6a83c3	0.0035784103
186	0xbe0171ed	-0.12641115
187	0xbe8d54fd	-0.27603903
188	0x3cffba4f	0.031216769
189	0xbdd3bbe7	-0.10338574
190	0xbd8234f9	-0.0635776
191	0xbcd282dd	-0.025697166
192	0x3d8fd56a	0.070231274
193	0x3ca23bed	0.019803965
194	0xbe285493	-0.16438513
195	0xbe07f6b8	-0.1327771
196	0x3e412fd1	0.18865897
197	0xbe244f56	-0.1604589
198	0xbdd7d365	-0.10538367
199	0xbde8aff7	-0.11361688
200	0x3e30b726	0.17257366
201	0xbdbfb84a	-0.09361322
202	0xbe0f7fed	-0.14013644
203	0xbd9569e2	-0.07295586
204	0x3d9d3f34	0.07678071
205	0x3d7b682b	0.06137864
206	0x3c356c8b	0.011073242
207	0xbb8e662f	-0.0043456773
208	0xbe219d33	-0.15782623
209	0xbd46e3cf	-0.0485571
210	0x3e3c54f6	0.18391785
211	0xbddfa7bf	-0.10920667
212	0xbdc3d914	-0.09562889
213	0xbd518f44	-0.05116202
214	0x3d4169ca	0.04722003
215	0x3aef3757	0.0018250745
216	0xbe2cfff1	-0.16894509
217	0xbc7a4fa9	-0.0152777815
218	0x3e01a713	0.1266139
219	0x3e1385a0	0.14406443
220	0x3d5a8e52	0.053358383
221	0xbd03fbb5	-0.03222247
222	0xbe281500	-0.16414261
223	0x3dfd5757	0.123701744

encoder.9.bias f4 [7]
0	0x3dbd067b	0.09229752
1	0xbde5d65c	-0.112225264
2	0xbe0a66a8	-0.13515723
3	0xbd9e7dc9	-0.07738835
4	0xbcc19427	-0.023630215
5	0xbdb4e487	-0.08832651
6	0x3dc9bc52	0.098503724

decoder.0.weight f4 [32, 7]
0	0xbe380436	-0.17970356
1	0x3ede7655	0.43449655
2	0x3ecee084	0.40405667
3	0xbc0a4d58	-0.008441292
4	0x3e830ce7	0.2559578
5	0xbeaf331e	-0.34218687
6	0xbbc110f7	-0.005891915
7	0xbe803375	-0.2503926
8	0x3eb811f4	0.35951197
9	0x3e842771	0.2581134
10	0xbe682886	-0.22671708
11	0x3deeee32	0.11666526
12	0x3e64de2f	0.22350381
13	0xbebf7f0a	-0.3740161
14	0xbea9fe44	-0.33201802
15	0xbea03b48	-0.31295228
16	0x3e752be8	0.2394253
17	0x3ea6b116	0.3255698
18	0x3eabb080	0.33533096
19	0xbebed1be	-0.37269396
20	0x3d98d604	0.07462695
21	0x3e9844ca	0.29739982
22	0xbeca0e4c	-0.39464033
23	0x3e6bb4e8	0.23018229
24	0x3e4dc343	0.20094018
25	0xbe7a3bb5	-0.24436839
26	0xbdeb057b	-0.11475655
27	0x3e7767e9	0.24160732
28	0xbc953a4d	-0.018216277
29	0xbe3cde07	-0.18444072
30	0x3e8e1b51	0.27755216
31	0x3eb11d3f	0.34592625
32	0xbe67e016	-0.22644076
33	0xbe573509	-0.21016325
34	0xbdbd9af0	-0.092580676
35	0x3e6ad79a	0.22933808
36	0x3e1af343	0.1513186
37	0xbe755bfc	-0.2396087
38	0xbe600380	-0.21876335
39	0xbe9cf81f	-0.3065805
40	0x3e4c2571	0.19936158
41	0x3ee21dd4	0.44163382
42	0x3e970f13	0.29503688
43	0x3e2d8e15	0.16948731
44	0xbe40ff8e	-0.18847486
45	0x3d0f5952	0.034997292
46	0x3e1145fb	0.14186852
47	0xbe7c5e4c	-0.24645346
48	0xbe711f93	-0.23547201
49	0xbe6f76f0	-0.23385215
50	0x3dcb4986	0.09926133
51	0xbeef61ed	-0.467544
52	0xbe42f3f3	-0.19038372
53	0x3e5b04c8	0.21388543
54	0xbe9cd594	-0.30631697
55	0x3dbcd16c	0.092196316
56	0x3ebd265a	0.36943322
57	0xbd79ed9e	-0.061017625
58	0xbd0072a4	-0.03135933
59	0x3eacecd6	0.3377444
60	0x3ebec14f	0.37256858
61	0xbe1d44ab	-0.15358226
62	0x3e379493	0.1792777
63	0x3e5cac96	0.21550211
64	0x3e67c578	0.22633922
65	0xbdf8497a	-0.121233895
66	0x3e20e798	0.15713346
67	0x3ebe4e34	0.3716904
68	0x3de9aa69	0.11409456
69	0x3eb7fd36	0.35935372
70	0x3db7e250	0.089787126
71	0xbd58fa4e	-0.052973084
72	0x3dd60a9c	0.10451242
73	0xbe9750f9	-0.29553965
74	0x3e4dadd4	0.20085841
75	0x3dd4cc5c	0.10390541
76	0xbcb89cf9	-0.022535788
77	0x3e7f587d	0.249361
78	0xbd1bf068	-0.038071066
79	0xbce4917d	-0.027901405
80	0xbea128a2	-0.31476313
81	0x3e51cf68	0.20489275
82	0x3d3efd5c	0.04662834
83	0x3e80eb82	0.25179678
84	0xbea5b94c	-0.32367933
85	0x3ebcfce3	0.36911687
86	0x3e724e04	0.23662573
87	0x3eacdcd6	0.33762234
88	0xbe84d65b	-0.2594479
89	0x3d6a6a20	0.057230115
90	0x3dad927e	0.08475207
91	0x3eba38e0	0.36371517
92	0xbe6a0f39	-0.2285737
93	0xbe80883f	-0.25103948
94	0x3d8c7fc0	0.06860304
95	0xbe2b71e5	-0.16742666
96	0x3d8102b7	0.06299346
97	0xbec23214	-0.37928832
98	0x3e6e3364	0.23261791
99	0x3e8f80f7	0.2802808
100	0x3cb9e0df	0.022690235
101	0xbe013930	-0.12619472
102	0xbe3ff743	-0.18746667
103	0x3e518051	0.20459105
104	0xbde31f42	-0.11089946
105	0x3e854c63	0.2603484
106	0x3db2f053	0.087372445
107	0x3dd5d68a	0.10441311
108	0xbe87dbac	-0.26534784
109	0xbda10ebd	-0.07864139
110	0x3e9aa473	0.3020359
111	0xbeb407a0	-0.35162067
112	0x3e371d50	0.17882276
113	0xbdce06d1	-0.10059894
114	0xbe865046	-0.2623312
115	0x3d43cd71	0.047803346
116	0x3eb94dd3	0.36192188
117	0xbec5d7f1	-0.38641313
118	0xbe529859	-0.20565929
119	0x3e9967fb	0.29962143
120	0xbdf2875b	-0.11842223
121	0x3e3bddb6	0.18346295
122	0x3c98f7ed	0.018672908
123	0x3eb3e530	0.35135794
124	0xbe824d5d	-0.25449648
125	0xbd3cd586	-0.04610207
126	0xbdddb53a	-0.10825582
127	0xbe48e8fa	-0.19620124
128	0xbda5886c	-0.08082661
129	0x3d5b4456	0.053531967
130	0xbea9b1c8	-0.3314345
131	0x3ec3afc5	0.3822004
132	0xbe293d5d	-0.16527314
133	0xbe6da07c	-0.23205751
134	0x3c68e15a	0.014213884
135	0x3d8d2490	0.06891739
136	0x3ebc29dc	0.36750686
137	0x3ea8364e	0.3285393
138	0xbe40c18c	-0.18823832
139	0xbc07e042	-0.008293213
140	0xbe90e626	-0.2830059
141	0x3e357a42	0.17722419
142	0xbc9acb1f	-0.018895684
143	0xbec85123	-0.39124402
144	0x3d7a04f3	0.061039876
145	0xbe134593	-0.14382009
146	0x3e97c3a3	0.29641446
147	0x3ea32fac	0.31872308
148	0xbecdd471	-0.40201142
149	0x3e34fb83	0.17674069
150	0x3e7fc47d	0.24977298
151	0xbe9ec299	-0.3100784
152	0x3cf058ab	0.029339155
153	0x3d698650	0.057012856
154	0xbd67c2ce	-0.056582265
155	0xbe9bdd7c	-0.30442417
156	0xbe69c130	-0.22827601
157	0xbe26382b	-0.16232364
158	0x3e931bcf	0.28732154
159	0x3df3c88c	0.11903486
160	0xbe397c2f	-0.18113779
161	0x3d46a274	0.04849477
162	0xbe93772b	-0.28801855
163	0x3da5cf26	0.08096151
164	0xbe41fc56	-0.18943915
165	0x3e676395	0.22596581
166	0x3e3b7160	0.18304968
167	0xbe8eb52d	-0.278726
168	0xbe2f8fcc	-0.17144698
169	0xbe52a91b	-0.20572321
170	0xbc96c0ce	-0.018402483
171	0x3d5ea0bb	0.054352503
172	0x3e14e3cb	0.14540021
173	0x3e33a9d1	0.17545249
174	0xbeae7225	-0.3407146
175	0xbe034b7f	-0.12821768
176	0x3d89417c	0.06701943
177	0x3c3d1d3e	0.011542616
178	0x3ecdb199	0.4017456
179	0x3e880258	0.26564288
180	0x3e6e66da	0.23281422
181	0x3ec7d10e	0.39026684
182	0x3d972920	0.07380891
183	0xbe11bea5	-0.14232881
184	0x3e1ea45c	0.15492386
185	0x3eb02d3b	0.34409508
186	0x3eadcd1c	0.3394555
187	0x3e9931ac	0.2992071
188	0x3e88983c	0.26678646
189	0xbebcbcf2	-0.36862904
190	0x3eb33266	0.34999388
191	0xbea87c4f	-0.3290734
192	0x3d570db5	0.052503306
193	0xbe27a716	-0.16372332
194	0x3ebab1b6	0.36463708
195	0x3e9dec71	0.30844453
196	0xbd8d00f6	-0.06884949
197	0x3e0d45d8	0.13796175
198	0x3d88553d	0.06656883
199	0xbe3503fd	-0.17677303
200	0x3e5483b9	0.20753373
201	0xbeb4c1ec	-0.353042
202	0xbe06bc45	-0.13157757
203	0x3ce833bb	0.02834498
204	0xbe376d19	-0.17912711
205	0xbebdd7e5	-0.37078777
206	0x39ca5683	0.000385929
207	0xbe780401	-0.24220277
208	0x3e84af7b	0.2591513
209	0xbb5767e4	-0.003286832
210	0xbe15716e	-0.14594051
211	0xbe6a428e	-0.22876951
212	0x3ea7dc92	0.3278547
213	0x3e938c7e	0.28818125
214	0x39aa5d04	0.0003249423
215	0xbd79edea	-0.06101791
216	0x3ec25426	0.37954825
217	0x3d12037e	0.03564786
218	0x3e97733b	0.295801
219	0x3e01c815	0.12673981
220	0xbe96b274	-0.29433024
221	0x3db659be	0.08903836
222	0xbeae07eb	-0.33990416
223	0x3e92e7b5	0.28692403

decoder.0.bias f4 [32]
0	0x3e204eaf	0.15655015
1	0x3e684609	0.22682966
2	0xbc6356b9	-0.013875657
3	0xbdb6efcf	-0.089324586
4	0xbd4172e0	-0.047228694
5	0xbe118949	-0.14212526
6	0xbe83cdc5	-0.25742927
7	0xbbc56bab	-0.006024798
8	0x3e0a88d8	0.13528764
9	0xbbe58690	-0.0070045665
10	0x3d0a0799	0.033698652
11	0x3d606bb2	0.054790206
12	0x3e979585	0.29606262
13	0x3efa8bd8	0.48934817
14	0x3e80a0d2	0.25122696
15	0x3e1d8520	0.15382814
16	0x3d662377	0.056186166
17	0xbea66ed1	-0.3250642
18	0x3e01e980	0.1268673
19	0xbe5a1fd4	-0.21301204
20	0xbdc26878	-0.09492582
21	0x3da931c4	0.08261445
22	0x3d935c9f	0.071954004
23	0x3e31b00b	0.17352311
24	0x3eb53ada	0.35396463
25	0x3bd50a73	0.00650149
26	0x3e477169	0.19476856
27	0x3ea002f3	0.3125225
28	0x3dc1523c	0.09439513
29	0xbe390a40	-0.18070316
30	0xbe6c8c70	-0.23100448
31	0x3dce36b8	0.100690305

decoder.2.weight f4 [64, 32]
0	0x3dbf23b2	0.0933298
1	0xbe23632c	-0.159558
2	0xbe26d191	-0.1629088
3	0x3e19dfe5	0.15026815
4	0xbceeb908	-0.029140964
5	0xbd4ebde2	-0.050474055
6	0xbe14f26a	-0.14545599
7	0x3d4d2e2e	0.05009287
8	0xbe6e5f3d	-0.23278518
9	0xbd27e1dd	-0.040986884
10	0x3e38aecf	0.18035434
11	0x3da90c49	0.08254296
12	0x3de8b64f	0.113628976
13	0x3d7f2601	0.062292103
14	0x3cd66e6d	0.026175702
15	0x3c63affb	0.0138969375
16	0xbe069e6f	-0.13146375
17	0x3e1601e5	0.1464916
18	0x3dc1582f	0.09440648
19	0x3c511215	0.012760659
20	0x3d331cfc	0.043728814
21	0x3e13daf8	0.14438999
22	0xbddfabe9	-0.10921461
23	0xbdc5d629	-0.096599884
24	0xbd0d0a2f	-0.03443354
25	0x3d84e7b1	0.06489504
26	0x3c656fb4	0.014003683
27	0xbc3739b0	-0.011183187
28	0xbe5e666e	-0.21718761
29	0xbd812ddf	-0.06307577
30	0xbe1ee2da	-0.15516225
31	0xbd852821	-0.065017946
32	0xbe01571f	-0.1263089
33	0xbdf80171	-0.1210965
34	0x3e1d1768	0.1534096
35	0x3dc08b5e	0.09401582
36	0x3d30bfe0	0.043151736
37	0x3e339224	0.17536217
38	0x3c71315f	0.014721244
39	0x3e89e49f	0.26932237
40	0xbca1c89a	-0.019748975
41	0xbd83617e	-0.064150795
42	0x3e315e29	0.17321075
43	0x3dde1b0e	0.10845004
44	0x3e0e0cee	0.1387212
45	0x3e01d49b	0.12678759
46	0xbde85f42	-0.11346294
47	0x3dd706f8	0.10499376
48	0x3b2863ef	0.002569433
49	0x3e1bf033	0.15228347
50	0xbe488833	-0.19583206
51	0xbe066e1d	-0.13127942
52	0x3ba88311	0.0051425775
53	0x3e253c65	0.1613632
54	0x3d1062c5	0.035250444
55	0xbdd0c42a	-0.10193665
56	0xbe00500d	-0.12530537
57	0x3baa4ace	0.0051969057
58	0xbd9af5f2	-0.075664416
59	0xbbd68799	-0.006546926
60	0xbb952b27	-0.0045522633
61	0x3c48aa4c	0.012247633
62	0xbd7bbddc	-0.06146036
63	0x3e0cc65d	0.13747545
64	0x3d4ae2c8	0.04953268
65	0xbe2de063	-0.16980128
66	0xbe16cb39	-0.14725961
67	0x3d240c0c	0.04005055
68	0xbe32fa85	-0.17478378
69	0xbde389ee	-0.111102924
70	0xbda01f8b	-0.07818516
71	0xbd31a368	-0.043368727
72	0xbe22cf7e	-0.15899464
73	0xbe015a23	-0.1263204
74	0x3e0b0111	0.13574626
75	0x3d35fb5c	0.044429168
76	0x3e110591	0.1416228
77	0x3d2305cc	0.03980045
78	0xbe1a3910	-0.1506083
79	0xbdb65369	-0.08902628
80	0xbe231c40	-0.15928745
81	0xbda15391	-0.07877267
82	0x3b6fc0c0	0.0036583394
83	0x3dcda98a	0.10042103
84	0x3dfb644a	0.12274988
85	0x3d4e24ec	0.05032818
86	0x3dd2420a	0.10266502
87	0xbbb37700	-0.0054768324
88	0xbdd3243f	-0.10309648
89	0x3d3535b4	0.04424067
90	0xbe0147f3	-0.12625103
91	0xbc554880	-0.013017774
92	0x3bd43de0	0.0064771026
93	0x3dddac6e	0.10823904
94	0x3e210f6d	0.1572854
95	0x3d1aec50	0.03782302
96	0xbe14b3a9	-0.1452166
97	0x3d059c20	0.032619596
98	0xbe23b562	-0.15987161
99	0x3dc3a1e8	0.095523655
100	0xbcc47a65	-0.023984144
101	0xbd228102	-0.039673813
102	0x3e11eaf3	0.14249782
103	0x3dcd312b	0.10019144
104	0xbe1b7ffc	-0.15185541
105	0x3e156aa8	0.14591467
106	0x3c42b612	0.011884229
107	0x3d8b5eb5	0.06805173
108	0xbe3b50e1	-0.18292572
109	0x3e326eae	0.17425033
110	0xbe24195f	-0.16025303
111	0x3dd7589a	0.10514946
112	0x3e06384f	0.13107418
113	0x3e0afe50	0.13573575
114	0xbe61266b	-0.21987312
115	0xbe0a793e	-0.13522813
116	0x3c7d6671	0.0154663185
117	0x3c833f0b	0.016021272
118	0x3e1c6894	0.15274268
119	0x3c3706ea	0.011171082
120	0x3bc79dab	0.0060917935
121	0xbdd97ca3	-0.10619476
122	0xbbf03219	-0.007330191
123	0xbdb33351	-0.08750022
124	0xbda252d2	-0.07925953
125	0xbde5add3	-0.11214795
126	0x3d5cf929	0.053948555
127	0x3e1969fe	0.14981839
128	0xbbfb48ae	-0.007668576
129	0xbba37f1f	-0.0049895192
130	0x3c9507e2	0.018192235
131	0xbdaf9ac0	-0.08574438
132	0x3e0ffdce	0.14061663
133	0xbec28908	-0.37995172
134	0x3de1aa32	0.1101879
135	0x3e56136b	0.20905845
136	0x3e07c0b0	0.13257098
137	0x3e13a2ac	0.14417523
138	0x3d7174c1	0.058949236
139	0x3df1ace9	0.11800558
140	0xbd0da86f	-0.03458446
141	0x3d658bff	0.056041714
142	0xbe992c8c	-0.299168
143	0xbd598b9a	-0.05311165
144	0x3d0bfe68	0.034178168
145	0x3d6ad071	0.05732769
146	0xbe07b5cd	-0.13252945
147	0x3de72ef5	0.11288253
148	0x3d7618d9	0.06008229
149	0xbe207c64	-0.15672451
150	0xbdc624bc	-0.09674975
151	0x3e0922a7	0.13392125
152	0x3d2bd57e	0.04195165
153	0x3dea30d1	0.11435092
154	0x3dd2ade5	0.10287074
155	0xbde12a65	-0.10994414
156	0xbe178151	-0.14795424
157	0xbe265c3c	-0.16246122
158	0xbc1a5abf	-0.00942105
159	0xbe73d965	-0.23813398
160	0x3e900b7d	0.28133765
161	0x3e4e0d0c	0.20122164
162	0xbd85af24	-0.06527546
163	0xbdc54b47	-0.09633499
164	0xbb9f96fd	-0.004870294
165	0xbdfbbc44	-0.12291768
166	0xbe7831d0	-0.24237752
167	0x3b699bf2	0.003564593
168	0xbdb474bb	-0.08811327
169	0x3ce032d1	0.027367981
170	0x3e603a3e	0.21897218
171	0x3d2f81ef	0.042848524
172	0x3d0a5200	0.033769608
173	0xbcd3baa6	-0.025845837
174	0xbd188013	-0.037231516
175	0x3ccf08ff	0.025272844
176	0xbdb8a871	-0.09016503
177	0xbe72ee66	-0.23723754
178	0x3d46e123	0.04855455
179	0x3b9a081a	0.004700673
180	0x3ded439e	0.115851626
181	0x3dd3a2e2	0.10333802
182	0x3d3a96fe	0.045554154
183	0x3d5d4ee8	0.05403033
184	0x3df88e74	0.12136546
185	0xbc809a49	-0.015698569
186	0x3d3c643c	0.04599403
187	0x3c32a9a0	0.0109047
188	0x3e34601a	0.17614785
189	0x3e7d9083	0.24762158
190	0xbd2e30c7	-0.042526986
191	0xbc4c94af	-0.012486621
192	0x3dc4c808	0.096084654
193	0xbe49e170	-0.19714904
194	0xbcb50890	-0.02209881
195	0x3d882e83	0.066494964
196	0x3d6ccf71	0.05781502
197	0xbe358339	-0.17725839
198	0xbdf413c5	-0.11917833
199	0xbb71765f	-0.0036844236
200	0x3e2ce211	0.16883112
201	0xbe0d0f8b	-0.1377546
202	0xbc53769c	-0.012906697
203	0x3c943a79	0.018094288
204	0x3d134803	0.035957348
205	0x3ca1ca30	0.01974973
206	0xbe25c904	-0.16189963
207	0x3d0e8b34	0.034800723
208	0x3e0d7991	0.13815905
209	0xbd71cfc2	-0.059036024
210	0x3d8609fe	0.065448746
211	0x3df5109f	0.11966061
212	0x3d83e103	0.06439402
213	0x3c96fb56	0.018430393
214	0x3e3a0d3d	0.18169113
215	0xbdbcfc27	-0.09227782
216	0x3dd00912	0.1015798
217	0x3e60fca2	0.21971372
218	0x3df71e2b	0.12066301
219	0xbd956fd1	-0.07296718
220	0x3dbbb3d5	0.091651596
221	0xbe52e408	-0.205948
222	0x3e3b2f1c	0.1827969
223	0xbdb487d7	-0.08814972
224	0xbd5208a5	-0.051277775
225	0xbde97832	-0.113998786
226	0x3e26c3cf	0.16285633
227	0xbd7b83f9	-0.061405156
228	0x3d850e15	0.064968266
229	0xbe60ca2f	-0.21952127
230	0xbe15274a	-0.14565769
231	0x3e6b6106	0.2298623
232	0x3d32fcc6	0.043698095
233	0x3e492172	0.19641665
234	0xbdd3663d	-0.10322235
235	0xbe2ff347	-0.17182647
236	0x3dcf5257	0.10123127
237	0xbd24dabf	-0.040247675
238	0x3a817832	0.000987774
239	0xbe3ebf82	-0.18627742
240	0xbdc65a93	-0.096852444
241	0x3d80c4a0	0.06287503
242	0x3e00022a	0.12500826
243	0x3c377781	0.011197926
244	0x3e8282d9	0.25490454
245	0x3dd54387	0.104132704
246	0xbd2e432c	-0.04254453
247	0xbd59cd2d	-0.053174186
248	0x3e90df4a	0.28295356
249	0xbd95a95d	-0.07307694
250	0xbd979541	-0.07401515
251	0x3d2d223b	0.042268973
252	0x3d3813ee	0.04494088
253	0xbe88d2fd	-0.2672347
254	0xbdb4d6bd	-0.088300206
255	0x3d8f1144	0.06985715

decoder.2.bias f4 [64]
0	0x3d645b48	0.055751115
1	0x3ba8d358	0.0051521473
2	0x3c5242a0	0.012833267
3	0x3e6245ed	0.22096987
4	0xbc29a733	-0.010354805
5	0xbd99440e	-0.074836835
6	0x3d95f82b	0.07322725
7	0x3e305f4d	0.17223854
8	0xbc71c865	-0.01475725
9	0x3d0c7903	0.034295093
10	0xbe33c5c0	-0.17555904
11	0x3e51bb36	0.20481572
12	0xbe414a68	-0.1887604
13	0x3d751714	0.059836462
14	0xbe718d3c	-0.23589033
15	0xbd795973	-0.06087632
16	0x3e1d4cdb	0.1536135
17	0x3e18d33f	0.14924334
18	0x3e585db1	0.2112949
19	0x3d98803a	0.07446332
20	0x3e5fefbe	0.21868798
21	0xbd89232d	-0.066961624
22	0x3e892b72	0.2679096
23	0x3e9db3f5	0.3080136
24	0x3ea63560	0.32462597
25	0xbe6e8c34	-0.23295671
26	0x3e61eb79	0.22062482
27	0x3dd40ba4	0.10353783
28	0x3e3c3672	0.18380144
29	0x3c3bc056	0.011459431
30	0xbd64b4db	-0.05583654
31	0x3e6a0721	0.22854282
32	0x3e48eb74	0.19621068
33	0xbe2d9302	-0.1695061
34	0xbcf831fc	-0.030297272
35	0x3e2d8757	0.1694616
36	0x3e01729d	0.12641378
37	0x3d8f0af9	0.06984515
38	0x3e752e03	0.23943333
39	0x3eaf7e2a	0.34275943
40	0x3d7a9ed4	0.061186627
41	0x3c5b8d72	0.013400422
42	0xbe6ce90c	-0.23135775
43	0xbc636054	-0.013877947
44	0x3e5d5db0	0.2161777
45	0x3e2bfbf5	0.16795333
46	0x3da75724	0.08170918
47	0x3d06e3ae	0.032931976
48	0xbeac8627	-0.336961
49	0xbdbb57f9	-0.09147639
50	0x3d637065	0.05552711
51	0xbe15040c	-0.14552325
52	0x3ca3de91	0.020003589
53	0xbdabccec	-0.08388695
54	0xbecb062e	-0.39653152
55	0x3e17e5ad	0.14833708
56	0xbd23d904	-0.040001884
57	0x3e1bd2b6	0.15217099
58	0xbb9ca882	-0.00478083
59	0xbd256878	-0.040382832
60	0xbd0d77eb	-0.03453819
61	0x3d9e27b1	0.07722414
62	0x3e908aaf	0.28230807
63	0x3d3f4c3e	0.04670357
