img/Datos/Models/model-lat3.pth (torch, 191970 bytes, 16 tensors)

encoder.0.weight f4 [128, 99]
000000 91 b7 0d bb 63 6a a5 3d a9 d2 65 3d 4e 72 c5 3c
       -0.0021624307 0.08076932 0.056109104 0.024102356
000010 a5 42 38 bc 22 98 30 3d 9a 3f a6 3d 16 ef 08 3a
       -0.011246358 0.043113835 0.081176 0.0005223615
000020 f2 ae ae 3d 4e 3b 62 bd 9c fd 3c bd 18 50 89 bd
       0.08529462 -0.05523234 -0.0461403 -0.0670473
000030 9b 60 67 bd b2 0c fe bc 30 79 b4 3c ff 3d 88 bd
       -0.056488615 -0.031011913 0.022030443 -0.0665245
000040 04 2e ee 3c f0 e2 2e bc f6 c8 71 bd 4f 42 54 bd
       0.029074676 -0.010674223 -0.059029542 -0.05182105
000050 00 29 67 3d ce 47 9e bc 18 3b 90 bc 10 e9 36 3d
       0.056435585 -0.019321349 -0.017606303 0.04465586
000060 fd ab b8 3d 52 e4 47 3d 8a d4 d0 3c 8b 34 a2 bc
       0.09017179 0.048801728 0.025491972 -0.019800445
000070 e9 ec aa 3d 99 1a 0d 3d 31 d8 e2 3d 5e 3d ae 3d
       0.08345968 0.034449194 0.110763915 0.085077986
000080 31 80 03 3c 74 5b 4a bd df a6 dd 3c d2 22 93 3d
       0.008026169 -0.049403623 0.02705711 0.07184376
000090 1a c1 c3 3d a9 f2 b0 3d bd c7 0f 3b 5b 56 cf 3d
       0.095583156 0.08640034 0.0021939122 0.10123893
0000a0 a6 d4 b8 3d 2c e0 2c bd f3 28 8d 3d ed d7 59 3d
       0.090249345 -0.042205974 0.06892576 0.05318444
0000b0 9f 9b 61 3c 1d 2e ba bd d8 d7 67 3d c2 4b ab bd
       0.013770013 -0.09090827 0.05660233 -0.08364059
0000c0 9b 99 00 3d 82 f7 e0 3c 83 8e 39 3d 2e e0 56 bd
       0.03139649 0.02746177 0.045301925 -0.05245989
0000d0 c7 50 cc 3c 5a 38 43 3c d6 d5 08 bc 9b 37 07 3d
       0.024940861 0.011915291 -0.008351764 0.033012014
0000e0 b9 77 2c 3d 07 a9 99 3d 79 83 b3 3d 18 76 44 bd
       0.042106364 0.075029425 0.08765311 -0.047964185
0000f0 6c d2 af bd 1f 61 05 3c 50 ba b6 bc e3 5e 49 bd
       -0.08585057 0.008140831 -0.022305638 -0.049162757
000100 3f 79 a1 bd ac 80 36 bd 1f 3a b7 3c ef dd cd 3d
       -0.07884454 -0.044556305 0.022366581 0.10052096
000110 c9 80 a8 3d 72 7b 33 bd e8 e7 9b 3c 6c 95 47 bc
       0.08227689 -0.0438189 0.01903148 -0.012181621
000120 91 05 56 3d 40 f4 b4 bd 8c ba 2d 3d 0b 7a 97 bd
       0.052251402 -0.088356495 0.042414233 -0.07396325
000130 6a 0d 0f bd 48 63 b9 3d b1 da 35 bd 70 c1 c3 3d
       -0.034924902 0.090521395 -0.044398014 0.0955838
000140 fb 28 17 3d 53 f0 dc 3d 68 d6 e7 3c f4 da 3c bd
       0.036904316 0.10788026 0.028300479 -0.046107247
000150 95 d2 ed 3b 56 f0 28 3c 71 a6 b0 3c ec 6a ba 3d
       0.0072577693 0.010311207 0.02156374 0.09102425
000160 eb fc 51 bd 29 44 c8 3c 36 0c 2c bd 08 e9 ac bd
       -0.051266592 0.024446564 -0.042003833 -0.08442885
000170 aa 5a 6f 3d f9 39 78 bd 87 f7 2a 3d 6e 9a 5b 3c
       0.058436073 -0.060602162 0.041739967 0.013403518
000180 c7 21 21 bd b3 a0 80 bd 32 31 98 3c 66 24 00 3b
       -0.039338853 -0.06280651 0.018578146 0.0019552945
000190 c9 3b 1d 3d 81 ee 5d 3d 54 c2 92 bd 0f 72 c7 3b
       0.038387094 0.054182533 -0.071659714 0.006086595
0001a0 db 3c c8 bd 43 2e f3 3c b6 c0 c7 3c c5 6b 86 3c
       -0.09777232 0.029685145 0.024383884 0.01640881
0001b0 6b 39 00 be 4c 66 73 3b 34 bc f9 bd 2e ad 11 bd
       -0.12521903 0.003713983 -0.121941 -0.035565548
0001c0 05 7e aa 3c 4d 79 93 bd e1 ab 26 3d 75 d6 03 be
       0.020812044 -0.07200871 0.04069126 -0.12874778
0001d0 e1 7a 57 bd c0 7c af bd 9e 26 11 3c 4c 99 7b bd
       -0.05260742 -0.08568716 0.008859305 -0.061425492
0001e0 c0 11 cb bd 6e 5f 27 3d 7f a3 2e bc 34 75 13 3d
       -0.09915495 0.040862493 -0.010659098 0.036000445
0001f0 e9 62 c0 bd 4b df 05 be 25 43 f0 bd d5 5d 42 bd
       -0.093938656 -0.13073461 -0.11731557 -0.047452766
000200 fd 7d d2 bd 50 18 68 3c af 15 28 3d 83 bf 65 bd
       -0.102779366 0.014165953 0.041036304 -0.056090843
000210 8e 76 be bd 1a be a6 3d 54 8e cf bd 8b b6 8d bd
       -0.09299956 0.08141728 -0.10134569 -0.06919583
000220 ac 5e a8 bd 8c 2e 75 3d 0b 05 cb bd df 62 3a 3d
       -0.08221182 0.059858844 -0.09913071 0.045504447
000230 90 73 e5 bd 8d 13 aa 3d da 37 9e 3d e2 95 3e 3d
       -0.112036824 0.0830451 0.077254966 0.04652966
000240 20 84 29 bd eb 60 27 3d 66 0e b0 3d e5 6f 03 bd
       -0.04138577 0.040863913 0.08596496 -0.032089133
000250 a7 6b 49 3d bd d6 12 bd 71 11 c7 bd c8 21 86 bb
       0.04917493 -0.03584932 -0.097201236 -0.0040933825
000260 6a 78 7f 3d 77 d5 a5 bd 0c ae cd bd ab 7e c1 bb
       0.062370695 -0.08097356 -0.100429624 -0.0059049926
000270 08 a2 a6 3d fb 59 70 bc e6 b3 83 3c 8a 5c c3 bd
       0.08136374 -0.0146698905 0.016076993 -0.09539135
000280 09 de 00 3d c3 c6 a4 bc f3 16 03 3a 4d 91 1a bd
       0.03146175 -0.020114308 0.0005000673 -0.037736226
000290 b7 80 ad bb 86 cc 47 3d ad b0 91 3d 93 ed cc 3c
       -0.005294885 0.048779033 0.07113776 0.025015628
0002a0 dd 6e bd bb bf 24 b1 bc 47 fd ac bc 3d bf c7 3c
       -0.005781038 -0.021623967 -0.021116866 0.024383182
0002b0 1b 21 89 3d cc 80 06 3d f7 f3 f9 3c c7 90 f6 3c
       0.066957675 0.032837674 0.03051184 0.030098332
0002c0 8c 7a 0a 3b d5 a9 21 bd 0b 8a c4 b9 76 f6 ec 3d
       0.0021130173 -0.039468605 -0.00037486883 0.11570446
0002d0 83 68 ae 3d a6 40 d0 3d e1 dc 7f 3d 8f b5 d4 3d
       0.08516028 0.10168581 0.062466506 0.10386192
0002e0 56 bf 18 bd 0f 2d b1 3d 7c 5d ca 3d 50 59 c4 3c
       -0.037291847 0.08651172 0.09881112 0.023968369
0002f0 e9 54 1c 3e c6 2c f9 bb ca 76 c0 3d 2d 83 2b 3e
       0.15266766 -0.0076042144 0.09397657 0.16749258
000300 b7 a2 1a 3d de 94 49 3e 32 88 5a 3e 10 ff 1b 3e
       0.037752833 0.19685695 0.21341017 0.15234017
000310 c8 1b db 3d 6a 5f 53 3e 4b 2a 12 bd db b0 22 3d
       0.10698658 0.20641866 -0.035684865 0.039719444
000320 e7 37 a6 3d 40 10 8f bd df 7b 9e 3d 4c b5 bc 3b
       0.08116131 -0.06985521 0.0773847 0.005758917
000330 da b0 c1 3d b2 c5 85 3d 38 38 7b bc fe 13 b6 bd
       0.0945756 0.06531848 -0.015333228 -0.08890532
000340 84 4d 16 bb bc 7d 85 bd 61 fa 64 bd b8 5e 68 bd
       -0.0022934387 -0.065181226 -0.055902842 -0.056730956
000350 59 94 b1 bd 30 02 6f 3d 2c 0b 96 3d 6b 8d f0 3c
       -0.08670873 0.058351696 0.073263496 0.029364308
000360 a0 b6 4f bd b3 4e 2b 3d db 50 7b bd 7c cd a7 bd
       -0.050711274 0.0418231 -0.061356407 -0.0819349
000370 99 ca 01 3d 8e 57 c9 bd fd 9f b7 bd 75 33 11 3d
       0.031687353 -0.09831153 -0.08966062 0.035449464
000380 44 0d 94 bd d6 0b 87 bd 4c ba eb bc 9d 07 68 bd
       -0.07229093 -0.065940544 -0.028775357 -0.056647886
000390 25 ae 36 bc af 9d 11 3c c6 08 21 3d 9b a5 84 bd
       -0.011149918 0.008887692 0.039315008 -0.06476899
0003a0 d5 4d 5a bd cc fa 19 bd 11 67 b0 3d a3 fe 99 bd
       -0.053296883 -0.037592694 0.08613408 -0.07519271
0003b0 b7 e7 e2 bc 97 6c b5 3c 9c eb ba bc e3 90 c4 3d
       -0.02769838 0.022146506 -0.022817425 0.095979474
0003c0 7c 61 65 3c 66 b4 c8 bd cc 34 41 bc 24 5b 78 bd
       0.014000293 -0.09800033 -0.011792373 -0.060633793
0003d0 fe 18 86 bd b2 3a ad 3c 5e 9d b1 bd 07 a6 41 3b
       -0.06547736 0.021146152 -0.086725935 0.0029548423
0003e0 09 a7 e4 bc 0c e8 3e 3a 4e b4 8b 3d 93 f2 ee 3b
       -0.02791168 0.00072825025 0.068215 0.0072921007
0003f0 db ca b9 3c 62 c9 e9 ba 34 c0 54 3c 2b 74 77 bc
       0.022679737 -0.0017836506 0.012985278 -0.01510338

encoder.0.bias f4 [128]
000000 c1 65 95 be f8 d3 61 3e df 51 7c be e1 ed 84 be
       -0.29179195 0.22053516 -0.24640606 -0.25962737
000010 8b 9c 20 be b9 4e 9b bd d9 b8 87 be 2c 8b 63 be
       -0.15684716 -0.075833745 -0.26508215 -0.22221059
000020 2c b4 ac be c8 94 33 be 85 6c 9a be bb 99 13 bf
       -0.3373121 -0.17537224 -0.3016092 -0.5765645
000030 98 e5 a5 be 55 21 05 be 71 2e be be 18 c3 dc bd
       -0.3240173 -0.13000996 -0.37144807 -0.10779399
000040 4d 68 84 be f1 a3 f7 bd ff ae 51 be ee d7 be be
       -0.25860825 -0.12091816 -0.20476912 -0.37274116
000050 2a 11 27 be 5a 0d 24 bf 05 c5 00 be 19 30 52 be
       -0.16315141 -0.6408287 -0.12575157 -0.2052616
000060 14 91 c9 bd 01 a1 98 be c7 95 e6 bd f1 3e aa be
       -0.098421246 -0.29810336 -0.112590365 -0.33251145
000070 5a ca e8 be db e7 b5 be f0 aa 66 be 79 b0 ac be
       -0.45466882 -0.35528454 -0.22526145 -0.33728388
000080 18 f7 68 be 82 9e cf be b5 77 4e be 4a bb 5e be
       -0.22750509 -0.4055062 -0.20162852 -0.21751133
000090 fb 1d 7a be d6 2d 7e be b8 81 61 be a8 ab 66 be
       -0.24425499 -0.24822173 -0.2202214 -0.22526419
0000a0 2e 53 ac be fc ef 0c be 5f 56 64 be 0e 22 cb bd
       -0.3365721 -0.13763422 -0.22298573 -0.09918605
0000b0 af 15 8c be 5b ec 7f be 31 2f 9c be 0d 22 76 be
       -0.27360293 -0.24992506 -0.30504754 -0.24036427
0000c0 4f 46 c9 be 20 b5 dd be bd 22 93 be 7c 8a a0 be
       -0.39311454 -0.4330225 -0.2873744 -0.31355655
0000d0 05 b8 11 be 05 ac 21 be 61 78 49 be c5 a0 c4 be
       -0.14230354 -0.15788276 -0.19674827 -0.38403907
0000e0 df 8d 77 be 7d 6d ea be 48 78 9b bd 14 bf 95 be
       -0.24175213 -0.45786658 -0.07591301 -0.29247344
0000f0 3b b8 77 3e 58 f7 c1 bd df 6e 8c be 3a 9f 8a be
       0.24191372 -0.09471005 -0.27428338 -0.27074605
000100 61 6c c3 be 4a 8a 7d be cb c6 e1 be 7f 70 9f be
       -0.38168624 -0.24759784 -0.4409698 -0.31140515
000110 63 c5 3b 3d c2 22 b9 be 75 e7 12 be 18 cf 10 bf
       0.04584254 -0.3615933 -0.14346106 -0.56566
000120 dc dd 90 be fe 3e b7 be 49 16 3a be f0 b9 f0 be
       -0.28294265 -0.35790247 -0.18172564 -0.4701686
000130 fe 1d 43 bd cd aa e0 be bd a4 32 be 48 a1 a6 be
       -0.047636025 -0.4388031 -0.17445655 -0.32544923
000140 b7 ba c0 be 08 ec c2 be 96 69 f0 be 28 2b 8a be
       -0.37642452 -0.38070703 -0.46955556 -0.2698605
000150 f3 7a 9d be 90 ef a1 be 14 dd b7 be 7e 3a 84 3d
       -0.30757865 -0.31628084 -0.35910857 0.06456469
000160 a9 8d 9b bd c4 e4 2d be 90 fd 8e be 9f 8f 87 be
       -0.07595379 -0.16981798 -0.27927828 -0.26476762
000170 ce 65 72 be 3a b2 aa be 2a 19 ad be b4 77 a1 be
       -0.23671648 -0.333391 -0.3380826 -0.3153664
000180 68 71 c2 3e 91 3f 15 be 78 43 99 be e1 cb e8 bd
       0.37977147 -0.1457503 -0.29934287 -0.11367012
000190 2c af c1 be 10 1d 5c be dc 71 6b be 10 34 da bd
       -0.37828958 -0.21495461 -0.22992653 -0.106544614
0001a0 f1 ba 33 be 8f 4f 69 be 0e b7 9f be 1c f8 ef be
       -0.17551781 -0.22784255 -0.31194347 -0.4686898
0001b0 a2 74 4d be 53 72 85 be 43 3e 1d be a2 59 15 bf
       -0.20064023 -0.26063785 -0.15355782 -0.58339894
0001c0 1b d5 59 be 37 0c b7 be 88 e5 fe be 42 51 ab be
       -0.212727 -0.35751507 -0.49784493 -0.33460432
0001d0 11 bf 9a be 02 f7 d2 be 7e b2 e0 be cc d3 8d be
       -0.30223897 -0.41204077 -0.4388618 -0.2770065
0001e0 29 73 b1 be d3 6e 26 be 63 43 b1 be 4a 5a 59 be
       -0.34658173 -0.16253214 -0.34621724 -0.21225849
0001f0 54 08 9c be ab b9 9f be c5 e5 e0 be 80 2c a1 be
       -0.30475104 -0.3119634 -0.439253 -0.31479263

encoder.3.weight f4 [64, 128]
000000 91 fc 18 bc 1d eb 7f be 45 b2 15 3d f2 39 ac bb
       -0.00933756 -0.24992032 0.036546964 -0.005255931
000010 92 a5 ac bd f9 12 da 3b 99 0c bf bc a6 b2 66 3c
       -0.084300175 0.0066550937 -0.023321437 0.014080679
000020 d4 8e 03 bd 96 7d b3 3a 96 7e 8b be c7 88 33 3e
       -0.032118633 0.0013694044 -0.27245015 0.17532645
000030 0e 84 01 3e 7d c6 d7 bb c4 a3 1c 3d 52 81 f2 bc
       0.12648031 -0.006584941 0.038242117 -0.02960268
000040 9f e7 1e 3d 15 39 cf 3d d7 10 59 bc 30 5c ef 3d
       0.03879511 0.101183094 -0.013248644 0.11687505
000050 93 e9 a5 bd 99 40 20 3e ef 8d 81 bd 3d 93 4c 3d
       -0.08101191 0.15649642 -0.063259 0.049945105
000060 d9 2b d4 be 65 31 d7 3b 5f eb 0d bd 0f c0 57 3c
       -0.41439703 0.0065671676 -0.034648295 0.013168349
000070 a8 d9 00 3d 3a aa 0c 3e 1e 54 ae 3d 62 72 0d bd
       0.031457573 0.13736811 0.08512138 -0.034532912
000080 2d 51 d9 3d 21 6d 00 3d 51 d5 6e 3d a2 66 f7 3c
       0.10611186 0.031354073 0.058308903 0.030200306
000090 5e 8a 68 bd bd 96 88 3c 4e 2c a6 be b4 10 b2 3a
       -0.056772582 0.01667344 -0.32455677 0.00135853
0000a0 79 be 1b 3d 19 07 5c 3d a7 30 0d bd 99 7e 0e bc
       0.038023446 0.053717706 -0.034470227 -0.008697175
0000b0 67 ff e1 be 43 a2 b2 bc 39 ee be 3d 16 a3 8c 3d
       -0.4414017 -0.021805888 0.09322781 0.06867044
0000c0 45 3b 39 3e 78 aa df 3b d4 af 4b bc c9 1f 82 3d
       0.18089016 0.0068257414 -0.012432057 0.06353719
0000d0 34 1f da 3d 1a 25 c0 bc 1c e6 19 3c 2c 16 28 bd
       0.10650483 -0.023455191 0.009393241 -0.04103677
0000e0 aa 78 87 3c 98 8e c0 3c 57 24 8d be 6a cc cd 3c
       0.01653703 0.023505494 -0.27566788 0.025121886
0000f0 87 49 4e bb ca 83 ee 3c 1f cb 25 3d b5 4f 2d bd
       -0.0031476931 0.029115576 0.040476914 -0.042312343
000100 1c a5 3d bd 5a f6 99 bc 13 fb 24 3c c7 3c 19 bd
       -0.04630004 -0.018794227 0.010069626 -0.037411477
000110 03 85 6d bd 74 95 d7 bc f5 bf 27 3d 99 5a 35 3e
       -0.057988178 -0.026316382 0.04095455 0.17710342
000120 99 61 c8 3c 96 e3 2f 3e d8 e1 62 bc 54 aa 32 3e
       0.0244606 0.17176661 -0.013847791 0.17447788
000130 3c 43 82 be d0 f7 4d 3d d1 65 b1 3d a6 05 c2 3d
       -0.2544192 0.05028516 0.08661998 0.094737336
000140 5c 38 f8 bc 15 ac 9a 3c 37 1c bd 3d 76 ab af bd
       -0.030300312 0.018880883 0.09233897 -0.085776255
000150 53 04 18 3d ee e0 91 3d a3 aa 6d 3d 7f ef 1b bd
       0.0371135 0.0712298 0.05802406 -0.0380702
000160 ee 69 e5 bc 69 7a bc 3d 51 44 99 3b 47 c4 df bd
       -0.028004613 0.092030354 0.0046773334 -0.10926109
000170 c9 fb aa 3c 32 6b f6 3b 3b 1f b4 3d cd 60 98 bd
       0.020872014 0.007520103 0.08795019 -0.07440338
000180 73 b6 92 be a0 7a 48 3d da 5f 16 3e 92 15 2b 3d
       -0.28654823 0.04894507 0.14685002 0.041768618
000190 d3 2d e2 3d 75 4b cf 3d be ee 84 3d df b0 25 3d
       0.110438965 0.10121814 0.06490849 0.04045188
0001a0 09 8c ee bd 7f e9 f5 3d 6f 57 d0 3d a8 a5 b9 3d
       -0.11647803 0.120074265 0.10172927 0.090647995
0001b0 db 62 e6 bd e1 a8 e1 bc 84 2a 47 bd 34 0d 54 3e
       -0.11249324 -0.027546348 -0.04862453 0.20708162
0001c0 c6 c3 01 3d 87 f4 a4 3c ca b7 1a 3d d5 a9 06 3d
       0.031680845 0.020136131 0.03777293 0.03287681
0001d0 f7 ea 3f 3d 6f f9 28 3e 5f 47 39 3d ed a9 37 3d
       0.04685494 0.16501401 0.04523408 0.04483979
0001e0 94 85 7a 3c 8d 2a 37 3d d9 c8 20 3e 01 39 29 3d
       0.015290637 0.044718314 0.15701617 0.04131413
0001f0 28 7d 60 3d 49 87 5f 3c 80 3d 9d 3b e2 f6 4f 3d
       0.05480686 0.013643094 0.004798591 0.050772555
000200 56 ea 82 be a6 61 d8 be 74 77 1a 3d ae 80 41 3d
       -0.2556941 -0.42262 0.037711576 0.04724186
000210 09 48 cf bc 81 ee 48 be a9 32 3f bd 9c 74 87 bd
       -0.025302904 -0.19622232 -0.046679173 -0.06614038
000220 d6 03 75 3b 30 7d 95 bc 6d 70 b9 be 60 b2 97 3d
       0.003738632 -0.01824817 -0.36218587 0.07407069
000230 4e e3 7a bd 2e 70 6f bc f5 5c a2 3c 3d a9 8c bd
       -0.06125193 -0.014614148 0.019819716 -0.06868217
000240 3d d9 45 bd 34 ec 6b bc d6 c8 5f 3d 47 16 d3 bd
       -0.048302878 -0.014399577 0.05463489 -0.103069834
000250 5e 76 88 bb 71 cd 31 3e ba ef 5e 3d 67 bc 6d bc
       -0.004164501 0.17363526 0.05442784 -0.014510251
000260 08 a6 38 be 21 56 32 be a7 69 9a bb c8 4f 74 be
       -0.18032086 -0.17415668 -0.004712302 -0.23858559
000270 af c0 d5 3d 0e 1e dd 3d 5d 8e 98 ba fb f0 80 bd
       0.10437142 0.10796748 -0.0011639107 -0.062959634
000280 f2 6b 99 bc d3 9a a4 ba bd ff 9e bd df 69 37 bd
       -0.01872823 -0.0012558348 -0.07763622 -0.0447787
000290 af 06 9b 3d f1 df 95 3d 5c 8b 44 be e5 eb 1c 3d
       0.07569634 0.07318104 -0.19193786 0.038310904
0002a0 4d 6f 2f be 59 1e b1 bc 86 43 c3 3d 52 69 30 be
       -0.17132302 -0.021620916 0.095343634 -0.17227677
0002b0 00 53 b9 be c8 9f 02 3c a8 5b 07 be a7 b6 a7 bd
       -0.36196136 0.007972665 -0.13218558 -0.08189135
0002c0 0f d9 0b 3e 43 77 fd 3d be 92 ca bd cc a5 d1 bd
       0.1365702 0.12376263 -0.0989127 -0.10236701
0002d0 d6 db b4 3d 3f 50 8c 3d 56 02 c9 bd f6 06 64 3c
       0.08830993 0.06851243 -0.09814899 0.013917675
0002e0 73 49 94 3c 1f 6d a1 3d f2 09 32 bb 72 c8 d2 3d
       0.01810143 0.07882141 -0.0027166572 0.10292138
0002f0 75 56 71 3d 79 6d a0 3d 48 80 b5 bd 01 7a 99 bb
       0.058920342 0.0783338 -0.08862358 -0.0046837335
000300 6b e2 8a bd ee 7e 15 3c 89 99 e6 ba bb 04 54 3d
       -0.06781467 0.009124501 -0.0017593364 0.051762324
000310 ec 66 ef 3c a9 2a 14 bb e1 cb 3d 3c b0 74 d4 bd
       0.029223882 -0.0022608435 0.011584253 -0.10373819
000320 be 40 e4 bd 9e 77 ee 3d a2 54 65 bd f4 4a 75 3d
       -0.11145161 0.11643909 -0.055988915 0.059885934
000330 d7 6a a8 be 32 93 09 be 32 22 d9 3d 4a bf f2 3c
       -0.32894012 -0.13435057 0.10602225 0.02963223
000340 45 a4 3d 3d a9 04 a0 3d ea 6c 16 bc 7a 58 b9 bd
       0.046299238 0.07813389 -0.009181241 -0.09050079
000350 d7 aa a8 bc c4 d8 42 bd 42 ed d0 3d 69 94 49 3d
       -0.020589275 -0.047570005 0.10201503 0.0492138
000360 09 14 df 3c 90 b6 41 3d 36 1c 08 3e 22 e2 75 bd
       0.027231233 0.047293246 0.13292012 -0.06003011
000370 a0 74 22 bd 37 e5 a4 3d 68 94 6c 3d e4 6d cf 3a
       -0.039662004 0.08051532 0.05775872 0.0015825597
000380 03 0f cb be 88 6d f8 b9 b5 35 b5 3c 33 8e 9d bb
       -0.3965989 -0.00047383853 0.022120336 -0.0048082112
000390 fa dd 36 3d 2f 3c 7f 3d df 6d 8a bd 7b 9f a7 3d
       0.044645287 0.062313255 -0.067592375 0.08184715
0003a0 5c 09 03 3d a2 a5 9d 3c c9 30 8b bd 3d fd 6b 3d
       0.031991348 0.019244019 -0.067964144 0.057614554
0003b0 7c b0 ff 3c e8 69 9f 3d a6 c7 cc 3b 56 ad a3 bd
       0.031212084 0.07783872 0.006249386 -0.079920456
0003c0 1c c2 c9 bc 87 c8 57 3b a1 69 6f 3d bc e5 0a 3e
       -0.024628691 0.003292592 0.058450345 0.13564199
0003d0 f0 af fa bd cc 47 1b 3d 1b 65 24 be a6 89 3c be
       -0.12240589 0.037910268 -0.16054194 -0.18411884
0003e0 c0 64 4f 3d 5f 4d c5 3c 5f b4 09 3d 6c fc 02 bd
       0.050633192 0.024084745 0.03361928 -0.03197901
0003f0 79 e7 6b bd e4 35 29 3d ea ad d3 3d e0 5a 9b 3c
       -0.057593796 0.04131116 0.10335906 0.018964231

encoder.3.bias f4 [64]
000000 7e 2a 6a be d8 dc 34 be 47 25 27 be b8 da d2 3d
       -0.22867772 -0.1766237 -0.16322814 0.102956235
000010 9d 5a 92 be 7b ef 9a be 11 14 dd bd 4f c2 62 be
       -0.28584757 -0.30260834 -0.10794843 -0.22144435
000020 9d 5c e1 bc a7 84 8c be 0d b2 55 bd 1a 5d 72 be
       -0.027509982 -0.27444956 -0.052171756 -0.23668328
000030 55 16 10 be 8e 7e 72 bd ba c3 0b 3d 30 80 fb 3c
       -0.14071019 -0.059202723 0.034122206 0.030700773
000040 4e 57 43 bd 83 01 39 be 6b 2e 20 be a2 61 2f be
       -0.047690682 -0.18066983 -0.15642707 -0.17127088
000050 d1 4a 3e 3c 83 f4 27 be 80 aa 88 be 3a 60 9f be
       0.011614517 -0.16401868 -0.2669258 -0.31128103
000060 2c 30 9f be 6e 20 87 be 13 d4 08 bd 62 96 d2 bb
       -0.3109144 -0.2639193 -0.033405375 -0.0064266184
000070 c7 b9 b7 bd 15 95 2f be 87 e6 97 be 7b 68 39 be
       -0.08970981 -0.17146714 -0.29668066 -0.18106262
000080 f1 62 c2 be 3e 54 27 bd 5e 29 8b bc 51 18 3f be
       -0.3796611 -0.040851824 -0.016987499 -0.1866162
000090 03 f8 c3 bd 2a 5e cd bd ad db 6c bd 78 98 84 be
       -0.09568789 -0.10027726 -0.057826687 -0.25897574
0000a0 c1 c1 fe be c2 fd 9a be a0 54 65 3e 2f 13 eb bd
       -0.49757197 -0.30271727 0.22395563 -0.11478268
0000b0 c4 06 20 be f6 9a b9 bd a8 84 61 be 46 bc cc 3b
       -0.15627581 -0.090627596 -0.2202326 0.00624803
0000c0 46 a2 27 be ca 8c f5 3c 4a 26 9a bc af b3 57 be
       -0.16370496 0.02997436 -0.018817086 -0.21064638
0000d0 bf 37 91 be 23 9e 51 bb 8d 6c 9c bc 16 0c 44 3d
       -0.28362843 -0.0031985126 -0.01909473 0.04786309
0000e0 f4 aa 33 be 4f 3f 80 be e7 fa 56 3d 9b 79 8f be
       -0.17545682 -0.250483 0.052485373 -0.28022465
0000f0 6e b8 a9 3b 0b 4d 33 be 51 65 cf bc a1 75 1d be
       0.0051794564 -0.17509858 -0.025316866 -0.15376903

encoder.6.weight f4 [32, 64]
000000 8a 20 96 3e 58 78 66 3d d6 2c 8d 3d a5 74 71 3e
       0.293217 0.056267112 0.068933174 0.23579653
000010 1b 7b 98 bc 23 6d aa 3c c3 ce 54 3d 1a da 1a 3d
       -0.018613389 0.020803994 0.051954996 0.037805654
000020 fe 13 96 3c 29 d3 d5 bb 28 96 1f 3d 5e e3 bf bd
       0.01832008 -0.0065254164 0.03896156 -0.09369539
000030 41 4d be bc 7a a0 c8 3d 7f 41 10 3d 91 c0 ef bc
       -0.023230197 0.097962335 0.035218712 -0.029266628
000040 10 c1 8a 3d ad d0 97 bd 2a 94 d9 3d c0 49 1f be
       0.06775105 -0.074128486 0.10623963 -0.15555477
000050 d8 9e 9c bc 30 e4 56 bd 02 b5 4d bd 81 1d c8 3d
       -0.019118711 -0.05246371 -0.05022145 0.097712524
000060 80 75 ac bc 53 5c 33 3e 77 fa b8 bd c1 62 a5 3d
       -0.021052122 0.17515688 -0.090321474 0.080754764
000070 d1 fb 30 3e 73 05 c8 bd 9c 63 c8 3d 97 ac 11 3d
       0.1728356 -0.09766664 0.09784624 0.035564985
000080 59 d8 07 bc 18 91 c7 bd e6 39 da 3d 4a 44 12 3d
       -0.008291327 -0.09744471 0.106555745 0.035709657
000090 36 b1 40 3d 51 96 5f 3c bc 8f 78 3d 5c 10 c8 bd
       0.047044 0.013646678 0.06068395 -0.09768745
0000a0 d4 76 13 3e cf 90 b4 3d 0e 67 d1 3a a0 06 a1 3d
       0.14400798 0.088166825 0.0015976147 0.07862592
0000b0 6d 20 1d 3d 06 98 5c 3b 6c d6 ad 3d 9f e6 76 3d
       0.038361 0.003365995 0.08488163 0.06027853
0000c0 db 44 96 3c 59 ee 0c bd cc b9 b9 3b 29 68 ae bd
       0.01834338 -0.034406994 0.0056679007 -0.08515961
0000d0 37 00 69 3e 56 4b 5a 3d f1 94 a0 3d 4e 5c 09 3b
       0.22753988 0.053294502 0.07840908 0.002095956
0000e0 86 f6 5b bd b8 c7 41 bd 44 1c b8 bd 50 77 b4 bb
       -0.0537019 -0.047309607 -0.08989766 -0.005507387
0000f0 00 00 fa 3c 42 47 d4 3c b0 71 be 3d b2 45 f2 3d
       0.030517578 0.025912885 0.09299028 0.118296996
000100 af c9 11 3d 29 44 ad bd 29 ee 5a bc f5 c7 b6 bd
       0.03559273 -0.08460266 -0.013362446 -0.089248575
000110 0f 79 3b 3c 50 fd 8d bd 83 53 7d be e6 a3 20 3e
       0.011442437 -0.06933081 -0.24738888 0.15687522
000120 ea 21 6d be 5a bf 1a 3d 2a 60 65 be 52 47 a1 3d
       -0.23157468 0.037780143 -0.22399965 0.078749314
000130 c9 a7 dd 3c c6 c2 57 bd 84 9e 5c bd ba 0c cb bd
       0.027057545 -0.052675985 -0.05386211 -0.09914537
000140 d6 d9 d1 3c 39 54 1f be 28 1c 38 bd 76 45 3b 3e
       0.025616568 -0.15559472 -0.044948727 0.18288216
000150 4f d6 51 be f3 d6 f3 3d ae 36 c7 3d 41 16 71 bd
       -0.20491908 0.11906233 0.09727226 -0.058859114
000160 d8 61 19 3e f9 93 00 bd 73 6f af bd 62 ec fc bd
       0.1497873 -0.031391118 -0.08566179 -0.12349774
000170 55 ec 27 3c ae aa 11 3e 55 cd 7e bd df d1 22 3e
       0.010249217 0.14225265 -0.06220754 0.15900372
000180 4f 9f 1a 3d 4e f0 04 bd 58 28 55 bd 79 3b 9d 3d
       0.037749585 -0.032455735 -0.052040428 0.07677359
000190 63 57 01 3e 12 5b ec bd 15 bb 3f be 94 63 06 3a
       0.12630992 -0.11540808 -0.1872371 0.00051265326
0001a0 40 dd 5f 3d 2f be 8a 3d 95 a8 c9 bd 02 ab ac 3a
       0.05465436 0.06774556 -0.098466076 0.0013173523
0001b0 22 50 31 bc e7 3f 12 3e 6f e9 27 bd 6c 0d 1e bd
       -0.010822328 0.1428219 -0.040994104 -0.03858702
0001c0 a0 6d 08 3e 79 61 b8 3d 29 e0 03 3c fe 42 a3 bc
       0.13323069 0.090029664 0.008049049 -0.019929405
0001d0 9b de 80 3d 11 4a 4e bd 1a a9 d7 bd 73 4e ac bd
       0.062924586 -0.050363604 -0.105303004 -0.084134005
0001e0 9b 50 5d bd 18 fd d9 3d c1 1d 9a be ed 35 e6 3d
       -0.05403195 0.10643977 -0.30100825 0.11240754
0001f0 71 a8 b3 3d 9e 11 3e 3d fe b6 94 be 39 c7 e3 bc
       0.08772362 0.04640352 -0.29045862 -0.027804958
000200 5c f3 2f 3e 98 10 03 3e f6 85 8d bc 5a a9 84 be
       0.17182678 0.12799299 -0.017275792 -0.25910455
000210 b3 3b 0a 3e a0 3b 13 3e 98 85 2b be 8a dd 80 3d
       0.13499336 0.14378214 -0.1675018 0.06292255
000220 0a fe 2f be 29 f2 3f 3d 06 19 42 be f2 24 df bc
       -0.17186752 0.0468618 -0.18954858 -0.027239297
000230 a4 94 32 3e f2 ca f0 3d 50 df 5e be 64 d4 07 3d
       0.17439514 0.11757459 -0.21764874 0.033161536
000240 68 32 15 bd 54 d8 4d be f0 5d 0a 3e 3b 3a 76 3d
       -0.036425024 -0.20102054 0.13512397 0.060114127
000250 96 e1 fd bd c1 b2 06 3e ea 4e 0b 3e 67 04 44 3e
       -0.12396543 0.13154127 0.13604322 0.19142304
000260 51 22 08 3e dc 40 19 3e 57 fc 8e be 3d 52 85 bd
       0.1329434 0.14966148 -0.27926895 -0.06509826
000270 1a 1e 09 3e 96 2c b9 3d 85 b6 28 3e 47 70 26 bd
       0.13390389 0.09041707 0.16475876 -0.04063442
000280 5e 44 b0 3d c7 0a b5 bd f1 8f 55 be 25 53 e2 3d
       0.0860679 -0.08839946 -0.2085569 0.11051015
000290 51 0e 31 3d 07 06 1c be c9 3e a0 be 49 c0 01 3e
       0.043226544 -0.15236674 -0.312979 0.12671007
0002a0 8a 30 cb 3d 77 96 94 3d c8 68 98 be a6 81 0c be
       0.099213675 0.072552614 -0.29767442 -0.13721332
0002b0 b2 cb 85 bc d3 6c 92 3d ec 72 03 3e 0b 8a 1d be
       -0.016332481 0.07149663 0.12836808 -0.1538469
0002c0 1a 52 8e 3d 68 49 49 3d ef e9 79 bd ba ba b4 bd
       0.069492534 0.04914227 -0.061014112 -0.08824678
0002d0 b9 0b a4 bb de 68 c2 3d 0f 17 c3 be fa 33 94 bd
       -0.0050062803 0.09492658 -0.3810353 -0.07236476
0002e0 d0 8e 43 3e 43 34 41 3e 95 30 5f be f4 1b df 3d
       0.19097447 0.18867593 -0.21795876 0.108940035
0002f0 04 b2 bb bc 91 ff 1e 3b e9 1b 9b be 31 86 49 3d
       -0.022912033 0.0024261216 -0.3029473 0.04920024
000300 9b f5 69 3d 6a 97 93 3d 7a b2 29 bd 0e 1c 1c 3e
       0.057118993 0.07206614 -0.041429974 0.15245077
000310 29 bb 0b 3d 97 1d 47 3e c2 ba d7 bd df e0 83 3d
       0.034114037 0.19444881 -0.10533668 0.06439375
000320 a9 9c dd 3c 31 bf e8 3c 52 4d 39 bd 63 16 03 be
       0.02705224 0.02841148 -0.045239754 -0.12801509
000330 1c cb 39 bd 5a a3 97 3d a4 91 38 bd d9 2b 32 bd
       -0.045359716 0.07404204 -0.04506077 -0.043498848
000340 d0 c8 a5 3d 91 56 42 bd 1e a6 04 3d 59 94 41 3c
       0.080949426 -0.047445837 0.032384984 0.011815154
000350 eb 82 aa bc 00 4b 57 bd a6 04 0d 3e 96 18 f6 3c
       -0.02081438 -0.05256176 0.13771304 0.03004102
000360 3f 16 a4 bc 36 a7 08 3e 01 6e c3 3c 22 d6 d9 3b
       -0.020030139 0.13345036 0.023856165 0.006647841
000370 71 26 ba 3c 4d b0 e3 bc a5 2e 4d 3e fd 4b e1 bd
       0.022723408 -0.027794028 0.20037325 -0.11000822
000380 11 e0 79 bd 04 38 74 3d 8e 71 25 bb ec 8b 5f 3d
       -0.061004702 0.059623733 -0.0025244686 0.0545768
000390 e3 6f 8c 3d 99 e8 13 bd 88 08 92 39 9f 46 22 bd
       0.06857278 -0.036110494 0.00027853646 -0.03961813
0003a0 e0 16 7d 3e 6d a0 fa 3d 27 67 1c bd d4 bf 37 3e
       0.24715757 0.1223763 -0.03818431 0.1794427
0003b0 62 93 b5 bc e6 51 e6 bb 43 b7 80 3e b3 74 cf 3d
       -0.022165004 -0.007028806 0.25139818 0.101296805
0003c0 bb 61 a6 3a b6 1a 09 3e 3c ca 3b bd 42 e7 a6 3c
       0.0012693921 0.13389096 -0.045847163 0.020373944
0003d0 1d 84 3d 3e b6 51 c5 3a 9e b2 8d bc 18 e3 8a 3d
       0.18507428 0.0015054259 -0.017297085 0.06781596
0003e0 84 48 a4 bc e8 d2 4a bc d3 b0 d0 bc 0c e0 aa 3d
       -0.02005411 -0.0123793855 -0.025474941 0.08343515
0003f0 ab ea 9c bc 7f 72 6f 3d 95 8b 4b 3d 8a 8e 7b bc
       -0.019154867 0.0584588 0.049693663 -0.015353808

encoder.6.bias f4 [32]
000000 d1 ad 25 be 95 e4 d8 3d 17 7f a2 bd 9f 7c 42 bd
       -0.16179587 0.105904736 -0.07934397 -0.04748213
000010 43 1b d4 3d 66 6f 21 3e 99 e8 72 3d cc 14 27 be
       0.10356762 0.15765151 0.059303854 -0.16316527
000020 cb 2b b0 bc e5 aa be 3d be 99 9d 3d 80 8f 3a 3d
       -0.021505257 0.09309939 0.076953396 0.04554701
000030 de fa b2 3d fb 21 db bc b7 ba 3d bb 55 4c b7 3d
       0.08739255 -0.026749602 -0.0028950402 0.08950106
000040 39 7e 18 3d ae 19 9f 3c 8e d8 35 3d cd 69 2c bc
       0.03722975 0.019421425 0.044395976 -0.010523272
000050 84 57 f3 3c 5d 3e 90 3a 4c e7 85 bc d7 c0 22 be
       0.029704817 0.0011004914 -0.016345643 -0.15893875
000060 42 0b bd 3d 70 10 7b 3d e3 3d 74 3d f9 70 09 3d
       0.09230663 0.061294973 0.059629332 0.033555005
000070 7d e5 3e bc 0d 39 92 3d d5 dd 17 bd 48 b3 a1 3d
       -0.011651394 0.07139788 -0.03707679 0.07895523

encoder.9.weight f4 [3, 32]
000000 b4 08 fd 3d 2e f2 02 be 44 43 97 3d e3 23 b3 3d
       0.123551756 -0.12787697 0.07385877 0.08747079
000010 e7 0a 3e be 9e 1d 81 bd bb 4b 3f be 2d b0 c0 3d
       -0.18558846 -0.06304477 -0.18681233 0.09408603
000020 f3 6d 09 3e da f2 25 be 44 8a de bd 95 6f b5 3d
       0.13420849 -0.16205922 -0.10866216 0.08859173
000030 16 88 d8 3d 9b 94 08 3e 1f f3 02 3e e5 38 97 3d
       0.10572831 0.13337938 0.12788056 0.07383899
000040 a1 16 2d be d1 01 2b 3e ce 03 51 bd 11 b1 d9 3d
       -0.16903163 0.16699912 -0.05102902 0.10629476
000050 66 a3 ed bd f6 77 ba bd 9c e3 2e be 37 a4 2a be
       -0.116034314 -0.09104912 -0.17079014 -0.16664205
000060 38 fb 3c be b6 00 a5 3d f2 00 47 be 7a 34 9a 3d
       -0.18455207 0.08056776 -0.19433954 0.0752954
000070 5c 46 f2 3d e0 21 b0 3d c1 73 f2 3d c1 82 8a 3d
       0.11829826 0.08600211 0.118384846 0.067632206
000080 d4 05 fc bd af 55 cc bd fc 7e 2e be 10 fc e5 bd
       -0.12305799 -0.0997728 -0.17040628 -0.11229718
000090 aa 7a 21 be 76 16 9e 3d dc 1e a4 bd 68 b0 e4 bd
       -0.15769449 0.07719128 -0.080136985 -0.11166459
0000a0 ea b2 31 be f6 1d b0 bd 1a 55 1d be 54 77 71 3d
       -0.17353407 -0.085994646 -0.15364495 0.05895169
0000b0 ca ee 1c 3e ab 1b 2b 3e 75 60 18 be 17 05 c7 3d
       0.15325466 0.16709773 -0.14880545 0.09717768
0000c0 f6 b7 13 be ec d4 51 3e bc c2 dc bd 19 74 fc bd
       -0.14425644 0.2049138 -0.1077933 -0.12326831
0000d0 52 5e 86 bc 69 8a 31 3e 03 27 16 be 6e 8b e8 3c
       -0.016402397 0.17337956 -0.1466332 0.028386798
0000e0 6c 5c e1 bd 6a 6f 00 3e 30 10 b3 bd 92 51 2f 3e
       -0.11003956 0.12542501 -0.08743322 0.1712096
0000f0 3a 1e 22 3e cd 54 ad 3d 67 14 c1 3d 28 63 2e 3d
       0.15831843 0.0846344 0.094277196 0.04257503
000100 aa bd 16 be 7a 97 14 3d 13 2f 90 3e a2 be 26 be
       -0.14720789 0.03627727 0.28160915 -0.16283658
000110 7e c6 c0 bd cb 1e 40 3e 60 56 a3 3d 58 6f ff bd
       -0.094128594 0.18761747 0.07975459 -0.12472409
000120 03 b5 48 be e6 d9 e0 bc 7f 7f 18 be 85 73 ef bc
       -0.196003 -0.027447652 -0.14892386 -0.029229889
000130 3e d9 52 3c 79 27 5c 3a 97 8a 2f be 54 8c b6 bb
       0.012869177 0.0008398216 -0.17142712 -0.0055709276
000140 73 aa d8 bd 45 39 91 3c 7d a3 d4 bd 45 62 06 be
       -0.105793856 0.017727504 -0.103827454 -0.13123424
000150 52 ed 2a 3e 11 7a 8c be 4a 68 f0 3c 3c d4 de 3d
       0.16692093 -0.2743688 0.029346604 0.10880324
000160 f5 7d 8a bd 86 d9 8a 3a 59 6a 88 3d 62 10 d4 3b
       -0.06762306 0.0010593391 0.06660909 0.0064716795
000170 a6 14 0f bc d3 72 00 bc 2a 1a 1f bc 41 81 6b bc
       -0.00873295 -0.007839876 -0.009710828 -0.014374078

encoder.9.bias f4 [3]
000000 96 07 64 bc bb 8e 52 3d f8 be 30 3d
       -0.013917824 0.05140565 0.043150872

decoder.0.weight f4 [32, 3]
000000 30 56 16 3f 72 21 70 bd ee c8 c8 3e b1 7a 1d bc
       0.5872526 -0.058625646 0.39215797 -0.009611771
000010 c1 90 bd 3e 3e 9b a2 bb 71 d5 dd 3e 4c 70 17 be
       0.370245 -0.004962354 0.43326905 -0.14788932
000020 06 55 6d 3d 1c e1 89 3e c0 0d ad 3e be 8a e1 be
       0.057942413 0.26929557 0.33799553 -0.44051164
000030 54 53 7e 3e 4b d4 1b be 65 d5 e6 3e 3a 90 6e be
       0.24836475 -0.15217702 0.45084682 -0.23297206
000040 cf de 83 bd 71 00 7e 3e a6 0c 14 be ab 39 26 3c
       -0.06438982 0.24804856 -0.1445795 0.010145585
000050 61 f3 24 3f 80 c8 93 be 66 fc d6 3c ec 0e 2d 3d
       0.64433867 -0.28863907 0.0262434 0.04225056
000060 66 ae 8f 3e ea 5d 29 3e e3 43 03 3d 13 8c b8 3e
       0.28062743 0.16539732 0.032047164 0.36044368
000070 5f 9e fc be 76 7c 41 3e c0 1b 17 bf eb da 54 be
       -0.49339578 0.18895134 -0.5902672 -0.20786636
000080 02 bc 09 be d8 15 eb 3e 1f 89 32 bd ab 34 88 3e
       -0.13450626 0.45915103 -0.0435878 0.26602682
000090 e6 c4 b3 3e 08 3f c5 be 46 5b b2 be 26 45 14 bf
       0.3511116 -0.38524652 -0.3483526 -0.5791801
0000a0 78 a2 58 be 11 65 a1 3e 01 e1 7f 3e ce b5 35 be
       -0.21155727 0.3152242 0.24988176 -0.17745134
0000b0 c1 a7 f0 3e 13 c4 aa be 15 43 da 3e 03 c6 bd 3e
       0.47002986 -0.33352718 0.42629305 0.37065133
0000c0 32 15 60 be a5 23 12 3e 29 53 0d bf 8d d4 89 3e
       -0.21883085 0.1427141 -0.5520502 0.26919976
0000d0 b4 0f fb 3d 4a 3c dc 3c cd 3f 15 bf a3 39 f3 3e
       0.122588545 0.026884217 -0.5830048 0.4750491
0000e0 47 6c 22 bc 22 1a 27 bc e9 21 a0 bd e8 3b cf bd
       -0.009913511 -0.010199102 -0.07818968 -0.10118848
0000f0 7f 67 31 3d 77 ac b1 be e2 9d 01 3e 52 0e d4 3e
       0.043311592 -0.34701893 0.12657884 0.41417176
000100 5a ee 82 bd 30 67 34 3e 30 49 10 bf 96 9f 13 bf
       -0.06393118 0.17617488 -0.56361675 -0.57665384
000110 75 54 e8 3d eb 87 a8 3e 4d 75 a9 be 07 90 f2 be
       0.11344234 0.32916197 -0.33097306 -0.4737551
000120 55 6f f3 be b7 7b ea 3b ec 55 0b bf 66 48 06 3f
       -0.47545877 0.0071558612 -0.5442798 0.5245422
000130 1b e6 a5 be 83 20 51 3e 92 8d 1a 3f 19 5a 9f bc
       -0.3240212 0.20422558 0.6037227 -0.019452142
000140 8c ab 96 be 46 0b f9 3e 3e 5b 0c 3f f3 98 d2 3e
       -0.29427755 0.48641413 0.54826725 0.41132316
000150 d6 9e 0f 3f 70 d8 2f be ec d1 07 3f 46 20 bf 3d
       0.5610174 -0.17172408 0.5305469 0.093323275
000160 5e 94 97 bd e2 94 65 be 73 28 e8 3e a2 a8 05 bd
       -0.07401346 -0.22420076 0.4534336 -0.032631524
000170 63 93 35 3e e7 74 1b 3f fb c2 00 3f 6d 92 ab be
       0.17732005 0.60725254 0.50297517 -0.33510152

decoder.0.bias f4 [32]
000000 7e 4d 78 be 55 f9 47 3e 34 85 6f bc 7f 8c 8f 3e
       -0.24248311 0.19528706 -0.01461916 0.28036878
000010 2c 27 9e 3d 9b 64 75 bd 9c e7 80 3d c7 62 9d 3e
       0.07722315 -0.059910398 0.06294176 0.30739424
000020 dc 33 51 3e 73 d7 00 3e 97 2f ab 3e f1 78 ee bd
       0.20429939 0.12582187 0.33434746 -0.116441615
000030 40 74 eb 3e cb a4 7b 3d 1c b6 ce 3e 11 84 36 be
       0.4598713 0.061436456 0.40373313 -0.17823817
000040 39 ae 9c bd 7d f2 5b ba 1d b9 5e 3e cd 5e 1a 3f
       -0.07650418 -0.00083903206 0.21750303 0.60300905
000050 73 2c 79 be d1 78 23 be e9 50 e5 3e e5 50 04 3e
       -0.24333362 -0.15964057 0.44788292 0.12921484
000060 62 9d c5 be 3c 7c 87 3e 05 17 57 3d 10 16 dc be
       -0.38596636 0.2646197 0.052512188 -0.42985582
000070 8a b8 47 bc 04 f7 e1 be 3c d4 f4 be 19 2c 22 3d
       -0.012189994 -0.4413377 -0.47818172 0.039592836

decoder.2.weight f4 [64, 32]
000000 21 9c 6d 3c 85 78 5a bd 3b c3 2e bd d8 32 93 3d
       0.014502556 -0.053337593 -0.042666655 0.07187432
000010 72 76 a8 bc 5c b3 1f 3d 19 44 ba 3d f2 68 01 be
       -0.020564292 0.03898941 0.0909502 -0.1263769
000020 1c 56 2d 3e 2d ce bc 3d ec 63 3b be 9c ea 41 3e
       0.1692738 0.092190124 -0.18299836 0.18937153
000030 51 a3 d5 3d a3 99 25 3d 82 1c 36 3e f5 72 2a 3e
       0.10431541 0.040429723 0.17784312 0.16645415
000040 91 20 e5 3d 3f 4c de bd af 45 46 3e 43 60 4a 3d
       0.11187852 -0.108543865 0.1936252 0.04940821
000050 28 fb 1f bd 59 71 0d bd ee 43 f7 bd c6 0d 47 bb
       -0.03905788 -0.034531925 -0.120735034 -0.00303732
000060 76 bc 58 bd c7 23 bd 3d a2 c0 bf bd c3 e1 88 bd
       -0.052914105 0.092353396 -0.09362914 -0.06683686
000070 1d 3b 5a 3e 69 c3 61 be d3 0a 04 be ed 54 17 bd
       0.21311612 -0.220472 -0.12894754 -0.036946226
000080 81 57 51 3d 5e e4 cd 3b a8 b6 87 3d 4f 54 d6 3d
       0.05110884 0.006283327 0.06626636 0.10465299
000090 09 a0 c9 3d 06 3e 05 bd ce c5 aa bd 15 c6 a9 3d
       0.098449774 -0.032529853 -0.083385095 0.08289734
0000a0 10 31 2e be b4 aa 24 3e e3 d2 2c 3d c8 bd ff 3d
       -0.17010903 0.16080743 0.042193305 0.1248737
0000b0 21 0b da 3d db c4 9a bd 2c fc e6 bc 1c 5a 08 bd
       0.10646654 -0.075570785 -0.028196417 -0.03328906
0000c0 86 53 4a 3e 29 c3 08 be 06 ec 8a be 4d 35 88 3d
       0.19758424 -0.13355698 -0.27133197 0.06650791
0000d0 39 52 0c 3d 40 ae a6 3d f9 c9 f4 3d 82 7d 81 3b
       0.0342581 0.08138704 0.11952586 0.0039517293
0000e0 b1 37 85 bd 62 19 01 be 1a a8 09 be 50 0d b2 bd
       -0.06504763 -0.12607339 -0.13443032 -0.086939454
0000f0 75 23 e5 3d 64 5f 2f be c2 4a 01 3d 5b fc 8c be
       0.111884035 -0.17126232 0.031565435 -0.27536282
000100 6b 8d 0d 3e 4e 81 29 bd de 18 77 bd 8f bd e7 3d
       0.13823478 -0.04138308 -0.06032645 0.11315452
000110 d9 67 d3 bd 23 f8 bb 3d 14 99 37 3d 00 f5 e3 3d
       -0.10322542 0.09178188 0.04482372 0.111307144
000120 dc 14 e0 bc 65 75 89 bd 95 53 fb bd be c0 34 3e
       -0.027353697 -0.06711844 -0.122718014 0.1765165
000130 a2 4d f3 3d dc 34 3b be 24 70 7a 3e c6 b7 9e be
       0.11880042 -0.18281883 0.24456841 -0.30999583
000140 88 7b 45 3d 03 e9 84 bd 6b 50 00 be e7 bc 50 bd
       0.04821351 -0.06489756 -0.12530677 -0.0509614
000150 e3 78 24 3c 2a ed 63 3c ae 7f 91 3d 70 dc da 3c
       0.010038587 0.013911525 0.07104431 0.02671644
000160 1c 6e 10 3e 1e 2e ee 3d 5c a4 08 3e 6c 6b 20 be
       0.14104503 0.1162989 0.13343948 -0.15665978
000170 d1 c1 fa bd a6 32 51 be 60 43 13 3e ae 6f 3f 3c
       -0.12243999 -0.20429477 0.1438117 0.011684341
000180 bc ed e3 bc c4 c6 af 3d a5 29 8d bc 08 93 ff bd
       -0.027823322 0.085828334 -0.017231772 -0.12479216
000190 90 2a 68 3e d9 48 a7 bd 0d 39 ca 3d 1b f7 f2 bb
       0.22672486 -0.081681915 0.09874163 -0.007414711
0001a0 2e 35 d1 3d d5 2f 0e be 8c 93 fc 3d 1c b8 33 3d
       0.10215221 -0.13885434 0.1233283 0.043876752
0001b0 91 4a af be c0 29 d8 3c e2 5b ef bd 18 40 1f 3d
       -0.34236577 0.026387095 -0.11687447 0.038879484
0001c0 d0 a1 4a 3d 8d 5f 17 3e e4 f6 83 3e fe 14 f7 3d
       0.049470723 0.14782543 0.257743 0.12064551
0001d0 9d b8 d4 3d d6 55 42 be 4c 16 46 bc f2 8e 99 be
       0.10386775 -0.18978056 -0.012090277 -0.2999187
0001e0 9f 47 ed bd 17 b2 39 be d1 60 d2 bd 88 f5 a9 3d
       -0.11585926 -0.18134342 -0.102723725 0.082987845
0001f0 3d 92 f4 3d aa 22 8c be d2 f0 b0 3c 6f cb c1 bd
       0.11941955 -0.27370197 0.021599207 -0.0946263
000200 fa 7a 33 3e a4 7d e4 3c de b7 ee 3d 6b 71 b7 3d
       0.1752738 0.027891941 0.11656164 0.0895718
000210 f9 c6 b6 bd fb d1 6c 3d e8 18 5e 3e cc e4 8d 3d
       -0.0892467 0.05781744 0.21689188 0.06928405
000220 aa 2b b3 3c 1e b7 89 be a4 f5 17 be 14 78 1c 3e
       0.021871407 -0.2689752 -0.14839798 0.15280181
000230 ad b9 71 3d f3 43 f2 bd 37 54 11 3e 86 2a a7 bc
       0.059014965 -0.118293665 0.14192282 -0.020406019
000240 66 ab d5 3d d1 8b 97 3d 11 60 ff 3d f2 bc 80 3d
       0.10433082 0.07399715 0.12469495 0.062860385
000250 e9 c0 79 be 69 d4 fb bd f8 98 cc be 18 92 38 be
       -0.24389996 -0.122963734 -0.39960456 -0.1802448
000260 e7 85 6b 3b 52 67 06 3e a2 fe 91 3d 25 66 9d 3d
       0.0035937966 0.13125351 0.071286455 0.07685498
000270 ef 98 54 3e d3 09 95 3c 60 91 1f 3e 10 18 d9 3d
       0.20761465 0.018193161 0.155828 0.10600293
000280 25 14 11 be f6 b4 2b be b7 dd 98 bd 69 55 10 be
       -0.14167841 -0.1676825 -0.07464164 -0.14095081
000290 52 aa 86 bd 69 01 c5 3d 06 fc f9 3d fa c0 9e 3c
       -0.06575455 0.096194096 0.12206273 0.019379128
0002a0 cf fa aa bd 2d bf 26 bd 0f 74 c1 bc 1d e8 16 3d
       -0.08348619 -0.040709663 -0.023614911 0.036842454
0002b0 99 53 28 3e 3c 5c 85 3d 3f 13 0d bc 17 7c ae bd
       0.1643814 0.06511733 -0.008610546 -0.08519762
0002c0 05 96 0d 3d 36 6a 71 3d ce e8 14 3e 3c 83 12 3d
       0.034566898 0.05893918 0.14541933 0.035769686
0002d0 47 af f5 3d cb 47 4a 3e 96 e7 e5 bd a0 56 88 bc
       0.11996322 0.1975395 -0.11225812 -0.016642869
0002e0 1e ef cc 3b d4 eb fb 3d e7 42 db 3d 86 65 64 bc
       0.006254091 0.1230084 0.1070612 -0.013940221
0002f0 02 85 18 3c 7f 5e 69 3d 0f 5a 03 be 04 fe 98 3d
       0.009309055 0.056974884 -0.12827323 0.07470325
000300 43 af a9 3d 4c 10 d8 3d 22 5a ae bd 36 72 47 3d
       0.08285382 0.105499834 -0.08513285 0.048692904
000310 d2 ff 0c 3e 00 4b 64 3e c8 ad ef 3d 85 f6 fd bc
       0.13769463 0.22294235 0.11703068 -0.031001339
000320 e7 99 a1 3d c8 07 28 bd 0b 09 6b bc cb f7 db 3d
       0.07890683 -0.041023046 -0.014345418 0.10740622
000330 55 3d ec bd c4 54 58 3e d8 66 c0 bc c9 52 0e be
       -0.11535136 0.21126086 -0.02348654 -0.13898768
000340 c2 d2 17 3e 2a 32 07 bd ad b8 cf bd bc 55 16 3e
       0.14826491 -0.033006825 -0.10142646 0.14681143
000350 54 34 1d be 18 95 45 3d 87 d2 59 be 42 7d b3 3d
       -0.15351993 0.04823789 -0.21271716 0.087641254
000360 f1 76 ab 3c fe 64 4e 3d fc 5e d0 3d 93 97 80 3d
       0.02093074 0.050389282 0.10174367 0.062789105
000370 f5 ad 03 3e 6e 45 71 bd c2 c4 6c bc 4c 51 2e 3d
       0.12859328 -0.058904104 -0.014451208 0.042558
000380 94 d8 d4 bd 97 7f 9a bc 88 d0 0e 3e a2 e5 3b 3e
       -0.103928715 -0.018859668 0.13946736 0.18349317
000390 e3 2e 1c 3e 66 20 8c 3d c1 17 2d 3d 3c 65 95 bc
       0.15252261 0.06842117 0.04225898 -0.018236749
0003a0 26 e2 0f 3e b7 14 f0 bd 8f e1 59 be e9 b2 e5 bd
       0.14051113 -0.11722701 -0.2127745 -0.11215765
0003b0 e4 12 08 3d a3 f2 7c be b9 c6 dc 3c 2c 87 3e bd
       0.03322114 -0.24701934 0.026950227 -0.04651563
0003c0 5c ca 08 be 9c f5 d6 bd 75 7f df bd e0 f2 c6 bd
       -0.13358444 -0.10496065 -0.109129824 -0.097142935
0003d0 60 00 c9 3b 84 1c 37 be 9f 00 f4 bd f6 45 ce bd
       0.006134078 -0.17881972 -0.11914181 -0.10071938
0003e0 60 b2 a2 3d ae 17 a1 3d e6 d8 0c 3e a7 a5 58 3d
       0.079441786 0.07865845 0.13754615 0.052892353
0003f0 a2 bd de 3b 33 e6 01 be 51 af 80 3d 50 f1 ce 3c
       0.0067975083 -0.1268547 0.06283439 0.025261551

decoder.2.bias f4 [64]
000000 a0 4a ad 3d 42 97 0c 3e d4 50 a2 3e 11 cd 3b 3e
       0.08461499 0.13729575 0.31702292 0.18339945
000010 d3 39 36 3e 6b 90 8f 3e 29 c5 11 be fa a6 34 3e
       0.17795496 0.2803987 -0.14235367 0.17641822
000020 36 de 1c be 51 a2 56 3d 03 e5 90 3e 74 fc bb 3c
       -0.15319142 0.05240089 0.28299722 0.022947527
000030 0d 1a 9d bd d8 86 08 3e 69 53 46 3d d8 71 b4 bd
       -0.076709844 0.13332689 0.04841939 -0.088107765
000040 fd 64 59 3e ba 7d 5d 3c d8 2d 0b 3d e0 b8 56 bc
       0.2122993 0.013518745 0.033979267 -0.013105601
000050 35 7c af 3d 30 e6 63 3e 32 c6 52 3e 5b 0d ae 3d
       0.085686125 0.22255778 0.20583418 0.08498641
000060 0b b4 fd 3c f6 e9 84 3e 7a cd 0b 3e f9 24 dd 3d
       0.03096964 0.25959748 0.13652602 0.107980676
000070 15 06 b4 bc e7 05 1d 3e a1 42 03 be 62 ff 23 be
       -0.021975556 0.15334283 -0.12818386 -0.1601539
000080 69 65 4f 3e fe 0a 15 3e ad 7e 70 3d d5 d7 54 3d
       0.20253529 0.14554974 0.058714557 0.051963646
000090 08 26 29 3e 73 c5 01 be 9e 4c 30 3c 73 8c 62 3e
       0.16518414 -0.12672977 0.010760454 0.2212389
0000a0 0c aa 3a 3e b9 5a 68 3d 93 69 fa bd 13 58 25 be
       0.1822893 0.056727145 -0.12227168 -0.16146879
0000b0 cf 77 28 3e c3 da 37 3e 55 90 8e bd ec 5b 92 3e
       0.16451953 0.17954545 -0.06961123 0.28585756
0000c0 d0 c9 db bd 70 5b c4 3d a7 df 3b 3e 42 6d 7e 3d
       -0.10731852 0.09587753 0.18347035 0.062115915
0000d0 6f 79 91 3e b4 b3 df 3d e7 8d 98 be f5 b4 7a bc
       0.2841296 0.109229475 -0.29795763 -0.015301933
0000e0 08 c5 0b 3e 1c 40 67 3e b4 ca 30 3e 6d 51 4c 3e
       0.1364938 0.2258305 0.17264825 0.19952936
0000f0 0a 80 11 bd ef ef 3f 3e 55 a2 02 be f6 62 57 3e
       -0.0355225 0.18743871 -0.12757237 0.21033844

decoder.4.weight f4 [128, 64]
000000 27 ce e4 bc 59 9f 6e bd 68 1c 2c 3e 6e 2a 1e 3e
       -0.027930332 -0.058257435 0.16807711 0.15445873
000010 de 6a 9f bd 68 3d 17 3d c1 b5 ea bd 2b 54 ba 3d
       -0.07784055 0.036923796 -0.11460448 0.09098085
000020 f6 d3 cf 3b 2b 50 d2 bd b5 90 d2 bc 29 f9 0b 3e
       0.0063424064 -0.10269197 -0.025703767 0.13669266
000030 bd 63 51 bd d1 44 88 3d 61 32 e2 3d 4c c8 41 bd
       -0.05112051 0.06653751 0.11044765 -0.04731016
000040 63 1c 93 3b fc c4 70 3d aa 45 91 3d a7 79 63 3d
       0.004489468 0.05878161 0.070933655 0.05553594
000050 04 09 b9 3d d5 30 f0 3d 77 f0 06 be 91 22 e6 3a
       0.09034923 0.11728064 -0.13177668 0.0017557909
000060 81 cf f9 3d ec b5 0a 3e 74 22 bc bc c5 62 20 bd
       0.12197781 0.1354596 -0.022965647 -0.039156694
000070 fd 05 18 be 84 12 6c bd 82 a1 e0 bc b8 11 74 3c
       -0.14846034 -0.057634845 -0.027420763 0.014896803
000080 16 65 b5 3d 3e 14 35 bd b2 8e f6 3b 29 75 df bd
       0.08857171 -0.044208758 0.007524335 -0.109110184
000090 f1 1f ab bd 1c a4 00 be 11 19 85 bc 28 f0 6a 3d
       -0.08355702 -0.12562603 -0.016247304 0.057357937
0000a0 13 7c 21 3c 43 c8 1a 3e 1c 44 ee 3d b0 21 47 bd
       0.009856242 0.15115456 0.116340846 -0.04861611
0000b0 80 b8 61 3d 49 ed 01 3e 3a f2 ac 3c 4d 5e 4e be
       0.055107594 0.12688173 0.021111596 -0.2015316
0000c0 f5 78 46 3c 87 1b d3 bd 26 a2 85 3d 5e f6 64 3d
       0.012113799 -0.10307985 0.06525068 0.055899017
0000d0 75 ba c7 3d 6d 00 c4 b9 7d 3f 00 bd f7 cd 11 be
       0.09752361 -0.0003738435 -0.031310547 -0.14238726
0000e0 eb fa d3 bd f4 d8 08 3e ee 93 89 3d ea ad bb bd
       -0.10350593 0.13364011 0.067176685 -0.09164031
0000f0 f5 71 05 3b 1f dc 18 3c 7a 54 f1 3d e6 60 1a bc
       0.0020362113 0.009329825 0.11783691 -0.009422516
000100 ce 06 0b 3e 81 4d 81 be 44 57 fe 3d d9 42 cb 3d
       0.13576815 -0.25254443 0.12418988 0.099248596
000110 53 26 f9 3c 32 3e 88 3d f1 76 c9 3d 62 5b d0 3d
       0.030413782 0.06652488 0.098371394 0.1017368
000120 58 8b b7 3d 9a c1 54 be 2d ff aa 3d 28 50 af 3d
       0.089621246 -0.20776978 0.08349452 0.085602105
000130 38 ec e3 bd 78 eb 9a 3d 8f 8c 07 3e 73 66 bb 3c
       -0.111290395 0.07564443 0.13237213 0.022876
000140 4f 9d a8 bd 50 4a 7c 3c b2 b9 f6 3c 64 63 0d 3d
       -0.08233129 0.015398577 0.030117843 0.034518614
000150 8f f4 b2 3d 7b 44 58 3e 79 86 1b be cf 0b d4 3d
       0.08738052 0.21119873 -0.15188016 0.10353815
000160 18 bd fb 3d a3 90 bb 3d d0 59 00 be 58 ba ee 3c
       0.12291926 0.09158447 -0.12534261 0.02914159
000170 29 63 8b 3c 4b 21 cb 3d 44 3a 9e 3c ee 85 89 bd
       0.017015057 0.099184595 0.019314893 -0.06714998
000180 bc c9 50 3d 20 9f 7b bd ec 78 bf bd 4b 9e 21 3d
       0.05097364 -0.06143105 -0.09349236 0.0394576
000190 10 98 bc bd a0 01 9c bd d0 dd 7d bd 7f 35 f3 bc
       -0.09208691 -0.076174974 -0.061979115 -0.029688595
0001a0 eb a9 21 3d 5f 47 35 3d d1 42 e4 3c d2 ed 89 3d
       0.039468687 0.044257518 0.027863892 0.06734814
0001b0 b4 19 5a 3e b1 87 6f bc a2 b9 7c 3d 0f 0c 36 be
       0.21298867 -0.014619754 0.06170047 -0.17778037
0001c0 64 6b 25 3e 47 ab 3a be 85 50 95 3d 13 be 7b bc
       0.16154248 -0.182294 0.072907485 -0.015365141
0001d0 bc 3e a0 bd d2 0a a3 3d bd a9 82 bc 87 e3 e6 3c
       -0.07824466 0.07961048 -0.015950078 0.028184665
0001e0 40 e5 0e be 61 d7 33 bd 84 e6 33 3e 90 e6 99 ba
       -0.1395464 -0.043906573 0.17568403 -0.0011741687
0001f0 60 be 1a 3d ad bb 8e bc 8e b0 cc bd f5 22 39 3c
       0.037779212 -0.017423475 -0.09994613 0.011299838
000200 f2 b1 73 3d 04 29 20 3e 85 78 fb 3d 22 3d cc bc
       0.059495874 0.15640646 0.12278847 -0.024931494
000210 0e 9c 03 be da a8 9b 3d 6f ee 61 bd 81 31 9c 3d
       -0.12852499 0.07600565 -0.05515903 0.076266296
000220 6b 80 dc bd 4b 64 90 3d 08 21 b5 bc 1d 8e 84 3c
       -0.10766681 0.07050379 -0.022110477 0.016181046
000230 e5 49 0a 3e 3b f1 87 3c 7b 28 34 bd 3f 86 11 bd
       0.13504751 0.01659452 -0.043983918 -0.035528418
000240 68 07 90 3d e3 5e c2 3d 0e d4 a8 bd 18 ba ae bc
       0.07032663 0.094907545 -0.08243571 -0.02132897
000250 8d dd fd bb f7 ee 72 3d 24 e6 bb 3a e0 ba b3 bd
       -0.007747358 0.059309926 0.0014335555 -0.08775878
000260 8b 02 b6 3c a2 10 ec bd 71 7d 63 bd 5d 54 43 3a
       0.02221801 -0.1152661 -0.055539552 0.0007451231
000270 0c a9 67 3c 62 e4 00 3d d0 bc 9e 3d cf bb 76 bc
       0.014139425 0.031467803 0.07750857 -0.0150594255
000280 c5 88 7a bc fe 2a 21 3e bc 13 e1 bc db 3d 16 be
       -0.015291397 0.15739056 -0.02747523 -0.14672033
000290 71 e8 82 bd 81 ed 90 3b 35 17 46 bd 2b e3 0f be
       -0.06391991 0.004422844 -0.048361976 -0.14051501
0002a0 83 16 5a 3c 81 d8 7d bd 9d ca 38 3d c4 2f 98 bd
       0.013311031 -0.061974052 0.045115102 -0.074309856
0002b0 cd 4c 94 be f5 98 97 3d 70 43 77 bd c8 24 37 3c
       -0.28964844 0.07402221 -0.060367048 0.011178203
0002c0 6b fb 15 bd 79 96 20 bc 8a c4 f0 bd 65 25 2c 3c
       -0.036616724 -0.0098015005 -0.11756237 0.010506962
0002d0 b3 8c 10 3d 58 bc 3e bd 3a b7 6e be ae b9 bc 3d
       0.03529043 -0.046566337 -0.23312083 0.09215103
0002e0 24 25 00 3e 1a 52 da bd 6f 54 3d be 06 4d 34 3d
       0.12514168 -0.10660191 -0.1848924 0.044018768
0002f0 78 02 cd 3d 7a 95 aa 3d d0 59 78 bc 01 9f 0c 3d
       0.100102365 0.08329292 -0.015158132 0.034331325
000300 b3 56 fe 3d 95 9e c8 bd 39 05 63 3e 56 95 7f be
       0.1241888 -0.09795872 0.22169961 -0.24959311
000310 4f 7b 22 bd ed 62 48 bd 47 9d af bd 17 f2 a1 bd
       -0.039668377 -0.048922468 -0.0857492 -0.07907503
000320 3b d3 b7 bd c5 70 a7 be 8a 05 b4 3d 59 46 16 3d
       -0.08975836 -0.32703224 0.08790119 0.036688183
000330 39 fe 21 3c 99 96 33 3c 03 85 9c bd 68 42 18 be
       0.009887272 0.010961198 -0.076425575 -0.14869082
000340 ac 22 eb 3d 1a 27 9e bd 74 d2 fb ba 99 fb fe bd
       0.114812225 -0.07722302 -0.00192125 -0.12450332
000350 2e 88 f4 3d ab f2 c8 39 ab 58 25 be cf e5 d3 3d
       0.11940037 0.00038327774 -0.16147105 0.10346567
000360 1d 82 43 3d 1a 33 41 39 38 ca 69 be 46 ab 85 bd
       0.047731508 0.00018424951 -0.22831047 -0.065268084
000370 13 46 f4 be 7c 18 a1 bc fb d4 35 bd 44 a4 94 bd
       -0.47709712 -0.019664995 -0.044392567 -0.07257894
000380 82 01 47 3d f4 ef 45 bc 8a fc 9e 3d 35 b2 b0 bc
       0.048585422 -0.012081135 0.07763012 -0.02156935
000390 31 b7 2a 3c fa 2b 22 bd 2b 99 90 bc 86 26 2a 3e
       0.010419653 -0.03959272 -0.017651161 0.16616258
0003a0 f0 cd 02 be 8f 87 71 3d f8 6c 39 bd 8a 28 95 bd
       -0.12773871 0.05896717 -0.045269936 -0.07283123
0003b0 cb c5 d6 3d 7d 84 c3 bd 28 69 9f be a1 d9 37 bc
       0.10486945 -0.095467545 -0.31134915 -0.01122132
0003c0 2c d3 a7 be ce 9c 92 be d9 06 a5 be af c4 2e 3d
       -0.327783 -0.28635257 -0.32231787 0.04266804
0003d0 13 3e 17 3d d6 1a 1a 3d d7 46 87 3d 5b 79 2b be
       0.036924433 0.03762325 0.066053085 -0.16745512
0003e0 2c 7a ef bd 8b f0 d8 3d e7 1a 8c 3e ad 45 1f 3d
       -0.11693224 0.10592755 0.27364275 0.038884807
0003f0 2b 25 94 bb 4a 1a ce bd 26 a0 e4 bd 26 88 a0 3d
       -0.0045210323 -0.10063608 -0.111633584 0.07838468
