img/Datos/Models/model-lat5.pth (torch, 192482 bytes, 16 tensors)

encoder.0.weight f4 [128, 99]
0	0x3d96dd1c	0.07366392
1	0xbd64850f	-0.055790957
2	0xbca31ee2	-0.019912187
3	0x3b7b9166	0.0038386225
4	0x3d989852	0.07450928
5	0x3d2458e2	0.040123828
6	0xbc174a40	-0.009234011
7	0x3d8e4b03	0.06947901
8	0x3de8e6c1	0.11372138
9	0xbd8469b9	-0.064654775
10	0x3d975682	0.07389547
11	0xbd7af3c0	-0.061267614
12	0xbcf7a75d	-0.030231172
13	0x3d308ce9	0.043103132
14	0xbb8701ea	-0.004120101
15	0x3d93aa4b	0.07210215
16	0x3dda7363	0.106665395
17	0x3ddeee3f	0.108852856
18	0x3cee939a	0.029123116
19	0x3e15ea0e	0.14640066
20	0x3dddfcec	0.10839257
21	0xbd1684ba	-0.03674767
22	0x3d5a0bfa	0.053234078
23	0x3e096ac2	0.13419631
24	0x3e120e3c	0.14263242
25	0x3d0294bd	0.03188013
26	0x3e1047bd	0.14089866
27	0x3dc3c38a	0.095587805
28	0xbcfec621	-0.031100335
29	0x3db9bfd7	0.09069794
30	0x3e11a15f	0.14221714
31	0x3dde3f6a	0.10851939
32	0x3ceb5006	0.028724682
33	0xba99086d	-0.0011675485
34	0x3e060def	0.13091253
35	0x3d40742e	0.046985798
36	0xbce92c07	-0.028463377
37	0xbc0a1194	-0.0084270425
38	0x3d9fd6e1	0.07804657
39	0x3d99f760	0.07517886
40	0xbc2cdab1	-0.010550187
41	0xbcabe81b	-0.0209847
42	0x3dea6850	0.11445677
43	0x3d084db6	0.033277236
44	0x3cfef9de	0.031125005
45	0x3da5c64f	0.08094465
46	0x3daab472	0.083351985
47	0x3e0435a1	0.12911083
48	0xbd16a400	-0.036777496
49	0x3e0f331b	0.13984339
50	0x3dd5a80a	0.104324415
51	0xbd58e5f9	-0.052953694
52	0xbd7299c1	-0.059228662
53	0xbd8b57c7	-0.068038516
54	0x3c682006	0.014167791
55	0xbc3f6199	-0.011680984
56	0xbaebd497	-0.0017992434
57	0x3de7518e	0.11294852
58	0x3d65a226	0.05606284
59	0x3ca8a931	0.02058849
60	0x3cb05acc	0.02152767
61	0xbce5a596	-0.02803306
62	0xbcf8e0d9	-0.030380653
63	0x3d769300	0.060198784
64	0x3c3d651d	0.011559752
65	0xbd6d759a	-0.05797348
66	0xbd3e6162	-0.04647959
67	0xbdc2707b	-0.0949411
68	0xbe1a26c6	-0.15053853
69	0xbd146506	-0.036229156
70	0xbe07e6d4	-0.13271648
71	0xbdc4cd07	-0.09609418
72	0xbd4b3e75	-0.04962011
73	0x3d37b923	0.044854295
74	0xbdf0c1e3	-0.11755731
75	0x3d385273	0.045000505
76	0xbdf1752b	-0.11789926
77	0xbd4b6a02	-0.049661644
78	0xbd60ce22	-0.054884084
79	0x3d6c780d	0.057731677
80	0xba283059	-0.0006415896
81	0xbd686afd	-0.056742657
82	0xbd14e9b2	-0.03635568
83	0x3d2c6e1b	0.042097192
84	0x3ced5d1e	0.028975066
85	0xbd26f2b5	-0.040758807
86	0xbd589be5	-0.052883048
87	0xbca8b2aa	-0.020593006
88	0xbcb2e8ff	-0.021839617
89	0xbe1ba254	-0.15198642
90	0xbdeb13b7	-0.1147837
91	0xbda628da	-0.081132606
92	0xbd1785ed	-0.036992956
93	0xbd835ba0	-0.064139605
94	0xbd66b309	-0.056323085
95	0xbc545f48	-0.01296217
96	0xbe054a11	-0.13016535
97	0xbdec8cca	-0.11550291
98	0x3d197056	0.037460648
99	0xbcda7965	-0.026669214
100	0x3dc22033	0.09478798
101	0x3d249d0f	0.040188845
102	0x3d70f4ad	0.05882709
103	0xbd3aa342	-0.04556585
104	0x3da34204	0.07971576
105	0xbd4c0086	-0.049805187
106	0xbc578f28	-0.01315669
107	0xbd2713dd	-0.040790427
108	0xbd4ccede	-0.05000197
109	0xbdc8cbeb	-0.09804519
110	0xbc7623a8	-0.01502315
111	0x3d4a8a99	0.049448583
112	0xbd849a69	-0.06474764
113	0x3cdf10e8	0.027229741
114	0xbd00b9cf	-0.0314272
115	0xbce69c17	-0.028150601
116	0x3daee637	0.08540004
117	0x3d96d4f8	0.07364839
118	0xbbe40b3e	-0.006959348
119	0x3dbeffeb	0.09326156
120	0x3c81f100	0.015861988
121	0x3c86470a	0.016391296
122	0x3dced99c	0.101000994
123	0xbdaaac42	-0.08333637
124	0x3d4f3b79	0.050593827
125	0xbdaacca8	-0.08339816
126	0x3d3d3653	0.046194386
127	0xbd814ac9	-0.06313092
128	0xbd9513b8	-0.07279152
129	0xbc6609cb	-0.014040421
130	0xbd8af499	-0.067849346
131	0x3d46ec37	0.048565116
132	0xbd5ea62e	-0.0543577
133	0xbd89d9ab	-0.0673097
134	0x3d11709f	0.035507794
135	0xbd20e69c	-0.039282426
136	0x3db7845a	0.08960791
137	0xbd9b118d	-0.07571707
138	0x3d616e3c	0.05503677
139	0x3bd22d7c	0.0064141136
140	0x3c7a102b	0.015262644
141	0xbd39f734	-0.045401767
142	0xbd3101a0	-0.04321444
143	0x3db080c1	0.08618308
144	0x3def4d99	0.116847225
145	0x3db9bba1	0.090689905
146	0x3ccfab02	0.025350098
147	0xbd1f7a73	-0.038935136
148	0xbbfcb716	-0.007712255
149	0xbbf49e7c	-0.007465182
150	0x3cf99f05	0.030471334
151	0x3d5e7863	0.05431403
152	0x3db8591e	0.09001373
153	0x3ce620d1	0.02809182
154	0x3d2c2587	0.042027976
155	0x3d7d6db5	0.061872203
156	0x3df357b3	0.11881962
157	0x3dda09c4	0.10646394
158	0x3d64a4d4	0.055821255
159	0x3dafad82	0.08578016
160	0x3d868133	0.065676115
161	0x3d3ef14a	0.04661683
162	0x3df87446	0.121315524
163	0xbcfd0133	-0.03088436
164	0x3dbbbee8	0.09167272
165	0x3d202754	0.039100006
166	0x3dffe3e9	0.12494642
167	0x3d16a807	0.036781337
168	0xbd847b1d	-0.064687945
169	0x3d45e099	0.048309896
170	0x3cae1d15	0.021254102
171	0x3c611380	0.013737559
172	0xbd46f7d9	-0.04857621
173	0x3d669de1	0.05630291
174	0x3da53122	0.08066012
175	0x3ceac020	0.028656065
176	0x3d8d9fed	0.06915269
177	0x3b88b5f3	0.0041720807
178	0x3d876445	0.06610922
179	0xbd08afd0	-0.033370793
180	0xbd456703	-0.048193943
181	0x3dab7981	0.083727844
182	0xbd136a10	-0.03598982
183	0x3da0ecbe	0.07857655
184	0x3d919220	0.07107949
185	0xbb6e160e	-0.0036329064
186	0xbc4f14d7	-0.012639246
187	0xbdad6ebd	-0.08468387
188	0xbd3f7266	-0.04673996
189	0xbdc534d2	-0.09629215
190	0xbbe967aa	-0.0071229534
191	0xbda24e4f	-0.079250924
192	0x3d1e3d1c	0.038632497
193	0x3d925eef	0.071470134
194	0xbda59816	-0.08085649
195	0xbd984412	-0.074348584
196	0x3d016816	0.031593405
197	0x3d416196	0.047212206
198	0x3e3a7cb1	0.18211628
199	0x3d69b469	0.05705682
200	0x3d21ef4b	0.03953485
201	0x3c4bb73e	0.012433825
202	0x3decbe88	0.115597785
203	0x3e2a231d	0.16614957
204	0x3d29cc8a	0.04145483
205	0x3e1fbfb4	0.15600473
206	0x3df7753e	0.12082909
207	0xbca9e730	-0.020740122
208	0x3dd6c318	0.1048643
209	0x3de9bde2	0.114131704
210	0x3d95162b	0.07279619
211	0x3da44d02	0.080225006
212	0x3db025c2	0.08600952
213	0xbd27cc19	-0.040966127
214	0x3da1eb50	0.079062104
215	0x3ca6c11f	0.02035576
216	0xbc3c88f0	-0.011507258
217	0x3d553b10	0.05205828
218	0xbc862aca	-0.016377825
219	0x3dd1f8c3	0.10252526
220	0x3c2844d8	0.01027032
221	0xbba162c8	-0.0049251057
222	0xbd4f2a91	-0.050577704
223	0xbd9e6d1f	-0.07735657
224	0xbc145295	-0.009052892
225	0x3d3a439d	0.045474637
226	0xbc6dd441	-0.014515937
227	0xbcb6654f	-0.022265105
228	0x3db14e7e	0.08657549
229	0xbd09df5c	-0.033660278
230	0xbd340808	-0.04395297
231	0x3c9d454e	0.019198086
232	0x3ddf0835	0.10890237
233	0x3dbb57df	0.091476195
234	0xbcc470ce	-0.02397957
235	0xbd3d1151	-0.046159092
236	0x3de16ac1	0.1100669
237	0x3b5ce408	0.0033705253
238	0xbcbbb1d9	-0.022911953
239	0x3d1f6530	0.03891486
240	0x3dd7883c	0.105240315
241	0x3def980c	0.116989225
242	0x3d521900	0.051293373
243	0x3c049940	0.008093178
244	0x3d794529	0.060856972
245	0xbc766a5b	-0.015040006
246	0xbd10c404	-0.035343185
247	0x3d49511e	0.049149625
248	0xbd835827	-0.06413298
249	0xbcc6158f	-0.024180202
250	0xbd913e39	-0.07091946
251	0x3d8afab9	0.06786103
252	0xbdb96cd4	-0.090539604
253	0xbd0f5254	-0.034990624
254	0x3cdaeb49	0.02672352
255	0xbd749309	-0.059710536

encoder.0.bias f4 [128]
0	0xbe3f6be3	-0.186935
1	0xbdbc8b0e	-0.0920621
2	0xbe374393	-0.17896871
3	0xbea291a7	-0.3175175
4	0xbe2812f5	-0.16413482
5	0xbcd21d9e	-0.025648888
6	0xbe2a6602	-0.16640475
7	0xbdba2424	-0.090889245
8	0xbe153a90	-0.14573121
9	0xbd2f905d	-0.042862285
10	0xbe3bd3f2	-0.1834257
11	0xbe0a4752	-0.13503769
12	0x3c49e2d5	0.012322147
13	0xbe000a2c	-0.1250388
14	0xbe7034ef	-0.23457693
15	0xbe2a9d1e	-0.16661498
16	0xbe5616d9	-0.20907153
17	0xbc721062	-0.014774414
18	0xbd923790	-0.07139504
19	0xbe41314f	-0.18866466
20	0xbdf7376b	-0.12071117
21	0x3d83b9a3	0.06431892
22	0x3ca46814	0.02006916
23	0xbe597fb9	-0.21240129
24	0x3dfefb22	0.124502435
25	0xbe80c81c	-0.2515267
26	0xbd9c7448	-0.076393664
27	0xbea2490c	-0.31696355
28	0xbe126feb	-0.14300506
29	0xbe4f1fb2	-0.20226935
30	0xbdcf362f	-0.101177566
31	0xbe46c768	-0.19412005
32	0x3d0a3490	0.033741534
33	0xbc2a56f5	-0.010396709
34	0xbdd901ed	-0.105960704
35	0xbe2a3235	-0.16620715
36	0xbe750da9	-0.23930992
37	0xbecc619f	-0.3991823
38	0xbde23cbe	-0.11046742
39	0xbda874bc	-0.0822539
40	0xbdaf9bb5	-0.08574621
41	0xbd37a8bc	-0.044838652
42	0xbd0db2e2	-0.034594424
43	0xbe11e9d1	-0.1424935
44	0xbd9834e1	-0.07431961
45	0xbd4ec5a6	-0.05048146
46	0xbcf9edb9	-0.030508863
47	0xbbb131d8	-0.005407553
48	0xbebc0e6e	-0.3672976
49	0xbeadec0b	-0.3396915
50	0xbcf04173	-0.029328084
51	0xbdc87335	-0.09787599
52	0xbe1e8763	-0.15481333
53	0xbe2b7d2d	-0.1674697
54	0xbe268a08	-0.16263592
55	0xbe423773	-0.18966465
56	0xbd8a06d5	-0.06739584
57	0xbc8591fc	-0.016304962
58	0xbe62bff5	-0.22143538
59	0xb8e1a3e0	-0.0001075936
60	0xbdbc270b	-0.09187134
61	0xbe16757b	-0.14693253
62	0xbd61939b	-0.05507241
63	0xbdd0040d	-0.101570226
64	0xbe25e121	-0.16199161
65	0xbe4fa246	-0.20276746
66	0xbdfe09db	-0.124042235
67	0xbde60f59	-0.11233396
68	0xbe41806b	-0.18896644
69	0xbe7c4f09	-0.24639525
70	0xbd97669b	-0.07392617
71	0xbe118a3c	-0.14212888
72	0xbdfc0073	-0.12304773
73	0xbe5e483b	-0.21707241
74	0x3d5f64fd	0.05453967
75	0xbe02004b	-0.12695424
76	0xbdd79eed	-0.105283596
77	0xbe763a83	-0.24045758
78	0xbe80d067	-0.25158998
79	0xbe063a97	-0.13108288
80	0xbed2de66	-0.41185302
81	0xbdf9cb4b	-0.12196978
82	0xbd975ff5	-0.07391349
83	0xbe1a9cbb	-0.1509885
84	0xbcdae567	-0.026720716
85	0xbd42b763	-0.047538172
86	0xbe1a31c5	-0.15058048
87	0xbe0f876e	-0.14016506
88	0xbe431089	-0.19049276
89	0xbea845fd	-0.32865897
90	0xbe78bbf9	-0.24290456
91	0xbd31ee12	-0.043439932
92	0xbcf4494f	-0.029820113
93	0xbde334de	-0.11094068
94	0xbddb346b	-0.10703357
95	0xbe806f5e	-0.25084966
96	0xbc6a1bf8	-0.014288895
97	0xbeb7046b	-0.35745558
98	0xbe3e4b75	-0.18583472
99	0xbede1943	-0.43378648
100	0xbd58782f	-0.05284899
101	0xbe0f1a9a	-0.13974991
102	0xbe7fc692	-0.24978092
103	0xbe458a6a	-0.19291082
104	0xbe7e94b2	-0.2486141
105	0xbda6b859	-0.0814063
106	0xbe31f10c	-0.17377108
107	0xbdb905e2	-0.09034325
108	0xbe3c4745	-0.18386562
109	0xbde43037	-0.11142009
110	0xbd99b788	-0.07505709
111	0xbf01d783	-0.5071947
112	0xbe5c0a7e	-0.21488377
113	0xbdbb0097	-0.09130972
114	0xbe030f23	-0.12798743
115	0xbdb5f5d5	-0.08884779
116	0xbbaec3a2	-0.00533338
117	0xbd4d04a5	-0.050053257
118	0xbe33bb86	-0.17552003
119	0xbe396d3b	-0.18108074
120	0xbdc183fb	-0.094490014
121	0x3ccb5e2c	0.024825178
122	0xbd376fe0	-0.044784427
123	0xbe0ce4bd	-0.13759132
124	0xbe5171fc	-0.20453638
125	0xbeaf16d6	-0.3419711
126	0xbc67f11f	-0.014156609
127	0xbe306723	-0.17226844

encoder.3.weight f4 [64, 128]
0	0x3d3df81c	0.046379194
1	0x3c3198c8	0.010839649
2	0x3d1264d4	0.03574069
3	0x3d9290ed	0.07156549
4	0xbce41ebf	-0.027846692
5	0x3cfc2f54	0.030784287
6	0x3d0b927f	0.034075256
7	0x3dab2803	0.08357241
8	0xbc7ac3c4	-0.015305463
9	0xbc942bc3	-0.018087273
10	0x3caf9643	0.021433955
11	0xbc5b5c33	-0.013388681
12	0x3cf00ac6	0.029302012
13	0x3db66b17	0.089071445
14	0xbc5c2a8d	-0.013437879
15	0xbdbc75de	-0.09202169
16	0xbda5854b	-0.08082064
17	0x3d8e2c7e	0.0694208
18	0x3dac99e4	0.0842779
19	0x3db7b896	0.08970754
20	0x3b19f63d	0.0023492717
21	0x3d2cf681	0.042227272
22	0xbc50ca53	-0.01274355
23	0xbc856c20	-0.01628691
24	0x3da4faca	0.08055647
25	0x3dc3a605	0.0955315
26	0x3d688dc1	0.056775812
27	0xbb0db9b0	-0.002162557
28	0x3cc490d6	0.023994844
29	0xbdb93d23	-0.09044864
30	0x3d94de3b	0.072689496
31	0x3d46c063	0.048523318
32	0xbd892fab	-0.06698545
33	0xbd3be25f	-0.04587018
34	0x3d3fcedb	0.046828132
35	0xbc728815	-0.014802952
36	0x3d039e1c	0.032133207
37	0xbcbbbc5d	-0.022916967
38	0xbda18226	-0.07886152
39	0xbbb13547	-0.0054079625
40	0x3d819ea9	0.0632909
41	0xbcd616e4	-0.026133962
42	0xbd999659	-0.0749938
43	0x3db27a2d	0.087147094
44	0x3dc1ce01	0.0946312
45	0xbd826202	-0.0636635
46	0x3da92bbc	0.08260295
47	0x3d68ddd9	0.056852195
48	0xbe19d459	-0.1502241
49	0x3c8c9d51	0.017164858
50	0xbc7eeea2	-0.015559824
51	0x3d632670	0.05545658
52	0x3cdd9e50	0.027053028
53	0xbd1a60d1	-0.037689988
54	0x3db3077c	0.08741662
55	0xbc9594bb	-0.018259397
56	0xbbbb5862	-0.005717323
57	0xbb3a14e8	-0.0028393809
58	0xbd93162f	-0.071819656
59	0x3bf721c5	0.0075418674
60	0xbbffe387	-0.007809106
61	0xbd33d98a	-0.043908633
62	0x3c258a54	0.010103781
63	0xbd103ef8	-0.0352163
64	0xbd8d4c36	-0.06899302
65	0xbd223e01	-0.039609913
66	0xbd8ee877	-0.06977933
67	0x3d34fed9	0.044188354
68	0xbd84cd18	-0.06484431
69	0xbe010177	-0.12598215
70	0x3d71f196	0.059068285
71	0x3d99a11b	0.075014316
72	0x3d1b19f8	0.037866563
73	0x3c6ea48c	0.014565598
74	0x3d872bb7	0.06600135
75	0xbd007949	-0.031365667
76	0x3da4d981	0.08049298
77	0xbdcb01ca	-0.099124506
78	0x3cc66d5e	0.024222072
79	0x3c392d96	0.011302372
80	0x3d0b0b93	0.033946585
81	0x3d86ebfc	0.06587979
82	0x3dcf1f18	0.101133525
83	0xbdffcc69	-0.1249016
84	0x3dbfc6a0	0.093640566
85	0x3d388566	0.045049094
86	0x3c19afe7	0.009380317
87	0xbd093dd5	-0.033506233
88	0x3a9b4997	0.0011847493
89	0x3dc92529	0.09821541
90	0x3d207720	0.039176106
91	0x3d4047ed	0.046943594
92	0x3d89c25c	0.06726524
93	0x3cc858f7	0.024456484
94	0x3cb9dc99	0.022688197
95	0xbda01440	-0.078163624
96	0xbd246b95	-0.04014166
97	0xbc0e006d	-0.008667094
98	0x3dad8fa4	0.08474663
99	0x3c80dad1	0.01572934
100	0xbb9d0fde	-0.0047931513
101	0x3a67843d	0.0008831656
102	0xbd01ad63	-0.031659495
103	0x3dac57dd	0.08415196
104	0xbcf81ece	-0.030288126
105	0x3d7f859d	0.062383283
106	0x3d8abaf9	0.067739435
107	0xbd7cfa3e	-0.061762087
108	0xbcdb5e9a	-0.026778508
109	0xbdd51a7c	-0.10405442
110	0xbd1da7cc	-0.0384901
111	0xbe3efae9	-0.18650402
112	0x3d52ae58	0.0514358
113	0xbcd6f9ef	-0.026242224
114	0xbc9dccc2	-0.019262675
115	0x3d48f419	0.049060915
116	0x3d69d34b	0.05708627
117	0x3d2cf9bf	0.042230364
118	0xba8751ef	-0.0010324101
119	0xbd8a0e3d	-0.06740997
120	0xbb2c9f26	-0.0026339977
121	0x3db476d4	0.08811727
122	0x3ce81dc0	0.028334498
123	0xbda8f18a	-0.08249195
124	0xbdd6d541	-0.10489894
125	0x3cb914f4	0.022592999
126	0x3dac8963	0.08424642
127	0xbd56fe7f	-0.0524888
128	0xbd85d8f8	-0.06535524
129	0xbd899758	-0.0671832
130	0xbe7664b1	-0.24061848
131	0xbe05bba1	-0.13059856
132	0x3d07e3ba	0.03317616
133	0xbd8fe0c8	-0.070252955
134	0x3d6c6d70	0.057721555
135	0xbcc7a835	-0.0243722
136	0x3c894a09	0.016758936
137	0x3d238461	0.03992117
138	0xbd9616d7	-0.07328575
139	0x3d9c80c7	0.0764175
140	0x3d0d02d4	0.034426525
141	0x3dea0526	0.11426763
142	0x3cd72962	0.02626485
143	0x3d82d68d	0.063885786
144	0xbd522198	-0.05130157
145	0xbd224026	-0.039611958
146	0xbe347ace	-0.17624971
147	0xbe310e51	-0.17290618
148	0x3ddfb9a4	0.1092408
149	0xbbf8f6d0	-0.0075977817
150	0x3d871c83	0.06597235
151	0xbdb6a0ef	-0.089174144
152	0xbd2ae4a0	-0.04172194
153	0xbe18dbe0	-0.14927626
154	0x3d7922ef	0.06082433
155	0xba268284	-0.0006351846
156	0x3d792441	0.06082559
157	0xbc38b408	-0.011273392
158	0x3d0d51bf	0.034501787
159	0xbcd8cc15	-0.026464501
160	0xbe69a41c	-0.22816509
161	0xbdaf17f6	-0.08549492
162	0x3c8ba1e6	0.017044973
163	0x3c665e70	0.014060602
164	0xbd68d1bf	-0.056840654
165	0x3db8d3b1	0.09024752
166	0xbba8e98b	-0.0051547936
167	0xbd82cdcb	-0.06386908
168	0xbca99656	-0.020701569
169	0x3d8f1970	0.06987274
170	0xbdc11c63	-0.094292425
171	0x3d79d709	0.06099609
172	0xbe40d811	-0.18832423
173	0xbe184c0e	-0.14872763
174	0xbcb6ebcb	-0.022329232
175	0xbdda31f1	-0.10654057
176	0xbd4659b0	-0.048425376
177	0xbc9cdac0	-0.019147277
178	0x3be9b110	0.007131703
179	0xbe298247	-0.16553603
180	0x3d981509	0.07425887
181	0xbea441fa	-0.32081586
182	0x3bc3e281	0.005977929
183	0x3cdb7105	0.02678729
184	0xbe69b8e8	-0.22824442
185	0x3e25b5c4	0.1618262
186	0xbe32cee3	-0.17461734
187	0xbd515e88	-0.051115543
188	0xbe2c0be0	-0.16801405
189	0xba8b3362	-0.0010620172
190	0x3d17c1ea	0.037050165
191	0xbccb1094	-0.024788179
192	0xbda67449	-0.081276484
193	0x3ccb3192	0.02480391
194	0xbc90f458	-0.017694637
195	0xbd69ae8b	-0.057051223
196	0x3d18dfcd	0.037322808
197	0xbe0c058a	-0.13673988
198	0x3d972dd1	0.07381786
199	0xbd60cce8	-0.054882914
200	0xbd3bf7b3	-0.04589052
201	0x3ddeb9fe	0.10875319
202	0x3e46bcc8	0.19407952
203	0x3d921996	0.071337864
204	0x3ca62e73	0.02028582
205	0xbc9379a7	-0.018002344
206	0xbd519e04	-0.051176086
207	0xbd6c448a	-0.05768255
208	0xbd66aa36	-0.05631467
209	0x3db3d262	0.08780362
210	0x3c8e2ba0	0.017354786
211	0xbcc962f5	-0.02458332
212	0x3da54a73	0.08070841
213	0x3c0b6409	0.008507737
214	0xbcdf3c0f	-0.027250318
215	0xbd3ba60f	-0.045812663
216	0xbd6fa4fd	-0.058506954
217	0x3e039a00	0.12851715
218	0xbd7326a1	-0.05936301
219	0x3d57f196	0.05272063
220	0xbcbe2063	-0.023208803
221	0x3de221c6	0.11041598
222	0x3d51b3ac	0.05119674
223	0xbe05f620	-0.1308217
224	0x3c657230	0.014004275
225	0xbe03ce13	-0.1287158
226	0xbcfa2ca5	-0.030538866
227	0x3df1373e	0.11778115
228	0xbcf3ca34	-0.029759504
229	0x3d09f1f2	0.033678003
230	0x3dbe17ec	0.092819065
231	0xbd437671	-0.047720376
232	0x3d3fcedc	0.046828136
233	0x3d70c3ac	0.058780357
234	0x3d359d54	0.044339493
235	0xba724ed4	-0.00092433137
236	0x3ce38456	0.027773064
237	0xbec19ad2	-0.3781343
238	0x3d5a1ff4	0.05325313
239	0xbd86fca2	-0.06591155
240	0xbd9c5be3	-0.076347135
241	0xbdd97f87	-0.10620027
242	0x3cdd172e	0.026988592
243	0x3d79e100	0.061005592
244	0x3d0e3977	0.03472277
245	0x3d2f3552	0.04277546
246	0x3d6f0a05	0.058359165
247	0xbdaf57b2	-0.085616484
248	0xbe8fe56e	-0.28104728
249	0x3cca71c2	0.024712447
250	0xbcc57b5c	-0.024106674
251	0x3ddf8efc	0.10915944
252	0xbc97710a	-0.018486518
253	0xbc814653	-0.015780604
254	0xbdc9af47	-0.098478846
255	0xbd403b16	-0.04693135

encoder.3.bias f4 [64]
0	0x39c0b338	0.00036754622
1	0x3dca0b1c	0.098654
2	0x3d11f2ce	0.035631947
3	0xbb0cfce9	-0.002151305
4	0xbe082909	-0.13296904
5	0xbe6b88ac	-0.23001355
6	0x3b7479ac	0.0037303967
7	0xbdc88997	-0.09791868
8	0xbd39e269	-0.045381937
9	0x3b28f9a6	0.0025783568
10	0xbddef307	-0.108861975
11	0xbba1261b	-0.0049178726
12	0xbe292e21	-0.16521503
13	0xbe62bc7a	-0.2214221
14	0xbcbedd2d	-0.023298824
15	0xbd03fbe9	-0.032222662
16	0xbd035e6c	-0.03207247
17	0xbe4d9925	-0.20077951
18	0xbde3621b	-0.111026965
19	0xbe77b255	-0.24189122
20	0xbd18a03c	-0.037262186
21	0x3b89f1a8	0.004209716
22	0x36ee55c0	7.1029353e-06
23	0xbc971381	-0.018441917
24	0x3ce5eaed	0.028066123
25	0xbdf7be96	-0.12096898
26	0x3d2ec82c	0.042671368
27	0xbde398cd	-0.11113129
28	0xbdf1f411	-0.1181413
29	0xbda5039c	-0.08057329
30	0x3b66a75a	0.0035194964
31	0xbe8980fe	-0.26856226
32	0x3d32aa89	0.043619666
33	0xbe0e3c18	-0.13890111
34	0xbd1039f8	-0.035211533
35	0xbd1b6460	-0.037937522
36	0xbdd6cdfb	-0.104885064
37	0x3d313c69	0.043270502
38	0xbca89d9e	-0.02058297
39	0xbd9c5285	-0.07632927
40	0x3cfcc7e9	0.030857043
41	0xbde91730	-0.11381376
42	0xbe3e561c	-0.18587536
43	0xbcdf5727	-0.027263237
44	0x3c3df97e	0.011595128
45	0xbdc7b613	-0.09751525
46	0xbd820603	-0.06348803
47	0xbd41b18e	-0.04728847
48	0xbc199f4a	-0.009376356
49	0x3a809d9f	0.00098126
50	0xbd6a0382	-0.05713225
51	0x3d1431da	0.036180355
52	0xbde0e444	-0.10981038
53	0xbe121cdd	-0.14268823
54	0xbcb92af3	-0.022603488
55	0xbb1a74f1	-0.0023568238
56	0xbe76900c	-0.24078387
57	0xbe18a8a7	-0.14908086
58	0x3b6c62a8	0.0036069546
59	0xbd33f452	-0.043934174
60	0xbe47f64f	-0.19527553
61	0xbdcdccfc	-0.10048863
62	0xbe0df03e	-0.13861176
63	0xbd4ea1e4	-0.05044736

encoder.6.weight f4 [32, 64]
0	0x3aa746f5	0.0012762236
1	0xbb579f5d	-0.0032901384
2	0x3d1a4138	0.037659854
3	0xbcbec32a	-0.02328642
4	0xbcb4b42c	-0.022058569
5	0xbd5dfed8	-0.054198116
6	0xbdc8bf86	-0.09802155
7	0x3dceb641	0.10093356
8	0x3d31c6e2	0.04340256
9	0xbd44f223	-0.048082482
10	0x3d0f4024	0.03497328
11	0x3dd29987	0.10283189
12	0x3d37bbc1	0.04485679
13	0x3c6d674b	0.014489959
14	0xbd3ec209	-0.046571765
15	0xbd894da4	-0.06704262
16	0xbd7b5d58	-0.061368316
17	0xbe8400a0	-0.25781727
18	0x3e282784	0.16421324
19	0x3e488319	0.1958126
20	0xbcd92a50	-0.026509434
21	0xbdd8cc96	-0.10585897
22	0xbdbd953e	-0.09256981
23	0xbe0d458d	-0.13796063
24	0xbd1ae78b	-0.037818473
25	0x3e451085	0.19244583
26	0xbdbbb52b	-0.091654144
27	0xbe2a6182	-0.16638759
28	0x3dbd7024	0.09249905
29	0x3d01abcc	0.03165798
30	0xbd3051ac	-0.04304664
31	0xbda9ccc9	-0.08291013
32	0xbd66b1dd	-0.056321967
33	0x3b5f42d8	0.0034066942
34	0xbe12e4ff	-0.14345168
35	0x3def7292	0.116917744
36	0xbaf53ebd	-0.0018710714
37	0xbd843c1e	-0.06456779
38	0x3bd44c3f	0.006478816
39	0xbd0875b5	-0.03331538
40	0x3da8c725	0.08241109
41	0x3bacb63c	0.0052707475
42	0xbbf2bad5	-0.007407526
43	0x3de61138	0.11233753
44	0xbd6f1b40	-0.058375597
45	0xbd67bdfc	-0.056577668
46	0x3d261f22	0.040557034
47	0xbd95c669	-0.07313234
48	0x3ca70c4c	0.020391606
49	0x3ccd51a6	0.025063347
50	0x3c642500	0.013924837
51	0xbd9e5390	-0.07730782
52	0xbe1c3640	-0.1525507
53	0x3e29c0f0	0.16577506
54	0x3ddc19e1	0.107471235
55	0xbd5d0cc4	-0.053967252
56	0x3da90f24	0.08254841
57	0xbe89b8ff	-0.26898953
58	0xbdec4e55	-0.11538378
59	0x3e0f18c0	0.13974285
60	0x3d65d070	0.056106985
61	0x3d9915ee	0.07474886
62	0x3e985378	0.29751182
63	0x3d83917d	0.06424234
64	0xbd235efb	-0.039885502
65	0xbd297cc0	-0.041378736
66	0xbb01b03e	-0.0019788886
67	0x3d9de5d4	0.07709852
68	0x3e244b1f	0.16044281
69	0xbba9577b	-0.005167899
70	0xbdf9cb06	-0.12196927
71	0xbcf624f3	-0.030046916
72	0xbe24898d	-0.16068096
73	0x3cf6a555	0.030108133
74	0x3c34d0dc	0.011036124
75	0xbe024a6c	-0.12723702
76	0x3cba2ebf	0.022727368
77	0xbc114eee	-0.008868916
78	0x3e249f21	0.16076328
79	0x3cd4a4a8	0.02595742
80	0xbdd8df56	-0.10589473
81	0x3d8ea7bc	0.069655865
82	0x3d6b302f	0.057419
83	0xbe2d1841	-0.16903783
84	0x398aeda3	0.00026498464
85	0xbdc8a55c	-0.09797165
86	0x3bb54500	0.005531907
87	0x3b0b7daf	0.002128463
88	0x3cb4d7b2	0.022075508
89	0xbd65f2ea	-0.056139864
90	0xbd117141	-0.035508398
91	0x3bfc44ee	0.0076986467
92	0xbe0582fa	-0.13038245
93	0xbcebc1c5	-0.02877892
94	0xbc3b9134	-0.011448193
95	0x3dc699c0	0.09697294
96	0xbd75c33c	-0.060000643
97	0x3e3d6db4	0.1849888
98	0xbd0de34d	-0.0346406
99	0x3e0b95aa	0.13631311
100	0x3cb7670f	0.02238801
101	0xbdbc0bdc	-0.091819495
102	0x3dceef18	0.10104197
103	0x3d2af8b2	0.04174108
104	0xbdcb18de	-0.099168524
105	0x3d9ba36b	0.07599529
106	0x3d0f3847	0.03496578
107	0x3cdff396	0.02733783
108	0xbe097f48	-0.1342746
109	0x3d963970	0.07335174
110	0xbccda298	-0.025101945
111	0x3d87d0b4	0.06631604
112	0xbd6ecaf0	-0.058299005
113	0xbd8afdf2	-0.067867175
114	0xbd783642	-0.06059862
115	0x3dda085f	0.10646128
116	0x3d584026	0.05279555
117	0x3de93385	0.1138678
118	0xbe91c1d8	-0.28468204
119	0xbe2dcb64	-0.16972119
120	0x3dae421c	0.08508703
121	0xbd362c9b	-0.044476133
122	0xbda3be21	-0.079952486
123	0x3dffb595	0.12485806
124	0x3d92693d	0.07148979
125	0xbe2b7908	-0.16745389
126	0x3dce65a1	0.10077978
127	0xbd7715a7	-0.060323384
128	0x3c82ba4b	0.015957972
129	0x3da12efe	0.07870291
130	0x3ca29e60	0.01985091
131	0x3dd491de	0.103793845
132	0x3d63ddad	0.05563133
133	0xbc817571	-0.01580307
134	0x3dc4a252	0.09601273
135	0x3d1a3fa2	0.03765834
136	0x3db81854	0.08989015
137	0x3d7d6353	0.0618623
138	0x3b56fd46	0.0032804771
139	0x3b69e744	0.0035690824
140	0x3dbf6f77	0.09347432
141	0x3c8bc192	0.017060075
142	0xbc98768c	-0.018611215
143	0xbdebf00f	-0.11520397
144	0xbd69b1e5	-0.05705442
145	0xbd5fcad3	-0.054636788
146	0xbd3c3382	-0.04594756
147	0xbdbd9a5a	-0.09257956
148	0x3d2d8a0a	0.042367972
149	0xbce74b1f	-0.028234063
150	0x3e15ec50	0.14640927
151	0xbd281a1c	-0.041040525
152	0x3dd6ee7c	0.10494706
153	0xbdcab06f	-0.09896933
154	0xbd0b1252	-0.03395302
155	0x3d3ea8a9	0.046547566
156	0x3d6294f5	0.055317838
157	0x3c8fac44	0.017538197
158	0x3df202e9	0.11816961
159	0x3dc31099	0.0952465
160	0x3eba806f	0.36426112
161	0xbcc3c2c2	-0.023896579
162	0x3e24865d	0.1606688
163	0xbd891e6e	-0.06695257
164	0xbc704fe4	-0.014667485
165	0x3d182d59	0.037152622
166	0xbd6c1e47	-0.057646062
167	0x3e52af59	0.20574702
168	0x3d425784	0.047446743
169	0xbd43a5a3	-0.047765385
170	0xbe32cb43	-0.1746035
171	0xbde9e66b	-0.11420902
172	0x3ddc5ac5	0.107595004
173	0xbc917e5f	-0.017760454
174	0x3c611a05	0.013739114
175	0x3dc40ffe	0.09573363
176	0x3dcad3f2	0.099037066
177	0x3e00adf9	0.12566365
178	0x39a95e62	0.00032304513
179	0x3b877683	0.0041340007
180	0xbd5d168b	-0.053976577
181	0xbc1298c6	-0.008947557
182	0xbd0a9098	-0.0338293
183	0xbd815b69	-0.06316263
184	0xbd829541	-0.06376124
185	0x3c23ad0b	0.009989987
186	0x3da0cb0d	0.07851229
187	0x3dea8a0c	0.114521116
188	0x3c5663e5	0.01308534
189	0xbb8d29d8	-0.0043079667
190	0xbd474dc2	-0.04865814
191	0xbc57ff8c	-0.013183486
192	0x3d8c9bdb	0.068656646
193	0xbc7c95c7	-0.015416569
194	0xbcb7703e	-0.022392388
195	0xbd0e875a	-0.03479705
196	0x3d165c94	0.036709383
197	0x3d890027	0.06689482
198	0xbcfc333b	-0.030786147
199	0x3db44b37	0.088034086
200	0xbc24a7eb	-0.0100498
201	0xbdee2bb6	-0.11629431
202	0x3dc4c866	0.096085355
203	0x3d1c542f	0.03816622
204	0x3d87d413	0.06632247
205	0xbe58c1f1	-0.21167733
206	0x3d5332b2	0.05156202
207	0xbd948614	-0.07252136
208	0xbba4e89d	-0.0050326125
209	0xbb84f3f3	-0.0040574013
210	0xbd1dfc4e	-0.038570695
211	0x39764a04	0.00023487961
212	0xbcd8843c	-0.026430242
213	0x3cb77483	0.022394424
214	0x3d13f39e	0.036121003
215	0x3cbed55f	0.023295103
216	0x3c9dd718	0.019267604
217	0xbd61313d	-0.054978598
218	0x3ddf9e71	0.10918892
219	0xbdb718db	-0.08940288
220	0xbc21ed21	-0.009883196
221	0x3cf8a574	0.030352332
222	0x3d90cace	0.07069932
223	0xbd2432b8	-0.04008743
224	0x3d9d7da4	0.0768998
225	0xbdc3d8bb	-0.095628224
226	0xbd844384	-0.0645819
227	0x3d48ea1d	0.049051393
228	0xbd92d734	-0.07169953
229	0xbdb4ebaa	-0.08834012
230	0x3d3175db	0.043325286
231	0x3d1fe975	0.039041
232	0xbddd8723	-0.10816791
233	0x3db0fbb1	0.08641756
234	0x3d29b0e5	0.041428465
235	0xbda88ac5	-0.08229593
236	0x3d8222f5	0.06354324
237	0xbd839b11	-0.06426061
238	0x3d62c9c4	0.0553682
239	0xbc912ce3	-0.017721599
240	0xbce94558	-0.028475448
241	0xbdbfd562	-0.093668714
242	0xbcab4520	-0.020906985
243	0xbda09bb5	-0.07842199
244	0xbd6af13c	-0.057358965
245	0x3dee07fa	0.11622615
246	0x3e024b13	0.12723951
247	0x3dc3ad56	0.095545456
248	0xbe0addec	-0.13561219
249	0x3d8844d6	0.066537544
250	0x3dafff02	0.08593561
251	0xbd7ff513	-0.06248958
252	0xbe1baaaf	-0.1520183
253	0x3d34ab87	0.044108894
254	0x3d0c3179	0.03422687
255	0x3d9e93f1	0.07743061

encoder.6.bias f4 [32]
0	0xbc239e68	-0.009986497
1	0xbe27d990	-0.16391587
2	0xbdea3e77	-0.114376955
3	0x3995739c	0.0002850563
4	0xbdcb7c78	-0.0993585
5	0xbd87e81c	-0.06636068
6	0xbdd22150	-0.1026026
7	0x3dd1cfcd	0.10244713
8	0x3d963bc0	0.07335615
9	0x3d7617eb	0.060081404
10	0x3dd9d8b6	0.106370375
11	0xbd8873a5	-0.066626824
12	0x3db81c0d	0.08989725
13	0xbcb98a90	-0.02264908
14	0xbc71de03	-0.014762404
15	0x3d51f09c	0.051254854
16	0x3d908996	0.070574924
17	0xbd5ec304	-0.0543852
18	0xbc00cb79	-0.007861012
19	0x3dde8f9f	0.10867237
20	0xbe156415	-0.1458896
21	0xbde6cb65	-0.11269263
22	0x3d859698	0.06522864
23	0x3bffe65b	0.007809443
24	0xbdb39227	-0.08768111
25	0x3d1adf41	0.037810568
26	0xbe284d6b	-0.16435783
27	0xbdc60f30	-0.096708655
28	0xbda82994	-0.082110554
29	0x3dbba2a4	0.091618806
30	0xbdc35369	-0.095373936
31	0x3dc06e60	0.09396052

encoder.9.weight f4 [5, 32]
0	0xbe0580ad	-0.13037367
1	0x3e4a1275	0.19733603
2	0xbdbd0c0f	-0.092308156
3	0xbdd62cde	-0.104577765
4	0x3da0e8ac	0.07856879
5	0xbd1bc2ff	-0.03802776
6	0x3e01e004	0.12683111
7	0x3d65d544	0.05611159
8	0xbc88d294	-0.016701974
9	0x3dc28b71	0.094992526
10	0x3d216fd5	0.039413292
11	0xbce0be8a	-0.027434606
12	0xbb17ad9a	-0.0023144246
13	0xbcfb21de	-0.030655798
14	0xbe4dc279	-0.20093717
15	0x3c6c3319	0.0144164795
16	0xbe393a24	-0.18088585
17	0xbdfff702	-0.12498285
18	0xbe251a49	-0.16123308
19	0xbd98a297	-0.074528866
20	0xbda23008	-0.079193175
21	0x3d688451	0.05676681
22	0x3d9de222	0.07709147
23	0x3e4b8d58	0.19878137
24	0x3d57a592	0.052648135
25	0x3d2287c5	0.03968026
26	0x3e5edc40	0.21763706
27	0x3e0f3d90	0.13988328
28	0xbdae0074	-0.0849618
29	0x3d34b45b	0.044117313
30	0xbcc65587	-0.024210704
31	0x3cf93245	0.030419478
32	0x3dc4e999	0.09614868
33	0x3ce24e6a	0.027625281
34	0xbe33fdd6	-0.175773
35	0xbe31019a	-0.17285767
36	0xbe30801c	-0.1723637
37	0xbe6b0355	-0.2295049
38	0x3e00583e	0.12533662
39	0x3d9b61b4	0.07586995
40	0xbe0196db	-0.12655203
41	0x3d2cce9f	0.042189237
42	0xbe0eec62	-0.1395736
43	0xbd9138b5	-0.07090894
44	0x3e08bd1b	0.13353388
45	0x3d1fd75f	0.039023753
46	0x3e5e7901	0.21725847
47	0xbe1b96a5	-0.15194185
48	0x3c5d90e2	0.013523312
49	0xbe1e05f5	-0.1543196
50	0x3dbe0d41	0.09279872
51	0xbd646ce8	-0.055767924
52	0xbd616274	-0.055025533
53	0x3cf19407	0.02948953
54	0x3ca5076e	0.020145144
55	0xbd36dfbf	-0.044646975
56	0xbd5c69f7	-0.053811993
57	0xbc879c6b	-0.016554078
58	0x3e006041	0.12536718
59	0xbdb7200d	-0.0894166
60	0xbe4530fd	-0.19256969
61	0x3d9ae6b3	0.07563534
62	0xbd4064b0	-0.046971023
63	0x3ce8a45d	0.028398687
64	0xbe011d7b	-0.12608902
65	0x3e019220	0.12653399
66	0x3dd71926	0.105028436
67	0x3d0c498d	0.03424983
68	0x3e01e43a	0.12684718
69	0x3e1c0048	0.15234482
70	0x3d88e1de	0.06683706
71	0xbd1a06f9	-0.037604306
72	0x3d22bdac	0.039731666
73	0xbe33048c	-0.17482203
74	0x3e496aae	0.19669601
75	0x3e3e17f2	0.18563822
76	0xbdd6c70e	-0.104871854
77	0x3d590912	0.052987166
78	0x3dd4e9d4	0.10396162
79	0x3e25212b	0.16125934
80	0x3dd8a03a	0.10577436
81	0xbd307c88	-0.043087512
82	0x3e089eb0	0.13341784
83	0x3c86e618	0.01646714
84	0x3dd3f15a	0.103487685
85	0x3d2ff1b8	0.04295513
86	0x3c3ce1ad	0.011528415
87	0xbe7a833f	-0.24464129
88	0x3de9f400	0.114234924
89	0xbc8d7ca9	-0.017271357
90	0x3d021ba8	0.031764656
91	0x3deb393d	0.11485527
92	0x3db56b1c	0.0885832
93	0x3d4f3115	0.050583918
94	0xbd89f6b5	-0.06736509
95	0xbd4b29e4	-0.049600497
96	0x3d4d679d	0.05014764
97	0x3d39e092	0.045380183
98	0xbe1161f2	-0.1419752
99	0x3e2ecfc1	0.1707144
100	0xbe29f49e	-0.1659722
101	0xbd09c9ff	-0.033639904
102	0xbdcfc238	-0.10144466
103	0xbdbe2454	-0.09284273
104	0xbe42e817	-0.19033848
105	0xbe5e5253	-0.21711092
106	0x3e38bfbe	0.18041894
107	0x3e032f70	0.12811065
108	0xbd2d6eb9	-0.04234192
109	0xbd786c63	-0.06065024
110	0x3cedd56b	0.02903243
111	0xbe16be48	-0.14721024
112	0x3df57744	0.11985639
113	0xbca6cb71	-0.02036068
114	0x3dbe5117	0.092928104
115	0xbdec519e	-0.11539005
116	0xbe0365d0	-0.12831807
117	0xbcd65f2b	-0.026168426
118	0x3d925399	0.07144851
119	0x3d2ee5d8	0.042699665
120	0xbc95f132	-0.018303487
121	0x3d9db19d	0.07699893
122	0x3d98dd40	0.07464075
123	0x3df07f10	0.11742985
124	0xbd8d2f9d	-0.06893847
125	0xbde7954d	-0.11307774
126	0x3defebb4	0.11714879
127	0x3d7ca654	0.06168206
128	0x3e1c3904	0.15256125
129	0xbe32cc14	-0.17460662
130	0xbda75a82	-0.0817156
131	0xbda4103f	-0.08010911
132	0x3da07289	0.07834346
133	0xbdece655	-0.1156737
134	0xbdf7ebc4	-0.121055156
135	0xbd0ef1ed	-0.034898687
136	0x3d2ab1ca	0.04167346
137	0xbe35702f	-0.17718576
138	0x3c8dd09c	0.017311387
139	0x3d7c0160	0.06152475
140	0xbe1270ee	-0.14300892
141	0x3e187a1e	0.14890334
142	0x3e01b7cb	0.12667768
143	0xbbe5c8dc	-0.0070124697
144	0xbcba7986	-0.022763025
145	0xbdb2600f	-0.08709728
146	0x3d37c8e3	0.044869315
147	0xbdf4d755	-0.11955134
148	0xbdf5cae1	-0.12001587
149	0xbdc5f678	-0.09666151
150	0xbe1a8d5a	-0.15092984
151	0xbd3e923a	-0.04652617
152	0xbe1a5554	-0.15071613
153	0x3dfbb243	0.1228986
154	0x3e2edfc7	0.17077552
155	0x3e1baf27	0.15203534
156	0xbdde5be5	-0.10857371
157	0xbe2df237	-0.16986929
158	0x3e041b08	0.12900937
159	0xbe1b6f36	-0.15179142

encoder.9.bias f4 [5]
0	0xbde94549	-0.11390168
1	0xbe4679ad	-0.19382353
2	0xbe4b19f5	-0.1983412
3	0xbe0fafbf	-0.14031886
4	0x3d1afed4	0.03784068

decoder.0.weight f4 [32, 5]
0	0x3f008d20	0.5021534
1	0xbe8e50b1	-0.27795938
2	0xbe1cbad3	-0.15305643
3	0x3ddb20f3	0.10699644
4	0x3ec54eca	0.38536674
5	0x3e3c801e	0.18408248
6	0x3d19511d	0.03743087
7	0x3ee59e59	0.44847372
8	0x3ebb6eb0	0.36607885
9	0x3e825b65	0.25460353
10	0xbd77bf01	-0.06048489
11	0x3e9d116a	0.30677348
12	0xbed0c280	-0.40773392
13	0x3edbf026	0.42956656
14	0x3edd5a3c	0.43232906
15	0x3df539db	0.11973926
16	0xbe868057	-0.2626979
17	0xbed0c12b	-0.40772375
18	0x3db101b0	0.086429
19	0xbedb6065	-0.4284698
20	0xbdd7a003	-0.10528567
21	0xbebd9340	-0.37026405
22	0x3ed418e5	0.41425243
23	0x3de69c13	0.112602375
24	0x3edc31ff	0.43006894
25	0xbdd465f6	-0.1037101
26	0x3eb478c4	0.35248387
27	0xbecfc74c	-0.4058174
28	0x3e8f290a	0.27960998
29	0xbed8add5	-0.42320123
30	0x3e975a86	0.2956125
31	0x3d802ebd	0.062589146
32	0xbdb51c71	-0.088433154
33	0xbe479ee0	-0.194942
34	0xbe83c204	-0.2573396
35	0xbe292424	-0.16517693
36	0xbea68103	-0.32520303
37	0xbb4b2847	-0.003099935
38	0xbec24847	-0.37945768
39	0x3ec78dda	0.38975412
40	0x3dcc24ac	0.09967932
41	0xbeee8b56	-0.4659068
42	0xbe5b58a5	-0.21420534
43	0xbe189ea0	-0.1490426
44	0x3cfcdb3b	0.030866256
45	0x3ca89c42	0.020582322
46	0xbd252fb3	-0.040328693
47	0x3e447fb6	0.19189343
48	0xbe0a80a2	-0.13525632
49	0xbe16a7c9	-0.14712442
50	0xbedfc633	-0.43705902
51	0xbe2088ce	-0.15677187
52	0xbec3dc12	-0.38253838
53	0x3cb87c0a	0.022520084
54	0xbdba56cf	-0.09098589
55	0xbec9fde0	-0.39451504
56	0xbee56a33	-0.44807586
57	0xbd324713	-0.043524813
58	0x3ef33c80	0.47507095
59	0x3ea24820	0.31695652
60	0x3d6a2173	0.057160806
61	0xbd35fb0f	-0.04442888
62	0xbf059ccf	-0.52192396
63	0xbe993315	-0.29921785
64	0xbe11ed90	-0.14250779
65	0x3e9be39b	0.30447087
66	0xbe52500f	-0.20538352
67	0xbebf16da	-0.37322122
68	0xbed67738	-0.41887832
69	0x3e0bc553	0.13649492
70	0x3e368f47	0.17828093
71	0x3d40ae65	0.047041316
72	0x3e21224d	0.15735741
73	0xbec1e554	-0.37870276
74	0xbe7ea857	-0.24868904
75	0xbea0d842	-0.31414992
76	0xbecfda42	-0.40596205
77	0x3edf5753	0.4362131
78	0x3d37478e	0.044745974
79	0x3ead2616	0.3381812
80	0xbeabbd52	-0.33542877
81	0xbe1bb08f	-0.1520407
82	0xbea08249	-0.313494
83	0xbe98a8d8	-0.29816318
84	0x3dd18a0e	0.1023141
85	0x3c1394f5	0.009007682
86	0x3e982910	0.29718828
87	0x3edcd121	0.43128303
88	0xbee30cd6	-0.4434573
89	0xbeaf844f	-0.3428063
90	0x3ee562dd	0.4480199
91	0xbe9e8b9f	-0.30965897
92	0xbe8556dd	-0.26042834
93	0xbe4bf386	-0.19917116
94	0x3ed8f247	0.42372343
95	0xbe4a6800	-0.19766235
96	0x3e604206	0.21900186
97	0x3e25113a	0.16119853
98	0xbeb76d42	-0.35825545
99	0x3e740e22	0.23833516
100	0xbe6a5183	-0.22882657
101	0xbee42d02	-0.44565588
102	0x3d993135	0.074800886
103	0xbe360ea7	-0.17779027
104	0x3e8abcb1	0.27097085
105	0x3da69631	0.081341155
106	0x3e2e5b0c	0.17026919
107	0x3ed2e1f3	0.4118801
108	0x3d9b0205	0.075687446
109	0x3e65d1d0	0.22443318
110	0x3e84a4a1	0.25906852
111	0x3ed4da3c	0.4157275
112	0x3d9504a0	0.07276273
113	0x3bc0055a	0.005860013
114	0x3cca9106	0.024727356
115	0x3ed7e6dc	0.4216832
116	0xbe2a9479	-0.166582
117	0xbd8ddeec	-0.069272846
118	0xbe8030dd	-0.2503728
119	0xbeabf8e6	-0.33588332
120	0xbe83e106	-0.25757617
121	0xbeb4401e	-0.35205168
122	0xbd9cdc39	-0.07659192
123	0xbe02ad45	-0.1276141
124	0x3de5bfb7	0.11218207
125	0xbd880a5d	-0.06642602
126	0x3e0b3624	0.13594872
127	0x3eb3bede	0.35106558
128	0x3ed7c170	0.4213977
129	0x3e58020b	0.2109453
130	0xbe892b99	-0.26791075
131	0xbdf7e081	-0.121033676
132	0x3e73b70b	0.23800294
133	0x3e60cf23	0.21954016
134	0xbea464ef	-0.32108256
135	0xbeabb546	-0.33536738
136	0x3ce3f60e	0.027827289
137	0x3e9b57a4	0.30340302
138	0xbecf125e	-0.404437
139	0x3edd582b	0.4323133
140	0xbeac6668	-0.3367188
141	0x3eb4635b	0.35232052
142	0x3e50a9f7	0.20377336
143	0x3ee773b3	0.4520546
144	0x3e6cfb4c	0.23142737
145	0xbd6125d1	-0.054967705
146	0xbedfdaf8	-0.43721747
147	0xbedc9f34	-0.43090212
148	0x3eb00210	0.34376574
149	0x3e3a4ef9	0.18194188
150	0xbbb073cc	-0.005384898
151	0xbee8f0a6	-0.454961
152	0x3dfad4a2	0.12247588
153	0xbef11388	-0.47085214
154	0xbed96279	-0.4245794
155	0x3cffb308	0.031213298
156	0xbeaa5824	-0.3327037
157	0xbe117f79	-0.14208783
158	0xbeb908a6	-0.3613941
159	0xbe84280b	-0.258118

decoder.0.bias f4 [32]
0	0xbda3c3b9	-0.079963155
1	0x3e96528b	0.2935985
2	0x3ec523df	0.3850393
3	0xbde3ee3c	-0.11129424
4	0x3ecfa1ea	0.40553218
5	0x3ddd2ffd	0.10800169
6	0x3d883120	0.06649995
7	0xbe364ffb	-0.17803948
8	0x3d715845	0.05892207
9	0x3ce75937	0.028240783
10	0xbd7b690b	-0.061379474
11	0x3d60f92e	0.054925136
12	0x3eabaec3	0.3353177
13	0x3e130a2c	0.14359349
14	0x3e5dc96b	0.21658866
15	0xbe018f69	-0.12652363
16	0x3f02b483	0.5105669
17	0x3ec199e8	0.37812734
18	0x3c76735a	0.01504215
19	0xbe45e678	-0.19326198
20	0xbe03e0c3	-0.12878709
21	0xbef0ba6d	-0.47017232
22	0xbc15a1fa	-0.0091328565
23	0x3eaa6d4c	0.33286512
24	0xbe3090ed	-0.17242785
25	0x3d2b0e17	0.041761484
26	0x3e38aae1	0.18033935
27	0x3e9cf21e	0.3065347
28	0xbd722695	-0.059118826
29	0xbd528095	-0.051392157
30	0xbcdc7e28	-0.026915625
31	0xbe7418ff	-0.2383766

decoder.2.weight f4 [64, 32]
0	0x3d21f02f	0.039535698
1	0xbe6bbe90	-0.23021913
2	0xbd685d91	-0.056729857
3	0xbda6bea5	-0.08141831
4	0x3c8e727e	0.017388579
5	0xbde119c8	-0.109912455
6	0x3dd332f6	0.103124544
7	0x3d89a819	0.06721515
8	0x3e45ae78	0.19304836
9	0x3cd3355e	0.025782283
10	0xbcf365a0	-0.029711545
11	0x3d06bb2a	0.032893337
12	0xbd85d330	-0.065344214
13	0xbdcc44a4	-0.0997403
14	0x3d99d2ca	0.07510908
15	0xbe43b56b	-0.19112174
16	0x3d650213	0.05591018
17	0x3d729dbd	0.059232462
18	0x3de62bbe	0.11238812
19	0x3d2c11cc	0.04200916
20	0x3dedb9ec	0.116077274
21	0x3dc54779	0.09632773
22	0x3db67940	0.08909845
23	0x3e2b6172	0.16736391
24	0x3d6ed996	0.058312975
25	0xbded5210	-0.11587918
26	0xbd88e296	-0.06683843
27	0xbdf0d557	-0.11759441
28	0x3dd2ec11	0.10298932
29	0x3b428a3d	0.0029684447
30	0x3e26371a	0.16231957
31	0x3e2dc0e3	0.16968112
32	0x3d865273	0.06558695
33	0xbdd95796	-0.10612409
34	0xbdf00408	-0.11719519
35	0xbdf440a2	-0.1192639
36	0x3e25df0c	0.16198367
37	0xbe7b4324	-0.24537331
38	0xbe29102e	-0.16510078
39	0xbd3f4839	-0.046699736
40	0xbda05e5d	-0.07830498
41	0xbc88dee4	-0.016707845
42	0x3e62e0d5	0.22156079
43	0x3e23d9ba	0.16001025
44	0xbe5e0e32	-0.21685103
45	0xbc12d347	-0.008961505
46	0xbdf692f9	-0.120397516
47	0x3e3d2aa7	0.18473302
48	0x3e4bca47	0.19901381
49	0xbd3679d1	-0.044549767
50	0x3d76c9fa	0.060251214
51	0x3e41a52a	0.18910661
52	0x3df813e7	0.12113171
53	0x3de127dc	0.10993931
54	0x3dd5a02c	0.10430941
55	0xbe297f06	-0.16552362
56	0x3e14d454	0.14534122
57	0x3df6a6ba	0.12043519
58	0x3e0ad2d2	0.13556984
59	0x3d9a3903	0.07530405
60	0xbd564c43	-0.052318823
61	0xbd627e12	-0.05529601
62	0x3e26d5ac	0.16292447
63	0x3e9aabcd	0.302092
64	0x3e32269d	0.17397542
65	0x3d8c716f	0.06857573
66	0x3df47d16	0.11937921
67	0xbd546b6f	-0.05186027
68	0x3e4acb13	0.19804029
69	0xbe75c32c	-0.24000233
70	0xbea4a5e9	-0.3215783
71	0xbde2c56a	-0.1107281
72	0x3e16fd72	0.14745119
73	0xbd53ad1c	-0.05167876
74	0x3ead6c41	0.33871654
75	0x3dfbc244	0.122929126
76	0xbe7fb19a	-0.24970093
77	0xbd49160d	-0.049093295
78	0xbc54e748	-0.012994595
79	0xbc4c42eb	-0.012467126
80	0xbc1681bd	-0.009186205
81	0x3c2b66d9	0.0104615325
82	0x3dba6a44	0.091023
83	0x3e741492	0.23835972
84	0xbc6699fb	-0.014074798
85	0xbdf508c9	-0.11964566
86	0xbe88150b	-0.26578555
87	0xbd3ec8f2	-0.046578355
88	0xbd901a1e	-0.070362315
89	0x3afb55a8	0.0019175308
90	0x3d86c5cb	0.06580695
91	0x3e4187d5	0.18899472
92	0xbdaf60bb	-0.08563372
93	0x3daa52a0	0.08316541
94	0x3bbe46cd	0.00580678
95	0xbda17f27	-0.078855805
96	0x3e0ed2fe	0.13947675
97	0x3df55c97	0.11980551
98	0x3cb19601	0.021677973
99	0xbe043a73	-0.12912922
100	0xbd7e3c63	-0.062069308
101	0x3e412d61	0.18864967
102	0xbc91c0f8	-0.01779221
103	0xbdbbad97	-0.09163969
104	0xbdc7eff1	-0.09762562
105	0x3c9fd574	0.019510962
106	0x3eb5834f	0.35451743
107	0xbc617021	-0.013759644
108	0xbd3cca6b	-0.04609148
109	0xbe0dc21d	-0.1384358
110	0xbe6f9cb4	-0.23399621
111	0x3d4e535b	0.050372463
112	0xbdabc88a	-0.08387859
113	0x3c0f44ff	0.008744477
114	0xbc9f0b38	-0.01941453
115	0x3d7e94e0	0.062153697
116	0x3e099e97	0.13439403
117	0x3d149599	0.03627548
118	0xbecd1226	-0.4005291
119	0xbd998e6f	-0.0749787
120	0x3d2544de	0.04034888
121	0x3d98f8ea	0.074693516
122	0xbe1197ab	-0.14218013
123	0xbe2ef97e	-0.17087361
124	0x3e3aa545	0.18227108
125	0xbe3d643e	-0.1849527
126	0x3df596ec	0.11991677
127	0x3de6c736	0.11268465
128	0xbdbd49f8	-0.09242624
129	0xbc848794	-0.01617793
130	0x3d034071	0.032043878
131	0x3e3f4c23	0.18681388
132	0x3de7792b	0.11302408
133	0x3de8957d	0.113566376
134	0x3e049dfd	0.12950893
135	0xbdf59b09	-0.11992461
136	0x3d6deb5b	0.05808578
137	0xbe059894	-0.13046485
138	0xbd28cb29	-0.041209374
139	0xbe15fa0e	-0.1464617
140	0xbdf1cea8	-0.11806995
141	0x3d2f2bb4	0.042766288
142	0xbe127e12	-0.14305905
143	0xbda5f708	-0.08103758
144	0xbd819f37	-0.06329196
145	0x3e27a6f2	0.16372278
146	0x3e961eb0	0.29320288
147	0x3d478ebc	0.048720106
148	0x3b24ec8c	0.0025165407
149	0xbdfdfc1d	-0.124016024
150	0xbd0afaa5	-0.03393044
151	0x3e231a27	0.15927945
152	0x3d5635df	0.05229747
153	0x3e5343e3	0.20631365
154	0xbd66d481	-0.056355003
155	0xbdcf5a50	-0.101246476
156	0x3e1efc50	0.15525937
157	0xbd7b8c9c	-0.061413392
158	0xbd8dabe4	-0.06917551
159	0x3e1491f5	0.14508803
160	0xbd12ab77	-0.035808053
161	0xbdb1deed	-0.08685098
162	0xbc3605e2	-0.011109801
163	0xbd373d74	-0.04473634
164	0x3e315359	0.17316951
165	0xbda052e1	-0.07828308
166	0xbba30eb6	-0.004976119
167	0x3d9af495	0.075661816
168	0xbc15a619	-0.009133839
169	0xbd25c24e	-0.040468507
170	0x3d963519	0.07334346
171	0xbd0a88df	-0.033821937
172	0xbb986e0e	-0.0046517914
173	0x3b23ce09	0.0024994633
174	0x3e14c73f	0.14529131
175	0x3dc201d9	0.09473009
176	0x3db4b6cc	0.08823928
177	0xbc90edb9	-0.01769148
178	0xbd521cfd	-0.051297177
179	0xbe55ef05	-0.2089196
180	0x3ca8e9f9	0.02061938
181	0xbe2d799c	-0.16940922
182	0xbe45f168	-0.1933037
183	0xbd052dfb	-0.032514554
184	0xbdb91ee6	-0.090390965
185	0xbc9c0e6e	-0.01904985
186	0x3bb9afe2	0.005666719
187	0x3d9f1ce3	0.077691816
188	0xbb738209	-0.0037156364
189	0xbcf87c9b	-0.030332854
190	0xbd01415b	-0.03155647
191	0xbe0e7e0c	-0.1391527
192	0xbdb2e053	-0.08734193
193	0x3dd30d15	0.103052296
194	0xbe0e83b4	-0.13917428
195	0xbdc07184	-0.093966514
196	0xbd3d41f6	-0.046205483
197	0xbe157894	-0.14596778
198	0x3c918585	0.017763862
199	0x3c3655fa	0.011128897
200	0x3e114a3b	0.14188473
201	0xbd56cf97	-0.052444067
202	0x3d18b110	0.037278235
203	0x3deabc4f	0.11461698
204	0x3d87c59c	0.06629488
205	0xbe2db834	-0.16964799
206	0x3cbe1a9e	0.023206051
207	0xbd773dc3	-0.060361635
208	0xbc34fb38	-0.011046223
209	0x3e0b9962	0.1363273
210	0xbd9c5585	-0.07633499
211	0xbdd6db82	-0.104910865
212	0x3ce43dea	0.027861554
213	0xbdc0a331	-0.09406126
214	0xbe01d4e4	-0.12678868
215	0xbe194f65	-0.14971693
216	0xbe319b9a	-0.17344514
217	0xbda6d261	-0.08145595
218	0xbe002768	-0.12515032
219	0xbd9a9a66	-0.075489804
220	0xbd9b8b9b	-0.07594987
221	0xbdb49908	-0.08818251
222	0xbe35153d	-0.17683883
223	0x3e2b8625	0.16750391
224	0x3e0a6c32	0.13517836
225	0x3d39c1f1	0.045350973
226	0x3cb984e9	0.022646384
227	0xbe3b98ad	-0.1831996
228	0xbda25270	-0.0792588
229	0x3d823866	0.063584134
230	0x3d3456b9	0.044028018
231	0x3d936339	0.071966596
232	0xbdaacc69	-0.083397694
233	0x3bc7658f	0.006085105
234	0x3d111b09	0.035426173
235	0xbc2e68aa	-0.010645071
236	0xbe16d6f6	-0.14730439
237	0xbdeed02f	-0.116608016
238	0x3dd99301	0.10623742
239	0xbc26eb7a	-0.010187978
240	0xbdb040b4	-0.08606091
241	0x3d99c49e	0.07508205
242	0xbe482ce5	-0.19548376
243	0xbc698ddd	-0.014255014
244	0xbdf94558	-0.121714294
245	0xbd5e3b37	-0.05425569
246	0x3def7b98	0.116934955
247	0xbc07f0c8	-0.008297153
248	0x3ce95da1	0.028487029
249	0xbe13244f	-0.1436932
250	0x3c1b1c4f	0.0094671985
251	0xbd33441f	-0.043766137
252	0x3c80cada	0.015721727
253	0xbe85d078	-0.26135612
254	0x3e255923	0.16147284
255	0xbdfe3893	-0.124131344

decoder.2.bias f4 [64]
0	0x3c4f2243	0.012642446
1	0xbcfe6db3	-0.031058168
2	0xbe00dded	-0.12584658
3	0xbe816442	-0.25271803
4	0x3e3bc3c1	0.18336393
5	0x3e944553	0.2895914
6	0x3d385418	0.045002073
7	0x3e1c0454	0.15236026
8	0xbe060efc	-0.13091654
9	0x3e3b3434	0.18281633
10	0x3e2d4be7	0.16923486
11	0xbdaa6f93	-0.08322062
12	0xbab7e9a6	-0.0014031425
13	0x3e104781	0.14089777
14	0xbd31dd78	-0.0434241
15	0x3d710fd1	0.058852974
16	0x3c958cff	0.018255709
17	0xbe2109d7	-0.1572641
18	0x3e213823	0.1574407
19	0xbdac9ab6	-0.08427946
20	0x3d02af99	0.031905744
21	0x3e3e35f8	0.18575275
22	0x3eabb16f	0.3353381
23	0x3d21423b	0.039369803
24	0xbd35cc64	-0.044384375
25	0xbd8f5aad	-0.06999717
26	0x3df020e0	0.117250204
27	0x3d5652d8	0.0523251
28	0x3e15edf3	0.14641552
29	0x3da1c1f0	0.07898319
30	0x3ddb86ba	0.107190564
31	0xbd8476ca	-0.0646797
32	0x3e2fce60	0.1716857
33	0x3e1d5c4a	0.15367237
34	0xbd5b0753	-0.05347378
35	0x3b74aa5f	0.0037332994
36	0xbd606ffb	-0.054794293
37	0xbda1d7a4	-0.07902458
38	0x3e57f0eb	0.21087997
39	0x3e5ab6db	0.21358816
40	0x3dd786f7	0.105237894
41	0xbc874bbb	-0.016515603
42	0xbc2389cf	-0.009981587
43	0x3e05b840	0.13058567
44	0xbe279088	-0.16363728
45	0x3dd58d97	0.10427397
46	0xbdfeedc9	-0.12447698
47	0x3e15dfd5	0.14636166
48	0xbe27f4a5	-0.16401918
49	0x3e90af1a	0.28258592
50	0xbdbcda21	-0.09221292
51	0xbe0e50da	-0.1389803
52	0x3dcd64b4	0.10028973
53	0xbd952f4b	-0.07284411
54	0xbe311096	-0.17291483
55	0xbcabcf70	-0.020972937
56	0x3e197617	0.14986454
57	0x3e5aeee1	0.21380188
58	0xbd556b05	-0.052104015
59	0x3de8793d	0.11351249
60	0xbcf12580	-0.029436827
61	0x3e4da9d5	0.20084317
62	0x3d6f170c	0.05837159
63	0xbe4a17b2	-0.19735602
