img/Datos/Models/model-lat2.pth (torch, 191714 bytes, 16 tensors)

encoder.0.weight f4 [128, 99]
0	0xbd975b13	-0.07390418
1	0xbd08ec49	-0.033428464
2	0xbdbcb27c	-0.09213731
3	0x3da89661	0.082318075
4	0x3d9c2a61	0.07625271
5	0xbc6bed28	-0.014399804
6	0xbdad3ee2	-0.084592596
7	0x3d95e1e1	0.073184736
8	0xbcbb38e8	-0.022854283
9	0xbd71934a	-0.058978356
10	0x3d92dbd0	0.07170832
11	0xbd4cb27f	-0.049974915
12	0xbab1f23d	-0.0013576221
13	0xbc33834b	-0.010956596
14	0xbb736f18	-0.0037145074
15	0x3d2a82c9	0.041628633
16	0xbd9f4c5c	-0.07778236
17	0xbdb27168	-0.08713037
18	0xbd937d9f	-0.07201695
19	0x3d7a8342	0.061160333
20	0x3db9364f	0.09043562
21	0x3db936f8	0.090436876
22	0x3da7dc2a	0.0819629
23	0xbc2007fb	-0.009767528
24	0x3d8a9946	0.06767516
25	0xbd99e727	-0.07514792
26	0xbda9d242	-0.082920566
27	0xbd5a7ba3	-0.053340565
28	0xbdb0041e	-0.08594535
29	0xbd77f0ee	-0.060532503
30	0x3d7e9c03	0.062160503
31	0xbd6265ae	-0.05527275
32	0x3d80ca7c	0.06288621
33	0xbd94f91d	-0.07274077
34	0x3d6eb46f	0.058277544
35	0x3a441c27	0.00074810017
36	0x3ce32296	0.027726453
37	0x3d6fe586	0.0585685
38	0xbbd47c26	-0.006484526
39	0xbd85923f	-0.06522035
40	0xbcd51085	-0.026008854
41	0xbd872ab7	-0.06599944
42	0xbd44e619	-0.048071
43	0xbc4112e1	-0.011784286
44	0x3d28112e	0.04103201
45	0xbae55dac	-0.001749923
46	0xbdb12728	-0.086500466
47	0x3d171d46	0.03689315
48	0xbd1358ce	-0.035973363
49	0x3cd45a9c	0.025922112
50	0xbdc6c367	-0.09705239
51	0xbbe9b6ff	-0.0071324105
52	0x3d1b977f	0.037986275
53	0x3c835a19	0.016034173
54	0xbd8cf962	-0.068835035
55	0x3cafb54e	0.021448757
56	0xbbc6816d	-0.006057909
57	0xbdf0af27	-0.11752158
58	0xbd605803	-0.054771435
59	0x3cca607e	0.024704214
60	0x3c0b11ba	0.008488113
61	0x3d84402a	0.06457551
62	0x3d30fcc0	0.04320979
63	0x3d26bdec	0.040708467
64	0xbcbe2055	-0.023208776
65	0x3d7ad4c7	0.061238077
66	0xbdb02696	-0.0860111
67	0xbc206388	-0.009789355
68	0xbd23d102	-0.039994247
69	0x3cec167c	0.028819315
70	0xbd820381	-0.063483246
71	0xbd98d2f6	-0.074621126
72	0x3d43f75c	0.047843322
73	0x3b6dc0c0	0.0036278218
74	0x3d5de973	0.054177713
75	0x3d792787	0.06082871
76	0xbd1d0800	-0.038337708
77	0x3d243ee9	0.04009906
78	0xbcc46103	-0.02397204
79	0xbd730677	-0.059332337
80	0xbd7ed032	-0.06221027
81	0xbde22a2e	-0.110432014
82	0xbce3bd8d	-0.027800346
83	0xbdb47bbb	-0.08812662
84	0x3d328e25	0.04359259
85	0xbd49bb88	-0.04925111
86	0x3ac616a1	0.0015112945
87	0x3da009a0	0.07814336
88	0xbd49b846	-0.049248002
89	0xbd6b6317	-0.057467546
90	0x3d9b5052	0.07583679
91	0x3c34a82a	0.011026422
92	0x3d95fd17	0.07323664
93	0x3b10c2dd	0.0022088804
94	0x3c3acad4	0.011400897
95	0xbddbed2b	-0.107385956
96	0x3c81de29	0.015853005
97	0xbd91d0d9	-0.07119913
98	0xbcc64c5c	-0.024206333
99	0xbc88ad6d	-0.016684258
100	0x3cbef78d	0.0233114
101	0xbd2f4c5a	-0.042797424
102	0xbc13433b	-0.008988197
103	0x3d2882ba	0.041140296
104	0x3b4fd381	0.003171176
105	0xbdebd9f0	-0.11516178
106	0x3da14222	0.07873942
107	0xbd38f474	-0.045155004
108	0xbd9d0840	-0.07667589
109	0x3d6883bb	0.056766253
110	0xbd9503c1	-0.072761066
111	0x3d1e8280	0.038698673
112	0x3d3d1701	0.046164516
113	0xbda536b8	-0.080670774
114	0xbd2dc978	-0.042428464
115	0x3cccfba6	0.02502234
116	0xbdefbea6	-0.11706285
117	0xbb83c50d	-0.004021293
118	0x3d0597dd	0.03261553
119	0x3c8e8346	0.01739658
120	0x3be42853	0.006962815
121	0x3ca3b4c9	0.019983666
122	0xbcfb4273	-0.030671334
123	0xbd8c9152	-0.06863655
124	0xbd91ea86	-0.0712481
125	0xbdce80fe	-0.10083197
126	0x3da46d3a	0.08028646
127	0x3d41a2f0	0.04727453
128	0xbdcbccd8	-0.0995118
129	0xbd8645f2	-0.0655631
130	0x3d00a27f	0.03140497
131	0xbce35b46	-0.027753484
132	0x3c34ac00	0.011027336
133	0x3cf06318	0.029344127
134	0xbdb8e818	-0.09028643
135	0xbd4b7e10	-0.04968077
136	0xbd160016	-0.036621176
137	0xbd4f7ebb	-0.05065797
138	0x3d6b0e33	0.05738659
139	0xbd9077b5	-0.07054082
140	0xbd2466af	-0.04013699
141	0x3c0d665c	0.008630361
142	0x3d426003	0.047454845
143	0x3d0c549d	0.03426038
144	0xbdb5fabb	-0.08885714
145	0x3da8c6ec	0.08241066
146	0x3d005026	0.031326436
147	0x3ba79b58	0.005114954
148	0xbc6f5e52	-0.01460989
149	0xbdc1227c	-0.094304055
150	0x3dac72f0	0.0842036
151	0xbda34feb	-0.079742275
152	0x3cc9c15b	0.024628332
153	0xbd038516	-0.032109343
154	0xbdc0898b	-0.09401234
155	0xbd6eacf5	-0.058270413
156	0x3cffb6e3	0.031215137
157	0x3db883ef	0.09009539
158	0x3bf88566	0.0075842617
159	0xbc82a459	-0.015947508
160	0x3d864f45	0.06558088
161	0x3db70c41	0.08937884
162	0xbd96c301	-0.07361413
163	0xbd2521c9	-0.040315423
164	0x3cb3f69b	0.021968177
165	0x3c83c075	0.016082982
166	0xbcf03dea	-0.029326398
167	0x3d56b949	0.052422795
168	0xbd175dae	-0.036954574
169	0xbd2c8e67	-0.042127993
170	0x3d789365	0.06068744
171	0x3beca2c1	0.00722155
172	0xbdbc4f1d	-0.09194777
173	0x3bd3bf4d	0.006462014
174	0x3d50dec4	0.050993696
175	0xbd10bd78	-0.03533694
176	0xbbca5fdb	-0.0061759776
177	0xbdc89409	-0.097938605
178	0x3cc0f4ae	0.023554172
179	0x3c75de63	0.015006634
180	0xbc840b63	-0.01611871
181	0xbda474f1	-0.08030117
182	0x3d78aa79	0.06070945
183	0xbd90c482	-0.07068731
184	0xbd57f7d8	-0.052726597
185	0xbd8d6b19	-0.06905193
186	0xbbb78623	-0.005600707
187	0xbd0381d9	-0.032106254
188	0xbd2ef8cf	-0.04271775
189	0x3cece9a5	0.028920004
190	0x3dca11d6	0.09866683
191	0x3d7f3545	0.06230666
192	0xbda82109	-0.08209426
193	0xbdb829ee	-0.089923725
194	0x3bc14268	0.005897809
195	0xbd8c7fcc	-0.06860313
196	0x3d844db5	0.06460134
197	0xbd521de7	-0.05129805
198	0x3dcabea4	0.09899643
199	0x3d902598	0.070384204
200	0x3d8a598e	0.067553625
201	0x3dfea857	0.12434452
202	0x3de13d0d	0.10997973
203	0x3d9b2a9a	0.07576485
204	0x3ddf8591	0.10914148
205	0xbd00daa9	-0.03145853
206	0xbb3e6809	-0.002905371
207	0x3ad0053d	0.0015870702
208	0xbd41341f	-0.047168847
209	0xbd84e96b	-0.064898334
210	0x3df147cf	0.117812745
211	0x3d7de1fa	0.061983086
212	0x3c53770f	0.012906804
213	0xbbb29217	-0.005449544
214	0x3c9ebb0b	0.019376298
215	0x3d33a123	0.043854844
216	0xbcc82d21	-0.024435582
217	0x3cfc7a53	0.030820047
218	0xbd8954d7	-0.06705635
219	0x3dd187c2	0.10230972
220	0x3cf26756	0.02959029
221	0xbda3f17a	-0.080050424
222	0x3d55d16e	0.05220168
223	0x3db6e0fd	0.08929632
224	0xbd3bb414	-0.045826033
225	0x3cf24933	0.02957592
226	0x3d92a158	0.0715968
227	0xbceae39a	-0.028672982
228	0x3cb7c480	0.022432566
229	0x3d9fec72	0.0780877
230	0x3d47bc5e	0.048763625
231	0xbc41b475	-0.011822809
232	0x3d5b0302	0.053469665
233	0x3d343d0a	0.044003524
234	0x3d828cc8	0.06374508
235	0x3db0b1de	0.086276755
236	0xbd8d42c1	-0.06897498
237	0x3bc80fb7	0.006105389
238	0xbc251eae	-0.010078115
239	0xbcb36e82	-0.02190328
240	0x3da0a79d	0.0784447
241	0x3d920cb5	0.0713133
242	0x3c871387	0.016488804
243	0xbd9d1b09	-0.07671172
244	0xb9c28a1a	-0.00037105457
245	0x3da1728a	0.07883175
246	0x3da8ed26	0.082483575
247	0x3dbc9dae	0.092097625
248	0xbc3dc63c	-0.011582907
249	0xbdc42b67	-0.09578591
250	0x3d5db6de	0.054129474
251	0x3d57d58a	0.05269388
252	0xbd2312ee	-0.039812975
253	0x3d130bc9	0.03589991
254	0x3d428207	0.047487285
255	0x3d95d9f5	0.07316963

encoder.0.bias f4 [128]
0	0xbe83a703	-0.25713357
1	0xbe54848d	-0.20753689
2	0xbdb5f996	-0.08885495
3	0xbedd5b28	-0.4323361
4	0xbe43e47e	-0.19130132
5	0xbe907cef	-0.28220317
6	0xbe36ea95	-0.17862923
7	0xbe5b42a1	-0.21412136
8	0xbe71e29d	-0.23621602
9	0xbe0e872b	-0.1391875
10	0xbed860dc	-0.42261398
11	0xbe92816e	-0.28614372
12	0xbeaeb94e	-0.3412575
13	0xbea247cf	-0.3169541
14	0xbe3a208a	-0.18176475
15	0xbe7a81ab	-0.24463527
16	0xbe7661c3	-0.2406073
17	0xbd785353	-0.06062634
18	0xbe65261b	-0.22377817
19	0xbe036d65	-0.128347
20	0xbe7e9339	-0.24860848
21	0xbe0fdab6	-0.14048275
22	0xbe3b0600	-0.18264008
23	0xbeb2aea6	-0.3489887
24	0xbe4b8382	-0.19874385
25	0xbec1c644	-0.37846577
26	0xbeb12a79	-0.34602717
27	0xbeb92c74	-0.36166728
28	0xbdeddf6a	-0.116148785
29	0xbec09d43	-0.3761998
30	0xbd85cf10	-0.06533635
31	0xbe9dd4f9	-0.30826548
32	0xbe5d4693	-0.21608953
33	0xbe277cff	-0.16356276
34	0xbe8dfb1a	-0.27730638
35	0x3e6603ba	0.22462359
36	0xbebf8d9f	-0.37412736
37	0xbebeeb46	-0.37288874
38	0xbe0ba4a5	-0.13637026
39	0xbd362795	-0.044471342
40	0xbda6d327	-0.08145743
41	0xbec9149f	-0.39273545
42	0xbeab2b4f	-0.3343148
43	0xbea24b0c	-0.3169788
44	0xbe31c321	-0.17359592
45	0x3daa7c29	0.08324463
46	0xbe6e4b6c	-0.23270959
47	0xbdba178f	-0.09086525
48	0xbda1557d	-0.07877634
49	0xbe91010f	-0.2832112
50	0xbe24a235	-0.16077502
51	0xbe8492e0	-0.25893307
52	0xbe9489aa	-0.2901128
53	0xbe9c35bb	-0.30509743
54	0xbf1fb43f	-0.6238441
55	0xbeb3e994	-0.35139143
56	0xbe4e0e0a	-0.20122543
57	0xbe480624	-0.19533592
58	0xbeacbd70	-0.3373828
59	0xbe956d2c	-0.29184854
60	0xbea66f44	-0.32506764
61	0xbe420b0f	-0.18949531
62	0x3e4d025c	0.20020431
63	0xbe3a95f4	-0.18221265
64	0xbe8b9288	-0.27260232
65	0xbec747a0	-0.38921833
66	0xbe504def	-0.2034223
67	0xbe005a09	-0.12534346
68	0xbeabcb35	-0.33553472
69	0xbedc2f0c	-0.43004644
70	0xbea776f1	-0.32707933
71	0xbe8aeae0	-0.2713232
72	0xbee03fb9	-0.43798617
73	0xbe52713f	-0.20551012
74	0xbdb6ff76	-0.08935444
75	0xbd41b9f6	-0.047296487
76	0xbed49586	-0.41520327
77	0xbeab4d71	-0.3345752
78	0xbeab24f7	-0.3342664
79	0xbe4315e5	-0.19051321
80	0xbe19cb09	-0.15018858
81	0xbe8fa10a	-0.2805255
82	0xbec694d6	-0.38785428
83	0xbf0526ed	-0.5201252
84	0xbf0294a5	-0.51008064
85	0xbdcb6858	-0.09932011
86	0xbe231ff6	-0.15930161
87	0xbe86ce3e	-0.26329225
88	0xbdbe5870	-0.09294212
89	0xbea0f5be	-0.31437486
90	0xbe6d75be	-0.23189446
91	0xbe99b131	-0.30018
92	0xbe8cf20e	-0.27528423
93	0xbea86ebd	-0.32896987
94	0xbeca1610	-0.39469957
95	0xbe18408b	-0.14868371
96	0xbe8cd631	-0.27507165
97	0xbe95b45e	-0.29239172
98	0xbec42f99	-0.38317564
99	0xbe927677	-0.28606007
100	0xbe26e7ae	-0.16299316
101	0x3b5d2a70	0.0033747219
102	0xbe3d35ba	-0.18477526
103	0xbe797382	-0.24360469
104	0xbe1e6333	-0.15467529
105	0xbf33e822	-0.7027608
106	0xbe39f92b	-0.18161456
107	0xbe86edf5	-0.26353422
108	0xbe419659	-0.1890501
109	0xbeb337ac	-0.35003412
110	0xbd937b1e	-0.07201217
111	0xbe272aa8	-0.16324866
112	0xbe6207b8	-0.22073257
113	0xbe7ca768	-0.24673235
114	0xbf142143	-0.57863253
115	0xbe5c9005	-0.21539314
116	0xbe709376	-0.23493752
117	0xbe8acb5d	-0.2710828
118	0xbe0daadd	-0.1383471
119	0xbefb9350	-0.49135828
120	0xbe984542	-0.2974034
121	0xbe8ac4d2	-0.27103287
122	0xbe75d5a0	-0.24007273
123	0xbe7b9a1b	-0.24570505
124	0xbe889f1f	-0.266839
125	0xbe8fc3b6	-0.28079003
126	0xbe5cc7f0	-0.21560645
127	0xbea876fd	-0.3290328

encoder.3.weight f4 [64, 128]
0	0xbddd0383	-0.107916854
1	0xbe11cd94	-0.14238578
2	0x3d698ded	0.057020117
3	0xbdbe4a71	-0.09291542
4	0x3da0ac2b	0.078453384
5	0x3df2428f	0.11829101
6	0x3c9e15f7	0.019297583
7	0xbd285339	-0.041094992
8	0xbdfdc1c7	-0.12390476
9	0x3a07c700	0.00051794946
10	0x3e3bc8e4	0.18338352
11	0x3c3cff94	0.011535544
12	0x3debd4c2	0.1151519
13	0xbd1e47e5	-0.038642783
14	0x3d6165d3	0.055028748
15	0x3db0792e	0.08616863
16	0x3c652300	0.013985395
17	0x3c045c7d	0.008078692
18	0x3d631743	0.055442106
19	0x3b726449	0.0036986044
20	0xbd27e52c	-0.04099004
21	0xbe3356fb	-0.17513649
22	0x3e01586d	0.12631388
23	0xbc00ceb7	-0.007861785
24	0x3d910553	0.07081094
25	0xbe12f1e8	-0.14350092
26	0xbd01b2e5	-0.031664748
27	0x3c235c30	0.00997071
28	0xbdbcf4b5	-0.09226362
29	0xbd35f595	-0.04442366
30	0x3d0c7345	0.034289617
31	0x3d202ed6	0.039107166
32	0xbe18b7b4	-0.14913827
33	0xbdf05d5e	-0.117365584
34	0xbe104e28	-0.14092314
35	0xbdb63084	-0.08895972
36	0x3e129c2e	0.1431739
37	0x3c3ab4a1	0.011395604
38	0x3d8bb232	0.068210974
39	0x3bae1016	0.005311976
40	0xbd9331e5	-0.07187251
41	0xbdb1f414	-0.08689132
42	0x3cd61d48	0.02613701
43	0xbdc3f976	-0.09569065
44	0x3d229e44	0.039701715
45	0xbdb966ff	-0.09052848
46	0xbe511897	-0.20419537
47	0x3d6587fb	0.056037884
48	0xbcb9eccc	-0.022695921
49	0xbccec78f	-0.025241641
50	0xbd5802c2	-0.052737005
51	0x3d7d0bb6	0.061778747
52	0xbe342213	-0.17591123
53	0xbd120f97	-0.0356594
54	0x3bf696c4	0.007525297
55	0x3d14df00	0.036345482
56	0xbe2a13e2	-0.16609147
57	0x3ddbbb50	0.107290864
58	0xbe551938	-0.20810401
59	0x3dd5e44b	0.10443934
60	0xbd6997ed	-0.057029653
61	0xbbd0adc0	-0.006368369
62	0x3d947b4a	0.07250078
63	0xbe138104	-0.14404684
64	0x3c8a7a14	0.016903915
65	0xbd87078b	-0.065932356
66	0xbda5ca88	-0.080952704
67	0xbd7fb192	-0.062425204
68	0x3d280491	0.04101998
69	0xbe2d0d0b	-0.16899507
70	0x3c8ee812	0.017444644
71	0x3e17588f	0.14779876
72	0xbde9a63e	-0.11408661
73	0x3bcaa1c2	0.006183834
74	0x3d88329e	0.066502795
75	0xbd70e10a	-0.058808364
76	0x3be914a0	0.0071130544
77	0x3d906cae	0.07051979
78	0xbd91050b	-0.0708104
79	0x3c785112	0.015156047
80	0x3db56451	0.088570245
81	0x3c76f432	0.015072869
82	0xbdcc7bf3	-0.09984579
83	0x3db77a74	0.08958903
84	0x3d91dc85	0.07122139
85	0xbd16bcbe	-0.036801092
86	0xbdd2b265	-0.10287932
87	0x3da78320	0.08179307
88	0x3d2dc11e	0.0424205
89	0x3d4276e3	0.04747666
90	0xbd04f3ed	-0.03245919
91	0x3d362a26	0.04447379
92	0x3df7e0b6	0.12103407
93	0x3d1888ae	0.037239723
94	0xbc7c1bbf	-0.015387475
95	0x3bdd133a	0.0067466768
96	0xbb2f77d5	-0.0026774306
97	0xbcb28a31	-0.02179441
98	0x3e2a4eea	0.16631666
99	0xbdc39416	-0.095497295
100	0xbdefa83a	-0.117020085
101	0x3ce26d71	0.027640076
102	0xbd8054a9	-0.06266148
103	0x3dc6622f	0.09686696
104	0xbd010105	-0.031495113
105	0x3e4d0bde	0.20024058
106	0xbcd82dc8	-0.026389018
107	0x3d5d088d	0.053963233
108	0xbe38f148	-0.18060791
109	0xbc6b7d21	-0.014373095
110	0xbd214c98	-0.039379686
111	0x3b519fd5	0.0031986136
112	0xbdde4c9b	-0.10854455
113	0xbad0dcde	-0.0015934964
114	0x3cce3274	0.025170542
115	0x3c6f563b	0.014607961
116	0x3cf3a51c	0.029741816
117	0x3d9c3a65	0.076283254
118	0xbd57b370	-0.05266136
119	0xbd629b02	-0.05532361
120	0xbcccf951	-0.025021227
121	0x3d10e97e	0.035378926
122	0x3dcb6a1e	0.099323496
123	0x3d934b93	0.07192149
124	0xbd594c56	-0.053051315
125	0x3d1d1b26	0.03835597
126	0x3e02673a	0.1273469
127	0xbd5ab4dc	-0.053395137
128	0xbc484297	-0.0122229075
129	0x3cb6ab20	0.022298396
130	0xbc371141	-0.011173547
131	0xbbf122bc	-0.007358877
132	0x3d310164	0.043214217
133	0x3c662ee7	0.014049268
134	0x3de1e5ed	0.11030183
135	0xbde5e982	-0.11226179
136	0x3da9e009	0.082946844
137	0x3d966496	0.07343404
138	0x3e3003a1	0.17188884
139	0xbd192fa4	-0.03739895
140	0x3d507419	0.05089197
141	0x3d8a3c99	0.06749839
142	0x3c9b2b00	0.018941402
143	0x3bd78ebb	0.006578294
144	0x3cd30f10	0.025764018
145	0x3da613c4	0.08109239
146	0x3cfc0703	0.030765062
147	0xbc423ce4	-0.011855338
148	0x3cbbcf79	0.02292608
149	0xbcfbcdef	-0.030737845
150	0x3ca939db	0.02065747
151	0x3de65d7f	0.11248302
152	0x3c41a3e9	0.011818864
153	0x3d8c5802	0.06852724
154	0x3d7dd48c	0.06197028
155	0xbcf943e2	-0.030427877
156	0xbc368116	-0.011139175
157	0x3d45669c	0.04819356
158	0x3d6c532c	0.057696506
159	0x3d29fab4	0.041498855
160	0x3d556713	0.052100252
161	0x3dbf916c	0.09353909
162	0x3c6e6438	0.014550261
163	0xbca7be8f	-0.020476608
164	0xbb5a2d68	-0.0033291224
165	0xbd16260f	-0.03665739
166	0x3cd70da9	0.02625163
167	0x3bc01cc6	0.005862805
168	0x3d54df3d	0.05197071
169	0x3d368656	0.044561706
170	0x3d57fce8	0.052731425
171	0x3c06e260	0.008232683
172	0x3bff3cab	0.0077892146
173	0xba8644b5	-0.0010243865
174	0xbd14a81c	-0.036293134
175	0xbd2ef6e4	-0.042715922
176	0x3d16d06d	0.036819864
177	0xbd63b957	-0.055596676
178	0xbc86c8ca	-0.016453166
179	0x3e0164a1	0.12636043
180	0x3d949d64	0.072565824
181	0xbce1e45a	-0.027574707
182	0x3db07941	0.08616877
183	0x3d96467a	0.07337661
184	0x3d8e3bda	0.069450095
185	0x3db14b16	0.086569
186	0x3dcc6029	0.099792786
187	0x3d784d8b	0.060620826
188	0xbd6cf0f8	-0.057846993
189	0xbaaf29e2	-0.0013363922
190	0x3b495f13	0.0030726835
191	0x3b010138	0.0019684564
192	0x3d7883e9	0.060672674
193	0x3d52e2c3	0.051485788
194	0xbc8ccad4	-0.01718656
195	0x3ab20c22	0.0013583938
196	0x3d7c3f0f	0.061583575
197	0x3cd7a0f3	0.026321864
198	0x3cf89dc3	0.030348664
199	0x3c7e9140	0.01553756
200	0x3d6a7d09	0.05724815
201	0xbd716a99	-0.05893955
202	0x3ddf51da	0.10904284
203	0xbce22310	-0.02760461
204	0xba84c2de	-0.0010128876
205	0x3dda688a	0.106644705
206	0x3db8c670	0.09022224
207	0x3c0b6d85	0.008509998
208	0x3e0bdcb3	0.13658409
209	0x3daa04e3	0.08301713
210	0x3d8cf9a7	0.06883555
211	0x3e2e0f45	0.16998012
212	0x3cf3f698	0.029780671
213	0x3d758f52	0.059951134
214	0x3c9c3b8e	0.019071367
215	0x3b070f7e	0.00206086
216	0xbd98ac00	-0.074546814
217	0xbd72ace7	-0.059246924
218	0xbc7ce33c	-0.015435036
219	0x3d188f81	0.03724623
220	0x3b0f04ff	0.0021823046
221	0x3dd7ee69	0.1054352
222	0x3debb0cc	0.11508331
223	0xbd823cec	-0.06359276
224	0x3e18d170	0.14923644
225	0x3d7338e0	0.059380412
226	0x3be703fa	0.0070500346
227	0xbb5aad3b	-0.0033367414
228	0xbd9483df	-0.07251715
229	0xbcd0e1bb	-0.025498262
230	0x3c9346a3	0.017978018
231	0x3deb0a03	0.11476519
232	0x3cb784a4	0.022402115
233	0x3dd06be3	0.10176828
234	0xbd9c2d02	-0.07625772
235	0x3d765d86	0.060147785
236	0x3c6389f0	0.013887867
237	0x3cab1f20	0.020888865
238	0x3caa238c	0.020768903
239	0x3d4bc5f4	0.04974933
240	0x3da6b853	0.08140626
241	0x3cf47cae	0.029844608
242	0x3e076c6b	0.13224952
243	0xbd7da9cc	-0.06192951
244	0x3ca08780	0.019595861
245	0x3d255ff7	0.040374722
246	0x3da314f8	0.07962984
247	0x3dbb5f0a	0.09148987
248	0x3db1e157	0.08685558
249	0xbde31339	-0.11087651
250	0x3d493e21	0.049131516
251	0xbd2089bc	-0.039193854
252	0x3d54c13a	0.051942088
253	0x3d9bc8e2	0.07606675
254	0xbdc38a5e	-0.09547876
255	0x3cd532a2	0.02602512

encoder.3.bias f4 [64]
0	0xbd5b21ec	-0.053499147
1	0xbe93096d	-0.2871813
2	0xbe2db812	-0.16964749
3	0xbe52d2a4	-0.20588166
4	0xbd5e6fa4	-0.054305688
5	0xbd882251	-0.0664717
6	0xbee2d393	-0.44302043
7	0xbdb611fb	-0.08890148
8	0xbebd9fae	-0.37035888
9	0x3d8ee2c3	0.06976845
10	0xbe0775d0	-0.13228536
11	0xbdcf95d3	-0.101359986
12	0x3e0b03fd	0.1357574
13	0x3ca34611	0.019930871
14	0xbe24c28d	-0.1608984
15	0xbec5ff6f	-0.38671443
16	0xbeaa1f18	-0.33226848
17	0x3c511fe1	0.012763948
18	0xbdc3bd41	-0.09557582
19	0xba2a822c	-0.00065043825
20	0xbe2cb614	-0.16866332
21	0xbd5aa9c9	-0.053384576
22	0xbe767a25	-0.24070032
23	0xbdc9d3e4	-0.09854868
24	0xbe9e3e24	-0.30906785
25	0xbe8ad870	-0.27118254
26	0xbd084004	-0.033264175
27	0xbd944a4a	-0.07240732
28	0xbea2f30c	-0.31826055
29	0xbd16bd7d	-0.036801804
30	0xbe952ebb	-0.29137215
31	0xbe61439f	-0.21998452
32	0xbe300c7d	-0.17192264
33	0xbd068e25	-0.032850403
34	0xbc8beb64	-0.017080016
35	0xbe6c7285	-0.2309056
36	0xbe3dbf88	-0.18530095
37	0x3c90099e	0.01758271
38	0xbccb5730	-0.024821848
39	0xbdc6ca61	-0.097065695
40	0xbdc9e937	-0.09858935
41	0xbdac03df	-0.08399176
42	0xbe1b8bf9	-0.15190114
43	0xbe8c3df1	-0.27391008
44	0x3b4ba870	0.0031075738
45	0xbdfa7da0	-0.12230992
46	0xbd910cd2	-0.070825234
47	0xbe2ecf00	-0.17071152
48	0xbdb9ffb2	-0.09081973
49	0xbd2f8a48	-0.042856485
50	0xbe927a46	-0.28608912
51	0xbe235a25	-0.15952356
52	0xbd6b8ecc	-0.05750923
53	0xbdd818a9	-0.105515786
54	0xbe53fbd4	-0.20701534
55	0xbe4b84e9	-0.1987492
56	0xbdeb2485	-0.11481575
57	0xbcddacd3	-0.027059948
58	0xbe4ed067	-0.20196687
59	0xbe8a0520	-0.26957035
60	0xbe724cd1	-0.23662116
61	0xbd2a7320	-0.041613698
62	0xbebb2b5a	-0.36556512
63	0xbe2d801d	-0.16943403

encoder.6.weight f4 [32, 64]
0	0xbd5d367d	-0.054007042
1	0xbcb25092	-0.021766935
2	0x3d30f1ab	0.043199223
3	0x3d3f3d3c	0.046689257
4	0xbd29eb46	-0.04148414
5	0x3d3429f5	0.043985326
6	0x3db715bd	0.08939693
7	0x3cb582c4	0.02215708
8	0xbd97ac0e	-0.07405864
9	0xbd91f8bc	-0.071275204
10	0xbc075ac1	-0.0082613835
11	0x3d912608	0.07087332
12	0x3ec0dfc2	0.37670714
13	0x3d249243	0.04017855
14	0x3e101b87	0.14073001
15	0x3e2d6bd9	0.16935672
16	0xbd553940	-0.05205655
17	0x3cf5cdb0	0.030005306
18	0x3d40332d	0.046923805
19	0xbd418605	-0.04724695
20	0xbb7ccc94	-0.0038574087
21	0x3d3a25af	0.045446094
22	0x3e8c615c	0.2741803
23	0x3e36198f	0.17783187
24	0xbd348bba	-0.044078566
25	0xbeaab251	-0.3333917
26	0x3deb05d7	0.11475723
27	0x3dedc53e	0.116098866
28	0xbe809820	-0.25116062
29	0x3dd916a6	0.10600023
30	0xbbd2ac15	-0.006429205
31	0xbda471af	-0.08029496
32	0x3d095526	0.03352847
33	0x3d3a0fe2	0.045425303
34	0xbc28e3f0	-0.010308251
35	0x3e502764	0.20327526
36	0x3e84e990	0.25959444
37	0xbdb9ee54	-0.090786606
38	0x3d68abb2	0.056804366
39	0x3c0b31a5	0.008495723
40	0xbbcb9ccc	-0.00621376
41	0xbd9555e8	-0.07291776
42	0x3dda827b	0.106694184
43	0xbe166d09	-0.14690031
44	0x3d91b9f3	0.07115545
45	0x3d2bd17c	0.041947827
46	0x3e71b280	0.23603249
47	0x3d6bcf84	0.05757095
48	0x3dcd8577	0.10035222
49	0x3e8c65a3	0.27421293
50	0x3e125925	0.14291818
51	0x3e48229d	0.19544454
52	0xbce8198f	-0.0283325
53	0xbc526b36	-0.012842944
54	0xbc7330f0	-0.014843211
55	0x3e6391dc	0.2222361
56	0x3dc7660d	0.097362615
57	0x3cf90f52	0.030402813
58	0xbbe05495	-0.0068460205
59	0x3b02a94d	0.0019937337
60	0x3e86f5bb	0.26359352
61	0x3dd93f6e	0.106078014
62	0x3e26b46a	0.1627976
63	0x3d8f5e37	0.07000392
64	0x3d7267b6	0.059180938
65	0xbc1b00ec	-0.009460669
66	0x3cf2cfd2	0.029640112
67	0xbd58417f	-0.052796837
68	0xbc86984f	-0.016430048
69	0xbd1bae29	-0.03800789
70	0x3de78b5d	0.11305878
71	0xbdeafcc8	-0.114739954
72	0xbdfd1451	-0.12357391
73	0x3de7d2ae	0.11319481
74	0x3d4c54ec	0.049885675
75	0x3db9ac6e	0.090660915
76	0xbd57ecba	-0.052715994
77	0xbc14d90d	-0.009084952
78	0x3cecfdc0	0.028929591
79	0x3d98b388	0.07456118
80	0x3db97dfd	0.090572335
81	0x3cceeacd	0.025258446
82	0x3db81c2f	0.089897506
83	0xbd3fdf97	-0.04684409
84	0xbd8542cc	-0.06506881
85	0xbdeb9469	-0.11502916
86	0xbd78d599	-0.060750578
87	0x3d73e272	0.059542127
88	0x3e01d062	0.12677148
89	0xbdb0da65	-0.086354055
90	0xbdaeaa70	-0.08528602
91	0x3e02ac3d	0.12761016
92	0x3d76505c	0.06013523
93	0x3e043a68	0.12912905
94	0xbe3a5c9b	-0.18199389
95	0x3d13fd0a	0.03612999
96	0xbb5d9cd8	-0.003381541
97	0xbe22ac79	-0.15886106
98	0x3dc81a3b	0.09770628
99	0xbd4e6568	-0.050389677
100	0xbc42275e	-0.011850206
101	0xbba37195	-0.0049879053
102	0xbcf24049	-0.02957167
103	0x3d3ff830	0.04686755
104	0x3dcf3b19	0.10118694
105	0xbd804a21	-0.06264139
106	0x3de7ce5a	0.11318655
107	0xbdb3fef2	-0.08788861
108	0xbd2cd5b4	-0.04219599
109	0x3d47b71c	0.04875861
110	0x3d9dd157	0.07705944
111	0xbd834529	-0.06409676
112	0xbdc175a3	-0.094462655
113	0x3bb7adb6	0.0056054248
114	0xbd5d762d	-0.05406778
115	0xbcfded38	-0.030996904
116	0x3def5e5f	0.11687922
117	0x3e118d58	0.14214075
118	0xbb8283a7	-0.0039829793
119	0x3d558c90	0.052136004
120	0xbe1d57e2	-0.15365556
121	0x3d93de15	0.07220093
122	0x3db55710	0.088544965
123	0x3df3124b	0.118687235
124	0x3d8edce9	0.06975729
125	0xbcdf25ab	-0.027239641
126	0xbca0e5da	-0.019640852
127	0xbca6e406	-0.020372402
128	0x3bf4beea	0.007469048
129	0x3da8df86	0.08245759
130	0xbe34ad44	-0.1764422
131	0x3d6beaba	0.0575969
132	0x396d5e4e	0.00022637213
133	0xbd7bc5b0	-0.061467826
134	0xbcb7b903	-0.022427088
135	0xbd53b170	-0.05168289
136	0xbd606f24	-0.054793492
137	0x3d7f8387	0.062381294
138	0xbd8de1bf	-0.06927823
139	0x3d566ddc	0.052350864
140	0x3ebecfdd	0.37267962
141	0xbc9f8efa	-0.019477356
142	0x3dfea877	0.12434476
143	0x3dba74e5	0.09104327
144	0x3d1d9b06	0.03847792
145	0x3d48033a	0.048831202
146	0xbb5161d0	-0.003194917
147	0xbcee2aa4	-0.029073067
148	0xbc883793	-0.016628062
149	0x3d594061	0.053039912
150	0x3e3d4178	0.18482006
151	0x3e69d4b1	0.22835042
152	0x3de917cc	0.11381492
153	0xbebabdc0	-0.36472893
154	0x3e0f315d	0.13983674
155	0xbd04874b	-0.032355588
156	0xbd6efde4	-0.058347598
157	0xbd658d47	-0.056042936
158	0xbcf851f8	-0.030312523
159	0xbba46711	-0.0050171693
160	0x3dffa7f3	0.12483206
161	0xbd870c99	-0.065942
162	0x3cf67938	0.030087098
163	0x3e1efe9b	0.15526812
164	0x3e2bf17d	0.16791339
165	0xbdd28cf6	-0.102807924
166	0x3d120ead	0.035658527
167	0x3d17ecbc	0.037091002
168	0xbdf3eddf	-0.11910605
169	0x3c2f0c1c	0.010684039
170	0xbd14cb4f	-0.036326703
171	0xbe7b3b20	-0.24534273
172	0x3daf1980	0.085497856
173	0xbd999f1a	-0.07501049
174	0x3e26e632	0.1629875
175	0xbd46f880	-0.04857683
176	0xbc8bef6d	-0.01708194
177	0x3e2c6199	0.16834106
178	0x3e36f3bb	0.17866413
179	0x3e80616b	0.25074324
180	0x3d37c2a6	0.044863366
181	0xbd806ed4	-0.06271139
182	0xbd99d4c6	-0.075112864
183	0x3e622fc4	0.22088534
184	0x3e3884e8	0.1801945
185	0x3de1622a	0.110050514
186	0x3abc9824	0.0014388603
187	0xbd0ce3bb	-0.03439687
188	0x3ea006a6	0.31255072
189	0xbd90583f	-0.070480816
190	0x3dcf9af2	0.10136975
191	0x3d34e98c	0.04416804
192	0xbdef6ce2	-0.116906896
193	0x3dff1d65	0.124567784
194	0x3db06dac	0.08614668
195	0x3dd8c7b7	0.105849676
196	0xbe23a999	-0.15982665
197	0xbde39000	-0.1111145
198	0xbc0c4f97	-0.008563898
199	0xbd36e668	-0.044653326
200	0x3e0a191e	0.13486144
201	0xbcb26fed	-0.021781886
202	0x3b66adae	0.0035198736
203	0xbe0c4837	-0.13699423
204	0x3c487d7c	0.012236949
205	0xbd2c6c99	-0.042095754
206	0x3d9989c5	0.074969806
207	0x3d5233b6	0.051318847
208	0x3e0bbf4c	0.13647193
209	0xbe17cc56	-0.14824042
210	0xbe155751	-0.1458409
211	0xbdd6ea8a	-0.104939535
212	0x3dfcc650	0.123425126
213	0x3dc9c04c	0.09851131
214	0xbcff4b9c	-0.031163983
215	0xbc886535	-0.016649822
216	0x3dbaa890	0.09114182
217	0x3cf67e17	0.030089421
218	0x3beb4e7f	0.0071809883
219	0xbdac340c	-0.08408365
220	0xbb868707	-0.004105452
221	0x3d386185	0.045014877
222	0xbd49d4f5	-0.049275357
223	0x3cc3471e	0.023837622
224	0xbb8d93d5	-0.0043206015
225	0x3d9ee0ca	0.07757719
226	0xbe12817a	-0.14307204
227	0xbd7428fe	-0.059609406
228	0x3bce1adc	0.006289823
229	0xbbad6a76	-0.005292232
230	0xbc4072b1	-0.011746095
231	0x3da9c8e7	0.08290272
232	0xbdeed20f	-0.11661159
233	0x3d6c5c11	0.05770499
234	0x3d2d98dd	0.04238211
235	0xbd69dba6	-0.05709424
236	0xbdedc192	-0.11609186
237	0xbe37a4e3	-0.17933993
238	0xbbed9591	-0.0072504957
239	0xbda68505	-0.0813084
240	0xbd84b00f	-0.06478893
241	0xbcffc023	-0.031219548
242	0x3d5347c8	0.051582128
243	0x3d06efa5	0.032943387
244	0xbd4bfebd	-0.049803484
245	0x3d414b40	0.047190905
246	0x3ddfccf6	0.10927765
247	0x3d613955	0.054986317
248	0xbba2442e	-0.0049519753
249	0xbd9003e3	-0.07031991
250	0x3da2f114	0.07956138
251	0x3d2cc5b3	0.04218073
252	0x3cae697f	0.021290539
253	0x3e1b80cf	0.15185855
254	0x3dfd2092	0.12359728
255	0xbd0099ee	-0.0313968

encoder.6.bias f4 [32]
0	0x3d23b6e8	0.039969355
1	0xbcebbec2	-0.028777484
2	0x3d38f08e	0.045151286
3	0xbd3071af	-0.043077167
4	0xbdee6b6f	-0.11641585
5	0x3e08fd71	0.1337793
6	0x3d808d01	0.06276894
7	0x3d5981bd	0.053102244
8	0x3db7cff2	0.08975209
9	0xbd281e0f	-0.04104429
10	0x3d8b7b4f	0.068106286
11	0x3db700da	0.08935709
12	0x3dfff049	0.12497003
13	0x3d2e7fb1	0.042602245
14	0xbcb9a627	-0.022662235
15	0xbc9de840	-0.019275784
16	0xbe16362e	-0.14669105
17	0x3c9c4400	0.019075394
18	0x3d778b07	0.06043532
19	0xbdac1328	-0.08402091
20	0x3df1d515	0.1180822
21	0xbce30578	-0.027712569
22	0xbc2268d1	-0.0099126855
23	0xbe443993	-0.19162588
24	0xbd703cd1	-0.05865175
25	0xbdc641aa	-0.09680493
26	0x3d504167	0.050843623
27	0xbd43f9b3	-0.047845554
28	0xbe79ba87	-0.24387561
29	0x3da2ad88	0.07943255
30	0xbd69a879	-0.057045434
31	0x3d914619	0.07093448

encoder.9.weight f4 [2, 32]
0	0x3e04f1d0	0.12982869
1	0xbdb1efb5	-0.086882986
2	0x3e303c1d	0.17210431
3	0x3e1949aa	0.14969507
4	0x3e1e7815	0.15475495
5	0xbdda190d	-0.10649309
6	0xbd8d9657	-0.06913441
7	0xbded3fba	-0.115844205
8	0x3e0fa967	0.14029466
9	0xbdfb3124	-0.12265232
10	0x3e49f369	0.1972176
11	0xbe2e0a78	-0.16996181
12	0x3e074759	0.1321081
13	0x3e0ddc8a	0.1385366
14	0xbe1dabda	-0.15397587
15	0x3cd5a00f	0.026077298
16	0x3c9c4a17	0.019078298
17	0x3e36445b	0.17799513
18	0xbdde0808	-0.108413756
19	0x3c3c5849	0.011495658
20	0xbe3a2ad9	-0.18180408
21	0xbe06b7f4	-0.1315611
22	0xbcc432f5	-0.02395008
23	0x3c277e0f	0.010222926
24	0x3e3277e8	0.17428553
25	0x3cc2ac23	0.023763722
26	0x3e19fc2d	0.15037604
27	0x3c9fc246	0.019501816
28	0x3e31776d	0.17330714
29	0xbe07dfef	-0.13269018
30	0xbde58581	-0.112071045
31	0xbcde14d7	-0.027109547
32	0xbdc1c170	-0.094607234
33	0xbe1753e5	-0.14778097
34	0xbdfb4687	-0.122693114
35	0x3da182c3	0.07886269
36	0x3d893c74	0.06700984
37	0xbdd7a4d0	-0.10529482
38	0xbdedf0d3	-0.11618199
39	0xbdc1f48f	-0.09470474
40	0x3d2cd554	0.042195633
41	0xbe06e7e5	-0.13174398
42	0xbe0f3ab6	-0.1398724
43	0xbe0a3bd0	-0.13499379
44	0xbdf41c77	-0.11919492
45	0x3d9d613c	0.076845616
46	0xbe0fcf9c	-0.1404404
47	0x3e3c134b	0.18366735
48	0xbdc4f4e5	-0.096170224
49	0x3d997b5a	0.074942306
50	0xbdabdf8f	-0.0839225
51	0xbe1c9b1c	-0.15293545
52	0xbe16034c	-0.14649695
53	0xbd00e6bf	-0.031470057
54	0xbdfa19b8	-0.12211937
55	0x3e3b39cb	0.18283765
56	0x3e095c30	0.13414073
57	0xbd4b08a2	-0.04956878
58	0x3c71d02b	0.014759104
59	0x3e5789a8	0.21048605
60	0xbdf707d5	-0.12062041
61	0xbdb0e56c	-0.08637509
62	0xbe233d23	-0.1594129
63	0xbe3715a4	-0.17879349

encoder.9.bias f4 [2]
0	0x3dbcab6c	0.09212384
1	0x3d9df7ff	0.07713317

decoder.0.weight f4 [32, 2]
0	0xbf1a5d12	-0.60298264
1	0x3dd5d7ec	0.104415745
2	0xbefea15c	-0.49732482
3	0xbe97b191	-0.2962766
4	0xbf007f36	-0.5019411
5	0x3f0e82dc	0.55668426
6	0x3ed6e722	0.41973215
7	0x3d88801d	0.06665061
8	0x3eca0a90	0.39461184
9	0xbe88b1cb	-0.26698145
10	0x3f24ceba	0.6437794
11	0x3f265cfa	0.6498562
12	0x3ee6d230	0.45082235
13	0xbeba01ee	-0.36329597
14	0xbe771035	-0.24127276
15	0x3f340747	0.70323604
16	0x3eef392f	0.46723315
17	0x3e8e072c	0.27739847
18	0x3e8cea49	0.27522495
19	0x3f29d826	0.6634544
20	0x3f0b3592	0.54378617
21	0xbe06196c	-0.13095635
22	0xbe028428	-0.12745726
23	0x3db07798	0.08616561
24	0xbe62e72b	-0.22158496
25	0xbe616204	-0.22010046
26	0x3f031949	0.5121046
27	0xbf37dfca	-0.7182585
28	0xbdf948d7	-0.12172096
29	0xbd9b7980	-0.07591534
30	0x3cf2803e	0.029602166
31	0xbeb203bf	-0.34768483
32	0xbec053d4	-0.37563956
33	0x3f12d40d	0.57354814
34	0x3e156d87	0.14592563
35	0xbe2935fa	-0.16524497
36	0x3f02c781	0.5108567
37	0x3f0d6715	0.55235416
38	0x3f3aaad9	0.7291694
39	0x3ecbc1e2	0.39796358
40	0xbe87e5fa	-0.26542646
41	0x3d9c9e4a	0.07647379
42	0x3e533019	0.20623817
43	0x3f257caf	0.6464338
44	0x3e8b12d7	0.2716281
45	0x3e403d58	0.18773401
46	0x3ee78f69	0.452266
47	0x3d9f8823	0.07789638
48	0x3e658644	0.224145
49	0x3f371095	0.7150968
50	0x3e3ad4df	0.18245266
51	0x3ea0af58	0.31383777
52	0x3e6d711f	0.23187684
53	0xbf2f1336	-0.6838869
54	0xbe5b053e	-0.21388718
55	0xbf29eb51	-0.6637469
56	0xbf03c74a	-0.51475966
57	0xbf2aac95	-0.6666959
58	0x3f1ab161	0.6042691
59	0xbed8e70c	-0.42363775
60	0x3f10ce38	0.56564665
61	0x3db55d44	0.0885568
62	0x3e2e106b	0.1699845
63	0xbe15c8ac	-0.14627331

decoder.0.bias f4 [32]
0	0x3dff2477	0.12458127
1	0xbee09f0b	-0.4387134
2	0x3cf298dc	0.029613905
3	0x3c0a15d3	0.008428055
4	0x3e9463b6	0.28982323
5	0x3df53605	0.11973194
6	0x3f07f859	0.53113323
7	0xbdeb8433	-0.114998244
8	0xbf291dfc	-0.6606138
9	0xbe82f2ca	-0.25575858
10	0xbf03d5db	-0.5149819
11	0x3e8c8857	0.2744777
12	0x3f1c826f	0.61136526
13	0xbbb82a19	-0.005620253
14	0xbde47a5a	-0.11156149
15	0xbeca7afa	-0.3954695
16	0x3e27f687	0.16402636
17	0x3d899ebd	0.0671973
18	0xbdfacda4	-0.12246254
19	0x3e31ac72	0.17350939
20	0x3f433979	0.7625957
21	0x3e8a97dd	0.27068987
22	0x3ee8e1bb	0.4548472
23	0x3f3affc8	0.7304654
24	0x3ee2c957	0.44294235
25	0x3eacc28f	0.33742186
26	0x3eb8e1fd	0.36109915
27	0xbf29e18a	-0.6635977
28	0x3e825bc8	0.2546065
29	0x3de3aae2	0.11116578
30	0xbf028cd7	-0.50996155
31	0xbf3fb724	-0.74888825

decoder.2.weight f4 [64, 32]
0	0xbe1a992d	-0.15097494
1	0xbddfc986	-0.109271094
2	0xbdb1a74e	-0.08674489
3	0xbced6da8	-0.028982952
4	0xbcd56ba8	-0.026052311
5	0xbdea6b2e	-0.11446224
6	0xbd98fdb4	-0.07470265
7	0xbdd75c68	-0.10515672
8	0xba0f2c00	-0.00054615736
9	0xbe182750	-0.14858747
10	0x3dc86efe	0.09786795
11	0x3df3f312	0.11911596
12	0xbdbf8e9b	-0.09353372
13	0x3e204c85	0.1565419
14	0x3d4feee8	0.050764948
15	0x3dccee0e	0.10006343
16	0xbe26d573	-0.16292362
17	0xbd5bf3cc	-0.0536993
18	0xbdfd08ac	-0.1235517
19	0x3dbd53ae	0.09244476
20	0x3dcf80e2	0.10132004
21	0xbd70bf6e	-0.05877631
22	0xbda31409	-0.07962806
23	0xbe1e8e5f	-0.15483998
24	0xbe2721fd	-0.16321559
25	0x3e316f4d	0.17327614
26	0xbe2f2cfd	-0.17107005
27	0xbe12aa56	-0.1432279
28	0xbc4b3740	-0.012403309
29	0xbd450c6c	-0.04810755
30	0x3d6a2478	0.057163686
31	0x3deee90a	0.116655424
32	0x3d9913f6	0.0747451
33	0x3d2dab59	0.042399738
34	0xbded252c	-0.115793556
35	0x3e091c33	0.13389663
36	0x3d58a5a6	0.05289235
37	0xbde6c6a7	-0.11268359
38	0x3e01797a	0.12643996
39	0xbe373568	-0.17891467
40	0xbe34cddb	-0.17656653
41	0x3d9da460	0.07697368
42	0x3dc5c68c	0.096570104
43	0x3e0e1ae1	0.13877441
44	0xbd4f2365	-0.050570864
45	0x3d7432cf	0.059618767
46	0x3ca35d56	0.019941967
47	0xbe19d491	-0.15022494
48	0xbdc802b2	-0.09766139
49	0xbdef13a6	-0.116736695
50	0x3df94da6	0.121730134
51	0xbd611be2	-0.05495823
52	0xbdece974	-0.11567965
53	0x3d406642	0.04697252
54	0xbdf86436	-0.12128489
55	0xbe1d5410	-0.15364099
56	0xbd896b6d	-0.06709943
57	0xbd477315	-0.048693735
58	0xbd4e7639	-0.050405715
59	0xbdb8cb1f	-0.09023117
60	0xbe4d63ba	-0.20057574
61	0xbc6f64db	-0.014611448
62	0xbdcaa453	-0.098946236
63	0x3dcb381f	0.099228136
64	0x3cf7665a	0.030200172
65	0xbd9c8586	-0.07642655
66	0x3a852b00	0.001015991
67	0x3de5b9d2	0.11217083
68	0xbb170fc0	-0.002305016
69	0x3b1d7340	0.0024024993
70	0x3b5d57c0	0.0033774227
71	0xbe04ee4c	-0.12981528
72	0x3df9eeca	0.122037485
73	0xbdb38a8f	-0.08766662
74	0xbe24f3b0	-0.16108584
75	0xbd1d5960	-0.038415313
76	0xbdcba59c	-0.09943697
77	0xbe1f605a	-0.15564099
78	0x3d9ce5f5	0.07661048
79	0x3cb96853	0.022632753
80	0xbdfe28f6	-0.124101564
81	0xbe0eeb26	-0.1395689
82	0x3dabc51e	0.083872065
83	0x3d609180	0.05482626
84	0xbac155b1	-0.001475027
85	0xbdf3d889	-0.11906535
86	0x3bed1740	0.0072354376
87	0xbdf7342e	-0.12070499
88	0x3c9c4010	0.019073516
89	0x3e00dea5	0.12584932
90	0xbdff2dd1	-0.12459911
91	0x3e11689b	0.1420006
92	0x3cc4a13d	0.024002666
93	0x3b119f80	0.0022220314
94	0xbe1ff6ec	-0.15621537
95	0xbe1159a2	-0.14194348
96	0xbe281521	-0.1641431
97	0xbe3d4f48	-0.18487275
98	0xbe07b22c	-0.13251561
99	0xbcf6183c	-0.030040853
100	0xbe06208b	-0.13098352
101	0x3e11e1c7	0.14246283
102	0x3e4fa347	0.20277129
103	0x3de68ee0	0.1125772
104	0x3d585e95	0.052824575
105	0x3dbddcea	0.09270652
106	0x3ddc655c	0.1076152
107	0x3e4120be	0.18860146
108	0xbd04135e	-0.032245032
109	0xbdde90b6	-0.10867445
110	0xbe4c2d22	-0.19939092
111	0xbd4381ea	-0.047731318
112	0x3d8023b7	0.06256812
113	0xbd5a5550	-0.053304017
114	0x3dbe5e78	0.09295362
115	0xbdf7a0a9	-0.1209119
116	0x3dace612	0.0844232
117	0xbb36b69b	-0.0027879837
118	0x3dbc45af	0.091929786
119	0x3de8cb4e	0.11366902
120	0x3e455fda	0.19274846
121	0x3df60599	0.120127864
122	0x3db499d3	0.08818402
123	0xbc73fc96	-0.014891764
124	0xbddb7f58	-0.10717648
125	0xbdc75d37	-0.09734576
126	0xbdc48c3d	-0.09597061
127	0xbd08cfd0	-0.03340131
128	0xbdc06a1b	-0.09395238
129	0xbd04bbc0	-0.032405615
130	0x3e275745	0.16341884
131	0xbe06511b	-0.13116877
132	0xbca0e1e8	-0.01963897
133	0xbdf406f3	-0.11915388
134	0xbd82b042	-0.06381275
135	0xbdbd9596	-0.09257047
136	0x3db8affe	0.09017943
137	0xbd85ab9a	-0.06526871
138	0xbc62af40	-0.013835728
139	0xbdc61d77	-0.09673589
140	0xbe1ddca2	-0.15416196
141	0x3cb5c4b8	0.02218853
142	0xbd3b4a00	-0.04572487
143	0xbdce0b8c	-0.10060796
144	0xbe17532d	-0.14777823
145	0x3d530ee4	0.051527873
146	0x3cc67708	0.02422668
147	0x3dac06a6	0.083997056
148	0x3c1dbee0	0.009628028
149	0xbd03534c	-0.03206186
150	0xbe266d88	-0.1625272
151	0x3d17a5c0	0.037023306
152	0x3e192b03	0.14957814
153	0xbd8c61c9	-0.068545885
154	0x3e166f3b	0.14690869
155	0x3d1d533c	0.038409457
156	0xbe020a09	-0.1269914
157	0xbd8c40fe	-0.06848334
158	0xbe221d47	-0.15831481
159	0xbdca9939	-0.09892506
160	0xbdd10d9b	-0.10207673
161	0xbe0d3eac	-0.13793439
162	0xbca03210	-0.019555122
163	0x3dad12eb	0.08450874
164	0xbd7f4670	-0.062323034
165	0x3e3af976	0.18259224
166	0x3d56f397	0.0524784
167	0x3e062c78	0.13102901
168	0xbe2824a9	-0.16420235
169	0x3c1d00f7	0.00958275
170	0x3d112dde	0.035444133
171	0x3e3652bc	0.17804998
172	0xbd10d3db	-0.03535829
173	0xbda9f8e4	-0.08299425
174	0xbd833da3	-0.06408241
175	0x3d919f2f	0.0711044
176	0x3d8ed488	0.06974131
177	0xbca7ea0c	-0.020497344
178	0x3e1e886f	0.15481733
179	0x3d106ac9	0.03525809
180	0x3d19ff57	0.037597027
181	0x3d9d3039	0.07675213
182	0xbdb1a8cf	-0.08674776
183	0x3e28b319	0.1647457
184	0x3d98a8a0	0.07454038
185	0x3d59a485	0.053135414
186	0x3d841fc1	0.06451369
187	0xbdc52fe0	-0.09628272
188	0xbcbdc82c	-0.023166738
189	0xbd53e44a	-0.051731385
190	0xbe26b8f0	-0.16281486
191	0xbe1d1fce	-0.15344164
192	0xbecbcfb2	-0.39806896
193	0xbe4b4b23	-0.19852881
194	0x3e67855a	0.22609463
195	0x3c544ea2	0.012958201
196	0x3cc5beb3	0.024138784
197	0x3db540de	0.08850263
198	0x3e16838a	0.14698616
199	0x3d163d34	0.03667946
200	0xbe2f0020	-0.17089891
201	0x3e0875c8	0.1332618
202	0x3d7e3255	0.06205972
203	0x3cbe35e3	0.023219055
204	0xbda9c6ce	-0.08289872
205	0x3d14ca3d	0.036325682
206	0xbc64aa36	-0.013956597
207	0xbd2a4968	-0.041573912
208	0xbe26b482	-0.16279796
209	0xbdb11434	-0.086464316
210	0xbdb938ef	-0.09044062
211	0x3e19d671	0.15023209
212	0x3c7a5723	0.015279564
213	0x3d8f74b4	0.07004681
214	0x3dbcf645	0.0922666
215	0xbddf04ec	-0.10889611
216	0xbde14f7c	-0.110014886
217	0x3e2c663f	0.16835879
218	0x3da36423	0.07978084
219	0x3dcd15e9	0.10013945
220	0xbe3ef7ee	-0.18649265
221	0xbe044fb5	-0.12921031
222	0x3da81fa3	0.08209159
223	0x3ca9067a	0.020632971
224	0x3e286a26	0.16446742
225	0xbe079875	-0.13241751
226	0xbdd3c0d3	-0.10339513
227	0xbc712ff9	-0.01472091
228	0xbd8a0cdc	-0.06740734
229	0xbdc58321	-0.096441515
230	0x3c9dfb51	0.019284876
231	0x3d767969	0.06017438
232	0xbdedd285	-0.11612419
233	0x3dfc49b5	0.12318746
234	0x3db018ca	0.08598478
235	0x3e24b90f	0.16086219
236	0x3e1c1f0c	0.15246218
237	0xbcbf1d09	-0.023329275
238	0xbcdf891c	-0.027287059
239	0xbe5f969e	-0.218348
240	0x3e7f5cf3	0.24937801
241	0xbe163299	-0.14667739
242	0x3c977a9f	0.018491087
243	0x3c4eaa02	0.012613775
244	0x3e1f6a09	0.15567793
245	0x3e129870	0.14315963
246	0x3df4be9b	0.119504176
247	0x3e3512aa	0.17682901
248	0x3e043415	0.12910493
249	0xbd3df9ee	-0.04638093
250	0xbca9f897	-0.02074842
251	0xbe0344a2	-0.1281915
252	0x3df0a831	0.1175083
253	0xbe46e9c0	-0.19425106
254	0xbe0131c4	-0.1261664
255	0xbedf7c14	-0.43649352

decoder.2.bias f4 [64]
0	0x3e2bfdfb	0.16796105
1	0xbe2ac6ba	-0.1667737
2	0xbc42bef8	-0.011886351
3	0x3e588e67	0.21148072
4	0xbe0783b1	-0.1323383
5	0x3df09e32	0.11748923
6	0xbbe0fbe0	-0.0068659633
7	0x3dd8fcf4	0.10595122
8	0x3e10add3	0.14128809
9	0x3daef02a	0.085419014
10	0xbe03e8a8	-0.1288172
11	0xb9d9bfab	-0.0004153227
12	0x3d2f8f11	0.042861048
13	0xbc2a2fa6	-0.010387337
14	0x3e41ce49	0.18926348
15	0x3c00223b	0.007820661
16	0xbc9dbc58	-0.019254848
17	0x3c48bebe	0.012252508
18	0x3de058d7	0.10954445
19	0xbcbfcb39	-0.023412334
20	0xbc904dc2	-0.017615203
21	0xbd161fb1	-0.036651317
22	0xbd9771a1	-0.0739472
23	0xbe0f5353	-0.1399663
24	0x3cd19baf	0.025586931
25	0xbe35b120	-0.17743349
26	0xbd7de992	-0.061990328
27	0x3cba3ec8	0.022735015
28	0xbd98e07e	-0.074646935
29	0x3da75b17	0.08171671
30	0xbe08d041	-0.13360693
31	0xbdeabece	-0.11462174
32	0xbd866c56	-0.06563632
33	0x3de3f5ef	0.111308925
34	0x3d019c48	0.031643182
35	0xbd12f984	-0.035882488
36	0xbdb87734	-0.09007111
37	0x3e7eb668	0.2487427
38	0x3b5e9d22	0.003396817
39	0xbd52d788	-0.051475078
40	0x3cdd4c99	0.027014064
41	0xbe002d95	-0.12517388
42	0x3e679848	0.22616684
43	0xbdf0a370	-0.11749923
44	0x3e1d9be0	0.15391493
45	0xbe238bef	-0.15971349
46	0xbdabbca7	-0.08385592
47	0x3da54906	0.08070569
48	0x3e519cd8	0.20469987
49	0xbd0da0dc	-0.034577236
50	0xbdea1fef	-0.11431872
51	0xbe8f7675	-0.28020063
52	0xbb80e7b9	-0.0039338735
53	0xbb91afe0	-0.0044460148
54	0x3d89829a	0.067143634
55	0xbd38bd0a	-0.045102157
56	0x3c4bc8f8	0.012438051
57	0x3e23f57e	0.16011617
58	0x3c8c0cc6	0.017095935
59	0x3e1aed9e	0.15129706
60	0x3dbed219	0.09317417
61	0xbda5c5c1	-0.08094359
62	0xbd169b62	-0.03676928
63	0xbe053a7e	-0.13010594

decoder.4.weight f4 [128, 64]
0	0x3d48e94c	0.049050614
1	0xbdd7706a	-0.10519488
2	0xbda78986	-0.081805274
3	0x3ce44ac2	0.027867679
4	0x3de0a056	0.10968082
5	0xbd55c956	-0.052193962
6	0x3d26fa20	0.04076588
7	0xbac8a720	-0.0015308596
8	0xbcec4c9b	-0.028845122
9	0x3da9b2c1	0.08286048
10	0xbd7fa79f	-0.062415715
11	0x3d1f339b	0.038867574
12	0xbdfbc1ed	-0.12292848
13	0xbe2b4812	-0.16726711
14	0xbde7215a	-0.11285658
15	0xbc4070eb	-0.011745672
16	0x3d1ddef0	0.038542688
17	0xbdb0bf36	-0.086302206
18	0xbe0cb78b	-0.13741891
19	0x3cdbb891	0.026821407
20	0xbcb160c5	-0.021652589
21	0xbdae5f15	-0.08514229
22	0x3e14c321	0.14527561
23	0x3de8b0c8	0.11361843
24	0xbd9a26e2	-0.075269476
25	0xbd610a52	-0.054941483
26	0x3c08042b	0.008301775
27	0xbac7a900	-0.0015232861
28	0xbd526c43	-0.051372778
29	0xbcdaaf5b	-0.026694944
30	0xbd7fa7f3	-0.06241603
31	0x3d2059eb	0.039148252
32	0x3d457cac	0.0482146
33	0x3d3b493b	0.045724135
34	0xbd2fa021	-0.04287732
35	0x3d89e7e6	0.06733684
36	0xbd8a92e7	-0.06766301
37	0x3b1c76a8	0.0023874436
38	0xbbf40d28	-0.0074478574
39	0x3d815a1a	0.06316014
40	0x3b9ba8b2	0.0047503347
41	0x3c124e70	0.008929834
42	0x3b6a4491	0.0035746435
43	0xbe6e1df8	-0.2325362
44	0x3e048183	0.1294003
45	0xbc0ee2c4	-0.008721057
46	0x3df5a9d6	0.11995284
47	0x3d9286c8	0.07154614
48	0xbcdf9cc1	-0.027296426
49	0xbdcd17e7	-0.10014325
50	0xbdf3dc4c	-0.11907253
51	0xbe008030	-0.125489
52	0x3ddac20e	0.10681544
53	0x3d0226b4	0.03177519
54	0x3d972dfd	0.073818184
55	0xbd3fc0d9	-0.046814773
56	0x3d6a982a	0.05727402
57	0x3cefa1a2	0.029251877
58	0xbdd0070f	-0.10157596
59	0xbd516925	-0.051125664
60	0xbd94d52f	-0.07267224
61	0x3c281420	0.010258704
62	0xbdbd1b72	-0.092337504
63	0x3d4a581b	0.04940043
64	0x3d551080	0.05201769
65	0xbdef5284	-0.116856605
66	0xbd7dd3fc	-0.061969742
67	0x3d1b3812	0.03789527
68	0xbdda8c74	-0.106713206
69	0xbc92286b	-0.017841538
70	0xbdae0b5a	-0.08498259
71	0x3d87ce15	0.06631104
72	0xbe039bbc	-0.12852377
73	0x3dff9757	0.12480038
74	0xbc15a989	-0.009134659
75	0x3d9dceb2	0.077054396
76	0xbe6e449a	-0.23268357
77	0xbe6b2fae	-0.22967407
78	0xbe7c8777	-0.2466105
79	0xbebb3049	-0.36560276
80	0x3dc6b650	0.09702742
81	0x3cc14a2b	0.023594936
82	0xbe3892b3	-0.18024711
83	0x3bbc6468	0.005749274
84	0xbcb6f128	-0.02233179
85	0xbd96dca1	-0.073663004
86	0x3d790800	0.060798645
87	0xbd84c53a	-0.064829305
88	0x3df3758e	0.11887656
89	0xbe968779	-0.29400232
90	0x3cdb2e89	0.026755588
91	0xbdb1d5a0	-0.08683324
92	0xbd6eaf9c	-0.058272943
93	0xbdd66843	-0.10469105
94	0xbdd93bce	-0.1060711
95	0x3c1fa200	0.009743214
96	0xbb870d08	-0.0041214265
97	0x3e2cd4cb	0.16878049
98	0x3c8d4677	0.017245514
99	0xbcbd47b1	-0.023105474
100	0x3df4742e	0.11936222
101	0x3e302751	0.17202498
102	0x3e22a50a	0.1588327
103	0xbd439990	-0.04775387
104	0xbe393703	-0.18087392
105	0x3d388f04	0.045058265
106	0x3e31826b	0.17334907
107	0xbecc6107	-0.39917776
108	0xbdfe624d	-0.12421093
109	0xbe02a06a	-0.12756506
110	0x3d65d27c	0.056108937
111	0xbd223b4a	-0.039607324
112	0x3e15be99	0.14623488
113	0xbc8a29d5	-0.01686565
114	0xbe9afe8a	-0.30272323
115	0xbe81ad63	-0.25327596
116	0x3d5cf95f	0.053948756
117	0x3d0f5940	0.034997225
118	0xbe4c0003	-0.1992188
119	0x3bb703ca	0.0055851685
120	0xbf1202fe	-0.57035816
121	0x3e41e8cb	0.1893646
122	0xbd90e222	-0.070743814
123	0xbc152bc5	-0.009104674
124	0x3d029a99	0.031885717
125	0xbcb19b58	-0.021680519
126	0xbdf5b68f	-0.11997711
127	0x3db02510	0.08600819
128	0xbd8453e6	-0.06461315
129	0x3e4b6f39	0.19866647
130	0x3d7f2fd8	0.062301487
131	0xbb9b7c37	-0.004745032
132	0x3d154794	0.036445215
133	0x3d735f4d	0.059417058
134	0x3dddfd5f	0.10839342
135	0x3d28753b	0.041127425
136	0x3d7d0be7	0.06177893
137	0x3de7d925	0.11320714
138	0x3dae486f	0.08509909
139	0xbd6b397b	-0.057427865
140	0xbe62be98	-0.22143018
141	0xbdfa3480	-0.12217045
142	0x3dd949b3	0.1060976
143	0xbdc25ecb	-0.094907366
144	0xbd54e334	-0.05197449
145	0xbd82e56e	-0.063914165
146	0x3cbe5cdb	0.023237636
147	0x3dc3b7bf	0.09556531
148	0x3d2fa1d8	0.042878956
149	0xbdeb33d0	-0.11484492
150	0xbc2d981b	-0.010595347
151	0xbddce37c	-0.10785577
152	0xbc4461a0	-0.011986166
153	0xbdb9d52d	-0.09073863
154	0xbd17b40f	-0.03703695
155	0x3cb88e18	0.022528693
156	0xbd50c1c5	-0.050966043
157	0xbe350d6a	-0.17680898
158	0x3d63fc1f	0.055660363
159	0x3dd4308f	0.10360824
160	0x3c158777	0.009126536
161	0x3da94cc9	0.08266599
162	0x3d9fce31	0.07803
163	0x3d8914d6	0.06693427
164	0x3d2ef359	0.042712543
165	0x3d874d81	0.066065796
166	0x3e1ee87b	0.15518372
167	0xbb2d8500	-0.002647698
168	0xbd6ea5ad	-0.05826347
169	0x3d1792b4	0.03700514
170	0x3d0bf8cc	0.034172818
171	0xbd4e7ad1	-0.050410096
172	0x3c8e9b12	0.017407928
173	0x3c8c84e9	0.01715322
174	0xbdcd9ba6	-0.10039453
175	0x3d691497	0.0569044
176	0x3d39c155	0.04535039
177	0xbd89f980	-0.067370415
178	0x3d7ba721	0.061438683
179	0xbe2adf0a	-0.16686645
180	0x3d9d5d01	0.07683755
181	0x3dad105c	0.08450386
182	0xbd3a221b	-0.04544268
183	0x3b011983	0.0019699044
184	0xbd9f2fa6	-0.0777276
185	0xbde1b5ff	-0.11021041
186	0x3d69b1a3	0.057054173
187	0xbd5ecbcc	-0.054393575
188	0xbd0586e7	-0.032599356
189	0xbdb2edaa	-0.08736737
190	0xbdb517bd	-0.08842418
191	0xbdbcb710	-0.09214604
192	0x3b3b0d80	0.0028541982
193	0x3d80c558	0.0628764
194	0x3dc5bf74	0.096556574
195	0x3e109fc0	0.1412344
196	0x3d4e8a24	0.05042471
197	0x3e31c5e1	0.17360641
198	0xbc90c845	-0.017673621
199	0x3ebde665	0.3708984
200	0xbd00f627	-0.03148475
201	0xbddb679d	-0.10713122
202	0xbe72b78e	-0.23702833
203	0xbecafa14	-0.3964392
204	0xbf55302d	-0.83276635
205	0xbf9800ba	-1.1875222
206	0x3de2f45b	0.11081763
207	0xbf00807a	-0.5019604
208	0xbc2f52f0	-0.010700926
209	0xbeaa06eb	-0.33208403
210	0x3df0e7ac	0.11762938
211	0xbe3207e4	-0.17385823
212	0xbd64cb34	-0.055857852
213	0xbe9981f9	-0.29981974
214	0xbeccfb0e	-0.4003529
215	0xbdbbb8b0	-0.09166086
216	0xbec3056c	-0.38090074
217	0xbda7cc8e	-0.081933126
218	0x3dfcdbf1	0.12346638
219	0xba8e1e00	-0.0010842681
220	0xbd8c7190	-0.06857598
221	0xbe997d43	-0.2997838
222	0xbd5c557d	-0.053792465
223	0x3d50bb04	0.050959602
224	0xbde3574b	-0.11100634
225	0x3daa2433	0.08307686
226	0xbe72952c	-0.23689717
227	0xbaec0ef8	-0.0018009832
228	0x3d94e281	0.07269765
229	0x3e80128e	0.25014156
230	0xbe32f3db	-0.17475836
231	0x3cfd9858	0.030956432
232	0x3f154179	0.5830303
233	0xbdc934b0	-0.098245025
234	0x3c68291a	0.014169956
235	0xbf22bed7	-0.6357245
236	0xbe7a9623	-0.24471335
237	0xbf49186a	-0.7855288
238	0x3d667ba0	0.05627024
239	0xbddaeb83	-0.106894515
240	0xbd71a174	-0.058991864
241	0xbd85403c	-0.06506392
242	0x3ea1e41b	0.31619343
243	0xbebc4d89	-0.36777905
244	0xbdaedb8a	-0.085379675
245	0x3d30b0d4	0.043137386
246	0x3e464c4c	0.19365042
247	0xbe1725c7	-0.14760505
248	0xbf746271	-0.9546271
249	0x3e947024	0.28991807
250	0xbecc850c	-0.39945257
251	0x3daa28c2	0.08308555
252	0x3d886224	0.06659344
253	0x3d4593ec	0.048236772
254	0x3c71cd0c	0.01475836
255	0xbe146188	-0.1449033

decoder.4.bias f4 [128]
0	0x3e2010f1	0.15631463
1	0x3d97c94e	0.07411443
2	0xbd5d74a9	-0.054066334
3	0x3dd45f70	0.10369766
4	0x3dd1cc4d	0.102440454
5	0xbd2d56cc	-0.042319104
6	0x3e3b2d9f	0.18279122
7	0x3d2bcfa7	0.04194608
8	0x3d03e836	0.032203875
9	0xbd492aec	-0.0491132
10	0xbdd0c534	-0.101938635
11	0xbdc4cfc0	-0.09609938
12	0x3dd96b09	0.106161185
13	0xbcf7eef0	-0.030265301
14	0x3c9f39c0	0.019436717
15	0x3db67ec3	0.08910897
16	0x3d2ff284	0.04295589
17	0x3e144f65	0.14483412
18	0x3dd57ffa	0.104248
19	0x3cb474cc	0.02202835
20	0x3ded38ff	0.11583137
21	0xbd99314a	-0.07480104
22	0x3e02eea2	0.12786344
23	0x3e168bec	0.14701813
24	0xbcf73051	-0.030174406
25	0x3e29fef3	0.16601162
26	0x3d21e6ae	0.039526634
27	0xbd9a601c	-0.07537863
28	0xbda42a76	-0.08015911
29	0xbd24f3f8	-0.04027173
30	0xbd9a189d	-0.07524226
31	0xbd76cfd4	-0.060256794
32	0x3e12d290	0.14338136
33	0x3d8624ee	0.065500125
34	0x3e27a9ca	0.16373363
35	0x3d24483e	0.040107958
36	0xbdbeffe0	-0.09326148
37	0x3d0eded3	0.03488047
38	0xbc30d5f3	-0.010793197
39	0x3de5abe4	0.11214426
40	0x3da2315b	0.0791957
41	0x3e329b7d	0.17442127
42	0x3cc4521f	0.02396494
43	0x3d25dea3	0.040495526
44	0x3e06ff94	0.13183433
45	0x3c7e01c1	0.015503348
46	0x3c4b0350	0.0123909265
47	0x3e7fd765	0.2498451
48	0x3dd2b00a	0.10287483
49	0xbdbe97d4	-0.09306303
50	0x3df11f8d	0.11773596
51	0x3e1da5a2	0.15395215
52	0x3db98339	0.09058232
53	0xbd8c16da	-0.06840296
54	0x3e2bb1c2	0.16767028
55	0xbdc0b7c2	-0.09410049
56	0x3df95f6b	0.12176403
57	0xbc061411	-0.008183495
58	0xbc09dd03	-0.00841451
59	0xbdee0c05	-0.11623386
60	0x3d28cf23	0.041213166
61	0x3c872bd1	0.016500385
62	0x3cf4b498	0.02987127
63	0x3db2fb08	0.08739287
64	0x3e2d092b	0.16898029
65	0xbdf6c840	-0.120499134
66	0x3e1910fe	0.14947888
67	0xbd1f4bf1	-0.038890783
68	0xbc406cae	-0.011744661
69	0x3c23208b	0.009956489
70	0x3dbbb555	0.09165446
71	0x3ddf1406	0.10892491
72	0xbe013cf7	-0.12620912
73	0x3d8ed2e7	0.0697382
74	0xbdc671aa	-0.096896484
75	0x3d3e6325	0.04648127
76	0x3d5d57cc	0.054038808
77	0x3d705258	0.05867228
78	0x3da7d45d	0.08194802
79	0x3c0bf790	0.00854291
80	0xbd7280b2	-0.059204765
81	0xbde1a4fc	-0.110177964
82	0xbd7cc594	-0.061711863
83	0x3df4b288	0.11948115
84	0xbd14fb67	-0.03637257
85	0x3c2900ff	0.010315179
86	0x3d71e2cb	0.059054177
87	0x3e054aa8	0.1301676
88	0x3cb0a6eb	0.021563968
89	0x3e4130ee	0.18866321
90	0xbda080ce	-0.078370675
91	0xbd05f971	-0.03270859
92	0x3d84ada3	0.06478431
93	0x3e1b98b9	0.15194978
94	0x3e2e6157	0.1702932
95	0x3c44bd63	0.012008044
96	0xbd11cd11	-0.035595957
97	0xbd9dedc7	-0.07711368
98	0xbc057f38	-0.008148007
99	0xbd054461	-0.032535914
100	0xbe3112e3	-0.17292361
101	0x3e0ea5cb	0.13930432
102	0x3d463a60	0.048395514
103	0xbd271e24	-0.04080023
104	0x3d965704	0.07340816
105	0x3e2676bd	0.16256233
106	0x3e43109d	0.19049306
107	0x3e06e8a9	0.1317469
108	0x3d1f10ac	0.03883426
109	0x3d12b631	0.035818283
110	0x3e039c36	0.12852558
111	0x3d673876	0.05645033
112	0xbb8b361a	-0.004248393
113	0x3d878b2e	0.06618343
114	0x3e30e79d	0.17275853
115	0x3dbaa764	0.091139585
116	0xba95b627	-0.0011422083
117	0xbcd27801	-0.025691988
118	0x3b227967	0.00247916
119	0x3e0f5375	0.1399668
120	0x3dd4b486	0.103859946
121	0x3d500449	0.050785337
122	0x3e1875fd	0.14888759
123	0x3d89c8a6	0.06727724
124	0x3e085b17	0.13315998
125	0x3df5e3be	0.12006329
126	0x3e7f0f75	0.2490824
127	0x3e0adbbd	0.13560386
