Save_Models/model-lat15.pth (torch, 194550 bytes, 16 tensors)

encoder.0.weight f4 [128, 99]
00000000: 11c5 d13c a3a5 d63d ccff d8bc 341f 273d
00000010: c10b 41bc 3294 12bd bbe4 45bc 7e59 c03c
00000020: 61e7 cd3d 6e86 afbd 0072 bd3d 7d4a aa3c
00000030: 8164 a93d ccda b83d a39e 7c3d c550 8ebd
00000040: 3ea1 9f3c af34 86bd d1c8 bcbd 1c37 88bd
00000050: 8c2f 42bc bbfd 1b3d b02f 8f3d e4eb 873d
00000060: e7e7 433d ac1f ca3d 5103 9dbd 6b1d a1bc
00000070: 1eac 4ebd 24fc ca3c 915c d83d 6627 843c
00000080: e470 0dbd 9a01 a9bd 189f ee3d d8b5 683d
00000090: 3ab0 2c3d 4f21 943d 1f6c c53d 9f63 ca3d
000000a0: 3588 5e3d 0222 733d 94e1 7ebd 5ecd 55bd
000000b0: 992e a93d 319e b33d 3736 aebd d2c2 79bc
000000c0: 2909 9ebd 33c8 bd3d c709 6d3b c015 263d
000000d0: 1a81 7abd d1d6 91bd c302 afbd 2045 1f3d
000000e0: dbd1 d73c d79d 3c3b 04ff 9ebd 4de8 06bc
000000f0: 1535 43bd 5344 abbc 9fda 633d 562d a43d
00000100: fb1b db3a 7e08 b93c 563c 78bd 6df8 fd3b
00000110: d732 9b3d 5517 163d 0b6c 9f3c b1f0 a23d
00000120: a8ac cd3d d047 93bd 5d61 1f3c 4baf 96bd
00000130: 086c 4f3d 7f28 f1bc 9efc 903d d3f3 ee3c
00000140: ec1c cbbc 4ee5 d0bc c7c3 ef3c 99a6 e93d
00000150: f636 e7bb cb90 75bd b05e a23d a2ce 823d
00000160: b727 f13d 8de9 a23d 3c5b 30bd 3ebb 7fbc
00000170: 2cc1 963d d096 5cbd 36e0 ea3d 43cf a8bc
00000180: 46d5 2b3c e0ef aebc 0b4b 07bc b8f9 7fbd
00000190: 474a c8bd 09e0 ef3c ea76 c7bd 0079 843c
000001a0: 1245 143d c0e2 caba 980e cfbd 2a00 823d
000001b0: 5d9c 90bd 9197 653c e7f5 babd 3731 8bbd
000001c0: f625 073a 67d3 bbbd 1dbe 883c 4463 c0bc
000001d0: d7b9 8bbd 28b4 6bbd 124f e8bd 8e79 95bd
000001e0: 4d04 e1bd 3a0f 1c3d 9955 bfbd f898 f3bd
000001f0: 1943 2ebb 8bc5 363c 9100 0bbd 3d2f 243d
00000200: 7634 4b3a c27a dcbb c01c afbd f79c a33d
00000210: 49b1 e43b b34f 4abd bc09 89bd 044e ef3c
00000220: 5e21 bb3c bc67 3f3d 5246 07bd 9d7f edbd
00000230: 6df3 d5bd ffd4 423c 371b 203a c7ef b4bd
00000240: 953c 12bd 504f 98bc 76fb e6bd 2a9e b0bd
00000250: cfbb b7bc 8e15 b9bc edc4 a33d 2883 fc3c
00000260: 4625 393b b4de 22bd 87eb c3bc 6dca 5bbd
00000270: a63b f03c 1cbc b8bd b235 433d 61a1 cd3c
00000280: 3caf e53c a3fe 96bc 7b8a 2a3d 0d0a ad3d
00000290: e768 bd3d 14a7 53bd 7ce2 363d 89b4 eabb
000002a0: 5aa7 03bd 053f 533d b4a9 8a3c 4ead 89bd
000002b0: 9327 87bd 27b0 b13d 59fc 7ebd 05a1 80bd
000002c0: 3b75 7cbd 1c67 91bb cd75 babd 6738 2dbc
000002d0: b0fc e8bb 5b7e 89bd 5eba 453d 7dfa 9a3d
000002e0: cdad 48bd 3c4f 15ba 91f4 3bbd b7b7 a9bd
000002f0: f06a 26bd 88e3 81bb 81d1 a1bd 4354 93bc
00000300: d23b 4f3d 76c2 093d ed74 913d f3cc 12bd
00000310: 38ef b9bd 4e4b 903d 8e35 313d efec 143c
00000320: 4d5c ccbd 71f5 d2bc 9e05 c2bb 13c1 263c
00000330: eefa 763c cb9d eabc 9da0 8ebd a37c 1abd
00000340: d989 013d 6ffb b2bd 3116 383d 853c 8a3a
00000350: 083d 02bd 0594 d1bd cf2b 333d 3084 8dbd
00000360: 8737 f6bd 0695 d7bd 3cbe 97bd 6bf4 7d3d
00000370: 8138 87bd d8d3 a03d 8c10 893d b10e b0bd
00000380: ca09 183c 2e66 9e3d 8d1a b33c b5fd 6f3d
00000390: ecdf febc 3c45 5b3d 1f84 6fbd 226d d1bd
000003a0: 1053 023d c2ad 0a3c 8831 963d b914 06bc
000003b0: 87f6 9ebd 21ff 25bd a1e4 2bbd a7bd b2bd
000003c0: 81b4 e6bd 7fd5 e4bd 2852 e83c afb0 3c3d
000003d0: af4e c13c 857f a9bd e301 0d3b 8a92 30bd
000003e0: 9fdc 763c 94c8 39bc b8cd 473d 8dc1 d0bc
000003f0: 3b7f 913c d49c e8bd 15a6 e13c 9ed7 bebd
0.025606664 0.104808114 -0.026489161 0.040801242 -0.0117825875 -0.03578586 -0.012078459 0.023480173
0.10053898 -0.08570562 0.092502594 0.020787472 0.08271123 0.09026107 0.061674725 -0.06948999
0.019486066 -0.06553017 -0.0921799 -0.06651136 -0.011852156 0.038083773 0.069915175 0.066367894
0.04782858 0.09869322 -0.07666648 -0.019667348 -0.050457112 0.024778433 0.10564531 0.016132068
-0.03453149 -0.082522586 0.116514385 0.056814045 0.04216025 0.072329156 0.09639763 0.098822825
0.054329116 0.059358604 -0.062226847 -0.052197807 0.08260841 0.08770407 -0.085064344 -0.015244203
-0.07716591 0.092667006 0.0036169158 0.040548086 -0.061158277 -0.07121051 -0.08545449 0.038884282
0.026345184 0.0028780603 -0.07763484 -0.008234096 -0.047658045 -0.020906603 0.055628415 0.0801646
0.0016716713 0.022587057 -0.060604416 0.007750562 0.07578056 0.036643345 0.019460699 0.079560645
0.10042697 -0.071914315 0.009727803 -0.07357653 0.050640136 -0.029438255 0.07079433 0.029168999
-0.024794064 -0.025499966 0.029268159 0.11408729 -0.0070561124 -0.05995254 0.079282165 0.06387068
0.11775153 0.079547025 -0.043055758 -0.015608607 0.07361063 -0.053854764 0.11468546 -0.020606643
0.01048786 -0.021354616 -0.008257638 -0.06249401 -0.09779792 0.029281633 -0.09739478 0.016170979
0.036198683 -0.0015478954 -0.101102054 0.063476875 -0.07061074 0.014013187 -0.091289334 -0.06796496
0.0005155498 -0.09171181 0.016692216 -0.023484834 -0.068225555 -0.057544857 -0.113432065 -0.07298575
-0.109871484 0.03810046 -0.09342498 -0.11894411 -0.0026590286 0.011155496 -0.033936087 0.040084112
0.0007751653 -0.006728501 -0.085504055 0.07988923 0.006979142 -0.049392413 -0.0669131 0.029212005
0.02284306 0.04672979 -0.033026047 -0.11596606 -0.104468204 0.011891603 0.0006107571 -0.088347964
-0.035702307 -0.018592507 -0.11278431 -0.086239174 -0.022428421 -0.022593286 0.07996545 0.030824259
0.0028250976 -0.039763168 -0.02391602 -0.053659845 0.029325318 -0.09020254 0.04765863 0.025101366
0.02803766 -0.018431967 0.04163597 0.08449183 0.09248524 -0.05167301 0.044649586 -0.0071626347
-0.03214202 0.051573772 0.016926624 -0.06722508 -0.06599345 0.086761765 -0.062252376 -0.06280712
-0.061635237 -0.0044373404 -0.091045 -0.010572529 -0.007110201 -0.067135535 0.048273437 0.07567308
-0.048993874 -0.0005695706 -0.045887534 -0.08286994 -0.040629327 -0.0039638914 -0.07901288 -0.017984515
0.05059416 0.033632718 0.0710238 -0.035839986 -0.090788305 0.07045613 0.043263964 0.0090896925
-0.099785425 -0.025751801 -0.00592108 0.010177868 0.015074475 -0.028639695 -0.06964228 -0.03771652
0.031625602 -0.087393634 0.04494304 0.0010546601 -0.031796485 -0.102333106 0.04374295 -0.069099784
-0.1202231 -0.10526471 -0.07409331 0.062000673 -0.06602574 0.07852906 0.06692609 -0.08596552
0.009279678 0.07734333 0.021863246 0.058591563 -0.031112634 0.053532824 -0.05847561 -0.102258936
0.031817496 0.008464279 0.07333666 -0.008183652 -0.07761865 -0.040526513 -0.041966084 -0.087275796
-0.11264897 -0.11173534 0.028359488 0.046066936 0.02359709 -0.082762755 0.0021516017 -0.0431085
0.015067249 -0.011339325 0.048780173 -0.025482917 0.017760864 -0.113580376 0.027545014 -0.093184695

encoder.0.bias f4 [128]
00000000: b619 24be e602 2fbc 0c4b 00bd 3a67 2fbe
00000010: 061c 1fbe 15f6 83bd 150c 4cbe 77ec 6cbe
00000020: a1d3 8fbe 01db 86bd 5e19 19bd 1513 ebbd
00000030: 0089 0fbe e958 60be a58d 6dbe 62a4 14be
00000040: 112e 0fbe dcc1 3cbe ec5d e3be 4f8f 63be
00000050: 53f2 fdbb 4dae 37be 8c11 82bd 6e3c 1cbe
00000060: 320e 90be 131c c4bd 73bc 94bd 92f7 c63c
00000070: b264 b13d cb44 25be 64c9 44be f660 bbbc
00000080: 5184 c13d baf9 bd3d d203 d3bc e6ca 2ebd
00000090: 2913 c7bd d9df debd 87b3 82bd f86b 1ebe
000000a0: 5adb 81be 5562 12be 1457 2abe a115 20be
000000b0: dd7c 0ebe 5031 9abe 0d69 36be 35b0 24be
000000c0: b9f2 2cbd 6c18 eebb 6927 36be cfb3 aabd
000000d0: 10b6 59be 0a0d 7dbd 9150 12be fc1c 61bd
000000e0: 6500 08bd 1d4c 95be 31a3 64be a1f7 cebd
000000f0: 5505 00be 55e5 cb3c 6c77 b8bd 17a8 ddbd
00000100: 54f2 b4bd 2c92 12be 07aa 63bd 65a9 33be
00000110: 5fae c6bd 3fa6 0dbe 8019 0ebe a2ac a7bd
00000120: abb2 10be 1515 0ebe d862 42be 801c 84be
00000130: e7d0 88bd ad15 51be 8313 ebbd 147b 8c3c
00000140: 96b9 0abd e11e 3dbe 33f8 1abe 2469 5fbe
00000150: 2eb4 403e 3db6 503b 32f5 e43d 4832 65be
00000160: 3336 9cbc 8961 4fbe 7b64 2fbe 03ca 32be
00000170: e068 38be a49c 5cbe 9c03 6abe c207 b1bd
00000180: 2af6 243d 83d1 c1bd dbbe a1bc e2fd 39be
00000190: c333 81be 2cdc 13be 9cca f9bd 1686 83be
000001a0: 23f8 07be 69fd a9bd 1895 6fbe 621e 0dbe
000001b0: cfc9 d7bd 0f2b 0cbe ad0c 8abe f7e8 90be
000001c0: 71ba 453b 3be5 20be 6ede 93be c64a 85bc
000001d0: 67ec a7bc c661 4bbd 2576 53be a78b d0bd
000001e0: 98db 88be ae1c 4abe d385 c2bc 30b6 2fbd
000001f0: 75c3 57be 690f a1bd 4323 a6bd fed7 4bbd
-0.16025433 -0.010681843 -0.03132157 -0.17129222 -0.15538034 -0.06443421 -0.19926484 -0.23137079
-0.28091148 -0.065847404 -0.037377708 -0.11478249 -0.14017105 -0.21908917 -0.23198564 -0.14515832
-0.13982417 -0.18433326 -0.44407594 -0.22222637 -0.0077498346 -0.17937584 -0.06351003 -0.15257427
-0.2813583 -0.09575667 -0.07262506 0.024287973 0.08661784 -0.16139524 -0.1921745 -0.022873383
0.094490655 0.09276147 -0.025758658 -0.042673968 -0.097204514 -0.10882539 -0.063818984 -0.15470874
-0.25362664 -0.14295323 -0.1663478 -0.15633251 -0.13914819 -0.30115747 -0.17813511 -0.16082843
-0.042223666 -0.007266095 -0.17788471 -0.08335077 -0.21260858 -0.061780013 -0.14288546 -0.054959282
-0.0332035 -0.29159632 -0.22327878 -0.10105825 -0.12502034 0.024889627 -0.09007153 -0.10823076
-0.08835283 -0.14313573 -0.055582073 -0.17545088 -0.097012274 -0.13832949 -0.13876915 -0.08187224
-0.14130656 -0.1387523 -0.18983018 -0.25802994 -0.0668047 -0.20418425 -0.11478331 0.017148532
-0.033868395 -0.1846881 -0.15133743 -0.21817452 0.18818733 0.0031846904 0.1117958 -0.22382462
-0.019068813 -0.2025205 -0.17128174 -0.17459874 -0.18008757 -0.21544129 -0.2285294 -0.08644058
0.040273823 -0.09463789 -0.019744327 -0.18163255 -0.25234804 -0.14439458 -0.12196848 -0.25688237
-0.1327825 -0.08300287 -0.23396719 -0.13781121 -0.10536539 -0.136883 -0.26962796 -0.28302738
0.0030170942 -0.15712444 -0.28880638 -0.016271006 -0.020498468 -0.04965379 -0.20650537 -0.101828866
-0.26730037 -0.19737503 -0.023745453 -0.042898357 -0.21070655 -0.078642674 -0.081121944 -0.049766533

encoder.3.weight f4 [64, 128]
00000000: 5254 dd3d f421 d23d 2f26 123d fac3 c73d
00000010: a225 ee3c 3e03 77bd 7707 dcbc 5628 223d
00000020: eacc e83d af62 c93d a764 5dbd 1eca cdbb
00000030: 5b74 c33d ed45 173e 84ff e63a d552 b7bc
00000040: c9c7 c8bc ff38 c03d 5a37 573d 8870 6e3d
00000050: 18c3 873d 4413 ab3c 50b7 1ebd a4e4 03bd
00000060: 5cea 943d 2600 e13c 102d bc3c 0d2f 9a3c
00000070: cbd1 0ebd 7eb9 513d 6065 b03d 4611 9c3d
00000080: a8fe ad3d 2d5a 163d 89c3 903d 3a95 0bbd
00000090: d87a 4f3d a2d7 403c 3a0b 74bd 64c6 47bd
000000a0: bcaf f03d 5e90 c43d a668 bc3d 54cb 30bb
000000b0: 291e 0b3d 1ade 37bd 5c17 21bd 243c eb3c
000000c0: e9af bbbd fae5 adbd 1619 a93d 7f21 6dbc
000000d0: 4dc4 d839 7cf8 1abd c4b5 653d 92e5 ba3d
000000e0: 4948 513d c403 7c3d 9ec4 77bd 0937 0dbd
000000f0: 7d98 133d 6233 43be 0da0 833d a8a8 d33c
00000100: e4f7 33bd 0a54 773d a613 723c 8bae 10bd
00000110: dd1d 2b3d 5b3f 49bd 7e27 b03d fdfa 71bd
00000120: d774 edbc 42c8 aa3d b61c 813d 0cb3 0e3d
00000130: 12ec cd3d be8d 70bd 471b 71bd 7428 0a3d
00000140: 222d 4bbd ac1c d53d 2722 a0bd 8f9b 223c
00000150: 6aae 59bc cd86 9b3d f7a9 1dbe 7d40 d03a
00000160: 9802 453d 8e7c 123c 42d1 033e 8072 0bbd
00000170: cb62 09bd 7110 113c 4223 843d 3091 3a3c
00000180: dc2f 073c b66b 9c3b 397d 303d 3066 25bc
00000190: 4e8a 073e b285 50bd ad63 963d d0aa c53d
000001a0: c5d5 06bc c94d db3d 0807 893d 5ce2 d13d
000001b0: 415c c23b b0e5 a0bc 195d b73c bf23 113d
000001c0: 09df b83d 451d 4a3c e231 d0bc 1a86 6d3c
000001d0: f78c 9ebc 58b4 dd3c f3a7 04bd 6962 233d
000001e0: e4b8 323d f5e3 853d 9a88 073d df47 8b3d
000001f0: 11d3 c43d 8259 933d 1d0b fd3b 073f 2c3d
00000200: 8e14 993d 676e acbd 2c4a 873d fb40 033d
00000210: cee9 4a3d 8b6f 85bd 9323 bc3d 0544 863d
00000220: bc5b 81bc 7200 483d 31eb 25bd 65db 0abd
00000230: 03bc ea3a 7c12 aa3d 17d0 ab3d 0b4b ef3d
00000240: 79fe 513d 14a8 5dbd 5ab6 833d 4253 023d
00000250: 96da a5bd 81be 183d 29a8 bb3d 6e94 253d
00000260: 7ca6 87bd 094e b43d 75ab 6f3d 5ed4 f7bc
00000270: e429 93bd 0dc0 4b3d 1193 013b 4608 c63c
00000280: 0498 50bd f9bd 8bbd 6a64 693d 68c6 c3bc
00000290: b681 6b3d e9cf 8d3c 07a8 933d d59f 3c3d
000002a0: af3c ab3d 3684 953c abea 9f3d 3995 653c
000002b0: 21cf 09bd 4c8e eb3d 5430 863d fe9c b13d
000002c0: dd26 47bd 3667 16bd 9f3f 7b3d 8c4d 013d
000002d0: 1049 f43d 8399 f83a 7719 03bd 84ef ca3d
000002e0: e520 9d3d a337 9a3d 5be1 f73c 3e1e 1a3d
000002f0: 4c16 36bd d432 123d f21c 1cbc 0189 8e3c
00000300: 6a1b 0c3d 5853 99bc 6a1e 45bd a6d6 763d
00000310: 75d7 283d 3cc7 8d3c fc5e 183d 7f20 413d
00000320: 8e01 be3d c444 be3d f1c2 be3d 5aa8 a3bd
00000330: 563c 433d 070c 8f3d f8c0 833d e414 903d
00000340: 7099 aa3d eb74 60bd 6e7b 8b3d 526f 9c3d
00000350: 4310 8bbd 8b5e b73c 186a 133e e2c9 31bc
00000360: 4b2d 60bd 706e 8d3d e72e 623d 2a77 27bb
00000370: 03d5 78bd 1fa3 0c3d df47 cebc ab6a 72bd
00000380: 197d 243d f3a5 f73c 9db1 a4bd 12b1 39bd
00000390: 4f3c 9abc 2f54 393d eded cc3c 6d1c e7bc
000003a0: 7524 b3bc 2709 14bc 7014 c23d 0b55 913d
000003b0: ad95 86bd b164 cfbc 6363 3d3d c57b 8c3d
000003c0: 4d59 cbbd 195b 213c 6542 743c 65d5 bc3d
000003d0: d191 9e3d 9dd4 4e3d ec9e efba 3a2c 853d
000003e0: 4f83 8dbc 8311 e53c 769e 83bd b25e b13d
000003f0: 64dc 7f3d 98e6 84bb d8c4 1f3d 5b58 193d
0.108070984 0.10260382 0.035680946 0.097541764 0.02907068 -0.060305826 -0.026859028 0.03958925
0.11367209 0.098332755 -0.054051068 -0.0062801978 0.095436774 0.14772768 0.0017623757 -0.022378365
-0.024509327 0.09385871 0.05254302 0.058212787 0.06629008 0.02088321 -0.03874904 -0.03220047
0.07271263 0.027465891 0.022970706 0.018821264 -0.034868043 0.05120229 0.08613086 0.07620482
0.084958375 0.036707092 0.07068545 -0.03407786 0.050654262 0.011770161 -0.05958102 -0.048773184
0.11752269 0.09597848 0.091996476 -0.0026976662 0.03396431 -0.044889547 -0.039328918 0.0287152
-0.091644116 -0.0849113 0.08256738 -0.014473318 0.00041344986 -0.03783463 0.05608155 0.09125818
0.051094327 0.06152703 -0.060490243 -0.034476314 0.036034096 -0.1906257 0.06427012 0.025837258
-0.04393758 0.06038288 0.014775192 -0.035322707 0.041776527 -0.049132686 0.086012825 -0.05907725
-0.028986378 0.083389774 0.06304304 0.03483872 0.100547925 -0.058728926 -0.058863904 0.033729985
-0.04960359 0.10405859 -0.07819014 0.009924783 -0.013286212 0.075940706 -0.15396868 0.001588836
0.048098177 0.008940829 0.12872794 -0.034044743 -0.033541482 0.008854018 0.064520374 0.011387154
0.008251157 0.0047735823 0.04308817 -0.010095164 0.13236353 -0.05090875 0.073432304 0.096517205
-0.008229678 0.10708196 0.06690794 0.10248253 0.0059314077 -0.019640774 0.02238326 0.03543448
0.090269156 0.01233608 -0.025414411 0.014497304 -0.019354327 0.027063534 -0.03238673 0.039888773
0.043633357 0.0653762 0.033089258 0.06800818 0.0961057 0.07194807 0.007722272 0.042052295
0.074746236 -0.08419495 0.06605944 0.032044392 0.04953938 -0.06515416 0.09186473 0.065559424
-0.015790813 0.04882855 -0.0405075 -0.033900637 0.0017908815 0.08304307 0.08389299 0.11684235
0.051268075 -0.05411537 0.06431265 0.031817682 -0.080983326 0.037291054 0.091629334 0.040424757
-0.06623551 0.088039465 0.058513124 -0.030252632 -0.071857244 0.0497437 0.0019771496 0.024173867
-0.050926223 -0.06823344 0.056980528 -0.023898318 0.05749675 0.017311053 0.07209783 0.046050865
0.08361184 0.01825152 0.07808431 0.014012628 -0.0336448 0.1150175 0.065521866 0.08672522
-0.048621047 -0.036719523 0.06133997 0.031568095 0.11927998 0.0018966648 -0.032006707 0.09908965
0.0767229 0.07530143 0.030258825 0.037626497 -0.044454858 0.035693005 -0.0095283855 0.017399313
0.03420583 -0.0187165 -0.04812471 0.0602633 0.0412211 0.017306916 0.03719996 0.04715013
0.0927764 0.0929046 0.09314526 -0.07991095 0.047664963 0.06984716 0.0643329 0.070352346
0.08330047 -0.054799 0.06810652 0.0763842 -0.06790211 0.022383949 0.1439594 -0.010851355
-0.054730695 0.0690583 0.05522051 -0.0025553205 -0.06075002 0.034335252 -0.025180755 -0.059183758
0.040158365 0.030230498 -0.080416895 -0.045334883 -0.018827586 0.0452463 0.025015796 -0.028211797
-0.02186797 -0.009035385 0.094765544 0.07096299 -0.06571517 -0.025316568 0.04623736 0.06859545
-0.09929142 0.0098483795 0.014908408 0.09220389 0.07742656 0.050495733 -0.0018281615 0.06502576
-0.017274527 0.027962452 -0.064267084 0.0866064 0.06246604 -0.004055809 0.039006084 0.037437778

encoder.3.bias f4 [64]
00000000: d12c c33b 0e75 bfbd cf5e 6c3c 3f70 07be
00000010: d0a3 93be a064 063d ca76 e5bd 7750 46bd
00000020: eb8f b8bd 6d9b 0d3d 323a 97be 6e72 cebd
00000030: b671 f1bc 0114 15bd 33e8 dd3c 2de3 8cbd
00000040: 8e1a 02bd d3d5 a4bd 3fef eabd 6ab8 3dbd
00000050: f69a c43b 79c3 b7bc 192d c33b 7ffc 083d
00000060: 0cd5 49bd e961 ad3c 593a 84be 8687 be3d
00000070: 6f54 e2bd cc7c 27be 9ab5 05be 343e b2bd
00000080: 7570 f7bd a63c c93b eab1 50be 34f1 79bd
00000090: d46d 51be ef92 48bd e479 c5bd 3123 edbc
000000a0: 0b47 01bd 6bfc c5bd e1f0 1bbe ba9a 2e3d
000000b0: 20ed 83bd 3d9b 23be e29c bfbd ad98 53bd
000000c0: e47f 9bbd 20d1 97bd ee54 903d af08 9d3b
000000d0: 430d cabc de8e 4a3d 615e 79bd ab49 dbbd
000000e0: da3f 09be 88fc 753c d432 09be cf47 52bb
000000f0: 5983 5cbc 99de 4cbe ddd4 0ebe 98b7 5abe
0.0059562703 -0.09348498 0.014426901 -0.13226412 -0.28835917 0.032810807 -0.11204298 -0.04841658
-0.09011825 0.034572054 -0.29536587 -0.100804195 -0.029473167 -0.03639603 0.02708826 -0.06879268
-0.031763606 -0.08048596 -0.11471414 -0.04631845 0.005999918 -0.022432076 0.005956304 0.033443924
-0.049275443 0.021164851 -0.25825766 0.09303193 -0.11051261 -0.163562 -0.13057557 -0.087032706
-0.12081996 0.006141263 -0.20380369 -0.061021045 -0.20452052 -0.04896825 -0.096423894 -0.028947445
-0.031561892 -0.096672855 -0.15228607 0.042628027 -0.064417124 -0.15977187 -0.09356095 -0.051659275
-0.075927526 -0.07412934 0.07047449 0.004792295 -0.024664527 0.049452655 -0.060881022 -0.107074104
-0.13403264 0.015013821 -0.13398296 -0.0032086258 -0.01345905 -0.2000679 -0.13948388 -0.21359098

encoder.6.weight f4 [32, 64]
00000000: 8f39 0e3e bff9 f4bc 7529 3ebe dd1b c4bc
00000010: 1e26 fcbd d67b 373d 516f 16be 0349 f93c
00000020: 4edb 5d3d e8a9 023e c85f 2c3e 7ba1 2c3e
00000030: dae0 62be 1651 efbd 4551 b2bb ab9e 13bd
00000040: 5cfc 2bbd 2937 ff3c aa11 f5bd a8fe 883d
00000050: 3d77 a33d 7a91 a3bd d265 473c 276f efbc
00000060: a8ec b9bd d086 c0bd 30fe 163d 6a0f 3d3d
00000070: 2537 51bd 2499 0dbe 7b9b 1cbd 6327 aa3d
00000080: 7ac6 5b3d 9998 483d 8826 423d 35d8 5abe
00000090: f13c 973d f6e6 573c a176 593d a0cb 2abd
000000a0: b344 febc 0532 eebd e825 1dbc e4eb be3c
000000b0: 0745 c03d 3701 17be 703b 953c 5f64 1fbe
000000c0: 17de afbd c166 ea3c c9bf d6bd 7432 cfbd
000000d0: 49fd 273e 8ec2 1cbe cfdd 94bd ead2 cdbd
000000e0: d988 483d e43e 2c3d d013 dcbd f300 c73b
000000f0: 1749 053e 2b7e 253e 814a a3bc f316 a6bd
00000100: f8fa 7e3b fa88 62bd 84ae d1bd 6d82 5ebd
00000110: e629 2ebd 193f b43d 4125 56bd 25d9 f43d
00000120: 106b 82bc e4c4 c2bc 8760 e5bc 7fed 073d
00000130: 848c 6c3d 8925 043e 1668 c63d 6492 713d
00000140: c1de cd3c 7829 3c3e 1f1c 623d d187 80bd
00000150: 246d 7a3d fa2c 21bc 5b20 843c 4d65 c53c
00000160: 3131 6c3c 32e9 9f3d 2605 8bbe f9da 11be
00000170: 0a8a c23c 6ee2 cdbd cfb6 f93d fdbb 03bc
00000180: d95d f43d fec3 643d c260 7a3d 6e53 b5bd
00000190: ba09 0abd 43fa b2bc 6639 043d 82c2 1c3e
000001a0: f600 85bd d84d 9fbd 8a5a 8dba 5a0a 95bd
000001b0: ed80 8c3d 0bf0 23bd 4326 1d3d 33f8 cdbd
000001c0: cc0a 1f3c ca93 2d3e b8dd e7ba 39e8 a6bd
000001d0: 38e2 2ebc e83c 70bd be79 073d 78dd 863d
000001e0: 61bd b83d 2639 37bd b92d bcbd 5f46 9c3d
000001f0: c559 883d ba2f 083e 9872 0a3e 1f1e 5c3c
00000200: 77bd 49bc c558 b53d bbe5 973d df7c 89bd
00000210: 8cd0 1a3e 1519 3abc 3a7e b63d 45d4 09bb
00000220: dedc 0fbe 9996 52bc b1dc 9e3d 0b51 723d
00000230: e38e c63c fbfa f33d 5e54 28be 3d5e 9d3d
00000240: cc90 98bd 408e 00be 700d 4c3d f102 b33d
00000250: 0569 8bbc 8ee5 17bd 207a 03bd d394 e5bb
00000260: 2ac0 d73d 34a2 163d c7ca ee3d d724 bf3d
00000270: 7855 18bc 48c9 103e 0560 f43b 0d8d 90bb
00000280: f8a6 03be f17d 7bbd 5e9b f0bd 2b02 0e3e
00000290: fea0 393d 9091 7c3d 98db 643d 5058 b5bd
000002a0: 917c 9c3d b65c 4abb fdc5 893d e4fb 3d3d
000002b0: 8aa8 c53d a04c 9e3d eee8 79bd 0d38 78bc
000002c0: 3717 a93d 7813 12be 7cf8 c73d 067a c9bc
000002d0: f034 00bd 8390 74bd 9352 b53d fbce 87bd
000002e0: 3484 9bbd 6359 b4bd fd33 bc3c b57b 0fbe
000002f0: 5480 853d 72c3 063e 3f33 a5bd 3ea2 a73c
00000300: 35b2 193d 368d 1ebd f6fc 45bc 83f8 15be
00000310: 7f24 fdbd 11a9 2ebe f238 e53d 5eae 97bd
00000320: f1bd 16bc ceb5 37be 0252 e73c bcd1 dc3c
00000330: 0cf8 123e 3c25 a23d f959 8bbd 9d0e 55bd
00000340: 2b80 803b 526d c2bd d4d3 8d3d 193f 24bc
00000350: f636 82bd 9af0 d1bd 6170 e53d 8211 9a3c
00000360: a02d bb3c b097 a6bd 523c 28bd 02b3 873d
00000370: 3a2b 2fbc 0606 933d 66e7 aa3d d1c3 8ebd
00000380: 4020 64bd d36d 9fbd 815f ffbd ec3a 55bd
00000390: c2da 45bd 8c17 833d 03b4 da3d 789b 2fbe
000003a0: c8b5 8abd 02ca 8bbd de90 bc3d 5bb5 963c
000003b0: 63d2 ca3d e504 ed3d 1e60 52bd e377 a33c
000003c0: 04b6 cb3d 21b7 33bd 6672 d33b ff7f 4b3d
000003d0: e952 8d3d 6e31 1ebd 0afc aebd 4da3 1e3e
000003e0: 631a fe3d a124 45be 27eb bf3d 1560 3d3a
000003f0: 5298 2b3d fc4d a73d b3a0 28be f9ab ca3b
0.13889144 -0.029904244 -0.18570502 -0.023939067 -0.12311958 0.044795834 -0.14690901 0.030430323
0.054164223 0.12760127 0.16833413 0.16858475 -0.22156087 -0.11685388 -0.005441817 -0.03603999
-0.041988716 0.031154232 -0.1196626 0.06689197 0.07981727 -0.07986732 0.012170272 -0.029227806
-0.09078342 -0.094007134 0.036863506 0.046157278 -0.05107798 -0.1382795 -0.038234215 0.08308294
0.05365608 0.048973653 0.047400028 -0.21371539 0.073846705 0.013177624 0.05309165 -0.0416981
-0.031038618 -0.11630634 -0.009591557 0.02330584 0.09388166 -0.14746557 0.018216819 -0.15565632
-0.08587282 0.02861345 -0.10485799 -0.10117045 0.16405214 -0.15308592 -0.07268869 -0.10049994
0.048958633 0.042052165 -0.107459664 0.006073111 0.13016163 0.1616141 -0.019932987 -0.08109846
0.0038906913 -0.055306412 -0.10238364 -0.054323602 -0.042520426 0.088010974 -0.05228162 0.119554795
-0.015920192 -0.023775525 -0.02800013 0.03318548 0.057751194 0.12904944 0.096878216 0.0589775
0.025130631 0.18375194 0.0552026 -0.06275905 0.06113924 -0.009837383 0.01612871 0.024096156
0.014416025 0.0780815 -0.27152365 -0.14243688 0.023747463 -0.10052954 0.12193071 -0.008040425
0.119319625 0.055850975 0.06112743 -0.088538036 -0.033700682 -0.02184785 0.032281302 0.15308574
-0.06494324 -0.077785194 -0.0010784429 -0.07277365 0.06860528 -0.040023845 0.038366567 -0.10057106
0.009707164 0.16950908 -0.0017689979 -0.08149762 -0.010674052 -0.058651835 0.033075087 0.065852106
0.09020496 -0.044732235 -0.091884084 0.0763061 0.06657747 0.13299456 0.13520277 0.013434916
-0.012313238 0.08854822 0.074168645 -0.067132704 0.15118617 -0.011358519 0.089107946 -0.0021031064
-0.14049098 -0.012853288 0.07756937 0.05915932 0.024238056 0.11913105 -0.16438434 0.0768399
-0.07449493 -0.12554264 0.049817502 0.087407954 -0.01701785 -0.037084155 -0.03209889 -0.0070062666
0.10534699 0.036775783 0.116597705 0.093331985 -0.009297721 0.14139283 0.0074577355 -0.004411346
-0.12856662 -0.061399404 -0.11748384 0.13868015 0.04531955 0.061662257 0.055873483 -0.08854735
0.07640947 -0.0030878014 0.067272164 0.0463828 0.09651287 0.07729459 -0.061013155 -0.015150082
0.08256381 -0.14265239 0.097641915 -0.024594318 -0.031300485 -0.05970813 0.088536404 -0.06631275
-0.07593575 -0.08806112 0.022974009 -0.14012034 0.06518617 0.13160494 -0.08066415 0.020463105
0.037523467 -0.038708888 -0.012084236 -0.14645581 -0.12360477 -0.17056681 0.11192502 -0.07406305
-0.009200559 -0.17940447 0.028237347 0.026955478 0.14352435 0.07917258 -0.0680427 -0.05201589
0.003921529 -0.094935074 0.06925169 -0.010024809 -0.06358139 -0.10250969 0.11203075 0.018807177
0.022848904 -0.08134401 -0.04107315 0.0662594 -0.010691458 0.07178883 0.08344917 -0.06970943
-0.05569482 -0.07784619 -0.12469388 -0.052058145 -0.048304327 0.064009756 0.10678866 -0.1714915
-0.06772953 -0.06825639 0.09207319 0.018397024 0.09903409 0.11573199 -0.051361196 0.019954627
0.09946826 -0.043875817 0.0064528463 0.049682613 0.069005795 -0.03862136 -0.085441664 0.15491982
0.124073766 -0.19252254 0.093710236 0.0007224095 0.04189331 0.08169171 -0.16467552 0.0061850515

encoder.6.bias f4 [32]
00000000: 921c 5fbd 66b2 afbd c6f1 3dbe b7af a03d
00000010: eece 64be e829 b03d d029 c9bd 7348 833d
00000020: 2bd1 a13d fdea 7ebd 2d4f 83bb d08d 17bd
00000030: bed7 213d 8b5f 5fbd eb42 cfbd 2096 c4ba
00000040: e70d cd3d 837b e5bd 35b3 a5bd 9ac3 db3d
00000050: c2b8 9abd 05d4 9abd 62b3 25bd f993 c03d
00000060: 4d85 f53d 9fa5 73bd 3cdd 44be 6213 89bd
00000070: 1c0e e9bc 0278 bebd 20a0 e53d 49fa 643c
-0.054470606 -0.08578949 -0.1854926 0.07846015 -0.22344562 0.08601743 -0.09822428 0.06410303
0.07901224 -0.06223582 -0.004007241 -0.037000477 0.03951239 -0.054534476 -0.101201855 -0.0014998354
0.10012417 -0.112051986 -0.08090822 0.107306674 -0.07554771 -0.07559971 -0.040454276 0.094032235
0.11988316 -0.05948412 -0.19225019 -0.0669315 -0.02844911 -0.093002334 0.11212182 0.013975688

encoder.9.weight f4 [15, 32]
00000000: 923a 67be 23fb c93d fbf5 843d 459c 98bc
00000010: ed48 283e 2085 233c e689 edbd 2122 ab3d
00000020: 47ff d2bd 1b96 e4bd 02b9 15bd 15f4 1d3e
00000030: bd18 0abe c9bf d83d 8895 2e3d b8c9 f73d
00000040: 0bb6 f6bd ceb8 353e 2a7a 93bd 5b05 1d3e
00000050: b03c 52bd 62ef ce3b ea89 de3b 47f7 bd3d
00000060: d60a d5bd 0a23 90bd e4ed 183d 980a 523d
00000070: 95e4 2f3e 75ce 233d 27e8 813d b3be ecbc
00000080: 1817 e7bd 06bd 163e 3323 39bd ec33 e9bd
00000090: 5029 7c3e 9d56 1b3e a171 eb3c 318e bcbd
000000a0: e567 11be ff10 003e e997 4c3d 36d9 10bd
000000b0: 85b7 e1bd 7e00 2f3e 4bed 5bbe 5bf3 393e
000000c0: 2670 febc b662 2b3e 5dfe ea3c af85 ec3c
000000d0: 00c5 5abb 8846 903d afd1 ae3d a0de 783e
000000e0: b79c ab3d 2c35 16bc 9735 8c3c 36d1 46bd
000000f0: a19a 11be b396 113e 3ed3 76bd a9bc ee3c
00000100: d4f5 12b9 b86b 793c 28b5 2fbe 8234 9cbc
00000110: 0aec cb3d 4c16 adba a2bd f23d 7ef9 253e
00000120: 9c30 903d 77e2 b53d f612 163d a7da 083e
00000130: 2b73 bf3d a0f2 7639 9fa7 c73d db28 75bd
00000140: e95c fabd 6011 7bbd 5809 3ebb 8986 debc
00000150: fb37 873c 6a48 443c 070b adbb 0a07 563e
00000160: ce3c 3b3e 8b6f 94bb e42a 0dbd 70d2 ebbc
00000170: c9e8 613c 62b8 03be d09a e33d 3bfb 11be
00000180: 6563 89bd 1983 38be 1dd5 093d bbaf 123d
00000190: ec46 23be 9b29 a6ba 392d 4cbd 58d5 413d
000001a0: e1da 553e 3a60 3cbe d8ba f4bd 27b6 f7bd
000001b0: e82e c0bc 7ec0 9abb 28d3 353e ea38 77bc
000001c0: 0cf7 a2bd a9ae 9a3c e36f 9e3c 364b 13be
000001d0: cce3 04be 4356 ea3d 8356 213e e690 013e
000001e0: bdb2 e0bd e284 353e f161 e63d f698 00bd
000001f0: bf20 ab3c 17d1 04be c380 b23d 1575 1dbc
00000200: 8083 0fbe f66a 073e b3a0 2b3e 1e0d cdbd
00000210: 698b b4bd 70a7 723d 8ba7 1dbe 508e 6cbd
00000220: b37c 823e 7437 8abd bcfa 063d 267a 3ebe
00000230: e8ac 1b3e 4a19 6a3c cf12 9a3d 2ee7 acbc
00000240: 6364 283d 348b b43b 01c6 f3bd 54c7 1a3d
00000250: 9fa4 e8bd c1fb dfbd 476d 373c 6c92 0e3e
00000260: 0c7b dabd c133 6abe dc2a 4ebe 9fe3 9cbd
00000270: e61c 603c 0ed7 ae3b c895 90bd 6a4e 9a3b
00000280: bde3 14bc 1e66 bebd 61a4 c83d 6fee 9dbd
00000290: dad7 803c 6252 edbd 8398 e5bd b395 143e
000002a0: 90b5 7bbd a86e e8bd ecd6 d63d 3877 b13d
000002b0: 182c a13d b4f3 893e 47cd 3b3e cf4c abbd
000002c0: 1b2f e0bd a1d0 c2bc 9da9 3dbd 0c4f bf3d
000002d0: 13ee 4b3d e386 55bd 8059 e43d f767 063e
000002e0: ec88 ee3c 7017 223e f8fa 6fbe 98bd 9fbd
000002f0: d104 63bd bdb3 88bd 055f 1dbe 218c 143e
00000300: e3f2 5c3d b20a 0abd 62ce 753d 0b2f 323e
00000310: 7542 15bd 770c 633d 3a31 29be 9eb7 f13d
00000320: a8a1 eabd 006c 02bd e1ec bfbd c011 b3bd
00000330: 4299 acbd c5b6 ad3d 0788 203e d7a5 b23b
00000340: fb52 c6bb cb55 b43d 175d 3fbe 6ce4 e8bd
00000350: 9815 bdbd a928 ef3c 5a9a f33d 2f66 333e
00000360: 397d 353d 25c6 243e e4b0 b1bc a17e f3bd
00000370: 8fef 80bc 27fe f13d e2c0 8d3d 5d5a cbbd
00000380: b627 40be 0bb4 413e db52 8a3d 168d 283e
00000390: 024c 653c dc06 5cbe 1aa6 083d f2c2 52bd
000003a0: 72cc 96bd 0698 ee3d b615 a8bd acef 803d
000003b0: 58fb bdbd dc76 8fbc da52 e5bb 6ec6 7bbd
000003c0: bd94 a5bd 9b7d 193c 9d45 0c3d b89e 193e
000003d0: 2b0c 713d 40b8 81bc 9ea8 0dbd 5e80 d53d
000003e0: 49c9 19be 51ef 183e c1db 2abe 7095 0b3d
000003f0: cd2d 3b3e a682 733c 578a 5f3e 5609 cbbc
-0.22580937 0.09862354 0.064922296 -0.018629203 0.16434069 0.00998047 -0.11598568 0.08356119
-0.103025965 -0.11161443 -0.03655339 0.15425141 -0.13486 0.10583455 0.042623073 0.12099022
-0.12046441 0.17746279 -0.07201035 0.15334074 -0.051327407 0.0063151577 0.006791343 0.0927568
-0.104024574 -0.07037933 0.037336245 0.051279634 0.17177041 0.039991815 0.06343108 -0.028899526
-0.11283702 0.14720544 -0.045199584 -0.113868564 0.24625134 0.15169759 0.028740706 -0.09206808
-0.14199789 0.12506483 0.04994956 -0.0353634 -0.11021332 0.17090032 -0.21477239 0.18159239
-0.031059336 0.16736874 0.028685743 0.028872339 -0.0033381581 0.07044703 0.08536088 0.24303675
0.083795 -0.009167951 0.017115397 -0.048539363 -0.14219142 0.14217643 -0.06026005 0.029142695
-0.00014015223 0.015223436 -0.1715895 -0.019068006 0.0995713 -0.0013205498 0.11852576 0.16208455
0.070405215 0.08881085 0.036639176 0.13364659 0.093481384 0.00023550773 0.09748768 -0.059853416
-0.122247525 -0.061295867 -0.0028997269 -0.02716376 0.016506186 0.0119801555 -0.0052808556 0.20901123
0.18284914 -0.0045298985 -0.03446473 -0.028786868 0.01378841 -0.12863305 0.111135125 -0.14255993
-0.06708411 -0.1801876 0.033650506 0.03581212 -0.15945023 -0.0012677194 -0.049847815 0.0473226
0.20884277 -0.18396083 -0.119497 -0.1209529 -0.023459867 -0.004722654 0.17756331 -0.015089253
-0.07957277 0.018882113 0.019340461 -0.1438416 -0.12977523 0.11442234 0.15755658 0.1265293
-0.109715916 0.17726472 0.112491496 -0.031395875 0.020889638 -0.12970386 0.087159656 -0.009610434
-0.14015007 0.13224396 0.1676052 -0.100122675 -0.08815653 0.059241712 -0.15395944 -0.057752907
0.25485763 -0.06748858 0.032953963 -0.18601283 0.15202677 0.014288256 0.07523119 -0.021106329
0.04111136 0.0055097584 -0.119030006 0.03778775 -0.11359524 -0.1093669 0.011195487 0.13923043
-0.106680006 -0.22871305 -0.20133537 -0.07660603 0.013678765 0.005335695 -0.070598185 0.0047090547
-0.0090875 -0.09296821 0.09796978 -0.07711493 0.015727926 -0.11587979 -0.1121073 0.1451023
-0.06145245 -0.11349231 0.10490212 0.08665317 0.07869738 0.26943743 0.18340026 -0.083642595
-0.10946485 -0.023781123 -0.046304334 0.09341249 0.049787592 -0.05213059 0.11149883 0.13125597
0.029118024 0.15829253 -0.2343558 -0.07799834 -0.055424515 -0.06674907 -0.15368278 0.1450658
0.053942572 -0.033701606 0.060011275 0.17400758 -0.03644033 0.05543181 -0.16522685 0.118026
-0.11456615 -0.031841278 -0.09371353 -0.0874362 -0.08427669 0.08482126 0.1567689 0.0054518986
-0.0060523725 0.08805426 -0.18687855 -0.11371693 -0.09232634 0.029194193 0.118946746 0.17519449
0.044308875 0.16091211 -0.021690793 -0.11889387 -0.01573923 0.11816054 0.06921555 -0.09929345
-0.18765149 0.18916337 0.06754085 0.1646007 0.013995172 -0.21486992 0.03336153 -0.051455446
-0.073632136 0.1165009 -0.08207266 0.06295714 -0.09276456 -0.017512731 -0.006998402 -0.061468534
-0.0808501 0.009368326 0.034246076 0.15001953 0.058849495 -0.015834928 -0.034584634 0.10424875
-0.1501819 0.14935042 -0.16685392 0.03407806 0.1827919 0.014862692 0.21830116 -0.024784725

encoder.9.bias f4 [15]
00000000: e8a8 b63c 350e ca3b c21e 74bd 81e8 97bc
00000010: 2215 143d dffa 97bd b764 99bd 200d 223e
00000020: 4b10 4b38 6556 c1bd 94e6 bbbd 57a5 88bd
00000030: d34b c0bc 59a0 013d 0ce0 6cbe
0.022297338 0.0061662444 -0.059599645 -0.018543484 0.036152966 -0.07420897 -0.07489913 0.1582532
4.8414146e-05 -0.094403066 -0.09174839 -0.06672161 -0.023473656 0.03164706 -0.23132342

decoder.0.weight f4 [32, 15]
00000000: 11b2 7cbe 1dda 543e 0d9e 8b3e c7f7 233d
00000010: 458b 4fbe 624b 0c3d aa2c 64be b5cf 4ebe
00000020: e1b3 2abd 9669 823e d0c4 543e 7533 303e
00000030: 2c2a 083b bfa7 973d 0bfa e13c c692 a33d
00000040: dc56 1fbd a868 9b3b 1feb 6c3e 02d7 3abe
00000050: e144 323e 7547 1fbe de83 d73d 00c3 2b3e
00000060: 7fac 143e b941 1e3d 4b61 273c 009f 5fbe
00000070: b8f6 dc3d 3b21 2ebd ee95 fc3d ec97 8c3c
00000080: e99d be3d 0678 643e d1f3 3d3e 567b 40bd
00000090: 6cac 1bbd 1a90 013e 26f6 42be f037 91bd
000000a0: ec8b 533e f195 0d3e b6cd ae3d 5b97 0cbd
000000b0: 441e 903d 1f8d 543e 9801 843d 972f aabe
000000c0: 8be7 2d3e 9b23 b9bd 109a b6bd 9f64 603d
000000d0: dca2 94be 6435 73bd aa53 be3d b0ef 653d
000000e0: 458a 99be 06f3 413e 3d4b 5ebe 4d62 413d
000000f0: 7131 993e 5005 1dbe ef8c 113e d191 843e
00000100: eef5 8fbe f0cb 123e dabc 9bbd 6aa0 8dbd
00000110: f093 37be 6498 633e 3ff7 283e fa2d 0d3e
00000120: 9542 7e3c a488 2dbe 7551 0e3e 40fb 24be
00000130: 5c68 05be 2406 45be 1675 43be 1c4d 64be
00000140: 54aa 133e e795 963d 29d8 1dbe 0865 61be
00000150: 6e1d 1fbe 6102 67be 2bf5 27be ed46 983d
00000160: 18d2 e33c 3808 56be c848 773e 2a44 89be
00000170: 1a40 103e c56d 18bc 8de0 1d3d f033 833e
00000180: a183 643e f80c 61be a905 253e 0269 7d3d
00000190: 2f9a 43bd 2404 cabd 5d9d dcbd c9f7 ce3c
000001a0: e1a1 ae3d 2330 0cbe 81b0 44bd 48af 1c3e
000001b0: 9616 b6bd 7604 88bd b46b c53d 13aa 203e
000001c0: 1d15 d3bd 51f2 a63d 271e fcbc c01e 84be
000001d0: a278 e8bd 372c 443e 326b afbd be1a 433b
000001e0: e0d0 503e f195 43be b18a c3bc 2b81 81be
000001f0: 7a29 93bd 9718 efbd e0a5 6bbd b6fa 32bd
00000200: c258 74bd b722 0fbd 8e8e 0dbe 2319 203e
00000210: b5d0 ac3c 640f 43bd 006d 86be 5df4 50be
00000220: 63aa 0d3e e9b0 40bd 1cc9 fabd 6d5f 7c3e
00000230: 5426 32be 535a 663e ae8c 1bbe 580a 413e
00000240: 6f3e bfbd 965b 27bc 8c10 193e 5406 d83d
00000250: 5aad f2bc 1cf2 463e 6c36 013e 56a7 ca3c
00000260: 59cc 85be de53 e0bd 913e d6bd 364f b0be
00000270: 68cb 173e 3c5f 713e 21b6 37be 5ab0 523e
00000280: d0e7 56bd 328b 51be ad52 413e 0f59 13be
00000290: 851a a2bc e2cd 94bd 7bdf 403e b076 0abe
000002a0: 2273 87be 1692 f13d a4c7 403e 5f08 653e
000002b0: fd14 6bbe de6a b0bc 1efd 173e b09f 333d
000002c0: 2b42 5fbe b69e 58be 2bd2 e4bd 550a 50bc
000002d0: 60b4 e63d d8f6 cb3d 9e6b 05be f382 603e
000002e0: da4b a33d ed59 aabd ba74 f63c 71c1 0a3e
000002f0: 6abf 6ebd 4419 41be 844d d33d 2abe 093e
00000300: 378f 113d d6ef a23d a2f5 393e 755b 203e
00000310: a581 643e 994c 96bd 2933 b2ba 5657 7b3e
00000320: 5833 db3d fac2 95be 0b56 213c 93d1 163e
00000330: c150 63bd 10b1 c0bd 0644 5a3e 1aa2 5f3e
00000340: 67ac 8abc c796 74bd a56a e93d 7fe4 f1bd
00000350: 2f11 20bc 4621 333e fabf 2abe 9bb8 173e
00000360: bd14 2e3e 1b09 613e ef51 43be 9151 88be
00000370: a410 28bd 371c df3c efe8 043e 0188 e13d
00000380: 03af 2cbe d13a b43d 1581 673e 10c3 ecbb
00000390: e9c6 6abd 0aa7 2d3e f714 7bbc 49dc 04bd
000003a0: a740 24be 6082 02bd 0a88 2abd 11cf 1cbe
000003b0: d29a 97bc d7e1 0b3e e5b2 553e b56e 04be
000003c0: 60e5 a7bd 28c2 333e 51a5 843d af60 fb3d
000003d0: 5277 cb3d f204 433e 6404 f5bd 80af 1ebe
000003e0: 0b84 5d3d 23f0 113d 93fc 393e 5594 3cbe
000003f0: 7bac c93d 644e b5bd 1292 6abe 4dd1 63be
-0.24677302 0.20786329 0.2726902 0.04003122 -0.20267971 0.03425158 -0.22282663 -0.20196421
-0.041675452 0.2547118 0.20778203 0.1720713 0.002077709 0.07405042 0.02758505 0.07986979
-0.038901195 0.0047427006 0.23136567 -0.18246081 0.17409088 -0.15554602 0.105231985 0.16773605
0.14518927 0.038636897 0.010216068 -0.21837997 0.10789245 -0.04251216 0.12333284 0.017162286
0.09307463 0.2231141 0.1855004 -0.046992622 -0.03800623 0.12652627 -0.1903921 -0.07090747
0.20658845 0.1382673 0.0853533 -0.03432403 0.07037023 0.20756958 0.064456165 -0.33239433
0.16982858 -0.09039994 -0.08916104 0.05478346 -0.29030502 -0.05937709 0.092933014 0.056136787
-0.29988304 0.18940362 -0.21708389 0.047212888 0.29920533 -0.15334058 0.14213918 0.258925
-0.28117317 0.14335608 -0.0760438 -0.06915362 -0.17927527 0.22226101 0.16500567 0.1378707
0.015518804 -0.16946656 0.13898261 -0.1611147 -0.13028091 -0.19240624 -0.19087633 -0.2229504
0.14420444 0.0735281 -0.1541449 -0.22011197 -0.1553857 -0.22559501 -0.16402118 0.07435403
0.027810141 -0.20901573 0.24148858 -0.26809818 0.14086953 -0.009303515 0.038544226 0.25625563
0.22315837 -0.21977603 0.1611544 0.06186772 -0.047754463 -0.09864071 -0.10772202 0.025264638
0.0852697 -0.13690238 -0.04801989 0.1530124 -0.08891027 -0.06641476 0.09639683 0.15689878
-0.103067614 0.08151687 -0.030776097 -0.2580471 -0.11351134 0.19157492 -0.08565368 0.0029770578
0.2039218 -0.19100167 -0.023869844 -0.2529386 -0.071856454 -0.11674612 -0.057531238 -0.043696128
-0.05965496 -0.034945216 -0.13823912 0.15634589 0.021095613 -0.0476221 -0.26255035 -0.20405717
0.13834529 -0.047043715 -0.1224539 0.24645777 -0.17397434 0.22495393 -0.15190384 0.18851602
-0.0933808 -0.010214707 0.14947718 0.10548082 -0.029623676 0.19428295 0.12618417 0.024737995
-0.26132467 -0.109534964 -0.10461152 -0.34435433 0.14823687 0.23571485 -0.1794057 0.20575085
-0.052467167 -0.20463255 0.18879195 -0.14389442 -0.019788036 -0.072658315 0.18835251 -0.13521838
-0.26455027 0.11795442 0.18826157 0.22366475 -0.22957225 -0.021535333 0.1484265 0.04385346
-0.21802585 -0.21154293 -0.11172899 -0.012697776 0.112648726 0.09959191 -0.13029334 0.21924953
0.07973452 -0.08317933 0.030084956 0.13550355 -0.058288015 -0.18857294 0.10317519 0.13451448
0.03553697 0.07955901 0.18160108 0.15659888 0.2231508 -0.073388286 -0.0013595569 0.24545035
0.107031524 -0.29250318 0.009847174 0.14728384 -0.055496935 -0.09408772 0.21315011 0.2183918
-0.016927911 -0.059714105 0.11397294 -0.1181116 -0.009769722 0.17493162 -0.16674796 0.14816515
0.17000099 0.2197613 -0.19074224 -0.2662473 -0.041031495 0.027235134 0.12979482 0.11012269
-0.16863637 0.08800281 0.22607835 -0.0072254017 -0.0573186 0.16958252 -0.015324823 -0.032436643
-0.16040288 -0.031862617 -0.041633643 -0.15313365 -0.018506441 0.1366037 0.20869024 -0.12932856
-0.08198047 0.17554533 0.06476844 0.122743 0.09934868 0.19044855 -0.11963728 -0.15496635
0.054081004 0.035629403 0.18162756 -0.18415959 0.09847351 -0.088528425 -0.22907284 -0.2224781

decoder.0.bias f4 [32]
00000000: 5e16 02bc e9cd 5ebe 76be 47b9 1c28 d33c
00000010: 48ca 68be 7b1b 633e e7e0 4c3e 0d82 13bd
00000020: 4031 8b3e f540 01be 52cc 24be 6962 9dbe
00000030: 3882 803e 5ed4 39be 6982 243e bbd1 533e
00000040: 4bd9 45be e010 ed3b 21ec 39bd 0512 493e
00000050: 4a9d 143e e811 fbbd 52e5 8f3c 717a 30be
00000060: 37fd 2d3d c934 04be 7394 a83c 3a0a 823e
00000070: 7980 183e b54d 6cbd 9937 983d 7a0b 8dbd
-0.007939903 -0.21758236 -0.00019049071 0.025775962 -0.22733414 0.22178452 0.20007668 -0.036012698
0.27186012 -0.12622435 -0.16093567 -0.30739143 0.2509935 -0.18147418 0.16065373 0.20685475
-0.19321172 0.0072346777 -0.045391206 0.1963578 0.14513126 -0.12259275 0.017565403 -0.17234208
0.042477813 -0.12910761 0.020578599 0.25398427 0.14892758 -0.057691295 0.074324794 -0.068869546

decoder.2.weight f4 [64, 32]
00000000: da54 1c3e adb9 5fbd ad1d 1d3c d37d 643d
00000010: b5b1 f33c 001c 93be 9914 6ebd 8fc6 7e3d
00000020: d32a a5bd fad7 28be 14a3 793e bcaf debd
00000030: ac70 403e 38a2 c5bb 675a 663c 64f6 02be
00000040: 11db 603e b4aa 4c3d 3039 543d 7eed e53d
00000050: 61b9 71be ef21 96bd dc36 4c3c c300 0cbe
00000060: 2b01 f23d c831 c83d fda1 363d ebf3 493e
00000070: ac6a 973d 7ded 5ebd 4bd6 58be 1b68 60be
00000080: 9304 573d 9e8e 8f3d b615 a9bc ccf9 e3bc
00000090: ded1 5fbe 29b6 89bd 43dd ab3d e5c9 db3d
000000a0: a2c7 3dbd e2e0 2b3c 81b5 c23d 0d11 6c3d
000000b0: 4c3f 1b3e ef43 9c3c 9aac 96bb 04eb f83c
000000c0: c8dd 1f3e 511d 133d 1705 b93d 7803 ec3b
000000d0: 119e 103e 685b 9e3b 7fd7 313d a9a5 d8bc
000000e0: cf01 49be 2dcf db3d e7e7 8cbd 607a 69be
000000f0: 2c30 59bd c877 8dbd 6f0e b2bd 3c94 2f3e
00000100: 4d39 c03d 698e 4abc 29ca 49bd 4c29 e53d
00000110: e5e0 08bd 8b71 e9bd 5656 b63d 4742 4bbe
00000120: 5e46 b23d 9bbf d63c 15c2 1b3b 955e 2fbe
00000130: 969f e33d 4bbb 39bd 4c5e b2bd defe a9bd
00000140: f8c3 eb3d dd42 84bc 27b6 073e ac53 993d
00000150: f36c 0cbe 4ddc 0b3e 719f a63d a40f 7bbd
00000160: 0413 af3d 62da 0a3c f5c9 d1bd 2e61 973d
00000170: 1b13 173e 8484 4f39 5c75 a13c fa9d 3abb
00000180: aef0 18be 3ed0 c4bd 5d56 14be 00a6 b13c
00000190: ff61 e2bd a4eb 2dbe 0c01 233e 693f e9bd
000001a0: 8d32 11be e417 523d c8a2 3ebe 6897 eabd
000001b0: 9fb6 25bc bc3e e43d 5f1e 173d f2cb bb3d
000001c0: 94b7 4abd 000d c2bc 4253 f53d 4720 bbbd
000001d0: 2eb3 1fbe 272d 8f3d eff1 d5bd 0fd6 2cbe
000001e0: 9711 25bc beaa 98bd 9b20 bbbd c8e8 263e
000001f0: c6e3 12bc 021e 24be 2688 d03d e073 cc3c
00000200: f66e 2a3e b5a2 ff3d 22d9 3dbd 526d 503d
00000210: db07 9bbb b8bb a83d 6d06 d93d 56a9 e63c
00000220: fc23 833d 07f5 c23c 3af4 2f3e c1ee 22be
00000230: 71fc afbd e099 dc3d 06f0 253e c94b 293e
00000240: 567f 63bd 1a18 2f3e e4e1 fbbc 8d39 133e
00000250: b8ab 0dbe b1db b03c f342 223d 0793 c23d
00000260: 5d14 ee3d 35d6 fcbd c4a3 78bc 076a c33d
00000270: 4797 353d b359 d93d 536c 423d 0825 3e3e
00000280: 910f 563d f64c 823d 4e72 f53d 6a91 f03d
00000290: 6010 a4bd 5f87 173e 170b 05be 7611 d83d
000002a0: c188 2c3e 5542 373e 8685 adbd 34b2 3cbe
000002b0: afb0 2fbe 58c9 efbc 1c0f d6bc 42d0 343e
000002c0: 9105 ccbc 0bf8 aa3c 0ade f83d d879 163e
000002d0: 4c3c afbd 599a 173e 2739 c63d af5a 763d
000002e0: 4a44 a4bc 1d9a 85bd d62b d1bd 8f43 13bd
000002f0: 7b97 8abd 1a04 283e 2ada dc3c 40da 1e3e
00000300: 56c8 913d 42f8 cf3d 8f48 f73d 7294 fa3d
00000310: 920d 14bb e1de efba 0387 c5bd 64c4 183e
00000320: f01a 8d3c 9fca 353d 5e50 a53c ff02 9b3d
00000330: cf28 f4bc a510 203e 6c84 21bd 884e 71bd
00000340: a795 dd3d 88f6 11bd 715c 813e f961 d3bc
00000350: 4440 ff3d 68c8 153e 4952 363d f7ab 163d
00000360: 7607 8ebd 90cd 433d 89e3 05bd 1db1 b13d
00000370: 18f4 9b3d ff6d a63d 969e 403d 2d0e aa3d
00000380: 8bb4 023e e45e ecbc 24da e33c 8366 b63e
00000390: c67b 353e 196b 62bd 8f56 183e b251 72be
000003a0: 7c18 303e 7f90 a1bd e57e 28bd 0f41 dabd
000003b0: 1e20 de3d 33ba 123e d0db 6ebd 354f 0dbe
000003c0: dbf9 863d 01ca 953d ac34 993d 5268 7e3d
000003d0: e245 06be 7d3b 27be 13bd 1d3e a85a 993d
000003e0: 39e8 103e 55e6 15be e2db 523e 24f4 f13d
000003f0: 2679 01be f832 95bd 748f 7f3d 4e50 48be
0.15266743 -0.054620434 0.009589595 0.055784058 0.029747823 -0.287323 -0.058125112 0.06220108
-0.08064809 -0.16488639 0.24378616 -0.108733624 0.18792981 -0.006031301 0.01405964 -0.12789303
0.21958567 0.049967483 0.05181235 0.11226939 -0.23605873 -0.07330691 0.012464251 -0.13672166
0.11816629 0.0977512 0.044588078 0.19721954 0.07393393 -0.054425705 -0.21175496 -0.21914713
0.052494597 0.07009624 -0.020640235 -0.027829073 -0.21857402 -0.067241974 0.08391812 0.10731868
-0.046332963 0.010490628 0.095072754 0.05763345 0.15160865 0.019075362 -0.0045982124 0.030385502
0.15611947 0.03591663 0.09034174 0.007202562 0.14122798 0.004832674 0.043418404 -0.02644618
-0.19629596 0.10732875 -0.06880169 -0.22800589 -0.053024456 -0.06907612 -0.08694159 0.1714639
0.09385929 -0.012363055 -0.04926506 0.111895174 -0.0334176 -0.1139861 0.08903186 -0.19849502
0.08704828 0.026214411 0.0023766805 -0.17125924 0.11114423 -0.045344632 -0.08709392 -0.08300565
0.115119874 -0.016145164 0.1325308 0.07486662 -0.13713436 0.13658257 0.0813588 -0.061294213
0.08548549 0.008474918 -0.10243598 0.073915824 0.14753382 0.00019790424 0.019709282 -0.002847551
-0.14935562 -0.096100315 -0.1448607 0.0216856 -0.110538475 -0.16984421 0.15918368 -0.11389048
-0.1417944 0.051292315 -0.18616784 -0.1145466 -0.010114341 0.11144778 0.0368942 0.09169759
-0.04949148 -0.02368784 0.11978771 -0.09137016 -0.15595695 0.06991034 -0.10446536 -0.16878532
-0.0100749945 -0.074544415 -0.091370784 0.16299736 -0.008965438 -0.16027072 0.10182218 0.024957597
0.1664389 0.12482206 -0.046349652 0.050885506 -0.004731161 0.082389295 0.10596929 0.028156918
0.06403348 0.023798479 0.17183009 -0.1591139 -0.08593071 0.10771537 0.16204843 0.16532816
-0.05554136 0.17099038 -0.030747361 0.14377423 -0.13835037 0.021589132 0.03961463 0.095006995
0.11624978 -0.12345544 -0.0151757635 0.095417075 0.044333722 0.10612812 0.047466587 0.18568814
0.05226094 0.063623354 0.119846925 0.117464855 -0.08010936 0.14797734 -0.12992512 0.105502054
0.16849042 0.17896397 -0.08472733 -0.18427354 -0.17157243 -0.029270813 -0.026130252 0.17657569
-0.024904998 0.02087023 0.121517256 0.14694917 -0.085564226 0.14804973 0.0967887 0.060145076
-0.020052094 -0.065235354 -0.10213439 -0.0359531 -0.06767174 0.16407815 0.026959497 0.15512943
0.07118289 0.10154773 0.12074386 0.12235345 -0.0022591096 -0.0018300676 -0.09644892 0.14918667
0.017224759 0.044382688 0.020179924 0.07568931 -0.029804615 0.1563135 -0.039432928 -0.058912784
0.108195595 -0.0356355 0.2526584 -0.025803553 0.124634296 0.1462723 0.044512067 0.036785092
-0.06935017 0.04780346 -0.032687698 0.0867636 0.076149166 0.08126449 0.04702624 0.08303485
0.12764184 -0.028853841 0.027813978 0.35625085 0.17722997 -0.055277918 0.1487677 -0.23663977
0.1719684 -0.078888886 -0.04113664 -0.1065694 0.108459696 0.14328842 -0.0583151 -0.13799746
0.06590625 0.0731392 0.074807495 0.062111206 -0.13112596 -0.16331287 0.15404157 0.074879944
0.14151086 -0.14638646 0.20591691 0.11814144 -0.1264387 -0.07285112 0.062392667 -0.19561884

decoder.2.bias f4 [64]
00000000: 3a72 9c3d a8b9 acbb 1fca 603e 4e1a d6bd
00000010: 6425 783e b6be 00be 41d2 34be ebf7 ee3d
00000020: 1706 07be f27a 873d 8df6 033e e0e3 5a3e
00000030: 0ff5 413e fe04 133e f446 ba3d 8653 5e3e
00000040: f33a 9dbd 9d6e 1a3e ace6 cd3d b031 eabc
00000050: 5d3b a8bd 1608 bc3c 29af 993d dec8 b93d
00000060: 3dfd 263d b0fd c5bd 6d32 4abd ade9 da3d
00000070: afcd 8d3c c323 293e 1069 03be 0546 1abd
00000080: 350d 16bb 6fb6 9eb9 65dd 06be 1e2d 0b3e
00000090: ff03 ed3d 0ded d6be 4e82 153e cc43 dbbd
000000a0: 89f8 4c3e efdb 4e3e ca97 abbc 47dc 1a3d
000000b0: c34d bc3d b672 ca3d 7a52 ea3d 6bfb de3b
000000c0: 499d d7bd e8f8 a8bd a6f7 ac3d 25ae 513e
000000d0: 99ef b73d fddf 023e 2343 ea3b 275f 7f3e
000000e0: f84a 5e3d 6a1d 28bd eb0a ba3d cbe8 063e
000000f0: 4455 813e 52ca 85bd 365f 4f3e cd57 e53c
0.076389745 -0.0052711554 0.21952103 -0.10454236 0.24233013 -0.1257275 -0.1765833 0.1166838
-0.13185917 0.06615247 0.1288702 0.2137599 0.18941139 0.14357373 0.090955645 0.21711549
-0.07677259 0.15081258 0.10053763 -0.028588146 -0.08214448 0.022953074 0.07504112 0.090715155
0.04076885 -0.09667528 -0.049364496 0.10689101 0.017309992 0.16517548 -0.12833047 -0.037664432
-0.0022896056 -0.00030272032 -0.13170393 0.1359143 0.11573028 -0.4197773 0.14600489 -0.107062906
0.20016684 0.20201086 -0.020946402 0.03780773 0.09194519 0.098851606 0.114415124 0.0068048737
-0.10528047 -0.082506 0.08445673 0.20476587 0.089812465 0.12780757 0.0071491166 0.24938641
0.054270715 -0.041043676 0.09084114 0.13174741 0.25260365 -0.0653273 0.20251164 0.027995968
