Save_Models/model-lat4.pth (torch, 191714 bytes, 16 tensors)

encoder.0.weight f4 [128, 99]
0	0xbdfb519f	-0.12271427
1	0xbe4594f8	-0.19295108
2	0xbd718875	-0.058968026
3	0xbcc409e2	-0.023930494
4	0xbd8f64b7	-0.07001632
5	0x3d8190a2	0.06326415
6	0xbbb012a4	-0.005373316
7	0x3da06888	0.07832438
8	0xbd8389ee	-0.064227924
9	0xbd9528c8	-0.07283169
10	0x3da87177	0.08224767
11	0x3df2b14f	0.11850225
12	0x3d4282dc	0.04748808
13	0xbcb172bc	-0.021661155
14	0x3e17aae7	0.14811288
15	0x3e1d02d4	0.1533311
16	0xbc8853b5	-0.016641477
17	0x3e07cd79	0.13261975
18	0x3db5d1c8	0.08877903
19	0x3e207f2e	0.15673515
20	0x3dd9d54e	0.10636388
21	0xbd0bc2b2	-0.034121223
22	0x3d13ab2c	0.036051914
23	0x3dfcae35	0.12337915
24	0x3db70d68	0.08938104
25	0x3dedb657	0.11607044
26	0x3c973864	0.018459506
27	0x3d80502e	0.06265293
28	0x3e03f590	0.12886643
29	0x3d84d073	0.06485071
30	0xbd0a8428	-0.03381744
31	0xbcffe241	-0.031235816
32	0x3bae4db3	0.005319321
33	0x3dabfbc4	0.0839763
34	0x39bc4a3c	0.00035913463
35	0xbc164146	-0.009170836
36	0x3df06c2c	0.11739382
37	0x3c247a38	0.010038905
38	0x3d853a76	0.06505291
39	0xbc332a96	-0.010935446
40	0x3d9d6407	0.07685094
41	0xbcf1b07d	-0.029503101
42	0xbcdcc0c4	-0.026947387
43	0xbcff39b6	-0.031155448
44	0xbd1086fc	-0.03528498
45	0x3e1d50ff	0.15362929
46	0x3df3cf1b	0.119047366
47	0xbbe33c8b	-0.0069347075
48	0xbb93376c	-0.004492691
49	0x3e2160ef	0.15759633
50	0x3da0ecf1	0.07857693
51	0xbb183c75	-0.0023229395
52	0x3dddc65d	0.108288504
53	0xbc9c3628	-0.019068792
54	0x3d9d7ebf	0.076901905
55	0x3d190aae	0.0373637
56	0x3d10696e	0.035256796
57	0x3c1c21ab	0.009529511
58	0x3d617c29	0.05505005
59	0xbccf081e	-0.025272425
60	0x3dff52ed	0.12466989
61	0x3d11f3a2	0.035632737
62	0x3db7fcb0	0.08983743
63	0xbb9494c0	-0.004534334
64	0xbd1903c8	-0.03735712
65	0xbd128f36	-0.035781108
66	0xbd8718f3	-0.065965556
67	0x3d3eeefb	0.04661463
68	0x3d95daf5	0.07317153
69	0xbd8175b5	-0.06321279
70	0xbd5a1704	-0.053244606
71	0xbcf2a480	-0.029619455
72	0xbcf9a81a	-0.030475665
73	0xbc9dde90	-0.019271165
74	0x3d0469a3	0.032327306
75	0xbd841deb	-0.06451019
76	0xbdf2538b	-0.11832341
77	0xbd8161c5	-0.06317476
78	0xbc6d58da	-0.014486516
79	0xbc319167	-0.010837889
80	0x3d3cee07	0.046125438
81	0xbe0c2b72	-0.13688448
82	0xbe116013	-0.14196806
83	0xbdfc98dc	-0.12333843
84	0xbdcf005a	-0.10107489
85	0xbe050a43	-0.12992196
86	0xbe2f65f5	-0.17128737
87	0xbce5660e	-0.028002765
88	0xbda7b445	-0.081886806
89	0xbdb3c535	-0.08777849
90	0xbd1328fd	-0.03592776
91	0xbe043e64	-0.12914425
92	0xbde7fa98	-0.11327094
93	0xbe32e741	-0.17471029
94	0xbde087c0	-0.10963392
95	0xbe2f98ba	-0.17148104
96	0xbd9496a2	-0.072552934
97	0xbe22a4b6	-0.15883145
98	0xbd7afd09	-0.06127647
99	0x3ad67a4b	0.001636335
100	0xbb9e5e7e	-0.0048330417
101	0x3d809e28	0.06280166
102	0x3de95a9c	0.113942355
103	0x3d2533d1	0.04033262
104	0x3d8dec89	0.06929881
105	0x3dccb88f	0.09996139
106	0xbd951a91	-0.07280458
107	0x3db2f2bc	0.08737704
108	0xbd9e092a	-0.07716592
109	0xbd8ea1d4	-0.0696446
110	0xbd87c266	-0.066288754
111	0x3d951c9c	0.072808474
112	0x3d675828	0.056480557
113	0x3db747a4	0.08949211
114	0xbd54bd55	-0.051938374
115	0x3dce73a2	0.10080649
116	0x3db6a52a	0.08918221
117	0x3c5a573b	0.013326461
118	0x3dca7c2c	0.09886965
119	0x3ce4665a	0.027880836
120	0x3d27470b	0.040839236
121	0xbd499b4b	-0.049220365
122	0xbcfa6b2b	-0.03056868
123	0x3c4c11b4	0.012455393
124	0x3d4f59b7	0.050622668
125	0x3d6099f1	0.05483431
126	0x3a9adc0d	0.0011814848
127	0x3d4b2cf3	0.049603414
128	0xbd4fd9f0	-0.05074495
129	0xbccc2db2	-0.024924133
130	0xbd7d77f9	-0.061881993
131	0xbdc35287	-0.09537225
132	0x3ca2325f	0.01979941
133	0x3c5dede4	0.013545487
134	0x3c132cfa	0.008982891
135	0xbd9ba862	-0.07600476
136	0x3d97b314	0.07407203
137	0x3c38c758	0.011277996
138	0xbd5ece57	-0.054396
139	0x3d866045	0.06561331
140	0xbdb2f50b	-0.087381445
141	0xbd1aa3fc	-0.037754044
142	0xbd5feec4	-0.054671064
143	0xbd70b032	-0.058761783
144	0x3a0cf5b0	0.00053771865
145	0x3d9ba2c5	0.07599405
146	0xbc49c4a3	-0.012314948
147	0xbd3e2bca	-0.04642848
148	0xbd23cd05	-0.039990444
149	0x3d8debf3	0.06929769
150	0xbcd37690	-0.025813371
151	0x3d777286	0.060411952
152	0xbdcab1df	-0.098972075
153	0xbcd25c1d	-0.025678689
154	0xbcec5d6f	-0.028853146
155	0x3d45130b	0.048113864
156	0x3c87d536	0.01658116
157	0xbd057e97	-0.03259143
158	0xbc9953d0	-0.018716723
159	0x3c807e1e	0.015685137
160	0xbdaf386e	-0.08555685
161	0xbd2dc472	-0.042423673
162	0xbda4ed81	-0.08053113
163	0xbdc53f76	-0.09631245
164	0x3b989a98	0.004657101
165	0xbd729adc	-0.059229717
166	0xbd2bfd02	-0.041989334
167	0xbd88c3a7	-0.06677943
168	0xbc925ae1	-0.0178656
169	0x3c8d3533	0.017237281
170	0xbda7b9a5	-0.08189706
171	0xbd4fd6f2	-0.050742097
172	0x3cd7ff4e	0.026366856
173	0xbd5ebd8a	-0.054379977
174	0xbd8bcd89	-0.06826312
175	0x3d281b59	0.041041706
176	0x3d1303f1	0.03589243
177	0xbdcda4b4	-0.1004118
178	0x3b524522	0.0032084663
179	0x3da8eefa	0.08248706
180	0x3c9321e8	0.017960504
181	0x3da666eb	0.08125099
182	0xbbdfa27f	-0.006824791
183	0xbdc51e38	-0.096249044
184	0x3c864668	0.016390994
185	0x3d92cde7	0.07168179
186	0xbd8eaedb	-0.06966945
187	0xbdb30874	-0.08741847
188	0xbd13f55a	-0.036122657
189	0x3ba20085	0.0049439096
190	0xbdb3fd8c	-0.087885946
191	0x3d0ff71e	0.03514778
192	0xbd299039	-0.041397307
193	0xbcb211e4	-0.021737047
194	0xbdb5eb47	-0.08882766
195	0x3d922da1	0.07137609
196	0x3c0ce98f	0.008600607
197	0xbd9544b0	-0.07288492
198	0xbda5562e	-0.08073078
199	0xbc5cc5f0	-0.013474926
200	0xbc76e964	-0.015070293
201	0xbdf7f7c4	-0.121078044
202	0x3c6b7c0a	0.014372835
203	0x3d821ab9	0.06352753
204	0x3d397054	0.04527314
205	0xbd7057f8	-0.058677644
206	0xbe020bb5	-0.12699778
207	0xbdff8974	-0.12477389
208	0x3b63b107	0.0034742968
209	0x3cbebb84	0.023282774
210	0xbcda9a42	-0.026684884
211	0xbd6748fb	-0.056466084
212	0xbd09d31c	-0.033648595
213	0xbcdceb9c	-0.026967816
214	0xbc2ffd48	-0.010741539
215	0x3d9b5080	0.075837135
216	0xbddbf0a0	-0.10739255
217	0xbd8e1a81	-0.06938649
218	0x3c9f6d90	0.019461423
219	0x3ccb77a1	0.024837317
220	0xbdda827f	-0.106694214
221	0xbd3b6d4a	-0.045758523
222	0x3d9b5483	0.07584479
223	0x3c3c590b	0.011495839
224	0x3d8ab17e	0.06772135
225	0xbcf5722a	-0.029961664
226	0x3ce1702f	0.027519314
227	0xbd97e1a0	-0.074160814
228	0xbd50cbf5	-0.05097576
229	0x3d0361ad	0.032075573
230	0x3d049018	0.03236398
231	0xbd8a8c79	-0.06765074
232	0x3c2f13ef	0.010685905
233	0xbcd23a1b	-0.025662472
234	0xbde7f5a9	-0.11326153
235	0xbd9ca72a	-0.076490715
236	0xbced1333	-0.028939819
237	0x3d89b569	0.06724054
238	0x3bc592ce	0.0060294634
239	0x3d729e59	0.059233043
240	0xbde137bc	-0.109969586
241	0xbd449e60	-0.0480026
242	0x3c622d24	0.013804708
243	0xbcd5216c	-0.026016913
244	0x3c64d1d5	0.0139660435
245	0xbd859102	-0.06521799
246	0x3d5d39fe	0.054010384
247	0xbc94a7ae	-0.018146362
248	0x3c9b3f37	0.018951042
249	0xbd8878f1	-0.06663693
250	0x3d94f19c	0.07272646
251	0xbd7cf1ac	-0.061753914
252	0xbd8ccdb3	-0.068751715
253	0x3ce34878	0.027744517
254	0xbd341a39	-0.04397032
255	0x3d169324	0.036761418

encoder.0.bias f4 [128]
0	0x3da12a6b	0.07869419
1	0xbd13b1f5	-0.036058385
2	0xbe51fb7c	-0.2050609
3	0xbea214a6	-0.31656379
4	0xbe5a842d	-0.21339484
5	0xbea6412d	-0.324716
6	0xbe93df70	-0.28881407
7	0xbe39b19e	-0.18134162
8	0xbe42ab25	-0.19010599
9	0xbe948171	-0.29005006
10	0xbe650aa3	-0.22367339
11	0xbdf00d14	-0.117212445
12	0xbe27595f	-0.16342686
13	0xbdcd3ead	-0.1002172
14	0xbe56cd36	-0.2097672
15	0xbeb84bd1	-0.35995343
16	0xbe32afba	-0.17449847
17	0xbdc94446	-0.09827475
18	0xbe2153de	-0.15754649
19	0xbe309b78	-0.17246807
20	0xbe671fac	-0.22570676
21	0xbcad0899	-0.021122264
22	0xbe74af39	-0.23894967
23	0xbe7c6314	-0.2464717
24	0xbe1079fa	-0.1410903
25	0xbe09c3a2	-0.13453534
26	0xbddc9bea	-0.10771926
27	0xbe7ea2da	-0.2486681
28	0xbe3dca20	-0.18534136
29	0xbec6ad68	-0.38804173
30	0xbe12a2d4	-0.14319927
31	0xbbd0ebff	-0.006375789
32	0xbd61621b	-0.0550252
33	0xbec9b067	-0.39392397
34	0xbe26329f	-0.16230248
35	0xbdc15860	-0.09440684
36	0xbd739019	-0.059463594
37	0x3e5fcb6b	0.21854942
38	0xbe74ab15	-0.23893388
39	0xbe45480d	-0.19265766
40	0xbe84263e	-0.25810426
41	0xbe6a94bb	-0.22908299
42	0xbe6ac754	-0.229276
43	0xbd8cd811	-0.06877149
44	0xbd500c99	-0.050793264
45	0xbe14d06b	-0.1453263
46	0xbdb974bf	-0.09055471
47	0xbe4fd45c	-0.20295852
48	0xbe9005a9	-0.28129318
49	0xbed3cbf1	-0.41366532
50	0x3b8019d8	0.003909331
51	0xbe40a3e7	-0.18812524
52	0xbeae11c5	-0.33997932
53	0xbd81c6c4	-0.0633674
54	0xbe71cc26	-0.23613033
55	0xbdb5256d	-0.08845029
56	0xbdcfceb1	-0.10146845
57	0xbf04dba2	-0.51897633
58	0xbdde1d9b	-0.108454905
59	0xbe040141	-0.12891103
60	0xbe85ec6f	-0.26156947
61	0xbdf76fa4	-0.12081841
62	0xbe87c501	-0.2651749
63	0xbe4260a1	-0.18982174
64	0xbe692141	-0.22766592
65	0xbe1c22c9	-0.15247644
66	0xbe28f6f1	-0.1650045
67	0xbe761dad	-0.24034758
68	0xbee6c47f	-0.4507179
69	0xbe9b0d42	-0.30283552
70	0xbdbe444a	-0.09290369
71	0xbdee46cb	-0.116345964
72	0xbe88abd4	-0.26693594
73	0xbe481885	-0.19540603
74	0xbe3f0fea	-0.18658414
75	0xbe69ef95	-0.228453
76	0xbe4fff55	-0.20312245
77	0xbe5a8f20	-0.2134366
78	0xbde90254	-0.11377397
79	0xbe8576ce	-0.26067203
80	0xbdb5cd33	-0.08877029
81	0xbedba409	-0.42898586
82	0xbed05935	-0.4069306
83	0xbdd64d9e	-0.10464023
84	0xbd5e9d3c	-0.05434917
85	0xbd7375fd	-0.059438694
86	0xbe6b45d5	-0.22975858
87	0xbd5510c6	-0.05201795
88	0xbd9f7670	-0.07786262
89	0xbe808bdd	-0.25106707
90	0xbee5a514	-0.44852507
91	0xbd52a315	-0.05142506
92	0xbe9f35ff	-0.31095883
93	0xbe593d9c	-0.21214908
94	0xbe895c3a	-0.26828176
95	0xbd08e0ee	-0.033417635
96	0xbe9200cf	-0.28516242
97	0xbe831a83	-0.25606164
98	0xbe675f8a	-0.22595039
99	0xbe2a7104	-0.16644675
100	0xbeb27682	-0.3485604
101	0xbea353fb	-0.3190001
102	0xbde56d1a	-0.1120245
103	0xbe6d659f	-0.23183297
104	0xbe0fb5d1	-0.14034201
105	0xbdd918c5	-0.106004275
106	0xbdd3016b	-0.10303005
107	0xbd747bcc	-0.059688374
108	0xbe670cc2	-0.2256346
109	0xbe83abdd	-0.2571706
110	0xbe5c301f	-0.21502732
111	0xbe317eb5	-0.17333491
112	0x3da402b7	0.0800833
113	0xbe159f4d	-0.1461155
114	0xbe4c79fa	-0.19968405
115	0xbe766e3f	-0.24065493
116	0xbe82ea42	-0.2556935
117	0xbe44e4ee	-0.19227955
118	0xbe494a6c	-0.19657296
119	0xb9a610a0	-0.00031674374
120	0xbd13d116	-0.03608807
121	0xbf164e8d	-0.5871361
122	0xbeca1e81	-0.39476398
123	0xbe6650fe	-0.22491834
124	0xbe094612	-0.13405636
125	0xbe984921	-0.29743293
126	0xbe8d2c58	-0.27572894
127	0xbda3cb96	-0.07997815

encoder.3.weight f4 [64, 128]
0	0xbe7b769b	-0.24556963
1	0x3da44c3d	0.08022354
2	0x3cb5d37d	0.022195572
3	0xbd1eeee0	-0.038802028
4	0x3d8b7397	0.068091564
5	0xbdb4e01a	-0.088318065
6	0xbd17add7	-0.03703102
7	0x3d12fe9f	0.035887357
8	0xbd3732ea	-0.04472629
9	0xb966c520	-0.00022007944
10	0x3d4cbf02	0.049986847
11	0xbd787ef6	-0.060667954
12	0xbd99a07a	-0.075013116
13	0x3d8b5d84	0.06804946
14	0x39786c23	0.00023691407
15	0xbc8c2788	-0.017108694
16	0xbb5ca8f1	-0.0033670033
17	0x3b61851c	0.0034411615
18	0xbd539799	-0.051658247
19	0x3d1682fc	0.03674601
20	0x3dbcc1a5	0.09216622
21	0xbca2cb18	-0.019872233
22	0xbd0a8d0f	-0.03382593
23	0xbd6098f6	-0.054833375
24	0xbb03f845	-0.0020136994
25	0x3da44ff2	0.08023061
26	0x3d80313d	0.062593915
27	0xbd654be2	-0.05598057
28	0x3d8f1b79	0.06987662
29	0xbd4e5934	-0.05037804
30	0x3cbbdb12	0.02293161
31	0xbd4e0cdd	-0.050305236
32	0x3ca9dfb4	0.020736553
33	0x3dc278e8	0.09495717
34	0x3dbe9a30	0.09306753
35	0x3daf251d	0.08552001
36	0xbcfc01b3	-0.030762529
37	0xbe0827c1	-0.13296415
38	0xbd8db0f4	-0.06918517
39	0xbce9f6ea	-0.02856012
40	0xbc237bd7	-0.009978256
41	0x3dd7e8da	0.1054246
42	0xbd499722	-0.049216397
43	0xbcaad859	-0.020855116
44	0xbd97a786	-0.074049994
45	0x3d8e3a94	0.06944767
46	0x3d2713f2	0.040790506
47	0xbd33659d	-0.043798078
48	0xbc97eab9	-0.018544542
49	0xbc8bf208	-0.017083183
50	0x3d381a48	0.04494694
51	0xbc97794f	-0.018490462
52	0x3de9a5fe	0.114086136
53	0x3cc0b84f	0.023525385
54	0x3d7eb7b3	0.062186908
55	0xbcd8a099	-0.026443766
56	0xbbba30a4	-0.005682068
57	0xbd1b79b8	-0.037957877
58	0x3d00312a	0.031296887
59	0x3ce1931e	0.027535971
60	0x3b9dfe10	0.0048215464
61	0xbd076cb2	-0.033062644
62	0x3ccd76c5	0.025081048
63	0xbd3e4f74	-0.04646249
64	0x3dd05b65	0.10173682
65	0x3d86946a	0.065712765
66	0x3ccc1e28	0.024916723
67	0xbd784dbb	-0.060621005
68	0x3c206901	0.00979066
69	0xbc311102	-0.010807278
70	0x3ba40d6b	0.0050064824
71	0x3c3d10e9	0.011539676
72	0x3c8c9925	0.017162869
73	0x3c52ec13	0.012873667
74	0x3d823f11	0.06359685
75	0x3d8dff2d	0.069334365
76	0x3d1c451f	0.038151857
77	0xbd82f5c5	-0.06394533
78	0xbbb267f3	-0.0054445206
79	0xbca4435e	-0.020051654
80	0x3ac9e50d	0.0015403345
81	0x3d541e93	0.05178697
82	0xbc8d6074	-0.017257906
83	0x3b598fb5	0.0033197228
84	0x3da8e9ba	0.08247705
85	0xbe0903d8	-0.13380373
86	0x3c8e8dd7	0.017401619
87	0xbd545986	-0.05184319
88	0xbdaf08e2	-0.08546616
89	0x3d8dfccb	0.06932982
90	0xbd1b6f3f	-0.03794789
91	0x3d763ba2	0.060115464
92	0x3d1e5fcd	0.03866558
93	0x3d097bc6	0.033565305
94	0xbcf0c3a3	-0.029390162
95	0x3db6be1b	0.089229785
96	0xbcf642a4	-0.030061074
97	0x3d3a22cb	0.045443337
98	0xbd0a61ad	-0.033784557
99	0xbd14f951	-0.03637058
100	0xbbb8a4b6	-0.0056348694
101	0x3e0ddc66	0.13853607
102	0xbd3661ee	-0.044526987
103	0x3cdd9ee9	0.027053313
104	0x3d0773c1	0.033069376
105	0xbd5caf13	-0.0538779
106	0xbbfc0463	-0.0076909526
107	0xbd73ea90	-0.059549868
108	0x3d8086dd	0.06275723
109	0xbdb385de	-0.087657675
110	0xbd71bde0	-0.05901897
111	0xb9ebc81b	-0.00044971783
112	0xbe827c78	-0.25485587
113	0x3d5c4359	0.053775165
114	0x3d76664b	0.060156148
115	0x3ce15bae	0.027509537
116	0xbe10e3c1	-0.14149381
117	0x3d367dd9	0.04455361
118	0x3dc2d22c	0.09512743
119	0x3c403589	0.011731514
120	0xbd256d96	-0.040387712
121	0xbc01ffca	-0.00793452
122	0x3e006b62	0.12540963
123	0xbd544840	-0.051826715
124	0xbd8004b7	-0.06250899
125	0xbd5a9950	-0.053368866
126	0x3c6fb59e	0.014630703
127	0xbd2c657c	-0.04208897
128	0x3d1d8f2d	0.03846662
129	0x3d6e32d3	0.05815394
130	0x3c8a2774	0.016864516
131	0xbd51a7fb	-0.05118559
132	0xbb515ef7	-0.0031947473
133	0xbe8076a5	-0.2509052
134	0xbe2508ba	-0.1611661
135	0x3dc80ced	0.097680904
136	0x3ba5deb2	0.0050619477
137	0x3cf6f5bb	0.03014647
138	0xbe4c7350	-0.19965863
139	0x3cd097bb	0.025462976
140	0x3d8325cf	0.06403696
141	0x3d85b180	0.06527996
142	0xbcd0e01c	-0.025497489
143	0xbe81746c	-0.25284135
144	0x3d6c1abe	0.05764269
145	0x3cf1c041	0.02951062
146	0x3d9a8797	0.07545393
147	0x3c8cf1c0	0.01720512
148	0x3db6f8b0	0.08934152
149	0xbcc0a0bc	-0.023514144
150	0x3d9e1718	0.077192485
151	0x3d942fcd	0.0723568
152	0x3dbcf41a	0.09226246
153	0x3d99acd3	0.07503667
154	0xbcc4bd8a	-0.02401616
155	0xbda99d67	-0.08281975
156	0x3cb778a3	0.022396391
157	0xbc979381	-0.018502953
158	0xbdc8d41c	-0.09806082
159	0x3d93b56e	0.07212339
160	0x3c119b37	0.008887104
161	0x3dc4fac7	0.096181445
162	0xbd5fa050	-0.054596245
163	0xbd35a6f4	-0.044348672
164	0xbcbdee6c	-0.023184977
165	0x3d6f2850	0.058388054
166	0xbe2ea00c	-0.1705324
167	0xbced0716	-0.028934043
168	0x3d8fdfdd	0.070251204
169	0xbce31b35	-0.027722934
170	0x3cc4a786	0.024005663
171	0xbc811d0b	-0.01576092
172	0xbd707829	-0.058708344
173	0x3dbae4b7	0.09125655
174	0x3c1973c9	0.009365984
175	0xbe876881	-0.26446918
176	0xbd8293d0	-0.06375849
177	0x3d8fb952	0.07017769
178	0xbcb05864	-0.021526523
179	0xbd202125	-0.03909411
180	0x3c715288	0.01472915
181	0x3d03736b	0.032092493
182	0xbe209d1e	-0.15684935
183	0x3d45387e	0.04814958
184	0xbcc0c1bf	-0.023529885
185	0xbd5ad664	-0.053427115
186	0xbe422b93	-0.18961935
187	0xbe0c3df4	-0.13695508
188	0x3c2c0597	0.01049938
189	0x3d06c127	0.03289905
190	0x3d6a6364	0.057223693
191	0x3d85bce1	0.065301664
192	0x3cabe523	0.020983284
193	0xbc178a15	-0.00924923
194	0x3d5f5c71	0.05453152
195	0xbcf3e790	-0.029773504
196	0xbc352e58	-0.0110584125
197	0x3d9a1469	0.07523424
198	0xbccff498	-0.025385186
199	0xbd903671	-0.07041634
200	0x3db48be0	0.088157415
201	0x3d9c414d	0.07629643
202	0x3da8ff85	0.082518615
203	0xbc857e60	-0.016295612
204	0xbc59c789	-0.013292202
205	0x3dac8efa	0.08425708
206	0xbdb4e809	-0.0883332
207	0xbdb1dd7c	-0.08684823
208	0x3d5fecbe	0.054669134
209	0xbd78dbd6	-0.060756527
210	0xbd0a3b56	-0.033747993
211	0x3d3b0fdb	0.045669418
212	0xbd8bbf4a	-0.06823595
213	0x3d7b1ef4	0.061308816
214	0xbcf47edc	-0.029845648
215	0x3ce85a34	0.028363325
216	0xbc390e93	-0.011294979
217	0xbacc4bd9	-0.0015586569
218	0x3ce087fe	0.027408596
219	0xbd3ddbf1	-0.04635233
220	0xbe8fdb69	-0.28097084
221	0xbd4987a9	-0.04920164
222	0x3dece427	0.11566954
223	0x3c2d9d15	0.010596533
224	0x3cb85739	0.022502529
225	0x3dc763fe	0.09735869
226	0xbd87bea7	-0.06628161
227	0xbd34957d	-0.044087876
228	0x3cf3d6ad	0.029765451
229	0x3d849426	0.064735696
230	0xbe83cff2	-0.25744587
231	0xbd45e931	-0.04831809
232	0x3d6ca128	0.057770878
233	0xbe53787d	-0.20651431
234	0x3b832af6	0.004002924
235	0x3c2a9a33	0.0104127405
236	0xbd83a637	-0.06428187
237	0x3d59d80d	0.053184558
238	0xbd4e86dd	-0.050421584
239	0x3d959de1	0.07305504
240	0x3d8e123b	0.06937071
241	0x3cb2e17b	0.021836033
242	0x3d242465	0.04007377
243	0x3ba7e6fa	0.00512397
244	0x3d03ed9f	0.032209035
245	0xbca4ad83	-0.020102268
246	0x3c79f1bf	0.015255391
247	0x3d13c707	0.03607848
248	0x3c8adcce	0.016950991
249	0xbc2b4a77	-0.0104547655
250	0xbcb894cd	-0.022531891
251	0xbdabc5cf	-0.08387338
252	0x3db3ef61	0.08785892
253	0xbe7bdfe6	-0.24597129
254	0xbe2362bb	-0.15955631
255	0x3ae81012	0.0017704985

encoder.3.bias f4 [64]
0	0xbe3cf8dc	-0.18454307
1	0xbdcadb4b	-0.09905108
2	0xbe503ce8	-0.20335734
3	0xbd75020a	-0.059816398
4	0xbeb2c041	-0.34912303
5	0xbe8d75dd	-0.27628985
6	0xbd6a3a99	-0.05718479
7	0xbdf043f4	-0.11731711
8	0xbe82cfe1	-0.25549224
9	0xbe3fe48c	-0.18739527
10	0xbe32793a	-0.17429057
11	0xbdec6bf9	-0.11544032
12	0xbe42dbc3	-0.19029145
13	0xbde2d143	-0.1107507
14	0x3e178189	0.14795507
15	0xbe0ce7ca	-0.13760296
16	0xbeabf743	-0.33587083
17	0xbd5ccfc8	-0.053909093
18	0xbda861f4	-0.08221808
19	0xbdc118c5	-0.094285525
20	0xbe4965e4	-0.19667774
21	0xbe0d95f4	-0.13826734
22	0xbe161b03	-0.14658742
23	0xbe912451	-0.2834802
24	0xbb8b7950	-0.004256405
25	0xbd58e904	-0.052956596
26	0xbe0c67b6	-0.13711438
27	0xbd565920	-0.05233109
28	0xbb7b8c9f	-0.0038383377
29	0x3da92ce4	0.08260515
30	0xbea21dd7	-0.3166339
31	0xbe86064e	-0.26176685
32	0x3d1cc403	0.03827287
33	0xbe7a5d9b	-0.2444977
34	0xbda96b48	-0.082724154
35	0xbe1b441b	-0.15162699
36	0xbe06a0da	-0.13147298
37	0xbd9699dc	-0.07353565
38	0xbd3161bf	-0.04330611
39	0xbe47c968	-0.19510424
40	0xbe5005e4	-0.20314747
41	0xbd4c5f24	-0.04989542
42	0xbe526ba1	-0.2054887
43	0xbe533d84	-0.20628935
44	0xbc3468f4	-0.011011351
45	0xbd247617	-0.04015168
46	0xbcc0b4a5	-0.023523638
47	0xbd136b85	-0.03599121
48	0xbeb01b3e	-0.34395784
49	0xbc1193df	-0.008885353
50	0x3d19cf0b	0.037550967
51	0xbe86e275	-0.26344648
52	0xbdbbead8	-0.09175652
53	0x3d35d1a0	0.044389367
54	0xbe16088c	-0.14651698
55	0x3dd13588	0.102152884
56	0xbd0127c1	-0.031532053
57	0x3d2d9267	0.04237595
58	0xbdb66622	-0.08906199
59	0xbb54dc81	-0.0032480063
60	0xbdeb03aa	-0.11475308
61	0xbe000e67	-0.12505494
62	0xbe8ec76d	-0.27886525
63	0xbe2b33c6	-0.16718969

encoder.6.weight f4 [32, 64]
0	0xbd2ff852	-0.042961426
1	0xbe259523	-0.16170172
2	0xbd598902	-0.053109176
3	0x3da264f1	0.07929409
4	0xbca07905	-0.019588957
5	0xbd4fd0cc	-0.050736234
6	0x3d8f54ea	0.06998618
7	0xbd73c3ef	-0.05951303
8	0x3d600834	0.054695323
9	0xbd955cea	-0.072931126
10	0x3df62d2e	0.12020336
11	0x3e0721dc	0.1319651
12	0x3dd8ce9a	0.10586281
13	0x3d3f5631	0.046713058
14	0xbd8f0f6c	-0.06985363
15	0x3d5d3505	0.05400564
16	0x3d8ada34	0.067799
17	0xbd51c854	-0.05121644
18	0xbd40e66f	-0.04709476
19	0xbdd30c31	-0.1030506
20	0xbe0ff2eb	-0.1405751
21	0x3d966b65	0.07344703
22	0xbd2ad812	-0.041709967
23	0xbda95f2b	-0.08270105
24	0x3cd27dce	0.025694754
25	0x3d977bde	0.07396673
26	0x3d9b6104	0.07586864
27	0xbda1d653	-0.07902207
28	0xbd29a57a	-0.041417576
29	0x3d43fc0a	0.047847785
30	0x3d0a4706	0.03375914
31	0xbda961fb	-0.082706414
32	0xbdfa9618	-0.12235659
33	0xbe33cdac	-0.17558926
34	0x3da47d99	0.08031768
35	0x3dfd6210	0.123722196
36	0xbe51fb52	-0.20506027
37	0x3e094f48	0.1340915
38	0xbe1acb18	-0.15116537
39	0xbda5e787	-0.08100801
40	0x3cc684e1	0.024233283
41	0x3e08619f	0.1331849
42	0xbdca490e	-0.09877215
43	0xbd8ad80c	-0.06779489
44	0x3dc6e542	0.09711696
45	0x3b8c15db	0.0042750663
46	0x3db43c06	0.08800511
47	0x3c868c97	0.01642446
48	0xbdde8534	-0.1086525
49	0xbd820340	-0.06348276
50	0xbe68e2f3	-0.22742824
51	0xbc5eac9a	-0.013590956
52	0x3cc0a2cd	0.02351513
53	0x3dde4130	0.10852277
54	0xbb908d20	-0.0044113547
55	0x3d878af3	0.06618299
56	0x3db58aec	0.08864388
57	0x3e059a34	0.13047105
58	0xbe1f3053	-0.15545778
59	0x3ddbd334	0.10733643
60	0xbc60283b	-0.013681467
61	0x3b2820ba	0.0025654272
62	0x3d743993	0.05962522
63	0x3d9f9873	0.07792749
64	0x3c49fc85	0.012328272
65	0x3dcc5999	0.09978027
66	0xbd2fc15b	-0.042909008
67	0x3d5d96db	0.054098945
68	0x3e37971e	0.1792874
69	0xbc8ad9ee	-0.01694962
70	0x3c49162b	0.012273352
71	0xbe2469af	-0.1605594
72	0x3ce50982	0.027958635
73	0xbd1f3992	-0.038873263
74	0xbdc8153c	-0.09769675
75	0xbdd53514	-0.104105145
76	0x3d2be20c	0.041963622
77	0xbdc80051	-0.09765685
78	0x3c89098d	0.016728187
79	0x3deae614	0.11469665
80	0xbc9983a8	-0.018739536
81	0x3e050820	0.1299138
82	0x3d6c7d3c	0.05773662
83	0x3cfca3c3	0.030839806
84	0xbc229e2a	-0.009925405
85	0x3d6b6d4c	0.05747728
86	0x3def661e	0.11689399
87	0x3d9f739c	0.077857226
88	0xbd814632	-0.06312217
89	0xbcb60ea0	-0.02222377
90	0x3d97a057	0.07403629
91	0xbd76f4bd	-0.060291994
92	0x3d9dd8bb	0.07707354
93	0x3d2642f0	0.04059118
94	0x3d143cb7	0.036190715
95	0xbcde2aaa	-0.027119953
96	0xbcf7925b	-0.030221155
97	0xbd8bf8e5	-0.06834582
98	0xbe82cd89	-0.25547436
99	0xbd649259	-0.05580363
100	0x3dd1f199	0.10251159
101	0xbdf945f5	-0.12171546
102	0xbd82e7bc	-0.06391856
103	0xbcecfdf6	-0.028929692
104	0xbe5846a2	-0.21120694
105	0x3bdd0b6d	0.006745747
106	0x3d3c4ee1	0.045973662
107	0x3d9ddc95	0.07708088
108	0x3d95ff6c	0.073241085
109	0x3b5560e7	0.003255898
110	0xba455564	-0.0007527678
111	0xbe00c99e	-0.12576911
112	0x3de4ef91	0.11178506
113	0x3d0166dd	0.03159224
114	0x3dd28215	0.102787174
115	0x3ce74336	0.02823029
116	0xbd98cd12	-0.07460989
117	0xbdc98fcd	-0.09841881
118	0xbb361979	-0.002778618
119	0xbd58912e	-0.05287283
120	0xbde1ade1	-0.11019493
121	0xbd204f8d	-0.039138366
122	0x3d264bd7	0.04059967
123	0x3d58d1b7	0.052934375
124	0xbd876785	-0.06611542
125	0xbd663a0e	-0.05620771
126	0x3d93b605	0.07212452
127	0xbdb95d18	-0.09050959
128	0x3dc74518	0.097299755
129	0x3e2403ae	0.16017029
130	0x3dd62550	0.104563355
131	0xbd93bfb6	-0.072143
132	0xbc5a56f0	-0.013326392
133	0xbe0e179a	-0.13876191
134	0x3ddefbeb	0.10887893
135	0xbd397398	-0.045276254
136	0xbd6a5bee	-0.057216577
137	0xbd3f5335	-0.04671021
138	0xbe2db755	-0.16964467
139	0xbd60480e	-0.054756217
140	0xbe3a8467	-0.1821457
141	0xbbeb8fcc	-0.007188773
142	0xbe0d5fd0	-0.13806081
143	0x3c0d7735	0.008634378
144	0x3db656c8	0.08903271
145	0xbda8bf5e	-0.082396254
146	0xbe2803a7	-0.16407643
147	0x3e22d737	0.1590241
148	0x3db53216	0.08847444
149	0x3b9efb66	0.0048517464
150	0xbd5ae2a2	-0.05343879
151	0x3dd4f163	0.10397603
152	0x3d3c7f13	0.046019625
153	0x3d8d9d19	0.069147296
154	0xbdf0d489	-0.11759288
155	0xbb45a6d4	-0.0030159252
156	0xbbcf0002	-0.0063171396
157	0x3bb7c629	0.0056083393
158	0xba853df1	-0.0010165555
159	0x3e07df8a	0.13268867
160	0xbd542cb5	-0.05180045
161	0x3e59c6f7	0.21267305
162	0x3c0ae7f8	0.008478157
163	0xbe03671f	-0.12832306
164	0xbc99616d	-0.018723214
165	0xbd1181de	-0.03552424
166	0xbcad78d3	-0.021175778
167	0x3d27140f	0.040790614
168	0xbd010244	-0.0314963
169	0x3e48a08e	0.19592497
170	0x3e144a59	0.14481486
171	0xbe395613	-0.18099241
172	0x3c3d7878	0.0115643665
173	0x3d808d06	0.06276898
174	0x3dcff449	0.101540156
175	0xbde39e6e	-0.111142024
176	0xbcdfa0d7	-0.027298374
177	0xbd32f597	-0.043691244
178	0xbc491814	-0.012273807
179	0xbe18e94c	-0.14932746
180	0x3db1800a	0.08667
181	0xbdc72504	-0.09723857
182	0x3e2e9685	0.17049606
183	0xbc1bce66	-0.009509658
184	0xbbc8f371	-0.006132536
185	0x3dbc0a81	0.09181691
186	0xbcc315ac	-0.023814045
187	0x3c9904f9	0.018679129
188	0xbdef170c	-0.11674318
189	0xbd0780d5	-0.03308185
190	0xbe23c053	-0.15991335
191	0x3df1ec63	0.11812665
192	0xbdc1f773	-0.09471025
193	0x3d338733	0.043830108
194	0xbdc4fc46	-0.0961843
195	0xbe0e2b8c	-0.138838
196	0xbd828d8e	-0.06374656
197	0xbc93be91	-0.018035205
198	0x3e104215	0.14087708
199	0x3ddd695c	0.10811111
200	0x3e0567e2	0.1302791
201	0x3da52b72	0.08064927
202	0xbd07f44a	-0.033191957
203	0x3e2073cf	0.15669177
204	0x3d82e12b	0.06390604
205	0xbd3edf92	-0.046599932
206	0x3d989559	0.07450361
207	0xbd2f7104	-0.04283239
208	0x3d1f20f1	0.038849775
209	0xbe5a4bd7	-0.21317993
210	0x3d9d19e7	0.07670956
211	0x3d8a2329	0.067449875
212	0xbdaab453	-0.08335175
213	0x3d5218dd	0.051293243
214	0xbe1478b4	-0.1449917
215	0xbd2398de	-0.039940707
216	0x3d146709	0.036231074
217	0x3d29d045	0.041458387
218	0x3c8ddbe1	0.01731676
219	0xbe2e11de	-0.16999003
220	0xbe496f09	-0.19671263
221	0x3e2f0a01	0.1709366
222	0xbd410f46	-0.047133707
223	0xbddab360	-0.10678744
224	0xbd7ac8f5	-0.061226804
225	0xbdc694f4	-0.09696379
226	0x3e5a42f7	0.21314608
227	0x3dcb799d	0.09935305
228	0xbdcd2136	-0.100161
229	0x3d3656c4	0.04451634
230	0xbcd6995b	-0.026196172
231	0x3d0bd4b0	0.03413838
232	0x3e0ad27d	0.13556857
233	0x3e13870c	0.14406985
234	0xbdeafeae	-0.114743575
235	0xbc913153	-0.017723715
236	0x3dae8dd7	0.085231476
237	0x3d8924fe	0.06696509
238	0x3d7a3c99	0.061092947
239	0x3d8296a5	0.063763894
240	0x3d7fa69e	0.062414758
241	0xbda86de7	-0.08224087
242	0xbd7983ca	-0.0609167
243	0xbd394e4f	-0.045240697
244	0x3dc2a696	0.0950443
245	0xbd898496	-0.06714742
246	0x3e1c7d89	0.15282263
247	0x3e1a4f63	0.15069346
248	0x3df36f81	0.11886502
249	0x3d196914	0.037453726
250	0xbddea46d	-0.108712055
251	0xbc68a9b8	-0.01420062
252	0xbdbe3b79	-0.09288687
253	0xbd6a3e0e	-0.057188086
254	0x3d7fbdde	0.06243693
255	0x3d5b14be	0.05348658

encoder.6.bias f4 [32]
0	0xbd657e59	-0.056028698
1	0xbcefa836	-0.029255014
2	0x3dbcada2	0.09212805
3	0x3d790438	0.06079504
4	0xbde7697d	-0.11299417
5	0xbcd59ab7	-0.02607475
6	0xbd885044	-0.066559345
7	0x3dd4685a	0.10371466
8	0x3cfa0a51	0.030522497
9	0xbca01790	-0.019542485
10	0x39dd575b	0.0004221749
11	0x3d8b8dc6	0.068141505
12	0x3dd875a8	0.10569316
13	0xbd6b8760	-0.05750215
14	0x3d27bc7e	0.040951245
15	0x3de6a763	0.11262395
16	0x3da9b0d1	0.08285678
17	0xbe20920c	-0.15680712
18	0xbe2a82f5	-0.16651519
19	0x3ce27a1d	0.027646119
20	0xbd325cf1	-0.043545667
21	0x3d0886d6	0.033331715
22	0xbdc1c44b	-0.09461268
23	0xbe4000d9	-0.18750323
24	0xbd33e61a	-0.043920614
25	0x3cce4dd9	0.025183605
26	0xbdc20bb7	-0.09474891
27	0xbe521098	-0.20514143
28	0x3d1806b8	0.037115782
29	0x3e00fa75	0.12595542
30	0x3d34049a	0.0439497
31	0x3d3120e8	0.043244272

encoder.9.weight f4 [4, 32]
0	0x3de9e7fc	0.11421201
1	0xbde5976f	-0.11210524
2	0xbe7ed1e2	-0.24884751
3	0x3d6a8628	0.057256848
4	0xbc8fe906	-0.017567169
5	0xbb47ce0d	-0.0030487806
6	0x3dbde9b3	0.0927309
7	0xbd69cf28	-0.057082325
8	0xbd978aa2	-0.07399489
9	0x3e85c168	0.2612412
10	0x3d4c852f	0.0499317
11	0xbe2532e2	-0.16132692
12	0x3dbca502	0.0921116
13	0xbe4a8b5b	-0.19779722
14	0xbe27a9a9	-0.16373314
15	0xbd9bcefb	-0.07607838
16	0x3e28e854	0.16494876
17	0xbe07e63b	-0.1327142
18	0xbca9a0e0	-0.020706594
19	0xbe27e31b	-0.16395228
20	0x3d3252da	0.043536045
21	0x3e04cf58	0.1296972
22	0x3d59e34a	0.053195275
23	0x3ce2ad4d	0.027670527
24	0xbd961d1c	-0.07329771
25	0xbdba3325	-0.09091786
26	0x3dedd7bf	0.11613416
27	0xbe3bfefc	-0.18358988
28	0xbe0f49ab	-0.13992946
29	0xbcb562bf	-0.022141812
30	0xbcf9c5a0	-0.030489743
31	0x3cde1e74	0.02711413
32	0xbe34fb1b	-0.17673914
33	0x3d8f12c0	0.06985998
34	0x3cf63aa5	0.03005726
35	0xbe1b0936	-0.15140232
36	0x3dcb903e	0.099396214
37	0x3df22204	0.11822894
38	0xbe2e6bd3	-0.17033319
39	0x3e288c53	0.1645978
40	0xb9b13571	-0.00033799888
41	0x3c407ce4	0.011748526
42	0x3e1e3b6f	0.1545236
43	0x3e3e4bf9	0.18583669
44	0x3d7c1452	0.061542816
45	0xbe2567f5	-0.16152938
46	0x3d59bd5b	0.0531591
47	0x3bc4a3c4	0.0060009677
48	0xbdc45dbb	-0.0958819
49	0xbd436662	-0.04770506
50	0x3e566a08	0.20938885
51	0x3e318ea0	0.17339563
52	0xbdbab286	-0.09116082
53	0xbe6688b5	-0.22513087
54	0x3e0b5468	0.13606417
55	0xbdc8eb7c	-0.0981054
56	0xbd0a8045	-0.033813734
57	0xbd68e4df	-0.056858893
58	0x3c4ffc51	0.012694434
59	0xbda9579f	-0.082686655
60	0x3d973fca	0.07385214
61	0x3e017adc	0.12644523
62	0xbe148847	-0.1450511
63	0xbe47b856	-0.19503912
64	0x3e255e37	0.16149221
65	0xbdf41757	-0.11918514
66	0x3dd90675	0.10596935
67	0x382f297e	4.1761894e-05
68	0xbe25ff97	-0.16210781
69	0xbd428299	-0.04748783
70	0x3db23d4e	0.08703099
71	0xbd812c65	-0.06307296
72	0xbe3b20f7	-0.18274294
73	0xbdbc63cd	-0.09198723
74	0xbe27fd60	-0.16405249
75	0x3d82faa7	0.063954644
76	0xbe8cd9d9	-0.27509955
77	0xbd69023b	-0.056886893
78	0xbcf0d30c	-0.02939751
79	0xbdcdef43	-0.10055401
80	0x3e21abae	0.15788147
81	0xbe0d82ca	-0.13819423
82	0xbe2a2b21	-0.16618015
83	0xbd04afcb	-0.03239421
84	0x3c89dd0e	0.01682904
85	0x3d47bad3	0.048762154
86	0xbe1ddff4	-0.15417463
87	0xbd80f1a6	-0.06296091
88	0xbe1d87c0	-0.15383816
89	0xbe426e29	-0.18987335
90	0xbd52ad66	-0.051434897
91	0xbe4d78a1	-0.20065548
92	0xbd4c3f12	-0.049864836
93	0xbd0fad0d	-0.035077143
94	0x3d86d716	0.06583993
95	0x3cdf4cf2	0.02725837
96	0x3e155fd4	0.14587337
97	0x3dc7ff7f	0.09765529
98	0xbe015388	-0.12629521
99	0xbd7af629	-0.061269913
100	0xbd0e229e	-0.034700982
101	0x3e1ef61f	0.15523575
102	0x3d560b05	0.052256603
103	0xbdca86ad	-0.098889686
104	0xbd973b81	-0.07384396
105	0x3dbea9c9	0.09309728
106	0xbe340479	-0.17579831
107	0xbe28a3fb	-0.16468804
108	0xbe600e4d	-0.21880455
109	0xbd9e22f4	-0.077215105
110	0xbe43797b	-0.1908931
111	0xbe46512b	-0.193669
112	0x3e49172f	0.1963775
113	0x3e0ab9a5	0.1354738
114	0x3d0d2cc3	0.034466516
115	0x3d068d9d	0.032849897
116	0x3db470ee	0.08810602
117	0xbda6679c	-0.08125231
118	0xbd3f09ea	-0.046640314
119	0x3dafa3ad	0.085761406
120	0x3e079f11	0.13244273
121	0x3ddb6397	0.10712355
122	0x3e13ced8	0.14434373
123	0x3e2f8c42	0.17143348
124	0xbe2fa5a0	-0.17153025
125	0xbe1b4779	-0.15163983
126	0x3e1c0756	0.15237173
127	0xbdcfcbae	-0.10146271

encoder.9.bias f4 [4]
0	0xbe482116	-0.19543871
1	0xbb280981	-0.002564043
2	0xbe4408d9	-0.19144
3	0x3e45660d	0.1927721

decoder.0.weight f4 [32, 4]
0	0x3e880c56	0.26571912
1	0xbe4ec55e	-0.20192477
2	0x3f07d75c	0.5306299
3	0xbe6065f7	-0.21913897
4	0xbed9f8f1	-0.4257274
5	0x3c0fbd96	0.008773228
6	0x3e25e591	0.16200854
7	0xbe1e1d2b	-0.15440814
8	0xbeb9ebf8	-0.36312842
9	0x3e948fb2	0.2901588
10	0xbec335b5	-0.38126913
11	0xb9eb7539	-0.0004491003
12	0xbf0c86a8	-0.5489297
13	0xbe765c7d	-0.24058719
14	0x3edc6ebe	0.4305324
15	0xbdf305ed	-0.11866365
16	0x3b361708	0.0027784724
17	0x3e02e05a	0.12780896
18	0xbe86145a	-0.26187402
19	0x3ed1b11c	0.40955436
20	0x3eeee203	0.46656808
21	0xbe6049e7	-0.21903192
22	0xbe4aab18	-0.1979183
23	0x3e750803	0.23928837
24	0xbc0d1119	-0.008610033
25	0xbe910b7b	-0.2832907
26	0xbf084214	-0.5322583
27	0x3eb39b66	0.35079497
28	0xbe83b93e	-0.25727266
29	0x3d059820	0.03261578
30	0xbe3a30e8	-0.18182719
31	0xbeef5fd2	-0.46752793
32	0x3eae8779	0.34087732
33	0xbebeee25	-0.37291065
34	0xbea7e927	-0.3279507
35	0xbe9d05b1	-0.30668405
36	0xbeab50d9	-0.3346012
37	0xbec06b37	-0.37581798
38	0x3ce8af01	0.02840376
39	0x3eae43bf	0.3403606
40	0x3b4f8fec	0.0031671477
41	0x3ef65ced	0.48117772
42	0xbead4b54	-0.33846533
43	0xbeba78dc	-0.36420333
44	0x3e1345ba	0.14382067
45	0x3ec608f5	0.3867871
46	0xbe907e1f	-0.28221223
47	0x3dd83716	0.10557382
48	0x3ed7c845	0.4214498
49	0xbe9f90f2	-0.31165272
50	0x3d860f2f	0.06545865
51	0xbe87f3a2	-0.26553065
52	0x3eed2a81	0.4632149
53	0x3ed67ab1	0.4189048
54	0x3e2ade60	0.16686392
55	0xbeb9748b	-0.36221728
56	0x3e40a118	0.18811452
57	0x3e90d620	0.28288364
58	0x3eef6b8f	0.46761748
59	0xbe490f19	-0.19634666
60	0xbe9ce602	-0.30644232
61	0xbdfe8b1d	-0.124288775
62	0xbe8e8801	-0.27838138
63	0xbdca9059	-0.098908134
64	0xbef01f5a	-0.4689892
65	0x3dee9d89	0.11651141
66	0xbeb714a3	-0.35757932
67	0xbeb21dd1	-0.34788373
68	0xbea46778	-0.3211019
69	0xbe77c455	-0.24195988
70	0xbeb7fed0	-0.35936594
71	0x3f065b82	0.5248338
72	0xbe93881d	-0.28814784
73	0xbee38926	-0.44440573
74	0x3e8e1402	0.2774964
75	0x3e9b10f0	0.3028636
76	0x3e2b32ac	0.16718549
77	0x3e265037	0.16241537
78	0x3e9dd956	0.30829877
79	0xbea9a2f7	-0.33132145
80	0xbe5a421d	-0.21314283
81	0xbe792ac1	-0.24332716
82	0xbd77690e	-0.060402922
83	0xbe172ffb	-0.14764397
84	0xbe513414	-0.20430022
85	0x3e2d0baa	0.1689898
86	0xbe9727b6	-0.29522485
87	0xbe1ebd93	-0.15502004
88	0x3eec6dbc	0.4617747
89	0xbec2ff86	-0.38085574
90	0xbe29f544	-0.16597468
91	0x3dc342e7	0.09534245
92	0x3d6225d4	0.055211857
93	0x3e675285	0.22590072
94	0x3e4bd4d5	0.19905408
95	0x3ed26795	0.41094652
96	0xbed4ab8e	-0.41537136
97	0x3d8944d2	0.067025796
98	0xbe1dffed	-0.15429659
99	0x3ead67b6	0.33868188
100	0x3e8df604	0.27726758
101	0x3d2f1e16	0.0427533
102	0xbf035595	-0.5130246
103	0x3edc0a1b	0.4297646
104	0x3f0061b6	0.50149095
105	0x3d048834	0.032356456
106	0xbdaafa9c	-0.08348581
107	0xbedbf9c6	-0.42964
108	0xbeccd0e2	-0.40003115
109	0x3e9d036f	0.30666682
110	0xbd88df73	-0.066832446
111	0x3ebe0462	0.3711272
112	0xbdff2477	-0.12458127
113	0x3ebe1cc8	0.37131333
114	0xbeda2f96	-0.4261443
115	0xbe8ab4e0	-0.27091122
116	0xbc2ca27f	-0.010536789
117	0x3effddb9	0.49973848
118	0xbea0f752	-0.3143869
119	0x3ba4ad66	0.0050255535
120	0x3eb08a84	0.3448068
121	0xbed52e53	-0.41636905
122	0x3ee7f70f	0.45305678
123	0x3e7482fb	0.2387809
124	0xbe92b176	-0.28651017
125	0x3ee26775	0.44219556
126	0xbe8bcb32	-0.27303463
127	0x3ee88930	0.45417166

decoder.0.bias f4 [32]
0	0xbc2764fb	-0.010216947
1	0x3ec95bc0	0.39327812
2	0xbe6b2a67	-0.22965394
3	0x3dc75877	0.0973367
4	0xbeeacb75	-0.4585835
5	0x3ef00a91	0.46883062
6	0x3ecc9ecf	0.3996491
7	0x3e475f19	0.1946987
8	0xbeb29597	-0.34879753
9	0xbc92174e	-0.017833378
10	0x3e568d97	0.2095245
11	0xbe7d45ac	-0.24733609
12	0x3f06778c	0.52526164
13	0x3cf266b2	0.029589985
14	0xbee96244	-0.45582783
15	0x3e74f8ce	0.23923036
16	0x3f064175	0.5244363
17	0xbd6a91af	-0.05726784
18	0x3dbae394	0.09125438
19	0x3ef4f5bb	0.47843727
20	0x3dbfe04e	0.093689546
21	0xbeab1b3d	-0.3341922
22	0xbee67d02	-0.45017248
23	0x3e4dd17c	0.20099443
24	0x3e85cd53	0.26133212
25	0x3edd573e	0.43230623
26	0x3dbb7527	0.091532044
27	0x3f047d61	0.51753813
28	0x3dc9826f	0.09839331
29	0x3d8a1bf2	0.067436114
30	0x3ed414cb	0.41422114
31	0x3d6784ce	0.056523137

decoder.2.weight f4 [64, 32]
0	0xbe99cb14	-0.3003775
1	0x3d92f70d	0.071760274
2	0x3b050eaf	0.0020302942
3	0x3d131326	0.035906933
4	0xbd8e8418	-0.06958789
5	0xbd91010d	-0.070802785
6	0x3dd9022d	0.10596118
7	0xbdaf5ec6	-0.085629985
8	0x3c9b8e5f	0.018988786
9	0xbd24fd72	-0.040280767
10	0x3e01a281	0.12659647
11	0xbd831152	-0.06399788
12	0xbabe997c	-0.0014541592
13	0xbd4f9ef8	-0.050688714
14	0x3c045aa0	0.008078247
15	0xbe17073a	-0.1474885
16	0x3e16fd5d	0.14745088
17	0xbd21baea	-0.039484896
18	0xbe13636c	-0.14393395
19	0xbcfa73f1	-0.030572863
20	0x3d3fa290	0.04678589
21	0xbd24a5b3	-0.040197086
22	0xbe54a6aa	-0.20766702
23	0x3ceb2b15	0.028707067
24	0x3e08f0ac	0.13373059
25	0xbd1e9b74	-0.03872247
26	0x3ddac75e	0.106825575
27	0x3cd1eb4c	0.025624894
28	0xbdbbc0d0	-0.091676354
29	0x3bf3952b	0.0074335537
30	0xbe0c2a68	-0.13688052
31	0xbc610a27	-0.013735331
32	0x3e08249a	0.13295212
33	0xbdb2fd08	-0.08739668
34	0xbd6dfc00	-0.058101654
35	0xbdf793e2	-0.12088753
36	0xbe191edb	-0.14953177
37	0x3e21380d	0.15744038
38	0xbe1a079c	-0.15041965
39	0xbdf2c636	-0.11854212
40	0xbe3ece03	-0.18633275
41	0x3d8b9234	0.068149954
42	0xbdf6bfe4	-0.12048319
43	0x3d07acf2	0.033123918
44	0x3d8283e1	0.0637281
45	0xbbc4ad80	-0.006002128
46	0x3e0983af	0.1342914
47	0xbd639110	-0.055558264
48	0xbc944d2a	-0.018103201
49	0x3e067ddb	0.13133948
50	0xbda4f525	-0.0805457
51	0xbcc69b70	-0.02424404
52	0x3cdaba98	0.026700303
53	0xbd9a16db	-0.075238906
54	0x3d855c65	0.065117635
55	0x3e027833	0.12741165
56	0xbd0598e9	-0.03261653
57	0xbd69644f	-0.056980427
58	0x3de8ec3a	0.11373182
59	0x3e15f466	0.14644012
60	0xbdfd339d	-0.1236336
61	0x3e078e7f	0.13237952
62	0xbe2bfe5d	-0.1679625
63	0xbd237d56	-0.03991445
64	0x3e6e04e5	0.23244055
65	0x3e0ab87c	0.13546938
66	0xbd9814e1	-0.07425857
67	0x3d9f4966	0.077776715
68	0x3d949fb3	0.07257023
69	0xbe6e8536	-0.23293003
70	0xbe5fe907	-0.21866237
71	0x3e63f7d8	0.22262514
72	0x3e63b297	0.22236095
73	0xbdd4066b	-0.10352787
74	0xbe170582	-0.14748195
75	0xbe121b9d	-0.14268346
76	0xbd27cdd5	-0.04096778
77	0x3e769022	0.2407842
78	0xbd267ece	-0.040648274
79	0x3d906abe	0.070516095
80	0x3de34c96	0.11098592
81	0xbe9c443c	-0.3052081
82	0x3e571197	0.21002804
83	0x3c8bbe4a	0.01705851
84	0x3dca31ed	0.09872804
85	0x3d31fbc3	0.04345299
86	0xbeb07683	-0.34465417
87	0xbe21a987	-0.15787326
88	0xbe5dfc5e	-0.21678302
89	0xbd925499	-0.07145042
90	0x3d8f5515	0.0699865
91	0xbe117108	-0.14203274
92	0xbe141608	-0.14461529
93	0x3e0f9ba3	0.14024214
94	0x3dcd823d	0.100346066
95	0x3dca9ed8	0.09893578
96	0xbe381fda	-0.179809
97	0xbe166f1a	-0.1469082
98	0x3ce7c438	0.028291807
99	0x3d8bc7a5	0.068251885
100	0x3d10421c	0.035219297
101	0xbe4446db	-0.19167654
102	0x3b8d311d	0.0043088333
103	0x3cff99c7	0.031201256
104	0x3d6c7038	0.057724208
105	0xbd46122f	-0.048357185
106	0x3cb41638	0.021983251
107	0x3e33144b	0.1748821
108	0x3e165f1c	0.14684719
109	0xbd5e691e	-0.054299466
110	0x3d35f7b0	0.044425666
111	0x3d01cdd6	0.03169044
112	0xbe33b09d	-0.17547841
113	0xbdd2da05	-0.1029549
114	0xbd33760a	-0.043813743
115	0x3cb2840e	0.021791484
116	0x3d515d20	0.0511142
117	0x3dd60ea2	0.1045201
118	0xbe06f781	-0.13180353
119	0xbe33f614	-0.1757434
120	0x3cf17aba	0.029477466
121	0xbdf10459	-0.117684074
122	0xbdf980a3	-0.12182739
123	0xbd10bc78	-0.035335988
124	0xbe2b0c99	-0.16704024
125	0xbd137fd0	-0.036010563
126	0x3c40dde7	0.011771656
127	0xbcc81340	-0.024423242
128	0xbe442931	-0.19156338
129	0xbd70377a	-0.058646657
130	0x3cb2c22f	0.02182111
131	0x3caf0ffc	0.021369927
132	0xbdf37c9b	-0.11889001
133	0xbe3e31cb	-0.18573682
134	0xbcab9474	-0.020944811
135	0x3be25330	0.0069068894
136	0xbe027d58	-0.12743127
137	0x3de0a892	0.10969652
138	0xbeb4f1dc	-0.35340774
139	0xbe8b72c1	-0.27235988
140	0xbdf31d55	-0.11870829
141	0xbe275cf5	-0.16344054
142	0xbe23cb10	-0.15995431
143	0x3e414a09	0.18875898
144	0x3c29bebe	0.010360418
145	0x3dfbef4f	0.12301504
146	0x3e316884	0.17325026
147	0xbeb49969	-0.35273293
148	0xbc484d89	-0.012225517
149	0xbd80e79f	-0.06294178
150	0x3bc1208f	0.005893774
151	0xbd96376d	-0.073347904
152	0x3e50325e	0.20331714
153	0xbdea6f31	-0.11446989
154	0xbe5070de	-0.20355555
155	0xbcd1619a	-0.025559235
156	0xbe2b86cc	-0.1675064
157	0xbe6197c4	-0.2203055
158	0x3db9c593	0.090708874
159	0xbd228ffe	-0.039688103
160	0x3bdfc556	0.006828944
161	0x3d930c34	0.07180062
162	0x3dfa184c	0.122116655
163	0x3d368bc9	0.044566903
164	0xbe1e913b	-0.15485089
165	0x3d96efb3	0.07369938
166	0x3d9d297a	0.07673927
167	0x3d6bbf92	0.057555743
168	0xbdeec68a	-0.11658962
169	0x3d8c9d8c	0.06865987
170	0x3daff2ae	0.08591209
171	0x3dc0fe17	0.09423464
172	0xbd01614b	-0.031586926
173	0xbd1b761e	-0.037954442
174	0x3e047649	0.12935747
175	0xbd8e96d7	-0.06962364
176	0xbd757802	-0.0599289
177	0x3da63efd	0.08117483
178	0xb8a3206f	-7.778487e-05
179	0x3ddc7890	0.10765183
180	0x3d5f686d	0.054542948
181	0xbdfb9d57	-0.122858696
182	0x3b006494	0.00195912
183	0x3e4c6562	0.1996055
184	0x3d0a5cb9	0.033779833
185	0xbcf66fe7	-0.030082656
186	0x3d736e76	0.059431516
187	0xbe1f4eb3	-0.15557365
188	0xbe1149b8	-0.14188278
189	0xbd346f70	-0.044051588
190	0xbb51a5f8	-0.0031989794
191	0xbdef9daf	-0.11699998
192	0xbe4aac2f	-0.19792245
193	0x3dbf0867	0.093277745
194	0x3dd29f29	0.10284264
195	0xbd8b9c0a	-0.068168715
196	0xbd072dd2	-0.033002682
197	0xbddc22ae	-0.10748802
198	0x3e062a3f	0.13102053
199	0xbdd6e9de	-0.104938254
200	0x3b943aed	0.004523626
201	0xbdc7168c	-0.09721097
202	0xbd6291c6	-0.0553148
203	0xbcf3c84a	-0.029758591
204	0x3d68d0d6	0.056839786
205	0x3d2d5f83	0.042327415
206	0xbde752d0	-0.11295092
207	0xbe007a0f	-0.12546562
208	0x3d52880e	0.051399283
209	0xbdae7e5e	-0.085201964
210	0xbe04ae92	-0.12957218
211	0xbe27b17e	-0.16376302
212	0x3dac5ed9	0.08416528
213	0xbcf72388	-0.03016831
214	0x3d5a605a	0.053314544
215	0xbe17a479	-0.14808835
216	0x3e5004d9	0.20314349
217	0x3e55cdb0	0.20879245
218	0xbd42bd65	-0.047543902
219	0x3994b8d4	0.00028366467
220	0x3d3750fc	0.044754967
221	0x3da02ba6	0.07820825
222	0x3dc397aa	0.09550412
223	0xbe1820f3	-0.14856319
224	0xbe2fefeb	-0.17181365
225	0xbd4ee796	-0.050513826
226	0x3db94c20	0.09047723
227	0x3e8e33c9	0.27773884
228	0x3e190133	0.14941864
229	0xbbeed12c	-0.007288119
230	0xbe23d30c	-0.15998477
231	0x3e28cbea	0.16484037
232	0xbdf59ac2	-0.11992408
233	0xbae3c58a	-0.0017377597
234	0x3dd87d85	0.10570816
235	0x3df890e9	0.121370144
236	0xbe1c24d5	-0.15248425
237	0x3e114c36	0.14189228
238	0x3df58023	0.11987331
239	0x3e0450a1	0.12921382
240	0x3b6408cc	0.0034795282
241	0x3da862b8	0.08221954
242	0xbbe90c82	-0.0071120868
243	0xbdc05f79	-0.0939321
244	0x3d56f7f6	0.052482568
245	0xbe33be14	-0.17552978
246	0x3dd57191	0.10422052
247	0xbe477acc	-0.19480437
248	0x3dcc7448	0.099831164
249	0x3df6d525	0.12052373
250	0x3d164662	0.036688216
251	0x3d1c86ff	0.03821468
252	0xbc8a38f5	-0.016872862
253	0x3dd93a24	0.106067926
254	0xbd8b69a8	-0.06807262
255	0xbd7c4032	-0.06158466

decoder.2.bias f4 [64]
0	0x3e18411a	0.14868584
1	0xbe25b0d6	-0.16180739
2	0xbeac8cd6	-0.337012
3	0x3d597f66	0.053100012
4	0x3daa2b0b	0.08308991
5	0x3e690c8b	0.22758691
6	0x3e616ae8	0.22013438
7	0xbd393383	-0.04521514
8	0xbc84b770	-0.016200751
9	0x3d0ca344	0.03433539
10	0xbe339d0c	-0.17540377
11	0x3d9f17e1	0.077682264
12	0xbc92d070	-0.017921656
13	0xbddf6d36	-0.10909502
14	0x3db06417	0.086128406
15	0xbde6e355	-0.11273829
16	0x3d4172d8	0.047228664
17	0x3e3a4c5d	0.18193193
18	0xbe2a0930	-0.16605067
19	0x3e06ebb4	0.13175851
20	0xbd87f864	-0.066391736
21	0xbe29522b	-0.16535251
22	0x3cdcac34	0.026937582
23	0x3e2f4ab8	0.17118347
24	0xbd8f681d	-0.0700228
25	0x3d94526f	0.072422855
26	0x3e685efc	0.22692484
27	0x3e4192d3	0.18903665
28	0x3d366104	0.044526115
29	0x3e40641c	0.18788189
30	0xbd92447f	-0.07141971
31	0xbe250882	-0.16116527
32	0x3db1b280	0.08676624
33	0xbda2ab69	-0.0794285
34	0x3ddcabc5	0.1077495
35	0x3dbf86bf	0.09351873
36	0x3da3351e	0.07969116
37	0x3d13aa04	0.03605081
38	0x3d516528	0.05112186
39	0x3cd7da65	0.026349256
40	0xbd2c75a8	-0.042104393
41	0xbd9a272a	-0.07527001
42	0x3e2d8663	0.16945796
43	0x3e54b133	0.20770721
44	0x3e40f2a4	0.1884256
45	0x3b9e026a	0.004822065
46	0x3dc39816	0.095504925
47	0x3e0bb780	0.13644218
48	0xbe11c06c	-0.1423356
49	0xbdf31319	-0.11868877
50	0x3e7a812a	0.24463335
51	0x3e07c016	0.13256869
52	0xbd8c7ec4	-0.06860116
53	0xbde43428	-0.111427605
54	0x3e5ff2bb	0.21869938
55	0x3e97343c	0.2953204
56	0x3d0eaa57	0.034830417
57	0x3e16be56	0.14721045
58	0x3e24df16	0.16100726
59	0xbd154362	-0.036441214
60	0x3bc01f0b	0.0058630756
61	0x3e29de83	0.16588788
62	0xbe1565a6	-0.14589557
63	0xbc3d59a3	-0.011557016

decoder.4.weight f4 [128, 64]
0	0xbc980133	-0.01855526
1	0xbd56ae7e	-0.052412502
2	0xbb9be4b2	-0.004757487
3	0xbdccf443	-0.10007527
4	0xbdaa3f63	-0.08312871
5	0x3a604a4e	0.0008555994
6	0x3dc4c31c	0.09607527
7	0x3da76d4e	0.08175145
8	0x3d971ccf	0.07378542
9	0xbdd46f6a	-0.10372813
10	0xbdbdd720	-0.092695475
11	0xbe03f8c0	-0.1288786
12	0x3da5ea82	0.081013694
13	0xbdea4434	-0.1143879
14	0x3d41f0b2	0.047348686
15	0xbdccea00	-0.100055695
16	0xbdbe8253	-0.09302201
17	0xbdde8d0e	-0.10866748
18	0xbe0a463f	-0.1350336
19	0x3d4bc4e6	0.049748324
20	0x3d62b26c	0.055345938
21	0xb99e53ca	-0.00030198536
22	0x3d0bee69	0.034162913
23	0x3d125a86	0.03573086
24	0xbda1d970	-0.07902801
25	0xbd536a50	-0.05161506
26	0x3e01910c	0.12652987
27	0x3d3c6250	0.045992196
28	0xbd9ec8ad	-0.077531196
29	0x3cb25113	0.021767175
30	0x3d95ffe9	0.073242016
31	0x3d8d6056	0.0690314
32	0xbdd909b7	-0.10597556
33	0x3dea2323	0.11432483
34	0x3ddd24a3	0.107980035
35	0x3c27c1dc	0.010239091
36	0x3dc7b95b	0.097521506
37	0xbdb2d4ab	-0.087319694
38	0xbe44572f	-0.19173883
39	0x3dece8d9	0.1156785
40	0xbe107a0b	-0.14109056
41	0xbc547964	-0.012968395
42	0xbda1f6b0	-0.0790838
43	0xbe11fa77	-0.14255701
44	0xbd92dba8	-0.07170802
45	0xbe5b9307	-0.21442805
46	0x3c299502	0.010350468
47	0xbde8e602	-0.113719955
48	0xbe5c8aa9	-0.2153727
49	0xbcdc06f8	-0.026858792
50	0xbc7dbd2e	-0.0154869985
51	0x3daaac26	0.08333616
52	0xbdb1b244	-0.086765796
53	0x3e0336b0	0.1281383
54	0xbd70edf5	-0.058820684
55	0x3e277456	0.16352972
56	0x3dd0bdbc	0.10192439
57	0x3da7a099	0.081849284
58	0x3d21675a	0.039405204
59	0x3dd0754c	0.101786226
60	0x3dfd705d	0.12374947
61	0xbbfc0f4c	-0.007692253
62	0x3de73aa5	0.112904824
63	0x3dc7d510	0.09757435
64	0x3d339d80	0.043851376
65	0x3dc43fee	0.09582506
66	0x3e3d192f	0.18466638
67	0xbd8cc922	-0.068743005
68	0x3d62c2f0	0.055361688
69	0xbd6184e1	-0.055058364
70	0xbc808500	-0.01568842
71	0x3abb260a	0.0014278304
72	0xbd8fb3b1	-0.07016695
73	0xbd179cbc	-0.037014708
74	0x3d2da7f3	0.042396497
75	0x3d8825e4	0.06647852
76	0xbde47433	-0.11154976
77	0x3db01560	0.08597827
78	0x3e1841de	0.14868876
79	0xbe05a818	-0.13052404
80	0xbe03a9cd	-0.12857743
81	0x3ddef6cc	0.108869165
82	0xb9e1c7e2	-0.00043064269
83	0xbda9ec20	-0.082969904
84	0x3dad7661	0.084698446
85	0x3d3eae5b	0.046552997
86	0x3d516b62	0.0511278
87	0xbb919027	-0.004442233
88	0xbe318d2b	-0.17339008
89	0x3df75ec2	0.120786205
90	0xbd2fddf9	-0.0429363
91	0x3cc82f12	0.024436507
92	0x3dc7b5cb	0.09751471
93	0x3d2fc5be	0.04291319
94	0x3db4e307	0.088323645
95	0x3d90aed1	0.070645936
96	0x3d06356a	0.032765783
97	0xbd71cf34	-0.059035495
98	0x3d936e25	0.07198743
99	0x3e08b4c9	0.13350214
100	0xbd006c19	-0.03135309
101	0x3dd700c2	0.104981914
102	0x3d9d4593	0.07679286
103	0x3db0267f	0.086010925
104	0x3d7e5dc1	0.06210113
105	0x3d56e03c	0.05245994
106	0xbd648b61	-0.055796985
107	0x3d4b5e04	0.049650207
108	0xbd111f21	-0.035430077
109	0x3b8e28a2	0.00433834
110	0xbcac982e	-0.021068659
111	0x3cf2293d	0.02956068
112	0xbc9f2ea6	-0.019431423
113	0xbe1d6065	-0.15368803
114	0xbcb4eb6a	-0.02208491
115	0x3cde782c	0.027156912
116	0x3d716626	0.058935307
117	0x3c9f9c70	0.019483775
118	0xbceb71b2	-0.028740738
119	0x3da59cc9	0.08086545
120	0x3df30873	0.11866846
121	0x3be90996	0.0071117384
122	0xbe3b6bfd	-0.18302913
123	0xbd37badd	-0.04485594
124	0xbd885f21	-0.066587694
125	0x3da6e8d1	0.08149875
126	0xbcb534f7	-0.022119982
127	0x3d08cbe6	0.033397578
128	0x3d17beaa	0.037047066
129	0xbc56cb55	-0.013110002
130	0x3d4cf297	0.05003604
131	0x3dbb39f2	0.091419116
132	0xbe6e520a	-0.23273483
133	0xbe0bce65	-0.13652952
134	0x3e1250f1	0.14288689
135	0x3cc4e8e4	0.024036832
136	0xbd378b31	-0.044810478
137	0x3b6c1000	0.003602028
138	0x3da3e36e	0.08002363
139	0xbc2986f5	-0.010347118
140	0xbc23beed	-0.009994251
141	0xbe1ebef8	-0.15502536
142	0x3dc3490e	0.095354185
143	0x3d3a3370	0.04545921
144	0xbd7fc2b6	-0.06244155
145	0x3b66d5d9	0.0035222678
146	0xbd8eda9a	-0.06975289
147	0x3d7ce46f	0.06174129
148	0xbcb63244	-0.022240765
149	0x3c9b2275	0.018937329
150	0x3c8aed7b	0.016958943
151	0xbc88b888	-0.016689554
152	0x3ccc2b44	0.024922974
153	0x3c93e614	0.018054046
154	0xbce5ff65	-0.028075883
155	0xbda669f2	-0.08125676
156	0xbe2c836c	-0.16847008
157	0x3d5ae54a	0.053441323
158	0xbd033d15	-0.032040674
159	0xbd6b5bff	-0.05746078
160	0x3ded77cc	0.11595115
161	0xbd70aac0	-0.05875659
162	0xbd2a59b9	-0.041589472
163	0xbd7ab740	-0.061209917
164	0x3c9c86ae	0.019107189
165	0xbe84d973	-0.2594715
166	0x3dd4563c	0.103680104
167	0xbd6c90dd	-0.05775534
168	0xbe5e6e7e	-0.21721837
169	0xbda88d57	-0.082300834
170	0xbd6688e9	-0.05628291
171	0xbdac99f0	-0.08427799
172	0x3dbb17be	0.09135388
173	0xbe7b4b72	-0.24540499
174	0xbdff6eec	-0.124723285
175	0x3e252577	0.16127573
176	0xbe44e1aa	-0.19226709
177	0xbd77f3e0	-0.06053531
178	0xbd5d9fdc	-0.054107532
179	0x3e17953d	0.14803024
180	0x3d68ee61	0.05686796
181	0x3e054f9a	0.13018647
182	0xbe12d88e	-0.14340422
183	0xbde431bd	-0.11142299
184	0x3c336e3c	0.010951575
185	0x3e094fca	0.13409343
186	0xbcb9bce7	-0.022673083
187	0x3e0f3d55	0.1398824
188	0xbd900661	-0.07032467
189	0xbd6ff941	-0.058587316
190	0x3d1afaec	0.037836954
191	0xbe618972	-0.22025087
192	0x3d505c86	0.050869487
193	0x3c323e21	0.0108790705
194	0x3d87f12d	0.066377975
195	0x3d354a8b	0.044260543
196	0xbe16f896	-0.14743266
197	0x3cd855dd	0.02640813
198	0xbd3cb1f9	-0.046068165
199	0xbd933da6	-0.07189493
200	0x3ce765f0	0.02824685
201	0xbdbefc2c	-0.09325442
202	0xbd8584ed	-0.06519494
203	0x3b0526ec	0.0020317389
204	0xbdd29a95	-0.102833904
205	0xbdbd5bca	-0.09246023
206	0x3dfdffb3	0.124022864
207	0x3cdff242	0.027337197
208	0xbd29ec36	-0.041485034
209	0xbd10e551	-0.035374943
210	0x3e1f8086	0.15576372
211	0xbc08be8f	-0.008346214
212	0xbdc03c59	-0.093865104
213	0x3d138430	0.036014736
214	0x3da00eee	0.078153476
215	0xbbb68d43	-0.005571039
216	0xbdaa899d	-0.08327029
217	0x3dd1dc37	0.10247081
218	0x3dc816b4	0.09769955
219	0xbbbf8d48	-0.0058456995
220	0xbdd4cd09	-0.1039067
221	0x3e054ef6	0.13018402
222	0x3c52e128	0.012871064
223	0xbdb8877e	-0.09010218
224	0xbd81ae03	-0.06332018
225	0xbd58f861	-0.052971248
226	0x3c917825	0.017757485
227	0xbdc5590e	-0.096361265
228	0x3c8f4c96	0.017492574
229	0xbe479246	-0.19489393
230	0x3d8b53be	0.06803082
231	0x3dfbe8d6	0.12300269
232	0xbbce0136	-0.0062867654
233	0xbcfb60ab	-0.030685743
234	0x3d99561f	0.074871294
235	0xbc887d85	-0.016661415
236	0x3d6c13a5	0.057635922
237	0x3bc0edae	0.0058877086
238	0xbcd38f1b	-0.025825074
239	0x3cbfd525	0.023417065
240	0x3e18c61f	0.14919327
241	0x3daaf661	0.08347774
242	0x3db6caaf	0.089253776
243	0x3e18aecb	0.14910428
244	0x3b0660a6	0.0020504384
245	0xbd02cd14	-0.03193386
246	0xbdc8edd5	-0.09810988
247	0xbdab2a0f	-0.083576314
248	0xbce5381b	-0.027980855
249	0xbdf8a868	-0.12141496
250	0x3def32a7	0.11679583
251	0x3d1df6ce	0.03856545
252	0x3d3cdb2e	0.046107464
253	0x3e09c933	0.13455658
254	0x3d50217f	0.050813194
255	0xbdf09f2a	-0.11749108
