Save_Models/model-lat10.pth (torch, 193270 bytes, 16 tensors)

encoder.0.weight f4 [128, 99]
0	0x3ce5db93	0.028058803
1	0xbd98d2c2	-0.07462074
2	0xbce4b9d4	-0.027920641
3	0xba87e097	-0.0010366616
4	0x3d135f39	0.035979483
5	0x3dc1d82e	0.09465061
6	0xbcfc2fb0	-0.030784458
7	0x3d2bcb84	0.041942134
8	0xbd407a45	-0.046991605
9	0xbc91cf03	-0.017798906
10	0x3dccaf03	0.09994318
11	0x3cb5a677	0.022174103
12	0x3d28765e	0.04112851
13	0xbc41631c	-0.011803415
14	0xbd0efc68	-0.034908682
15	0xbd323652	-0.043508835
16	0x3d1a1e62	0.03762663
17	0x3d0199c9	0.0316408
18	0x3b998848	0.0046854354
19	0xba6fdef6	-0.000915035
20	0x3d940f09	0.0722943
21	0xbdacebdd	-0.08443425
22	0xbd93fe1a	-0.072262004
23	0x3da208f6	0.079118654
24	0xbb82018e	-0.0039674705
25	0x3dc355e2	0.09537865
26	0x3d3c38e2	0.045952685
27	0x3c393554	0.011304218
28	0xbbdc0a4f	-0.006715096
29	0x3d15d3fe	0.036579125
30	0x3d027612	0.031850882
31	0x3d0ddcbf	0.034634348
32	0x3cc1fc52	0.023679886
33	0x3d611b06	0.054957412
34	0x3dedc954	0.11610666
35	0xbc48127c	-0.012211438
36	0x3aa6b91d	0.0012719963
37	0x3d6a52c8	0.057207853
38	0x3df51068	0.1196602
39	0x3d8fe729	0.07026512
40	0xbbf25093	-0.007394859
41	0x3db67b01	0.0891018
42	0x3c0813e5	0.0083055245
43	0xbd4f5651	-0.050619427
44	0xbd1603f4	-0.036624864
45	0xbd9ac412	-0.07556929
46	0xbd0bdd3e	-0.03414654
47	0x3d2cd169	0.042191897
48	0x3dc279dd	0.094959
49	0xbd2b3d6b	-0.04180662
50	0x3de5a211	0.11212552
51	0xbd31ef1e	-0.04344093
52	0x3da8efcf	0.08248865
53	0xbd6cb92f	-0.057793792
54	0x3d7cf34f	0.061755475
55	0xbd082f68	-0.033248335
56	0x3d7193ff	0.05897903
57	0xbdaaa30c	-0.0833188
58	0xbc573909	-0.013136157
59	0x3db60175	0.08886997
60	0x3db883cf	0.090095155
61	0x3d58e19d	0.052949537
62	0xbd68d847	-0.056846883
63	0x3db09e96	0.08623998
64	0xbdaa0431	-0.08301581
65	0xbdaab64c	-0.083355516
66	0x3d7b118d	0.061296035
67	0x3dc9027c	0.09814927
68	0x3ce128e3	0.027485317
69	0xbd073ef3	-0.033019017
70	0x3d1c0b17	0.038096514
71	0xbdb15d01	-0.08660317
72	0xbd98043d	-0.074226834
73	0x3dcc8f81	0.09988309
74	0x3da88479	0.08228392
75	0x3c61b5a7	0.013776219
76	0x3d6321f6	0.05545231
77	0xbda5e89a	-0.08101006
78	0x3b08d3d4	0.0020878213
79	0x3d78f28f	0.060778197
80	0x3c1bfaca	0.009520242
81	0x3cd3067c	0.025759928
82	0xbc50c61b	-0.0127425445
83	0x3a93ef9c	0.0011286619
84	0xbd80b989	-0.06285388
85	0xbd84fa58	-0.06493062
86	0x3c685255	0.014179786
87	0x3d79b0fb	0.060959797
88	0xbd3c5282	-0.045977123
89	0xbc5863cd	-0.013207388
90	0x3c9176f5	0.017756918
91	0xbd33fbf6	-0.04394146
92	0x3dab82e4	0.08374575
93	0x3c495c3e	0.012290059
94	0x3cf21fe9	0.029556232
95	0x3a02d21c	0.0004990415
96	0xbcd9c167	-0.02658148
97	0x3d93afbc	0.07211253
98	0x3be0fb9b	0.006865931
99	0xbdd1ae49	-0.102383204
100	0xbdc4f200	-0.0961647
101	0xbde7cdf7	-0.113185816
102	0xbdbc6c85	-0.09200386
103	0xbc764c4c	-0.015032839
104	0x3c681162	0.014164301
105	0xbc037caa	-0.008025328
106	0x3d4f77bc	0.050651297
107	0x3c9e58f2	0.019329522
108	0x3daa9195	0.08328549
109	0x3d53fbdb	0.05175386
110	0xbc69d0c5	-0.014270966
111	0xbd74b279	-0.059740517
112	0xbd67c78d	-0.05658679
113	0xbd655559	-0.055989597
114	0xbbbc59fd	-0.005748032
115	0xbda65529	-0.08121712
116	0xbd3fff7c	-0.04687451
117	0xbc7cc220	-0.015427142
118	0xbcfcabf8	-0.03084372
119	0xbdd40c6c	-0.10353932
120	0x3d9463fc	0.07245633
121	0x3d5b21f4	0.053499177
122	0x3d58b809	0.052909885
123	0xbb8b1215	-0.004244099
124	0x3acbe965	0.0015557228
125	0x3d2f3b72	0.0427813
126	0xbde74ba1	-0.11293722
127	0xbc6770fc	-0.014126059
128	0x3d521ed1	0.05129892
129	0xbd6501a7	-0.05590978
130	0x3ccb626a	0.0248272
131	0xbdc11ccc	-0.09429321
132	0xbda7dd5f	-0.0819652
133	0x3d327f25	0.043578286
134	0x3d9b72e3	0.07590272
135	0xbd555ce8	-0.052090555
136	0x3c80b160	0.015709579
137	0x3d8d7592	0.069071904
138	0xbc665f12	-0.0140607525
139	0xbdd70df2	-0.10500707
140	0x3d2b606a	0.041839994
141	0xbdc253b8	-0.09488624
142	0x3d7e99ac	0.06215827
143	0xbc7213be	-0.014775215
144	0xbde33c27	-0.110954575
145	0x3c8ee052	0.017440949
146	0x3d3368b4	0.043801025
147	0xbcf8e1c3	-0.03038109
148	0x3ca389d2	0.019963179
149	0xbc31397e	-0.01081693
150	0xbd4c9fd9	-0.04995713
151	0xbcf36732	-0.029712293
152	0xbda29ada	-0.07939692
153	0x3d112349	0.03543404
154	0xbd95230c	-0.07282075
155	0xbd5cd843	-0.05391718
156	0xbd6e56b9	-0.058188174
157	0x3d130d63	0.03590144
158	0x3cd1cdf4	0.025610901
159	0xbd7e103f	-0.062027212
160	0x3d86121a	0.06546421
161	0x3d494655	0.04913934
162	0x3cec0105	0.02880908
163	0x3cac5409	0.021036165
164	0x3d829810	0.0637666
165	0x3c0a750c	0.008450758
166	0x3d43a1e1	0.0477618
167	0xbd30fec0	-0.0432117
168	0xbb8bef23	-0.0042704507
169	0xbdc608e5	-0.09669665
170	0xbd0a3bb2	-0.033748336
171	0x3cb2706a	0.021782119
172	0xbd8a7f8f	-0.06762611
173	0x3d2d242d	0.042270828
174	0xbd35222a	-0.044222035
175	0x3cf8d950	0.03037706
176	0xbd005af9	-0.03133676
177	0xbcb7b4c3	-0.022425061
178	0xbdb6b026	-0.089203164
179	0xbcd02a8c	-0.025410913
180	0xbd92caf0	-0.071676135
181	0xbd438381	-0.047732834
182	0x3d90c862	0.0706947
183	0xbd6e507f	-0.058182236
184	0xbc869b9e	-0.016431626
185	0x3db163e7	0.08661633
186	0x3cd52fe8	0.02602382
187	0xbdb2788a	-0.08714397
188	0x3d1ca332	0.038241573
189	0xbd0d2bdb	-0.034465652
190	0xbd4795d4	-0.04872687
191	0xbd73dbf0	-0.05953592
192	0xbc25849d	-0.010102418
193	0xbd037e19	-0.032102678
194	0x3d57c804	0.052680984
195	0x3c03ae78	0.008037202
196	0x3d36b06a	0.044601835
197	0xbd6be5bb	-0.057592135
198	0x3df991c3	0.12186005
199	0xbd2f2bc8	-0.042766362
200	0xbd4345b3	-0.047673892
201	0x3d4a2259	0.049349163
202	0xbd9d1fff	-0.076721184
203	0x3c7d9db6	0.015479496
204	0x3c94d10b	0.018166086
205	0xbd8cb6c5	-0.06870798
206	0x3d0b8b67	0.03406849
207	0x3dc0ef20	0.094206095
208	0x3d4e1a1d	0.050317872
209	0x3c03d1e1	0.0080456445
210	0xbd87c7dc	-0.06629917
211	0xbc8c89ec	-0.01715561
212	0x3d93ed16	0.07222955
213	0xbb982169	-0.0046426547
214	0xbdb43e50	-0.08800948
215	0xbd241287	-0.04005673
216	0x3d67ab69	0.056559954
217	0x3dca1058	0.098663986
218	0x3d64706a	0.05577127
219	0x3d4b975a	0.049704887
220	0xbd97c552	-0.07410683
221	0x3dd4ddac	0.10393843
222	0x3ccf8079	0.025329815
223	0x3b5f6df2	0.0034092632
224	0xbd8d7f4d	-0.06909046
225	0x3d5fbae4	0.054621592
226	0x3dd759a1	0.10515142
227	0xbdab216b	-0.08355983
228	0x3d952d8b	0.07284077
229	0x3da76f55	0.08175532
230	0x3dd28bca	0.10280569
231	0x3d5994de	0.053120486
232	0x3db3cfc2	0.08779861
233	0x3d8e7213	0.06955352
234	0x3d827e2a	0.0637172
235	0x3cab7a9e	0.020932492
236	0x3d8195ef	0.06327426
237	0x3d5c375a	0.053763725
238	0xbd82a348	-0.063788
239	0xbd8796c2	-0.06620552
240	0x3c95466c	0.018222056
241	0xbd31c521	-0.043400887
242	0xbd056adc	-0.032572612
243	0xbd1ab4a7	-0.03776994
244	0x3cf0827f	0.0293591
245	0x3d7da0ae	0.061920814
246	0xbbca0686	-0.0061653284
247	0xbd46f6ed	-0.04857533
248	0xbcab152c	-0.020884119
249	0x3d8fdb88	0.07024294
250	0x3dd12cff	0.102136604
251	0x3d00350b	0.031300586
252	0x3cd30b82	0.025762323
253	0xbc42110c	-0.011844885
254	0x3ba1ac17	0.004933845
255	0xbd5900ad	-0.05297916

encoder.0.bias f4 [128]
0	0xbd7e6d39	-0.06211588
1	0xbda157fb	-0.07878109
2	0xbcb6db55	-0.022321383
3	0xbe9c0f7d	-0.30480567
4	0xbdd866a8	-0.10566455
5	0xbe07e277	-0.13269983
6	0xbd7ee7b5	-0.06223269
7	0x39a2d370	0.0003105658
8	0xbe193db4	-0.14964944
9	0xbe2ab84c	-0.16671866
10	0xbdeb2824	-0.114822656
11	0xbd8d3201	-0.06894303
12	0xbe040688	-0.12893116
13	0xbdd95342	-0.10611583
14	0xbdd7710e	-0.1051961
15	0xbe53edab	-0.20696132
16	0x3d0f5277	0.034990754
17	0xbd732d6c	-0.05936949
18	0xbe46489b	-0.19363634
19	0x3cd6d705	0.026225576
20	0x3d89837a	0.0671453
21	0x3af2955c	0.0018507647
22	0x3c816f64	0.015800186
23	0xbe7cd21c	-0.24689525
24	0xbddb42ba	-0.107060865
25	0xbd85476f	-0.065077655
26	0xbdbf6c32	-0.093468085
27	0xbd3349a0	-0.043771386
28	0xbde1963e	-0.110149845
29	0xbdf7faa1	-0.121083505
30	0xbe70740f	-0.23481773
31	0xbdd5ab13	-0.104330204
32	0xbcd7ce03	-0.026343351
33	0xbd380988	-0.044930965
34	0xbea5672f	-0.32305285
35	0xbca5394c	-0.020168923
36	0xbe1776a7	-0.14791356
37	0x3d04c2ce	0.032412343
38	0xbd75e4b3	-0.060032558
39	0xbe5f9e79	-0.21837796
40	0xbe54cdda	-0.20781651
41	0x3c3f86c5	0.011689846
42	0x3e00c654	0.12575656
43	0xbe08019b	-0.13281862
44	0xbe1bf3e8	-0.15229762
45	0xbcbb8951	-0.022892626
46	0xbdfe08c3	-0.12404015
47	0xbe018983	-0.12650113
48	0xbd055e74	-0.03256078
49	0x3a42ff8c	0.0007438592
50	0xbd1c3756	-0.03813871
51	0xbe3a90e8	-0.1821934
52	0xbe0efbc4	-0.13963228
53	0x3daa3f36	0.08312838
54	0xbdcf6fbd	-0.10128734
55	0xbe458d22	-0.19292119
56	0xbd44c4d9	-0.04803929
57	0xbd819173	-0.0632657
58	0xbe54cf48	-0.20782197
59	0xbe1444eb	-0.14479415
60	0xbd967a32	-0.07347526
61	0xbd0be9c4	-0.034158483
62	0xbe0f5ab0	-0.13999438
63	0xbe6c0de3	-0.23052172
64	0xbdf801a8	-0.12109691
65	0xbe327cf6	-0.17430481
66	0xbe2507a8	-0.16116202
67	0x3d29d15c	0.041459426
68	0xbe31c1a6	-0.17359027
69	0xbe2d627a	-0.16932097
70	0xbd3a7ddf	-0.045530196
71	0xbe1c5e45	-0.15270336
72	0xbe21597d	-0.15756793
73	0xbe1d6c48	-0.15373337
74	0xbdbddd2c	-0.09270701
75	0xbd3764d0	-0.044773877
76	0xbe7deaaa	-0.24796548
77	0xbd8473ef	-0.06467425
78	0xbe634d00	-0.22197342
79	0xbddf75eb	-0.10911163
80	0xbe060a11	-0.13089778
81	0xbccf1e89	-0.025283115
82	0xbdeb8408	-0.11499792
83	0xbe643ece	-0.22289583
84	0xbd3430ad	-0.043991733
85	0xbe382119	-0.17981376
86	0xbe07ce2c	-0.13262242
87	0xbe47dc63	-0.19517665
88	0xbe480433	-0.19532852
89	0xbe25e355	-0.16200002
90	0xbe5fa5dc	-0.21840614
91	0x3da8af97	0.08236616
92	0xbd38ac02	-0.045085914
93	0xbc063692	-0.0081917215
94	0xbe0f6758	-0.14004266
95	0xbe12ab87	-0.14323245
96	0xbe47275f	-0.19448613
97	0xbdfb846e	-0.12281118
98	0xbc47fd9e	-0.012206463
99	0xbde855d1	-0.11344493
100	0xbe1d40b6	-0.15356717
101	0x3e4fd58a	0.20296302
102	0xbd0003d2	-0.031253643
103	0xbe53d3f0	-0.20686316
104	0xbd9aeffd	-0.075653054
105	0x3d4fae37	0.050703254
106	0xbe3ef4eb	-0.18648116
107	0xbe13601b	-0.1439213
108	0xbdc46ed9	-0.09591455
109	0xbe3942c0	-0.1809187
110	0xbde1f241	-0.110325344
111	0xbe189fc0	-0.1490469
112	0xbdcfe53f	-0.10151147
113	0xbe595f23	-0.21227698
114	0xbe0dcf4a	-0.13848606
115	0xbe5d91ce	-0.21637651
116	0xbcf31f1f	-0.029677926
117	0xbdf83f95	-0.12121502
118	0x3dffe985	0.12495712
119	0xbdd0244a	-0.101631716
120	0xbe251e3b	-0.16124813
121	0xbe5dbe3e	-0.21654603
122	0xbd4bcd8b	-0.049756568
123	0xbd8de7a5	-0.06928948
124	0xbe359eda	-0.17736378
125	0xbd038c87	-0.03211644
126	0xbe9823cf	-0.2971482
127	0xbe202101	-0.1563759

encoder.3.weight f4 [64, 128]
0	0xbcd8ccf5	-0.026464919
1	0x3d91cfdf	0.071197264
2	0xbde9fe9e	-0.114255175
3	0x3db1bb91	0.086783536
4	0xbe97e257	-0.2966487
5	0xbe7f44f7	-0.24928652
6	0x3c7a3ccb	0.015273283
7	0xbdd5a2b3	-0.10431423
8	0xbd6cbbce	-0.057796292
9	0xbd3a2430	-0.045444667
10	0xbd75cf74	-0.060012296
11	0x3c2fa214	0.010719795
12	0xbc570ac8	-0.013125129
13	0xbdf63ae7	-0.120229535
14	0xbd53a614	-0.051672056
15	0xbc8ee521	-0.017443242
16	0x3d219bb7	0.039455142
17	0x3d36610a	0.044526137
18	0x3d01ad1e	0.031659238
19	0xbe878e74	-0.2647587
20	0x3d8deb2f	0.06929623
21	0x3cbbacd5	0.022909561
22	0x3d9c496e	0.07631193
23	0xbda18d3f	-0.07888269
24	0xbc95ef33	-0.018302536
25	0x3dc31d65	0.09527091
26	0x3db5cf6c	0.08877453
27	0xbdb35ece	-0.08758317
28	0xbd5a9c6e	-0.05337184
29	0x3d7ffad5	0.06249507
30	0xbd25c41e	-0.040470235
31	0x3dc55c5b	0.09636756
32	0xbce931fe	-0.028466221
33	0xbe83cab3	-0.25740585
34	0xbcd7709a	-0.02629881
35	0xbd62bc97	-0.055355635
36	0x3d3a20c6	0.04544141
37	0xbdf92d5d	-0.121668555
38	0xbd4e0b2a	-0.050303616
39	0xbc1e4754	-0.009660561
40	0xbdc25657	-0.09489124
41	0x3c8bb7a5	0.017055342
42	0xbe5df58e	-0.21675703
43	0xbd47453a	-0.048650004
44	0xbd838801	-0.06422425
45	0xbe87e639	-0.26542833
46	0xbde4bccb	-0.11168822
47	0xbd27c042	-0.040954836
48	0xbdb598f7	-0.08867066
49	0x3d68eb0a	0.056864776
50	0xbe0d231d	-0.13782926
51	0xbe69ad10	-0.22819924
52	0xbe15da02	-0.14633945
53	0xbe740a04	-0.23831946
54	0x3da2bd06	0.079462096
55	0x3d21823a	0.039430834
56	0xbd6b56e2	-0.057455905
57	0x3d47a97e	0.048745625
58	0x3d67dbe3	0.056606185
59	0xbdcfc05d	-0.10144112
60	0x3d734640	0.059393167
61	0x3ce8da56	0.028424423
62	0xbcf76788	-0.030200735
63	0xbc86345c	-0.016382389
64	0x3b017743	0.0019754923
65	0x3cd338f4	0.025783993
66	0x3de62216	0.1123697
67	0x3c1931a0	0.00935021
68	0xbc23b480	-0.009991765
69	0x3dc155c5	0.09440187
70	0xbd248667	-0.04016724
71	0xbe374cad	-0.17900343
72	0x3db25e9b	0.08709451
73	0x3b0dec4a	0.0021655732
74	0x3db3f821	0.08787561
75	0xbdd405ef	-0.10352694
76	0xbd52c3f0	-0.05145639
77	0x3c23bf11	0.009994284
78	0x3cb5b30c	0.022180103
79	0xbd93ae00	-0.07210922
80	0xbe0387f6	-0.12844834
81	0xbd84bb8c	-0.06481084
82	0xbb88d1e4	-0.0041754115
83	0xbdcd5162	-0.10025288
84	0xbc5ea66d	-0.013589484
85	0xbcfcc519	-0.030855702
86	0xbe01d7d4	-0.12679988
87	0xbca35bdf	-0.019941268
88	0xbd0de787	-0.03464463
89	0x3c8377fe	0.016048428
90	0x3d016168	0.031587034
91	0xbdbe21c3	-0.09283783
92	0x3d4360be	0.047699682
93	0xbdc44f34	-0.09585419
94	0xbdb84563	-0.089976095
95	0x3cd09d37	0.02546559
96	0x3b2b52f5	0.0026141976
97	0xbd0e143e	-0.034687273
98	0x3d0104f2	0.031498857
99	0xbc9e8b4b	-0.01935353
100	0x3dd11cb0	0.1021055
101	0x3cd26476	0.02568267
102	0xbddbb4a5	-0.107278146
103	0x3d3d0ac1	0.046152834
104	0xbe06f5db	-0.13179724
105	0xbe0eb8b0	-0.1393764
106	0x3d4efaa2	0.05053199
107	0x3cb9c7dc	0.022678308
108	0x3d23e6ad	0.04001491
109	0x3bb3c46f	0.005486063
110	0x3dc57846	0.09642081
111	0xbe0b949e	-0.13630912
112	0x3d83d64b	0.064373575
113	0xbe01fb9c	-0.12693638
114	0xbe6808c0	-0.22659588
115	0xbd35f1a9	-0.04441992
116	0x3d746d6b	0.05967466
117	0xbd7298d7	-0.05922779
118	0xbb930112	-0.0044862116
119	0xbdc442fb	-0.09583088
120	0x3d5a1bb8	0.05324909
121	0xbc7ba544	-0.015359227
122	0x3d160871	0.036629144
123	0x3aa5532e	0.001261329
124	0xbddf73aa	-0.10910733
125	0xbcfdd903	-0.030987268
126	0x3daed477	0.08536618
127	0xbde2444c	-0.11048183
128	0xbd965add	-0.073415495
129	0xbd0426d0	-0.032263577
130	0xbcbe8cc1	-0.023260476
131	0xbe2b8b5d	-0.16752382
132	0x3ce0ca4f	0.027440218
133	0x3d88c39c	0.066779345
134	0x3da5f893	0.081040524
135	0x3c5c48cb	0.01344509
136	0x3b78e552	0.0037978482
137	0x3d7b5d8a	0.061368503
138	0x3d7f12f5	0.06227394
139	0xbd194a20	-0.037424207
140	0x3cd1d48d	0.025614047
141	0xbe008794	-0.12551719
142	0x3d56a44c	0.05240278
143	0xbb2ce834	-0.002638352
144	0xbadee717	-0.0017006126
145	0xbe415834	-0.18881303
146	0x3ae75439	0.0017649002
147	0x3d432d62	0.047650702
148	0xbd65cb87	-0.056102302
149	0xbcce66ab	-0.02519544
150	0xbd60dce0	-0.054898143
151	0x3e139d4d	0.14415474
152	0xbcbe8f98	-0.02326183
153	0x3d981928	0.07426673
154	0xbd11f1db	-0.035631042
155	0x3d2c886c	0.04212229
156	0xbdb62e43	-0.088955425
157	0x3dde23b6	0.10846655
158	0x3d9430c1	0.072358616
159	0x3da6d523	0.08146121
160	0x3d509e9b	0.050932508
161	0x3d808e4f	0.06277143
162	0x3dbc5ea8	0.09197742
163	0xbd1736ad	-0.036917377
164	0x3be13d7d	0.006873785
165	0xbc0a96cb	-0.008458803
166	0xbd429e10	-0.04751402
167	0xbd9b6d2e	-0.07589184
168	0x3c22b79e	0.009931473
169	0x3d55eb1b	0.052226167
170	0x3d147627	0.03624549
171	0x3dcf1993	0.101123
172	0xbdb8f23a	-0.09030576
173	0x3d9ccfc6	0.07656817
174	0xbe70f53e	-0.23531052
175	0xbce16169	-0.02751227
176	0x3ae1db9f	0.001723159
177	0x3d20854d	0.039189626
178	0xbd8958c9	-0.067063875
179	0x3b2aab3b	0.0026042003
180	0xbdf4ed56	-0.11959331
181	0x3dcd8e46	0.10036902
182	0x3dacbe98	0.084347904
183	0x3d8dd72a	0.06925805
184	0x3d2e1ed8	0.042509884
185	0x3de253f8	0.11051172
186	0x3d243aa7	0.040094998
187	0xbd42745c	-0.04747425
188	0x3d307d5c	0.043088302
189	0x3dc5e760	0.09663272
190	0x3d07d3fa	0.03316114
191	0xbdb54f38	-0.088530004
192	0xbd11cf73	-0.03559823
193	0xbcb15dd4	-0.021651186
194	0xbca40daf	-0.020026056
195	0x3d3a92c7	0.045550134
196	0xbdee93ea	-0.11649306
197	0xbd01b779	-0.031669114
198	0xbd4aac99	-0.04948101
199	0x3e18fb7c	0.14939684
200	0x3de13557	0.10996502
201	0x3d270ec9	0.040785585
202	0xbc9f8839	-0.019474136
203	0x3cd1c63e	0.025607225
204	0xbd61d0d1	-0.055130783
205	0xbd217791	-0.039420668
206	0x3c343a38	0.011000209
207	0xbe2e696f	-0.17032407
208	0xbda44687	-0.080212645
209	0xbddafed7	-0.10693138
210	0x3c85e891	0.016346248
211	0xbddbc653	-0.10731187
212	0x3d377552	0.04478962
213	0xbd27c62b	-0.040960472
214	0xbdc70f3d	-0.09719703
215	0xbe1e4c9f	-0.15458916
216	0xbe23fe11	-0.16014887
217	0x3e000731	0.12502743
218	0xbe0a3c99	-0.13499679
219	0x3d5bd195	0.05366667
220	0x3de07988	0.1096068
221	0xbcc91fdc	-0.024551325
222	0xbda7b039	-0.08187909
223	0xbdc4a6f0	-0.09602153
224	0x3ddaddae	0.10686813
225	0x3ade7b14	0.0016973936
226	0x3d272469	0.040806208
227	0xbd9e2334	-0.07721558
228	0x3cc2f80e	0.023799922
229	0xbe35a98a	-0.17740455
230	0xbd8fc872	-0.07020654
231	0x3d5a6383	0.053317558
232	0xbd1698b7	-0.036766734
233	0x3d93e0b0	0.0722059
234	0xbd23ed16	-0.040021025
235	0x3d69c143	0.057069074
236	0xbcff2290	-0.03114441
237	0x3ba491c2	0.0050222585
238	0x3d063e99	0.03277454
239	0x3d6aec36	0.057354175
240	0x3dafb18d	0.08578787
241	0xbd3b0873	-0.045662355
242	0x3cd6bd21	0.02621323
243	0xbd01f7e6	-0.031730555
244	0xbc484c7c	-0.012225267
245	0xbc3e2dc9	-0.011607596
246	0xbdb9913a	-0.09060903
247	0xbe3bb18b	-0.18329446
248	0x3d275d6f	0.04086059
249	0xbda25296	-0.07925908
250	0xbd53d8ec	-0.051720545
251	0x3d0004c8	0.03125456
252	0xbc05cd56	-0.008166632
253	0xbc261fcd	-0.010139418
254	0x3d1753f9	0.036945317
255	0xbded1890	-0.115769506

encoder.3.bias f4 [64]
0	0xbdb64535	-0.08899919
1	0x3caad514	0.020853557
2	0x3ce17c6f	0.027525155
3	0x3c494ecb	0.012286852
4	0xbde7a263	-0.1131027
5	0xbdb59367	-0.088660054
6	0x3ce35101	0.027748587
7	0xbe461943	-0.19345574
8	0x3c7a30a7	0.015270389
9	0xbe4b4fc2	-0.19854644
10	0xbd360975	-0.044442613
11	0x3d31c7e0	0.043403506
12	0xbe613f71	-0.21996857
13	0xbdb0e13d	-0.08636711
14	0xbd19c97e	-0.037545674
15	0xbcc6715a	-0.024223972
16	0x3bb79ca8	0.0056033917
17	0xbb42b329	-0.0029708839
18	0xbe380052	-0.17968872
19	0xbd95216c	-0.07281765
20	0xbe12664b	-0.14296834
21	0x3d0119fc	0.03151892
22	0xbe0043a3	-0.12525801
23	0xbe6f6a43	-0.2338038
24	0xbe3337d2	-0.17501763
25	0xbbda8f47	-0.006669912
26	0xbd9039f0	-0.07042301
27	0xbda3a452	-0.07990326
28	0xbcb4e0b9	-0.022079812
29	0xbd1e5e50	-0.038664162
30	0xbd3bd9a6	-0.045861863
31	0xbcee7a1a	-0.029110957
32	0x3c955cac	0.018232666
33	0xbdd8dc7a	-0.105889276
34	0xbdc2f49e	-0.09519313
35	0x3d639445	0.055561323
36	0xbe4ba0e8	-0.198856
37	0xbdc5569b	-0.09635659
38	0xbc10633b	-0.008812721
39	0xbd823a23	-0.06358745
40	0xbd601535	-0.054707725
41	0xbcb415ab	-0.021982988
42	0xbe456162	-0.1927543
43	0xbdd655d7	-0.104655914
44	0xbdc560f4	-0.09637633
45	0xbd699334	-0.05702515
46	0x3ba355d1	0.0049845953
47	0x3cf702ef	0.030152766
48	0xbde28137	-0.11059802
49	0xbdeca367	-0.11554604
50	0xbe74f831	-0.23922803
51	0xbe2dd7ae	-0.16976807
52	0xbc338ae7	-0.01095841
53	0xbd1718fa	-0.036889054
54	0xbc6b4e8f	-0.014361992
55	0xbcbbd5af	-0.02292904
56	0xbba16dc0	-0.0049264133
57	0xbe193928	-0.1496321
58	0xbdb8c059	-0.090210624
59	0x3d173194	0.036912516
60	0xbdc1e4b9	-0.094674535
61	0xbde8e4b3	-0.11371746
62	0x3d4ba68b	0.049719375
63	0xbdb1a710	-0.08674443

encoder.6.weight f4 [32, 64]
0	0xbdbd9dca	-0.092586115
1	0x3c792378	0.01520621
2	0xbc4d284c	-0.012521815
3	0xbdea00b0	-0.114259124
4	0x3d7dfded	0.06200974
5	0x3d63915f	0.05555856
6	0x3d381157	0.04493841
7	0xbcdf009b	-0.027221968
8	0xbc09471c	-0.00837877
9	0x3e2692cd	0.16266938
10	0x3d87a5d3	0.06623425
11	0x3d39c587	0.045354392
12	0x3dcc54ea	0.099771336
13	0xbd0e51ed	-0.0347461
14	0xbabfe702	-0.0014640989
15	0xbd446dd3	-0.0479563
16	0xbd976841	-0.07392932
17	0x3dbf73dd	0.09348271
18	0xbd80cb24	-0.06288746
19	0x3d07a0ef	0.033112463
20	0xbc5f72d3	-0.013638216
21	0xbd8dc391	-0.06922067
22	0x3dd2f8b5	0.10301343
23	0x3dfe5b56	0.12419765
24	0x3e4c1bb8	0.19932449
25	0xbbbcceb3	-0.005761945
26	0xbddba841	-0.10725451
27	0xbd4e83f2	-0.0504188
28	0x3dd4aa96	0.10384099
29	0xbbd3b087	-0.0064602527
30	0x3df7a5c9	0.12092168
31	0xbd8bf19b	-0.06833192
32	0xbd7022e0	-0.05862701
33	0xbd8f2d8a	-0.06991108
34	0x3db0bdbd	0.0862994
35	0x3d7da3ac	0.061923668
36	0x3e0ca55f	0.13734959
37	0x3dc86dc7	0.09786563
38	0xbd42e38c	-0.047580287
39	0x3cb7a500	0.022417545
40	0x3d9391fd	0.072055794
41	0xbdc30612	-0.09522642
42	0x3e0c239a	0.13685456
43	0x3cccf4dd	0.025019104
44	0x3da84edc	0.08218166
45	0xbd58a79d	-0.052894223
46	0xbb76479e	-0.0037579308
47	0x3d43483f	0.04767632
48	0x3d34aa90	0.044107974
49	0x3e61436d	0.21998377
50	0xbd371c3b	-0.044704657
51	0xbd8d09f3	-0.06886663
52	0x3d72a778	0.059241742
53	0xbdf62c2f	-0.12020146
54	0xbc56de27	-0.013114489
55	0x3d230ae3	0.039805304
56	0x3dac9ee3	0.08428743
57	0x3e08154d	0.13289376
58	0x3d24f39e	0.040271394
59	0x3dc2a3fd	0.095039345
60	0xbce4b859	-0.027919935
61	0xbd789cea	-0.06069652
62	0x3d11306b	0.035446566
63	0xbbe0a600	-0.0068557262
64	0x3dc1daa0	0.094655275
65	0x3dc60c0e	0.09670268
66	0x3de8fbea	0.11376174
67	0xbc4911ce	-0.012272311
68	0xbd2177a3	-0.039420735
69	0xbd2617a5	-0.040549893
70	0x3d790f6b	0.06080572
71	0x3d81892c	0.063249916
72	0xbdad4344	-0.084600955
73	0x3db81347	0.08988052
74	0xbe0f5c92	-0.14000157
75	0xbd0c718a	-0.034287967
76	0x3df46e46	0.119350955
77	0xbd2325dc	-0.039831027
78	0xbdd72e09	-0.105068274
79	0xbcaaeb10	-0.02086404
80	0xbdc18e0d	-0.09450922
81	0xbe3287e1	-0.17434646
82	0x3de6bee1	0.11266876
83	0x3dd4af6b	0.10385021
84	0x3db2c945	0.08729795
85	0xbdb8cf7a	-0.09023948
86	0xbd0f7950	-0.035027802
87	0xbdf8bb4c	-0.12145099
88	0x3cc70bcb	0.024297616
89	0xbd844eaf	-0.0646032
90	0xbdaf4216	-0.08557527
91	0x3de63f7a	0.11242576
92	0xbdcbef8a	-0.09957798
93	0xb9ff42c8	-0.00048687146
94	0x3dd3cce1	0.10341812
95	0x3d5db555	0.05412801
96	0x3cd9dbbb	0.026594033
97	0xbcb06188	-0.021530882
98	0xbe1578b1	-0.14596821
99	0x3e067ceb	0.1313359
100	0x3d90511d	0.07046721
101	0x3dd325b4	0.10309926
102	0x3cbd78d5	0.023128906
103	0xbe3605df	-0.17775677
104	0x3d719790	0.058982432
105	0xbe0e6b06	-0.13908014
106	0x3da8f77b	0.08250328
107	0xbda6e8a9	-0.08149845
108	0xbd86b0e0	-0.06576705
109	0x3de72427	0.112861924
110	0xbdbe370c	-0.09287843
111	0xbc852fdb	-0.01625817
112	0xbb92ae10	-0.0044763163
113	0x3cb23700	0.021754742
114	0x3cb7e7a5	0.022449324
115	0xbc003863	-0.007825944
116	0xbe29c301	-0.16578294
117	0xbcdf6594	-0.027270116
118	0x3df44daf	0.119288795
119	0xbdb81ca7	-0.0898984
120	0xbd0cfa81	-0.034418587
121	0xbdbed2b7	-0.093175344
122	0x3db3aaec	0.08772835
123	0x3c882037	0.016616924
124	0x3e01f302	0.12690356
125	0xbbe901b1	-0.0071107973
126	0xbdc11088	-0.09426981
127	0xbcd89afd	-0.026441092
128	0xbc0e4c9f	-0.00868526
129	0x3d4add61	0.04952753
130	0x3e0fae26	0.14031276
131	0x3d7e3bbe	0.062068693
132	0xbc16d767	-0.009206629
133	0xbd6636b6	-0.05620452
134	0x3d283379	0.041064713
135	0xbd87533b	-0.06607672
136	0xbc6ca972	-0.014444696
137	0x3d24cd2e	0.040234737
138	0xbe3901ba	-0.18067065
139	0x3daf6f62	0.085661665
140	0xbd4352b8	-0.04768631
141	0xbd5935f6	-0.053029977
142	0xbd9e9622	-0.07743479
143	0x3d1aa3d2	0.037753887
144	0x3dceb44f	0.10092985
145	0xbcdf3dfb	-0.027251234
146	0x3d86d65f	0.06583857
147	0x3da8b9e8	0.08238584
148	0xbd2f94d5	-0.042866547
149	0x3d735db4	0.059415534
150	0xbd926669	-0.071484394
151	0x3c2fd2d7	0.0107314205
152	0xbc6271fa	-0.013821119
153	0xbc1718fc	-0.009222265
154	0x3d73dbd6	0.059535824
155	0x3c1f8215	0.009735604
156	0xbe11e279	-0.14246549
157	0xbda0509f	-0.07827877
158	0x3d9a1541	0.07523585
159	0x3e006a7e	0.12540624
160	0x3df8fe18	0.121578395
161	0xbd345eb5	-0.044035632
162	0x3ca3d155	0.019997278
163	0x3e043b9b	0.12913363
164	0xbd2e02bc	-0.042483076
165	0xbde579bb	-0.11204859
166	0x3e0621dc	0.13098854
167	0x3c1efcc8	0.009703822
168	0x3d82544f	0.06363737
169	0x3cf44886	0.029819738
170	0xbc16ef3f	-0.009212314
171	0xbddbc49f	-0.10730862
172	0xbcb6b254	-0.02230183
173	0x3d387baf	0.04503983
174	0xbd8cb054	-0.068695694
175	0xbdbf68fd	-0.09346197
176	0x3b42b2fa	0.002970873
177	0x3df505cb	0.119639955
178	0xbc6f8cec	-0.014621001
179	0x3e0fe247	0.14051162
180	0xbd5d47ce	-0.054023556
181	0x3df3cc3d	0.1190419
182	0x3de0c89f	0.109757654
183	0xbdebacf2	-0.11507596
184	0xbaf52889	-0.0018704097
185	0xbda4e475	-0.08051387
186	0xbba2b267	-0.004965115
187	0xbc3f78f3	-0.011686551
188	0x3c59a229	0.013283291
189	0xbd9952ad	-0.07486472
190	0xbdab55f3	-0.08366003
191	0xbe153a56	-0.14573035
192	0xbe2ba1cc	-0.1676094
193	0x3d10c26c	0.035341665
194	0xbe377d12	-0.17918804
195	0xbdcfb081	-0.10141087
196	0xbdd8c146	-0.10583739
197	0xbdfea224	-0.124332696
198	0xbd2db165	-0.042405505
199	0x3d138062	0.036011107
200	0x3d657981	0.05602408
201	0xbdaf667a	-0.08564468
202	0x3df2d344	0.11856702
203	0xbd9ec680	-0.077527046
204	0xbe167dfd	-0.14696498
205	0x3cac487a	0.021030653
206	0x3e2c1c0c	0.16807574
207	0x3d8561ab	0.06512769
208	0x3db5cdd7	0.088771515
209	0xbd871c49	-0.06597192
210	0x3d124f95	0.035720427
211	0xbd90ef73	-0.07076921
212	0xbdf9a85b	-0.121903144
213	0xbc9be2f4	-0.019029118
214	0xbd23483f	-0.03986382
215	0xbe0fdafe	-0.14048383
216	0xbd5c345a	-0.053760864
217	0x3c07eca9	0.00829617
218	0xbe0a0747	-0.13479339
219	0x3d974c89	0.07387645
220	0x3d9af692	0.07566561
221	0xbc58f68b	-0.013242374
222	0xbe2f7983	-0.17136197
223	0x3e12f2fe	0.14350507
224	0xbddc3463	-0.107521795
225	0xbcb1dd75	-0.021712044
226	0xbd29e27d	-0.04147576
227	0x3ae66dd6	0.0017580341
228	0x3c9c2722	0.019061629
229	0xbe78c0a8	-0.24292243
230	0x3dc3d5d6	0.0956227
231	0xbdb926b0	-0.09040582
232	0xb93d6ce2	-0.00018065007
233	0x3e0bcff7	0.13653551
234	0x3d912948	0.07087952
235	0x3df0e31b	0.11762067
236	0xbd9afab5	-0.0756735
237	0x3e2591d6	0.16168913
238	0xbd282899	-0.041054342
239	0x398f3ead	0.00027321783
240	0x3da9ba1c	0.08287451
241	0xbe41e596	-0.18935236
242	0xbdd1e367	-0.10248452
243	0x3dd1a833	0.102371596
244	0x3dd35aba	0.10320039
245	0x3daedb53	0.085379265
246	0xbe1d8450	-0.15382504
247	0x3d9a2439	0.0752644
248	0x3d31d0bc	0.043411955
249	0xbcd3ed5f	-0.025870023
250	0x3d90278e	0.070387945
251	0xbcb00ee1	-0.02149147
252	0x3d0c6aaf	0.03428143
253	0x3dcd91fa	0.100376084
254	0xbd7fd5b2	-0.062459655
255	0x3d687386	0.056750797

encoder.6.bias f4 [32]
0	0xbe2574f0	-0.1615789
1	0x3b877cfd	0.004134773
2	0x3daf2d9c	0.08553621
3	0x3dcbe249	0.0995527
4	0xbd72161b	-0.059103113
5	0xbcc98619	-0.024600076
6	0xbdd4515e	-0.10367082
7	0xbc02a5d4	-0.007974107
8	0xbdd04a4d	-0.10170422
9	0x3df6c60b	0.120494924
10	0xbe2085f9	-0.15676107
11	0xbdd78cbe	-0.10524891
12	0xbd11af28	-0.035567433
13	0xbd46c524	-0.04852785
14	0xbdbf2290	-0.09332764
15	0xbbcd715c	-0.006269617
16	0xbc1ef4d4	-0.009701926
17	0xbd7fc05c	-0.062439308
18	0x3d9c2768	0.07624704
19	0xbd92ff80	-0.07177639
20	0x3d629885	0.055321235
21	0x3dcd7139	0.10031361
22	0x3cfe41dd	0.031037265
23	0xbce08370	-0.027406424
24	0xbdc56d61	-0.09640003
25	0x3d1aba28	0.03777519
26	0xbdc169ac	-0.094439834
27	0x3cbb7f95	0.022887984
28	0xbe061798	-0.13094938
29	0xbd7680ce	-0.06018143
30	0xbda99427	-0.08280211
31	0x3ce2e15e	0.027695354

encoder.9.weight f4 [10, 32]
0	0x3d822072	0.06353845
1	0xbdc2da75	-0.095143236
2	0xbbecc397	-0.0072254646
3	0x3dd37e29	0.103267975
4	0x3d662a8b	0.056192916
5	0xbe11f3fb	-0.14253227
6	0x3e1dd5c7	0.15413581
7	0xbd9d4f83	-0.07681181
8	0x3d70d25f	0.058794376
9	0xbd55dd5e	-0.052213065
10	0x3da7038b	0.08154973
11	0xbd0e028e	-0.034670405
12	0xbe31b231	-0.17353131
13	0x3d48ddfe	0.049039833
14	0x3e13bbb6	0.14427075
15	0xbe08577e	-0.13314626
16	0x3dbec5ab	0.09315046
17	0xbce1f687	-0.027583374
18	0x3d2d055e	0.042241447
19	0xbd9388f5	-0.07203857
20	0xbbda6782	-0.006665171
21	0xbddb0463	-0.10694196
22	0x3d9b2a16	0.07576387
23	0xb9d24afc	-0.0004011019
24	0x3ce728d7	0.028217716
25	0x3c5b79c6	0.013395732
26	0x3d720790	0.059089243
27	0x3e177109	0.14789213
28	0xbcb242be	-0.02176034
29	0x3de55680	0.11198139
30	0xbe2551e2	-0.16144517
31	0x3e2c7b7e	0.16843984
32	0xbe3dd8f1	-0.18539788
33	0x3cd785e0	0.026308954
34	0x3d1315fb	0.035909634
35	0xbe48ccfe	-0.19609448
36	0x3d59bd3c	0.053158984
37	0x3d7180bd	0.058960665
38	0x3da696da	0.081342414
39	0xbd6c7ebc	-0.05773805
40	0xbe20493d	-0.15652938
41	0xbdc24880	-0.094864845
42	0xbe114671	-0.14187028
43	0x3dbd4fa1	0.09243704
44	0x3e25d5d4	0.1619485
45	0x3bfa0c39	0.0076308516
46	0xbe2facca	-0.17155758
47	0xbe25413e	-0.16138169
48	0xbda9b78b	-0.08286961
49	0x3dd2fb3e	0.10301827
50	0x3dc8bff3	0.098022364
51	0xbe50ec6b	-0.20402686
52	0xbe0fdf0d	-0.14049931
53	0x3d481f54	0.048858
54	0x3dd3b597	0.1033737
55	0xbe1387f9	-0.14407338
56	0xbb9a37b7	-0.0047063488
57	0x3d7f4b74	0.062327817
58	0xbe5b1484	-0.21394545
59	0xbe09af16	-0.13445696
60	0xbe151b2a	-0.14561144
61	0xbe05a64d	-0.1305172
62	0x3d963c55	0.07335726
63	0x3e5166eb	0.20449416
64	0xbcb64677	-0.022250397
65	0x3e23d3ca	0.1599876
66	0xbddc68ba	-0.107621625
67	0xbcc90a34	-0.024540998
68	0xbdce7841	-0.1008153
69	0xbd7915b7	-0.060811725
70	0x3ce3917f	0.027779339
71	0xbc0373c4	-0.008023206
72	0xba9a7c32	-0.0011786281
73	0xbdd718f9	-0.1050281
74	0xbc95af8f	-0.01827219
75	0xbd8df706	-0.069318816
76	0x3e57567b	0.21029083
77	0xbcc13837	-0.023586376
78	0x3e3fb6f7	0.1872214
79	0xbe0d1170	-0.13776183
80	0x3e0d9500	0.1382637
81	0x3dc17499	0.09446067
82	0x3e08cf29	0.13360275
83	0x3e3775fd	0.17916103
84	0x3e5cc5a2	0.21559766
85	0xbd395f11	-0.045256678
86	0xbd2d4f77	-0.04231211
87	0xbcba389f	-0.022732077
88	0xbdd442a3	-0.103642724
89	0xbe1a2669	-0.15053715
90	0x3e27cd06	0.16386804
91	0xbc742edd	-0.014903751
92	0x3c88944e	0.01667228
93	0xbccb47df	-0.024814544
94	0x3e5b0545	0.21388729
95	0x3d454f77	0.048171487
96	0xbe28c791	-0.16482379
97	0x3e07e568	0.13271105
98	0x3dd3549a	0.10318871
99	0x3da02459	0.07819433
100	0x3d81b565	0.063334264
101	0xbe778d55	-0.24175008
102	0x3cd76905	0.026295194
103	0xbe29df1c	-0.16589016
104	0xbc9cad69	-0.019125657
105	0xbe27c989	-0.16385473
106	0xbdb7b14a	-0.08969362
107	0xbc21fb59	-0.009886586
108	0xbd4990f2	-0.049210496
109	0xbdb65799	-0.08903427
110	0xbda6543d	-0.08121536
111	0xbd4dbcc9	-0.050228868
112	0xbe4a8835	-0.19778521
113	0xbdaf7c0b	-0.08568581
114	0xbd38c5a2	-0.045110352
115	0xbe01a8c9	-0.12662043
116	0xbd853fba	-0.065062955
117	0xbcff731b	-0.031182816
118	0x3c833ce3	0.016020244
119	0xbe167243	-0.14692025
120	0x3e366f8d	0.17815991
121	0x3e1a8acf	0.15092014
122	0xbe229068	-0.15875399
123	0x3e0dfbb5	0.1386555
124	0x3e00bb3b	0.12571423
125	0x3e2903c9	0.1650535
126	0x3e046737	0.12929998
127	0xbd3ca2f6	-0.04605385
128	0xbd5df167	-0.054185297
129	0x3b910f53	0.0044268756
130	0x3dd21e88	0.102597296
131	0x3e0a9373	0.1353281
132	0x3d5ec656	0.054388367
133	0xbe0ef3df	-0.13960217
134	0x3da3eb13	0.08003821
135	0xbdec9941	-0.11552668
136	0xbc158ef9	-0.009128326
137	0x3d53fdba	0.051755644
138	0xbd5def29	-0.05418316
139	0x3defd7a3	0.11711051
140	0x3c6f1909	0.014593371
141	0xbe6b69a7	-0.22989522
142	0x3c9b58e6	0.018963289
143	0x3d375dfb	0.04476736
144	0xbd6847cb	-0.056709092
145	0xbb01947d	-0.0019772344
146	0x3e0c7300	0.13715744
147	0xbd9c64df	-0.07636427
148	0xbd086441	-0.033298735
149	0x3da21cf7	0.07915681
150	0x3dcb01d5	0.09912459
151	0xbdadcc23	-0.084862016
152	0xbd98c0dd	-0.07458661
153	0x3e11cd54	0.14238483
154	0xbbbcc209	-0.0057604355
155	0x3dec1b8e	0.11528693
156	0x3c57b899	0.01316657
157	0x3a0aded7	0.0005297488
158	0x3c4ebd79	0.012618416
159	0xbdd334fd	-0.10312841
160	0xbdeb4f26	-0.11489706
161	0xbe11fc92	-0.14256504
162	0x3df5abb0	0.119956374
163	0xbd695ed3	-0.056975197
164	0x3de4005e	0.111328825
165	0xbe490a67	-0.19632874
166	0xbe16b0ea	-0.14715925
167	0x3c9f31d2	0.019432936
168	0xbdd4453f	-0.1036477
169	0xbe21f600	-0.15816498
170	0xbe213af0	-0.15745139
171	0x3e1ebf20	0.15502596
172	0x3db3f970	0.08787811
173	0xbd4140ab	-0.047180813
174	0xbe04a428	-0.12953246
175	0xbe0d9ae3	-0.13828616
176	0xbda1be91	-0.07897676
177	0x3e4ebfce	0.20190355
178	0x3e2e0345	0.16993435
179	0xbd7cbe4f	-0.06170493
180	0xbe0be075	-0.13659842
181	0xbd7d95f6	-0.061910592
182	0x3d1feed2	0.039046116
183	0x3ccb6eea	0.024833161
184	0xbe1e0b60	-0.15434027
185	0x3c6c742a	0.014431993
186	0x3d055ef6	0.032561265
187	0xbde7e279	-0.11322493
188	0xbd744b1e	-0.05964195
189	0x3d8f3de2	0.06994225
190	0xbd684a23	-0.056711327
191	0xba5fe9af	-0.00085415965
192	0xbd50c410	-0.05096823
193	0x3e25a848	0.16177475
194	0x3e05ecad	0.13078566
195	0xba052a6e	-0.000507987
196	0x3e51a927	0.20474683
197	0x3c1af8a3	0.009458694
198	0xbe00d107	-0.12579738
199	0xbdcbe40e	-0.09955607
200	0xbd4ad81d	-0.049522508
201	0xbd10eafc	-0.03538035
202	0x3e2a2ea5	0.16619356
203	0x3e047331	0.12934567
204	0xbe0b2f46	-0.13592252
205	0x3e28c8b7	0.16482817
206	0xbe1c5c95	-0.15269692
207	0xbdd8a5e2	-0.10578515
208	0xbd314afd	-0.043284405
209	0xbe009e29	-0.12560333
210	0x3d337384	0.043811336
211	0x3acc9904	0.0015609567
212	0xbe134b60	-0.14384222
213	0x3e2eaa6e	0.17057201
214	0x3e01f1e4	0.1268993
215	0xbe2afc55	-0.1669782
216	0xbe20d57e	-0.15706441
217	0x3e0435c8	0.12911141
218	0xbdded5d4	-0.10880628
219	0xbc524ec1	-0.012836159
220	0xbe1ddea0	-0.15416956
221	0xbce57678	-0.028010592
222	0xbba8182e	-0.0051298356
223	0xbdbbc7e7	-0.09168988
224	0xbc53bacf	-0.012922957
225	0x3e28a2d0	0.16468358
226	0x3e229eb1	0.15880848
227	0x3dc3a400	0.09552765
228	0xbd037cc1	-0.032101396
229	0xbce07142	-0.027397756
230	0x3d8ba109	0.068178244
231	0xbd9bfd6a	-0.07616694
232	0xbe450724	-0.19241005
233	0x3be0091e	0.0068370244
234	0x3cfabfab	0.030608973
235	0x3e11395e	0.1418204
236	0x3da83b99	0.08214492
237	0xbe2467fb	-0.1605529
238	0xbdb9aa09	-0.09065635
239	0xbdb17e82	-0.086667076
240	0x3b8a6ee0	0.004224643
241	0x3dcb4179	0.09924597
242	0x3e218186	0.15772066
243	0xbdc940e7	-0.09826832
244	0xbc6f6883	-0.01461232
245	0x3e1d6366	0.15369949
246	0xbca4a5bd	-0.020098561
247	0xbe319f88	-0.17346013
248	0xbe16aad6	-0.14713606
249	0x3e10c812	0.14138821
250	0x3d6641fc	0.05621527
251	0x3bfca5a6	0.0077101765
252	0xbe3ce87c	-0.18448061
253	0x3e2091bd	0.15680595
254	0x3e3206d5	0.17385419
255	0x3e21c4ed	0.15797777

encoder.9.bias f4 [10]
0	0x3e06dde7	0.13170587
1	0xbd638cdc	-0.055554256
2	0x3d95c05f	0.073120825
3	0x3c73abec	0.014872532
4	0xbe569ea4	-0.20958954
5	0x3dae4090	0.08508408
6	0x3d669b22	0.05630029
7	0x3c10180a	0.008794794
8	0x3d10fb5c	0.035395965
9	0x3d2050af	0.039139446

decoder.0.weight f4 [32, 10]
0	0xbc4a7dd7	-0.012359104
1	0xbd19526c	-0.03743212
2	0xbc9633d7	-0.018335266
3	0xbe76817c	-0.24072832
4	0x3e89d906	0.26923388
5	0xbe8a2cd1	-0.26987317
6	0x3d3e6e2d	0.04649179
7	0xbe4808fd	-0.19534679
8	0xbc2d01c6	-0.010559505
9	0xbe517c97	-0.20457684
10	0x3ea77b53	0.32711276
11	0x3e3f893c	0.18704695
12	0xbcbc3c01	-0.02297783
13	0x3d2cc023	0.042175423
14	0xbe9f01bf	-0.3105602
15	0x3a4c44d2	0.00077922374
16	0xbdb38c3c	-0.08766982
17	0x3e173635	0.14766772
18	0x3e4a8c02	0.19779971
19	0x3db77e15	0.08959595
20	0xbdaca96d	-0.08430753
21	0xbe369610	-0.17830682
22	0x3e9ee5cb	0.31034693
23	0xbea49d25	-0.32151142
24	0x3d2dd2ee	0.042437486
25	0xbe62b46c	-0.22139138
26	0xbd327e28	-0.043577343
27	0xbe8c4266	-0.27394408
28	0xbe0b76e0	-0.13619566
29	0x3e255d2a	0.1614882
30	0xbd1cfc33	-0.038326453
31	0xbeb0e25f	-0.34547707
32	0x3e154c5b	0.14579909
33	0xbd00e303	-0.031466495
34	0xbd5dc918	-0.054146856
35	0xbcc26dc5	-0.023733983
36	0x3e86505d	0.26233187
37	0xbe4325fc	-0.19057459
38	0xbe9ba94c	-0.304026
39	0x3e8b0570	0.27152586
40	0x3e5452fd	0.20734783
41	0x3e9dcd8e	0.30820888
42	0x3e890412	0.26760918
43	0xbde9d782	-0.11418058
44	0xbe89c391	-0.26907018
45	0x3e7aaffc	0.24481195
46	0x3ca259b6	0.019818168
47	0x3ea075fb	0.31340012
48	0xbe46c164	-0.1940971
49	0x3ea4e8ea	0.3220895
50	0xbe0c32ea	-0.13691297
51	0x3dea3841	0.11436511
52	0x3d20acf0	0.039227426
53	0x3e1ddaff	0.15415572
54	0xbc87af81	-0.016563179
55	0x3d02f4af	0.03197163
56	0x3eae74ea	0.34073573
57	0x3d9004a6	0.070321366
58	0x3d027395	0.03184851
59	0xbe04ddba	-0.12975207
60	0x3e085e87	0.1331731
61	0xbbd0c52c	-0.006371161
62	0x3ddb815d	0.107180335
63	0x3db0f3ac	0.08640227
64	0x3d957af2	0.072988406
65	0x3de7f9a0	0.11326909
66	0x3d8332b8	0.06406158
67	0x3ea5179b	0.32244572
68	0xbe3f76b0	-0.1869762
69	0x3df82425	0.12116269
70	0x3e37e7ba	0.1795949
71	0xbe821af6	-0.25411195
72	0xbe8fda28	-0.28096128
73	0x3da26450	0.07929289
74	0xbdf3ffb6	-0.11914007
75	0xbe099634	-0.13436204
76	0x3e8019bd	0.25019637
77	0x3e378542	0.17921928
78	0xbcb46f3c	-0.022025697
79	0xbe198a14	-0.14994079
80	0x3e9f953c	0.31168544
81	0xbd557164	-0.05211009
82	0xbe26c843	-0.16287331
83	0xbb5c9cab	-0.0033662717
84	0x3d86eb4a	0.065878466
85	0xbe688ab5	-0.22709163
86	0xbe984b5b	-0.29744992
87	0xbe661c55	-0.22471745
88	0xba5270c8	-0.000802767
89	0xbe524c73	-0.20536976
90	0xbdb0d528	-0.08634406
91	0xbe697b66	-0.22800979
92	0x3df51a53	0.119679116
93	0xbe31b626	-0.1735464
94	0xbe6bf2ab	-0.23041789
95	0xbe4cb8c1	-0.19992353
96	0x3c5f34c5	0.013623421
97	0x3e5f526c	0.21808785
98	0x3e8ecb4c	0.27889478
99	0xbe4c202c	-0.19934148
100	0x3db5f49c	0.08884546
101	0x3e971479	0.29507807
102	0x3e8252f6	0.2545392
103	0x3e53994a	0.20663944
104	0xbe2d1408	-0.16902173
105	0x3dd36350	0.10321677
106	0x3e9e5676	0.3092534
107	0xbe8c18c1	-0.27362636
108	0x3cf85b1c	0.030316882
109	0xbd168eef	-0.036757406
110	0x3e2e843d	0.17042632
111	0xbe9c3ac8	-0.30513597
112	0xbce3081e	-0.027713832
113	0xbea762b8	-0.32692504
114	0xbe67006b	-0.22558753
115	0xbb7db1ce	-0.0038710716
116	0xbd5cf581	-0.05394507
117	0xbcf08484	-0.029360063
118	0xbe854029	-0.26025513
119	0xbea16e01	-0.3152924
120	0xbe930417	-0.28714058
121	0xbc2f3e7f	-0.010696053
122	0x3e9940f2	0.29932362
123	0x3e6001e4	0.21875721
124	0xbdcdc728	-0.10047752
125	0x3e174ca0	0.14775324
126	0xbd4957d5	-0.04915603
127	0x3e74e572	0.23915651
128	0x3e499da8	0.19689047
129	0xbd5757a6	-0.052573822
130	0x3e4ea66c	0.20180672
131	0xbe9e7dca	-0.30955344
132	0xbe3b0b61	-0.1826606
133	0xbd1712da	-0.036883213
134	0xbe7a3d78	-0.24437511
135	0xbdbeb1ed	-0.093112804
136	0xbe3d3886	-0.18478593
137	0xbe5d95ba	-0.21639147
138	0xbe79d830	-0.24398875
139	0xbd95b1e7	-0.07309323
140	0x3d6bc749	0.0575631
141	0x3d798a0b	0.060922664
142	0x3d98632f	0.07440793
143	0x3e8f0357	0.27932236
144	0xbe301989	-0.17197241
145	0x3e74cc9a	0.23906174
146	0x3e1272c5	0.14301594
147	0xbe9f70d4	-0.3114077
148	0xbe502288	-0.20325673
149	0x3c9824ff	0.018572329
150	0x3e813fa4	0.25243866
151	0x3c5cbe05	0.013473039
152	0xbe59bf29	-0.21264328
153	0x3d9ecf7e	0.0775442
154	0xbe51abf7	-0.20475756
155	0x3e35c259	0.17749919
156	0xbd9a81b6	-0.07544272
157	0x3e4748a3	0.19461302
158	0xbd1ee466	-0.038792036
159	0x3cf13003	0.02944184
160	0x3e4bf20d	0.19916554
161	0xbe1153d0	-0.14192128
162	0x3e9a2460	0.30105877
163	0x3d281c89	0.04104284
164	0xbea1c7ca	-0.3159774
165	0xbe66f0de	-0.22552821
166	0xbe6a968e	-0.22908995
167	0xbe2595a8	-0.1617037
168	0xba41c2ac	-0.0007391374
169	0x3e019139	0.12653054
170	0x3e0a5788	0.13509953
171	0xbd2dd858	-0.04244265
172	0xbddad933	-0.10685959
173	0x3e214ece	0.15752718
174	0xbe43cdd0	-0.1912148
175	0xbab7598b	-0.0013988478
176	0x3e7d9d8a	0.24767128
177	0x3d0a13c9	0.033710275
178	0xbe863320	-0.2621088
179	0xbe13d156	-0.14435324
180	0x3de413ac	0.111365646
181	0xbd2f8bd4	-0.04285796
182	0xbe8b92fb	-0.27260575
183	0xbe802d47	-0.25034544
184	0xbe9de634	-0.30839694
185	0xbe474db6	-0.19463238
186	0xbe307fb6	-0.17236218
187	0x3e4b7346	0.19868192
188	0x3e7c45cf	0.24636005
189	0xbe0727ad	-0.13198729
190	0x3d135a01	0.035974506
191	0xbdea6f1c	-0.11446974
192	0x3e8055c8	0.25065446
193	0xbe3513f3	-0.17683391
194	0xbd01ec38	-0.031719416
195	0xbe60feed	-0.21972246
196	0x3e552980	0.20816612
197	0xbe989cff	-0.2980728
198	0xbe574f93	-0.21026449
199	0x3e8c7f3b	0.2744082
200	0xbd04fe47	-0.03246906
201	0xbe1b64eb	-0.15175216
202	0x3e2a6993	0.16641836
203	0xbd66b815	-0.056327898
204	0xbda254a3	-0.079262994
205	0x3e8223f9	0.2541807
206	0x3e449e67	0.1920105
207	0x3e93b6a3	0.28850278
208	0xbe1f7833	-0.15573196
209	0xbe81f211	-0.25379995
210	0x3e86ceba	0.26329595
211	0xbe6a6e2e	-0.22893593
212	0x3cdb548f	0.02677372
213	0x3e78b2eb	0.24287002
214	0xbea9fa5a	-0.33198816
215	0x3df08e8d	0.117459394
216	0xbd9e17c6	-0.07719378
217	0xbce8c40b	-0.028413793
218	0x3e9a1663	0.30095205
219	0x3d8cac1c	0.06868765
220	0x3e7347e1	0.23757888
221	0xbe906e12	-0.28208977
222	0xbdb46f03	-0.08810236
223	0xbdc1a79a	-0.094557956
224	0xbe45b978	-0.19309032
225	0x3d3d8feb	0.04627983
226	0xbce22aa3	-0.027608221
227	0x3d8146be	0.06312321
228	0xbc11bdbe	-0.008895336
229	0x3e5cf2cc	0.21576995
230	0xbd9dbf3f	-0.07702493
231	0xbe60c4c5	-0.21950062
232	0x3e005d10	0.125355
233	0x3dd00d5f	0.101588
234	0x3e39884a	0.18118396
235	0xbe5e4e70	-0.21709609
236	0x3e95209c	0.2912644
237	0x3e09c8ff	0.1345558
238	0xbe9a04b9	-0.30081728
239	0x3dcd4bf4	0.100242525
240	0xbd9c36ec	-0.07627663
241	0xbe4d05c4	-0.2002173
242	0x3d97aa1e	0.07405494
243	0xbdc3af4a	-0.09554918
244	0x3ded1386	0.115759894
245	0x3e9cf3de	0.30654806
246	0x3d1d33b1	0.038379375
247	0xbddd7f7f	-0.108153336
248	0xbe2fc0c5	-0.1716338
249	0xbe1febd8	-0.15617311
250	0xbe758a28	-0.23978484
251	0x3dd2dfb0	0.10296571
252	0xbe1556eb	-0.14583938
253	0x3e0dc053	0.13842897
254	0xbc806d38	-0.01567708
255	0x3e7b58d4	0.24545604

decoder.0.bias f4 [32]
0	0x3de61884	0.11235145
1	0xbdfa417d	-0.12219522
2	0xbf0d527b	-0.5520398
3	0x3eac395d	0.33637515
4	0xbd3a92f6	-0.04555031
5	0xbda13c6f	-0.07872855
6	0x3e42be73	0.19017963
7	0x3c0d0a40	0.008608401
8	0xbe793b6d	-0.24339075
9	0x3eb15349	0.34633854
10	0x3e38801c	0.1801762
11	0x3e275163	0.1633964
12	0xbc59aab9	-0.013285332
13	0x3e8aa95d	0.2708234
14	0xbe2c08a7	-0.16800176
15	0xbe66d6f4	-0.22542936
16	0x3ece8bc4	0.40341008
17	0xbdfedabd	-0.12444065
18	0xbe637a4b	-0.2221462
19	0x3e5a69ea	0.21329466
20	0x3e0fae06	0.14031228
21	0xbd0a066d	-0.033697534
22	0xbd3d7e84	-0.046263233
23	0xbdf322b8	-0.118718565
24	0x3ddef129	0.108858414
25	0x3ea6fe4a	0.32615882
26	0x3d864c34	0.06557503
27	0x3e068a12	0.13138607
28	0x3e861ced	0.26193944
29	0xbe3c8f06	-0.18413934
30	0xbd653bd2	-0.055965252
31	0xbe37e52a	-0.17958513

decoder.2.weight f4 [64, 32]
0	0xbd6c9870	-0.057762563
1	0xbdfed5d6	-0.1244313
2	0x3dacd253	0.08438554
3	0x3e4492bf	0.19196604
4	0xbe7cbc05	-0.24681099
5	0xbd0bbbb6	-0.034114562
6	0xbceadbb2	-0.028669212
7	0xbdf796f5	-0.1208934
8	0x3d9b2c6f	0.075768344
9	0xbda228f1	-0.07917965
10	0x3daf38cb	0.08555754
11	0x3de5d7e2	0.11222817
12	0x3da88565	0.08228568
13	0x3dfffa17	0.12498873
14	0xbe4af22a	-0.19818941
15	0x3da46d6f	0.08028685
16	0x3e33102c	0.17486638
17	0x3dabe545	0.08393339
18	0x3d9602be	0.07324742
19	0xbdf9767d	-0.12180803
20	0xbc263063	-0.010143372
21	0x3e65b4f9	0.22432317
22	0x3e358115	0.17725022
23	0xbd918d21	-0.07106996
24	0xbdade62e	-0.08491169
25	0x3e1a6a85	0.15079696
26	0x3daceeac	0.084439605
27	0xbd168197	-0.03674468
28	0x3d789444	0.060688272
29	0xbd46efd4	-0.04856856
30	0x3d0b991d	0.034081567
31	0xbe205722	-0.15658239
32	0xbd596ae8	-0.05308047
33	0x3bb9d4ce	0.0056711202
34	0xbe07582f	-0.13217233
35	0x3d5bda68	0.053675085
36	0xbe18700b	-0.14886491
37	0xbe0f761d	-0.140099
38	0x3c5efb4c	0.0136097185
39	0x3e159d35	0.14610751
40	0xbc1fe136	-0.009758284
41	0xbd9f6079	-0.077820726
42	0x3d0a21bc	0.033723578
43	0x3df26bdf	0.11836981
44	0xbe67f550	-0.22652173
45	0x3dc484eb	0.095956646
46	0xbc2224ff	-0.009896516
47	0x3ca71723	0.020396775
48	0x3d31e957	0.04343542
49	0x3e3fe341	0.18739034
50	0xbe036703	-0.12832265
51	0x3d27f620	0.041006207
52	0xbcfa753e	-0.030573484
53	0x3dcefd23	0.10106876
54	0xbe35bf93	-0.17748861
55	0x3bc55c9f	0.006023004
56	0x3b6ab0af	0.0035810878
57	0xbdf64dc4	-0.12026551
58	0x3d44253c	0.047887072
59	0xbceaadd7	-0.028647346
60	0xbd9f86d6	-0.0778939
61	0x3e31e434	0.17372209
62	0xbdedf750	-0.11619437
63	0xbe0d0559	-0.13771571
64	0x3de3dc4d	0.111260034
65	0xbe40009b	-0.18750231
66	0x3e2b5e91	0.16735293
67	0x3de81d02	0.11333658
68	0xbdda4eb5	-0.106595434
69	0x3c9795bf	0.018504022
70	0x3d6cacfb	0.057782155
71	0xbcdb9725	-0.02680547
72	0x3c6d2ce2	0.014476033
73	0x3d024aa7	0.031809475
74	0xbd1acfeb	-0.037795942
75	0x3de75f99	0.11297531
76	0xbdc71913	-0.097215794
77	0x3e1bea68	0.15226138
78	0x3d2cd803	0.042198192
79	0xbd4c8a8b	-0.049936812
80	0xbde91ef5	-0.11382858
81	0x3c8064ed	0.015673125
82	0xbd839428	-0.06424743
83	0xbdd79f1d	-0.10528395
84	0x3ce1c448	0.027559415
85	0x3d679c83	0.056545746
86	0xbe290765	-0.16506727
87	0x3dc63e8b	0.09679898
88	0xbcac138f	-0.02100542
89	0xbd281db0	-0.041043937
90	0x3dcf331b	0.101171695
91	0xbd582c4e	-0.052776627
92	0x3e3b0311	0.18262888
93	0x3c92089c	0.01782637
94	0x3d180a99	0.03711948
95	0xbd22ecdd	-0.03977667
96	0x3d939df0	0.072078586
97	0x3e9bb1b9	0.3040903
98	0xbe1c70b4	-0.15277368
99	0xbe0cb231	-0.1373985
100	0xbd5daabc	-0.054117903
101	0x3ceb73e4	0.028741784
102	0x3e3e1771	0.1856363
103	0xbdd570cf	-0.10421907
104	0x3d01bebb	0.031676035
105	0xbccc3d4a	-0.024931569
106	0x3dd33689	0.10313136
107	0x3d82928d	0.063756086
108	0xbe10d53a	-0.1414384
109	0x3c3ded11	0.011592166
110	0xbdb8a76b	-0.090163074
111	0x3c2089ff	0.009798526
112	0xbc7f12e8	-0.015568472
113	0x3d730e0b	0.059339564
114	0xbc6abae4	-0.014326785
115	0xbdc5a7b8	-0.096511304
116	0x3dfedfee	0.12445055
117	0xbd57c9fc	-0.05268286
118	0xbd10b39f	-0.03532755
119	0xbe074ec1	-0.13213636
120	0x3ceac8b3	0.028660154
121	0x3d864f08	0.06558043
122	0xbd7817bf	-0.06056952
123	0x3ce29d14	0.027662791
124	0x3d96975c	0.07353088
125	0xbd993408	-0.07480627
126	0x3cd71898	0.026256844
127	0xbd3a6807	-0.045509364
128	0x3da636b2	0.08115901
129	0xbe49f102	-0.19720843
130	0xbde53b69	-0.11192972
131	0xbe39065d	-0.18068834
132	0x3ddf9c6c	0.10918507
133	0x3d57d71c	0.05269538
134	0x3d916eba	0.071011975
135	0x3da88bf8	0.08229822
136	0x3e2319b9	0.15927781
137	0x3d445df6	0.04794117
138	0xbdd29c02	-0.102836624
139	0xbdf3f3cf	-0.11911737
140	0xbd5930a5	-0.053024907
141	0x3ca7ba8c	0.020474695
142	0xbd8afedc	-0.06786892
143	0x3de7adf5	0.113124765
144	0x3d90bc71	0.07067192
145	0x3e137198	0.14398801
146	0x3d218320	0.03943169
147	0xbd80fd3a	-0.06298299
148	0x3d43cd89	0.047803435
149	0x3de976d4	0.11399618
150	0xbe215bc5	-0.15757664
151	0xbcec4c14	-0.02884487
152	0xbc811e7a	-0.015761603
153	0x3bf03b1d	0.0073312656
154	0x3d36d052	0.044632263
155	0xbb216f70	-0.0024633072
156	0x3dd9fe0f	0.10644161
157	0x3da1cc84	0.079003364
158	0x3dc7c07d	0.09753511
159	0x3df6e49c	0.120553225
160	0x3d2e446e	0.04254573
161	0xbe22f302	-0.15913013
162	0xbd43b125	-0.04777636
163	0x3d2872bc	0.041125044
164	0xbe313605	-0.17305763
165	0xbb996f29	-0.004682441
166	0xbe1e8190	-0.15479112
167	0x3b60edc9	0.0034321418
168	0xbe43d5d8	-0.19124544
169	0xbda3645b	-0.07978126
170	0xbdea3c26	-0.11437254
171	0xbd2ef674	-0.042715505
172	0x3ccd7515	0.025080243
173	0x3e27e6fd	0.16396709
174	0x3d1fce06	0.03901484
175	0x3e044599	0.12917174
176	0x3e2d8a34	0.16947252
177	0x3d2750bb	0.040848475
178	0x3dde200d	0.10845957
179	0xbd49beee	-0.04925435
180	0x3e50bb36	0.20383915
181	0x3d579de2	0.052640803
182	0xbe1aa282	-0.15101054
183	0x3c9f5b3b	0.019452682
184	0xbe04b25b	-0.12958662
185	0x3d810c8b	0.063012205
186	0x3e4d86b7	0.20070921
187	0x3e3bcd77	0.18340097
188	0x3e031a6c	0.12803048
189	0xbe2362b2	-0.15955618
190	0x3c5f48fe	0.013628243
191	0xbe4bd47e	-0.19905278
192	0xbde97873	-0.11399927
193	0x3df15678	0.11784071
194	0xbdc6b89f	-0.097031824
195	0xbdd3776d	-0.10325513
196	0x3c7cfb66	0.015440797
197	0xbe263a44	-0.16233164
198	0x3d96f4ab	0.073708855
199	0xbdc5f33d	-0.09665535
200	0xbdffc217	-0.124881916
201	0x3e2397dc	0.15975899
202	0x3cb1a623	0.021685665
203	0x3df1c732	0.118055716
204	0x3dfcaf8f	0.12338173
205	0xbd6f9570	-0.058492124
206	0x3df8ea2c	0.1215404
207	0x3df10dbf	0.117702
208	0xbd1f8931	-0.038949195
209	0x3bcb2f9b	0.0062007434
210	0x3d6daf0f	0.058028277
211	0x3e1b9ee7	0.15197335
212	0x3d0fc013	0.035095286
213	0x3e444142	0.19165519
214	0x3d1cac8b	0.038250487
215	0xbe361d3c	-0.1778459
216	0x3e2c493e	0.16824815
217	0xbdfbee00	-0.12301254
218	0x3e0ec72c	0.13943166
219	0x3dd94765	0.106093206
220	0xbcc30d57	-0.023810072
221	0x3e24be23	0.16088156
222	0x3e03bcd8	0.12865007
223	0xbbc34e50	-0.0059602633
224	0xbd3f1114	-0.046647146
225	0xbd9a9124	-0.075472146
226	0xbc367d5a	-0.011138285
227	0x3c083f0e	0.008315815
228	0xbead8c3d	-0.33896056
229	0x3dc27f39	0.09496922
230	0xbe2e7218	-0.17035711
231	0x39db9dfc	0.00041888643
232	0xbd0a9f55	-0.033843357
233	0x3e1bd426	0.15217647
234	0xbe7109f1	-0.23538949
235	0x3e10ee15	0.14153321
236	0xbbe56619	-0.0070006964
237	0x3e2c8e2e	0.16851112
238	0x3d003c70	0.031307638
239	0x3e4dcd53	0.20097856
240	0x3cb558ef	0.022137133
241	0xbdff731e	-0.12473129
242	0x3c8d3b0c	0.01724007
243	0xbdb1a430	-0.086738944
244	0x3db93979	0.09044165
245	0x3e6a26f4	0.22866422
246	0xbdf488ae	-0.11940132
247	0x3e058bfc	0.13041681
248	0xbda9646f	-0.08271109
249	0xbe55400f	-0.20825218
250	0x3dc2a06c	0.09503254
251	0xbbc0eeee	-0.0058878576
252	0xbd39d058	-0.045364708
253	0xbdfd9aad	-0.12383018
254	0xbdb96a9e	-0.09053539
255	0x3e0eb23b	0.13935177

decoder.2.bias f4 [64]
0	0x3e1d7910	0.15378213
1	0xbde6223d	-0.11236999
2	0x3d1fdd23	0.03902925
3	0x3e3db1ca	0.18524852
4	0xbd52d8a2	-0.05147613
5	0x3e55cb26	0.20878276
6	0x3d440af5	0.047862012
7	0xbcc7c16a	-0.02438422
8	0xbe87e3cd	-0.26540986
9	0x3e2a5aa8	0.16636145
10	0x3e3350ca	0.17511287
11	0xbd950155	-0.07275645
12	0x3e60765f	0.21920155
13	0xbd1d6450	-0.038425744
14	0xbdc4293e	-0.09578179
15	0xbd9c6e78	-0.07638258
16	0x3e4d5ccd	0.20054932
17	0xbdfb4fe6	-0.12271099
18	0xbe0848d2	-0.13309029
19	0x3e411e82	0.18859294
20	0x3ccb14b7	0.024790151
21	0x3d9d9b09	0.07695586
22	0x3daa400c	0.08312997
23	0x3dc063e1	0.093940504
24	0xbd0a54ed	-0.033772398
25	0x3cf4305e	0.02980822
26	0xbe2664c0	-0.1624937
27	0x3dbd255f	0.092356436
28	0xbd41fcbc	-0.047360167
29	0xbda61266	-0.08108978
30	0x3ea09b3c	0.31368434
31	0x3bfe99cd	0.0077697993
32	0x3df07d44	0.117426425
33	0xbd7a8646	-0.06116321
34	0x3e43c9b2	0.1911991
35	0x3d669fd9	0.056304786
36	0x3df220f9	0.11822695
37	0xbd21095d	-0.03931557
38	0xbdb7bbae	-0.08971344
39	0xbdf8c13a	-0.1214623
40	0x3e41410f	0.18872474
41	0x3cc53f75	0.02407811
42	0x3d9f3c80	0.07775211
43	0x3dc410c2	0.09573509
44	0xbd928b03	-0.07155421
45	0x3cf189a5	0.02948458
46	0x3d243f8f	0.040099677
47	0xbdbe0a72	-0.09279336
48	0x3dd7e820	0.10542321
49	0x3e377c57	0.17918526
50	0x3e0f785e	0.1401076
51	0x3e57a32e	0.21058342
52	0x3dad473c	0.084608525
53	0x3e174627	0.14772855
54	0x3be7cc38	0.0070739053
55	0x3e7a331a	0.24433556
56	0xbcd6ccae	-0.026220646
57	0x3dd5f214	0.10446563
58	0x3e592776	0.2120646
59	0xbe3c227e	-0.18372533
60	0x3e43c431	0.1911781
61	0xbcd233a7	-0.025659395
62	0x3d00347a	0.031300046
63	0x3d1229b8	0.035684317
