Save_Models/model-lat5.pth (torch, 191970 bytes, 16 tensors)

encoder.0.weight f4 [128, 99]
00000000: fd12 c0bd 6eea 26bd 326a e9bd e181 21be
00000010: 3adc eebd a736 25bd 0e7a dabc da29 48bd
00000020: b0bf c6bd 4b00 d6bd 4153 5abd 7bb3 65bd
00000030: 61d4 fdbc 5ea8 593d 4662 c0bd 39fc e13c
00000040: f038 cabd 3ee8 5bbd 80bc 91bd 7e43 673c
00000050: 3fb3 6cbc e3f3 18bd 6586 433c d3d4 5d3d
00000060: a8c9 503b 353d 99bd 7e35 773c 0062 29bd
00000070: 1cd3 9e3b 9c3a 8abd 0fb9 b5bd 707e 42bc
00000080: 692a 81bc 7cfc e13c 1e50 893d 4163 d53c
00000090: 84b8 f53c 6e4f f0bd 256c adbd 0b77 fe3c
000000a0: 1215 43bd 6234 35bd 3ea7 723d 78a1 dc3b
000000b0: b55b a13d 0129 5abd 088e cfbd dab7 d5ba
000000c0: 1510 58bd 18b9 8ebd f7da 833d af55 8ebd
000000d0: 138c 7d3d 78d9 323d 3a77 b63d cc0e 63bd
000000e0: 62cc d33d 25f8 3bbd bc9a fbbc f8ee 813c
000000f0: 5e61 ae3d 0510 253d a894 dbbc 3d98 41bd
00000100: 4973 fabc f44c a4bd 24a3 9b3c 10d9 993d
00000110: 721c 683d 6c32 1dbd a711 073d 3dc9 b53c
00000120: 4836 bb3d 9bd0 4cbd 3e67 febb c377 e33d
00000130: a68c f53d 8d9e 52bc 4ab2 fc3c 9ecb 61bc
00000140: caae 393d 88a7 d73c 7f76 fa3d 7116 9d3d
00000150: 1670 8bbd e602 ed3c 87a8 25bd acf9 093d
00000160: 85bd febc e505 82bd 0cdc b13d d374 8a3d
00000170: 8d9e cc3d d9a4 b83d 2f31 43bd 39e0 c1bc
00000180: b87b 57bd e6a3 61bd 0509 693d 5f74 55bd
00000190: 1437 babd ca76 a5bd 3f2d d0bd d309 9f3d
000001a0: 2388 863d d570 84bc 4ede b8bc f9c0 ccbd
000001b0: ef24 97bd f725 79bd 761a eabc a89c 22bd
000001c0: ad9a f03c acd3 94bd 509d 71bd dda1 9cbd
000001d0: b492 b8bd f1e6 54bd 29a7 15bd 2bc1 e0bd
000001e0: 79fd 44bc ec9f b23c 5725 273d 052e a4bd
000001f0: 1771 99bc 481d 5dbd 0fd7 53bd 6950 f3bc
00000200: 1339 e43b a990 38bd 053b 453d 72fd b1bd
00000210: a4f2 93bd 5828 54bd 1875 90bd 55de a33d
00000220: 2804 6d3d 9f94 f1bc 4fa0 a7bd 114d 043d
00000230: 2f1e ae3d 41e1 1d3d 4d20 9bbd 7603 54bd
00000240: cbc6 053d f0fc 29bb 92b1 5c3d bb57 b23c
00000250: f0f5 c73c faa6 a13d d723 7c3c dc42 cebc
00000260: e1ae 283c 23a9 953d c2c7 debd 930d f9bc
00000270: fd89 bb3d 4ece 893d 0b1b 23bd 12d4 e2bc
00000280: 59ef b5bb ed10 51bd b8ea 7cbd 1b41 c3bd
00000290: 8155 97bc 9d4c 84bd d2f4 3abd b5f7 b5bc
000002a0: 9dab 483b 28b7 73bd 9bd4 bd3d 8725 0cbd
000002b0: 6bfb f63c 51c8 c2bd f27b 29bd a469 c6bd
000002c0: 3bcf 68bd 460d b83d 14f1 f03c 8c93 34bd
000002d0: 386e 6ebc 942a 66bd 6483 cbbd 7b9e c5bc
000002e0: e098 6dbd 6e73 ddbd 514e ae3c 2e09 d1bd
000002f0: 4aca 4fbd 5d7a 173c 385a 493d fafa 803d
00000300: 668a 37bd 75ca 9bbb 9506 11bb 44b0 b8bc
00000310: 4874 9f3d f82a 9d3d db23 79bd 1f84 993d
00000320: d2b7 df3d 6862 053d 38b7 bb3d d513 cb3d
00000330: f8d6 2fbd ae97 c53d 5085 b93b 3b5b e23d
00000340: 1c0d adbd c61c a23d d89f a5bd a060 963d
00000350: 4a73 1a3d 25f9 75bd 22e1 2b3d 05be 62bb
00000360: 5e39 bcbd 5096 a8bd f8a5 e4bc af9b 253d
00000370: f2e8 b73d 4b41 a83d d476 b63d 5fc8 f9bc
00000380: d43c b63d 52cb 0fbb 15b7 94bd b5e4 66bd
00000390: 2842 74bd 1204 863d 3086 873d 7935 e2bd
000003a0: 9479 763d 3b52 3b3d 1b56 cc3c bb48 2b3d
000003b0: 29fb 313d 19ab cabd 9e2c 053c b665 aebd
000003c0: a7a9 debd dd72 30bd 4122 bfbd 039f 8ebc
000003d0: 4045 b2bc d505 f83c f0f2 d8bd dd21 973d
000003e0: e194 d7bd add6 de3c afb8 cdbc e2eb 9ebd
000003f0: c712 5abb 43a2 c6bd a9b4 e6bd 39ac 153d
-0.09378622 -0.040750913 -0.11397208 -0.15772201 -0.11663099 -0.040335324 -0.026669528 -0.048868038
-0.0970453 -0.10449275 -0.053302053 -0.05607937 -0.03098506 0.053139083 -0.09393744 0.02758609
-0.09874141 -0.05368828 -0.07116032 0.0141152125 -0.0144470325 -0.037341963 0.011933898 0.054158043
0.0031858478 -0.074823774 0.015088437 -0.041353226 0.0048469435 -0.0674946 -0.08873188 -0.011870965
-0.015767293 0.027586214 0.06704734 0.026048305 0.02999521 -0.117339 -0.084678926 0.031062623
-0.047627516 -0.04423941 0.059241526 0.0067331158 0.0787882 -0.05326176 -0.10134512 -0.0016305402
-0.052749712 -0.069688976 0.064382486 -0.069499366 0.061901163 0.043664426 0.089094594 -0.055434033
0.10341717 -0.045890946 -0.030713432 0.01586102 0.08514665 0.04029848 -0.026804283 -0.047264326
-0.03057255 -0.0802249 0.01899869 0.075121045 0.056667753 -0.038378164 0.03297582 0.022190684
0.09141213 -0.05000363 -0.0077637723 0.11106827 0.11989717 -0.012855184 0.030846734 -0.013781456
0.045332707 0.026325002 0.122296326 0.07670296 -0.06808488 0.028932046 -0.040443923 0.03368537
-0.03109623 -0.063487805 0.08684549 0.06760564 0.09991179 0.09015817 -0.047654327 -0.023666488
-0.05260822 -0.055087946 0.056893367 -0.052112933 -0.090925366 -0.08079298 -0.1016488 0.07765546
0.06568935 -0.016167084 -0.02256694 -0.09997744 -0.073800914 -0.06082722 -0.02857707 -0.03970018
0.02937063 -0.07266936 -0.058987916 -0.076480605 -0.090123564 -0.051978055 -0.03653637 -0.10974344
-0.012023323 0.021804772 0.040807094 -0.0801659 -0.018730683 -0.053983003 -0.051718768 -0.029701428
0.0069648116 -0.045059834 0.04815199 -0.08690919 -0.072240144 -0.051796287 -0.07053584 0.08001391
0.05786529 -0.029489813 -0.08184873 0.03230006 0.08501851 0.038544897 -0.0757452 -0.051761113
0.032660287 -0.0025938116 0.05388028 0.021770349 0.024409264 0.078931764 0.015389404 -0.025178365
0.010295601 0.07307651 -0.108779445 -0.03040198 0.091571786 0.067288026 -0.039820712 -0.027689014
-0.005552214 -0.051041532 -0.061747283 -0.09533902 -0.018473389 -0.06459925 -0.045643635 -0.022212842
0.0030619868 -0.059500843 0.09269067 -0.034215476 0.030149182 -0.095108636 -0.04137797 -0.09688118
-0.056838255 0.08986907 0.02941183 -0.044086024 -0.014552645 -0.05619295 -0.0993717 -0.024123421
-0.05800712 -0.10813032 0.021277579 -0.10206829 -0.050730027 0.009245482 0.049158305 0.0629787
-0.04480972 -0.0047543594 -0.0022129167 -0.022544987 0.07785851 0.07674211 -0.06082521 0.07495903
0.10923733 0.03256455 0.091658056 0.09915892 -0.04292962 0.09648071 0.005661644 0.11052557
-0.08449766 0.07915644 -0.080871284 0.073426485 0.037707604 -0.060052056 0.04196275 -0.0034598124
-0.091906294 -0.08231795 -0.027911171 0.040431675 0.08979978 0.08215579 0.089093834 -0.030491052
0.08898321 -0.0021941257 -0.072614826 -0.056370456 -0.059633404 0.06543745 0.06617391 -0.11045355
0.06017454 0.045732718 0.024943402 0.041817408 0.043452416 -0.098959155 0.008128313 -0.085154936
-0.10872202 -0.043078292 -0.09332705 -0.017409807 -0.021761537 0.030276218 -0.10593212 0.07379506
-0.10526443 0.027201975 -0.025112478 -0.07759835 -0.0033275352 -0.09698918 -0.11264927 0.036541197

encoder.0.bias f4 [128]
00000000: 1b8b 19be bc18 b4bd ce1e eabd 4892 2fbd
00000010: 6038 2bbe 360d 37bd cdd1 20be ce1a 59bd
00000020: 30b6 75be c9db eebc 1c48 dfbd ea88 27be
00000030: 3907 183d 4eff 20bd dd48 59bc 9b05 43be
00000040: 9ca1 dbbc 4ca4 4abd c988 1abe d1ae 09bc
00000050: f635 37be 060b 15bd c2b7 fbbd 53b3 13be
00000060: 5c1e a2bd 124a 71bd 2144 4cbe ceae 93bc
00000070: e894 35be 5f9f 8dbd ae45 70be 7b70 d1bd
00000080: e0e5 afbb 0c5a a0bd 9b93 92bc 74f9 ccbd
00000090: c187 5ebe 2c3c 1ebe 11cd c1bd f925 96bd
000000a0: 1c2c 2cbe 8a50 71be 119c 64bb 24d9 d1bd
000000b0: e8c8 2dbd 57d5 39bd 88c8 c2bd 4102 f7bc
000000c0: 10aa 0fbe 4782 c23c 025e 98bd 51a6 a4bd
000000d0: c675 e6bb ad15 07be 628a 4bbd e432 983c
000000e0: d603 4bbe 9ca8 ba38 e07d 25be 19e7 26bd
000000f0: 508b 1dbd 689f a3be e62b dbbd a1c2 89bc
00000100: 98ca 22be c991 bebd a349 f6bd d33f e5bd
00000110: 4310 7fbd 3325 69bc 568b 08be de48 49be
00000120: 8ee2 893c 6ccc 84bd 4504 b9bd 0630 23be
00000130: dce3 03bd 262e ffbd 2847 33be a4fa f9bd
00000140: 7262 0abe 3883 10be be80 0ebe 7428 38be
00000150: 6f37 8cbd 37f1 c4bd 234e b3bd aa2a f4bd
00000160: af3a 17be 48df cbbc 9717 42be cc8b 2dbe
00000170: ddf3 4ebd 05f1 97bd 5880 21be 795c 0bbd
00000180: dacc ad3c 6702 37be 1ece d7bd ca14 a4be
00000190: 59dc 25be fd8d 20be 6747 8bbd dc30 3bbd
000001a0: 683e 5ebe 4bf3 17be 1f8e 31be 9839 13be
000001b0: 3271 c5bc 27b4 50bd 10af e3bd 4ce8 44bb
000001c0: ccab b3bc efc7 81bd d873 36be 602b 4a3c
000001d0: a181 2dbe 5b79 69be 628f 42be a352 25be
000001e0: 7cda 37be 95ee b6bd b1c3 bf3c ee7e 2dbe
000001f0: fb3c dabd e7b7 d93b 5fc2 50be 7a6f 1ebe
-0.14994471 -0.0879378 -0.11431657 -0.042864114 -0.16720724 -0.044690333 -0.15705033 -0.05300408
-0.2399528 -0.029157536 -0.10902426 -0.16360822 0.037116263 -0.039305978 -0.013262001 -0.19045107
-0.02681046 -0.049473092 -0.15091242 -0.008403496 -0.17891678 -0.036387466 -0.122909084 -0.14423876
-0.07915947 -0.05890853 -0.19947864 -0.01802769 -0.17732584 -0.06915163 -0.2346408 -0.10226532
-0.0053679794 -0.07829675 -0.01789265 -0.10008517 -0.21731474 -0.15452641 -0.094629414 -0.073314615
-0.16813701 -0.2356588 -0.0034883062 -0.102464944 -0.042427927 -0.045369472 -0.095109046 -0.030152442
-0.14029717 0.023743762 -0.074398056 -0.08039535 -0.0070330827 -0.13191862 -0.04969252 0.018578954
-0.19825682 8.900577e-05 -0.16161299 -0.040747736 -0.038462937 -0.31957555 -0.10701732 -0.01681644
-0.15897596 -0.0930515 -0.12025764 -0.11193814 -0.062271368 -0.01423006 -0.13334402 -0.19656703
0.016831663 -0.06484303 -0.090340175 -0.15936288 -0.032199726 -0.12459974 -0.17507613 -0.12206009
-0.13514116 -0.14112556 -0.13916299 -0.17984182 -0.068465106 -0.096163206 -0.08755138 -0.119222
-0.1476848 -0.024886742 -0.18954311 -0.1694786 -0.050525535 -0.07419018 -0.15771616 -0.034023736
0.021215845 -0.1787201 -0.105373606 -0.3204711 -0.16197337 -0.15679164 -0.06800728 -0.045700893
-0.21703494 -0.14838903 -0.17339371 -0.14377439 -0.024101827 -0.050953057 -0.11117375 -0.0030045686
-0.021932505 -0.063369624 -0.17817628 0.012339443 -0.16943981 -0.228002 -0.19000009 -0.16144805
-0.17954439 -0.08932225 0.023408743 -0.16942951 -0.10656162 0.0066442373 -0.20386647 -0.15472212

encoder.3.weight f4 [64, 128]
00000000: 0b0f 1d3d 7b0d 03bd e988 6dbd fe2d 613c
00000010: cc0c 083d 06d2 81bd 3c21 a2bd 2b97 073d
00000020: 92fb 4b3d bad0 0cbd 42c4 b73c 7e4d ac3c
00000030: 7290 4bbd cc35 6dbd 5c48 b73d daca 9c3d
00000040: d663 8fbd 6e77 083d 5db0 fbbc 2c3b 61bd
00000050: 2c5f d13d d282 973d 1801 26bd 87f4 153d
00000060: 1756 323c f70f 56bc 6de8 ca3d 34aa 70bd
00000070: 20d9 b83d 0e81 e03d 7723 ee3d 6ef0 ba3d
00000080: 6d10 a63d 2512 b33d 9f96 9b3c aa8b 9f3d
00000090: a425 4f3d 8fa9 7f3c 83d6 94bd 6daa 7bbc
000000a0: e69d d7bb e909 72bc 475c 92bd 7829 8bbd
000000b0: 4919 7d3d 69d7 de3a 38d6 dd3d 39cb b03d
000000c0: 51d4 63bd 6bf0 3dbd 8605 a63d e1e7 7bbc
000000d0: 4d08 4ebd 96e1 72bc b6a4 59bb aa0d bf3c
000000e0: fa64 033d 7bb8 8fbd ab7c e4bc 56b0 273c
000000f0: a6c8 13bd 5ef2 103e 1cde 38bd fb4f 4dbc
00000100: e299 9cbd e0d0 b03d a6d7 d23a 9aeb 2ebc
00000110: b351 84bd 9cf9 cf3d 0294 8b3d 1f7b be3b
00000120: 519a abbc 5f9a 503c 07a6 f8bb bbbe 14bc
00000130: d4bd 2b3e d08d 963d 8ee6 713c a2e4 fd3c
00000140: 159b 30bd 3151 353d 1253 c73d 8073 6738
00000150: f984 473d 32e7 503d e2bd 61bc 2eae 1b3d
00000160: fad5 4c3d a110 d23d d650 09bc 80fa 3cbd
00000170: 0219 7b3d 29fc bcbb e5fd 59bb dfd2 77bd
00000180: cffa 94bd 410a 37bc 5ccc 6fbd 782b ab3d
00000190: 2bbe c9bc 2328 9f3d 8a99 79bd 90f1 173d
000001a0: 2943 c53c ce78 3a3d 94a8 b63d d803 6f3d
000001b0: 6157 da3c 0c73 85bd 808a 6d3d 1342 1bbd
000001c0: 8b32 823d a974 8ebb 4be7 793d f593 a2bd
000001d0: 4e0c 4c3c 9570 103c 943a 4d3d 7704 493d
000001e0: dc75 e13c 9ecf e53c cb9f eabc c4e2 b93d
000001f0: 87c6 1a3d 124b 383d 23ed aa3d 9569 ce3d
00000200: fa0f 4bbe 0a51 01ba 3855 663d d890 b53c
00000210: b83b f4bc 93b1 efbc ee71 ab3c d124 3a3c
00000220: 0aec bb3d f35c 113d 5679 003d 392c 64bd
00000230: e8dd a23d a523 4abd 3c54 c8bd c96b 543d
00000240: 5b45 a13d 59c6 4bbc 9ab1 113d cce2 a93d
00000250: 1368 493b fa8d 013d d3c2 a6bc ff0d e43d
00000260: 822a aabc 2cd9 be3d fb10 fe3d 89e3 5d3d
00000270: 6f19 9c3d 1e44 563d f3ff 23bc c993 ab3d
00000280: 36b1 3cbd 8734 073e 6e9b 1b3d f90a 51bd
00000290: 0e5c 35bb d15a 6fbd fef0 bcbd a0bd b23d
000002a0: 5c1b 4ebc 28a2 5d3d 67ae 0cbe db5a 17bd
000002b0: 9ee6 a9bb 5c7b 913d c676 a43d 5d30 00bc
000002c0: 1cf9 aa3d 21fe 5bbb a211 463d 21aa 5abc
000002d0: 1c30 d2bb a5ed 2ebd ca02 953c 0343 57bd
000002e0: ae11 3d3c edf2 093b 06bd 11bc d342 cb3d
000002f0: 6969 53bd e04e f03d 9d22 61bd 7c45 ecbd
00000300: a353 99bd 3cf0 603d decf e2bc cc01 dc3d
00000310: 97ab b63d b354 043d 4e85 9c3c fbc4 7a3d
00000320: 5d68 9cbd 16b1 c2bb 628d c43d 0d88 d03d
00000330: 8eb1 2dbc d92c ed3b e1ff dc3d eb34 3dbd
00000340: 8da1 07bc 7abc a0bc 0d49 b23d f670 c33d
00000350: e6e8 c13d f88c cebd d353 c8bc c154 fe3c
00000360: 8dd6 b13d b733 633a e66d e73d d07b e63b
00000370: 0a0c debd f665 9f3c d8e3 373d ca62 6c3d
00000380: e1c3 213c 2156 9d3d fabb b73d 8120 533c
00000390: ad4a a73c decb 01bd 0652 873d 5e3f 90bb
000003a0: bcde ee3d a570 173e caf4 9dbd 16d8 2cbd
000003b0: 7345 423d 9444 d53c a4c4 673d 66c4 1bbd
000003c0: ffd1 c7bc 0601 853d 29e5 e33d 70e3 223d
000003d0: 85ea b23d ac1c 273d 589c 153c b10b 6abd
000003e0: e2f2 4bbd cd5b bd3d 4667 05bb d817 683d
000003f0: 1ab9 803c 41e8 f4bb acf1 a4bd de3a 983d
0.038344424 -0.031995278 -0.057991896 0.013743876 0.03321533 -0.06338887 -0.07916495 0.03310315
0.049800463 -0.034378745 0.02243245 0.021033045 -0.0496983 -0.057912633 0.08949348 0.07655878
-0.07001464 0.033317022 -0.030723745 -0.05498807 0.10223231 0.07397999 -0.040528387 0.036610153
0.010884783 -0.01306533 0.09907613 -0.05875607 0.09025788 0.10962115 0.11627858 0.091278896
0.08108602 0.08743695 0.01899272 0.07790311 0.050573006 0.015604391 -0.07267477 -0.015360457
-0.0065801023 -0.014772871 -0.07146507 -0.06795019 0.061791692 0.0017001453 0.108318746 0.08632512
-0.055622403 -0.04637186 0.08106522 -0.015375108 -0.050300885 -0.014824292 -0.0033209748 0.023321945
0.03207872 -0.07017609 -0.027891478 0.010234913 -0.036080025 0.14154956 -0.045133695 -0.012531276
-0.07646538 0.0863359 0.0016085997 -0.010676289 -0.064608954 0.10155031 0.068153396 0.005813017
-0.020947607 0.012732117 -0.0075881514 -0.009078677 0.16771632 0.07351267 0.014764441 0.03099281
-0.043116648 0.044266883 0.09732641 5.518226e-05 0.048710797 0.051001735 -0.013778182 0.038007908
0.05000875 0.10257078 -0.008381089 -0.046137333 0.061303146 -0.0057673645 -0.0033262905 -0.060503837
-0.072744004 -0.011171878 -0.0585445 0.083579004 -0.024626812 0.07771327 -0.060937442 0.037095606
0.024079876 0.045525365 0.089188725 0.058353275 0.026652994 -0.06516084 0.057993412 -0.03790481
0.063572966 -0.004347403 0.061011594 -0.07938377 0.012454106 0.008815904 0.050104693 0.049076524
0.02752202 0.028053101 -0.028640648 0.09076455 0.037786987 0.044993468 0.083460115 0.10078732
-0.19830313 -0.0004933035 0.056233615 0.022163793 -0.029813632 -0.029259479 0.02092835 0.011361317
0.0917588 0.035489034 0.031365715 -0.055706237 0.079524815 -0.0493504 -0.097816914 0.051860604
0.07874557 -0.0124374265 0.035569765 0.08295211 0.00307322 0.03162954 -0.020356571 0.11135482
-0.020772222 0.09318766 0.124055825 0.054172073 0.076220386 0.052311055 -0.0100097535 0.08377797
-0.04606744 0.13203631 0.037990026 -0.051035855 -0.0027673277 -0.05843622 -0.09225653 0.08727574
-0.012579765 0.054109722 -0.13738404 -0.03695188 -0.0051849624 0.07103607 0.08030467 -0.007824031
0.08348295 -0.003356822 0.04835666 -0.013346226 -0.0064144265 -0.042707104 0.018189806 -0.05255414
0.01153986 0.0021049336 -0.008895164 0.09924855 -0.0516142 0.11733794 -0.05496465 -0.115366906
-0.074866556 0.054916605 -0.02768701 0.1074253 0.08919447 0.032307338 0.019106533 0.06122301
-0.07637093 -0.0059415204 0.09597279 0.101821996 -0.010601414 0.0072380123 0.107909925 -0.046193045
-0.008278263 -0.019621123 0.087053396 0.0954303 0.0946825 -0.100854814 -0.024454033 0.031046273
0.086835004 0.0008667069 0.11300258 0.0070338026 -0.1084214 0.019457798 0.044895023 0.0577114
0.009873361 0.076824434 0.089714006 0.0128861675 0.02042135 -0.031688564 0.066074416 -0.004402085
0.11663577 0.14789064 -0.077127054 -0.042198263 0.047429513 0.026033677 0.056584015 -0.038029097
-0.024392126 0.06494336 0.11127693 0.039767683 0.08736137 0.040798828 0.009131514 -0.057140056
-0.049792178 0.09246025 -0.0020355745 0.056663364 0.015713263 -0.007473976 -0.08053908 0.07433103

encoder.3.bias f4 [64]
00000000: 2aa3 9dbd 1f03 e5bc 3370 18bd 2f51 93be
00000010: 5efb 87bd 44b5 efbd 6355 933b 819a c7bc
00000020: 483e c9bd 0ffe 07be 80c6 1e38 f89a a13c
00000030: 1db2 31bd 8e2b 6d3c 36b5 68bd 76fc d8bd
00000040: a4b7 dabd cd5f d6bc bb57 20be b40d 23be
00000050: e86a 1ebd 7a37 1abe 87c6 f33c f190 433d
00000060: 19dd e1bd bdc2 76bd f9c7 1d3d b1fd a93c
00000070: dd7c 35bd c0c1 6dbd 37dc 603d 7b85 b7bd
00000080: 10aa 1bbc e5e2 003d dc5d e53c 4814 97bd
00000090: 3fc0 28be 878d 70bd 8e4b 6bbc 3b98 4ebc
000000a0: 3e94 bfbd bc59 33be 6e32 193d 6909 03be
000000b0: 0ba3 babd fac6 09be 35f5 0abd d9f1 95bd
000000c0: 8052 15bd 82c7 7ebe cd94 6abd 93da 83bd
000000d0: 9152 46be b765 e73c c06d da39 6fb0 44bd
000000e0: b63d b3bd 388a cbbd 747c b2bd 11ab ae3c
000000f0: 664f 7ebd 996c efbd fcdf d0bc 6fb5 06be
-0.07697137 -0.02795559 -0.037216377 -0.28772876 -0.06639741 -0.117044955 0.004496263 -0.024365665
-0.09826332 -0.1328051 3.7855003e-05 0.019727215 -0.043382753 0.014475716 -0.05681344 -0.10595028
-0.10679558 -0.026168728 -0.15658467 -0.15923196 -0.038676172 -0.15060225 0.029757751 0.04774565
-0.11028499 -0.06024431 0.038520787 0.020750852 -0.044308532 -0.058046103 0.054897513 -0.08961006
-0.009500995 0.031466383 0.027998857 -0.07376915 -0.16479586 -0.05872872 -0.014361275 -0.012609537
-0.09354447 -0.175147 0.03740161 -0.12796558 -0.09113129 -0.1345481 -0.033925254 -0.073215194
-0.03645563 -0.24880794 -0.057270814 -0.06438174 -0.19367434 0.028246744 0.0004166197 -0.048019823
-0.08752005 -0.099384725 -0.08715144 0.021321805 -0.06208744 -0.11690635 -0.02549743 -0.13155149

encoder.6.weight f4 [32, 64]
00000000: 64e3 0f3e 9158 0dbe cdbd a33c 25ab 7cbc
00000010: 3f52 aabd 0715 fd3c 15a0 fbbc 430c 50bc
00000020: 8736 8d3d 2499 38be 1425 833d 043c f43d
00000030: b3b1 0dbd 5d09 023e 9080 b83d e88d 863c
00000040: 3128 20bd 267c b53d d908 70bd 0e93 913d
00000050: e2ad 493d a9d2 053d 7fe0 863d c82c 283d
00000060: dc8a 56be 0fe4 8b3d 8889 0cbe 2395 4f3b
00000070: 4c5a 943c a5ab a8bd a872 08be 8862 003e
00000080: 1f3a 21bd de1f eebd b3fd 9e3d 6cdf abbd
00000090: 6c41 fb3d ceb2 7bbd 059a 113e 44ab c03d
000000a0: 9682 fd3b 5d8f a9bd ec78 61bd 8e87 3abe
000000b0: d55f eb3d ff5a 4dbe b2e0 aabd 5b3d 8c3d
000000c0: 2054 203d a6cc ea3d 7345 ce3c 8790 96bd
000000d0: 6599 cfbd 0302 48bd 684f a03c 8f3f 6abd
000000e0: 21e0 53be b6a5 dcbd 6d3e 48bd fc69 373d
000000f0: aa26 72bb ef33 8d3c e766 223d 4b35 8dbd
00000100: 7b79 e03c ddf4 f53d c236 373d 4107 c3bd
00000110: 31de 7c3c 7dc0 353e c576 b03d d1c4 f23d
00000120: ea25 743d 190c 0f3e 08f4 b3bc 8e77 403c
00000130: 58ea 7fbd 04e1 143c a151 483d 6a32 b6bc
00000140: f0bc cbbc 6204 fd3d 84c5 e73b bee8 903d
00000150: d074 153e 61ed 493e 8fda 6d3e 1b08 aebd
00000160: 236f d93d bc34 62bd 4375 82bd c610 1dbe
00000170: 6c7c 4f3d 367c 3c3d a0cf 933d 5a04 d3bd
00000180: f2c2 e8bd 1025 9c3d 8076 a03d 48da b4bd
00000190: 6e29 073c c698 3e3e 2fa9 2c3b 3edb 3bbe
000001a0: 3b98 f0bc 999d a0bd ad0f a23d d7ea 53bd
000001b0: d088 86bd c48e ebbc 564e 9ebb a744 df3d
000001c0: 641d 213d 3697 bdbd 22c4 ccbd 5e91 123e
000001d0: 4ecd 033e 7083 d9bd 7920 74bb 3514 22bd
000001e0: 6d2b c03c 6c95 823e a4b8 903d 5747 a2bb
000001f0: 63d8 233d 9a9b 4fbc 9c4a 13bd 9730 1f3c
00000200: b23d 8c3b aa42 b1bd 1f44 d9bc 4553 d33d
00000210: ffaa 3abe 40f2 48bd 357d f13d 1142 5abb
00000220: 6836 f83d 7197 58bd 0f79 933b 0357 94bc
00000230: 2069 54be 441f 6a3d a840 a1bb ad80 243e
00000240: 2926 81bd e86d 0e3e 44c4 b1bd ef11 b53d
00000250: ebfe 973d 3ccc d53d 71b5 223e 81d9 413d
00000260: 4a00 25be 6bb2 edbd 151f 21be a635 a43c
00000270: 8b46 52be 8090 32be 8626 49be 1fd8 8abd
00000280: 2a19 be3d 91dd 34be 4e64 95bd 3b7c 71bd
00000290: 2794 7cbb 3900 b2bd 5639 053d 0c9e cfbd
000002a0: 9da6 153e ead6 b73d be7d c8bd 79e9 13be
000002b0: c0e9 103e 4b03 68be 2da5 e93d b400 e53d
000002c0: ce26 b43c ee70 093e 8e37 343c 054a b2bd
000002d0: 4d25 093e 0cb1 10bc 77c1 953d e561 6d3d
000002e0: f519 91bc 1cbf 1abd 327e e13d 8ac7 b9bd
000002f0: 2266 983d b290 393d 2a35 e53d 7e3d 2fbc
00000300: 09f8 8dbd 2fe6 70bd e8f0 7d3d ed6e c93d
00000310: 9d69 103d 25a4 5d3d 8fb7 813c dbe5 30be
00000320: 2b8c 06bd 976e 3f3c 8432 92bd bd21 523d
00000330: 7ce5 003e 5cfb 1bbe 4593 1139 d186 f73d
00000340: aad0 16be 5289 373b c011 663c f8a0 e7bd
00000350: de0a 133d 9333 80bd 533f 59bd 0fa4 a9bd
00000360: 3b76 1e3e b807 103d 5029 d73d 4bdd 633d
00000370: ac8f cbbd 56f5 b53d 0873 2c3d da1b b1bd
00000380: d7d9 963d 01c6 833d b29d 0a3d 2a96 b83d
00000390: 58f2 493d 1c8b 3cbe 88fe b33d c3fa 933b
000003a0: caeb 783d 6640 933c d754 72bd 0430 8f3d
000003b0: 0813 833b b5ea ba3d ec21 973d cb40 8b3c
000003c0: bc14 3e3d 6cf6 413d c7d3 403d ef41 19be
000003d0: eb65 8ebe f317 cb3d 3d7a 72bd 48bb 3cbd
000003e0: eae5 29bd e569 03be 7aff 34bd aab5 ecbd
000003f0: 99d7 463d 4174 22bd d15d af3d 3d89 c43c
0.14051586 -0.13803317 0.019987965 -0.015421663 -0.083164684 0.030893816 -0.030715981 -0.012698236
0.06895166 -0.18027169 0.064035565 0.119255096 -0.034593295 0.12698884 0.09008896 0.016425088
-0.03910083 0.0886157 -0.058602188 0.071081266 0.049238093 0.032671604 0.06585788 0.04105833
-0.20951408 0.06830608 -0.13724339 0.0031674586 0.018109463 -0.082358636 -0.13324988 0.12537587
-0.03936207 -0.11627172 0.07763233 -0.08392224 0.122683376 -0.06144982 0.1421891 0.09407666
0.0077365143 -0.082792975 -0.05504696 -0.18215773 0.11492888 -0.20054244 -0.083436385 0.0684764
0.039142728 0.11464815 0.0251796 -0.07351785 -0.101366796 -0.048830044 0.019569114 -0.05718952
-0.20690967 -0.10773794 -0.04888766 0.04477881 -0.0036949315 0.017236678 0.039648917 -0.068949305
0.027401676 0.120095946 0.044729955 -0.09522868 0.015433834 0.1774921 0.086164035 0.11853946
0.05960647 0.13969459 -0.02196695 0.011747254 -0.062479347 0.009086851 0.048905972 -0.022240836
-0.024870366 0.123543516 0.0070731062 0.07075642 0.14595342 0.19719459 0.23227905 -0.0849764
0.10616901 -0.055226073 -0.06370022 -0.1533843 0.050655767 0.046016894 0.07217336 -0.10303564
-0.11365308 0.076242566 0.07835102 -0.08830696 0.008249624 0.18612966 0.0026345958 -0.18345353
-0.029369464 -0.07842559 0.07913146 -0.051737633 -0.06569064 -0.0287546 -0.0048311157 0.10901766
0.03933467 -0.09257357 -0.09998347 0.14313266 0.12871286 -0.10620773 -0.00372508 -0.039570052
0.023458207 0.25504625 0.070664674 -0.004952352 0.040001284 -0.012671376 -0.035959825 0.009716175
0.0042798156 -0.08655293 -0.02652174 0.10318617 -0.18229292 -0.049059153 0.117914595 -0.0033303539
0.12119752 -0.0528788 0.0045005153 -0.018107897 -0.20743227 0.057158723 -0.0049210377 0.16064711
-0.063061066 0.13909113 -0.08680013 0.08841311 0.074216686 0.10439345 0.15889527 0.04732657
-0.16113392 -0.11606296 -0.15734513 0.020045113 -0.20534723 -0.17437935 -0.19643602 -0.06779503
0.092821434 -0.17662646 -0.07294522 -0.058956366 -0.0038540454 -0.08691449 0.032525383 -0.10137567
0.14614339 0.089765385 -0.097896084 -0.14444532 0.14151669 -0.22657506 0.11408458 0.11181775
0.02199116 0.13421986 0.010999573 -0.08705524 0.13393135 -0.008831274 0.07312291 0.057954688
-0.017712573 -0.037779912 0.11010398 -0.09071262 0.07441355 0.045304008 0.11191781 -0.010695813
-0.069320746 -0.05881327 0.061997324 0.098356105 0.03525697 0.05411162 0.015834598 -0.17275183
-0.03284852 0.0116840815 -0.07138541 0.051301707 0.12587541 -0.15232605 0.0001388314 0.12086261
-0.14728037 0.0028005433 0.014042318 -0.11309999 0.035899036 -0.06259837 -0.053038906 -0.08283245
0.15474789 0.03516361 0.105059266 0.055630963 -0.099395126 0.08884685 0.04210189 -0.086478904
0.073657684 0.064342506 0.033841796 0.090130165 0.049303383 -0.18412441 0.08788782 0.004515977
0.06077174 0.017975044 -0.05916294 0.0699158 0.0040000714 0.09126798 0.07379517 0.01699867
0.046406493 0.047354147 0.047076967 -0.14966558 -0.27812132 0.09916677 -0.059198607 -0.046077043
-0.04147903 -0.12833364 -0.044188954 -0.11558087 0.048545454 -0.03966165 0.08562816 0.023991222

encoder.6.bias f4 [32]
00000000: 1b03 b0bc 2dac bdbd 89ac cfbd 298d 4f3d
00000010: b8a0 fd3c ba5b 3abd dba7 cabd f354 cc3d
00000020: 717a 10be 00ba 583b 0c6d 0dbe 68fb 773d
00000030: 4766 01be 8939 50bd b987 06be fa6e b8bd
00000040: 65aa cfbc 6b12 a93d 42da dcbc eb5c 6d3d
00000050: c34d 5cbd cd02 30be b863 333d a816 053d
00000060: d1be 773d 512e adbd e560 e0bd a53d 7a3d
00000070: 328c 57be d3a1 06bd 8ef8 c8bd a690 b83d
-0.021485856 -0.092613555 -0.1014033 0.05067173 0.030960426 -0.045497634 -0.09895297 0.0997714
-0.14109208 0.003306985 -0.1381113 0.060542494 -0.12636672 -0.05083612 -0.13137712 -0.09005542
-0.025349805 0.08255466 -0.026959542 0.05794994 -0.053785097 -0.17188568 0.04379627 0.03249231
0.06048471 -0.084561 -0.10955981 0.061093945 -0.21049574 -0.03286917 -0.09813033 0.090119645

encoder.9.weight f4 [5, 32]
00000000: e17d 33be eefc 593d aa50 10be b5e5 453d
00000010: 3d2b f7bd 282d aabc 42f2 253e 56b3 003d
00000020: a81c 58be 22ec c23d 1262 c73d 2b7e 1fbe
00000030: 88d0 0d3e fc7d b4bd 057a 18be 98c8 dd3c
00000040: 28c2 39bd beaa cc3d c035 30bd ea14 583d
00000050: 5b65 473e 339a 1fbe beea 00bd 6bba 18be
00000060: 8632 cfbd e3d4 3abd 6e0d 6b3c 32f4 d1bd
00000070: dd67 ab3c f661 5e3d 3494 e4bd 6a0b 2cbe
00000080: c21c 39be a4c4 e73d a894 623c 4604 aabd
00000090: 5747 57be 568c bebd cc31 04be e9b6 3d3e
000000a0: 38a0 03bd 7382 98bb f0ab 53bd 1875 b5bb
000000b0: 6982 ff3d f968 64bd 7d12 ad3d 6487 3c3d
000000c0: 3e16 cc3c 0ffe 1e3e 5e95 ac3d a06c 05be
000000d0: afd2 443e 4257 163b 9317 28bd b811 bd3d
000000e0: f9dd d83d 5641 de3d d49c 3d3e 2a4d 49be
000000f0: 0609 493e fa68 033e eea0 393e 2bc2 d4bd
00000100: 0593 64bb 6a8b c53d b988 cabc 2b07 27be
00000110: 2438 2b3e 7ad8 eb3d 229b 2d3d 183c 79ba
00000120: 505f d0bd c80f d3bd 9885 72bd 3dd6 8cbc
00000130: f1d6 20be 9b83 60bd f7db 9e3d 7ddb 03be
00000140: 79af 0f3e af03 28be 388b 5b3d 9e01 35be
00000150: baaa 603d fc1e b03c 9f06 ebbb 407a d83d
00000160: 0f60 0dbe 82c3 d53d 8f5b 113e b9e0 0d3e
00000170: 3ab4 ea3d b9ec 0bbe 4fe0 b1bd e1bf be3c
00000180: 9e2a 06bd 3808 c0bd abee 0dbd 7461 103e
00000190: 3f0f 2a3e 6e23 1fbd 587d 2ebe b220 fdbb
000001a0: 6f8b 943c 5de0 443d 4949 4d3c 2167 01be
000001b0: cb5a 0e3e 1841 b2bd 1417 193e 91b4 fd3d
000001c0: a880 e83d 719c 09be 3475 16be d719 3e3e
000001d0: a8a7 e33d 6628 96bd fd12 c2bd 83d2 913d
000001e0: a157 18be 37a9 07bd 0656 80bd 5fbe d6bc
000001f0: 49dc bcbd d60b 0c3e 43ea 103d c3ce 6e3c
00000200: 9513 3bbe d1f5 943c b60f e0bd e770 b43d
00000210: 179d 0ebe fe21 16be 94ce fe3c 4ccf af3d
00000220: bb83 edbc 0359 883d ded4 383e a31e 26be
00000230: 6f2d 9f3c d3d2 19be eb8d fe3b 174a 1f3d
00000240: 5142 dfbd 7ff1 663c 45e2 e5bd a1dd 1a3e
00000250: 0994 23be 29a3 823b 6304 35be d360 d93d
00000260: 9a37 23be 82fa b5bd 49d2 a73d 4067 95bd
00000270: 766d 2e3d 62ef 773c e41a febd 1476 49bd
-0.17528488 0.05321973 -0.14093271 0.04831477 -0.12068794 -0.020773485 0.16205695 0.031421028
-0.21104681 0.09517695 0.09735502 -0.15575473 0.1384908 -0.08813092 -0.14890297 0.02707319
-0.045351177 0.09993504 -0.04302001 0.05275432 0.19472258 -0.15586166 -0.031473868 -0.14914863
-0.101170585 -0.04561318 0.014346464 -0.10251655 0.02092355 0.05429264 -0.1116108 -0.16801229
-0.18077376 0.11316803 0.013829388 -0.08301596 -0.21023308 -0.09304111 -0.12909621 0.18526806
-0.03213522 -0.0046542226 -0.051677644 -0.0055376403 0.12476046 -0.055764172 0.08450792 0.046027556
0.02491295 0.15526603 0.08426927 -0.13029718 0.19220994 0.0022940193 -0.041038107 0.09231895
0.10589213 0.108523056 0.18516856 -0.19658342 0.19632348 0.12833014 0.18127796 -0.10388597
-0.003487767 0.09645732 -0.024723398 -0.16311328 0.16720635 0.11515899 0.042384274 -0.0009507551
-0.101744294 -0.103057444 -0.059209436 -0.017192 -0.15706994 -0.05481301 0.07756799 -0.12876697
0.14031781 -0.16407655 0.053599566 -0.17676398 0.054850318 0.02149915 -0.00717242 0.10570192
-0.13806175 0.10437681 0.14195083 0.13855256 0.11460157 -0.13664521 -0.086853616 0.023284854
-0.032755487 -0.093765676 -0.03465144 0.14099675 0.16607378 -0.038852148 -0.17040002 -0.007724845
0.018132893 0.048065532 0.01252968 -0.12636997 0.13901822 -0.08703822 0.1495021 0.12387956
0.11352664 -0.13438584 -0.14693147 0.18564545 0.11115962 -0.07331924 -0.09476278 0.0712023
-0.14877178 -0.03312036 -0.06266408 -0.026213823 -0.092217036 0.1367639 0.03537966 0.014575663
-0.18269189 0.01818362 -0.109404966 0.08810597 -0.13927113 -0.14661404 0.031104364 0.085844606
-0.028993478 0.06657603 0.18049952 -0.16222624 0.019430844 -0.1502183 0.007768383 0.038889017
-0.10901321 0.014095663 -0.11224798 0.15123607 -0.1597444 0.0039867354 -0.17677455 0.10614171
-0.15939179 -0.08885671 0.081944056 -0.07295084 0.04258486 0.015132757 -0.12407473 -0.049184874

encoder.9.bias f4 [5]
00000000: 66eb f33d 3bdd 223e b0fe 2c3e dc87 90bb
00000010: 1af5 223e
0.11910133 0.15904705 0.1689403 -0.004410727 0.15913811

decoder.0.weight f4 [32, 5]
00000000: 1650 2dbe a93c b63e 5c5c 7dbe 65ca 6a3e
00000010: 4b4f 1c3e 20bf c9bd 5957 da3e 4106 b7bd
00000020: 254a 5abd 36dd db3e 97ac ddbe 5f67 533d
00000030: 1846 bc3e 7f99 67bc 69f3 97be 2e04 e63d
00000040: 8db7 24bd 89e4 c8be fa4e 57bd 21ae 2f3e
00000050: 7613 b33e 7c1d ebbe 113c 4d3b fafa 39be
00000060: 2016 04be a486 f9bd 1c5d 3ebc 5d02 9a3e
00000070: 2297 efbe ba19 9f3e f4a4 353e c942 aebd
00000080: 45e2 e83e d1c0 5fbe bf99 90bc 7c0d 1ebd
00000090: dd84 16be 9837 5fbe 9002 403d 4a33 0bbe
000000a0: 89b1 64be d1a7 6e3e 76ce 873e 6430 dabe
000000b0: 11ad 123e c9da 0dbc 8693 e63e e46a 5d3e
000000c0: b3d2 693e d0cc 91bd 7c16 d03e f183 17bb
000000d0: 0819 913e e07e 6d3d b2f4 433e b08c 3bbd
000000e0: 74a8 c0be be75 033e 82b4 79be ae81 d8be
000000f0: 6c0e 903e 3c95 eabd a21b 33bc 63cf ad3c
00000100: 2ee0 933e e557 b43c 326e 5a3e 48c4 b5be
00000110: 4c15 0abe 6edd 9c3e ef86 b03e a425 c13e
00000120: 962d dbbe 004a 963d c2a4 a53e 690b 8cbd
00000130: 3bd2 e43c b706 05be d85b 5bbe ca1f ff3e
00000140: 5d2b cf3e 502b c7be faae de3d dfb0 8ebe
00000150: 7d0d 53be 82c7 d23e b304 abbe 87be 63be
00000160: 3dc9 923e bead ae3d f0c1 e93e d729 193e
00000170: f8cd 20be 4846 063e 554f a5be 1c10 9dbe
00000180: 14bc 2c3e 881a c9be 1671 6f3e 8f9b 2d3e
00000190: de20 10bd 778b d63e 7f04 74be 5873 d7bd
000001a0: 6297 bd3e 42f0 5bbd 67d6 12be cf15 ca3e
000001b0: e007 79be 4ae6 a1be 04d4 62be b7fc 15be
000001c0: de95 9abe 40c1 fcbd 274b 62be f542 19be
000001d0: fd31 863e 538d ea3d 82ed 043c b839 55be
000001e0: 827a b13e bded 42be 1c3e 8d3e f045 123e
000001f0: 25ff b23e 0d55 803d 81ed a9be f6a4 f63c
00000200: edad 2e3c ecfe 4abe c54e 5fbd ad27 653e
00000210: fa39 983e a5d4 2fbe 28ad 1e3e a20b efbd
00000220: eff4 883e 09cc 5ebe c7ba 76bd 7e95 9bbe
00000230: 059b c7be f841 273e f512 da3e b976 d73e
00000240: 3695 863e 8bb7 62be dbcf 433e 6c22 433e
00000250: 8989 81bc 1647 173e 712d a9be 168f a03e
00000260: 1305 7cbd 7a8f 4abd c12e c03e b11c 85bd
00000270: cdc0 41be 4d22 bc3e 9eee 243e 8ec2 0e3e
-0.16925082 0.35593155 -0.24742264 0.2292877 0.15264623 -0.09850907 0.42644766 -0.0893674
-0.053293366 0.42942208 -0.43295738 0.051612254 0.36772227 -0.014135717 -0.29677895 0.11231266
-0.04021411 -0.39236858 -0.052565552 0.17156269 0.34975785 -0.45920932 0.003131632 -0.18162146
-0.12899065 -0.12183884 -0.011618879 0.30079928 -0.46794993 0.31074315 0.17738706 -0.08508832
0.4548513 -0.21850897 -0.017651437 -0.03858708 -0.14699121 -0.21798551 0.046877444 -0.13593784
-0.2233335 0.23306204 0.26524705 -0.42615044 0.14323832 -0.0086581195 0.45034426 0.21622807
0.22834282 -0.07119143 0.40642154 -0.0023119415 0.2833941 0.057982326 0.19136313 -0.045788467
-0.3762852 0.12837884 -0.24385265 -0.42286438 0.28136003 -0.114542454 -0.010931881 0.021217054
0.28881973 0.022014568 0.21331099 -0.35501313 -0.13484687 0.30637687 0.34477946 0.3772403
-0.42808217 0.07338333 0.32352263 -0.06838114 0.027932277 -0.12990843 -0.21421754 0.4982894
0.4046277 -0.38900232 0.10873218 -0.27869317 -0.20610614 0.41167837 -0.33402023 -0.22240649
0.28669158 0.085292324 0.45655775 0.14957367 -0.15703571 0.13112748 -0.32287088 -0.30676353
0.16868621 -0.39278054 0.23382983 0.16953872 -0.035187595 0.41903278 -0.2382984 -0.10520047
0.37029558 -0.053695925 -0.143396 0.39469764 -0.2431941 -0.3162101 -0.2215119 -0.14647184
-0.30192465 -0.12341547 -0.22098981 -0.14966948 0.26210013 0.11452737 0.008113267 -0.20822799
0.3466378 -0.19036002 0.27586448 0.14284492 0.34960285 0.06266222 -0.33189014 0.030107956
0.010661584 -0.19823807 -0.05451848 0.22378416 0.29731733 -0.17170961 0.15495741 -0.11672141
0.2674937 -0.2175752 -0.06023672 -0.3038749 -0.38985458 0.16333759 0.42592588 0.42082766
0.26285714 -0.22140329 0.1912226 0.190561 -0.015812652 0.14773211 -0.33042482 0.31359166
-0.061528277 -0.049453236 0.3753567 -0.06499613 -0.18921204 0.3674492 0.1610665 0.13941404

decoder.0.bias f4 [32]
00000000: 8140 2bbb 8549 4ebe ff90 623e 8241 3bbe
00000010: 8eba be3e b9ab afbd 2222 323e 9e2d 8b3e
00000020: 42f2 d1be 9a96 873e 763e ae3e 4ffb 73be
00000030: ba08 07bf afc6 433e c1b3 a9be 5b24 193d
00000040: 968e c3be 6978 703e fe22 0a3e 62ce 173f
00000050: 4ae0 8fbe 01f6 38bd be0e 36be 8b09 b9bd
00000060: 4eab 563e 8381 96be ab79 8e3e fd59 56be
00000070: 8d4c 68be b16f 07bd abeb 07bd fe6c 76be
-0.0026130977 -0.20145233 0.22125624 -0.18286708 0.37251705 -0.08577675 0.17395833 0.2718324
-0.4100514 0.26482087 0.3403203 -0.23826335 -0.5274769 0.1911876 -0.33144954 0.037388187
-0.38194722 0.23483433 0.13489911 0.5929929 -0.28100806 -0.045156483 -0.17779061 -0.09035023
0.20963785 -0.29395685 0.278272 -0.20932765 -0.22685452 -0.0330655 -0.033183735 -0.24065015

decoder.2.weight f4 [64, 32]
00000000: 8589 213e 36fe a0bd 4d24 64be 824f 313d
00000010: 1acd c13d 2a11 61bd 371d ce3d ee13 273d
00000020: 88b6 923d 2ad4 ac3c b3be a93c 542c 93bd
00000030: bcd9 bdbd 310f 363e 3592 093e 215d 723e
00000040: 2b2a b7bc 3af8 3f3e 4e63 38bb b338 673d
00000050: 205f 0a3b 5021 7ebb 970e 9bbe d64d fe3d
00000060: 481b 4c3e a98e ea3d 59a1 3a3e f172 253c
00000070: 6d4c 92bc 5491 3abe 0300 51bd 5806 04bd
00000080: 98ad f53b 0aca 03be 3bf1 f63d dd29 06be
00000090: e766 1b3e f274 463e 5cf7 02be 266f 413e
000000a0: 751a 3e3d 24e2 853d be2a 773d 731c dabd
000000b0: d16d 393d 6c6b a1bd 9d14 24be 7e33 8abd
000000c0: 2005 ca3c e5fd 20be eaa5 d0bd 981b 5f3e
000000d0: 52da 44bd 7210 c1bd 06e9 0c3c b9af 853d
000000e0: 7a44 2f3d 811e 2cbb 7f1f a5bd f0fd 4bbd
000000f0: 14a8 383e ed11 c3bd 21ce 503e 5a73 f7bd
00000100: ba9e f93d c4b8 0ebe c843 4bbe 378c 20bd
00000110: b021 163e 9313 093e 71d7 afbd 2cdc 193e
00000120: c614 d1bd f240 a63d 5cc0 9c3d 065a 3cbd
00000130: 5f2a 10be 356b 4e3d cbdb 3e3e 52dc 873e
00000140: 1c29 6c3e 4568 debd 0892 e93d 9a17 253e
00000150: 6e73 133e 6704 2dbe 6108 f33d 3885 903c
00000160: 0b6a 9b3d bc58 893d c25d 25bd e521 8ebd
00000170: f6b0 edbc b26b 143e 5bc1 3e3e 7b2e 9f3c
00000180: 2951 4b3d f66d e13d 47da 15be 028b f43d
00000190: d2d2 77bd 6915 3abd 9b6f 04be a2c9 953e
000001a0: d3c2 bf3d 63d5 253e 9e1d 773d 3472 993c
000001b0: c32e 9cbd df47 c43c dead 9e3d c1fc ab3e
000001c0: 812a 8bbb c1f6 223d 9a04 ce3d c84a 003e
000001d0: 2922 2a3e 2adf 043e c80c 253e e072 fdbd
000001e0: ffe2 94bd cac9 3ebe 8a30 26bd 6d31 1ebe
000001f0: a5eb fc3b d8fa d4bd 5f47 2dbe ff46 dabd
00000200: 3e37 5a3e 71d5 42be 2a23 46be 92e7 0f3e
00000210: 6059 043d 5a79 fb3d 1094 2c3d 0257 96bd
00000220: d43a bc3d 440b 8ebd 5fcb 2cbe b705 f23c
00000230: 4365 f43c ee5e 42bd ba79 dbbd c78e 37be
00000240: 76e9 5f3e c651 28be e7c2 a93c d1d1 8f3d
00000250: 4628 62be 2a2a f23d 65c1 033e 30dc 4c3d
00000260: e7b8 d0bd b8f1 81bc a511 ebbd 3ec8 1c3e
00000270: 4a8c 8ebd a72d 873d 1de2 4abd 5142 ef3d
00000280: f8c6 9a3d 06a7 eabd 106c 10bd e0d2 dabd
00000290: 5b79 073c 203a 4b3e 420f 88bb ae94 2bbd
000002a0: c82b b0bd 675d 003d 0959 153e 6ed4 39bd
000002b0: 2fe7 3cbe 0620 03be eb83 5c3c 43b5 103e
000002c0: 169f e33d 6bb2 203d 1cca f83d 885d 5f3d
000002d0: b9e0 46bd b47b 27be b883 303e 6159 2c3b
000002e0: 8df7 6ebc 2882 05bd 63b0 0ab8 6132 ef3b
000002f0: 2e17 cebd 3726 c5bd b7c3 373e 4e6b 193e
00000300: aa91 be3d 2e70 52bd 9f8f 81bd bc77 133e
00000310: 13f9 f43c 89cf 85bd 1e47 813d 6ba8 373d
00000320: a77e 23be 08bb 4a3e a32d 133e e8d0 b7be
00000330: 6546 1ebd 47ca 07be 41df 693d 485c c63e
00000340: a196 0e3e 6c13 bf3c 9144 b13d 4f59 dabd
00000350: 890e 0bbe b156 dc3c 2937 3abe 313a 783e
00000360: 6eee ef3c 7251 46be 171d 833b fff1 19be
00000370: cd0f 713d 1870 a63d 4860 89bc dda6 3f3b
00000380: 68ad 54be c372 7abd f6db b33d 50a8 6d3d
00000390: 04cf a33d d777 b9bb 1b36 14bc 242b 1cbe
000003a0: 2e16 a53d 6779 77bd 80ae 9d3d d48d bebc
000003b0: f5bf 7ebe 2c8a 33be cda1 46be bdad cfbd
000003c0: 3db1 973d 809f 5cbd 0676 2bbd 6df3 e23b
000003d0: f5af 9ebd 0da7 603d 8476 84bd f473 273e
000003e0: a387 0e3e 156d bb3d a544 6fbd b20d f53d
000003f0: 9078 ecbd e57a 0d3e c469 293d 4084 b73d
0.15775116 -0.07860987 -0.22279473 0.043288715 0.09462948 -0.05494801 0.10064166 0.04079049
0.07163721 0.021097261 0.020720815 -0.07186189 -0.09270045 0.17779233 0.1343468 0.23668338
-0.022358974 0.18747035 -0.0028135362 0.056450557 0.0021113828 -0.003877718 -0.3028457 0.1241719
0.19932282 0.114529915 0.18225612 0.010098205 -0.017858708 -0.18219501 -0.0510254 -0.032232612
0.0074975006 -0.1287004 0.1205773 -0.13101907 0.15175973 0.19380549 -0.12789673 0.18890056
0.04641195 0.065372735 0.060343497 -0.106499575 0.045270745 -0.07881817 -0.16023488 -0.067481026
0.024660647 -0.15721853 -0.101878956 0.2178787 -0.04805977 -0.09426965 0.008600479 0.06527657
0.042789914 -0.00262633 -0.08062648 -0.04980272 0.18032867 -0.095249034 0.20391132 -0.120825484
0.12188478 -0.1393767 -0.19850075 -0.03919622 0.14661288 0.13386373 -0.08586014 0.15025395
-0.1020904 0.08117856 0.07653877 -0.04598429 -0.14078663 0.05039521 0.18638532 0.2653528
0.23062557 -0.108597316 0.114048064 0.16122285 0.14399502 -0.1689621 0.118668325 0.017641649
0.075885855 0.06706378 -0.040372618 -0.069400586 -0.029015046 0.14494208 0.18628447 0.019431343
0.049637947 0.110073015 -0.14634047 0.11940576 -0.06050379 -0.045430575 -0.12933199 0.29255396
0.09363332 0.16194682 0.06033098 0.018731214 -0.076261066 0.023960052 0.07748006 0.33591273
-0.00424701 0.039786104 0.100594714 0.12528527 0.16614594 0.12975755 0.16118157 -0.12375426
-0.072698586 -0.18631664 -0.040573634 -0.15448542 0.0077185207 -0.10399407 -0.16921757 -0.10658073
0.21310136 -0.19026734 -0.19349352 0.14053181 0.032311797 0.12279005 0.04213339 -0.07340814
0.09190908 -0.069357425 -0.16874455 0.02954374 0.029833442 -0.047453813 -0.10716577 -0.17925559
0.21866402 -0.16437444 0.02072282 0.07022441 -0.22085676 0.118244484 0.12866743 0.050014675
-0.10191517 -0.01586233 -0.11477975 0.15310761 -0.06960352 0.06600504 -0.049532045 0.11682571
0.075574815 -0.114576384 -0.035259306 -0.106847525 0.0082686795 0.19846392 -0.0041522095 -0.04188984
-0.086021006 0.031339075 0.14584745 -0.045368604 -0.18447565 -0.12805185 0.013459186 0.14131646
0.111143276 0.039232653 0.12147924 0.054532558 -0.048554156 -0.16355783 0.17237747 0.0026298391
-0.014585388 -0.03259483 -3.3066037e-05 0.007299707 -0.10063015 -0.096264295 0.17945753 0.1498234
0.09305127 -0.051376514 -0.06326222 0.14401144 0.029903924 -0.06533725 0.06312393 0.04483835
-0.15966283 0.1979791 0.14372878 -0.3590157 -0.038641352 -0.13260756 0.057097677 0.3874228
0.13924648 0.02332469 0.08655656 -0.106615655 -0.13579763 0.026896806 -0.18185104 0.24240948
0.029288497 -0.19367006 0.0040012705 -0.1503372 0.05885296 0.08126849 -0.016769543 0.0029243745
-0.20769274 -0.0611446 0.087821886 0.058021843 0.079984695 -0.005660038 -0.009046103 -0.15250832
0.08060871 -0.060418513 0.07699299 -0.023260988 -0.24877913 -0.17533177 -0.1939766 -0.1014056
0.074068524 -0.05386305 -0.041860603 0.0069259913 -0.07748405 0.054846812 -0.064679176 0.16352826
0.13918929 0.09151665 -0.058415074 0.11965503 -0.11546433 0.13816412 0.04136063 0.089607716

decoder.2.bias f4 [64]
00000000: 592e 8bbb 77b2 7b3e 8bdb d3bc a05e 493e
00000010: fb5e 253d 5355 dc3d 0125 10bd 7568 443e
00000020: 6434 663b f8f2 f13d 800a 4b3e c621 d4bd
00000030: e090 4abd 6542 45bc c12a 3b3e dc81 f03d
00000040: c0ef 433e dbe6 153d f989 fb3d b01c 3e3c
00000050: e305 b8bd 5902 633d 426a 97bd 84aa 2f3e
00000060: e9b6 aebd 4fd5 b03c 6700 5a3e 04c9 cd3d
00000070: d3ab 083d 615d 833d 01fb 2c3e b9d5 5bbc
00000080: b901 1bbd f021 023d 2c2a d0bd e4b2 28be
00000090: 2478 763d 3869 5abd ef8a 303e 5dc5 0d3e
000000a0: 6324 7cbe d9ca 3ebd 22d2 043d 5c63 703e
000000b0: 4b24 b8bd 8bf1 dfbd 699d 423e a9e9 65be
000000c0: 709b 6a3d 8162 0e3e 3740 e13d 7dd4 183e
000000d0: 9846 813c 31a5 663e 31b4 573e 95ea cd3d
000000e0: 4611 d5bd 2100 383d 2cc7 053e e2ec 4cbd
000000f0: 4251 e23c 659c 1f3e 0e67 113e a2ef 35be
-0.0042474684 0.24579798 -0.025861522 0.19665003 0.040373784 0.10758462 -0.03519154 0.19180472
0.0035126442 0.11813921 0.19828224 -0.10358004 -0.04945457 -0.0120397555 0.18278028 0.11743519
0.19134426 0.036597114 0.122821756 0.011603519 -0.08985498 0.05542216 -0.07393314 0.1715489
-0.08530981 0.021586088 0.21289216 0.10048106 0.03336699 0.06414295 0.16892625 -0.013417655
-0.03784344 0.031770647 -0.10164294 -0.16474491 0.06017317 -0.053323 0.17240499 0.1384482
-0.24623255 -0.04658017 0.03242696 0.23475403 -0.08991297 -0.109347425 0.1900536 -0.22452416
0.057277143 0.13904764 0.10998576 0.14924808 0.015780732 0.22523953 0.21064831 0.100545086
-0.10403685 0.044921998 0.1306426 -0.050030597 0.027626637 0.15587004 0.14199468 -0.17767194

decoder.4.weight f4 [128, 64]
00000000: e9be bcbc 9953 64bd 8242 733d 9a5f 483c
00000010: 82a8 02bd 7618 233d a1e1 483d 7bd9 55bc
00000020: b826 1a3d f0a6 4cbd ea45 d1bd 0774 923d
00000030: 9ead b93d 73e3 99bd 295e fdbd dbc7 d03d
00000040: 3dc3 07be 1d7d 753d 2016 b1be 30ae 8cbd
00000050: 8c20 f13d d75b 9c3c c0d8 41bd 3fbf 113e
00000060: 9571 d33d 5c9a 1d3d 2c2e e9bd 0b9b 1b3d
00000070: 1425 0fbb 1dc0 acbc f76f 37be b981 a93d
00000080: 1037 c6bc 72da 2e3d c4f1 813c 4c85 91bd
00000090: 828e c1bc 03b2 22bd b985 eb3d 2f76 b23c
000000a0: 94d6 34be 9407 063d 8996 9b3c 89e1 75bc
000000b0: 7373 4b3d 7791 683d a4ff cabc 0e5a 4e3d
000000c0: 36c1 c2bd 8dfd dfbd b061 02bd 1185 8abd
000000d0: f7c1 d83d 1423 593d 2bb1 1dbb fbd2 013e
000000e0: 8620 293b ee5b 8b3b da15 983d e0c0 c33d
000000f0: 429b 323c a01b 873d b4f1 0a3e 7f70 2b3d
00000100: 638c 31bd f051 cf3c 410c 5a3d cca4 19be
00000110: 850b 26bc 3324 f5bc ac94 b9bd 67d6 2fbd
00000120: f3fb 20bc 78cc 0fbe e3c9 92bd 65b8 a03d
00000130: 5446 d6bd 4dfd 193c 171a 5abc f1ca 88bd
00000140: 606b 4e3d a95b bc3d 5f61 85bd cde4 41bc
00000150: 1ab6 803d 539a a93d b68e e0bd 8cc3 d53d
00000160: 03ac cdbd ad13 f1bd 9cfc d73d 028b cdbd
00000170: 463d d6bd b542 a9bd 2526 b53d 9749 b33d
00000180: 6f9d e93b a4ab 94bd 843b e7bd acdd c83d
00000190: d80d 0cbe 0cbb ba3d 9b02 fbbd 28d7 383c
000001a0: b8c6 9dbc a433 643d 0ed2 3abc 7aac 66bd
000001b0: d301 c03d 22de 88bc 6784 c73d 3978 bcbd
000001c0: aa59 64bb 1e49 9a3d 9e1b 383d c385 813d
000001d0: 9da8 023c 0e2e 193d 0139 babd 28fe b53c
000001e0: 38ed 32bd a0f8 b1bc b0d1 1dbd dc54 8fbd
000001f0: 181a 85bb d07d 13bd 0386 853c 774e f53d
00000200: 7f58 d23d 46b1 573c 10ca 2f3d 129b d6bb
00000210: a2f6 673d 888e 153e 7550 2c3d 82e0 303d
00000220: 2ef8 313d 3f6c 823d 270b 6fbd 633b a43c
00000230: c5fc 9e3d e1fd dc3c 9f27 193e 887e a1bd
00000240: 24d4 9fbd 078d ff3d 0668 613b 9e0f c23d
00000250: 6cb8 8b3d a1a1 d1bd c8cf 06bd 3324 833e
00000260: d640 bfbd 2426 28bc d1e4 543d f385 d7bb
00000270: ecdd e0bc d8dd eb3d 4d1d ff3d f70f 2b3c
00000280: 1381 df3c 2494 953b 76c0 3abb 2b3f 60bc
00000290: 00f5 073e 1aba 543c b577 50bd 252d 36bc
000002a0: 2556 6bbc 6119 2ebd f3d9 473d 5e10 a2bd
000002b0: c8a5 34bd 3cc6 45bd 5669 ac3d 156a e8bd
000002c0: 6afd e2bc dc87 d0bd 1593 003e 4adc 403d
000002d0: e744 f23b 5746 65bd 9039 b9bd 6fa9 493d
000002e0: 58c0 48bd f298 9c3d 406b 823d d455 473b
000002f0: 8569 91bc b887 8fbc bc4a 0bbe 2129 ce3b
00000300: 178b d4bc fd5d 48bc 6e25 f13d 87f2 d3bd
00000310: d138 aa3d 46df f63d c0fe ba3d bcc7 8e3d
00000320: 7fb9 703d 3122 f93d 7f55 8c3c c1f3 d43d
00000330: 1149 853d 3764 593d f0b2 74bd 7a46 e3bc
00000340: cb0d acbd 29ca 113e 3d13 d53c 59df 81bc
00000350: e256 91bd e734 94bc 30e4 22bd bd56 a7bc
00000360: 6862 e4bc f8ac b5bd a883 333d 64d4 013d
00000370: 3df7 c3bd 1216 f1bd 89eb a43d 291b c2bd
00000380: cce4 dd3d 75e3 943d 4382 b13d 9af7 f8bd
00000390: da57 8b3d fa7c 11bd bf10 ccbd 9471 07be
000003a0: 0549 edbd 6824 3b3e 9e2b d93d 4a79 c83d
000003b0: aced 10bd e831 fabc 88d5 9c3d 01dc eebc
000003c0: 35e6 de3d 00f2 02bd 22b1 b5bb 4cc6 02bc
000003d0: 5a45 b23d 3b62 383d 4905 89bd 72ab bf3b
000003e0: d38e 65bd 6a2e 2a3d cb7a 8dbc c199 b73c
000003f0: cb1e 9f3d 9817 d63d 1ff0 49be b6a1 f7bd
-0.023040252 -0.055743787 0.0593896 0.012229824 -0.031898983 0.03981825 0.0490433 -0.01305234
0.03763458 -0.04996389 -0.10218413 0.07151037 0.09066318 -0.075140856 -0.12371475 0.101943694
-0.13258071 0.05993377 -0.34587193 -0.06869161 0.11773786 0.019086761 -0.04732585 0.14233111
0.103243984 0.038477287 -0.1138576 0.037989657 -0.0021842169 -0.0210877 -0.17913805 0.08276696
-0.024196178 0.042688794 0.015862353 -0.071055025 -0.023627523 -0.039720546 0.11500115 0.02178487
-0.1765998 0.03272207 0.01899268 -0.015007385 0.049670648 0.05677935 -0.024780102 0.05037885
-0.09509508 -0.10937033 -0.031831443 -0.06763662 0.10583871 0.05301197 -0.00240619 0.12678139
0.002580674 0.004252902 0.07426043 0.09558272 0.010901274 0.06597066 0.13568765 0.04185533
-0.043346774 0.025307626 0.053234342 -0.15004271 -0.010134582 -0.029924488 -0.0906156 -0.04292908
-0.009825694 -0.14042842 -0.07167413 0.078476705 -0.10462633 0.0093987705 -0.013311884 -0.06679333
0.05039537 0.0919717 -0.06512713 -0.0118343355 0.06284733 0.08281388 -0.1096472 0.10437688
-0.10042574 -0.11771331 0.10546228 -0.10036279 -0.10460906 -0.082646765 0.08845166 0.087542705
0.0071293632 -0.072593 -0.112906486 0.098079056 -0.13677156 0.091177076 -0.12256356 0.011281766
-0.019259796 0.05571331 -0.01140262 -0.05631683 0.09375348 -0.016707484 0.097420506 -0.09202618
-0.0034843483 0.07533477 0.044948213 0.06324341 0.007974771 0.037397437 -0.09092904 0.022215918
-0.04368326 -0.021724999 -0.03853005 -0.069986075 -0.0040619485 -0.036008656 0.016299253 0.119778566
0.102707855 0.013164824 0.04291731 -0.0065492475 0.05663169 0.14605153 0.042068917 0.043182857
0.043449573 0.063683026 -0.058360245 0.020047849 0.07763056 0.026976528 0.1495652 -0.07885462
-0.078041345 0.12478071 0.0034394278 0.09475635 0.06822285 -0.102359064 -0.032913 0.25613555
-0.09338538 -0.010263 0.05197603 -0.0065772473 -0.02744957 0.11516923 0.124567606 0.010440818
0.027283227 0.004564779 -0.0028496063 -0.013686935 0.13277054 0.012983823 -0.05089541 -0.011119162
-0.0143638 -0.042504672 0.048791837 -0.07913278 -0.044103414 -0.048284754 0.08418529 -0.113483585
-0.027708728 -0.10182163 0.12556107 0.047085084 0.0073934677 -0.055975284 -0.09044182 0.04923385
-0.04901156 0.076463595 0.063681126 0.0030416148 -0.017750511 -0.01752077 -0.13602728 0.006291524
-0.02594523 -0.01222944 0.11774717 -0.10348993 0.08311618 0.12054305 0.09130621 0.0697169
0.058770653 0.121647246 0.017130611 0.10398055 0.06508077 0.053074088 -0.05974096 -0.027743567
-0.08401068 0.14237274 0.02601015 -0.01585357 -0.0709665 -0.018091632 -0.039768398 -0.020427102
-0.027878955 -0.08870882 0.04382673 0.031696692 -0.09568641 -0.11771788 0.08052737 -0.09477837
0.10834655 0.072699465 0.086674236 -0.12156601 0.06803866 -0.035519578 -0.099641316 -0.1322692
-0.11586193 0.18275607 0.106040224 0.09788759 -0.03538291 -0.030541375 0.07657915 -0.02915764
0.10883752 -0.03196907 -0.0055447975 -0.007981848 0.08704634 0.045015555 -0.06690461 0.0058492953
-0.05604441 0.04154817 -0.017270466 0.022412183 0.07769545 0.10453719 -0.19720505 -0.12091391
