Save_Models/model-lat7.pth (torch, 192482 bytes, 16 tensors)

encoder.0.weight f4 [128, 99]
-0.11828295 -0.03171365 0.050279133 -0.05405346 -0.1318998 -0.08501791 -0.058190174 -0.13660482
0.017687144 -0.04900685 0.02449686 -0.119810134 -0.11002645 0.0056948005 -0.115256295 -0.11225914
0.05810413 -0.03242934 -0.031701498 -0.09170723 0.009015854 0.03594943 -0.077786155 -0.0015019866
0.027988322 -0.008131226 -0.030861836 -0.03682708 0.025058156 0.05899445 0.021334859 -0.114433594
-0.06014802 -0.017804189 -0.014189037 0.02861621 -0.050674893 0.0035503893 -0.10281507 -0.061305452
-0.060268387 -0.0995811 0.060876124 -0.035891287 -0.01497737 -0.004395251 -0.07097329 -0.029868893
0.035791297 0.04544178 0.052607372 -0.013723212 -0.07552482 0.016698634 -0.031384982 0.080308475
-0.07500916 -0.011632417 0.061486065 0.031077418 -0.08554576 -0.008308835 0.002321266 0.032624442
-0.025163557 -0.06368218 -0.031543285 -0.073137 0.042536706 -0.09690113 -0.01836108 -0.0865341
0.034341794 0.053770296 -0.06876051 -0.01058369 -0.020482702 0.040475793 0.010163861 0.033804525
0.04881231 0.041058935 0.011041242 -0.010234508 0.0845705 0.028507661 0.089883186 -0.00402402
0.007011554 0.011723322 -0.062312175 0.022027187 0.087339945 -0.08866242 0.056660816 -0.050258186
0.087675326 -0.030234925 -0.0017451423 -0.03099841 0.029477535 -0.064581245 0.059114978 -0.07550833
-0.034452513 -0.009903554 -0.04236873 -0.030740205 0.054232255 -0.013685352 0.050998356 0.022358341
0.06510928 0.04102747 -0.037662745 -0.030941298 0.032847445 0.019155387 -0.0005778974 -0.008181218
-0.08901735 -0.11828544 -0.008385995 -0.11211725 0.025474075 -0.077088684 0.05537199 0.014140615
0.06722209 0.022140885 -0.08362489 -0.05892435 -0.1020982 -0.09470392 0.051622707 -0.06835805
-0.112030566 0.03993549 0.029817741 -0.09190728 0.06811034 -0.027770184 -0.06122087 -0.11064803
0.042771034 0.053002883 -0.056367163 -0.0022427244 -0.025323467 -0.052271567 -0.023527991 -0.10593538
-0.06421609 -0.034550425 -0.011362576 -0.0174072 -0.042995717 0.034224533 -0.015338789 0.011683188
-0.044912875 -0.0021266371 0.015270783 -0.026665451 0.040863328 -0.08125082 -0.041457985 0.016429033
-0.06676448 0.07855469 -0.035013583 0.009299593 -0.07162974 -0.062661745 0.011076059 0.07497185
0.03181886 -0.0054434636 0.08221445 -0.08894348 -0.02243567 -0.019464616 -0.07224458 -0.077209495
-0.019468684 0.07837077 -0.11772673 -0.110098876 -0.07741609 -0.041890122 -0.04005075 -0.04061923
-0.12429471 0.066607594 -0.058763336 -0.045622755 -0.037761793 -0.075163476 -0.011121174 0.042764284
-0.013473628 -0.054253455 0.008337994 0.07089068 -0.044577263 -0.048108738 0.037479986 0.018213484
0.09332264 -0.045653075 -0.0041786423 -0.043876845 -0.08777876 0.09035858 -0.039566766 -0.004487944
-0.076559365 -0.04721077 0.0064314944 -0.047298297 -0.08401103 -0.01185585 0.059151296 0.060217798
-0.06604237 -0.029029496 0.09402184 0.04954818 0.0034066604 0.083530106 0.05464961 0.018239453
0.045800284 0.11249743 -0.05424428 0.06856755 0.015702268 0.080767006 0.07311208 0.047345456
-0.01517498 -0.07581533 0.101629645 0.050320365 0.07070808 0.070871264 0.06625931 0.009379824
-0.010821577 0.1009548 -0.072821185 0.12003213 0.014907524 0.02405937 0.042766467 0.10946788
00000000: 553e f2bd 2ce6 01bd 7ef1 4d3d 2967 5dbd
00000010: be10 07be df1d aebd d258 6ebd 22e2 0bbe
00000020: a1e4 903c 68bb 48bd a4ad c83c 045f f5bd
00000030: 8c55 e1bd 739b ba3b 7e0b ecbd 1fe8 e5bd
00000040: 99fe 6d3d a1d4 04bd 6ed9 01bd 00d1 bbbd
00000050: 3cb7 133c b63f 133d 594e 9fbd 4fde c4ba
00000060: c447 e53c d538 05bc f6d1 fcbc fed7 16bd
00000070: c346 cd3c 2aa4 713d 71c6 ae3c 295c eabd
00000080: c55d 76bd 17da 91bc 2279 68bc 8b6c ea3c
00000090: 7a90 4fbd a6ad 683b b590 d2bd 6d1b 7bbd
000000a0: fcdb 76bd 2df1 cbbd 3e59 793d be02 13bd
000000b0: a563 75bc 0a06 90bb 725a 91bd 9caf f4bc
000000c0: e599 123d 2921 3a3d d47a 573d 53d7 60bc
000000d0: c2ac 9abd 93cb 883c 8a8d 00bd c578 a43d
000000e0: 679e 99bd e595 3ebc d0d8 7b3d 1296 fe3c
000000f0: 9e32 afbd c821 08bc 6220 183b 35a1 053d
00000100: ce23 cebc ce6b 82bd 8833 01bd dac8 95bd
00000110: f83a 2e3d 1a74 c6bd fa69 96bc ca38 b1bd
00000120: fba9 0c3d 3e3e 5c3d 4fd2 8cbd 3767 2dbc
00000130: 57cb a7bc f2c9 253d 5386 263c 9d76 0a3d
00000140: 6bef 473d 6a2d 283d 53e6 343c a3ae 27bc
00000150: 4c33 ad3d e688 e93c ad14 b83d eddb 83bb
00000160: 2ec1 e53b 2d13 403c 0d3b 7fbd 5c72 b43c
00000170: 49df b23d a594 b5bd 2c15 683d 87db 4dbd
00000180: 1f8f b33d 3caf f7bc 42bd e4ba 61f0 fdbc
00000190: df7a f13c 2c43 84bd 8c22 723d 1ca4 9abd
000001a0: 141e 0dbd 8442 22bc d58a 2dbd e2d2 fbbc
000001b0: a422 5e3d 8738 60bc a7e3 503d d728 b73c
000001c0: 0458 853d 6c0c 283d 4044 1abd 9b78 fdbc
000001d0: 0b8b 063d c2eb 9c3c 0a7e 17ba 840a 06bc
000001e0: ba4e b6bd a33f f2bd 6a65 09bc bb9d e5bd
000001f0: 02af d03c ace0 9dbd bdcd 623d 0aae 673c
00000200: bcab 893d cd60 b53c 8743 abbd a95a 71bd
00000210: dc18 d1bd 21f4 c1bd 5572 533d 4eff 8bbd
00000220: 4870 e5bd 6593 233d 5644 f43c e239 bcbd
00000230: 6f7d 8b3d 4c7e e3bc bcc2 7abd 6f9b e2bd
00000240: ae30 2f3d 8d19 593d 41e1 66bd acfa 12bb
00000250: 2973 cfbc b61a 56bd c6bd c0bc a6f4 d8bd
00000260: ba83 83bd bf84 0dbd 192a 3abc 8b99 8ebc
00000270: 471c 30bd 062f 0c3d 8b4f 7bbc d86a 3f3c
00000280: 90f6 37bd 0d5f 0bbb 4e32 7a3c 8171 dabc
00000290: 4e60 273d d466 a6bd d9cf 29bd 2e96 863c
000002a0: d1bb 88bd 48e1 a03d 676a 0fbd 525d 183c
000002b0: 9db2 92bd cd54 80bd 5c78 353c d78a 993d
000002c0: 7e54 023d 155f b2bb 0d60 a83d 0028 b6bd
000002d0: 03cb b7bc 4274 9fbc f7f4 93bd 0320 9ebd
000002e0: ca7c 9fbc db80 a03d b61a f1bd 857b e1bd
000002f0: 548c 9ebd fa94 2bbd 410c 24bd 5a60 26bd
00000300: 3a8e febd 9069 883d d3b1 70bd edde 3abd
00000310: 1cac 1abd 4fef 99bd 9635 36bc 9a29 2f3d
00000320: 7ec0 5cbc df38 5ebd 159c 083c 222f 913d
00000330: a696 36bd ab0d 45bd 9d84 193d 7234 953c
00000340: f11f bf3d b8fe 3abd feec 88bb 35b8 33bd
00000350: 5ac5 b3bd eb0d b93d c310 22bd 9a0f 93bb
00000360: 28cb 9cbd 1560 41bd 49bf d23b dcbb 41bd
00000370: fa0d acbd 0a3f 42bc a148 723d f0a6 763d
00000380: 3941 87bd 44cf edbc 868e c03d 08f3 4a3d
00000390: 4742 5f3b d511 ab3d 45d8 5f3d e86a 953c
000003a0: 1499 3b3d 0d65 e63d 402f 5ebd 256d 8c3d
000003b0: 0ba2 803c 2c69 a53d c9bb 953d 4fed 413d
000003c0: 7ba0 78bc 1145 9bbd 3423 d03d ba1c 4e3d
000003d0: 66cf 903d f424 913d f6b2 873d d5ad 193c
000003e0: fc4c 31bc 64c1 ce3d 4623 95bd 68d3 f53d
000003f0: b03e 743c 2818 c53c e42b 2f3d b230 e03d

encoder.0.bias f4 [128]
-0.14731483 -0.1710142 -0.054365855 -0.031974994 0.007579721 0.016836487 -0.17298914 -0.0783886
0.040253807 -0.023882378 -0.0567448 -0.1447808 -0.027019056 -0.0042778295 -0.014596218 0.0214866
-0.10180163 -0.050827682 -0.122752726 -0.063982144 -0.3152943 -0.106048554 -0.03343956 0.00858475
0.024349049 -0.07548221 -0.12523316 -0.14342667 -0.14278354 0.05067513 -0.061620347 -0.061828602
-0.06461374 -0.15004806 -0.058074728 -0.19983438 0.022631617 -0.06503541 -0.15721676 -0.237992
0.040580466 0.07781828 0.0046900604 -0.14494817 -0.09652031 -0.045439605 -0.14726488 -0.028380638
-0.14421296 -0.04219877 0.1062618 -0.08983836 -0.0387958 -0.026114449 -0.053317726 0.010102318
-0.10961896 -0.06857584 -0.24096537 -0.13486594 -0.11590484 -0.1548163 -0.006473811 -0.008257937
-0.048167285 -0.13005547 -0.13242185 -0.13656148 -0.20376943 -0.14148481 -0.19165318 0.039242614
-0.29404402 -0.059833363 0.06875294 -0.02012372 -0.1739655 -0.11186449 -0.20125209 -0.14893417
-0.014601035 -0.039679166 -0.022108532 0.009566342 -0.110309765 -0.14500575 0.016637694 -0.024127906
-0.20327982 -0.14297451 -0.08525471 -0.11840623 0.009251355 -0.053850308 -0.09863007 -0.114870116
-0.183511 -0.093735 -0.12610959 -0.16035554 -0.12233898 -0.053472824 -0.105508804 -0.11167827
-0.042949 -0.01571917 -0.07781069 -0.01719395 0.031315673 -0.17323051 -0.024966894 -0.10449665
0.049714692 -0.09044305 -0.29298422 -0.14230269 -0.099081546 -0.14154598 0.0034347451 -0.08868414
-0.12509076 -0.19659874 -0.0726874 -0.2681161 -0.034601755 -0.0139625 -0.12596731 -0.0053582517
00000000: b3d9 16be 591e 2fbe bbae 5ebd 36f8 02bd
00000010: 4f5f f83b acec 893c 1124 31be 348a a0bd
00000020: 2de1 243d faa4 c3bc 3c6d 68bd 6b41 14be
00000030: 1157 ddbc 092d 8cbb fa24 6fbc ab04 b03c
00000040: 5f7d d0bd b030 50bd c865 fbbd 1209 83bd
00000050: 416e a1be fc2f d9bd ecf7 08bd 0da7 0c3c
00000060: a877 c73c 6b96 9abd 1f3d 00be 71de 12be
00000070: d935 12be ba90 4f3d 9e65 7cbd fd3f 7dbd
00000080: 3554 84bd 33a6 19be c4df 6dbd 62a1 4cbe
00000090: f165 b93c 4931 85bd 6efd 20be 2db4 73be
000000a0: b437 263d 315f 9f3d 14af 993b 4b6d 14be
000000b0: 71ac c5bd e11e 3abd 9bcc 16be 837e e8bc
000000c0: 90ac 13be 9ed8 2cbd c99f d93d 2dfd b7bd
000000d0: 58e8 1ebd f8ed d5bc b063 5abd 3184 253c
000000e0: e87f e0bd 7d71 8cbd a0bf 76be 4c1a 0abe
000000f0: 845f edbd 2a88 1ebe 4322 d4bb 4c4c 07bc
00000100: 0f4b 45bd 432d 05be 9899 07be c6d6 0bbe
00000110: efa8 50be 65e1 10be bb40 44be ddbc 203d
00000120: f08c 96be d413 75bd 57ce 8c3d 80da a4bc
00000130: 0324 32be 3619 e5bd 0715 4ebe 3382 18be
00000140: 2e39 6fbc 9f86 22bd f41c b5bc 26bc 1c3c
00000150: 16ea e1bd 637c 14be c64b 883c e3a7 c5bc
00000160: 9628 50be e967 12be 059a aebd f77e f2bd
00000170: ff92 173c 2492 5cbd 90fe c9bd 0641 ebbd
00000180: 4fea 3bbe 23f8 bfbd df22 01be 3e34 24be
00000190: dc8c fabd 5206 5bbd 0015 d8bd 94b7 e4bd
000001a0: 4aeb 2fbd 7dc5 80bc 365b 9fbd 54da 8cbc
000001b0: dd44 003d 5763 31be 5f87 ccbc 5702 d6bd
000001c0: a2a1 4b3d 353a b9bd 0702 96be ccb7 11be
000001d0: 44eb cabd 6ef1 10be 7619 613b 08a0 b5bd
000001e0: cb17 00be 2e51 49be 22dd 94bd 8346 89be
000001f0: 92ba 0dbd f8c2 64bc 93fd 00be 4694 afbb

encoder.3.weight f4 [64, 128]
0.089555025 -0.02442449 -0.042407863 0.02635538 0.06437298 0.08940968 -0.050096642 0.012962169
0.0041341865 0.081735276 0.05899906 -0.068417124 0.01341484 0.07913374 -0.053549573 0.069827326
0.090948105 0.038983665 0.048377678 0.020692224 -0.038615912 0.06796012 -0.0075872554 0.030449543
0.058385994 0.00029272732 -0.060367994 0.015883991 0.10979045 0.10447305 0.030543879 0.028371008
-0.07371692 -0.052966017 0.0062810727 -0.0662078 0.08984288 -0.06811238 0.09288075 0.04219521
-0.006438359 -0.0902248 0.106273025 0.04104835 0.038700853 -0.013976367 0.09588862 0.030922407
0.011865248 0.10626182 0.13768171 0.085908584 0.03216032 -0.02615455 -0.067711055 0.04782135
0.10451936 -0.035959918 0.018459784 -0.015382699 0.05717368 -0.060821023 0.037508808 0.098721296
0.092871 -0.027044708 -0.13628888 0.06437144 0.06316744 0.090674266 0.0878367 0.03320353
-0.10261285 0.03482759 0.10638212 0.0950551 -0.09150862 0.012247773 0.005030195 0.03190087
-0.048049886 -0.05691474 0.022753736 0.0036932915 -0.046199415 0.09637886 0.0868813 -0.015506935
-0.033648387 0.12507871 0.031203426 -0.13140146 0.01750555 0.07345486 -0.050203267 0.04538485
0.07257436 0.015107874 0.092713736 0.045521162 -0.04348422 0.014283272 -0.046456642 -0.013680629
-0.016306866 0.0007297492 0.05615299 0.0050729136 0.06542447 -0.013078035 -0.048055924 0.02222745
-0.060929447 0.0811562 -0.07846392 -0.050923813 -0.028635452 -0.013725724 0.011822768 0.052237414
-0.07248473 -0.11306678 0.0084736515 0.08713918 -0.027179092 -0.039422847 0.015849212 -0.02984738
0.10475023 -0.0040327893 0.08757944 -0.05348032 -0.033392046 0.13634178 0.0665622 0.082610026
-0.024291804 0.01824105 -0.012631024 0.032195263 -0.044388745 -0.08087728 -0.025936756 -0.022110084
0.10687674 -0.018697593 -0.05253009 -0.006343518 -0.0026999994 0.011665457 0.005078521 -0.011958953
0.09162453 -0.06858294 0.09595571 0.039870113 0.0330818 0.06444897 0.03959727 0.18321173
0.044500764 -0.11709992 -0.02684486 -0.012364717 -0.03415371 -0.014299948 -0.058709044 -0.010654462
-0.0074884812 0.1550578 0.07135917 -0.07886157 -0.03558953 0.049097553 -0.029723858 0.014970695
-0.01034627 -0.04309864 0.10316314 -0.006111999 0.2474935 0.06787603 -0.08094425 -0.085771665
0.090259254 0.10062285 -0.046487927 -0.05361624 0.07533084 -0.04117261 -0.063157864 -0.02608394
-0.16589044 0.019780923 -0.048393473 -0.007465258 -0.1309177 0.032705884 -0.023398679 -0.036456168
0.05956346 0.099827155 0.027749429 -0.049456123 0.0019558691 0.0045710783 -0.024625475 0.07109809
0.060399737 -0.019176165 0.07319209 0.00022268022 -0.05879562 -0.028467448 0.020118905 -0.038648047
-0.07131896 -0.02753438 0.041822888 0.04267276 -0.0050496627 0.02823278 0.07012642 -0.02978549
0.108956315 0.0013157427 -0.0057177427 0.13740009 0.058957577 -0.027499055 0.059106603 0.09075069
-0.010540197 0.016948799 -0.022861704 0.044958416 0.05130266 -0.04669229 -0.021344665 0.0531029
-0.006061938 0.012508981 -0.05426371 -0.010919831 0.047382765 -0.018896716 0.10320657 0.07009093
0.0032875286 -0.059547514 0.0069229314 0.045263857 -0.01603841 -0.10818521 -0.014502904 0.08284823
00000000: a068 b73d de15 c8bc deb3 2dbd 3de7 d73c
00000010: fbd5 833d 6c1c b73d 2332 4dbd 475f 543c
00000020: 1278 873b d364 a73d 00a9 713d 471e 8cbd
00000030: ebc9 5b3c df10 a23d cc56 5bbd a101 8f3d
00000040: 0043 ba3d 56ad 1f3d ac27 463d bd82 a93c
00000050: b82b 1ebd ad2e 8b3d 839e f8bb 5271 f93c
00000060: 2726 6f3d 3279 9939 6e44 77bd 251f 823c
00000070: d1d9 e03d f7f5 d53d 2837 fa3c 516a e83c
00000080: e6f8 96bd e5f2 58bd 75d1 cd3b f497 87bd
00000090: 8bff b73d 817e 8bbd 4338 be3d e2d4 2c3d
000000a0: dff8 d2bb c8c7 b8bd aca5 d93d 5122 283d
000000b0: c984 1e3d 22fd 64bc 4161 c43d fd50 fd3c
000000c0: 7566 423c cc9f d93d 6ffc 0c3e d7f0 af3d
000000d0: 8aba 033d 1142 d6bc 18ac 8abd 52e0 433d
000000e0: 3f0e d63d b54a 13bd f938 973c b707 7cbc
000000f0: f32e 6a3d 771f 79bd d6a2 193d 642e ca3d
00000100: 2733 be3d dd8c ddbc 508f 0bbe 2cd5 833d
00000110: ee5d 813d 6eb3 b93d bae3 b33d 6d00 083d
00000120: b026 d2bd 60a7 0e3d dede d93d 40ac c23d
00000130: df68 bbbd e2aa 483c 56d4 a43b 7daa 023d
00000140: f5cf 44bd 6e1f 69bd 0b66 ba3c 260b 723b
00000150: 993b 3dbd 4862 c53d d3ee b13d cd10 7ebc
00000160: e4d2 09bd a214 003e 549e ff3c 1b8e 06be
00000170: cd67 8f3c 806f 963d f1a1 4dbd 77e5 393d
00000180: dea1 943d 0487 773c b3e0 bd3d 6674 3a3d
00000190: 821c 32bd 6304 6a3c 5249 3ebd b824 60bc
000001a0: fa95 85bc a44c 3f3a ad00 663d af3a a63b
000001b0: 44fd 853d 4145 56bc 4ad6 44bd 5716 b63c
000001c0: 2891 79bd 3935 a63d b1b1 a0bd 7d95 50bd
000001d0: e594 eabc dce1 60bc 48b4 413c e6f6 553d
000001e0: e072 94bd 8e8f e7bd 12d5 0a3c 0776 b23d
000001f0: b0a6 debc da79 21bd 35d6 813c 7e82 f4bc
00000200: 4a87 d63d 7d25 84bb d95c b33d 2e0e 5bbd
00000210: 19c6 08bd 2e9d 0b3e c351 883d 722f a93d
00000220: 9bff c6bc 416e 953c 5bf2 4ebc 2edf 033d
00000230: f9d0 35bd fda2 a5bd 5279 d4bc 3520 b5bc
00000240: 31e2 da3d b22b 99bc cb29 57bd 49dd cfbb
00000250: 79f2 30bb 7920 3f3c b969 a63b 7cef 43bc
00000260: a4a5 bb3d 3675 8cbd 6d84 c43d d84e 233d
00000270: c880 073d d2fd 833d bf30 223d db9b 3b3e
00000280: 6f46 363d 15d2 efbd c0e9 dbbc 6295 4abc
00000290: c3e4 0bbd 544a 6abc e578 70bd 0d90 2ebc
000002a0: ef61 f5bb 79c7 1e3e c224 923d 2d82 a1bd
000002b0: 54c6 11bd 841a 493d 737f f3bc a547 753c
000002c0: 6783 29bc 3388 30bd 3247 d33d 2a47 c8bb
000002d0: f06e 7d3e 9702 8b3d 19c6 a5bd 0ea9 afbd
000002e0: d8d9 b83d 5a13 ce3d 206a 3ebd b49c 5bbd
000002f0: 0e47 9a3d 9ca4 28bd e958 81bd fdad d5bc
00000300: 2fdf 29be 9a0b a23c 3c38 46bd 1f9f f4bb
00000310: 4a0f 06be 9bf6 053d 96ae bfbc 1053 15bd
00000320: d1f8 733d 2e72 cc3d c552 e33c 8192 4abd
00000330: 0a2e 003b fcc8 953b 5dbb c9bc e09b 913d
00000340: b765 773d 5517 9dbc bce5 953d 447f 6939
00000350: add3 70bd 9134 e9bc 67d0 a43c 6a4d 1ebd
00000360: ad0f 92bd c88f e1bc 7a4e 2b3d a2c9 2e3d
00000370: a477 a5bb 6e48 e73c 719e 8f3d b300 f4bc
00000380: 7d24 df3d 0075 ac3a e75b bbbb 9cb2 0c3e
00000390: 807d 713d b345 e1bc c419 723d 7fdb b93d
000003a0: cab0 2cbc 35d8 8a3c 7848 bbbc 5126 383d
000003b0: bd22 523d 6a40 3fbd 02db aebc 6d82 593d
000003c0: 39a3 c6bb 78f2 4c3c a043 5ebd 17e9 32bc
000003d0: 6e14 423d 49cd 9abc f75d d33d d58b 8f3d
000003e0: 9473 573b 18e8 73bd c2d9 e23b 9866 393d
000003f0: fc62 83bc 3590 ddbd 979d 6dbc 55ac a93d

encoder.3.bias f4 [64]
0.05880914 0.06356864 0.01969043 -0.16046833 -0.13604318 -0.0107487505 -0.12918808 -0.05895039
-0.13615422 -0.06994686 -0.001679209 0.008344479 -0.0011401648 0.018740134 -0.111024655 -0.045039162
-0.14554635 -0.10612338 -0.13713117 -0.021192783 -0.105019525 -0.11239644 -0.025539154 -0.15227376
-0.029837828 -0.061575506 -0.26272812 -0.061966345 -0.059061535 0.021883275 -0.026705425 -0.009333843
-0.04985047 -0.054131046 0.051653087 -0.137932 -0.11059816 -0.054840863 -0.08625697 -0.011044578
-0.0054116417 -0.110522464 -0.060054798 -0.22340536 0.03733718 0.070272624 -0.09860259 0.043902334
-0.021883504 0.06751583 0.011757286 -0.06375714 -0.06313955 0.044523273 -0.027093112 -0.11156723
-0.10268197 -0.087262005 -0.2212495 -0.14590652 -0.2234321 -0.07037754 0.05757502 -0.000627509
00000000: dae1 703d 4630 823d d34d a13c cf51 24be
00000010: e74e 0bbe 871b 30bc e149 04be f775 71bd
00000020: 036c 0bbe 4d40 8fbd e718 dcba 48b7 083c
00000030: 9571 95ba e984 993c e560 e3bd fc7a 38bd
00000040: 1a0a 15be 3757 d9bd 1d6c 0cbe 7d9c adbc
00000050: 7a14 d7bd 1b30 e6bd 7d37 d1bc a7ed 1bbe
00000060: 766e f4bc 9936 7cbd 4d84 86be 6cd0 7dbd
00000070: 82ea 71bd 8e44 b33c 56c5 dabc faec 18bc
00000080: 0230 4cbd 84b8 5dbd 3092 533d 0c3e 0dbe
00000090: 4a81 e2bd d0a0 60bd 7fa7 b0bd 51f4 34bc
000000a0: 2454 b1bb 9a59 e2bd 05fc 75bd 60c4 64be
000000b0: dfee 183d 18eb 8f3d 28f0 c9bd efd2 333d
000000c0: 0945 b3bc bd45 8a3d a2a1 403c 1a93 82bd
000000d0: 4f4f 81bd 095e 363d 60f2 ddbc 5c7d e4bd
000000e0: ed4a d2bd 6cb6 b2bd 3b8f 62be 8568 15be
000000f0: 62cb 64be 1a22 90bd c9d3 6b3d 6b7f 24ba

encoder.6.weight f4 [32, 64]
-0.07771721 -0.037939053 -0.18809547 0.1526337 0.07530887 0.15018408 0.0919745 -0.13511714
0.0753063 -0.005135809 -0.061364796 -0.06319101 -0.108407 -0.0748815 0.09026761 -0.0778518
0.034040034 -0.09705613 -0.046282653 -0.002461422 0.0341477 0.1576765 0.025768857 0.10658779
-0.06905785 0.07878522 0.022128073 0.12746605 0.09772741 -0.012617741 0.046078578 -0.09300848
0.028290642 0.021868274 0.06481093 0.11992727 -0.036782842 -0.10828779 0.116085 0.040797777
-0.06651001 -0.07095356 0.01239762 0.054242022 0.049370445 -0.11539376 0.06499448 -0.06296688
0.03039828 0.12515768 -0.018485418 0.13574053 -0.070676565 -0.09489401 -0.120802194 -0.10280362
0.01119067 -0.11767512 0.02857148 -0.052366797 -0.050512128 0.10338327 -0.06687939 -0.10034023
-0.06811368 0.005597274 -0.11376239 -0.14689958 0.043264017 0.10911186 0.0031227348 0.0768504
-0.011610008 -0.04260381 0.010490411 -0.11780873 -0.0338487 0.10182725 0.058642212 0.007747821
0.023761952 0.045846295 0.019738864 0.022734597 0.0026093095 -0.071088575 -0.08675214 -0.06081749
-0.19008543 0.011911756 0.13683994 0.10027691 0.16385478 0.11886604 -0.028266264 -0.10358617
-0.166489 0.06925788 -0.12066962 0.06360541 0.06238206 -0.02498514 -0.040248252 -0.09906879
-0.1563511 0.09417728 -0.08898986 -0.026720783 0.010376315 -0.20862128 0.017852897 0.106308244
-0.20046777 -0.12585306 -0.05669455 0.017500916 -0.07370804 -0.08228354 -0.033403065 -0.038188666
-0.17967972 -0.15865421 -0.17720583 0.12093532 0.039819676 0.03434699 -0.05221724 0.055223085
-0.08440011 0.11404979 0.091330566 0.038051017 0.123189025 -0.018828562 0.06538915 -0.11326357
0.09187735 0.113517754 0.01835209 0.071049936 -0.030458141 -0.16876633 0.07349093 -0.010919837
-0.0070206416 0.049556237 0.07152381 -0.0076865545 0.0415157 -0.049055796 -0.1585956 0.03282249
0.0222832 -0.19281502 0.07459849 0.08740961 0.022147363 -0.13964875 -0.08265184 -0.019068852
0.07979231 -0.15007968 -0.10709083 -0.024407407 0.03484562 -0.08130129 -0.02391644 0.025247572
0.10500122 0.027671937 0.09600644 -0.021187807 -0.08905987 0.08755709 0.063333735 -0.15267107
-0.006908177 -0.13150801 0.05138207 -0.013513471 0.0620992 0.022686083 -0.009978083 0.055217993
-0.062146578 -0.03193172 -0.022401603 -0.05790749 0.0480874 0.088742726 0.04914199 -0.008766273
0.013057869 0.21355388 0.037803702 0.03730356 -0.07055806 0.02890384 -0.0155937085 -0.06789187
0.064480595 0.04535451 0.15336019 0.07010009 0.1313393 0.14841646 -0.053203464 -0.20333889
-0.035406314 -0.035704974 -0.028629208 -0.01862446 -0.08279354 0.04410278 0.113395594 0.064344
-0.16084489 0.052811354 -0.07833174 0.020543134 0.052671548 -0.032718625 0.06116255 -0.04577215
0.020664833 0.14441001 0.07259251 -0.066864245 -0.039972354 -0.063008234 0.04594419 -0.07617803
-0.02407381 0.03369352 -0.032456473 0.22400503 0.027835783 -0.01903906 -0.1217734 0.15281554
-0.05689816 0.08992359 -0.08149996 0.07806743 0.04732062 -0.022594338 0.019770706 0.008430073
0.03906243 -0.026880708 -0.26361278 -0.28349143 -0.14220051 -0.27162936 0.015717302 0.0035163767
00000000: 332a 9fbd fb65 1bbd 199c 40be 024c 1c3e
00000010: 893b 9a3d dbc9 193e 205d bc3d 265c 0abe
00000020: 303a 9a3d 4a4a a8bb a759 7bbd 4a6a 81bd
00000030: 7d04 debd 795b 99bd 3ade b83d c470 9fbd
00000040: 906d 0b3d 5dc5 c6bd e192 3dbd cf4f 21bb
00000050: 75de 0b3d f375 213e 3619 d33c b34a da3d
00000060: 346e 8dbd 255a a13d ef45 b53c 7686 023e
00000070: 4f25 c83d a4ba 4ebc e4bc 3c3d 3b7b bebd
00000080: c7c1 e73c 1825 b33c 98bb 843d 6e9c f53d
00000090: 9ba9 16bd fdc5 ddbd f9bd ed3d 921b 273d
000000a0: 6636 88bd 1a50 91bd 631f 4b3c e22c 5e3d
000000b0: aa38 4a3d 9053 ecbd d31b 853d c8f4 80bd
000000c0: d005 f93c 5629 003e bb6e 97bc 91ff 0a3e
000000d0: e0be 90bd ca57 c2bd 2467 f7bd b48a d2bd
000000e0: 1259 373c a7ff f0bd bd0e ea3c 917e 56bd
000000f0: cee5 4ebd 9cba d33d 10f8 88bd 2e7f cdbd
00000100: 2f7f 8bbd 5669 b73b 42fc e8bd d86c 16be
00000110: 9c35 313d 0a76 df3d cca6 4c3b be63 9d3d
00000120: e737 3ebc 5581 2ebd f9df 2b3c b445 f1bd
00000130: efa4 0abd ce8a d03d d132 703d 6fe1 fd3b
00000140: 6da8 c23c 53c9 3b3d 66b3 a13c e83d ba3c
00000150: f300 2b3b e396 91bd 1bab b1bd c31b 79bd
00000160: c1a5 42be 8729 433c c51f 0c3e fb5d cd3d
00000170: 8cc9 273e 0a70 f33d a78e e7bc fc24 d4bd
00000180: 187c 2abe 13d7 8d3d a221 f7bd 8e43 823d
00000190: 5584 7f3d a3ad ccbc 5adb 24bd 94e4 cabd
000001a0: 811a 20be 05e0 c03d 5140 b6bd 8be5 dabc
000001b0: 6b01 2a3c d1a0 55be 3d40 923c 23b8 d93d
000001c0: 6c47 4dbe a0df 00be 8b38 68bd 155e 8f3c
000001d0: 3ef4 96bd 4684 a8bd a7d1 08bd b86b 1cbd
000001e0: f6fd 37be 4076 22be 7275 35be f0ac f73d
000001f0: f519 233d 6eaf 0c3d bfe1 55bd 9a31 623d
00000200: f7d9 acbd f092 e93d 850b bb3d 62db 1b3d
00000210: 874a fc3d 5b3e 9abc bfea 853d bbf6 e7bd
00000220: 312a bc3d ff7b e83d 1f57 963c a182 913d
00000230: 5a83 f9bc 15d1 2cbe 6a82 963d 1ee9 32bc
00000240: 690d e6bb 7bfb 4a3d 137b 923d 7edf fbbb
00000250: 5e0c 2a3d bbee 48bd e366 22be e070 063d
00000260: 428b b63c 4d71 45be 18c7 983d cf03 b33d
00000270: 636e b53c 1500 0fbe 5e45 a9bd 4836 9cbc
00000280: 276a a33d 7dae 19be 7052 dbbd 0bf2 c7bc
00000290: 48ba 0e3d 4a81 a6bd 69ec c3bc ffd3 ce3c
000002a0: e10a d73d 42b0 e23c 069f c43d 0d92 adbc
000002b0: 0565 b6bd 2251 b33d 1eb5 813d ce55 1cbe
000002c0: fd5d e2bb 09aa 06be 0176 523d 9b67 5dbc
000002d0: bb5b 7e3d 2ad8 b93c 1d7b 23bc 432c 623d
000002e0: 698d 7ebd d6ca 02bd 9183 b7bc 6730 6dbd
000002f0: 4bf7 443d bfbe b53d 1c49 493d 6aa0 0fbc
00000300: acf0 553c dead 5a3e 0ed8 1a3d 9ecb 183d
00000310: bf80 90bd bfc7 ec3c c17c 7fbc e50a 8bbd
00000320: 670e 843d a7c5 393d 740a 1d3e a390 8f3d
00000330: cf7d 063e 7cfa 173e e0eb 59bd 1238 50be
00000340: 3606 11bd 613f 12bd cd87 eabc 5392 98bc
00000350: a98f a9bd 1ea5 343d f33b e83d c9c6 833d
00000360: 86b4 24be b850 583d 646c a0bd 134a a83c
00000370: 1fbe 573d f703 06bd 9585 7a3d 947b 3bbd
00000380: 4c49 a93c 38e0 133e 62ab 943d 1ff0 88bd
00000390: 0dba 23bd 760a 81bd fa2f 3c3d 3a03 9cbd
000003a0: 7036 c5bc 3702 0a3d 14f1 04bd 9361 653e
000003b0: de07 e43c cef7 9bbc 5564 f9bd ad7b 1c3e
000003c0: 0c0e 69bd dc29 b83d 73e9 a6bd d1e1 9f3d
000003d0: 44d3 413d c317 b9bc 2df6 a13c 4a1e 0a3c
000003e0: edff 1f3d ee34 dcbc 41f8 86be ca25 91be
000003f0: 039d 11be 0113 8bbe 92c1 803c 0373 663b

encoder.6.bias f4 [32]
0.044436306 -0.05661903 0.10637949 0.070051774 0.010610119 -0.062452253 -0.007705089 -0.065156415
-0.16326497 -0.012221982 0.11173161 -0.016444862 -0.12601039 0.07024295 -0.10709583 -0.026347568
-0.050563864 0.066260464 0.08496103 -0.07405542 0.048021283 -0.11215763 -0.076362036 -0.03743789
-0.06220236 -0.054533247 -0.0048667267 -0.14254867 -0.034161005 0.08876492 -0.030004187 -0.09530279
00000000: d802 363d 5be9 67bd 7ddd d93d 4e77 8f3d
00000010: 11d6 2d3c efcd 7fbd f97a fcbb ba70 85bd
00000020: ef2e 27be b53e 48bc 8bd3 e43d 60b7 86bc
00000030: de08 01be 89db 8f3d 0f55 dbbd dbd6 d7bc
00000040: 0e1c 4fbd 91b3 873d 0c00 ae3d 5eaa 97bd
00000050: f7b1 443d e6b2 e5bd b363 9cbd 7958 19bd
00000060: e7c7 7ebd 415e 5fbd 1079 9fbb 47f8 11be
00000070: 69ec 0bbd 62ca b53d 57cb f5bc 1c2e c3bd

encoder.9.weight f4 [7, 32]
-0.18040003 -0.10257669 0.08266786 -0.097852826 0.15002184 0.1557043 -0.055726998 0.1038939
0.03700695 0.15517458 -0.011655414 -0.029535303 -0.013518061 0.014256319 -0.06919173 -0.1412071
-0.09680024 0.15624104 0.16630834 0.14706865 0.16723405 0.15639436 -0.033687003 0.020546546
-0.092359625 -0.12724781 0.06420075 0.119338565 0.009919575 0.07943962 0.08737317 -0.03451508
-0.0511188 0.10914421 -0.17967811 0.06627357 -0.059959494 0.1319337 -0.18405181 0.0148681905
0.0012062112 -0.072679974 -0.059209693 -0.00066261215 0.09969862 0.0738421 0.16163412 -0.08790613
0.1511761 -0.16428402 0.16014208 0.14810021 -0.083715 -0.013894203 0.08020708 0.052544065
-0.08177173 0.046220284 -0.13475223 0.09808274 -0.26911664 -0.09313844 -0.08051423 -0.014683051
-0.085324034 -0.04200198 -0.12953158 0.06458499 -0.15310162 0.17544676 0.030654697 0.07553906
-0.12769064 0.101397656 0.0066121574 0.025572388 0.0028785327 0.05101249 0.11800418 -0.094319135
0.16028835 0.1697214 0.08561518 0.20338175 0.164829 0.054931916 0.1829348 -0.04087608
-0.0035790314 0.17407192 0.13777688 0.18435208 0.09084889 0.11419162 0.17519759 0.2235016
-0.07598905 -0.08480691 -0.082964785 0.06252758 0.035290707 0.03337671 0.03797907 0.007901768
-0.14088325 -0.029335361 -0.13519669 -0.13248093 -0.13837488 0.14932166 0.08659275 0.05606979
0.013649374 0.04016081 0.118198425 0.14623366 0.012190308 -0.20577528 0.18246278 -0.18704113
-0.18588439 -0.11860738 -0.08943926 -0.1459648 -0.15446109 -0.07335631 0.06927573 0.07978402
-0.08707948 0.11803553 -0.14518759 0.01922727 0.1484893 -0.0723233 -0.11234585 0.163091
-0.071733676 -0.081007734 -0.10881649 0.13248472 0.04503094 -0.082203485 0.15469874 0.14474754
-0.022374904 -0.10513894 0.10247199 0.18045872 -0.177877 -0.025759017 -0.1294734 0.034549836
-0.036834266 0.055947185 0.17041145 0.05103228 -0.05218533 0.1713867 -0.14695811 -0.010792379
-0.22376779 -0.05453946 0.1542802 -0.06966423 -0.17773719 0.15850078 0.04844564 -0.15126543
0.13459189 0.05287552 0.12515691 0.15585485 -0.07782468 0.19296356 0.009156218 -0.059489667
-0.0956519 0.04415089 -0.16150752 -0.105382435 0.17734966 -0.024692269 0.057790555 0.08495828
-0.075931616 -0.07710285 0.087231465 0.010293099 0.08859751 -0.009107585 -0.07095457 -0.031765543
0.00729584 0.10390505 0.07997227 -0.06994864 0.12203382 0.03278319 0.020061396 -0.04217653
0.072563976 0.13281827 -0.02479409 0.059705116 -0.020014962 -0.014378214 0.0659097 -0.057613276
-0.12733278 0.15065758 0.1333171 0.1644165 0.043299556 0.18719175 0.010228603 0.18441181
-0.08011232 -0.11171426 0.17003368 0.18991306 -0.07563626 -0.14948897 0.087076105 0.11457696
00000000: c9ba 38be ba13 d2bd c44d a93d 1067 c8bd
00000010: 539f 193e f370 1f3e fe41 64bd 53c6 d43d
00000020: 9994 173d 16e6 1e3e 59f6 3ebc 05f4 f1bc
00000030: db7a 5dbc 5693 693c 65b4 8dbd 9898 10be
00000040: 343f c6bd a7fd 1f3e bc4c 2a3e 2a99 163e
00000050: 673f 2b3e d825 203e 62fb 09bd 3b51 a83c
00000060: 0b27 bdbd 404d 02be af7b 833d c767 f43d
00000070: b785 223c 3db1 a23d b4f0 b23d af5f 0dbd
00000080: f261 51bd 0087 df3d 8afd 37be 70ba 873d
00000090: 1698 75bd a119 073e 1478 3cbe b699 733c
000000a0: bb19 9e3a 3dd9 94bd dd85 72bd 26b3 2dba
000000b0: ca2e cc3d 873a 973d 6a83 253e 2108 b4bd
000000c0: e8cd 1a3e 123a 28be 49fc 233e 95a7 173e
000000d0: c572 abbd 83a4 63bc 9c43 a43d 7238 573d
000000e0: f077 a7bd 7b51 3d3d 7dfc 09be 9bdf c83d
000000f0: a8c9 89be 5ebf bebd a5e4 a4bd 2e91 70bc
00000100: 5ebe aebd 450a 2cbd eda3 04be 2345 843d
00000110: acc6 1cbe 51a8 333e 8f1f fb3c 39b4 9a3d
00000120: 56c1 02be 93a9 cf3d ccaa d83b 2f7d d13c
00000130: c4a5 3c3b 79f2 503d 2dac f13d 642a c1bd
00000140: a122 243e 72cb 2d3e 0357 af3d 4e43 503e
00000150: efc8 283e 4a00 613d 4353 3b3e ad6d 27bd
00000160: 2f8e 6abb e93f 323e 6215 0d3e cbc6 3c3e
00000170: fc0e ba3d 4cdd e93d ff66 333e 9add 643e
00000180: 26a0 9bbd 3faf adbd 71e9 a9bd 760e 803d
00000190: fd8c 103d 04b6 083d f18f 1b3d 6b76 013c
000001a0: b343 10be b650 f0bc 0071 0abe 15a9 07be
000001b0: 25b2 0dbe c7e7 183e 8a57 b13d 70a9 653d
000001c0: a0a1 5f3c a97f 243d 0412 f23d 47be 153e
000001d0: dcb9 473c c1b6 52be 86d7 3a3e b687 3fbe
000001e0: 7a58 3ebe 6de8 f2bd ee2b b7bd cc77 15be
000001f0: 0c2b 1ebe d53b 96bd 6fe0 8d3d ce65 a33d
00000200: ba56 b2bd 9dbc f13d 0eac 14be 8282 9d3c
00000210: 940d 183e 3d1e 94bd 9515 e6bd 5401 273e
00000220: 1be9 92bd 62e7 a5bd 2edb debd 13aa 073e
00000230: 5d72 383d 4d5a a8bd 5969 1e3e b338 143e
00000240: 934b b7bc 1653 d7bd d6dc d13d 2cca 383e
00000250: 6325 36be 9304 d3bc ad94 04be 2184 0d3d
00000260: 87df 16bd e028 653d 5780 2e3e 3907 513d
00000270: 49c0 55bd ff7f 2f3e 307c 16be 85d2 30bc
00000280: 6223 65be c564 5fbd a1fb 1d3e 1fac 8ebd
00000290: bd00 36be 074e 223e ef6e 463d 53e5 1abe
000002a0: 75d2 093e 0094 583d 2229 003e 6a98 1f3e
000002b0: 8c62 9fbd 3d98 453e f603 163c 70ab 73bd
000002c0: 25e5 c3bd 90d7 343d 3a62 25be bfd2 d7bd
000002d0: 269b 353e 7147 cabc cab5 6c3d 9bfe ad3d
000002e0: 0982 9bbd 19e8 9dbd 69a6 b23d 63a4 283c
000002f0: 9c72 b53d fb37 15bc a150 91bd 961c 02bd
00000300: f111 ef3b 2ccc d43d 80c8 a33d 3c41 8fbd
00000310: deec f93d ab47 063d cc57 a43c 4cc1 2cbd
00000320: 6c9c 943d 8301 083e fa1c cbbc 5a8d 743d
00000330: 6bf6 a3bc 9a92 6bbc aafb 863d e6fb 6bbd
00000340: 8663 02be fb45 1a3e 4784 083e cd5c 283e
00000350: e05a 313d 32af 3f3e df95 273c 73d6 3c3e
00000360: ee11 a4bd 72ca e4bd 4f1d 2e3e 9278 423e
00000370: 2fe7 9abd a313 19be f554 b23d 53a7 ea3d

encoder.9.bias f4 [7]
-0.052290887 -0.16515039 0.19133888 0.079170555 0.013643031 0.20622553 0.21266378
00000000: f82e 56bd 2f1d 29be 57ee 433e 2c24 a23d
00000010: 0587 5f3c c92c 533e 89c4 593e

decoder.0.weight f4 [32, 7]
-0.36522093 -0.19968168 -0.31349206 0.38215712 -0.102323756 0.04674112 -0.35559034 -0.31100047
0.3130656 -0.05528741 -0.033374228 -0.15164046 -0.08560631 0.40386078 -0.35168844 -0.32138154
0.17430106 0.36325115 0.11022787 -0.24724922 -0.22433673 -0.092703074 0.23788035 -0.2185637
-0.15296456 0.018600574 -0.25554848 0.24924554 0.32357213 -0.06923336 -0.13570653 -0.31292245
0.30227044 -0.3839794 0.099021696 -0.27430347 0.029487152 -0.13762602 -0.35979703 -0.0710634
-0.29854125 -0.3730118 -0.26435822 -0.055396535 0.10474651 -0.30508518 0.057295654 -0.33643737
-0.11619541 -0.28136182 -0.08087467 0.27931097 0.23151839 -0.20937723 0.29863253 0.1930297
-0.069314755 0.1210144 0.30638456 -0.19846159 0.0015663503 -0.15606405 0.093640484 0.20573093
-0.23528334 0.32839045 0.057329133 -0.38246012 0.37015885 0.25340512 -0.036743972 -0.3660403
0.39491192 -0.099173404 -0.04342997 0.2946998 0.1973871 -0.08780346 0.12620036 -0.19689143
0.30629817 -0.18280871 0.27153417 0.35589284 -0.13038786 -0.13328122 0.2841048 0.32906023
0.25784683 -0.12533145 0.05166272 -0.26405293 -0.024403742 0.23598154 0.11697518 0.16801871
-0.034721315 -0.17095096 0.20715366 0.14621429 -0.06499699 0.035533756 -0.35087708 0.3546593
-0.021801928 0.051177062 0.08764252 -0.15096581 -0.009469428 -0.18396835 -0.16591062 -0.39990896
0.26339456 -0.10986937 0.013352558 -0.139585 0.024054155 0.036472727 0.015044739 0.105573356
-0.2528926 -0.1958779 -0.35868618 -0.31053126 0.23558381 0.13565348 -0.26589528 0.20134075
-0.08196252 -0.1896691 0.31351164 -0.12647778 0.02737535 0.045215636 0.00482177 0.06459141
0.005889681 -0.32229093 0.25720286 -0.18329933 -0.3107387 0.15631585 0.21801564 0.030380888
-0.36605752 0.37254983 0.2550025 0.031748198 -0.062029015 -0.26847866 -0.15113099 -0.20465513
0.3222717 0.23527068 0.069555335 0.041214865 0.28199154 -0.3069786 -0.17507595 -0.35925812
0.23095201 0.301919 0.008522406 -0.2692634 -0.33688217 0.18698028 0.08458093 0.34712964
0.23780568 -0.012070086 0.16231033 -0.062111672 0.24173823 -0.38756356 0.092278354 0.021783886
0.3957889 -0.010605749 0.102314696 -0.3209789 -0.12910761 0.065339305 0.39149016 0.19500345
-0.04899622 0.1085236 -0.17811961 -0.27521983 -0.32135716 0.13216674 0.21164583 0.0016483156
0.292357 0.1359682 -0.2954749 0.09879097 -0.04369478 0.022828726 0.07688333 -0.30091035
0.25504863 0.07243733 0.18219075 0.21153778 -0.036945097 -0.017588727 0.26020676 0.12375434
-0.06892265 -0.35796878 0.16182168 -0.22541766 -0.39910504 -0.16953291 0.22735363 -0.23172353
-0.148306 0.24633144 0.15973021 0.051788364 -0.067329474 0.07030617 0.105043285 -0.25176853
00000000: 3dfe babe 5b79 4cbe 0882 a0be 19aa c33e
00000010: 1e8f d1bd 9e73 3f3d f00f b6be 743b 9fbe
00000020: 224a a03e 0d75 62bd 6ab3 08bd a347 1bbe
00000030: 5c52 afbd d7c6 ce3e 8210 b4be 1f8c a4be
00000040: fa7b 323e 0efc b93e 26bf e13d e62e 7dbe
00000050: 87b8 65be 1cdb bdbd e896 733e 2acf 5fbe
00000060: bea2 1cbe 3b60 983c 40d7 82be 393a 7f3e
00000070: 3fab a53e 38ca 8dbd a7f6 0abe 5f37 a0be
00000080: 31c3 9a3e f398 c4be e3cb ca3d 8171 8cbe
00000090: 0a8f f13c d6ed 0cbe 5137 b8be b089 91bd
000000a0: 66da 98be 67fb bebe f659 87be 7ae7 62bd
000000b0: 5785 d63d 2034 9cbe d9ae 6a3d 8541 acbe
000000c0: dcf7 edbd a80e 90be 9ea1 a5bd d901 8f3e
000000d0: 2813 6d3e fc66 56be 5de6 983e 94a9 453e
000000e0: e5f4 8dbd 66d6 f73d 70de 9c3e 8439 4bbe
000000f0: ff4d cd3a 41cf 1fbe 95c6 bf3d 21ab 523e
00000100: 1eee 70be cb22 a83e f4d1 6a3d d0d1 c3be
00000110: 7685 bd3e 51be 813e d980 16bd a269 bbbe
00000120: e531 ca3e 6d1b cbbd a0e3 31bd e4e2 963e
00000130: d81f 4a3e 4dd2 b3bd ab3a 013e e89d 49be
00000140: 1dd3 9c3e 3532 3bbe 8706 8b3e 9637 b63e
00000150: 6584 05be df7a 08be 2f76 913e 957a a83e
00000160: 8004 843e e356 00be 4a9c 533d f231 87be
00000170: 5bea c7bc 25a5 713e af90 ef3d 190d 2c3e
00000180: f037 0ebd c50d 2fbe 1720 543e 33b9 153e
00000190: 241d 85bd d88b 113d 29a6 b3be e795 b53e
000001a0: f599 b2bc 0a9f 513d ec7d b33d c896 1abe
000001b0: a925 1bbc 3362 3cbe 79e4 29be dec0 ccbe
000001c0: a7db 863e 3103 e1bd b0c4 5a3c 5fef 0ebe
000001d0: 380d c53c 6d64 153d 357e 763c d836 d83d
000001e0: 247b 81be 3794 48be b7a5 b7be f4fd 9ebe
000001f0: e23c 713e bfe8 0a3e 6d23 88be 452c 4e3e
00000200: f7db a7bd 9e38 42be 9984 a03e 6483 01be
00000210: 4542 e03c 0834 393d f0ff 9d3b 8048 843d
00000220: 3afe c03b 5103 a5be 18b0 833e d2b2 3bbe
00000230: 2519 9fbe 4311 203e 7e3f 5f3e 57e1 f83c
00000240: e46b bbbe dabe be3e b08f 823e 660a 023d
00000250: 2312 7ebd 0976 89be 15c2 1abe 1d91 51be
00000260: cc00 a53e ccea 703e 0773 8e3d ebd0 283d
00000270: 3261 903e 4d2c 9dbe 1c47 33be aef0 b7be
00000280: af7e 6c3e 2195 9a3e 90a1 0b3c e4dc 89be
00000290: d27b acbe c277 3f3e c438 ad3d faba b13e
000002a0: 5583 733e 9cc1 45bc ae34 263e cf68 7ebd
000002b0: 3a8a 773e bb6e c6be 6ffc bc3d 1f74 b23c
000002c0: d8a4 ca3e bcc3 2dbc 5e8a d13d 5957 a4be
000002d0: c934 04be 9dd0 853d 6671 c83e fcae 473e
000002e0: 43b0 48bd 9f41 de3d fd64 36be 9de9 8cbe
000002f0: ed88 a4be b856 073e afb9 583e 4b0c d83a
00000300: d1af 953e 3f3b 0b3e 7c48 97be ec52 ca3d
00000310: 4cf9 32bd 4f03 bb3c 0275 9d3d ec10 9abe
00000320: bc95 823e 065a 943d 3690 3a3e 5c9d 583e
00000330: be53 17bd 3c16 90bc d239 853e ea72 fd3d
00000340: 5127 8dbd af47 b7be 95b4 253e e3d3 66be
00000350: 7f57 ccbe 099a 2dbe 64cf 683e ef48 6dbe
00000360: 87dd 17be 4f3e 7c3e 5190 233e 0920 543d
00000370: 09e4 89bd aefc 8f3d ef20 d73d cee7 80be

decoder.0.bias f4 [32]
-0.28119546 0.025806427 0.083640054 -0.0063641383 0.22570066 0.11563466 0.38586542 -0.12840764
-0.21112731 -0.079835355 0.17338872 -0.15493084 0.12667194 -0.059889603 -0.25441176 -0.070036426
0.031172069 -0.29248044 0.24233963 0.05542357 -0.31548655 0.42972565 0.06870178 0.0029780306
0.16187623 -0.0069939806 0.16850159 0.41542402 0.26511616 0.20536962 -0.28539315 -0.2907257
00000000: daf8 8fbe 0068 d33c 7a4b ab3d 438a d0bb
00000010: 131e 673e ddd1 ec3d 2790 c53e 4b7d 03be
00000020: c231 58be b880 a3bd d08c 313e 31a6 1ebe
00000030: 4ab6 013e cd4e 75bd 4242 82be 426f 8fbd
00000040: 915c ff3c ffbf 95be e127 783e d303 633d
00000050: 7487 a1be 0005 dc3e 85b3 8c3d 102b 433b
00000060: e2c2 253e c32d e5bb ae8b 2c3e 75b2 d43e
00000070: 4ebd 873e 6a4c 523e 0d1f 92be 00da 94be

decoder.2.weight f4 [64, 32]
0.118199006 0.15271278 -0.0001981095 -0.030994657 0.053282004 -0.04981626 -0.19380768 -0.029214084
0.091217 -0.013044435 0.13620746 -0.14264989 0.10202844 -0.06654934 0.060565762 0.0052572787
0.012352416 -0.027722694 -0.0037186954 -0.033908155 0.090485826 0.035861757 0.0256105 -0.14823982
-0.18336351 0.08277316 -0.00838068 0.023552846 -0.015855448 0.042756412 0.19640917 0.13738158
-0.05749224 -0.11327137 -0.24487422 0.09766234 -0.12079975 -0.016128449 -0.042029575 0.037402812
0.039851915 0.0053588464 -0.10156889 -0.20378825 -0.02198552 -0.25407952 -0.16674098 0.17243414
-0.08615582 -0.15109101 -0.06041436 -0.17478305 -0.22370386 0.12434836 -0.0426848 0.18487811
-0.1057244 -0.11761619 -0.1588127 -0.026132718 0.21857114 -0.065089114 -0.1789137 0.2258421
0.10241474 0.21389337 0.043184433 -0.108312905 0.04801489 0.18610762 0.18591139 -0.1655478
-0.029478788 -0.0937068 0.15919444 0.06247632 0.16336653 0.11887958 -0.220205 -0.01397329
0.1181349 0.032290608 -0.021315996 -0.21807408 0.0017509324 -0.17063464 -0.13572748 -0.016268061
-0.124060065 0.013801715 -0.110706784 0.038129143 0.057717104 0.039674837 0.006587694 -0.095096335
-0.09689608 -0.011388081 -0.036473945 -0.18331845 0.058643896 -0.013821755 0.16682234 0.16444866
-0.17270899 -0.06646789 0.032984085 0.07222965 0.154614 -0.04020448 -0.1553399 -0.084560804
-0.05189147 -0.077009 0.059128813 -0.07532344 -0.18980268 0.032006763 0.0077639166 -0.026341442
-0.15346797 0.16713414 0.04032001 0.17006673 -0.13176972 -0.06760269 -0.06514174 0.006084041
0.023927491 0.14053358 -0.118134156 -0.019769942 -0.11214714 -0.06047772 -0.031119095 -0.022248095
0.027284902 0.056392908 0.19714528 -0.07955642 0.0013376272 0.048725054 -0.10469576 -0.07681832
0.13601345 0.14942521 -0.17268392 0.19093764 0.13676514 0.16846785 0.0020625936 0.0011449511
-0.05301282 -0.06731055 0.05611734 -0.12393281 -0.038381074 -0.043399055 -0.0996739 -0.037554335
0.09936448 0.10452028 -0.07328888 0.05711902 0.020069038 -0.078613766 0.052805126 0.026943374
-0.054847233 0.055346195 0.08001282 -0.01714006 0.00041079413 -0.042779323 -0.013699242 0.03434982
0.028968697 -0.013139054 0.10922522 0.1292723 0.15044725 -0.19241826 -0.026443496 0.12468599
0.12087855 0.13269065 -0.059760485 -0.08548423 0.065192744 -0.02867489 0.010975881 -0.14232105
-0.10089398 0.16714638 0.09024214 0.17519961 0.10642049 0.16307832 -0.014499956 -0.05957882
-0.009229893 -0.1630609 0.016319048 -0.082078725 -0.018695172 -0.13673966 -0.24826778 0.095100634
0.11117347 -0.2568154 0.054154992 -0.34963143 0.009799178 -0.13784733 0.13800162 0.020022865
-0.02215577 -0.1980695 0.025598627 0.047887 0.10043236 0.057873525 0.19080587 0.16084208
-0.094269864 0.20693795 0.17667568 -0.094420314 -0.16428062 0.017940128 -0.20833097 -0.031962037
-0.05718099 -0.026845744 0.16791257 0.08778209 0.034711756 -0.06332372 0.05100963 0.04959073
-0.14430654 0.018458683 -0.2520056 -0.0330342 0.002933377 0.100652434 0.05510358 0.12592326
-0.023498433 -0.085859515 0.21465367 0.08279834 0.1750646 0.2182044 0.06436178 0.20986488
00000000: 5212 f23d bd60 1c3e 9dbb 4fb9 82e8 fdbc
00000010: 3b3e 5a3d 220c 4cbd 8575 46be 6052 efbc
00000020: facf ba3d 53b8 55bc f879 0b3e d012 12be
00000030: 49f4 d03d 054b 88bd ce13 783d 4045 ac3b
00000040: ca61 4a3c b41a e3bc 5bb5 73bb 47e3 0abd
00000050: a250 b93d c7e3 123d 1ccd d13c 2ecc 17be
00000060: a5c3 3bbe f984 a93d 1f4f 09bc e6f1 c03c
00000070: 49e3 81bc 5921 2f3d 7c1f 493e c2ad 0c3e
00000080: fc7c 6bbd d2fa e7bd 4fc0 7abe 3103 c83d
00000090: dc65 f7bd cf1f 84bc 3427 2cbd b133 193d
000000a0: c33b 233d 4399 af3b 5a03 d0bd dead 50be
000000b0: fa1a b4bc b616 82be 26be 2abe 9392 303e
000000c0: 7672 b0bd 9ab7 1abe 0c75 77bd 54fa 32be
000000d0: a012 65be 5aaa fe3d 42d6 2ebd b050 3d3e
000000e0: 0986 d8bd c2e0 f0bd cc9f 22be 4814 d6bc
000000f0: 1dd1 5f3e 714d 85bd 2735 37be 2743 673e
00000100: d2be d13d dd06 5b3e 29e2 303d 28d3 ddbd
00000110: 43ab 443d ff92 3e3e 8e5f 3e3e 5d85 29be
00000120: 807d f1bc 5ae9 bfbd de03 233e 2be7 7f3d
00000130: 8e49 273e 2377 f33d 6b7d 61be 3af0 64bc
00000140: b6f0 f13d 2843 043d e29e aebc d04e 5fbe
00000150: 8b7f e53a d9ba 2ebe 25fc 0abe 9944 85bc
00000160: 3413 febd 9720 623c 3dba e2bd 4e2d 1c3d
00000170: c568 6c3d 1582 223d 95dd d73b dec1 c2bd
00000180: 7471 c6bd 1395 3abc b465 15bd d5b7 3bbe
00000190: 9534 703d a474 62bc 7ad3 2a3e 3b65 283e
000001a0: a0da 30be 5120 88bd 521a 073d 24ed 933d
000001b0: 2253 1e3e 74ad 24bd 6c11 1fbe 372e adbd
000001c0: 268c 54bd e5b6 9dbd 0e31 723d 2d43 9abd
000001d0: a25b 42be 8619 033d 7468 fe3b 02ca d7bc
000001e0: b526 1dbe 3625 2b3e 9826 253d f925 2e3e
000001f0: a4ee 06be 4773 8abd 0869 85bd a35c c73b
00000200: 9603 c43c 09e8 0f3e 52f0 f1bd 93f4 a1bc
00000210: 66ad e5bd 7cb7 77bd 79ed febc a341 b6bc
00000220: 9684 df3c 40fc 663d 74e0 493e 7aee a2bd
00000230: 5253 af3a ec93 473d bb6a d6bd ec52 9dbd
00000240: 1c47 0b3e ec02 193e 0ed4 30be 2885 433e
00000250: 290c 0c3e d682 2c3e 942c 073b 2f12 963a
00000260: f923 59bd 1dda 89bd 4cdb 653d 7cd0 fdbd
00000270: 7935 1dbd 35c3 31bd d421 ccbd 93d2 19bd
00000280: 9b7f cb3d bb0e d63d 7b18 96bd a2f5 693d
00000290: d367 a43c 4100 a1bd 304a 583d 5ab8 dc3c
000002a0: 7ea7 60bd b1b2 623d c3dd a33d 5069 8cbc
000002b0: db5f d739 5f39 2fbd c972 60bc 66b2 0c3d
000002c0: c34f ed3c 3045 57bc 79b1 df3d f55f 043e
000002d0: d80e 1a3e 4b09 45be 08a0 d8bc 5e5b ff3d
000002e0: 2c8f f73d 0fe0 073e 69c7 74bd 5b12 afbd
000002f0: c683 853d 9ae7 eabc 2ed4 333c 9cbc 11be
00000300: 81a1 cebd 6c28 2b3e dfd0 b83d 8767 333e
00000310: fcf2 d93d 01fe 263e 3991 6dbc ec08 74bd
00000320: fa38 17bc 70f9 26be 86af 853c e418 a8bd
00000330: 9e26 99bc 7b05 0cbe e939 7ebe 1fc4 c23d
00000340: ebae e33d 4f7d 83be a0d1 5d3d e402 b3be
00000350: bb8c 203c da27 0dbe 4c50 0d3e fe06 a43c
00000360: 0480 b5bc bbd2 4abe 36b4 d13c 2925 443d
00000370: 7baf cd3d ca0c 6d3d 9d62 433e c9b3 243e
00000380: 8f10 c1bd 8be7 533e 78ea 343e 705f c1bd
00000390: 2e39 28be 2df7 923c b754 55be a0ea 02bd
000003a0: 9d36 6abd 9beb dbbc 46f1 2b3e 19c7 b33d
000003b0: ea2d 0e3d deaf 81bd 79ef 503d a61f 4b3d
000003c0: 18c5 13be aa36 973c e106 81be df4e 07bd
000003d0: e63d 403b dd22 ce3d 4bb4 613d 07f2 003e
000003e0: c97f c0bc 1dd7 afbd 2cce 5b3e 2d92 a93d
000003f0: 2244 333e f970 5f3e 1cd0 833d d2e6 563e

decoder.2.bias f4 [64]
0.1826105 0.23070423 0.14171247 0.05082513 0.04028845 0.141631 0.012485343 -0.019134022
-0.041606788 0.086936824 -0.030765891 -0.07776881 0.1812247 0.03619173 0.17096181 -0.061202973
0.045457195 -0.20778875 -0.11802119 -0.0964794 0.1462196 0.009799953 0.18232764 -0.16410936
-0.22964258 -0.22344194 0.14500464 0.099332765 0.100946076 0.090687886 0.20210135 0.0045311446
0.046530563 0.11153954 -0.10476894 -0.042172194 -0.006911344 -0.01683624 -0.14839152 0.11124534
0.1401633 0.17237881 -0.17444792 -0.09273548 0.044765737 0.15358207 0.15852125 -0.04593862
-0.21382083 -0.115876995 -0.107014835 0.20438574 -0.053689484 -0.07153455 -0.059130337 0.2023984
0.022441965 0.16709785 0.113249876 0.249777 0.0758681 -0.031221133 -0.18795712 0.10452573
00000000: 3ffe 3a3e bb3d 6c3e 131d 113e 032e 503d
00000010: 8005 253d b807 113e 538f 4c3c f4be 9cbc
00000020: e16b 2abd ef0b b23d c008 fcbc 4145 9fbd
00000030: f892 393e c83d 143d 9d10 2f3e f8af 7abd
00000040: 5331 3a3d 93c6 54be 18b5 f1bd fe96 c5bd
00000050: 97ba 153e fb8f 203c 19b4 3a3e 490c 28be
00000060: 6d27 6bbe f7cd 64be 197c 143e fa6e cb3d
00000070: d1bc ce3d 92ba b93d a8f3 4e3e ff79 943b
00000080: d596 3e3d d86e e43d 1991 d6bd c0bc 2cbd
00000090: 8e78 e2bb 28ec 89bc f2f3 17be 99d4 e33d
000000a0: f886 0f3e 1284 303e 7aa2 32be 19ec bdbd
000000b0: 475c 373d 9e44 1d3e 6553 223e 222a 3cbd
000000c0: d9f3 5abe eb50 edbd 982a dbbd 7f4a 513e
000000d0: 81e9 5bbd b580 92bd a732 72bd 8741 4f3e
000000e0: 36d8 b73c b31b 2b3e 8def e73d 8bc5 7f3e
000000f0: bc60 9b3d 76c3 ffbc d577 40be 9611 d63d
