Save_Models/model-lat18.pth (torch, 195382 bytes, 16 tensors)

encoder.0.weight f4 [128, 99]
-0.07440014 -0.10374692 -0.19598332 -0.015049482 -0.15936314 -0.17047878 -0.017656222 -0.03688399
-0.100822605 -0.16008534 -0.12588155 -0.17898074 -0.08203985 -0.084142745 0.009098425 -0.1746156
-0.101014145 -0.14497669 -0.15360658 -0.004629862 -0.08287581 -0.1574986 -0.00021397864 -0.10507638
-0.058889784 -0.03984493 0.0025348589 -0.05504507 -0.016292855 0.031069215 -0.085529014 -0.117120035
-0.02159192 0.007182208 -0.08634703 -0.12663272 0.047124512 0.022875533 0.03963384 -0.06517135
-0.072792634 0.0044837217 0.0076813065 0.07574827 0.061947335 -0.0133463 0.056277778 -0.09489857
-0.062304962 0.06137091 -0.012455564 0.097737886 0.08529807 0.07695612 -0.0690712 0.016830474
-0.062110744 0.050855197 0.03164772 0.0005473156 0.0036166024 -0.028386613 0.06255625 0.029459696
0.111817114 0.05874437 -0.03755973 0.09412607 0.08481046 0.13838066 0.0882269 0.056255803
0.083042376 0.08950802 -0.019748338 -0.03538897 -0.029544117 0.070028014 -0.01711584 0.13284528
-0.01972732 0.1390528 0.011802863 0.11396703 0.064145304 0.06540455 0.09304536 0.13349894
0.09302193 -0.021168867 0.102979556 0.08838983 -0.03262906 0.06916372 -0.017518623 0.0115117375
0.010969641 0.020815736 0.15099895 -0.13755488 -0.1423726 -0.046201233 -0.022776555 0.043033857
-0.021054456 -0.06649364 -0.07869342 0.04901258 0.029965028 -0.065909095 -0.08776375 -0.004899685
-0.07252536 -0.11864899 -0.019484757 -0.044688083 0.054240767 0.020618215 -0.058162913 -0.10951801
-0.10352829 -0.09371758 -0.002944415 0.01013326 -0.10392465 0.018851778 -0.04648761 -0.04270382
0.046042863 -0.057230767 -0.087532744 0.018923849 -0.10208027 -0.027732119 -0.08595008 -0.041529905
-0.07795002 -0.052987296 -0.0449586 -0.06878919 -0.05628411 -0.095029704 -0.054238755 -0.018870946
-0.09580126 -0.0011216763 -0.026066922 0.049562283 0.09888975 -0.027399346 0.03539294 0.023629844
-0.07889927 0.060111 -0.07436718 -0.016514743 0.08980453 0.0820201 0.011837188 -0.05800666
0.020012565 0.055849258 -0.010897704 0.08542544 -0.06820527 -0.034590393 0.06654791 0.066005155
-0.02896241 0.07946496 0.07859879 0.054349713 -0.033720583 0.0030867432 0.08586259 -0.031448618
0.09264086 0.068926856 0.11401212 0.024166377 0.0018145673 -0.01026535 -0.0017745277 -0.010261058
0.08362235 0.044714447 0.08614666 -0.0687536 0.11264941 -0.049986776 0.051634856 0.10552535
0.04673359 0.07585707 0.06706156 0.08757572 -0.073604904 -0.0048204926 -0.009955411 0.10340168
0.035702255 0.09475541 0.05275756 0.0031212233 -0.0823399 0.059505362 -0.06557391 -0.054837354
0.10187625 0.100246735 -0.058522213 0.0061344733 -0.0112028895 0.08167125 0.10822783 0.035279136
-0.021027645 0.12538143 0.063431524 0.09023384 0.033601616 0.08819997 -0.05566097 0.076811165
-0.06301115 -0.012153239 0.10179989 -0.0034565958 -0.034297097 -0.030300021 -0.018087016 0.13403824
-0.039050322 -0.05348187 0.12517066 -0.043090425 0.08475333 -0.021864181 0.028240476 0.05832907
0.0042795534 0.061576974 0.066231765 0.03033966 0.11915029 0.12851831 0.09951841 -0.040314317
0.077123895 -0.04895689 0.10558792 -0.043500677 -0.0036211347 0.1200093 0.03134577 -0.027005265
00000000: 1a5f 98bd 4479 d4bd daaf 48be 1a92 76bc
00000010: 1730 23be fd91 2ebe c8a3 90bc ab13 17bd
00000020: 157c cebd 69ed 23be 18e7 00be ba46 37be
00000030: 8204 a8bd 0853 acbd 8f11 153c 6fce 32be
00000040: 81e0 cebd c574 14be 0b4b 1dbe 19b6 97bb
00000050: cbba a9bd 5047 21be 745f 60b9 4932 d7bd
00000060: 6a36 71bd 7034 23bd e01f 263b f076 61bd
00000070: 9878 85bc de84 fe3c d629 afbd a1dc efbd
00000080: 8ae1 b0bc ba58 eb3b b6d6 b0bd 02ac 01be
00000090: a205 413d 7865 bb3c 1857 223d 8f78 85bd
000000a0: 4e14 95bd 2fec 923b 78b3 fb3b e921 9b3d
000000b0: 7dbc 7d3d 71aa 5abc 8783 663d 2e5a c2bd
000000c0: 7d33 7fbd 1060 7b3d 6c12 4cbc cd2a c83d
000000d0: c1b0 ae3d 2c9b 9d3d 3475 8dbd 10e0 893c
000000e0: d667 7ebd 8a4d 503d 0aa1 013d ba79 0f3a
000000f0: 8504 6d3b 0b8b e8bc 7e1d 803d 7655 f13c
00000100: 5f00 e53d f09d 703d 3bd8 19bd 2bc5 c03d
00000110: 1bb1 ad3d a9b3 0d3e 4eb0 b43d 7c6c 663d
00000120: 1f12 aa3d fb4f b73d 44c7 a1bc 06f4 10bd
00000130: 8106 f2bc d96a 8f3d 8536 8cbc 9808 083e
00000140: 309b a1bc db63 0e3e cc60 413c 8c67 e93d
00000150: 9d5e 833d d2f2 853d 918e be3d f2b3 083e
00000160: 4882 be3d 556a adbc f2e6 d23d ba05 b53d
00000170: 0da6 05bd b5a5 8d3d 3783 8fbc ba9b 3c3c
00000180: 02ba 333c c385 aa3c 789f 1a3e 30db 0cbe
00000190: 1fca 11be 813d 3dbd e695 babc 4544 303d
000001a0: 657a acbc d12d 88bd 042a a1bd 6ac1 483d
000001b0: 3879 f53c 59fb 86bd 7bbd b3bd 898d a0bb
000001c0: 2d88 94bd 3efe f2bd 7f9e 9fbc da0a 37bd
000001d0: 912b 5e3d 88e7 a83c 3c3c 6ebd fa4a e0bd
000001e0: a406 d4bd 01ef bfbd 16f7 40bb f905 263c
000001f0: 72d6 d4bd 0b6f 9a3c cb69 3ebd 33ea 2ebd
00000200: 7197 3c3d cf6a 6abd 5e44 b3bd 3006 9b3c
00000210: 760f d1bd 782e e3bc 9806 b0bd 431b 2abd
00000220: 43a4 9fbd 3509 59bd 8226 38bd 59e1 8cbd
00000230: 2b8a 66bd ef9e c2bd 7529 5ebd 3e97 9abc
00000240: 7333 c4bd 3605 93ba 4c8a d5bc d201 4b3d
00000250: b686 ca3d 9874 e0bc 30f8 103d 6093 c13c
00000260: f195 a1bd f436 763d d24d 98bd ed49 87bc
00000270: 70eb b73d 27fa a73d c4f0 413c 6498 6dbd
00000280: 64f1 a33c 31c2 643d 498c 32bc 88f3 ae3d
00000290: 34af 8bbd a8ae 0dbd 454a 883d b62d 873d
000002a0: 9342 edbc 86be a23d 67f8 a03d ce9d 5e3d
000002b0: 981e 0abd f54a 4a3b bad8 af3d 44d0 00bd
000002c0: 7eba bd3d 8629 8d3d 307f e93d 91f8 c53c
000002d0: c6d6 ed3a 0030 28bc 4597 e8ba ff1d 28bc
000002e0: 3242 ab3d 7f26 373d a96d b03d b0ce 8cbd
000002f0: bcb4 e63d efbe 4cbd 127f 533d ad1d d83d
00000300: b96b 3f3d f45a 9b3d 9257 893d e65a b33d
00000310: 2bbe 96bd 39f5 9dbb 051c 23bc 43c4 d33d
00000320: 873c 123d 200f c23d 5018 583d 708d 4c3b
00000330: d2a1 a8bd e5bb 733d 9d4b 86bd 229d 60bd
00000340: 7fa4 d03d 294e cd3d fdb4 6fbd b103 c93b
00000350: 538c 37bc 4243 a73d 8da6 dd3d db80 103d
00000360: 2b42 acbc fd63 003e 63e8 813d 85cc b83d
00000370: d9a1 093d 30a2 b43d c2fc 63bd 2c4f 9d3d
00000380: fd0b 81bd 611e 47bc 767c d03d 0e88 62bb
00000390: 1d7b 0cbd c037 f8bc 392b 94bc 5241 093e
000003a0: 3bf3 1fbd ce0f 5bbd bd2c 003e 967f 30bd
000003b0: 2793 ad3d 831c b3bc 9258 e73c 77ea 6e3d
000003c0: 7f3b 8c3b 2338 7c3d 85a4 873d e18a f83c
000003d0: 1105 f43d 4e9a 033e 4fd0 cb3d a020 25bd
000003e0: 22f3 9d3d 0587 48bd 7b3e d83d c42d 32bd
000003f0: 8f50 6dbb 70c7 f53d 6c64 003d 253a ddbc

encoder.0.bias f4 [128]
-0.01434542 -0.100335635 -0.1896932 0.04136079 -0.1375772 -0.06183266 -0.01616355 0.05887492
-0.053223692 -0.034558754 -0.12237097 -0.0178219 -0.065242454 -0.089769445 -0.07835568 0.013119141
-0.13780469 -0.0142997885 -0.13680641 0.003666773 -0.06427741 -0.13907084 -0.19083865 -0.023381094
-0.1333927 -0.11473415 -0.11667083 0.04147639 -0.08263613 0.0035592546 0.01070489 0.03338438
-0.078661256 -0.16022752 -0.013070746 0.0064905784 -0.097746365 -0.012909548 -0.087619774 -0.09238605
-0.0039991243 -0.021335302 0.013983854 -0.05878441 -0.13232824 -0.02841624 -0.06503041 -0.15265861
-0.3254701 -0.0978075 -0.1345314 -0.14749601 -0.0097343465 0.030023018 0.05096017 -0.097058184
-0.17486788 0.11047339 -0.1090131 -0.032910433 0.038239725 0.017331298 -0.13265723 -0.022404652
-0.10687091 -0.13456003 -0.07601618 -0.13549872 0.002263479 -0.033248104 -0.13817446 -0.15098588
-0.010053737 -0.14387038 0.028685091 0.02009263 -0.025489844 0.038531158 0.012210229 -0.16363037
-0.00043293086 -0.13858214 -0.08462791 -0.09048104 0.010475617 0.021053493 -0.13106926 -0.033305723
-0.08897375 -0.004935299 -0.13503192 -0.057859402 -0.19196953 -0.008920038 -0.04375268 0.013315465
0.051344194 -0.10151284 0.021593908 0.09428785 -0.034782354 -0.05788918 0.03458913 -0.041554626
-0.111584865 -0.0072425148 -0.11176514 -0.06516083 -0.07513812 -0.007501058 0.023221867 -0.07707502
-0.12597005 0.05058737 -0.19515075 0.013185601 -0.15305881 -0.12101267 -0.15016194 -0.092605926
0.0058398885 -0.12045273 -0.041254126 -0.06468743 0.039085984 -0.100451976 -0.07754869 -0.048072446
00000000: 0d09 6bbc c57c cdbd ef3e 42be ef69 293d
00000010: 0ae1 0cbe 3e44 7dbd 6c69 84bc d426 713d
00000020: 1601 5abd 7b8d 0dbd a29d fabd 3cff 91bc
00000030: d69d 85bd 0bd9 b7bd f178 a0bd aaf1 563c
00000040: ac1c 0dbe a949 6abc fb16 0cbe 3e4e 703b
00000050: e0a3 83bd 9668 0ebe 356b 43be b589 bfbc
00000060: 1998 08be bdf9 eabd 1ef1 eebd 26e3 293d
00000070: 223d a9bd 6242 693b 9063 2f3c 0fbe 083d
00000080: 2719 a1bd af12 24be af26 56bc ebae d43b
00000090: 3f2f c8bd 9282 53bc ff71 b3bd e634 bdbd
000000a0: 160b 83bb 5fc7 aebc 891c 653c ecc7 70bd
000000b0: 0e81 07be 2dc9 e8bc aa2e 85bd 8a52 1cbe
000000c0: 04a4 a6be 4c4f c8bd 99c2 09be 3209 17be
000000d0: cf7c 1fbc d5f2 f53c 9cbb 503d 71c6 c6bd
000000e0: 9110 33be df3f e23d 4342 dfbd 17cd 06bd
000000f0: 42a1 1c3d 5efa 8d3c 4cd7 07be f689 b7bc
00000100: 23df dabd 1bca 09be 5fae 9bbd 2dc0 0abe
00000110: e056 143b 2a2f 08bd 9b7d 0dbe 0b9c 1abe
00000120: 6eb8 24bc c252 13be fffc ea3c 4d99 a43c
00000130: 14d0 d0bc d9d2 1d3d 6a0d 483c b88e 27be
00000140: fffa e2b9 7ae8 0dbe 6651 adbd 204e b9bd
00000150: eca1 2b3c 6078 ac3c 0537 06be 956b 08bd
00000160: df37 b6bd 4ab8 a1bb cf45 0abe fbfd 6cbd
00000170: a993 44be 5a25 12bc 0336 33bd 1c29 5a3c
00000180: 4a4e 523d f7e5 cfbd b5e5 b03c fd19 c13d
00000190: f177 0ebd 341d 6dbd 55ad 0d3d 2f35 2abd
000001a0: 9b86 e4bd 9e52 edbb 1fe5 e4bd 0b73 85bd
000001b0: 04e2 99bd 6fcb f5bb c93b be3c 82d9 9dbd
000001c0: 4bfe 00be b434 4f3d 99d5 47be 6b08 583c
000001d0: 73bb 1cbe 7ed5 f7bd 0dc4 19be 2da8 bdbd
000001e0: 895c bf3b ecaf f6bd 16fa 28bd d87a 84bd
000001f0: a018 203d c4b9 cdbd d9d1 9ebd 9de7 44bd

encoder.3.weight f4 [64, 128]
0.027156256 -0.06576215 0.10465779 -0.0771871 0.02963103 -0.02889664 0.08089385 0.009582828
0.039477825 -0.028526612 -0.058209922 -0.04948835 -0.053149123 0.07504679 -0.04333326 -0.046915237
-0.08392523 -0.018937899 -0.04119431 0.10835526 -0.08405847 -0.027641913 0.0019789569 0.075765155
0.10933162 0.053222146 -0.027568381 0.08926215 -0.06857006 -0.07578873 0.040420152 -0.045834176
-0.11585275 0.06284119 -0.055874154 -0.018114401 0.031257138 -0.06627969 -0.04100174 0.055588994
0.00023764966 0.0013203899 0.033560377 0.059974782 0.0132892225 0.046470042 -0.018694872 -0.051848013
0.11454932 0.08551259 0.005583839 0.012977426 0.018890118 -0.032469533 0.036534965 0.009412947
0.09855007 -0.056988697 -0.025970161 -0.055936377 -0.010875027 -0.05171579 0.057091855 -0.0038017286
0.06798269 0.05692213 -0.010444669 0.0220674 0.089692324 0.09211247 0.04381865 0.016450822
0.081691295 0.13439253 0.09212398 -0.05748403 0.08518271 0.03899981 0.045046113 -0.08299597
-0.024221698 -0.011093236 0.09502975 -0.06660558 0.025212914 0.042887166 -0.013038467 0.013686017
0.026990987 0.0750096 -0.07656281 0.007446668 0.0406065 0.08494259 0.061515782 -0.07416898
-0.04716748 -0.014684341 -0.08520379 0.039921638 -0.00080585893 0.041503083 -0.08032894 0.019045694
0.06462725 -0.040534865 -0.013703173 0.031053636 0.098162234 -0.08248111 0.07950417 0.07320051
0.09665761 -0.0136015685 -0.059894234 -0.044365253 -0.028463516 -0.023530304 -0.019704903 0.011619421
-0.03300944 -0.021294462 -0.07418693 -0.040327106 0.03841295 -0.050007053 -0.008809157 -0.10825923
-0.04784904 -0.00015727003 0.031911768 -0.029665658 -0.013445317 0.08622938 0.077938795 0.08663526
0.0065825605 -0.07530301 0.030123543 -0.10154 -0.035839874 -0.024482455 0.07925545 -0.080631405
-0.029237533 0.11613967 -0.04791031 -0.039181437 -0.07511111 0.072110936 0.010322229 -0.035752866
-0.006816101 -0.02234405 0.023766093 -0.058471225 0.009788864 0.08477715 -0.025756393 0.046579856
-0.039656255 0.13299356 0.16517524 -0.07867391 -0.09966812 -0.04777721 -0.0194556 -0.02075665
0.029015047 -0.018290706 0.011685633 -0.022248322 0.09981063 0.016848376 -0.061878756 -0.036281586
0.036260027 0.11293418 -0.059060097 -0.060306184 -0.032720927 -0.06533172 -0.03327229 -0.02257681
0.0737726 -0.043452855 0.11677416 -0.07167251 0.050363947 -0.123015635 -0.006134777 -0.019324262
-0.0028961084 -0.05642704 0.014482188 0.008238502 0.10764424 0.04960146 0.008590979 -0.0046808524
-0.031123223 0.12646449 -0.050733916 0.082823 -0.013575609 0.08736381 -0.030999994 -0.01060283
-0.015321894 -0.017947545 0.023021918 0.038827494 -0.009979852 0.059110805 0.12744269 -0.01433066
-0.051358633 -0.10761108 -0.06553983 -0.057289444 0.0053812517 -0.004808484 -0.046221264 -0.04121757
-0.04372118 0.12116795 -0.04794177 0.113023706 0.09876465 -0.120768435 0.017794695 -0.0038080718
-0.0833285 0.047923163 0.007283225 0.11914836 0.0067175524 -0.0048063337 -0.016238125 0.107670516
0.014262069 -0.01336101 -0.015447925 -0.052752044 0.04086229 -0.025687523 -0.124085054 0.053422775
0.075829744 -0.017624142 -0.026728258 -0.025973355 0.045419965 -0.02751619 -0.07979028 -0.09085903
00000000: cc76 de3c 4eae 86bd d356 d63d 4514 9ebd
00000010: c6bc f23c a5b8 ecbc adab a53d 4b01 1d3c
00000020: 80b3 213d a4b0 e9bc 876d 6ebd 4cb4 4abd
00000030: e5b2 59bd 22b2 993d 377e 31bd 312a 40bd
00000040: fee0 abbd a723 9bbc 5dbb 28bd 5de9 dd3d
00000050: d926 acbd 4b71 e2bc 63b1 013b c32a 9b3d
00000060: 42e9 df3d 77ff 593d 16d7 e1bc 13cf b63d
00000070: 766e 8cbd 1f37 9bbd 9a8f 253d 9ebc 3bbd
00000080: 3544 edbd e2b2 803d 4cdc 64bd a764 94bc
00000090: 7c07 003d a5bd 87bd 71f1 27bd 49b1 633d
000000a0: 9831 7939 ef10 ad3a 9b76 093d 1ea8 753d
000000b0: 0abb 593c 5f57 3e3d fd25 99bc 955e 54bd
000000c0: d598 ea3d 3a21 af3d a3f8 b63b 459f 543c
000000d0: 73bf 9a3c c6fe 04bd b0a5 153d c338 1a3c
000000e0: 9ed4 c93d fb6c 69bd 60bf d4bc 8b1d 65bd
000000f0: 2b2d 32bc f0d3 53bd 26d9 693d 6c26 79bb
00000100: 823a 8b3d 2e27 693d 1e20 2bbc b1c6 b43c
00000110: 9cb0 b73d 76a5 bc3d 2f7b 333d e0c3 863c
00000120: c44d a73d 329e 093e 7fab bc3d 6074 6bbd
00000130: 4674 ae3d 44be 1f3d 4682 383d cbf9 a9bd
00000140: 956c c6bc 67c0 35bc f59e c23d 8268 88bd
00000150: 508b ce3c 74aa 2f3d 4b9f 55bc 513b 603c
00000160: 341c dd3c a29e 993d f6cc 9cbd 2e03 f43b
00000170: 0053 263d 61f6 ad3d f9f7 7b3d e8e5 97bd
00000180: b032 41bd 9796 70bc 537f aebd df84 233d
00000190: 4740 53ba 23ff 293d 8083 a4bd b705 9c3c
000001a0: 4b5b 843d e307 26bd 4683 60bc 3264 fe3c
000001b0: 4809 c93d dbeb a8bd 15d3 a23d 26ea 953d
000001c0: 6df4 c53d 1dd9 5ebc a853 75bd 57b8 35bd
000001d0: 522c e9bc a0c2 c0bc 2d6c a1bc 625f 3e3c
000001e0: e834 07bd b971 aebc 51ef 97bd 092e 25bd
000001f0: e656 1d3d 32d4 4cbd 4854 10bc 04b7 ddbd
00000200: 5bfd 43bd dae8 24b9 eab5 023d 6505 f3bc
00000210: bf49 5cbc 0799 b03d 609e 9f3d d46d b13d
00000220: 85b2 d73b 7738 9abd a6c5 f63c 34f4 cfbd
00000230: d5cc 12bd 6e8f c8bc ae50 a23d 1422 a5bd
00000240: 8d83 efbc a3da ed3d 9a3d 44bd b77c 20bd
00000250: dbd3 99bd e6ae 933d 911e 293c 9971 12bd
00000260: 9959 dfbb df0a b7bc 1cb1 c23c 867f 6fbd
00000270: 7961 203c a49f ad3d 12ff d2bc 85ca 3e3d
00000280: 996e 22bd 772f 083e b323 293e c91f a1bd
00000290: cd1e ccbd 09b2 43bd 5a61 9fbc da09 aabc
000002a0: f7b0 ed3c 64d6 95bc 1975 3f3c 1d42 b6bc
000002b0: 8469 cc3d 9b05 8a3c 9474 7dbd 009c 14bd
000002c0: 6585 143d 094a e73d 00e9 71bd 9e03 77bd
000002d0: 6106 06bd a3cc 85bd 8648 08bd 01f3 b8bc
000002e0: 1716 973d 9ffb 31bd 4a27 ef3d 09c9 92bd
000002f0: 6d4a 4e3d 9fef fbbd 3d06 c9bb ea4d 9ebc
00000300: a3cc 3dbb 0a20 67bd b346 6d3c c8fa 063c
00000310: 9574 dc3d e72a 4b3d 2dc1 0c3c d661 99bb
00000320: 21f6 febc e87f 013e 5ece 4fbd 1b9f a93d
00000330: 3b6c 5ebc cceb b23d b3f3 fdbc 7eb7 2dbc
00000340: ae08 7bbc bb06 93bc 7698 bc3c 9409 1f3d
00000350: 8882 23bc 2c1e 723d 5680 023e 25cb 6abc
00000360: 6e5d 52bd 3363 dcbd bf39 86bd 56a8 6abd
00000370: 3655 b03b 7d90 9dbb 8252 3dbd c1d3 28bd
00000380: fb14 33bd e726 f83d 975e 44bd f978 e73d
00000390: 1f45 ca3d 7155 f7bd 2ec6 913c d890 79bb
000003a0: 22a8 aabd 144b 443d 1fa8 ee3b 0e04 f43d
000003b0: ea1e dc3b 737e 9dbb d105 85bc 5c82 dc3d
000003c0: 74ab 693c 23e8 5abc 4b19 7dbc 8712 58bd
000003d0: 375f 273d a46e d2bc 4e20 febd d7d1 5a3d
000003e0: a04c 9b3d 8160 90bc 38f5 dabc 13c6 d4bc
000003f0: 490a 3a3d a269 e1bc 1669 a3bd 4d14 babd

encoder.3.bias f4 [64]
-0.12648353 -0.10992736 0.026616707 -0.06023558 0.06855434 0.021937873 -0.012500605 -0.058460906
-0.025720492 0.033150367 -0.0937342 -0.14295855 0.011546838 -0.06736459 -0.092947945 -0.06733814
-0.023918753 0.01862874 -0.031915974 -0.033550132 -0.1361577 -0.057323404 -0.06299048 -0.102043554
0.055546466 -0.1251563 -0.042991344 -0.031174613 -0.11689502 -0.0025710687 -0.14559461 -0.05748282
-0.02041084 0.033308435 0.032729547 0.028392395 0.029612243 -0.0825809 0.02582833 0.038161103
-0.051542837 0.051118243 -0.040483795 -0.04993483 0.046101034 -0.16451807 0.036173347 0.040205102
-0.109283976 -0.07345834 -0.089946 0.04269641 0.018830918 -0.084601544 -0.105016686 0.06690783
-0.17652172 0.07105328 -0.058221433 -0.09967055 -0.06407371 -0.022554692 -0.11628838 -0.03622396
00000000: e684 01be 9921 e1bd 480b da3c 95b9 76bd
00000010: 3866 8c3d 0eb7 b33c 56cf 4cbc b474 6fbd
00000020: c8b3 d2bc aec8 073d b7f7 bfbd ba63 12be
00000030: f32e 3d3c 72f6 89bd 7e5b bebd 94e8 89bd
00000040: 43f1 c3bc 4d9b 983c 53ba 02bd dd6b 09bd
00000050: ed6c 0bbe f2cb 6abd 2701 81bd 36fc d0bd
00000060: b184 633d f928 00be b117 30bd e761 ffbc
00000070: a866 efbd 607f 28bb c116 15be 1b73 6bbd
00000080: a234 a7bc 6d6e 083d 6b0f 063d 2b97 e83c
00000090: 6095 f23c 2d20 a9bd ef95 d33c d14e 1c3d
000000a0: 951e 53bd 5d61 513d 56d2 25bd 7788 4cbd
000000b0: 70d4 3c3d 6d77 28be 812a 143d 1bae 243d
000000c0: 47d0 dfbd 5371 96bd 9c35 b8bd 6ee2 2e3d
000000d0: 4c43 9a3c 9343 adbd fd12 d7bd f906 893d
000000e0: 1cc2 34be 6284 913d 9979 6ebd 1320 ccbd
000000f0: 1439 83bd 9ec4 b8bc 9a28 eebd 935f 14bd

encoder.6.weight f4 [32, 64]
0.056177523 -0.061499525 -0.05833861 0.043459505 -0.014681499 0.12782654 0.057504788 -0.1560926
-0.046095926 0.07143443 -0.05555881 -0.0069119832 0.14788708 -0.09395903 0.13777603 0.11922927
-0.21347296 -0.19728202 0.07773461 -0.12531896 -0.09781786 0.026094398 0.038801316 0.04354141
0.11285957 0.045804482 -0.085008405 0.11618233 -0.08661568 0.00022085109 0.07513286 0.057003718
-0.002469994 -0.08895797 -0.05132711 -0.16727436 -0.28606626 0.016135937 -0.0064921905 0.013952244
0.029851701 -0.082116686 0.119765006 0.025577698 0.0064065056 -0.06085328 -0.07798855 0.033977956
0.0048075486 -0.06234655 -0.04580553 0.128946 -0.106018946 0.015240052 0.09641502 0.070613
-0.038684525 0.028191967 0.044028558 0.12797995 0.14768821 0.03868475 -0.033251 0.09779762
-0.021597166 0.2173772 0.109071754 -0.0881974 0.021758396 -0.14870068 -0.05540109 0.12571171
0.07135516 0.033035517 -0.16023728 0.027739178 -0.18663278 0.023769353 -0.031077823 -0.13907707
0.110571355 0.0147311315 -0.045092084 0.10858796 0.02378365 0.123283856 0.030728556 -0.018110605
-0.0047466797 0.062299017 0.106140085 -0.031907797 -0.0018050066 0.04363861 0.023530517 -0.08883347
0.08868734 -0.02050126 -0.016315062 0.10893363 0.08369631 -0.09358871 -0.060522597 -0.045984387
0.10037118 0.11335177 0.027470088 0.08615701 0.12762746 0.0030017428 -0.04814144 0.045137074
0.10230413 0.07834971 0.12565279 0.008720169 0.0710441 0.0035516527 -0.10469139 0.014250618
0.08086626 0.112799115 -0.07273159 -0.090987355 0.102014236 -0.10852374 0.19384168 -0.03932366
0.09120986 -0.12066729 -0.12821418 0.115630224 0.059397087 -0.046907257 -0.110314876 -0.055571117
-0.14363246 0.10895665 -0.160677 0.034090526 0.10201619 -0.035485983 0.02334503 -0.04622384
-0.061830908 -0.019928996 -0.09358192 -0.10305159 -0.08249759 -0.028037533 0.15702856 0.019990383
-0.040407877 0.0010221137 0.15914905 -0.14781588 0.12011866 0.060554862 -0.027482435 0.04215187
-0.055627108 0.12907949 -0.12825565 0.14145188 -0.06369238 0.021051683 -0.07931205 0.025332572
-0.05230434 -0.019531723 0.04245314 -0.08222309 0.14292283 0.009780888 -0.09260577 -0.0374157
-0.03820501 -0.082333066 0.02931199 -0.11814677 0.098043114 0.13100931 0.08871443 0.10346525
-0.13447167 0.021518692 0.0043601342 0.027140876 0.16510364 0.09570277 -0.058033835 -0.06939066
0.107281454 0.11896713 -0.022048058 0.031564247 0.026144572 -0.16757412 0.06049708 0.07015663
0.099937715 -0.031850267 -0.13102233 0.04985882 -0.050187726 -0.03906273 -0.14991254 -0.1492843
-0.029742869 0.115985334 -0.23848861 0.1561227 0.1416196 -0.039158132 0.08068228 0.065414235
-0.13148485 0.019576907 -0.090790085 -0.08695405 -0.043942414 -0.099773385 0.07755218 0.064483285
-0.1634031 0.014779029 0.027080368 0.010265871 -0.08403038 -0.029207293 -0.10365023 -0.09561942
0.00016565842 -0.09673918 0.118249014 -0.049491283 0.020284384 0.01867086 0.039809242 -0.06481137
-0.012194142 0.049828243 0.1269352 -0.022497883 0.06442137 0.1630752 -0.0016651157 0.049486067
0.19752163 -0.08969847 0.022579681 0.033764634 -0.029021008 -0.06442907 0.108199894 -0.2200977
00000000: 671a 663d ede6 7bbd 77f4 6ebd 9802 323d
00000010: ac8a 70bc f6e4 023e 248a 6b3d bdd6 1fbe
00000020: 15cf 3cbd 374c 923d a291 63bd eb7d e2bb
00000030: b66f 173e 986d c0bd 2915 0d3e 7a2e f43d
00000040: a898 5abe 4c04 4abe 5333 9f3d 9d53 00be
00000050: bb54 c8bd ebc3 d53c 21ee 1e3d 7a58 323d
00000060: eb22 e73d 7b9d 3b3d e318 aebd 00f1 ed3d
00000070: 9063 b1bd 4394 6739 42df 993d bb7c 693d
00000080: 9fdf 21bb 992f b6bd 603c 52bd f849 2bbe
00000090: 4777 92be 832f 843c 71bc d4bb f497 643c
000000a0: 8e8b f43c cb2c a8bd 5b47 f53d 5288 d13c
000000b0: aaed d13b 4a41 79bd 76b8 9fbd 782c 0b3d
000000c0: a488 9d3b 195f 7fbd 949e 3bbd 6c0a 043e
000000d0: 7620 d9bd 69b1 793c 3d75 c53d 8c9d 903d
000000e0: aa73 1ebd d7f2 e63c 4a57 343d 2d0d 033e
000000f0: 943b 173e e773 1e3d 3332 08bd 1e4a c83d
00000100: 8aec b0bc 2198 5e3e 0361 df3d d7a0 b4bd
00000110: aa3e b23c fe44 18be 41ec 62bd 92ba 003e
00000120: a722 923d 4050 073d 3e15 24be 463d e33c
00000130: aa1c 3fbe f2b7 c23c eb96 febc 386a 0ebe
00000140: 3c73 e23d d85a 713c 7ab2 38bd 5d63 de3d
00000150: eed5 c23c 3f7c fc3d 74ba fb3c b15c 94bc
00000160: 098a 9bbb 412d 7f3d f95f d93d c0b1 02bd
00000170: f995 ecba 66be 323d 12c3 c03c 53ee b5bd
00000180: b5a1 b53d 42f2 a7bc 2aa7 85bc 9818 df3d
00000190: f968 ab3d 70ab bfbd 8be6 77bd 205a 3cbd
000001a0: 688f cd3d f924 e83d f308 e13c 1673 b03d
000001b0: c6b0 023e e3b8 443b f52f 45bd a7e1 383d
000001c0: d484 d13d d075 a03d 20ab 003e 0adf 0e3c
000001d0: 927f 913d d8c2 683b 7168 d6bd 6d7b 693c
000001e0: 369d a53d 3903 e73d 4df4 94bd 9457 babd
000001f0: d7ec d03d b241 debd 6f7e 463e d911 21bd
00000200: 3ccc ba3d 6a20 f7bd 944a 03be 8acf ec3d
00000210: 5c4a 733d d321 40bd c4ec e1bd 8a9e 63bd
00000220: 6314 13be aa24 df3d 8388 24be 82a2 0b3d
00000230: dded d03d c059 11bd 143e bf3c 3655 3dbd
00000240: 6842 7dbd 2242 a3bc e1a7 bfbd b60c d3bd
00000250: 7ff4 a8bd f8ae e5bc 18cc 203e dfc2 a33c
00000260: bb82 25bd 72f8 853a f8f7 223e 0c5d 17be
00000270: c600 f63d 6008 783d d822 e1bc 70a7 2c3d
00000280: 40d9 63bd 6a2d 043e 7355 03be c3d8 103e
00000290: 2771 82bd 9474 ac3c 5b6e a2bd 4186 cf3c
000002a0: 133d 56bd fe00 a0bc 58e3 2d3d 9464 a8bd
000002b0: 5d5a 123e 0540 203c 18a8 bdbd 3441 19bd
000002c0: db7c 1cbd 3d9e a8bd b31f f03c eff6 f1bd
000002d0: d4ca c83d 4e27 063e e9af b53d 97e5 d33d
000002e0: f1b2 09be f847 b03c 75df 8e3b 8b56 de3c
000002f0: ee10 293e d0ff c33d e3b4 6dbd b11c 8ebd
00000300: 61b6 db3d 0aa5 f33d 219e b4bc 8349 013d
00000310: 242d d63c 8d98 2bbe c9cb 773d 47ae 8f3d
00000320: 25ac cc3d 6d75 02bd b82a 06be c338 4c3d
00000330: a591 4dbd 3e00 20bd ac82 19be fcdd 18be
00000340: 51a7 f3bc b889 ed3d 5c36 74be a1de 1f3e
00000350: ba04 113e 4764 20bd c03c a53d e6f7 853d
00000360: f7a3 06be c05f a03c 27f0 b9bd f714 b2bd
00000370: f6fc 33bd fd55 ccbd add3 9e3d d00f 843d
00000380: 2453 27be be23 723c a6d7 dd3c 2f32 283c
00000390: 1f18 acbd 2244 efbc 9246 d4bd 1dd4 c3bd
000003a0: 98b4 2d39 311f c6bd 8a2c f23d 5fb7 4abd
000003b0: 702b a63c a2f3 983c 040f 233d d3bb 84bd
000003c0: f0c9 47bc b318 4c3d 4dfb 013e 7b4d b8bc
000003d0: 5aef 833d 2ffd 263e 0340 daba e7b1 4a3d
000003e0: 1c43 4a3e d5b3 b7bd 06f9 b83c c94c 0a3d
000003f0: 77bd edbc 63f3 83bd e897 dd3d 4b61 61be

encoder.6.bias f4 [32]
0.028884115 0.008726659 -0.050098903 -0.092551544 0.0010684896 -0.07751054 0.08933605 0.069070086
0.08558631 0.06763602 -0.0010463961 0.04812922 0.086005755 -0.010344686 0.08406185 0.049207438
-0.10305419 -0.111469105 0.05207378 0.0013677094 -0.019191418 -0.14225572 -0.020695377 0.09021559
-0.034616444 -0.03578684 0.09743057 -0.062022593 -0.0892237 -0.085425474 -0.07899514 -0.057846885
00000000: 619e ec3c 43fa 0e3c 8234 4dbd aa8b bdbd
00000010: 900c 8c3a d9bd 9ebd d2f5 b63d 9e74 8d3d
00000020: e047 af3d c184 8a3d 3a27 89ba 2523 453d
00000030: c923 b03d c27c 29bc 9f28 ac3d bd8d 493d
00000040: 130e d3bd ea49 e4bd 514b 553d b644 b33a
00000050: 5237 9dbc 7cab 11be 5a89 a9bc f4c2 b83d
00000060: f9c9 0dbd 3995 12bd ae89 c73d 670b 7ebd
00000070: eaba b6bd 8df3 aebd 34c8 a1bd dbf0 6cbd

encoder.9.weight f4 [18, 32]
-0.21896891 0.15860905 0.14577264 -0.068689026 -0.07166042 -0.07585355 0.14698736 0.0875986
-0.079679444 0.15539157 -0.15264665 0.100187436 0.10221591 0.09865647 0.20266645 -0.060970243
-0.009860001 -0.074573435 0.1099328 -0.20647815 -0.12462637 0.15166505 -0.021797512 0.1524972
0.04751041 0.1782116 -0.13751535 0.106069915 -0.021884656 0.09924991 0.109405115 -0.015235462
-0.15092304 -0.023803674 0.09365869 -0.05888411 0.051848445 0.1356391 0.12714322 -0.07763425
0.17805673 0.05483222 -0.06136079 0.036257237 0.18718237 -0.11026323 0.089615725 -0.12223296
-0.15406907 -0.072763875 0.035879638 -0.19246705 -0.06919725 0.08456099 0.047554526 -0.049001448
-0.13172993 -0.07842631 0.042419482 0.029959071 -0.0804511 0.09509019 0.17703176 0.09752992
0.14572524 -0.17122595 -0.03146732 -0.067432314 -0.009537294 0.17956613 -0.12108435 -0.17965151
-0.010307537 0.12002044 -0.08171402 0.12665711 0.01888173 -0.06805033 0.1014675 0.030342592
-0.06420295 0.021407476 0.1729692 0.19520172 -0.1612507 0.027678095 -0.0008790613 -0.0782169
0.17779396 -0.09385939 0.13429306 -0.091348894 -0.10712999 0.017959988 -0.08384365 0.09802439
0.030786231 0.12581265 -0.11164274 0.15347104 -0.032636903 0.04185866 -0.11473625 0.09739959
0.033444308 0.102849565 0.059713718 0.08468461 0.070816524 -0.07123407 0.008536605 -0.16401152
0.09429683 -0.040940885 -0.13640337 0.04160158 0.04962517 0.18710408 0.17046085 -0.17534491
0.06493362 0.04973928 0.03231167 -0.10708546 0.058442153 0.11042633 0.07276587 -0.0049600992
0.054125283 0.13741578 -0.14454176 0.010948215 -0.11308646 0.2472487 0.1190863 -0.18590397
0.18517339 0.12587357 -0.17527628 -0.008640592 -0.008783947 -0.16905065 0.08056244 -0.07028431
-0.16334939 0.009389556 -0.050898388 -0.18426657 -0.15092084 -0.16968481 -0.03160907 -0.105133146
0.037110347 0.14764608 0.17313026 -0.11917218 -0.0006356427 -0.019096998 -0.12938133 -0.1676937
0.13665533 0.14896381 -0.1499047 0.17360783 0.11243109 -0.09714533 0.13445565 -0.07917525
0.14918572 -0.13990702 0.15228759 -0.15826441 -0.1430413 -0.14081189 -0.015061748 0.010221862
-0.13157032 -0.10488434 0.17504707 0.19726974 0.007501377 0.08623169 0.155574 -0.0608482
0.12278094 0.15189439 -0.12721114 0.2422011 0.15025952 0.07897242 0.14778346 0.030792909
-0.046963803 0.08278849 -0.12094665 0.19568525 0.1629765 0.06364234 -0.12556213 0.09886692
-0.09171074 0.17433172 0.16339189 0.106053405 0.080749646 0.096940696 -0.09982158 1.1666918e-05
0.10090555 0.028021362 -0.041711472 -0.119722255 -0.052053545 0.098881766 0.020071456 -0.015708137
-0.034363754 0.1075921 -0.13662896 0.21287225 -0.058936182 0.08980058 0.14760901 0.14436717
-0.17351177 0.13615416 0.13058221 0.1358056 0.082748204 0.18975016 0.16297176 0.048697617
0.032424994 0.11938017 0.15310721 0.105596475 0.012283282 0.010863882 0.13417703 -0.16815199
-0.053449705 0.06351321 -0.019777052 0.05320415 -0.14388494 -0.032012645 -0.11101238 0.13902247
-0.101398036 -0.06647799 0.17180215 0.13759404 0.16505277 0.10399648 0.08649027 -0.10878818
00000000: 6339 60be 696a 223e 6c45 153e d5ac 8cbd
00000010: b3c2 92bd 1b59 9bbd db83 163e e566 b33d
00000020: fa2e a3bd f81e 1f3e 674f 1cbe 122f cd3d
00000030: 9356 d13d 670c ca3d cb87 4f3e efbb 79bd
00000040: d78b 21bc f5b9 98bd 7324 e13d 026f 53be
00000050: 1c3c ffbd 154e 1b3e b290 b2bc 3a28 1c3e
00000060: 479a 423d 1a7d 363e d3d0 0cbe 2f3b d93d
00000070: 7347 b3bc 8943 cb3d ca0f e03d 299e 79bc
00000080: 928b 1abe ecff c2bc 21d0 bf3d 7730 71bd
00000090: 095f 543d fae4 0a3e d531 023e b5fe 9ebd
000000a0: 8154 363e c097 603d 7455 7bbd 7882 143d
000000b0: bcac 3f3e b0d1 e1bd 7388 b73d 4655 fabd
000000c0: 48c4 1dbe 3a05 95bd 87f6 123d 1516 45be
000000d0: 4ab7 8dbd 502e ad3d 89c8 423d beb5 48bd
000000e0: 36e4 06be f99d a0bd 0dc0 2d3d ba6c f53c
000000f0: 8cc3 a4bd a5be c23d d047 353e c4bd c73d
00000100: ff38 153e db55 2fbe e0e3 00bd f419 8abd
00000110: 4f42 1cbc 2fe0 373e 12fb f7bd 91f6 37be
00000120: f2e0 28bc 47cd f53d ae59 a7bd 67b2 013e
00000130: dcad 9a3c f95d 8bbd 31ce cf3d 0791 f83c
00000140: d67c 83bd bb5e af3c d71e 313e f6e2 473e
00000150: e71e 25be 2cbd e23c ce70 66ba 2f30 a0bd
00000160: 9f0f 363e 5a39 c0bd 1f84 093e 2115 bbbd
00000170: f866 dbbd d320 933c 38b6 abbd 03c1 c83d
00000180: 6833 fc3c 08d5 003e f3a4 e4bd 8327 1d3e
00000190: 46ae 05bd fc73 2b3d d7fa eabd 7079 c73d
000001a0: e6fc 083d cba2 d23d 5f96 743d 206f ad3d
000001b0: 4108 913d 2be3 91bd 1edd 0b3c a3f2 27be
000001c0: b21e c13d a1b1 27bd 53ad 0bbe 6b66 2a3d
000001d0: c343 4b3d 3698 3f3e 4a8d 2e3e 9e8d 33be
000001e0: ebfb 843d 6abb 4b3d 3e59 043d 9f4f dbbd
000001f0: 0a61 6f3d 3327 e23d 4606 953d 5488 a2bb
00000200: 79b2 5d3d b9b6 0c3e c102 14be 2460 333c
00000210: e099 e7bd c32e 7d3e 85e3 f33d 9c5d 3ebe
00000220: 189e 3d3e 00e5 003e a07b 33be 4591 0dbc
00000230: 8bea 0fbc 9d1b 2dbe ecfd a43d 38f1 8fbd
00000240: 1045 27be a7d6 193c d47a 50bd 60b0 3cbe
00000250: fe8a 1abe dbc1 2dbe 8378 01bd 0c50 d7bd
00000260: 0501 183d 8930 173e 0f49 313e 8b10 f4bd
00000270: 42a1 26ba 4f71 9cbc 8a7c 04be e6b7 2bbe
00000280: 60ef 0b3e f889 183e 9e80 19be 40c6 313e
00000290: 4542 e63d 21f4 c6bd beae 093e a226 a2bd
000002a0: 24c4 183e c943 0fbe 47f1 1b3e 1110 22be
000002b0: 6b79 12be fe30 10be 8dc5 76bc 9979 273c
000002c0: 5fba 06be 9acd d6bd 8a3f 333e 1401 4a3e
000002d0: 1cce f53b 3e9a b03d ca4e 1f3e f63b 79bd
000002e0: 9374 fb3d 348a 1b3e a343 02be 9103 783e
000002f0: a2dd 193e 4bbc a13d 8c54 173e 6941 fc3c
00000300: 1e5d 40bd 038d a93d e1b2 f7bd b761 483e
00000310: 50e3 263e ea56 823d 5c93 00be bd7a ca3d
00000320: d7d2 bbbd 0484 323e 3450 273e 8732 d93d
00000330: 1260 a53d d888 c63d 426f ccbd 08bd 4337
00000340: 92a7 ce3d 0e8d e53c a6d9 2abd f130 f5bd
00000350: 1936 55bd 8682 ca3d e56c a43c 5aae 80bc
00000360: 02c1 0cbd 3f59 dc3d 76e8 0bbe 2ffb 593e
00000370: 1167 71bd 5ee9 b73d d126 173e fdd4 133e
00000380: 12ad 31be ff6b 0b3e 58b7 053e a010 0b3e
00000390: e477 a93d de4d 423e 12e2 263e 2777 473d
000003a0: 12d0 043d 977d f43d 23c8 1c3e f742 d83d
000003b0: d23f 493c 6cfe 313c b465 093e 0930 2cbe
000003c0: 14ee 5abd 3713 823d 7c03 a2bc 98ec 593d
000003d0: 9356 13be b11f 03bd 755a e3bd e85b 0e3e
000003e0: c6a9 cfbd 9d25 88bd e7ec 2f3e 74e5 0c3e
000003f0: 9803 293e 1bfc d43d d021 b13d 56cc debd

encoder.9.bias f4 [18]
0.12960091 0.06608591 -0.09570258 0.09409655 0.012777233 0.20406161 -0.16648306 -0.07829231
-0.09180462 0.027528113 0.091924906 -0.17653911 -0.021895176 -0.046377845 -0.17674823 0.15639876
0.01570721 -0.08731574
00000000: 1ab6 043e 0d58 873d b7ff c3bd b1b5 c03d
00000010: 9957 513c 87f5 503e 897a 2abe b857 a0bd
00000020: 1004 bcbd a382 e13c 2043 bc3d abc6 34be
00000030: 835d b3bc b2f6 3dbd 7dfd 34be ff26 203e
00000040: 68ac 803c 98d2 b2bd

decoder.0.weight f4 [32, 18]
-0.22474852 -0.0320498 -0.0125637 0.050410632 -0.11619792 0.23644878 0.20860225 -0.12641168
0.08704337 -0.053154703 0.0630759 -0.15622365 0.0045667635 0.16756272 0.1834281 0.004718445
-0.15075839 -0.082368694 0.21475968 -0.10420932 0.008788051 0.03576037 0.05833382 0.20325306
-0.08767357 -0.1669399 0.21703231 0.23546833 -0.17883073 -0.19426933 -0.1451911 0.25385293
0.12694336 -0.11480151 -0.20157805 0.053948253 0.113937974 0.10495662 0.14235954 0.044995043
0.21329644 -0.11339658 0.14924371 -0.024039168 0.12357879 -0.19534844 -0.1673898 -0.14465141
0.13086365 0.037892792 -0.029904425 0.023881622 -0.19131689 -0.12993184 0.20389049 0.0073710326
-0.08491892 0.20823313 0.18884206 -0.2305091 0.23938492 -0.020155923 -0.22888856 -0.041858494
0.172341 -0.115529105 0.021263454 -0.0941251 -0.16369651 0.21031246 0.020352047 -0.18896055
0.07781645 0.14033072 -0.14994322 -0.05112771 -0.23170023 0.2567104 0.102754235 0.21113804
0.16800617 -0.09414667 0.2347197 -0.0043847836 0.19866024 0.08594245 0.05766109 -0.23181376
0.20939729 0.051826634 -0.01826043 0.050983656 -0.0494103 -0.08911741 0.14425558 -0.021297442
0.13979961 0.0735615 0.07702619 -0.07630628 -0.042674597 0.124007136 -0.02265188 0.013428599
0.13282965 0.12311807 -0.1631746 0.087967694 -0.07255607 -0.11720262 -0.03187582 -0.20759018
-0.01919479 -0.07062268 -0.20606767 -0.042164817 0.14441167 -0.035667535 -0.12117991 0.24160409
0.23954101 0.15035221 0.16209993 0.011333603 -0.12995778 -0.12824756 0.030734092 -0.18602896
-0.06112897 0.1538021 0.054954085 -0.17266154 0.13801222 -0.22208288 -0.18798329 -0.12039174
0.082673416 0.16313674 0.14928171 -0.08831284 -0.08162873 0.04438545 0.17201899 0.214835
0.08152408 0.113058954 -0.12125672 -0.061116017 0.2039136 0.14879742 0.1725235 0.19363393
0.101378724 0.27143958 -0.007933491 -0.090912625 0.05032268 -0.06946717 0.02535668 -0.08829172
0.20568143 0.15813209 0.10746956 -0.13187055 0.11585543 0.13976687 0.19767876 0.24975464
-0.18325737 -0.029397657 -0.23741159 -0.04572827 -0.20345296 0.17441827 0.18076816 0.02671545
-0.14579763 -0.20020948 0.073834755 -0.003807871 -0.11676754 -0.24002358 -0.10313336 0.05333837
-0.1938552 0.14759885 0.0313331 0.036305122 0.22352642 -0.081210494 0.066699535 -0.0039648917
0.08173978 -0.11042567 -0.038110383 0.14445923 0.066917844 -0.07852947 0.007887464 0.103581175
0.25664672 -0.1175024 0.089023605 0.21467082 0.23645669 -0.00632381 0.025664598 0.060894173
-0.16992983 -0.03886943 -0.12900439 -0.073084734 0.11439965 0.20926392 0.2517415 -0.19022709
0.23000571 0.24672146 -0.16643491 -0.23360899 0.059161197 -0.07777322 0.09806396 -0.031523835
0.11489613 0.18594798 0.00018333315 0.21095796 -0.1849662 0.072228 0.15420946 -0.06894576
0.05195883 0.02520026 0.10264216 -0.16790465 0.24361078 0.0592213 -0.07464912 0.037636183
0.000319549 0.027312752 0.04096993 0.09630576 -0.16227978 -0.19206819 -0.029521242 0.10749473
-0.0969162 0.26793706 0.12471505 0.12061058 0.15851484 0.18787088 -0.19201323 0.15557876
00000000: 7a24 66be a746 03bd fad7 4dbc 617b 4e3d
00000010: 2df9 edbd a11f 723e d49b 553e 1072 01be
00000020: cb43 b23d bfb8 59bd f02d 813d 18f9 1fbe
00000030: caa4 953b 9095 2b3e 93d4 3b3e 2f9d 9a3b
00000040: 6860 1abe ebb0 a8bd f6e9 5b3e b26b d5bd
00000050: c2fb 0f3c 7779 123d 72ef 6e3d 9221 503e
00000060: 338e b3bd 4bf2 2abe b83d 5e3e 9c1e 713e
00000070: 671f 37be 8aee 46be faac 14be 03f9 813e
00000080: 71fd 013e 0e1d ebbd 7a6a 4ebe d8f8 5c3d
00000090: 5058 e93d 7ff3 d63d b3c6 113e b94c 383d
000000a0: 626a 5a3e 773c e8bd 58d3 183e caed c4bc
000000b0: e016 fd3d 6c09 48be 3b68 2bbe 801f 14be
000000c0: 1f01 063e 7935 1b3d 20fa f4bc 64a3 c33c
000000d0: 93e8 43be da0c 05be abc8 503e b488 f13b
000000e0: f9e9 adbd 113b 553e d05f 413e 940a 6cbe
000000f0: 5221 753e 091e a5bc c361 6abe d073 2bbd
00000100: 297a 303e 869a ecbd b230 ae3c a9c4 c0bd
00000110: 0fa0 27be 265c 573e 56b9 a63c e07e 41be
00000120: 3b5e 9f3d dbb2 0f3e b78a 19be 4a6b 51bd
00000130: d342 6dbe 8c6f 833e d070 d23d 9234 583e
00000140: cf09 2c3e f8cf c0bd 5c5a 703e 3bae 8fbb
00000150: 976d 4b3e 9802 b03d 092e 6c3d 9660 6dbe
00000160: 3e6c 563e 2a48 543d e696 95bc 3dd4 503d
00000170: 7462 4abd 3083 b6bd bcb7 133e f977 aebc
00000180: a127 0f3e 69a7 963d e8bf 9d3d 7846 9cbd
00000190: 8fcb 2ebd 74f7 fd3d 6f90 b9bc a003 5c3c
000001a0: 7f04 083e 5425 fc3d 3e17 27be 6828 b43d
000001b0: 4798 94bd ed07 f0bd 3890 02bd 8592 54be
000001c0: 643e 9dbc a0a2 90bd 6703 53be 04b5 2cbd
000001d0: a7e0 133e 1f18 12bd 2c2d f8bd 1067 773e
000001e0: 3d4a 753e eef5 193e 86fd 253e 94b0 393c
000001f0: a713 05be 5453 03be 10c6 fb3c 607e 3ebe
00000200: 5f62 7abd 4c7e 1d3e 8917 613d 30ce 30be
00000210: 1353 0d3e b269 63be b17e 40be f28f f6bd
00000220: ae50 a93d 510d 273e 4edd 183e 5ddd b4bd
00000230: f72c a7bd 85cd 353d bf25 303e b5fd 5b3e
00000240: 19f6 a63d 748b e73d 7155 f8bd ca54 7abd
00000250: bace 503e 5a5e 183e 00aa 303e f947 463e
00000260: a69f cf3d 21fa 8a3e 79fb 01bc 6630 babd
00000270: 281f 4e3d ce44 8ebd d0b8 cf3c 4ad2 b4bd
00000280: 279e 523e 61ed 213e 0019 dc3d 1309 07be
00000290: 9d45 ed3d 0c1f 0f3e 4d6c 4a3e aebf 7f3e
000002a0: d2a7 3bbe 5bd3 f0bc 061c 73be 914d 3bbd
000002b0: f955 50be b49a 323e 4a1b 393e 5cda da3c
000002c0: f94b 15be b703 4dbe ad36 973d 798d 79bb
000002d0: d223 efbd bec8 75be 9537 d3bd 5679 5a3d
000002e0: fa81 46be 2724 173e 2357 003d aeb4 143d
000002f0: 1ce4 643e b051 a6bd c499 883d eceb 81bb
00000300: 3067 a73d db26 e2bd a219 1cbd 1fed 133e
00000310: 390c 893d 0fd4 a0bd 6c3a 013c 5e22 d43d
00000320: 3367 833e 19a5 f0bd 0252 b63d abd2 5b3e
00000330: b421 723e f737 cfbb 903e d23c 2b6c 793d
00000340: 1602 2ebe 8d35 1fbd ba19 04be 73ad 95bd
00000350: 5d4a ea3d 4849 563e 43e4 803e e4ca 42be
00000360: 9e86 6b3e 8da4 7c3e ea6d 2abe 3237 6fbe
00000370: 0353 723d 9147 9fbd c2d5 c83d 231f 01bd
00000380: aa4e eb3d 2669 3e3e 1e3d 4039 5d05 583e
00000390: c867 3dbe 46ec 933d 16e9 1d3e 6f33 8dbd
000003a0: c8d2 543d c770 ce3c 0e36 d23d 32ef 2bbe
000003b0: 1b75 793e 0992 723d a3e1 98bd 6628 1a3d
000003c0: 2489 a739 febe df3c 16d0 273d f43b c53d
000003d0: ac2c 26be 86ad 44be 88d6 f1bc 3226 dc3d
000003e0: 007c c6bd 0c2f 893e 9b6a ff3d ae02 f73d
000003f0: b751 223e 3961 403e 1e9f 44be 0a50 1f3e

decoder.0.bias f4 [32]
0.23525126 0.03325326 0.2583625 -0.089163855 0.18682724 -0.034391273 0.20029886 0.05003114
0.070949286 0.26397723 0.24126399 0.22946076 -0.16970502 -0.030039998 -0.12983112 0.25290424
-0.18831535 0.23780395 -0.1784054 0.019201891 -0.09106439 -0.208436 -0.20538436 0.021203173
0.21376269 -0.2131961 -0.116377115 0.008407991 0.24463807 -0.070545666 0.16837622 0.12021109
00000000: b5e5 703e 9234 083d 1748 843e 8a9b b6bd
00000010: a44f 3f3e dddd 0cbd 251b 4d3e 74ed 4c3d
00000020: dc4d 913d 0628 873e e80d 773e c3f7 6a3e
00000030: 27c7 2dbe 7116 f6bc 73f2 04be aa7c 813e
00000040: bdd5 40be e182 733e e8af 36be 494d 9d3c
00000050: f87f babd 3f70 55be 4750 52be 47b2 ad3c
00000060: 9be4 5a3e 1450 5abe 2057 eebd acc1 093c
00000070: 6782 7a3e 3f7a 90bd d16a 2c3e 3b31 f63d

decoder.2.weight f4 [64, 32]
0.17071605 -0.024750076 0.14261933 -0.1100227 0.15774353 -0.06796732 -0.029260006 0.07294904
-0.1252165 0.077894725 -0.029532926 0.027191807 -0.16042058 -0.10268949 -0.101091094 0.027966255
-0.023884144 -0.13783364 -0.19564918 0.12962103 0.24973519 -0.048491158 0.10570476 -0.068865664
-0.10929747 -0.14574115 -0.16299821 0.087410435 0.15894257 0.24434638 -0.07449016 0.01961193
-0.0806117 -0.079332754 0.07783139 -0.034126163 0.015650583 0.16495034 -0.06665319 -0.1420631
0.09566589 0.16189922 -0.06710574 -0.08858197 -0.11392439 0.060597003 0.09856866 -0.10025681
0.045577724 -0.07378047 0.18614006 0.05096927 -0.005982648 -0.0614071 0.115126766 -0.17260243
0.1172912 -0.11175084 -0.1393277 0.11598008 -0.074914105 -0.05388542 -0.064943105 0.108363725
0.17734143 0.17117219 -0.13059342 -0.024214298 -0.009696691 0.064993985 -0.04684367 0.14499032
0.08249262 -0.012614971 0.11707177 -0.031683117 0.012908113 -0.1325672 0.16259378 0.05631293
0.0839418 -0.103285454 0.046594687 0.13755614 -0.015044227 0.0032464105 0.09586911 0.06936158
0.13686833 -0.1266886 -0.05180733 0.23923144 -0.0947543 0.08219663 -0.09667295 -0.08551774
-0.048551865 0.31061485 0.091606885 -0.020673133 0.14600739 -0.02017264 -0.07905147 0.114434436
-0.010101224 -0.060348436 -0.03850128 -0.015328675 -0.0074235084 -0.06227839 0.1544346 -0.13985835
0.14613962 -0.09358182 0.001599533 0.19910637 0.13368975 -0.053548746 0.10508668 0.06299632
-0.0867086 -0.023777125 0.12390774 0.1151854 -0.0368154 0.005571625 -0.05039711 0.053776596
0.13884977 0.0043032626 0.12432333 0.122728534 0.16376683 -0.12559286 -0.028426403 -0.09390504
-0.13351122 0.15514414 -0.07977424 -0.06971573 0.20409454 -0.09254494 0.04705809 -0.030501895
0.07971167 0.026194172 0.017203765 -0.059555136 -0.079555325 0.01426561 -0.15816133 0.1469836
-0.056854304 -0.020419136 -0.01123743 0.15952934 -0.007058381 0.11996041 -0.012418377 -0.06630124
0.010803806 0.12944151 -0.14492539 0.083501056 0.0689636 0.089448325 0.06920205 0.10760147
0.15382625 0.08988387 -0.023963515 0.098207615 -0.12080154 0.09644846 0.109130345 0.11641529
0.12308488 -0.09584702 -0.1599019 -0.08983828 0.08733975 0.00028254124 0.150135 -0.16159205
0.03192242 -0.10965661 0.1173864 -0.109241754 -0.0161188 -0.049162984 0.074805096 0.1620077
-0.21967132 -0.011480788 0.16442133 -0.006042528 -0.09109267 0.09428852 0.10047054 0.08266197
0.054312766 0.0023600387 -0.1483182 0.0148884505 0.10087261 0.16599077 -0.027763069 -0.27924684
0.07889608 0.009817093 0.1828923 -0.036044877 -0.10020391 -0.10793427 -0.11067005 0.18590145
0.037866548 0.04778207 -0.11446502 0.15666428 -0.038786564 -0.117984936 0.0069155255 -0.21860963
0.024198538 0.063600324 0.036639653 -0.1742407 0.11090884 -0.019822044 0.14173079 0.15113029
-0.14107788 0.103422895 0.13253216 0.01995458 0.10054221 0.013643099 -0.14483689 0.036735706
-0.047494847 -0.13172495 -0.07927532 -0.029636208 0.045590997 -0.008401372 0.1842866 0.12675595
-0.20258044 -0.056847874 -0.092572115 0.14969671 0.11136219 0.21706572 -0.106553964 0.0767518
00000000: 30d0 2e3e acc0 cabc cd0a 123e 9553 e1bd
00000010: 8587 213e 7332 8bbd aeb2 efbc 4e66 953d
00000020: c138 00be 4587 9f3d 09ef f1bc 5ac1 de3c
00000030: 4b45 24be de4e d2bd d908 cfbd 7d19 e53c
00000040: aea8 c3bc 4324 0dbe 4258 48be 60bb 043e
00000050: 95ba 7f3e aa9e 46bd bd7b d83d 7109 8dbd
00000060: 5ad7 dfbd 2b3d 15be 01e9 26be 3e04 b33d
00000070: d7c1 223e f035 7a3e 4c8e 98bd 33a9 a03c
00000080: bf17 a5bd 3679 a2bd 1066 9f3d e0c7 0bbd
00000090: a735 803c bee8 283e 7881 88bd fd78 11be
000000a0: 7aec c33d e9c8 253e bc6e 89bd 776a b5bd
000000b0: 3151 e9bd 9034 783d 5ede c93d 7153 cdbd
000000c0: b5af 3a3d 371a 97bd 809b 3e3e 27c5 503d
000000d0: 170a c4bb 0386 7bbd 95c7 eb3d b1be 30be
000000e0: 5e36 f03d a0dd e4bd ecab 0ebe f786 ed3d
000000f0: 916c 99bd f5b6 5cbd e400 85bd cded dd3d
00000100: fe98 353e c347 2f3e 48ba 05be 105d c6bc
00000110: dfde 1ebc 911b 853d 26df 3fbd 5878 143e
00000120: e4f1 a83d 06af 4ebc 53c3 ef3d 28c6 01bd
00000130: 8d7c 533c b2bf 07be fc7e 263e 63a8 663d
00000140: aee9 ab3d 5387 d3bd 12da 3e3d 84db 0c3e
00000150: 107c 76bc bbc1 543b 0657 c43d 720d 8e3d
00000160: 3627 0c3e a8ba 01be ec33 54bd 16f9 743e
00000170: 8b0e c2bd b556 a83d 78fc c5bd ed23 afbd
00000180: 52de 46bd e908 9f3e 649c bb3d b45a a9bc
00000190: f682 153e 1841 a5bc bde5 a1bd 9a5c ea3d
000001a0: 9b7f 25bc ec2f 77bd 85b3 1dbd 1f25 7bbc
000001b0: e740 f3bb a017 7fbd 1b24 1e3e 0737 0fbe
000001c0: a0a5 153e d3a7 bfbd 6ca7 d13a 8ae2 4b3e
000001d0: f7e5 083e ee55 5bbd af37 d73d 3704 813d
000001e0: 4794 b1bd 3fc8 c2bc 57c3 fd3d 53e6 eb3d
000001f0: bfcb 16bd 2e92 b63b 336d 4ebd d944 5c3d
00000200: a22e 0e3e 6202 8d3b 3b9d fe3d 1959 fb3d
00000210: 7eb2 273e 6a9b 00be 7dde e8bc 4951 c0bd
00000220: 2ab7 08be 1bde 1e3e ad60 a3bd 1fc7 8ebd
00000230: 29fe 503e 3488 bdbd fcbf 403d 1cdf f9bc
00000240: df3f a33d 2995 d63c e9ee 8c3c 16f0 73bd
00000250: e7ed a2bd 4eba 693c 0bf5 21be de82 163e
00000260: 0fe0 68bd 0846 a7bc 331d 38bc a95b 233e
00000270: fe49 e7bb cead f53d 7376 4bbc f2c8 87bd
00000280: 7202 313c 518c 043e 5267 14be 9a02 ab3d
00000290: ca3c 8d3d af30 b73d ceb9 8d3d 295e dc3d
000002a0: a184 1d3e 0915 b83d 224f c4bc 1321 c93d
000002b0: cc66 f7bd c586 c53d bb7f df3d 246b ee3d
000002c0: ed13 fc3d 714b c4bd 53bd 23be 22fd b7bd
000002d0: 2fdf b23d 0b22 9439 fdbc 193e 6378 25be
000002e0: 15c1 023d a593 e0bd 4868 f03d 24ba dfbd
000002f0: 930b 84bc 205f 49bd 6a33 993d 59e5 253e
00000300: 85f1 60be ea19 3cbc 115e 283e 6600 c6bb
00000310: cb8e babd 571a c13d 80c3 cd3d ae4a a93d
00000320: 1077 5e3d e1aa 1a3b bae0 17be b0ee 733c
00000330: 4d96 ce3d 7cf9 293e 606f e3bc 71f9 8ebe
00000340: 4594 a13d dfd7 203c 1e48 3b3e cba3 13bd
00000350: b537 cdbd a40c ddbd fba6 e2bd f35c 3e3e
00000360: f419 1b3d 22b7 433d a36c eabd 9a6c 203e
00000370: a9de 1ebd 16a2 f1bd a29b e23b 34db 5fbe
00000380: 033c c63c e340 823d 7613 163d 276c 32be
00000390: 2d24 e33d d761 a2bc e021 113e e6c1 1a3e
000003a0: b876 10be 62cf d33d 83b6 073e ca77 a33c
000003b0: 13e9 cd3d 4e87 5f3c 1f50 14be 2e78 163d
000003c0: f589 42bd e8e2 06be 195b a2bd a2c7 f2bc
000003d0: a0bd 3a3d e8a5 09bc a0b5 3c3e 50cc 013e
000003e0: 3f71 4fbe 51d9 68bd 7396 bdbd 184a 193e
000003f0: dc11 e43d 7a46 5e3e f738 dabd 0c30 9d3d

decoder.2.bias f4 [64]
0.025100153 0.072975636 0.12033873 0.010543067 0.19625425 0.19954224 0.05061706 0.02050998
0.06226227 0.17067546 0.1474412 0.12247013 -0.028148994 -0.18101448 0.0096418755 -0.002703053
0.029434543 0.07283911 0.028331447 0.124044254 -0.17299795 0.019859828 -0.14266849 0.021356909
-0.014533268 -0.09925862 -0.1667425 -0.012853123 -0.13606143 0.09680556 0.032455448 -0.30013222
-0.105801746 0.03477576 -0.035031065 0.15577802 -0.16284984 -0.14279304 0.10014956 -0.08165679
0.11599786 0.07635891 -0.058152728 0.14341871 -0.187803 -0.009042442 0.20709197 -0.14524299
0.013402008 -0.1884776 0.21580866 -0.044730432 -0.025063 0.04799167 0.047302756 0.1463065
0.07961582 0.14327443 -0.055872455 -0.07148967 -0.13867071 -0.14532973 0.027837452 -0.16903482
00000000: d69e cd3c 4074 953d 2774 f63d d4bc 2c3c
00000010: e0f6 483e cd54 4c3e d653 4f3d 8c04 a83c
00000020: b906 7f3d 8cc5 2e3e d3fa 163e 9fd1 fa3d
00000030: b898 e6bc dc5b 39be f5f8 1d3c b425 31bb
00000040: b620 f13c ac2c 953d 5a17 e83c ea0a fe3d
00000050: 6026 31be 14b1 a23c b017 12be aff4 ae3c
00000060: f21c 6ebc 1a48 cbbd 8cbe 2abe e895 52bc
00000070: b053 0bbe fe41 c63d 01f0 043d eeaa 99be
00000080: 96ae d8bd 0771 0e3d bc7c 0fbd 4684 1f3e
00000090: 1cc2 26be 5738 12be 361b cd3d ad3b a7bd
000000a0: 4990 ed3d 0f62 9c3d 8e31 6ebd 5bdc 123e
000000b0: 6e4f 40be c026 14bc eb0f 543e 94ba 14be
000000c0: 1994 5b3c 4600 41be f2fc 5c3e 4237 37bd
000000d0: ec50 cdbc ea92 443d 89c0 413d 5fd1 153e
000000e0: 9e0d a33d 88b6 123e 84da 64bd 2d69 92bd
000000f0: b2ff 0dbe 51d1 14be 5e0b e43c 7717 2dbe
