Save_Models/model-lat20.pth (torch, 195894 bytes, 16 tensors)

encoder.0.weight f4 [128, 99]
0	0x3d14ffac	0.03637664
1	0xbd5f81cd	-0.054567147
2	0xbdaf62e6	-0.08563785
3	0xbd3a7ebb	-0.045531016
4	0x3dc3dcbf	0.09563588
5	0x3d539ae3	0.051661383
6	0x3ddaf2f1	0.10690869
7	0xbd975d1d	-0.07390807
8	0x3d5d79fb	0.054071408
9	0xbbe6c903	-0.0070430054
10	0xbd6dcba2	-0.058055528
11	0x3de07d51	0.10961402
12	0xbd56062b	-0.052251976
13	0x3cc6a3c2	0.024248008
14	0x3dc2b358	0.09506863
15	0xbd05d7e8	-0.032676607
16	0x3b799fb9	0.0038089587
17	0xbd2bc625	-0.041937012
18	0x3d5e80dc	0.05432211
19	0xbda3b06d	-0.07992635
20	0x3dc8ba45	0.09801153
21	0x3d097f7e	0.03356885
22	0xbd92411d	-0.071413256
23	0x3dc3e57b	0.09565254
24	0x3dbbe120	0.091737986
25	0x3dca9327	0.09891348
26	0x395d0c06	0.00021080681
27	0x3bfd5264	0.007730769
28	0xbd577521	-0.052601937
29	0x3d7f24e3	0.062291037
30	0xbd6ee432	-0.058323093
31	0x3d08ea2e	0.033426456
32	0x3dded277	0.10879987
33	0x3c8da0ef	0.017288653
34	0xbd941549	-0.07230622
35	0xbd6e057e	-0.058110707
36	0x3d283c82	0.04107333
37	0x3d6b7c27	0.057491448
38	0xbcaa1ec9	-0.020766633
39	0xbd6cf441	-0.057850126
40	0xbd6b82a4	-0.057497635
41	0xbd4eb708	-0.05046752
42	0x3bedf5d1	0.0072619696
43	0x3d8e3d70	0.06945312
44	0xbccf3670	-0.025294513
45	0x3cc8d37a	0.024514902
46	0xbd332366	-0.04373493
47	0x3dc41292	0.095738545
48	0xbd269d42	-0.040677316
49	0x3db944fb	0.0904636
50	0x3d61576a	0.055015005
51	0x3d922c27	0.07137328
52	0x3aec6b52	0.0018037355
53	0xbd8d0630	-0.06885946
54	0x3c473edb	0.012160982
55	0x3dd63b79	0.10460562
56	0x3dc81b07	0.0977078
57	0x3d5ba7d1	0.05362684
58	0xbd11d595	-0.03560408
59	0x3ccfa2b0	0.02534613
60	0x3d5629be	0.052285902
61	0x3dad52c8	0.08463055
62	0x3d031138	0.031998843
63	0xbc10816b	-0.008819918
64	0x3d26727b	0.04063652
65	0x3dd2247c	0.10260865
66	0x3ddeeb6c	0.10884747
67	0xbd8c9c19	-0.06865711
68	0x3df1af6d	0.11801038
69	0xbd6baa99	-0.05753574
70	0xbb45c4e6	-0.0030177175
71	0x3d015edf	0.031584617
72	0xbb9b6326	-0.004742044
73	0x3bee3db5	0.0072705396
74	0xbd662040	-0.0561831
75	0xbd712da1	-0.058881406
76	0xbd32e298	-0.043673128
77	0xbd3cc0f9	-0.04608247
78	0xbc8b063b	-0.016970744
79	0x3cb9c97e	0.022679087
80	0x3c0b6f43	0.008510414
81	0x3cd9d9b1	0.026593061
82	0x3b6ee2b7	0.003645105
83	0x3d389da7	0.045072224
84	0xbc3bd9e8	-0.011465527
85	0x3da197bd	0.0789027
86	0xbd8edd4b	-0.06975802
87	0xbcc1ae22	-0.023642603
88	0x3aa32d2e	0.0012449378
89	0x3db1d826	0.08683805
90	0x3db315c7	0.08744388
91	0x3da23f00	0.079221725
92	0xbcdd846e	-0.027040686
93	0x3dd50afa	0.10402484
94	0x3dda64e0	0.10663772
95	0x3c9b69c0	0.018971324
96	0x3d9a2b2a	0.07527764
97	0x3d59f706	0.053214096
98	0xbcca6688	-0.024707094
99	0xbc5f1d59	-0.013617837
100	0xbc8fec21	-0.01756865
101	0x3dc733ee	0.09726702
102	0x3d890adf	0.066915266
103	0xbc6519fc	-0.013983246
104	0xbd2631b2	-0.040574737
105	0xbdb4a2c6	-0.08820109
106	0xbda0ab66	-0.07845192
107	0x3ce48cb3	0.027899122
108	0xbcdf9457	-0.027292414
109	0x3d140f0d	0.036147166
110	0xbc320f1b	-0.010867859
111	0xbcde64df	-0.027147708
112	0xbdc59cbd	-0.09649036
113	0xbdcf5c6d	-0.10125051
114	0xbd12d7c9	-0.03585032
115	0x3d6f38fe	0.05840396
116	0xbc71e5e6	-0.014764285
117	0x3d04fb74	0.032466367
118	0x3d5bbe4b	0.053648274
119	0x3cbc0c17	0.022954984
120	0x3d975891	0.073899396
121	0xbd2a3003	-0.041549694
122	0x3c9d37b8	0.019191608
123	0x3d808b68	0.0627659
124	0xbc55988a	-0.013036856
125	0xbd8c897c	-0.068621606
126	0xbd41dd16	-0.047329985
127	0x3c55ccfa	0.0130493585
128	0x3c58de7b	0.013236637
129	0x3d1cc673	0.038275193
130	0xbd8ccbc2	-0.06874801
131	0xbdd19e84	-0.102353126
132	0xbd34d408	-0.04414752
133	0xbc9dc22a	-0.019257624
134	0x3d15b5a4	0.03655018
135	0x3c403816	0.011732122
136	0x3da5a464	0.08087996
137	0xbd994736	-0.074842855
138	0xbdeeacf8	-0.11654085
139	0xbd2bd2b3	-0.041948985
140	0xbdcb2fe8	-0.09921247
141	0xbca6ae6f	-0.020346848
142	0x3d91458b	0.070933424
143	0xbde59a99	-0.11211128
144	0xbc84c2e2	-0.016206209
145	0x3d0267b7	0.03183719
146	0x3cfc1c49	0.030775206
147	0xbc822424	-0.015886374
148	0xbb0a6179	-0.0021115227
149	0x3cfc0acd	0.030766869
150	0xbd6ac1d2	-0.057313748
151	0x3d14243a	0.03616736
152	0xbd24a750	-0.040198624
153	0xbda2c2f9	-0.07947344
154	0x3d236392	0.03988988
155	0x3b945b1d	0.004527463
156	0xbd73c2d8	-0.05951199
157	0xbd45a0e0	-0.048249125
158	0xbddbdef7	-0.107358865
159	0xbdef6078	-0.11688322
160	0xbdc59758	-0.09648007
161	0xbde62c7a	-0.11238952
162	0x3d043c60	0.03228414
163	0xbc061d91	-0.00818576
164	0x3c1bd25f	0.009510606
165	0xbdc79fb1	-0.097472556
166	0x3d539c42	0.05166269
167	0x3b3008ad	0.002686064
168	0xbded0736	-0.11573641
169	0x3d6ad47d	0.05733155
170	0xbdf081f8	-0.117435396
171	0xbccd2426	-0.025041651
172	0x3d1e4e4d	0.038648892
173	0x3d9a7d70	0.075434566
174	0xbd0badd4	-0.034101322
175	0xbceaffd2	-0.028686438
176	0xbd012d5f	-0.03153741
177	0x3c546f09	0.012965926
178	0xbdb3325b	-0.08749839
179	0x3d179d7a	0.037015416
180	0x3d1c98b0	0.03823155
181	0xbd4df5e6	-0.050283335
182	0xbda22f0d	-0.079191305
183	0x3d026f4c	0.031844422
184	0xbdd8122c	-0.10550341
185	0x3d6994c0	0.057026625
186	0x3acb37bc	0.0015504281
187	0xbcb58d89	-0.022162216
188	0xbddac382	-0.106818214
189	0xbd956d39	-0.07296223
190	0xbd9e5aca	-0.077321604
191	0xbd799e0f	-0.060941752
192	0xbd6e9ffa	-0.058258034
193	0xbc3388ea	-0.010957936
194	0xbd43bbcb	-0.047786515
195	0xba851967	-0.0010154665
196	0xbc44fef1	-0.012023673
197	0xbdcc558b	-0.099772535
198	0x3d031152	0.03199894
199	0xbdb74a21	-0.08949686
200	0xbc66b302	-0.014080765
201	0x3d6375b1	0.05553216
202	0x3cc16b6f	0.023610799
203	0x3d9787df	0.07398962
204	0xbd10c1a2	-0.035340913
205	0x3d9a337b	0.0752935
206	0x3d2b4e34	0.041822627
207	0x3da62bb6	0.08113806
208	0x3da2f7c0	0.07957411
209	0x3d5d0727	0.0539619
210	0xbd0b26d9	-0.033972595
211	0xbd1a37f9	-0.037651036
212	0x3d6e9802	0.058250435
213	0x3c3873b5	0.011258055
214	0x3cc1f9c2	0.023678664
215	0x3de7e704	0.113233596
216	0xbb01cb5c	-0.001980505
217	0xbd9e0671	-0.07716072
218	0x3cce7225	0.025200913
219	0xbcf50778	-0.029910788
220	0x3debc3fd	0.11511991
221	0xbd7a2aed	-0.061076093
222	0xbd463ded	-0.0483989
223	0xbd275c37	-0.040859427
224	0xbcbd7784	-0.023128279
225	0x3b743591	0.0037263373
226	0x3db81d36	0.089899465
227	0xbc46c2e2	-0.012131425
228	0x3dac6007	0.08416753
229	0x3df1e018	0.118103206
230	0x3cc4e589	0.024035232
231	0xbd7bcca5	-0.06147446
232	0x3d7193ca	0.058978833
233	0x3dbcd3d0	0.092200875
234	0xbcbb35ac	-0.022852741
235	0x3d21a1aa	0.039460815
236	0x3c66eb32	0.014094161
237	0x3d7af75f	0.061271068
238	0x3d751f50	0.059844315
239	0xbd53052d	-0.051518608
240	0x3de988b8	0.1140303
241	0xbcbd7389	-0.02312638
242	0x3da3a435	0.079903044
243	0x3d4d09c9	0.05005816
244	0xbd5710c3	-0.05250622
245	0x3d4a9595	0.04945906
246	0x3da5d110	0.08096516
247	0xbc10d79c	-0.008840468
248	0xbb03158c	-0.0020001857
249	0x3d1c4586	0.03815224
250	0x3c8d8f6f	0.017280309
251	0x3d051c67	0.03249779
252	0x3d68473a	0.056708552
253	0x3c47f093	0.012203353
254	0x3c11dfd8	0.008903466
255	0xbd8c30eb	-0.06845268

encoder.0.bias f4 [128]
0	0x3d1a2405	0.037632007
1	0xbd288963	-0.041146647
2	0xbe261d0f	-0.16222022
3	0xbca2de7a	-0.019881476
4	0x3d66c9e0	0.056344867
5	0x3d36a4a1	0.044590596
6	0xbc9b307d	-0.01894402
7	0xbdc9eb01	-0.098592766
8	0x3dfba99a	0.12288208
9	0xbc6a173d	-0.014287767
10	0xbe0ad41b	-0.13557474
11	0xbdf3febb	-0.1191382
12	0x3d93380c	0.071884245
13	0xbb7b3435	-0.0038330678
14	0x3c8b8de0	0.017035425
15	0xbe2a4672	-0.16628435
16	0x3c8da903	0.017292505
17	0xbd72beb8	-0.059263915
18	0xbd7c6b51	-0.061625782
19	0x3b3e389c	0.002902544
20	0xbdcb5443	-0.09928181
21	0xbb73c7c5	-0.003719793
22	0xbd828127	-0.0637229
23	0x3cc7b8ff	0.024380205
24	0xbd1f4128	-0.038880497
25	0x3b961360	0.0045799464
26	0xbdaaf5c6	-0.08347659
27	0x3da356a8	0.07975513
28	0xbe0b1ec5	-0.13585956
29	0xbc10c7ba	-0.008836681
30	0x3d806e5b	0.06271049
31	0xbe137a8c	-0.14402217
32	0xba83b3ce	-0.0010048093
33	0xbde607ba	-0.112319425
34	0xbdd4c4e8	-0.103891194
35	0xbd237104	-0.039902702
36	0x3c277e38	0.010222964
37	0x3d1f277e	0.038856022
38	0xbdbe0fbe	-0.09280346
39	0x3d0e6df2	0.03477282
40	0xbe512fcd	-0.20428391
41	0x3bdbf4a0	0.006712511
42	0xbd83243c	-0.064033955
43	0xbdb0acf8	-0.08626741
44	0x3e03a704	0.1285668
45	0xbdbf5ead	-0.0934423
46	0xbd3c030b	-0.04590134
47	0xbe0983bc	-0.13429159
48	0x3c9b0868	0.018924907
49	0x3c312f0a	0.010814438
50	0xbdfd5d23	-0.1237128
51	0x3c0955f8	0.008382313
52	0xbd883698	-0.06651038
53	0xbd8777a3	-0.06614616
54	0xbb631016	-0.003464704
55	0xbd9b2ee6	-0.075773045
56	0xbd87e6c8	-0.06635815
57	0xbdee3a8a	-0.11632259
58	0x3c039211	0.00803043
59	0xbbb5f1b8	-0.0055524968
60	0xbd15649b	-0.036472898
61	0xbdb14245	-0.08655218
62	0x3d207eca	0.039183415
63	0xbdbe2be3	-0.092857145
64	0xbd78587d	-0.060631264
65	0xbcf00720	-0.029300272
66	0xbe4026da	-0.1876482
67	0x3cbc8b61	0.02301568
68	0xbd2e18b4	-0.042504027
69	0xbc4d7c5a	-0.012541855
70	0xbe049fdd	-0.12951608
71	0x3d1de07f	0.038544174
72	0xbdde67b0	-0.108596206
73	0x3cd885a4	0.026430912
74	0xbd56381c	-0.052299604
75	0x3d785d90	0.060636103
76	0xbe1b4435	-0.15162738
77	0xbe2cec68	-0.16887057
78	0x3cf36163	0.029709524
79	0xbe053f47	-0.1301242
80	0x3d23b4bb	0.03996728
81	0x3c78d551	0.015187577
82	0xbdd4b50f	-0.10386097
83	0xbd2fdd76	-0.04293581
84	0xbd79fa6d	-0.06102984
85	0xbc1e5821	-0.009664566
86	0xbe074206	-0.1320878
87	0xbd8dac31	-0.069176085
88	0x3c941607	0.01807691
89	0xb98e0d0e	-0.00027094077
90	0xbde8fce2	-0.113763586
91	0xbe566777	-0.20937906
92	0xbd3a8fd7	-0.045547333
93	0xbd037aba	-0.032099463
94	0xbe154df3	-0.14580517
95	0xbdcb9029	-0.09939606
96	0xbd65e48c	-0.056126162
97	0xbdbcb382	-0.09213926
98	0xbe1c4eb7	-0.15264402
99	0xbdbd1d09	-0.09234054
100	0xbd88b8b5	-0.06675855
101	0x3c788b6b	0.015169959
102	0xbd442f27	-0.04789653
103	0x3c2eaf86	0.010661965
104	0x3cccbe48	0.024993077
105	0x3d86c36d	0.06580243
106	0xbe02463c	-0.12722105
107	0xbd7b45f5	-0.061346013
108	0xbc46965d	-0.01212081
109	0xbcb7f7b0	-0.022456974
110	0x3d5bc5c0	0.053655386
111	0xbdf123f4	-0.11774436
112	0xbe02bfd6	-0.12768492
113	0xbe11ef2c	-0.14251393
114	0x3d22e021	0.039764527
115	0xbd87c9f0	-0.066303134
116	0xbdf44331	-0.11926878
117	0xbe1dc260	-0.1540618
118	0x3d56ff3f	0.052489515
119	0xbdbf9011	-0.0935365
120	0xbe431447	-0.19050704
121	0xbdc2e7ae	-0.09516846
122	0xbe6e6588	-0.23280919
123	0xbe230933	-0.15921478
124	0x3d5b029c	0.053469285
125	0xbdf910a3	-0.12161376
126	0xbd2a8244	-0.041628137
127	0xbd99afa1	-0.07504202

encoder.3.weight f4 [64, 128]
0	0x3be892f2	0.0070975954
1	0xbde6e63a	-0.11274381
2	0x3d308b52	0.043101616
3	0xbb1e8fb2	-0.0024194536
4	0x3d43b82f	0.047783073
5	0xbdde8833	-0.10865822
6	0xbce020f3	-0.027359461
7	0x3ce756a7	0.028239561
8	0xbc59438d	-0.013260734
9	0xbd1e9e96	-0.038725458
10	0xbcbe79e9	-0.02325149
11	0x3d20826f	0.03918689
12	0xbd6eff5f	-0.05834901
13	0x3d8a3473	0.06748285
14	0xbd434010	-0.047668517
15	0x3d3a6578	0.045506924
16	0xbb0867e7	-0.0020813884
17	0xbc98ea0e	-0.018666293
18	0x3b9bf7fd	0.004759787
19	0xbc16d9a2	-0.009207161
20	0xbe0c5afc	-0.13706583
21	0x3ca81c41	0.020521285
22	0x3d96c4a8	0.07361728
23	0xbd0ef856	-0.0349048
24	0x3d0ac33a	0.03387759
25	0x3d80c19b	0.06286927
26	0x3d479474	0.04872556
27	0xbde31370	-0.11087692
28	0xbc1fda74	-0.009756673
29	0x3da83f22	0.08215167
30	0xbd36d9f9	-0.04464147
31	0xbdb2fcd0	-0.087396264
32	0x3d9c1e56	0.076229736
33	0x3c8b18bc	0.016979568
34	0xbd5fd626	-0.054647587
35	0x3ca9329c	0.020654015
36	0x3d6f2579	0.058385346
37	0xbc5bd5d3	-0.013417679
38	0x3c9e8084	0.01934839
39	0xbdb465e9	-0.088085
40	0xbc0307f7	-0.007997504
41	0xbbfc7202	-0.0077040205
42	0x3da99594	0.08280483
43	0x3dde06a8	0.10841113
44	0xbc8deb56	-0.017324131
45	0xbdb8c17e	-0.09021281
46	0x3dcc22ed	0.09967599
47	0x3ae67945	0.0017583749
48	0xbcbbb111	-0.02291158
49	0x3d9ede42	0.07757236
50	0x3d9511ec	0.07278809
51	0x3cd9559a	0.026530076
52	0x3ccf0f7f	0.025275944
53	0x3c509e78	0.012733094
54	0xbd6615c9	-0.05617312
55	0x3db9a086	0.090638205
56	0x3db56f7c	0.088591546
57	0x3d379ffb	0.044830304
58	0x3daba530	0.083811164
59	0xbd23d1c2	-0.039994963
60	0xbe112c8d	-0.14177151
61	0xbe00db68	-0.12583697
62	0x3c198dcf	0.009372189
63	0x3c1a4ad1	0.009417252
64	0x3c144bb0	0.009051248
65	0xbda292c7	-0.07938152
66	0x3d8c3888	0.0684672
67	0xbe041607	-0.12899028
68	0x3c0e1cee	0.00867389
69	0xbb90fd88	-0.0044247545
70	0xbdb0d4d7	-0.08634346
71	0x3ce31a24	0.027722426
72	0xbd5d8c31	-0.054088775
73	0xbd6c2f20	-0.05766213
74	0xbb64c6d9	-0.0034908562
75	0xbc91aac3	-0.01778162
76	0xbccc7425	-0.024957726
77	0xbd31544b	-0.04329328
78	0xbc597617	-0.013272784
79	0xbc512bb9	-0.012766772
80	0xbb366a0d	-0.0027834207
81	0xbda4bd80	-0.08043957
82	0xbd90ca6d	-0.0706986
83	0x3d027df3	0.031858396
84	0x3ca4dce9	0.02012487
85	0x3d54a858	0.051918358
86	0x3c441509	0.011967906
87	0xbc327c7e	-0.010893939
88	0xbcec8a29	-0.028874474
89	0x3c94c9ac	0.01816257
90	0x3b3d295d	0.0028863766
91	0xbd061d82	-0.032742985
92	0x3d0fc968	0.035104185
93	0xbdaacb9a	-0.08339615
94	0xbb7a3f0c	-0.0038184552
95	0xbc871d12	-0.016493354
96	0x3ce226b2	0.027606342
97	0xbdc3806b	-0.09545978
98	0x3c4fdc93	0.012686866
99	0x3d1043a2	0.03522075
100	0xbddff7fb	-0.109359704
101	0x3c6a619a	0.014305497
102	0x3d251110	0.040299475
103	0x3c2fcf81	0.010730625
104	0x3ca459ac	0.02006229
105	0x3d26a44f	0.04068404
106	0x3d9f2e99	0.0777256
107	0xbdd58614	-0.10425964
108	0xbd35ae6d	-0.0443558
109	0x3d18d783	0.037314903
110	0xbddc38fc	-0.107530564
111	0xbb8bad1e	-0.0042625805
112	0xbd8dcd73	-0.06923952
113	0x3d59c64b	0.053167623
114	0xbdf3b34c	-0.118994325
115	0xbd36d1e5	-0.044633765
116	0x3cd10410	0.025514632
117	0xbd4e1a01	-0.050317768
118	0x3c3f46e7	0.011674619
119	0x3daab35e	0.08334993
120	0xbc5d134b	-0.013493369
121	0xbda62eb9	-0.081143804
122	0x3dcb1784	0.099165946
123	0xbc92bf59	-0.017913507
124	0xbdd947f5	-0.10609428
125	0x3d918b9b	0.07106706
126	0xbcf74571	-0.03018448
127	0x3c436185	0.011925106
128	0xbd8f3489	-0.06992442
129	0x3de7b84d	0.113144495
130	0xbcfe5e6f	-0.031050889
131	0xbd521587	-0.05129006
132	0x3d1bb637	0.03801557
133	0x3d5cb601	0.05388451
134	0x3d9664e1	0.0734346
135	0x3bcab3ab	0.006185969
136	0x3d1b684b	0.03794126
137	0xbd563717	-0.05229863
138	0xbd977f6d	-0.073973514
139	0x3ddcf04d	0.10788021
140	0x3d76ca1e	0.060251348
141	0xbdc35f3a	-0.095396474
142	0xbd88b590	-0.06675255
143	0xbd50f54a	-0.051015176
144	0x3c5ebab3	0.013594317
145	0x3d883fcb	0.066527925
146	0xbd2a7542	-0.041615732
147	0x3d70367f	0.05864572
148	0x3d2b576f	0.04183143
149	0xbd08de51	-0.033415142
150	0xbda967fb	-0.08271786
151	0xbc9bad84	-0.019003637
152	0x3cd59520	0.026072085
153	0x3d62d974	0.05538316
154	0xbda20f2d	-0.07913051
155	0x3d75b4a4	0.059986725
156	0x3cc695f3	0.024241423
157	0x3c98c637	0.018649204
158	0x3c8a5287	0.016885055
159	0xbd2559d2	-0.040368862
160	0xbc6ccf30	-0.014453694
161	0xbd24d48f	-0.040241774
162	0x3d36cf1f	0.04463112
163	0x3d7dbbad	0.06194656
164	0xbd256d1a	-0.04038725
165	0x3d306730	0.043067157
166	0x3b33ef29	0.0027455783
167	0x3d8904f5	0.066903986
168	0xbda3fb22	-0.08006884
169	0x3d0edd9b	0.03487931
170	0xbdb44878	-0.08802885
171	0x3da6bfc1	0.08142043
172	0x3d03bff3	0.03216548
173	0x3dbf11f5	0.09329597
174	0x3d64022e	0.05566614
175	0xbdae0825	-0.08497647
176	0xbd8a9402	-0.067665115
177	0x3b61f5b8	0.0034478735
178	0xbd510938	-0.051034182
179	0x3d52347a	0.051319577
180	0x3ca2dabe	0.019879695
181	0x3dddd7c7	0.10832172
182	0xbd812114	-0.06305137
183	0xbd29917a	-0.041398503
184	0xbd65cae5	-0.0561017
185	0xbd5375a9	-0.05162588
186	0x3cbe59dd	0.02323621
187	0x3d38285f	0.044960376
188	0x3d5a1626	0.05324378
189	0x3d8baf81	0.06820584
190	0xbdacf1c8	-0.084445536
191	0x3c8dbca1	0.01730186
192	0xbd720336	-0.059085093
193	0x3c2dac83	0.010600212
194	0xbdabb9c1	-0.08385039
195	0x3dd1af8e	0.102385625
196	0xbdb4df97	-0.08831709
197	0x3d2eaf06	0.042647384
198	0xbc021fff	-0.007942199
199	0xbc48dad1	-0.012259201
200	0xbc6a1d1b	-0.014289166
201	0x3d91f2b3	0.07126369
202	0x3ce5e912	0.028065238
203	0x3bde71f9	0.006788489
204	0xbd1a3fb4	-0.03765841
205	0x3dd26e80	0.102749825
206	0x3d8154a1	0.0631497
207	0x3d5c2a57	0.053751316
208	0xba17e914	-0.0005794924
209	0xbd89a0a1	-0.06720091
210	0xbcadc131	-0.021210285
211	0x3dbeedfe	0.09322737
212	0x3d5d745f	0.05406606
213	0x3d81bfaa	0.06335385
214	0x3ca5a344	0.020219453
215	0x3d2f84ba	0.042851187
216	0xbd0dfbba	-0.034663893
217	0x3c778272	0.015106784
218	0xbca378d6	-0.01995508
219	0x3c1d17bc	0.009588178
220	0x3d6a0ff8	0.057144135
221	0x3daf9239	0.08572812
222	0xbd2153e4	-0.039386645
223	0xbc2d0810	-0.010561004
224	0x3dc7f621	0.09763742
225	0xbc9cbe2e	-0.019133653
226	0xbb57c25c	-0.0032922244
227	0x3cbab01d	0.022789055
228	0x3c80396b	0.015652379
229	0x3d67a4ba	0.05655358
230	0x3da6f1db	0.08151599
231	0xbd25c212	-0.040468283
232	0x3d20a6af	0.03922146
233	0xbc6e6980	-0.01455152
234	0xbcda418d	-0.026642585
235	0x3c97438e	0.01846483
236	0x3dda4605	0.106578864
237	0xbd79887f	-0.06092119
238	0xbd21e7df	-0.03952777
239	0xbc829049	-0.015937941
240	0x3d6e15da	0.058126308
241	0x3d86d068	0.06582719
242	0xbc0cd15e	-0.008594839
243	0xbb69e541	-0.0035689624
244	0xbdafe614	-0.08588806
245	0x3d3a526f	0.04548877
246	0x3d31cbe9	0.043407355
247	0x3d3056a7	0.043051388
248	0xbda5335c	-0.08066437
249	0x3d9c68c7	0.07637172
250	0xbdae6fdb	-0.085174285
251	0xbda2ad06	-0.07943158
252	0x3da84842	0.08216907
253	0xbc9d2713	-0.019183671
254	0x3dcad709	0.09904296
255	0xbd5386b0	-0.05164212

encoder.3.bias f4 [64]
0	0xbd751f3b	-0.059844237
1	0x3d3571ce	0.044297986
2	0x3d5361c0	0.051606894
3	0xbdad368d	-0.0845767
4	0xbd924e7a	-0.071438745
5	0xbc2a7577	-0.010403982
6	0x3ceb53cf	0.028726486
7	0xbc4d8d96	-0.012545964
8	0xbdd864b0	-0.105660796
9	0xbdf890c2	-0.12136985
10	0xbc87e5ea	-0.016589124
11	0x3ab6c788	0.0013944963
12	0xbd34e7f2	-0.044166513
13	0xbdf68f3a	-0.12039037
14	0xbe124085	-0.14282425
15	0xbd7269b9	-0.059182856
16	0xbd88327c	-0.06650254
17	0xbc3bcd5b	-0.011462535
18	0xba5e6dcd	-0.00084849895
19	0x3d3c5f06	0.04598906
20	0xbd80d41e	-0.06290458
21	0xbdceed4f	-0.10103857
22	0xbd718c4e	-0.058971696
23	0xbd6e2d21	-0.058148507
24	0xbc576262	-0.013146015
25	0xbd89d00e	-0.067291364
26	0x3dd20acb	0.10255965
27	0x3d8816ec	0.06644997
28	0xbd7b4192	-0.06134183
29	0x3d0c7e72	0.034300275
30	0xbc828bef	-0.015935866
31	0x3dc4ce6b	0.096096836
32	0xbd1ba831	-0.038002197
33	0xbbc95277	-0.006143864
34	0xbdeb115c	-0.114779204
35	0xbd91b441	-0.07114459
36	0xbdcb8b69	-0.099387
37	0xbdd2e2ba	-0.10297151
38	0xbb57796f	-0.0032878777
39	0xbd91d961	-0.0712154
40	0xbc3648ca	-0.011125753
41	0xbdd82e85	-0.10555748
42	0x3cd728e1	0.02626461
43	0xbdc13b8a	-0.09435184
44	0xbdc99c0e	-0.09844218
45	0xbd287a6a	-0.04113237
46	0xbde1dcb1	-0.11028422
47	0x3da533c8	0.08066517
48	0xbcd205d7	-0.02563755
49	0x3c9d5969	0.019207673
50	0xbcb2eade	-0.021840509
51	0xbd37767f	-0.04479074
52	0xbd29d5f5	-0.04146381
53	0x3cc45632	0.023966882
54	0xbd99e58e	-0.07514487
55	0x3ca3778e	0.019954469
56	0xbca46169	-0.02006598
57	0xbca34a61	-0.019932928
58	0x3cabb204	0.020958908
59	0xbdc1f453	-0.09470429
60	0xbd870b31	-0.065939315
61	0xbc3861d1	-0.01125379
62	0x3b41ac44	0.0029552141
63	0xbce484af	-0.0278953

encoder.6.weight f4 [32, 64]
0	0x3e0ac36b	0.13551109
1	0xbcb6daef	-0.022321193
2	0xbda7b1be	-0.081881985
3	0xbde9d773	-0.11418047
4	0x3e09e616	0.13466677
5	0x3db2ede5	0.08736781
6	0xbd68d6c1	-0.05684543
7	0xbce78e00	-0.028265953
8	0x3c20c520	0.009812623
9	0x3bf4aebd	0.0074671195
10	0x3d97f0b2	0.07418956
11	0x3c9f2419	0.019426392
12	0x3d9fc2ea	0.07800849
13	0xbe149f3a	-0.14513865
14	0x3e1e9a00	0.15488434
15	0x3da530a2	0.080659166
16	0x3d97156d	0.073771335
17	0xbe2cf69e	-0.16890952
18	0xbd9687da	-0.073501304
19	0xbdeda7a0	-0.116042376
20	0x3dd66839	0.10469098
21	0xbe716758	-0.23574579
22	0xbe1b4cdb	-0.15166037
23	0x3da80fca	0.082061365
24	0x3d84154d	0.06449375
25	0x3c77ab1c	0.015116479
26	0x3db46572	0.08808412
27	0x3c78f13e	0.015194235
28	0xbe49425b	-0.19654219
29	0xbe1ab2e4	-0.15107304
30	0x3b328846	0.002724187
31	0x3d3780c2	0.044800527
32	0x3d9e31a0	0.07724309
33	0x3d496844	0.0491717
34	0x3d0967d3	0.03354628
35	0xbd7e7400	-0.062122345
36	0xbbfbe7cd	-0.007687545
37	0xbe1cb99a	-0.15305176
38	0x3db8dda9	0.09026653
39	0x3e072f04	0.13201529
40	0x3d1d732e	0.038439922
41	0xbc77cea8	-0.015124954
42	0x3e13521a	0.14386788
43	0xbdc515c5	-0.09623293
44	0x3e09f80a	0.13473526
45	0x3dae09a6	0.08497934
46	0x3ce9c71b	0.028537324
47	0xbdd28ba7	-0.10280543
48	0xbe3e5713	-0.18587904
49	0xbdca1804	-0.09867862
50	0xbda6c611	-0.08143247
51	0x3d113471	0.035450403
52	0x3d8fcfda	0.070220664
53	0xbd287bb8	-0.041133612
54	0x3ac9fedf	0.001541104
55	0xbd27e878	-0.040993184
56	0xbc98c1b3	-0.01864705
57	0xbe193cbd	-0.14964576
58	0x3d5f1032	0.054458804
59	0x3dc6bd1e	0.0970404
60	0x3dae498a	0.0851012
61	0xbd90d0d5	-0.070710815
62	0x3da95f2a	0.08270104
63	0xbd8ec9f2	-0.06972112
64	0xbd88d601	-0.06681443
65	0x3d29f54f	0.04149371
66	0xbda20fd3	-0.079131745
67	0x3b7c3a40	0.0038486868
68	0x3dc5e783	0.09663298
69	0x3c547a32	0.012968587
70	0x3c040b1d	0.00805929
71	0x3e362f19	0.17791404
72	0xbd4e7028	-0.05039993
73	0x3dd97d9b	0.106196605
74	0x3e018ed0	0.12652135
75	0x3c4a4479	0.012345427
76	0x3d1bbe99	0.038023565
77	0xbd813295	-0.06308476
78	0xbd0ecc5e	-0.03486287
79	0x3e01f38b	0.1269056
80	0x3c4baae6	0.012430882
81	0xbcdf6313	-0.027268922
82	0x3d369cde	0.044583194
83	0xbcf5a17f	-0.029984234
84	0x3dd02a96	0.101643726
85	0x3dbac190	0.0911895
86	0x3cef9154	0.029244103
87	0x3e16b3a2	0.14716962
88	0x3da1382c	0.07872042
89	0x3d07aab4	0.03312178
90	0x3e1ac05e	0.15112445
91	0x3d8db88f	0.069199674
92	0xbc48e0dc	-0.012260642
93	0x3d8d9d2d	0.069147445
94	0x3d1cd345	0.03828742
95	0x3dd41d64	0.10357168
96	0x3e37b28d	0.17939205
97	0x3e14d2d2	0.14533547
98	0x3cc5dbe7	0.02415271
99	0x3d972246	0.07379584
100	0xbcc4df7c	-0.024032347
101	0x3dbaaa3c	0.09114501
102	0xbd3c15e2	-0.045919307
103	0x3e182b85	0.14860351
104	0x3d762c73	0.060100984
105	0xbd690b99	-0.056895826
106	0x3e2140fd	0.15747447
107	0xbdac1353	-0.08402123
108	0xbb923a38	-0.0044625066
109	0xbd3bf877	-0.04589125
110	0x3d0b4c26	0.034008168
111	0xbd39c16a	-0.04535047
112	0xbbd68ce0	-0.0065475553
113	0x3ca1df7c	0.019759886
114	0x3d9641ae	0.07336746
115	0x3e04eede	0.12981746
116	0x3e2bef43	0.1679049
117	0x3df97a5b	0.121815406
118	0x3d22dc7d	0.039761055
119	0xbbdf292d	-0.0068103285
120	0x3e043baa	0.12913385
121	0x3dba83a0	0.09107137
122	0xbd4c56d9	-0.049887512
123	0xbd95eb7e	-0.07320307
124	0x3d72c333	0.059268188
125	0xbe135900	-0.1438942
126	0x3da8156b	0.0820721
127	0xbd5feda4	-0.05466999
128	0xbe3a21c0	-0.18176937
129	0x3e04d17b	0.12970535
130	0x3ccaa0d0	0.024734885
131	0xbd6c2694	-0.05765398
132	0x3dd38680	0.10328388
133	0xbdbf6d96	-0.09347074
134	0x3da4bc0a	0.08043678
135	0x3ceeee4a	0.02916636
136	0xbe0d4020	-0.13793993
137	0xbdab3d0f	-0.083612554
138	0xbd00eb8b	-0.03147463
139	0x3dd70db3	0.1050066
140	0xbd410111	-0.047120158
141	0x3deee836	0.116653845
142	0xbd9983ef	-0.074958675
143	0xbc61007a	-0.013733024
144	0x3b437e35	0.0029829864
145	0x3d244464	0.040104285
146	0x3e03fe6c	0.12890023
147	0xbbbf16cd	-0.0058315755
148	0xbdd227e9	-0.102615185
149	0x3c492230	0.012276217
150	0x3c1174b9	0.0088779265
151	0xbd63ef73	-0.05564828
152	0x3dd1a805	0.10237125
153	0x3ddab587	0.10679155
154	0xbd0b0e81	-0.03394938
155	0xbd2fd548	-0.04292801
156	0xbbb1ca02	-0.0054256925
157	0x3c393240	0.011303484
158	0x3e013425	0.12617548
159	0xbd95199d	-0.07280276
160	0x3c21ac8a	0.009867797
161	0xbe51d954	-0.2049306
162	0xbdf751ad	-0.12076125
163	0x3d5c4682	0.05377818
164	0xbcea3d2c	-0.028593622
165	0x3ded844e	0.11597501
166	0x3c7b3ab2	0.015333818
167	0xbde14ca1	-0.11000944
168	0xbde22b51	-0.11043418
169	0x3d1247b7	0.035712924
170	0xbe081fbf	-0.1329336
171	0x3d3c2fac	0.0459439
172	0xbccfe29d	-0.025376612
173	0xbc931bc5	-0.017957577
174	0xbc0feca0	-0.008784443
175	0x3b96d667	0.0046031955
176	0xbd5763ad	-0.052585293
177	0x3dcbe33d	0.09955452
178	0x3d81e29a	0.06342049
179	0x3dec7c89	0.11547191
180	0x3e0ef0de	0.13959071
181	0xbd47b89c	-0.04876004
182	0xbd28ff6b	-0.04125921
183	0xbe2096e2	-0.15682557
184	0xbc8e5a23	-0.017376965
185	0x3d36d8c0	0.044640303
186	0x3c6fe1b2	0.014641212
187	0x3e00e00b	0.12585466
188	0xbd8c7345	-0.068579234
189	0xbd09dccd	-0.033657838
190	0xbdbdaacf	-0.09261095
191	0xbd83c90c	-0.06434831
192	0x3e07a419	0.13246192
193	0xbca9a4f6	-0.020708542
194	0xbdfbe11b	-0.12298795
195	0xbd9acabf	-0.07558202
196	0xbdbb8455	-0.091561
197	0xbce14674	-0.027499415
198	0xbd519ac1	-0.051172975
199	0xbe1e2752	-0.15444687
200	0x3d877f44	0.06616071
201	0x3e10bc5c	0.14134353
202	0x3c9c60ea	0.019089181
203	0xbd0b94d5	-0.034077484
204	0x3de1a14f	0.11017095
205	0xbe27e843	-0.16397195
206	0xbc86b257	-0.016442461
207	0xbc1aa952	-0.009439783
208	0x3dc4d105	0.0961018
209	0xbd1ef701	-0.03880978
210	0x3cf721a0	0.0301674
211	0xbdb58845	-0.08863882
212	0xbd260043	-0.040527593
213	0xbd025859	-0.031822536
214	0xbd99e5f5	-0.07514564
215	0x3d8f7e53	0.07006516
216	0x3cea3e43	0.028594142
217	0x3d3c2594	0.045934275
218	0x3cad0e7d	0.021125073
219	0x3dfc68a2	0.123246446
220	0xbd93e02a	-0.0722049
221	0xbd1c33e3	-0.03813542
222	0xbccfbf54	-0.025359787
223	0x3e0ee193	0.13953237
224	0x3c8bb9af	0.017056314
225	0x3d580e9f	0.05274832
226	0xbd9b2afb	-0.07576557
227	0xbba4cb1a	-0.0050290944
228	0x3dbfad60	0.093592405
229	0xbd0bf261	-0.034166697
230	0x3ba4988b	0.0050230674
231	0xbd3aadbd	-0.045575846
232	0xbd788846	-0.060676835
233	0x3dae2020	0.08502221
234	0xbcd098dd	-0.025463516
235	0xbd2af60a	-0.041738547
236	0x3da7e9bb	0.081988774
237	0x3d5312f4	0.051531747
238	0x3da75cbc	0.081719846
239	0xbd93211e	-0.07184051
240	0x3cfecacd	0.031102562
241	0xbd214a51	-0.039377514
242	0xbe06b205	-0.13153847
243	0x3dca5066	0.09878616
244	0x3c809c13	0.015699422
245	0x3d645fd0	0.055755436
246	0x3c12be06	0.008956438
247	0x3cc96012	0.024581943
248	0xbda692c0	-0.08133459
249	0x3bd634ca	0.0065370547
250	0xbc43cfab	-0.011951367
251	0x3d769819	0.060203645
252	0xbb949039	-0.0045337942
253	0xbda569b6	-0.080768034
254	0xbdce653d	-0.100779034
255	0x3d93e278	0.0722093

encoder.6.bias f4 [32]
0	0x3d81805b	0.0632331
1	0x3c3e1595	0.011601825
2	0x3d65947b	0.056049805
3	0xbd84bdd1	-0.06481517
4	0xbe0044e8	-0.12526286
5	0xba745dce	-0.00093218393
6	0x3c858fe7	0.01630397
7	0x3d3a747f	0.045521256
8	0xbcd1df53	-0.025619185
9	0xbe0cdea3	-0.13756804
10	0xbd8a7714	-0.067609936
11	0x3d827337	0.06369632
12	0xbd6003d3	-0.054691147
13	0xbc248933	-0.0100424765
14	0xbdc0cb3d	-0.094137646
15	0x3df44524	0.1192725
16	0x3e09b7fa	0.13449088
17	0xbe0ca5d0	-0.13735127
18	0x3d1497e3	0.036277663
19	0x3cf4d0d5	0.029884735
20	0xbd46087e	-0.048347943
21	0x3dc0053e	0.09376
22	0xbd854ba9	-0.06508572
23	0x3c836f5c	0.016044311
24	0x3de3dd0e	0.11126147
25	0xbd8b4b41	-0.06801463
26	0xbd6bf926	-0.057610653
27	0x3d6c593a	0.05770228
28	0x3d3e2ad3	0.04642756
29	0xbd78e684	-0.06076671
30	0x3d47399a	0.048638918
31	0x3d989147	0.074495845

encoder.9.weight f4 [20, 32]
0	0x3dab33fe	0.08359526
1	0xbdab3bfa	-0.08361049
2	0xbd857407	-0.06516271
3	0x3dd75c70	0.10515678
4	0x3e382b54	0.17985278
5	0xbe363490	-0.17793489
6	0x3dbb81bd	0.09155605
7	0xbd0b84c4	-0.034062162
8	0x3dccdf8f	0.10003578
9	0x3c553f03	0.013015511
10	0xbe1652e4	-0.14680058
11	0xbe1479d5	-0.144996
12	0x3dd12cd9	0.10213632
13	0x3db1b895	0.08677784
14	0xbdcdedc0	-0.10055113
15	0x3c751b65	0.014960145
16	0x3da2205f	0.079163305
17	0xbe5bcfee	-0.21466038
18	0xbe09abb7	-0.1344441
19	0x3d0c8919	0.034310434
20	0x38a4c3f2	7.856627e-05
21	0x3d98cd20	0.074609995
22	0xbdd5723b	-0.10422178
23	0x3d3f9d56	0.046780907
24	0xbd823870	-0.06358421
25	0x3da73768	0.08164865
26	0x3e0eb3ce	0.13935778
27	0xbe4cf52a	-0.20015398
28	0xbd37f281	-0.044909004
29	0x3e339699	0.17537917
30	0xbd3677a8	-0.044547707
31	0x3def51bc	0.116855115
32	0xbd679569	-0.056538973
33	0xbe2ac03c	-0.16674894
34	0x3e4e84f4	0.20167905
35	0xbe3d9e2e	-0.18517372
36	0xbe0b02cd	-0.13575287
37	0x3d366d22	0.04453767
38	0xbdb35166	-0.0875576
39	0x3d3ca201	0.046052936
40	0xbd20ac67	-0.039226916
41	0xbd9556a1	-0.07291914
42	0xbe505dc1	-0.20348264
43	0x3df6c210	0.12048733
44	0xbd83bc69	-0.06432421
45	0x3dbecc53	0.093163155
46	0x3e0ebcd3	0.13939218
47	0xbdcb431e	-0.09924911
48	0x361e9ab0	2.3633875e-06
49	0x3e15ea2b	0.14640109
50	0xbdbffcbe	-0.093743786
51	0xbc7af222	-0.015316518
52	0x3e698060	0.22802877
53	0x3dc143b4	0.094367415
54	0x3c3a478e	0.011369599
55	0xbdb2b2f5	-0.087255396
56	0xbd08a332	-0.03335876
57	0x3e090826	0.13382015
58	0x3e39f031	0.18158032
59	0x3e1d5410	0.15364099
60	0xbd02f445	-0.031971235
61	0xbd45bc08	-0.048275024
62	0x3cd50ccf	0.026007084
63	0x3df44010	0.119262815
64	0xbba1f000	-0.0049419403
65	0xbe4c86b0	-0.19973254
66	0xbe0c4d2f	-0.13701318
67	0x3de8ca95	0.113667645
68	0x3d4d5c2c	0.05013673
69	0xbd12445f	-0.035709735
70	0xbdf4e721	-0.11958147
71	0xbdafd87c	-0.08586213
72	0x3e323012	0.1740115
73	0x3d977ceb	0.07396873
74	0x3e0929b4	0.13394815
75	0xbe4069e7	-0.18790399
76	0x3e3b11e8	0.1826855
77	0xbe075322	-0.13215306
78	0xbe31628b	-0.17322747
79	0xbd085a1e	-0.033289067
80	0xbe2b69da	-0.16739598
81	0xbde0ca33	-0.109760664
82	0xbcaee124	-0.02134759
83	0x3dc3a277	0.09552472
84	0x3de007b2	0.10938968
85	0x3de914b7	0.11380904
86	0xbcf966a3	-0.030444449
87	0x3c50d64a	0.012746403
88	0xbdddfb08	-0.10838896
89	0xbe0676e7	-0.13131295
90	0xbcdd878c	-0.027042173
91	0xbd8c2ee0	-0.06844878
92	0x3bea2642	0.007145674
93	0x3e520c4e	0.20512506
94	0xbe192c15	-0.14958222
95	0xbd2c1e6c	-0.0420212
96	0xbe2acc9f	-0.16679619
97	0xbd89f592	-0.06736292
98	0xbe21bc60	-0.15794516
99	0xbdafeb98	-0.08589858
100	0xbe294421	-0.16529895
101	0xbe31d0b7	-0.17364775
102	0x3c8cef2a	0.017203886
103	0xbe3fff4a	-0.18749729
104	0xbe03d5a6	-0.12874469
105	0xbd963d54	-0.07335916
106	0x3d1907f5	0.037361104
107	0xbd87371e	-0.0660231
108	0xbe21289d	-0.15738149
109	0x3c8c6dc4	0.017142184
110	0xbdb95501	-0.09049416
111	0xbe1a6580	-0.15077782
112	0xbdb557dd	-0.08854649
113	0x3ceb9803	0.028759008
114	0xbe28f1c5	-0.16498478
115	0xbe492a92	-0.19645146
116	0x3e0ec1b5	0.13941081
117	0x3c2a2099	0.010383748
118	0x3db77b70	0.08959091
119	0x3c2303a4	0.009949598
120	0x3d5648a1	0.052315358
121	0xbd77c5ee	-0.060491495
122	0xbe033753	-0.12814073
123	0x3c9a9dc7	0.018874062
124	0xbdff8ef2	-0.124784365
125	0x3d8699a0	0.065722704
126	0x3b1c01ee	0.002380486
127	0x3e2db448	0.16963303
128	0x3dfcc377	0.123419695
129	0xbdc7c353	-0.09754052
130	0x3e20c053	0.15698366
131	0x3d4fd58b	0.05074076
132	0xbe1415a7	-0.14461385
133	0x3e2ea2e0	0.1705432
134	0x3d9ff3d3	0.07810178
135	0xbbd9565c	-0.0066326093
136	0xbe0fb62a	-0.14034334
137	0x3e48fe3a	0.1962823
138	0xbcad9132	-0.021187399
139	0xbe2c1da6	-0.16808185
140	0x3dea01c6	0.114261195
141	0x3e059259	0.13044108
142	0x3dcf64da	0.10126658
143	0x3e1caf9f	0.15301369
144	0xbd8ba1e4	-0.068179876
145	0x3d45b72f	0.0482704
146	0x3d8f6a21	0.07002664
147	0xbde265e1	-0.11054588
148	0xbd3969f2	-0.045267053
149	0xbd561400	-0.052265167
150	0x3cfa4c2b	0.030553898
151	0xbdb26345	-0.087103404
152	0xbd6bc687	-0.057562377
153	0x3adb62d7	0.0016737831
154	0x3df21d25	0.11821965
155	0x3de5ed35	0.11226884
156	0x3d42050f	0.047368106
157	0xbe40d64f	-0.18831752
158	0xbde9d4da	-0.11417551
159	0xbca0c75c	-0.019626312
160	0xbe1b33e6	-0.15156516
161	0x3e185716	0.1487697
162	0xbe1fd1ec	-0.15607423
163	0xbdf09cef	-0.11748683
164	0x3e0d8cf4	0.138233
165	0x3dea60eb	0.11444267
166	0x3dfc2168	0.12311059
167	0x3d8ad3f3	0.06778707
168	0x3ca23530	0.019800752
169	0xbe13c120	-0.1442914
170	0xbd2cada2	-0.042157777
171	0x3ccc61ad	0.02494892
172	0xbdccc65c	-0.099987715
173	0x3db1a02b	0.08673128
174	0x3dafada2	0.0857804
175	0xbceb61d0	-0.028733164
176	0xbd8451cc	-0.06460914
177	0x3d99f5eb	0.07517608
178	0x3e304aeb	0.17216079
179	0xbe033938	-0.12814796
180	0x3dddbdc1	0.10827208
181	0xbe2685eb	-0.16262023
182	0xbe0cdaa2	-0.13755277
183	0xbd9bd0fb	-0.07608219
184	0xbdad8463	-0.084725164
185	0x3e1b921c	0.15192455
186	0x3da9470b	0.082655035
187	0xbd8efbc5	-0.06981615
188	0xbdd62d13	-0.10457816
189	0x3d596300	0.05307293
190	0x3d28bc8a	0.04119543
191	0x3e3fb637	0.18721853
192	0x3d1a0374	0.03760095
193	0xbd6c38da	-0.057671405
194	0xbe107a25	-0.14109094
195	0x3dab7dd0	0.08373606
196	0x3e139aac	0.14414471
197	0x3e159f32	0.1461151
198	0xbc9ea501	-0.01936579
199	0x3be45998	0.006968688
200	0xbe0eaa00	-0.13932037
201	0xbb238c6d	-0.0024955526
202	0xbe3bc475	-0.18336661
203	0x3d7968f2	0.0608911
204	0x3e17d221	0.14826252
205	0xbdd37c2c	-0.10326418
206	0x3dcae179	0.09906287
207	0x3c877c50	0.016538769
208	0x3c9e79d6	0.019345205
209	0x3e1b20b5	0.15149195
210	0x3d6a7392	0.057239123
211	0xbd64dce3	-0.055874716
212	0x3b42a7f4	0.0029702159
213	0xbd9d7a25	-0.07689313
214	0xbe02f42e	-0.1278846
215	0x3de8b9be	0.113635525
216	0xbd0123ad	-0.031528164
217	0x3d8210fe	0.06350897
218	0x3e15aac0	0.14615917
219	0xbc82f160	-0.015984237
220	0x3e155e82	0.14586833
221	0xbdc3f981	-0.095690735
222	0x3d936210	0.07196438
223	0xbd83abd7	-0.0642926
224	0x3d2c15e0	0.04201305
225	0xbd91f918	-0.07127589
226	0xbe0b739d	-0.13618322
227	0x3cdc2363	0.026872342
228	0xbdf73e12	-0.12072386
229	0xbe386c46	-0.18010053
230	0xbe3b42ee	-0.1828725
231	0x3d8e0720	0.06934953
232	0x3e485cb5	0.19566615
233	0x3dfd9c02	0.12383272
234	0xbdeeabc7	-0.11653858
235	0xbe052d32	-0.13005522
236	0x3d67ab54	0.056559876
237	0xbcd7a64e	-0.026324417
238	0x3df7d410	0.121009946
239	0xbd82cbdd	-0.0638654
240	0xbd2c87a0	-0.04212153
241	0xbe665285	-0.22492416
242	0xbdec6fe2	-0.115447775
243	0x3c41dc1a	0.011832261
244	0xbdbf335f	-0.0933597
245	0xbe0da7ed	-0.1383359
246	0xbd831fbe	-0.06402539
247	0x3e0b738c	0.13618296
248	0xbe31bdc6	-0.17357549
249	0xbb0cc351	-0.0021478722
250	0x3dad620a	0.08465965
251	0x3dc44709	0.095838614
252	0xbdbc3748	-0.091902316
253	0x3d8486d7	0.06471031
254	0xbe17e552	-0.14833573
255	0x3d568d20	0.05238068

encoder.9.bias f4 [20]
0	0xbc93870d	-0.018008733
1	0x3ddd4768	0.10804635
2	0xbe5257b9	-0.20541276
3	0xbe323ae4	-0.17405277
4	0xbcdf9a23	-0.027295178
5	0xbe0378b8	-0.1283902
6	0x3dd2a4b0	0.10285318
7	0xbdb3ac9d	-0.08773158
8	0xbd3a0937	-0.045418944
9	0xbdbe9c8c	-0.09307203
10	0x3dca9ddf	0.09893393
11	0xbdb66e78	-0.08907789
12	0x3dd655ab	0.104655586
13	0xbd30a4a5	-0.043125767
14	0xbdc87bda	-0.09789248
15	0x3def1007	0.11672979
16	0x3d854ca0	0.06508756
17	0x3c052c8f	0.008128299
18	0xbe0066cb	-0.12539212
19	0xbda8309d	-0.08212397

decoder.0.weight f4 [32, 20]
0	0xbd4e3e1b	-0.050352197
1	0xbcc9272f	-0.024554817
2	0xbbb4403c	-0.0055008214
3	0xbe1b9939	-0.15195169
4	0xbd524cc0	-0.051342726
5	0xbd7e9ba4	-0.06216015
6	0xbe2ee547	-0.1707965
7	0xbe3afd9f	-0.18260811
8	0x3de8c719	0.113661
9	0x3e49f387	0.19721805
10	0xbcc1034e	-0.023561146
11	0xbdd85717	-0.10563486
12	0x3e07f5dd	0.13277383
13	0xbc2f1f64	-0.010688636
14	0x3e8e6c56	0.2781703
15	0x3e376c3e	0.17912385
16	0x3d94030a	0.07227142
17	0x3d281338	0.041033953
18	0xbe340ad2	-0.17582253
19	0xbdf1cc98	-0.11806601
20	0x3c85a247	0.016312731
21	0x3e1f44dd	0.15553613
22	0xbe0ebae0	-0.13938475
23	0x3d951eb6	0.07281248
24	0x3dd0cccc	0.10195312
25	0x3ca95beb	0.020673713
26	0xbe2a5a36	-0.16635975
27	0x3e6bc2a0	0.23023462
28	0x3de52fa3	0.111907266
29	0xbd8e831d	-0.069586016
30	0xbca3b908	-0.01998569
31	0x3e3d85ae	0.18508026
32	0xbdd79e9b	-0.105282985
33	0xbe61bd9f	-0.22044991
34	0x3d0f09dd	0.034921516
35	0xbe0804d9	-0.13283099
36	0xbddee290	-0.10883057
37	0xbd839562	-0.06424977
38	0x3beb26e9	0.0071762693
39	0x3e439dae	0.19103119
40	0x3e087ec8	0.13329613
41	0x3dea3919	0.11436672
42	0x3dea6799	0.11445541
43	0xbc1b8a7e	-0.009493468
44	0x3e499364	0.19685131
45	0x3e2b5dbd	0.16734977
46	0x3d626358	0.055270523
47	0xbe231054	-0.15924197
48	0xbcb870aa	-0.02251466
49	0x3daba6c5	0.08381418
50	0xbe3a563d	-0.1819696
51	0xbd77285e	-0.06034123
52	0x3b02ca53	0.001995702
53	0x3d94a1a7	0.07257395
54	0xbe45ed9e	-0.19328925
55	0x3e320dae	0.17388031
56	0x3dbdd4c4	0.092690974
57	0x3d887c5b	0.06664344
58	0xbe166e71	-0.14690568
59	0xbdbd696f	-0.092486255
60	0xbc1e1f11	-0.0096509615
61	0x3d9c0945	0.076189555
62	0xbe4404ef	-0.19142507
63	0xbd242a85	-0.040079612
64	0x3e1ce790	0.15322709
65	0x3d7df728	0.062003285
66	0x3d70f608	0.058828384
67	0xbdfae193	-0.12250056
68	0xbd8c060e	-0.06837092
69	0x3dd7f423	0.10544612
70	0xb88a7a00	-6.603077e-05
71	0x3da4035f	0.080084555
72	0xbe3d7691	-0.1850226
73	0x3deeb3b4	0.116553694
74	0xbe38df79	-0.18053998
75	0x3da644f3	0.0811862
76	0xbe3a9d63	-0.18224101
77	0xbe48290f	-0.19546913
78	0xbe5dc5a2	-0.21657422
79	0xbdd897d8	-0.10575837
80	0x3e3f78cd	0.18698426
81	0xbd7844fb	-0.06061266
82	0xbe0aa166	-0.13538131
83	0xbe3c7cdb	-0.18407004
84	0x3df6940d	0.12039957
85	0xbe0ae493	-0.13563757
86	0x3e412808	0.18862927
87	0x3db9c10a	0.090700224
88	0x3df519ae	0.11967789
89	0xbbf8abd1	-0.0075888415
90	0x3db28da5	0.08718423
91	0xbe0cf31d	-0.13764615
92	0xbe259f43	-0.16174035
93	0x3e060311	0.13087107
94	0xbe3c2094	-0.18371803
95	0x3dcf333f	0.10117196
96	0x3df802b0	0.121098876
97	0x3dbe07cd	0.09278832
98	0x3db61e89	0.08892543
99	0xbde4c3c0	-0.11170149
100	0xbe1ea8e5	-0.15494116
101	0xbe1855fe	-0.14876553
102	0x3d1867b4	0.037208274
103	0x3e3cfb1d	0.18455167
104	0x3dbd1b84	0.09233764
105	0x3da3f175	0.08005039
106	0xbce998a0	-0.02851516
107	0xbdf9c914	-0.12196556
108	0xbd4975b6	-0.049184524
109	0xbe657ede	-0.22411677
110	0x3d7ecfa1	0.06220973
111	0xbe4bc7c2	-0.1990042
112	0x3ddab43f	0.106789105
113	0x3d98464f	0.07435285
114	0xbe54c88e	-0.2077963
115	0xbe395f48	-0.18102753
116	0xbd5c10d8	-0.053727
117	0x3dcb4c67	0.09926682
118	0x3e48c938	0.19608009
119	0xbd654749	-0.055976186
120	0xbcebd15b	-0.028786352
121	0xbe420a00	-0.18949127
122	0xbd018201	-0.031618122
123	0xbc53ad3e	-0.012919722
124	0xbe196c36	-0.14982685
125	0x3e01a41e	0.12660262
126	0xbd5e56a8	-0.05428186
127	0xbe0ebfa1	-0.13940288
128	0xbd71240a	-0.05887226
129	0x3e541869	0.20712437
130	0xbcfb9c93	-0.030714309
131	0x3a95aeb0	0.0011419859
132	0x3cddc1ac	0.027069889
133	0xbe29a829	-0.16568054
134	0xbdc6b2c3	-0.09702065
135	0x3dc8f0e1	0.09811569
136	0x3e6c0a4d	0.23050804
137	0x3e30cff2	0.17266825
138	0x3e174896	0.14773783
139	0x3ce2afd6	0.027671736
140	0xbdf05a9d	-0.11736033
141	0x3df31916	0.11870019
142	0xbd94ff05	-0.072752036
143	0x3dc38185	0.09546188
144	0xbd8b8ced	-0.06813989
145	0xbe3673f0	-0.17817664
146	0xbe6ae0be	-0.22937295
147	0x3e24cb6e	0.16093227
148	0xbe516038	-0.20446861
149	0xbb8146ca	-0.0039452063
150	0xbdf00980	-0.11720562
151	0xbda544fd	-0.08069799
152	0x3e2fd5a0	0.17171335
153	0x3d8be2ae	0.06830345
154	0x3e13bdfe	0.14427945
155	0x3e07cb67	0.13261186
156	0xbe756788	-0.23965275
157	0x3e6a2604	0.22866064
158	0xbdd0b95e	-0.10191606
159	0xbe65b7aa	-0.22433344
160	0xbe24bedd	-0.16088434
161	0xbe70ab19	-0.23502769
162	0x3e3e5f8c	0.18591136
163	0xbe4ee3e6	-0.20204124
164	0xbda3dc49	-0.080010004
165	0xbe8a10ec	-0.26966035
166	0xbd303351	-0.04301769
167	0xbd02298b	-0.0317779
168	0xbdb21dd6	-0.08697097
169	0x3e630fe6	0.22174034
170	0x3dd8dd75	0.105891146
171	0xbd176cc2	-0.036968954
172	0x3dc8aeec	0.09798989
173	0x3d5911ce	0.052995495
174	0x3d7b8dcb	0.06141452
175	0xbe3a07ec	-0.18167084
176	0x3e553acd	0.20823212
177	0xbe4f8d33	-0.20268707
178	0x3e20a886	0.15689287
179	0x3db8e6ad	0.09028373
180	0x3bc951c3	0.00614378
181	0xbd7ee215	-0.062227327
182	0x37190c53	9.12238e-06
183	0x3e46e1eb	0.19422118
184	0xbcf09c1c	-0.029371314
185	0x3e60caf7	0.21952425
186	0xbe18c347	-0.14918242
187	0xbe5ef3ca	-0.21772686
188	0x3e80b034	0.25134432
189	0x3d8b4a36	0.06801264
190	0xbe577e64	-0.21044308
191	0xbc80f592	-0.015742097
192	0x3e0e1d59	0.13878383
193	0xbda5bd42	-0.08092739
194	0x3e33d91b	0.17563288
195	0xbde2f65a	-0.11082144
196	0xbdf99a48	-0.1218763
197	0x3e91767e	0.28410715
198	0x3e2bdd27	0.16783582
199	0xbd9a0e12	-0.07522215
200	0x3dc2ecc3	0.09517815
201	0x3d875d6f	0.06609618
202	0x3da8da08	0.08244711
203	0xbe344f27	-0.17608319
204	0x3e0a5495	0.13508828
205	0x3e504160	0.20337439
206	0xbe12dfb1	-0.14343144
207	0xbe0f6544	-0.14003474
208	0x3dd16977	0.10225194
209	0xbe06ed71	-0.13176514
210	0x3e4a9b0c	0.19785708
211	0x3e299c09	0.16563429
212	0x3e61ca9f	0.2204995
213	0xbdc73588	-0.09727007
214	0x3e41bfc7	0.18920814
215	0xbdebe389	-0.11518008
216	0x3e532b74	0.20622045
217	0xbe4ea32a	-0.2017943
218	0xbe98f36c	-0.29873216
219	0x3e425b4c	0.1898014
220	0x3d01e534	0.031712726
221	0xbe5b6cdd	-0.21428247
222	0xbddc5fd0	-0.10760462
223	0x3e3506a9	0.17678322
224	0xbd42f6c5	-0.04759862
225	0x3b20d8e5	0.0024543342
226	0xbe2bb376	-0.16767678
227	0x3cce4ccf	0.02518311
228	0xbe4e7d3e	-0.20164964
229	0x3dbbc7d9	0.09168977
230	0xbe1ac749	-0.15115084
231	0xbe26a095	-0.16272195
232	0x3e575555	0.21028645
233	0x3e0e9041	0.13922216
234	0xbd8f7ee6	-0.07006626
235	0x3e06bf54	0.13158923
236	0x3db32110	0.087465405
237	0x3e04e7d5	0.12979062
238	0xbb9d1801	-0.0047941213
239	0xbdde1609	-0.108440466
240	0xbdce93c5	-0.100867786
241	0x3dcbb7af	0.09947144
242	0x3e5472c4	0.20746905
243	0xbe33ba0a	-0.17551437
244	0xbe3bb196	-0.18329462
245	0x3d1c1904	0.038109794
246	0x3cdb5bf5	0.026777247
247	0x3e43559f	0.1907563
248	0x3d8ade2a	0.06780656
249	0x3e2e1184	0.16998869
250	0x3d8ee0a2	0.06976439
251	0x3e23b21d	0.15985914
252	0xbc1400fa	-0.009033436
253	0xbd91ae7b	-0.07113358
254	0x3d0a8eee	0.033827715
255	0xbdd99ad3	-0.106252335

decoder.0.bias f4 [32]
0	0xbe14906d	-0.14508219
1	0x3d7bf121	0.061509255
2	0x3e85908b	0.2608684
3	0x3dcdedd6	0.10055129
4	0xbb86575e	-0.0040997704
5	0x3b842119	0.004032266
6	0x3e1516cf	0.14559482
7	0x3e7daced	0.24772997
8	0x3e2abca4	0.16673523
9	0x3d802b48	0.06258255
10	0xbcc87884	-0.024471529
11	0x3e1acbf1	0.1511686
12	0x3df50457	0.119637184
13	0x3e80fa1b	0.25190815
14	0x3e5a96d2	0.21346596
15	0x3d297046	0.041366838
16	0xbe030f48	-0.12798798
17	0x3e4487a1	0.19192363
18	0x3e6aea25	0.22940882
19	0x3dbd4525	0.09241704
20	0x3d71945b	0.058979373
21	0x3dc4b6b9	0.09605164
22	0x3e2b46de	0.16726252
23	0xbe0c8500	-0.1372261
24	0x3d12c928	0.03583637
25	0xbe3b8390	-0.18311906
26	0x3ca54f13	0.020179307
27	0xbd11cd03	-0.035595905
28	0xbcf8802d	-0.030334556
29	0xbdbd19b1	-0.09233416
30	0xbe6707e9	-0.22561611
31	0xbcbd9664	-0.023143

decoder.2.weight f4 [64, 32]
0	0xbd341f49	-0.04397515
1	0x3e7a7932	0.24460295
2	0x3e4f6c55	0.20256169
3	0x3e22d381	0.15900995
4	0xbd7c7c12	-0.06164176
5	0x3d5eba0b	0.054376643
6	0xbe307424	-0.17231804
7	0x3db28fb6	0.08718817
8	0xbd36cdb8	-0.044629782
9	0x3ce53419	0.027978944
10	0x3e12860a	0.14308944
11	0xbdd38243	-0.1032758
12	0xbdfd2366	-0.12360267
13	0x3d38fa47	0.045160558
14	0x3dbd58b5	0.09245435
15	0x3d73bf1f	0.05950844
16	0xbd83e46b	-0.06440052
17	0xbd1a601a	-0.037689306
18	0xbe187b9f	-0.14890908
19	0x3d48a266	0.048983
20	0xbcdd78bf	-0.027035115
21	0x3d8e1298	0.0693714
22	0xbb99d17a	-0.004694161
23	0x3d186937	0.037209716
24	0xbe0c30b1	-0.1369045
25	0x3e16953f	0.1470537
26	0xbc47b1b1	-0.012188361
27	0xbdde5a3f	-0.10857057
28	0x3e4e3a37	0.20139395
29	0xbda4c88f	-0.08046066
30	0xbda8c05f	-0.08239817
31	0x3e0be7b2	0.13662603
32	0x3dc63789	0.09678561
33	0xbdc7859e	-0.09742282
34	0x3e0a78f8	0.13522708
35	0x3e0bbd96	0.1364654
36	0x3d43cbbe	0.047801726
37	0xbd406ba3	-0.04697765
38	0xbe1ac378	-0.15113628
39	0x3e30b274	0.17255574
40	0x3cd69541	0.026194217
41	0xbdd2a01d	-0.102844454
42	0x3caad96d	0.02085563
43	0xbe3b508f	-0.1829245
44	0x3e13ba6b	0.14426582
45	0x3c8c1056	0.017097633
46	0xbe3b2274	-0.18274862
47	0x3d570306	0.052493118
48	0xbe2a22a4	-0.16614777
49	0xbe211961	-0.15732338
50	0xbe34b9bf	-0.17648982
51	0xbe096e3b	-0.13420956
52	0x3d08e95d	0.033425678
53	0xbd956eee	-0.07296549
54	0xbe209f13	-0.15685682
55	0xbc95cb87	-0.018285526
56	0x3e1d178b	0.15341012
57	0x3e2524b6	0.16127285
58	0xbe252b78	-0.16129863
59	0x3e0f6cfb	0.14006416
60	0xbda45b63	-0.08025243
61	0x3e09ec0f	0.13468955
62	0x3d1b914c	0.037980363
63	0xbd39d021	-0.045364503
64	0xbe1baca6	-0.15202579
65	0xbe08b45a	-0.13350049
66	0x3de72f03	0.11288264
67	0xbe237956	-0.15964255
68	0x3e1bcc58	0.1521467
69	0xbd74069b	-0.059576612
70	0x3ac4f3d6	0.0015026282
71	0xbd7295ce	-0.059224896
72	0x3ddd2d0c	0.10799608
73	0xbd110bea	-0.035411753
74	0x3e8b3019	0.27185133
75	0x3dba441a	0.090950206
76	0x3baa7ea5	0.0052030855
77	0xbe0ee47b	-0.13954346
78	0x3e0e2c89	0.13884176
79	0xbcdc4254	-0.026887096
80	0x3cadb0dc	0.021202497
81	0x3df2c6b9	0.118543096
82	0x3b226326	0.0024778335
83	0x3df952b1	0.12173975
84	0xbcd9a5b1	-0.026568266
85	0xbde88857	-0.1135413
86	0xbd9dac09	-0.07698829
87	0xbc459d12	-0.012061374
88	0xbd6bda84	-0.05758144
89	0xbda68b28	-0.08132011
90	0x3e1e241a	0.15443459
91	0xbd61e76a	-0.055152334
92	0x3dd9700d	0.10617075
93	0xbda108db	-0.07863017
94	0x3d081449	0.03322247
95	0xbe143088	-0.14471638
96	0xb76402b4	-1.3590488e-05
97	0x3dc151d4	0.094394356
98	0x3db49e65	0.08819274
99	0x3bafe4c6	0.005367848
100	0x3d07aeaa	0.033125557
101	0xbdb5daaf	-0.08879601
102	0x3dcb0fab	0.09915098
103	0xbd3a10df	-0.045426246
104	0xbdefdc2d	-0.11711917
105	0x3c8d6d27	0.017263962
106	0xbd30117b	-0.04298542
107	0x3d43d040	0.047806025
108	0x3dceed53	0.1010386
109	0x3d9309eb	0.07179626
110	0x3e02ce89	0.127741
111	0x3db6c071	0.08923424
112	0xbd28072a	-0.041022457
113	0x3cc3301b	0.02382665
114	0x3d0fa7ff	0.035072323
115	0xbd350062	-0.04418982
116	0xbd06fb7c	-0.032954678
117	0x3d626c16	0.05527886
118	0xbd8d8153	-0.06909432
119	0x3e03206a	0.12805334
120	0x3d32c44c	0.043644235
121	0xbe02034e	-0.12696573
122	0xbdcf05ce	-0.10108529
123	0xbde38911	-0.11110128
124	0x3d0cf552	0.034413643
125	0xbcbf1d0b	-0.023329278
126	0x3d580a65	0.052744288
127	0x3e167ce3	0.14696078
128	0x3dfa8d4b	0.12233981
129	0x3d2904c7	0.04126432
130	0xbd915d70	-0.070979
131	0x3d94af1e	0.072599635
132	0xbbb982bf	-0.005661338
133	0xbe061eae	-0.13097641
134	0xbe82f1d7	-0.25575134
135	0xbd2882a8	-0.04114023
136	0xbe6ab1e4	-0.22919422
137	0x3e734d07	0.23759852
138	0x3e4ccb8d	0.19999523
139	0x3ddf9e4d	0.10918865
140	0x3e102678	0.14077175
141	0x3d90eb20	0.070760965
142	0x3e1a6a00	0.15079498
143	0xbcf441e1	-0.02981657
144	0x3e16de3e	0.14733216
145	0xbd46cc07	-0.04853442
146	0xbe1a421a	-0.15064278
147	0xbe427684	-0.18990523
148	0x3dafc715	0.08582894
149	0xbd437686	-0.047720455
150	0x3d8f500f	0.06997692
151	0xbda34b74	-0.07973376
152	0x3db456cd	0.088056184
153	0xbc4af8d8	-0.012388431
154	0xbd0014cf	-0.031269845
155	0x3d3b874d	0.04578333
156	0xbcba2bf5	-0.022726038
157	0xbe099805	-0.13436897
158	0x3d4db293	0.05021913
159	0xbd937cef	-0.072015636
160	0x3d80b67e	0.062848076
161	0xbdfb572a	-0.122724846
162	0x3e68ad3a	0.2272233
163	0xbd803ee3	-0.06261995
164	0xbd015d45	-0.03158309
165	0xbd3d40f5	-0.046204526
166	0xbd8eff4d	-0.069822885
167	0x3ea91fc7	0.33032057
168	0xbdb93743	-0.090437435
169	0xbd59d27f	-0.05317926
170	0x3e52a12a	0.20569292
171	0x3d9ccfa8	0.07656795
172	0x3cd75034	0.026283361
173	0x3e37d878	0.1795367
174	0x3e0854ef	0.1331365
175	0x3cd433f9	0.025903689
176	0x3c99c472	0.01877043
177	0x3e29c753	0.16579942
178	0xbe1842c5	-0.1486922
179	0x3dbfe1e9	0.09369261
180	0x3d63c35b	0.055606227
181	0xbd7140a2	-0.05889953
182	0xbc09c176	-0.008407941
183	0x3e306a6e	0.172281
184	0x3dbb7097	0.09152334
185	0x3db72396	0.08942334
186	0x3dc0473a	0.093885854
187	0xbdceb1e9	-0.100925274
188	0x3e87aba8	0.2649815
189	0x3dfa1ead	0.12212882
190	0xbd887ac8	-0.06664044
191	0xbde78430	-0.1130451
192	0xbcdb4bbb	-0.02676951
193	0x3e72dc96	0.2371696
194	0xbe40d008	-0.18829358
195	0x3bae021c	0.00531031
196	0x3e0e20e3	0.13879733
197	0xbd54a14e	-0.051911645
198	0xbd22ccb6	-0.03974601
199	0xbde23074	-0.11044398
200	0xbda5c53e	-0.080942616
201	0x3e052925	0.13003977
202	0xbca03b75	-0.019559601
203	0x3dc45bd3	0.095878266
204	0xbcb7a27b	-0.022416344
205	0x3c82108f	0.015877036
206	0x3e3d3a36	0.18479237
207	0xbc47a29d	-0.012184766
208	0x3de81a8f	0.11333191
209	0xba7f9794	-0.0009750065
210	0x3e283656	0.16426978
211	0x3d890897	0.066910915
212	0x3e002678	0.12514675
213	0x3cdc272c	0.026874147
214	0xbe5463c8	-0.20741189
215	0xbdd7d22d	-0.10538135
216	0x3e038c49	0.12846483
217	0x3dccf759	0.10008115
218	0x3e09a56b	0.13442008
219	0xbdd0c945	-0.10194639
220	0xbb8a16c4	-0.0042141397
221	0x3d3775db	0.04479013
222	0x3e09f52d	0.13472433
223	0x3e21d887	0.15805255
224	0x3e01d81f	0.126801
225	0x3afcbfaf	0.00192832
226	0xbe1ff5ae	-0.15621063
227	0x3e23a4c9	0.1598083
228	0xbe393765	-0.18087538
229	0x3e15c069	0.1462418
230	0xbbb43371	-0.0054992964
231	0x3d8078fc	0.06273076
232	0xbd8866d8	-0.06660241
233	0xbdccbb95	-0.09996716
234	0xbda44557	-0.08021038
235	0x3cedcae1	0.029027404
236	0x3c64afd8	0.01395794
237	0xbe1b028a	-0.15137687
238	0x3dfa3612	0.12217344
239	0x3c8d344d	0.017236853
240	0x3e17e060	0.14831686
241	0xbdcc66f5	-0.09980575
242	0xbdf59b40	-0.11992502
243	0x3e01cfa4	0.12676865
244	0xbc936d80	-0.01799655
245	0x3d42450a	0.047429122
246	0xbe6fc83e	-0.2341623
247	0xbd4367f6	-0.047706567
248	0xbcbac1d9	-0.022797512
249	0x3db2ac17	0.0872423
250	0x3e03a3c5	0.12855442
251	0xbddfb767	-0.10923653
252	0x3b8b777a	0.004256186
253	0xbd4b4830	-0.04962939
254	0x3db79ed3	0.0896584
255	0x3d4b3f4d	0.049620915

decoder.2.bias f4 [64]
0	0x3df19eee	0.117978916
1	0xbe39627a	-0.18103972
2	0x3cfe5569	0.031046586
3	0x3e45132f	0.19245599
4	0xbd5888a8	-0.0528647
5	0x3e167609	0.14693464
6	0xbd073be7	-0.03301611
7	0xbe1534fa	-0.1457099
8	0x3d714b8b	0.058909934
9	0x3e21cc49	0.15800585
10	0x3e6c9477	0.2310351
11	0xbe19299d	-0.1495728
12	0xbd7f858f	-0.06238323
13	0x3e318de2	0.1733928
14	0xbe00acb7	-0.12565885
15	0x3e84b38d	0.25918236
16	0x3e50f755	0.2040685
17	0x3dabd859	0.083908744
18	0x3d1642fe	0.036684982
19	0x3daae2d3	0.083440445
20	0xbdd7ba02	-0.10533525
21	0x3e3b23f5	0.18275435
22	0xbdcf370e	-0.10117923
23	0xbd0d9d76	-0.034573995
24	0xbdceeec2	-0.10104133
25	0x3e0f7e2c	0.14012975
26	0x3dd2c157	0.10290783
27	0xbe0545dc	-0.1301493
28	0x3d521241	0.05128694
29	0x3c96e4f2	0.018419717
30	0x3d841507	0.06449323
31	0xbd8d44ff	-0.068979256
32	0xbbef1859	-0.0072966036
33	0x3dfb7dc2	0.12279846
34	0x3e1f1dba	0.15538684
35	0xbd9a3ffa	-0.07531734
36	0x3ceab76a	0.028651912
37	0xbcf128a0	-0.029438317
38	0xbd92d747	-0.07169967
39	0x3e47fec1	0.19530775
40	0x3e1ff544	0.15620905
41	0x3dd3e8a0	0.10347104
42	0xbce38b2e	-0.027776327
43	0x3e48009e	0.19531485
44	0x3d91323d	0.0708966
45	0x3e157097	0.14593731
46	0x3e209812	0.1568301
47	0x3d5a20b9	0.053253863
48	0x3e0fef03	0.1405602
49	0x3dbd5b4b	0.092459284
50	0x3e2a5008	0.16632092
51	0xbd33db07	-0.043910053
52	0xbdacceb2	-0.084378615
53	0xbd2a47dc	-0.041572437
54	0xbbb4a960	-0.005513355
55	0x3dc2c12f	0.09509503
56	0x3cd9d06f	0.026588647
57	0x3dc8da64	0.0980728
58	0xbd469c3c	-0.04848884
59	0x3da7d87a	0.081955865
60	0x3de74f99	0.11294479
61	0x3e337602	0.17525485
62	0xbda6264c	-0.08112773
63	0x3e0bb8f5	0.13644774
