Save_Models/model-lat2.pth (torch, 191202 bytes, 16 tensors)

encoder.0.weight f4 [128, 99]
000000 65 38 b2 3d e2 37 c2 3d a3 25 b6 3d 9e 48 57 3d
       0.08702163 0.09483315 0.088938974 0.052559488
000010 1e 65 1f 3d 1d eb 6f 3c 14 65 5a 3c 14 f2 9b bd
       0.038914792 0.014643458 0.013329763 -0.07614532
000020 1a e5 17 bd df 33 a8 3d 09 19 70 3c 89 3d 0d bd
       -0.037083723 0.082130186 0.014654406 -0.034482513
000030 26 c2 9c ba 6c e7 84 3b fa 86 1c 3d 87 89 b2 bd
       -0.0011959716 0.004055908 0.03821466 -0.087176375
000040 e3 7f 9b bc 4c ad 7f 3d f7 de 12 3d 57 7b 4f bd
       -0.01898188 0.06242113 0.035857167 -0.050654735
000050 aa fc a4 3d 27 c5 b8 3d f2 b0 3b 3d 8f 8e bf 3d
       0.08056004 0.09021979 0.045823045 0.09353363
000060 48 db ae 3d ab 7c d6 3d a6 3f ef 3d 78 93 a1 3d
       0.08537918 0.10472997 0.11682062 0.078894556
000070 f8 1f 39 3c c6 d2 0f bd 92 43 34 3c c0 42 5a b8
       0.011299126 -0.03511312 0.011002438 -5.2037416e-05
000080 e5 88 da 3d d4 4b 6c 3d c3 44 45 3d fe 4a 98 3d
       0.10670642 0.057689503 0.04816128 0.074361786
000090 e8 41 bc 3d 8b a2 e4 ba 02 f3 ea bb 1c 4c 8c bd
       0.09192258 -0.0017443461 -0.007170082 -0.06850454
0000a0 d2 a1 78 bd 8f 55 86 3a 8f 9f 84 3c c4 7a fb 3d
       -0.0607012 0.0010248887 0.016189365 0.12279275
0000b0 a6 3c 1a 3d b1 3a 77 3d a0 33 8a 3a 66 69 44 bd
       0.037655495 0.060358707 0.001054395 -0.04795208
0000c0 fc 74 07 bb 2f 6b c9 3d c0 c8 35 3c 20 9f a0 3b
       -0.0020669093 0.09834897 0.011095226 0.0049017817
0000d0 47 ec 41 3d ce fb 15 3d c8 ac b2 bd 3a 0b 00 3d
       0.047344472 0.036617093 -0.08724362 0.031260706
0000e0 c8 46 3b bd fd 3e 8b bc 37 94 01 bd 52 69 ab 3d
       -0.0457218 -0.016997809 -0.03163549 0.08369698
0000f0 6c bf 73 bc 7b 57 44 bd e3 54 0a 3d 2f b1 12 3d
       -0.0148771815 -0.04793499 0.03377236 0.035813507
000100 61 67 98 bd d8 25 b2 bd 8c 2e 9b bd 54 ba d9 3d
       -0.07441593 -0.08698624 -0.075772375 0.106312424
000110 f6 36 47 bb 38 cc 31 bd b0 b8 bb 3c d2 93 e2 3b
       -0.003039775 -0.04340765 0.022915214 0.006914594
000120 2a ed 77 3d cc 11 bf 3d 42 fe 9f 3d 9f 7a 0c bd
       0.06052891 0.09329566 0.07812168 -0.034296628
000130 11 b2 50 3c 1b 8c 0f bd 82 6c 95 bc 7a be 4d 3c
       0.012737767 -0.035045724 -0.018240217 0.01255762
000140 31 96 bb bd 73 0b 9c 3d 74 76 5e bd 52 02 d9 bc
       -0.09159506 0.07619371 -0.054312184 -0.026490364
000150 7d ed 0b bd 16 5b 20 3d eb 41 1c bd 8a 02 81 bd
       -0.034162033 0.039149366 -0.0381488 -0.062993124
000160 95 6f ae bb 14 67 d0 3a a2 a9 68 bd a7 d0 7d 3d
       -0.00532336 0.001589986 -0.0568024 0.061966565
000170 fb ea 41 3d 3c 4f 09 3d 76 14 ac 3d 63 35 2e 3c
       0.047343235 0.03352283 0.0840234 0.010632846
000180 be 65 28 3d 4c c9 10 bd c3 7b 9f bd b2 bd ea bb
       0.041112654 -0.03534822 -0.077872775 -0.0071637267
000190 ca a5 f1 3d e9 cd 8b bd e4 9a 6f bd fe 47 30 bd
       0.117992 -0.068263836 -0.058497325 -0.043037407
0001a0 84 64 88 bd d6 0b 83 bd 06 7f fb bc 95 0c b2 3d
       -0.06659797 -0.06398742 -0.030700218 0.08693806
0001b0 ee b0 4a 3c 1c f2 9a bc 6c 3c a0 3d 88 e7 8a bd
       0.012371285 -0.018914275 0.078240246 -0.06782442
0001c0 07 2c 3f bc 0f 33 29 3d aa 65 9d bd 10 08 6b bd
       -0.011668212 0.04130846 -0.076854065 -0.057380736
0001d0 9e 56 2e bd ff 5a 32 bd 6e ca 38 3d 46 3c 12 3d
       -0.042563073 -0.043543812 0.045114927 0.035702012
0001e0 a1 e0 4b 3d 9f 85 5f 3d c6 53 54 bd 64 a2 3f bc
       0.04977477 0.05457079 -0.051837705 -0.011696432
0001f0 58 5f a9 bd fc 09 65 bc 16 58 63 3c 04 08 a9 bd
       -0.082701385 -0.013979431 0.013875982 -0.08253482
000200 82 40 9f bd 39 be bb bd 20 37 04 bd 4a fc 9d bc
       -0.07775976 -0.091671415 -0.032279134 -0.01928534
000210 1d 2c 66 3c 23 0f a8 bd 66 5d a5 3d 97 d7 0c 3d
       0.014048603 -0.08206012 0.08074455 0.03438529
000220 8e 34 8e bd d3 57 34 3d 5d e5 15 bd 97 a2 de bd
       -0.06943618 0.04402907 -0.03659569 -0.10870855
000230 50 75 9e 3c 29 c9 05 bd 1e 4d ac 3b dc ec 3b bd
       0.019343048 -0.032662544 0.0052582165 -0.045880184
000240 9c 77 b0 3d 84 fc 15 bd 38 75 98 3d 7c 12 fa 3c
       0.08616564 -0.03661777 0.07444233 0.030526392
000250 82 74 16 bd c4 89 e4 3c 2e 1c d9 bd 60 7b b2 bd
       -0.036732204 0.027897723 -0.10601078 -0.08714938
000260 ee a2 6d bd 31 c2 8f 3c f2 a6 ed 3c 19 72 ef 3b
       -0.05801671 0.017548652 0.02901027 0.0073073027
000270 14 9f a8 3d 86 8c 29 3c 47 2f a4 bd 2f 57 bd 3d
       0.08233467 0.010348445 -0.0801683 0.092451446
000280 ce 24 8e bd 37 e3 6c 3c be 9e 35 3d d5 e3 8d bb
       -0.06940614 0.014458469 0.04434084 -0.004330138
000290 0c ac 71 3d 05 31 3d bd 8b 4f b8 bc 9c ca 67 3d
       0.059001967 -0.046189327 -0.022498867 0.056589708
0002a0 e4 ea 5a bd b7 5b af bc 1e b7 b4 bd 3d 4c 0c bd
       -0.053446665 -0.021406038 -0.08823989 -0.034252394
0002b0 c6 f1 6f bb 56 07 82 bd ce 0e 4d bd 9e 32 b4 3d
       -0.0036612614 -0.063490555 -0.050062947 0.08798717
0002c0 5e 8b 0a bc 23 b9 a4 3d b9 b1 35 bd 53 aa 8f 3c
       -0.008456079 0.080431245 -0.044358943 0.017537272
0002d0 9e 05 84 bd 8c 8a 6f bd 93 fe 80 3d 40 9f cf 3c
       -0.06446384 -0.058481738 0.06298556 0.025344491
0002e0 93 29 8a 3d bf 90 8a 3d c0 84 a0 3d 87 55 63 bd
       0.06746211 0.067658894 0.0783782 -0.055501487
0002f0 40 be 80 bd b9 41 77 3d d5 14 16 bd 13 a6 75 bd
       -0.06286287 0.060365412 -0.03664096 -0.059972834
000300 a6 11 89 bd 0e 45 24 3c fc af 90 3d 01 37 0f 3a
       -0.06692819 0.01002623 0.07064816 0.00054632133
000310 2d a8 b9 bd 75 99 f6 bc 59 06 07 be 60 c8 a6 3c
       -0.0906528 -0.03010247 -0.13186015 0.020359218
000320 ea 38 8d bd f8 6b 72 3d da db 25 bd 66 25 60 bd
       -0.06895621 0.059185 -0.04049287 -0.054723166
000330 ab 72 09 3c b4 0d 12 bd 4a a7 a6 3d 07 ac b0 3d
       0.008389155 -0.0356576 0.081373766 0.086265616
000340 88 5e a7 3d 38 37 20 bc ea 73 89 3d 01 63 34 3c
       0.08172327 -0.00977879 0.06711562 0.0110099325
000350 49 46 c3 3b 18 8d 54 3d c9 b3 45 bd d6 7b 86 bc
       0.0059593064 0.05189237 -0.04826716 -0.016416471
000360 3d 89 5f bd dd 19 28 bd 61 c4 ad 3d 4c 66 aa 3d
       -0.05457424 -0.04104029 0.08484722 0.08320293
000370 f0 45 72 3d a9 02 05 3d 56 5c 44 3c 71 58 68 3c
       0.05914873 0.03247324 0.011984905 0.014181242
000380 62 8e 92 3d 87 83 94 bd 8b 97 96 ba ed 43 f8 bd
       0.071560636 -0.07251649 -0.0011489255 -0.12122331
000390 0a b2 52 bd de 7e 62 bd 86 3c 92 bd 30 13 4c bc
       -0.051439323 -0.05529677 -0.0714045 -0.0124557465
0003a0 34 54 14 3d d3 f9 f2 bc 01 00 fe bc ee 00 90 bc
       0.036213115 -0.029660141 -0.031005861 -0.017578568
0003b0 91 5a f0 bc 7a bf 1e 3c 93 31 ad bc 06 da dc bc
       -0.02934006 0.009689206 -0.021141803 -0.02695943
0003c0 cf 37 3d bd 26 fd 2c 3c f4 10 13 bc e0 9e 1d bd
       -0.0461958 0.010558402 -0.00897621 -0.038481593
0003d0 6e f6 1a bd 06 3f ec bc af f2 3a bb d9 5b b3 bd
       -0.03783267 -0.028838646 -0.0028525998 -0.08757753
0003e0 0c 92 7a bd a8 a3 e2 bd 41 13 db bd 0f 78 b1 bd
       -0.061174437 -0.11066371 -0.10697032 -0.086654775
0003f0 92 c4 59 3c d3 36 15 bd 85 68 4b bc de 72 62 bc
       0.013291495 -0.036429238 -0.012415056 -0.013821332

encoder.0.bias f4 [128]
000000 b8 26 52 be 79 b6 a7 be 60 80 9c be 85 99 37 be
       -0.20522583 -0.32756403 -0.30566692 -0.17929657
000010 5f d9 13 be 4f 77 6f be c4 91 63 be 46 cd 61 be
       -0.14438389 -0.23385356 -0.22223574 -0.22050962
000020 15 a8 83 be ab d2 c4 be 26 dd 92 bd 9a 28 46 be
       -0.25714174 -0.38441977 -0.07171087 -0.19351426
000030 8f 76 9e bd 14 2a 5a be 16 62 d3 be ad 53 6c be
       -0.07737457 -0.21305114 -0.4128577 -0.23078795
000040 11 de 69 be 8b 16 e8 bd 8d 96 e0 bd 09 e4 16 be
       -0.22838618 -0.11332425 -0.10966215 -0.14735426
000050 71 f3 37 be a4 86 8d be 52 a9 de be 38 95 ef bd
       -0.1796396 -0.27641785 -0.43488556 -0.11698383
000060 75 7c 9a be 6e 4d c7 bd f3 a0 dc be b3 bb 3f be
       -0.30173078 -0.097315654 -0.43091545 -0.18723945
000070 0c 94 11 be f9 77 65 be cc ba 85 be b7 b4 38 be
       -0.14216632 -0.22409047 -0.26119077 -0.18037687
000080 53 39 46 be 96 b0 17 be 3e a6 2f be dc 9d 68 be
       -0.19357805 -0.14813456 -0.1715326 -0.22716469
000090 f1 c9 24 be 3c 11 2f be 8f 3e 22 be d1 22 79 be
       -0.1609266 -0.17096418 -0.15844177 -0.24329688
0000a0 27 90 2a be ab b7 0a be 5c 61 6b bd 12 bd 5e bd
       -0.16656552 -0.13546626 -0.057465896 -0.05437953
0000b0 33 e6 5d be 3e 66 db bd ff 08 80 be 9d 3f 0e be
       -0.21669845 -0.107128605 -0.25006863 -0.13891454
0000c0 5e 20 77 be 07 ce 8d be 29 b9 6d be c6 20 45 be
       -0.24133441 -0.2769625 -0.23215164 -0.19250783
0000d0 fd ee 1a be 8e 49 35 be e9 7f 28 be 2e 25 7f be
       -0.1513023 -0.1770384 -0.16455044 -0.24916527
0000e0 01 ca 75 be 0e cd 80 be 5b b4 35 be 2c 9c af bc
       -0.2400284 -0.25156444 -0.17744581 -0.021436773
0000f0 22 24 07 be c0 a0 67 bc 41 1c 3e be 90 b0 4d be
       -0.13197377 -0.014137447 -0.18565466 -0.20086884
000100 ec 48 d3 bd 4b c9 23 be 53 09 74 be 1d 23 ec bd
       -0.10316643 -0.15994756 -0.23831682 -0.11530135
000110 a3 40 42 bd 26 0e 8b be c9 10 01 be cc 85 67 be
       -0.047424924 -0.27159232 -0.1260406 -0.22609633
000120 7f 9e b3 be 82 5c b3 be 2a 88 6d be 0a 3a c9 bd
       -0.3508186 -0.35031515 -0.23196474 -0.09825523
000130 9b ca 23 be 2e 30 57 be 92 92 83 be 5d ec e7 bd
       -0.15995257 -0.21014473 -0.25697762 -0.113243796
000140 23 22 47 be c7 80 3e be d6 4a dc bb 8b 5a 9d be
       -0.19446616 -0.18603812 -0.0067227883 -0.3073314
000150 90 5b 16 be 0e b1 73 be e3 aa c2 3d 73 40 52 be
       -0.14683366 -0.2379801 0.0950525 -0.20532398
000160 0a 11 1f be 2c 1f fa bd 92 5f 91 bd 8e f7 be bd
       -0.15533844 -0.12212977 -0.07098307 -0.09324561
000170 97 4b 2f be 17 b7 97 be df 6f 12 bc fa 97 8d bd
       -0.17118679 -0.29631874 -0.008937805 -0.06913753
000180 b9 59 a5 be 55 db 93 be de 52 0f be 7c 84 53 be
       -0.32295015 -0.28878275 -0.13996455 -0.20656008
000190 de f4 b1 bd c5 af 88 be fb 51 cd be 45 45 df bd
       -0.08689283 -0.26696602 -0.4010161 -0.10901884
0001a0 c4 2a e7 be 9c 8b 8a be bd 74 3a be 86 fb aa be
       -0.45149815 -0.27059639 -0.18208595 -0.33395022
0001b0 44 cc de bd b3 eb 90 be 43 08 2f be 30 63 5b bd
       -0.10878804 -0.28304824 -0.17092995 -0.05356139
0001c0 96 4d b3 be 32 69 8a bc f3 39 77 be 5a a2 9c bd
       -0.3502013 -0.016895864 -0.241432 -0.076481536
0001d0 12 18 2e bd a6 5b 11 be fb 77 48 be 59 c2 54 bd
       -0.042503424 -0.14195117 -0.19577019 -0.051943157
0001e0 fa 28 8a be 0d 57 6d be 09 62 9d be 37 57 4f be
       -0.26984388 -0.23177738 -0.30738857 -0.20248114
0001f0 ec 61 38 be 13 e6 24 be e5 35 6e be f4 a5 37 bd
       -0.18006104 -0.16103391 -0.23262747 -0.044836

encoder.3.weight f4 [64, 128]
000000 05 1f df bc 2a f0 24 3d f8 be c0 3d 74 c1 98 bd
       -0.027236471 0.0402681 0.094114244 -0.07458773
000010 1f 5c 6e bb a2 8d 37 3d 62 d0 c0 bc 9c 33 4f bb
       -0.0036370826 0.044812806 -0.023536865 -0.0031616455
000020 2d 3c f5 bb bd 04 36 3c d5 2b 8a bd 7e 87 49 bc
       -0.00748398 0.011109528 -0.067466415 -0.01230037
000030 4e 43 29 be 3d ae 60 bd a4 d6 8f bb 7c 29 a5 bd
       -0.16529581 -0.054853667 -0.004389601 -0.08064553
000040 8d 67 5d 3d 30 ce 10 bd 4c 78 34 bc fa bd 50 3d
       0.05405383 -0.035352886 -0.011015009 0.050962426
000050 78 b3 a2 bd 45 e8 d3 3d b0 f5 08 bd 3b c7 8b 3d
       -0.07944387 0.10347036 -0.03343743 0.068251096
000060 82 a6 ae 3d d4 88 3d bd f9 54 09 3e a7 56 0f 3c
       0.085278526 -0.046273068 0.13411321 0.008748687
000070 6f 69 c4 3d 5c e6 a1 3d c7 03 68 bd bb 70 dd 3d
       0.09590422 0.07905266 -0.056644227 0.10812517
000080 ee bd b1 bc 56 06 a2 3c 3d 1c 9f bb b7 8c ff bc
       -0.02169701 0.019778412 -0.004855661 -0.031195028
000090 2b 78 c7 bd 8e c8 59 3d b2 d8 98 3c 6a 04 5d 3d
       -0.09739717 0.05316978 0.018658016 0.053959288
0000a0 8c fa 14 3d 61 69 6f 3c 1a ab 64 bd 5e 23 e9 3c
       0.036371753 0.014612527 -0.055827238 0.028459247
0000b0 36 58 b4 bd d6 3b 0f 3d 85 3f 32 3d 86 eb 46 3c
       -0.088058874 0.034969173 0.04351761 0.012141114
0000c0 c9 e1 3d 37 87 fa 1c 3d 6d df 07 bc 27 10 b2 bd
       1.1317848e-05 0.03832486 -0.008293015 -0.08694487
0000d0 ba ae 21 3d a7 ef a0 3d 78 7b df bd 81 8e a6 3d
       0.039473273 0.0785821 -0.10912222 0.08132649
0000e0 3b 7a 2c bd d2 72 75 3d 96 07 39 3c 0a 28 0a 3d
       -0.042108756 0.059923954 0.011293313 0.03372959
0000f0 7d ca 6c bc 76 63 c5 bd 9e ab 3b bc 5a 7d 82 3d
       -0.014452574 -0.09638111 -0.011454491 0.06371565
000100 a7 f3 6a 3d 87 00 8c be 72 ba 78 bc df 86 d4 bd
       0.05736127 -0.27344152 -0.015181171 -0.10377287
000110 6d 29 e2 bc 03 fe c5 3d 20 c3 a2 3d 8a 53 0a bd
       -0.027607644 0.096675895 0.079473734 -0.033771075
000120 71 05 2b 3d 10 67 0c bc f8 bd 91 bd 95 d4 97 bb
       0.041753236 -0.008569494 -0.07116312 -0.004633496
000130 62 3c 3e bc cf 12 eb bd 28 60 ed 3c ab 09 5e bd
       -0.011611076 -0.11478197 0.028976515 -0.05420844
000140 d7 94 c1 ba 86 ce 26 3d 03 b0 3d be 10 67 11 3d
       -0.0014769089 0.0407243 -0.18524174 0.03549868
000150 76 e2 92 3b 5c 31 a6 bd 60 48 27 be dc 65 3b bc
       0.0044825627 -0.08114883 -0.16336203 -0.011437859
000160 92 d3 45 3b f2 87 1c 3b 06 56 ad bc f0 c7 af 3d
       0.003018592 0.002388474 -0.021159183 0.08583057
000170 78 32 be 3d ae 08 4b 3c 8f 11 0e bd df c6 1e 3d
       0.0928697 0.012392206 -0.034684714 0.038763877
000180 d9 2d 68 bc 3f 6e 96 bc 58 ab 84 bd 5e fd b6 bb
       -0.014171087 -0.018363116 -0.06477994 -0.005584403
000190 73 6c 1e bb da b8 81 bd 00 d0 4a bd b9 84 aa bd
       -0.0024173527 -0.06334086 -0.04951477 -0.08326096
0001a0 bc ab 2a 3d b5 e7 74 bd a8 a7 28 bc d6 3f 3e bd
       0.041667685 -0.059791286 -0.010293879 -0.046447597
0001b0 23 45 61 bd 32 53 74 3c 33 8c 2d bd bd 3c 8a bd
       -0.054997575 0.014912413 -0.042370033 -0.06749866
0001c0 55 f2 10 3d 7f 75 10 3d 23 c9 a8 be 64 29 a4 3d
       0.035387356 0.035268303 -0.32965955 0.08015707
0001d0 da da 9c 3c 96 c8 76 3b 00 81 ae 3d 17 af cc bd
       0.019147325 0.003765618 0.085206985 -0.09994333
0001e0 15 ac 8e bd bc 7c e1 ba db 23 1b bd 62 ac 51 3d
       -0.06966416 -0.0017203311 -0.03787599 0.051189788
0001f0 aa 58 31 bb 9a 4b c1 3d 48 9d e6 3c 8a 74 a8 3b
       -0.0027060905 0.09438248 0.02815117 0.0051408457
000200 9d 42 33 3d fb 5a e0 bd 63 c6 23 3d 95 86 0c 3c
       0.0437647 -0.10954853 0.03998412 0.008577009
000210 b8 2b f7 bb 90 81 a8 3d 5e 1b 9b 3d c2 ad 4a bd
       -0.0075430535 0.08227837 0.07573579 -0.049482115
000220 74 be 98 bd 7a e4 7b 3d 80 05 9d 3c 41 62 44 bd
       -0.07458201 0.06149719 0.019167662 -0.047945265
000230 51 1c ef 3c fd 45 9f bc e8 66 f7 bc 15 9e b3 bd
       0.029188307 -0.019442553 -0.030200437 -0.08770386
000240 e7 57 b2 bd 61 22 88 bc 9b e5 26 bd 95 ce 90 bc
       -0.08708172 -0.016617956 -0.040746313 -0.017676631
000250 59 c7 2d 3c 7b bb e9 bd 17 69 e0 3d 8a f7 5b bd
       0.01060661 -0.11412712 0.10957544 -0.05370287
000260 f2 9b ee 3c 56 9a 1f 3d 18 af 22 be 3b b2 e1 bc
       0.029127095 0.038965546 -0.15887105 -0.027550807
000270 2a 5e 3a bd 0d a1 47 3c d1 5e 83 3c 57 28 54 bd
       -0.045499958 0.012184394 0.016036423 -0.051796284
000280 36 41 a1 3d 99 fb 8e bd 06 ad 95 3d b4 8f 93 3c
       0.07873766 -0.06981582 0.07308392 0.018012859
000290 f5 6f 68 bd c2 31 9f bb e9 29 ac 3c 93 e3 84 3d
       -0.056747396 -0.0048582265 0.021016078 0.06488719
0002a0 83 ce 40 bd 11 d4 87 bc c9 26 c8 bd 20 2a e9 bd
       -0.047071945 -0.016580613 -0.09773023 -0.11384988
0002b0 6f b8 c2 3d 8e 9f 80 3d 79 ef 9e 3c 4d de b7 3d
       0.09507834 0.06280433 0.019401299 0.089779474
0002c0 b2 be 87 bd 5a ff 0a ba 9c 7b ee 3c 76 3d 3b 3d
       -0.06628169 -0.00053023326 0.029111676 0.04571291
0002d0 dd 4e 6d bd a6 10 09 3c 66 95 70 bc 84 3b 4e 3d
       -0.057936538 0.008365786 -0.014684057 0.050349727
0002e0 3e 9e ad 3a 70 c3 41 3c b4 af a4 3d 0f e9 1f 3b
       0.0013246012 0.011826381 0.08041325 0.0024400388
0002f0 a9 85 14 be 5f 1c 07 3d fd cc 7b 3d 53 ea c7 3d
       -0.14504112 0.03298604 0.06147479 0.09761491
000300 91 e0 cf bb ff 02 a3 bd 1e b8 2c be b5 48 93 3c
       -0.006343909 -0.07959556 -0.1686711 0.017979005
000310 d9 63 bb 3c ce cd 0c be 22 05 99 bd 7b ab 6e 3c
       0.02287476 -0.13750383 -0.07471682 0.014567251
000320 08 1d 82 3d 0f 74 ef bd f4 23 8f 3d 8e 5a 07 be
       0.063531935 -0.11692058 0.069892794 -0.13218138
000330 6a dc dc bd 44 65 b1 bc 25 fc 4c bd b1 9c 99 bc
       -0.10784228 -0.021654733 -0.05004515 -0.018751474
000340 07 9d 2b bb 1c 2f b1 3d 53 d2 4b bb a5 48 6f bd
       -0.0026186125 0.086515635 -0.0031100705 -0.05841889
000350 a6 91 c5 3d ff 4f d1 3d 58 cb e7 3b bb 1d b8 3d
       0.09646921 0.10220336 0.007073801 0.08990046
000360 00 84 79 3d 7b bc 96 bd da 66 a5 3c 40 b6 d3 bc
       0.0609169 -0.073601685 0.020190645 -0.02584374
000370 28 88 3d bd 66 bb c9 bd 49 8f 0b be 0b 43 77 3d
       -0.046272427 -0.098501965 -0.13628878 0.06036667
000380 0f 5d 99 bd 56 10 07 3d 5d b8 93 3b 9f 54 75 bd
       -0.07488453 0.032974564 0.004508062 -0.059895154
000390 57 8b ef bc 0e 70 79 3d 7f ac 71 bc e0 5b 34 3d
       -0.029241247 0.06089788 -0.014750599 0.04403293
0003a0 29 e9 ce bc 74 6e 6b bc 71 dd 52 bc 51 6d 67 3d
       -0.025257664 -0.014369596 -0.012870179 0.056500737
0003b0 90 f2 67 3d 8b 85 05 3d 30 c6 b0 3d a5 f7 ea bc
       0.05662781 0.03259806 0.08631551 -0.02868254
0003c0 4e cd 86 bd 58 54 b8 3c 35 4a 94 3c af f8 c7 3c
       -0.065821275 0.022501156 0.01810179 0.024410574
0003d0 e4 ac 45 bb aa 87 5e 3b df f7 d8 bc 3c 87 b4 3d
       -0.0030162865 0.0033955374 -0.026485382 0.088148564
0003e0 8f 69 66 bd bc c6 86 3c b6 d5 ff bc d1 0b 92 bd
       -0.056253012 0.016452186 -0.031229835 -0.0713116
0003f0 29 bf 2b bd 85 b6 09 bd 7b a4 25 bc 44 71 79 3d
       -0.04193035 -0.03362133 -0.010110016 0.060899034

encoder.3.bias f4 [64]
000000 a6 30 7e be f3 56 84 3b 61 a4 e1 bd dc 9b d0 3a
       -0.24823245 0.0040386855 -0.11017681 0.001591559
000010 a6 1f 81 3b 0c c5 f4 bc 4a f7 cc be fa 44 8a be
       0.0039405404 -0.029879116 -0.40032417 -0.2700575
000020 1d 26 c0 bd 7c f6 43 be 72 be 17 be cd 63 0f be
       -0.093822695 -0.19136995 -0.14818743 -0.14002915
000030 08 b5 7b be 31 98 b8 bb dc 41 75 bd d6 71 18 bc
       -0.24580777 -0.005633377 -0.05987726 -0.009304484
000040 28 46 af bd 3e 1b 13 3d e3 ff 99 bd 07 78 6f be
       -0.08558303 0.035914652 -0.0751951 -0.2338563
000050 e3 98 83 3c 44 de 36 bd 92 1b 71 be 81 13 f2 bc
       0.016064113 -0.044645563 -0.23545673 -0.029550316
000060 1f d2 c6 bc 6d 5f b8 3d 63 d5 b0 bd 76 97 ad bd
       -0.024270115 0.09002576 -0.0863445 -0.084761545
000070 af 0e 9b bd cf 99 0a be 7b 2b 45 be a5 07 bc bd
       -0.0757116 -0.13535236 -0.19254868 -0.091811456
000080 d1 7b 03 be fd 28 39 be 77 9a 94 bc 9f a2 c7 bd
       -0.12840201 -0.18082042 -0.01814006 -0.097478144
000090 15 92 f6 bd 55 3e c8 bd 98 bd 75 be dc b0 84 be
       -0.12039582 -0.09777514 -0.23998106 -0.25916183
0000a0 60 b9 b0 bd f5 e2 be 3b 21 13 e9 bd 45 c4 0c bd
       -0.086291075 0.005825395 -0.11380602 -0.034366865
0000b0 a5 f9 45 bd 3a 3b 41 3c fe dd 3a be fa 76 2e be
       -0.048333783 0.011793906 -0.18248746 -0.17037573
0000c0 25 a0 37 3d 78 d1 83 be 48 e1 32 be ea 7a 05 be
       0.04483046 -0.2574575 -0.1746875 -0.13035169
0000d0 06 28 0e bc 25 44 88 3e 6d 96 df 3d 70 f6 f1 bd
       -0.0086765345 0.2661449 0.10917363 -0.11814582
0000e0 3d 41 13 bd c7 bf f7 bd 21 91 e7 bd 97 63 bd be
       -0.035950888 -0.120971255 -0.11306978 -0.36990044
0000f0 d5 5c 1f be d3 d3 6e be 35 a0 0d be 91 2c 93 be
       -0.15562756 -0.23322992 -0.13830645 -0.2874494

encoder.6.weight f4 [32, 64]
000000 41 c6 93 bb 5f 89 00 be 96 a0 b5 bd 37 4d ad 3b
       -0.0045097177 -0.12552403 -0.0886852 0.0052887457
000010 33 1c 23 3d 37 d4 0c be 7d 03 11 3d a0 c4 24 3e
       0.039821815 -0.13752829 0.035403717 0.16090631
000020 b4 4a 04 3e 97 77 f0 3d 71 b7 cb 3c 4d 15 49 bc
       0.12919122 0.1174156 0.024867745 -0.012273145
000030 80 d7 16 be 3b ed c6 bd bf c8 7a 3d a9 a6 53 3c
       -0.14730644 -0.09713217 0.061226603 0.012918153
000040 f3 1e 3d be 5b 53 c8 3d 54 52 0d bc df f9 a3 bc
       -0.18468837 0.09781524 -0.008625586 -0.020016609
000050 ae 46 2c be d8 8e 56 bd fa 0f 2a 3e 2d 1c cc bd
       -0.16823837 -0.05238232 0.16607657 -0.099663116
000060 25 d7 e8 bd bf 26 80 3d cd a3 0e 3e 85 8d f1 bd
       -0.113691606 0.0625739 0.13929673 -0.11794571
000070 5b 54 a3 bd 41 e1 03 3e f8 dc 57 bd 81 4f a8 bd
       -0.07975074 0.12878896 -0.052700967 -0.08218289
000080 b9 c7 20 bd 1b 63 d0 bd e6 3e 4f bd 74 da b3 3d
       -0.03925297 -0.10175153 -0.050597094 0.08781901
000090 ec b1 1c 3e bc 3b 6d bd e5 f7 1f 3e 70 bd dc 3d
       0.15302247 -0.057918295 0.15621908 0.1077832
0000a0 09 53 98 bd 96 f9 35 be 2a 4b d5 3d 74 9c 33 3d
       -0.07437713 -0.1777099 0.10414727 0.043850377
0000b0 37 f9 f6 3b 3e 2f 1b 3d 6e f0 21 bd 1a aa 10 be
       0.007537033 0.03788685 -0.039535932 -0.14127389
0000c0 3a 94 18 3e be ef 01 3d 87 1c 98 3c d3 83 96 3d
       0.14900294 0.031722777 0.01856829 0.07349362
0000d0 52 89 34 be 88 c4 a6 bc 11 65 b8 bc bb b7 68 3b
       -0.17630509 -0.020357385 -0.02250913 0.0035509903
0000e0 08 76 28 3d 07 eb 8c 3d dc 3d bb 3d 71 2a 4f 3d
       0.04112819 0.068807654 0.09142658 0.050577585
0000f0 85 5a 88 bd 83 2f 14 3d 04 b2 84 bc d8 32 da 3d
       -0.0665789 0.036178123 -0.016198166 0.10654229
000100 ff 42 60 bd b3 6f 03 bd c6 59 18 be 57 26 db 3c
       -0.054751392 -0.032088947 -0.14877996 0.02675168
000110 6c d0 c9 bd f0 9f 79 3c d9 ea 46 3e f8 ee 39 3d
       -0.098542064 0.015235886 0.19425525 0.045393914
000120 6f 1c 77 bc 4e 98 2a bd 6d ec 87 3d 07 5b f5 3d
       -0.015082463 -0.041649155 0.066368915 0.11980253
000130 c9 2e 74 3c d0 66 8c bd 94 c1 ca 3d e7 23 30 bd
       0.014903733 -0.068555474 0.09900203 -0.04300299
000140 25 9a 0a be ce 0e 9a bc 5f d9 12 be 81 37 0f be
       -0.13535364 -0.018805888 -0.14340733 -0.13986017
000150 30 3e db bd 21 d4 bd bd f6 3b 85 3d 24 17 b4 3b
       -0.10705221 -0.09268976 0.06505577 0.0054959226
000160 78 99 51 3c 4b 52 3c bd c8 da 81 bd 16 9f 44 bd
       0.012792937 -0.04597692 -0.06340557 -0.04800328
000170 3b 95 c0 bd 88 c9 01 3e ca bb 63 bd 2c fa b0 bd
       -0.094034635 0.12674534 -0.05559901 -0.086414665
000180 15 3c 28 3a ba dd 5d bd d3 30 8c bb 8e ac ad bd
       0.00064176443 -0.054166533 -0.0042782812 -0.08480178
000190 11 b6 77 3d 68 69 19 bd 0b 5e c3 bb 4d 66 4d 3d
       0.060476366 -0.03745404 -0.0059621385 0.05014639
0001a0 fb fc 67 bd eb a4 9a bd e1 8e 8e bd 49 c4 84 3d
       -0.056637745 -0.07550987 -0.06960846 0.06482751
0001b0 50 4d 1d 3b 0b b5 8c bc 8e 3f ed 3d 1c 0f 77 3d
       0.002400238 -0.017176172 0.11584388 0.060317144
0001c0 e1 bf 3f bd 24 31 84 3d 5f 89 d0 3d 2c a1 76 bd
       -0.04681385 0.06454685 0.101824515 -0.0602123
0001d0 24 42 c3 bd 2e 2f 40 be 37 2d 1a 3d ce f2 9f bd
       -0.095341 -0.18767998 0.037640776 -0.07809983
0001e0 c6 a0 9c bd 19 75 08 3e 12 06 e2 bc 82 95 e1 3d
       -0.076478526 0.13325919 -0.027590785 0.110148445
0001f0 d0 17 99 bd 62 62 cc 3d b3 2c 29 bc 8d d3 89 3d
       -0.07475245 0.099797025 -0.0103255985 0.06729803
000200 9b 28 74 bc a6 b4 89 bc 27 f1 0c 3e 6d 82 e4 bd
       -0.014902259 -0.016809773 0.13763867 -0.11157689
000210 60 1f fc 3d 54 9e e9 3d 78 3a 89 3d cf c0 10 3d
       0.12310672 0.11407152 0.06700605 0.035340127
000220 e7 90 01 3e dc f4 22 be 6d 56 94 3c a0 fe 7b 3b
       0.12652932 -0.15913719 0.018107617 0.003845133
000230 57 81 67 bd f9 2b 3f 3d 50 c7 0b 3c c3 f4 c5 bd
       -0.056519832 0.046672795 0.0085314065 -0.09665825
000240 f2 59 7b 3d de 7c a8 bd 3c 79 95 3c 32 74 19 bd
       0.061365075 -0.082269415 0.018246286 -0.037464328
000250 17 8b b1 3c 3c 46 78 bd 74 89 c3 3c 0d 6f b6 bb
       0.021672769 -0.060613856 0.023869254 -0.0055674375
000260 2d 9c 61 3d 13 10 31 bc b8 ef 1e be b2 b3 11 bd
       0.05508058 -0.010807055 -0.15521133 -0.03557176
000270 88 ab df 3d 5b db ac 3d 20 14 6d 3c d9 dd eb 3d
       0.10921389 0.08440276 0.01447013 0.115169235
000280 0f 8c cd bd 05 09 08 3e 6a 47 5a be 86 0a b3 3d
       -0.1003648 0.1328469 -0.21316305 0.087422416
000290 59 08 8b bd 44 dc ea bd ba 51 3c bb 72 fd 99 3c
       -0.067887016 -0.114677936 -0.0028735236 0.01879761
0002a0 27 ba 02 3e 41 9e ea 3d 14 0d 97 bd 7a ed 62 bd
       0.12766324 0.11455966 -0.07375541 -0.055402257
0002b0 11 16 aa bd c1 72 31 be 01 c6 27 3b f8 06 36 3d
       -0.0830499 -0.17328931 0.0025600197 0.04444024
0002c0 66 c0 90 be 07 61 85 3a 64 55 da bd f0 47 9e bd
       -0.28271788 0.0010176011 -0.10660818 -0.07728565
0002d0 c7 5e bc 3d b1 a6 53 be f7 86 79 3d 0b 5e 64 bd
       0.09197765 -0.20669056 0.060919728 -0.05575375
0002e0 56 08 ec 3c 74 fc 4c be e6 30 70 bd 5e 12 60 bd
       0.028812569 -0.20018178 -0.058640383 -0.054705016
0002f0 b5 66 e7 bc d8 ae fd bd 31 76 36 3d 9c 01 eb 3c
       -0.028247217 -0.123868644 0.04454631 0.02868729
000300 18 4e 38 bc 45 65 f0 3d c5 a0 bb 3d 2a 8b 91 bd
       -0.011249088 0.11738066 0.09161524 -0.071066216
000310 2d c1 bc bd 03 7c e2 bb ae 17 de ba b5 d5 cb 3c
       -0.09216533 -0.006911756 -0.0016944313 0.024882177
000320 58 66 8d 3d b7 4f 77 bd 15 da 4c 3d b1 d4 d0 bc
       0.06904286 -0.060378756 0.050012667 -0.025492044
000330 ac bf 2e 3c 22 9b 52 3b a9 31 f6 bd 66 e7 e3 3d
       0.010665815 0.0032135923 -0.12021191 0.1112812
000340 5a 7e da 3c 10 39 15 be 2b 5b 2f 3b 06 32 5c 3d
       0.026671577 -0.14572549 0.0026757221 0.053758644
000350 14 d0 91 bd 1a 4f 41 3d 4f ec 7b 3d 67 2c 0c 3e
       -0.07119766 0.047194578 0.06150466 0.13688813
000360 7d 05 98 bd e7 59 0b bd 9d a7 11 be 7d b3 34 3d
       -0.07422922 -0.034021284 -0.14224096 0.044116486
000370 92 09 19 3e b5 38 d5 3d 8a c0 72 bc e9 9a 2c 3c
       0.14945057 0.10411207 -0.014816413 0.01053498
000380 e1 f1 d0 bd bf d2 53 3c 8e f4 2c be 93 68 d0 3c
       -0.10202385 0.012928664 -0.16890165 0.02544049
000390 fc 8e d4 bd 39 dc f0 bd 28 55 04 be e0 de c2 39
       -0.103788346 -0.11760754 -0.1292311 0.00037168618
0003a0 1b 33 c5 bc cf 4f 0b 3e 96 b2 8a bd 76 76 ee bd
       -0.02407222 0.13604663 -0.06772344 -0.116436884
0003b0 53 9a c2 3d d7 a6 2c be bf e7 9b 3d c8 ac 92 bd
       0.09502091 -0.1686052 0.076125614 -0.07161862
0003c0 68 e2 87 be 8c 81 72 3d 22 ba 8a bd b0 bb 6c 3d
       -0.26539922 0.059205577 -0.06773783 0.05779618
0003d0 09 ce e5 3d 25 a4 14 be b4 d5 56 3d 67 a7 01 be
       0.11220939 -0.14515741 0.052449897 -0.12661515
0003e0 12 0a b7 3b 2d dc 44 bd 13 7f 34 bd 48 b7 6d bd
       0.0055859173 -0.04806154 -0.0440665 -0.05803612
0003f0 eb 8a 4b 3d ad 92 3e be 33 df 9f bd ad 8f ce bd
       0.04969303 -0.1861064 -0.07806244 -0.10085998

encoder.6.bias f4 [32]
000000 9f d7 31 3c cf 32 98 bd d2 c3 97 3d 35 8c 8f 3d
       0.010854631 -0.07431566 0.07410397 0.07009164
000010 47 48 26 3d c5 eb f1 bd 28 7c fc bd 59 eb bf bd
       0.040596273 -0.118125476 -0.123283684 -0.09371061
000020 16 b3 77 3d 81 e6 05 3e 9f 66 bf bc 78 3d fd 3d
       0.060473524 0.13076212 -0.023364363 0.1236524
000030 9b f1 8b bc 29 35 41 3d ee 9c c8 bd b1 b3 76 3d
       -0.01708298 0.047169838 -0.09795557 0.06022996
000040 99 a5 9c bd 65 77 65 3d c9 df 0d be a1 5d 7b 3d
       -0.07648773 0.056022067 -0.13854899 0.06136859
000050 29 b4 1a 3e 93 bb 02 3d 50 49 de 3d 59 d4 f4 bc
       0.15107788 0.031917166 0.10853827 -0.029886412
000060 8d cc 5b 3d 73 ca a5 3d 86 ae c6 bd e6 58 bf bd
       0.05366187 0.08095255 -0.097012565 -0.09343128
000070 a3 6a 72 3d 66 a7 77 ba d2 44 df ba 44 e3 bd 3c
       0.059183728 -0.00094472466 -0.001703406 0.023179658

encoder.9.weight f4 [2, 32]
000000 3d 95 92 3d 7a 20 39 3e f2 33 28 be 60 22 12 be
       0.07157371 0.18078795 -0.16426066 -0.14270926
000010 e0 70 61 3d ea 3f 62 3e 83 87 b5 bd f2 e0 e1 bd
       0.055039287 0.22094694 -0.088637374 -0.11029233
000020 b4 37 69 bd 02 aa 85 3c 37 51 f9 3d 4c e7 1a 3d
       -0.05693789 0.016316418 0.121736936 0.03781824
000030 9b c2 22 be e4 4a d1 bc dc 71 00 3e 21 fc f6 3d
       -0.15894549 -0.025548406 0.12543434 0.120598085
000040 c8 b8 ee bd f5 ab 0d 3e 64 3b c2 3c ed fa e5 bd
       -0.11656338 0.13835128 0.02370996 -0.11229501
000050 f5 e7 2f bd 0c be 01 3e f5 43 9b bd eb 54 3c be
       -0.04294582 0.12670153 -0.07581321 -0.18391769
000060 ee 34 1f 3e 5f b0 2c bd 6a 29 14 be c9 e4 ae bd
       0.15547535 -0.042160388 -0.14468923 -0.08539731
000070 41 a0 e1 bd dc 1b a9 bd bf 5a 04 be 06 a3 1d be
       -0.11016894 -0.08257267 -0.12925242 -0.1539422
000080 e4 b1 50 3d d6 d0 28 3e 93 6c 06 be ba 95 dd bd
       0.0509509 0.16485915 -0.13127355 -0.10819574
000090 ae bc d8 3d 59 5e 18 be b6 a5 18 be 2a fd 0e 3e
       0.10582863 -0.14879741 -0.14906964 0.13963762
0000a0 34 d3 f0 bd ad 36 3d 3e ae ec f3 3d 33 ef aa 3d
       -0.11759034 0.18477888 0.119103774 0.08346405
0000b0 c0 65 3f be c9 d3 34 be bd a2 1d 3e bf eb 06 3e
       -0.18691158 -0.17658915 0.15394111 0.13175867
0000c0 da cb 06 be e6 f0 9f 3d 4d 35 08 3e bf 62 14 be
       -0.131637 0.078096196 0.13301583 -0.14490794
0000d0 e8 e9 5a 3e 1f 66 2b 3d df 37 92 bd 63 f4 e8 3d
       0.2137829 0.041845437 -0.07139563 0.11374738
0000e0 b9 0d 05 3e 98 a3 6b 3e 9a 2e 0d be 8a e5 95 bd
       0.12993516 0.23011625 -0.13787308 -0.07319172
0000f0 bd 27 07 be 79 25 a8 bd 46 1e d8 bd b8 44 e0 bd
       -0.13198753 -0.08210272 -0.10552649 -0.10950607

encoder.9.bias f4 [2]
000000 8f 55 82 3d a6 8e 4f be
       0.06363975 -0.2026926

decoder.0.weight f4 [32, 2]
000000 49 77 92 be 58 d8 a8 3d d1 17 b7 3e 27 b6 bc be
       -0.28606632 0.08244389 0.35760358 -0.3685772
000010 9e 81 75 be 5b e7 b9 be ac 58 e4 3e 90 68 f2 3e
       -0.23975226 -0.36309323 0.445989 0.473454
000020 35 2f a2 3c 45 a4 ce 3d 3f 19 79 bd f5 74 c1 be
       0.0197979 0.10089926 -0.060815092 -0.37784544
000030 48 65 43 3e da 55 a8 be a6 69 04 3f 84 cd df be
       0.19081604 -0.32878 0.51723707 -0.43711483
000040 89 4c c3 3d 2d ca 11 bf 59 e6 cc be c9 0d 2a 3d
       0.09536082 -0.5694912 -0.4001949 0.041517053
000050 46 df 56 3e 16 21 4e 3e 08 f0 d9 bd 0f e8 9a be
       0.2098361 0.20129809 -0.106414855 -0.30255172
000060 d4 e5 22 bf 02 d9 c5 be 33 8a 92 be 55 5f 29 3e
       -0.6363194 -0.38642126 -0.28621063 0.16540273
000070 da 1d ca bd d9 43 2f 3f 63 0b c0 3e 80 26 1c be
       -0.09868975 0.684629 0.37508687 -0.15249062
000080 35 53 08 bf 2a 03 a3 be 73 f3 14 3f e5 53 eb 3e
       -0.53251964 -0.3183835 0.58183974 0.45962444
000090 83 9f 21 3e c7 03 36 bf 15 0e 77 3e c8 71 db 3e
       0.15783505 -0.71099514 0.24126466 0.42860246
0000a0 e5 ca 09 3f a2 11 14 3f 3e 86 84 bd af d3 af be
       0.5382522 0.57839406 -0.06470917 -0.3434119
0000b0 d5 0e f6 bd 77 69 1e bf 9d 4d f3 3e ee a7 36 be
       -0.12014548 -0.61879677 0.47520152 -0.17837498
0000c0 16 53 6b bc 84 cb de 3d 34 37 f6 bd 77 46 03 bf
       -0.014363071 0.10878661 -0.12022248 -0.51279396
0000d0 1a 38 4f be 0f 4e 27 bf f0 d2 fe 3d 56 98 96 be
       -0.20236245 -0.6535348 0.12442577 -0.29413098
0000e0 23 59 30 bd e0 32 8a 3e 54 26 22 3f f7 3f 12 bf
       -0.043053757 0.2699194 0.63339734 -0.5712885
0000f0 1c 11 36 3f a1 8f 6c 3e 6b ae 9f 3e 32 cf bd 3d
       0.71119857 0.23101665 0.31187758 0.09268035

decoder.0.bias f4 [32]
000000 8f ff 86 3e aa ec ff be 86 8b ba be 3e fe 9f 3e
       0.2636685 -0.49985248 -0.36434573 0.3124866
000010 17 a9 d5 be cd b2 ce 3e 0e c3 0b 3d 7d 8d 6a be
       -0.41730568 0.4037079 0.034121566 -0.22905536
000020 49 76 9c be 53 a8 f3 3e 6b de 19 3f 31 ff 2b bd
       -0.30558994 0.4758936 0.6010501 -0.041991416
000030 aa 02 2b be 36 82 0d 3f f2 14 e3 3e e2 f7 2d 3e
       -0.16700235 0.5527681 0.44351918 0.16989091
000040 fb 0e d4 be e8 b8 f0 3e 56 0c 1a 3e 9b 15 b5 3e
       -0.4141768 0.47016072 0.15043768 0.35368046
000050 6e 0d 3b 3f c9 4b 47 be a7 c7 44 3e 35 f1 b3 be
       0.7306737 -0.19462503 0.19216786 -0.35144964
000060 ed 95 00 bf b3 32 40 3f 92 77 d5 bd 40 90 18 be
       -0.5022877 0.7507736 -0.10423197 -0.14898777
000070 d1 f7 5d be 10 00 c0 3e 88 29 81 3e 11 8d ce 3e
       -0.21676566 0.37500048 0.25226998 0.40342

decoder.2.weight f4 [64, 32]
000000 ff c6 57 be cf 5e 37 bc 11 bc 8d bd 84 c8 92 be
       -0.21072005 -0.011192038 -0.069206364 -0.28668606
000010 3e 9e 58 bd 72 29 e9 3d 59 23 98 bc c9 9d d6 3d
       -0.052885287 0.11384858 -0.018571543 0.10479314
000020 7f f0 f1 3d 1e 65 1d be 1a 3b 12 3e 1b d9 cd bd
       0.11813449 -0.15370604 0.14280358 -0.10051175
000030 3b 71 fe bd 1c 89 02 be 4e 66 8a bd 6d 43 74 3d
       -0.12423941 -0.12747616 -0.06757794 0.059634615
000040 a6 16 0d be 41 75 8c bd ac eb 4c 3e bf 5b 8a bd
       -0.13778171 -0.06858302 0.20011777 -0.067557804
000050 f0 e7 d0 bd 41 75 1d 3d 5f 3c 86 bd 57 7f 00 3e
       -0.102004886 0.0384419 -0.065544836 0.12548576
000060 e6 5b 02 3e 15 08 22 3b 37 bc ba bd 26 2f ee bc
       0.12730369 0.0024724056 -0.091179304 -0.029075217
000070 1a 31 90 3d e9 57 b1 3d 6d 72 14 3e c8 55 af 3e
       0.070406154 0.08659346 0.14496775 0.34245133
000080 d8 9b 48 bd 6a a9 a0 3d 18 3a 9e bd c6 94 ed 3d
       -0.04897675 0.07844813 -0.07725924 0.11600642
000090 b0 09 93 3c 56 2c 14 be 24 a9 d3 bd 28 fd 2a 3d
       0.017948955 -0.14470038 -0.103349954 0.041745335
0000a0 20 e2 9b 3b 1a 3a c4 bd 60 31 50 bd 28 34 8b 3c
       0.004757181 -0.095813945 -0.050828338 0.016992643
0000b0 f2 d5 84 3d 70 cd e1 bc a5 c3 14 3e 00 5a 20 bc
       0.06486119 -0.02756378 0.14527757 -0.009787083
0000c0 83 9e c2 bd 55 21 b5 bd 6b 65 ac bd 38 0d d0 3c
       -0.0950289 -0.08844248 -0.084177814 0.025396928
0000d0 32 af ee bd 50 21 5f bc a4 78 03 be 80 de b0 3b
       -0.116545096 -0.013618782 -0.1283899 0.005397618
0000e0 67 a8 17 3e 32 fa b4 3d 04 b9 8e 3d 14 c9 52 3d
       0.14810334 0.088367835 0.06968883 0.051461294
0000f0 20 15 b3 bd 56 2c d8 3d 9a 23 c5 bd 86 14 24 be
       -0.08744264 0.105553314 -0.09625931 -0.16023454
000100 77 bb 31 bd 8f bb 12 be bc c2 b6 3d 5e 7a 6c be
       -0.04339167 -0.1432936 0.089238614 -0.23093554
000110 f2 81 ee 3d 81 12 f0 3d fe e1 12 be 58 3c 00 3e
       0.11645879 0.11722279 -0.14344022 0.1252302
000120 b8 71 1b 3e 81 62 a0 3d 3d c8 15 be 9a 2d 02 3e
       0.15180099 0.07831288 -0.14627166 0.12712708
000130 15 21 79 bd 66 07 37 3e 37 75 8c bd 20 f4 79 3e
       -0.060822565 0.17873916 -0.068582945 0.24409533
000140 65 41 c3 bd ba 00 ca bc a0 8b a3 3d 4f 7d 6c be
       -0.095339574 -0.02465855 0.07985616 -0.23094676
000150 00 ad 82 bd 3d 35 28 3e 77 a0 17 3d 37 c3 30 3e
       -0.063806534 0.16426559 0.037018266 0.17261969
000160 74 54 46 bd d8 02 00 bd 17 a3 08 3e 88 51 f9 bd
       -0.048420385 -0.031252712 0.13343464 -0.12173754
000170 ae b7 bd 3d 59 64 a1 3d a7 17 0a be db 3d 2c be
       0.0926355 0.07880468 -0.13485585 -0.16820471
000180 2b 84 e3 3c ee 10 d6 3b c0 7f d7 3d 97 65 b3 3d
       0.027772984 0.00653278 0.10522413 0.08759611
000190 00 2a cd b9 53 04 b5 3d 16 e2 fa 3c 0f 50 80 3b
       -0.0003913194 0.088387154 0.030625384 0.0039157937
0001a0 fc 1b 28 3e 3e e0 13 be a1 35 9d be ac 29 b1 bd
       0.16416925 -0.1444101 -0.30704978 -0.086505264
0001b0 63 8f f3 bc fc f3 e2 3c 08 80 18 bd f1 51 53 3c
       -0.029731458 0.027704231 -0.037231475 0.012897954
0001c0 cb 16 db 3d ff d5 80 3d 17 cd f9 3d 59 7e 21 be
       0.10697707 0.062908165 0.12197321 -0.15770854
0001d0 2f 44 f8 bd c7 fa 1c be 22 12 92 3d 15 0d c0 3c
       -0.1212238 -0.15330039 0.07132365 0.023443738
0001e0 a1 45 07 3e 8e 2d cd 3d bd 3f 01 3e 6b be 2a 3d
       0.13210155 0.100184545 0.1262197 0.041685503
0001f0 81 29 78 3d 51 a8 e2 3d 07 20 5a be 74 32 b1 bd
       0.060586456 0.1106726 -0.2130128 -0.08652201
000200 3a c9 9b 3d 2c a0 40 be 18 4f 91 3c 89 39 6a bd
       0.0760674 -0.188111 0.01773791 -0.057183776
000210 3d 53 18 be 76 40 bc bd 57 5c 9e 3d 52 1f 54 3d
       -0.14875503 -0.091919824 0.07732456 0.051787682
000220 4d ac 01 bd 38 08 4c bd 51 0b 0d be 8b 2c 9c bd
       -0.03165846 -0.049812526 -0.13773848 -0.076256834
000230 78 cd 81 bd 74 11 15 3d d5 6a fc bd 80 68 29 bc
       -0.06338018 0.036393598 -0.12325064 -0.010339856
000240 d0 27 1f 3e de 03 c6 bc c1 73 dc 3d 7f 26 67 3c
       0.15542531 -0.024171766 0.10764266 0.014108299
000250 38 db bb 3d 7a be ba 3b 26 82 0a bd e9 ff 04 3e
       0.09172672 0.005698976 -0.033815525 0.12988247
000260 4d 8e 01 be ba ef 4a be 84 0d 12 3e 67 d3 32 be
       -0.1265194 -0.19818011 0.14262968 -0.17463456
000270 01 0c 0d 3e 1a a7 80 3d 34 b2 e8 bd 78 97 dd 3d
       0.1377411 0.06281872 -0.113621145 0.10819906
000280 88 b5 19 3e 6e 3f 7b 3d bc d4 38 3d 20 34 1d be
       0.15010655 0.06133979 0.045124754 -0.15351915
000290 ee 79 67 be 53 7d 1f be 80 ab 96 bd 29 8c b3 bd
       -0.22605106 -0.15575151 -0.0735693 -0.08766968
0002a0 86 14 b0 bd 2b 6c 7f 3d 38 77 11 3d 91 9b df bd
       -0.085976645 0.062359016 0.035514086 -0.10918344
0002b0 7f 21 0c 3e fe dc 73 3e 1e 92 d0 3d 3e 00 29 be
       0.13684653 0.2381477 0.1018412 -0.16503999
0002c0 bb 9f 0b 3e 1c 84 2b be 7a 1c 20 bd 58 49 16 3c
       0.13635151 -0.16749614 -0.039089657 0.00917276
0002d0 89 17 2d 3e 10 c5 33 bd c0 d9 20 be 82 6a d4 bc
       0.16903509 -0.043889105 -0.15708065 -0.025929693
0002e0 bb 59 8c bd 62 83 d7 3d e3 71 19 bc 68 c4 1a bd
       -0.06853052 0.10523106 -0.009365532 -0.037784964
0002f0 f4 65 71 bd 7e 09 81 3d 6a a8 12 3e ff 43 38 3e
       -0.05893512 0.063006386 0.14322057 0.17994688
000300 ad bd cd 3d 33 87 7a be e4 f7 28 3e 00 9f 3f ba
       0.100459434 -0.24465637 0.16500813 -0.00073097646
000310 d8 e0 4e bd d5 ce 09 be 6d c1 2a be fd 46 36 be
       -0.050507396 -0.13457806 -0.16675349 -0.17800517
000320 e6 2e 2c 3e 4c 0d 8b 3d a4 bc 33 be ac 22 73 bd
       0.16814765 0.067896456 -0.1755243 -0.059359238
000330 ff f3 4a 3d b8 26 df 3d 48 d7 2f bd 99 42 7e bd
       0.0495491 0.10896057 -0.042929918 -0.06207523
000340 5a 8a bd bc 22 8f cf 3d 68 7e f1 bd 64 d4 12 be
       -0.02313726 0.10134722 -0.11791688 -0.14338833
000350 ae 17 ef 3d 94 31 91 3d c5 e0 0c bc 62 51 eb 3d
       0.116744384 0.070895344 -0.008598511 0.11490132
000360 3b 48 18 3e 52 e3 d9 bd 5e 61 d2 3d a8 7d 28 3e
       0.14871304 -0.10639061 0.102724776 0.16454184
000370 06 33 b5 bd 46 4b 05 be 16 0c c2 bd cc ff 13 bd
       -0.088476226 -0.13016996 -0.094749615 -0.03613262
000380 9e d4 a7 3a 54 4f 6c bd 31 84 14 bd 20 fd 67 bc
       0.0012804454 -0.05769284 -0.03625888 -0.014159471
000390 b0 6a 93 bd ee 79 1f bd 75 0c b4 3d 90 f2 d6 bd
       -0.071980834 -0.03893464 0.087914385 -0.10495484
0003a0 46 03 3a be d4 c5 5d bd 22 26 cb bd 9e e1 08 be
       -0.18165311 -0.05414374 -0.09919383 -0.13367316
0003b0 4f b5 10 3e e2 cc 43 be d8 4c 80 3c a8 c9 25 bd
       0.14131664 -0.19121125 0.015661642 -0.040475518
0003c0 5f cb 1d 3e 00 70 9f bb e7 2b b7 bd 20 15 9e bb
       0.15409611 -0.0048656464 -0.089439206 -0.0048242956
0003d0 8b 30 09 3e c5 eb 03 3d 55 ad 33 be b0 48 1a bc
       0.13397424 0.03220727 -0.1754659 -0.009416744
0003e0 e0 c0 fc 3b 2c 91 9c bd 3c c9 0c 3e 31 cf 84 3d
       0.007713422 -0.07644877 0.1374864 0.06484831
0003f0 a9 cb 1e 3e 75 c9 aa 3d 24 98 2e be 83 ca d8 bd
       0.15507378 0.08339206 -0.17050225 -0.10585501

decoder.2.bias f4 [64]
000000 48 67 38 3e 7a e1 5f bd 50 4e 44 3e d9 bf 10 3e
       0.18008149 -0.05465839 0.19170499 0.14135684
000010 3e 8f 36 be eb f0 54 3e 98 d4 28 be 1d 30 49 bc
       -0.1782808 0.20795028 -0.16487348 -0.0122795375
000020 aa 8f 03 be 27 3b 6d 3e ea 3a 9e 3d 61 6a ae 3d
       -0.12847772 0.23167096 0.07726081 0.08516384
000030 10 9d 37 bd 06 0e 95 3b f5 36 39 3e 8d c8 3a be
       -0.04482752 0.004548791 0.1808737 -0.18240567
000040 6a 7c d7 bd e4 11 1c be 05 7c 33 be 6b a0 ca bd
       -0.10521777 -0.152412 -0.17527778 -0.098938785
000050 b9 82 75 3e f5 e5 0b 3d ec 6a 5c 3e 40 60 ef 3d
       0.23975648 0.03415485 0.21525162 0.1168828
000060 30 0e 95 3e cf b5 f3 3d a7 cb cc 3d a6 be dc 3d
       0.29112387 0.118999116 0.09999781 0.10778551
000070 b4 b2 34 3d e4 04 a9 bd f8 28 df bd ca 52 0b bd
       0.044115737 -0.08252886 -0.10896486 -0.0340145
000080 21 99 f5 3d 17 6c 0e 3d 29 e3 bc bd 3d 45 13 bd
       0.11992098 0.03477105 -0.09223015 -0.035954703
000090 6c 84 71 bd 20 78 2f 3e 60 1a 04 be 09 2f 35 3d
       -0.058964178 0.17135668 -0.12900686 0.04423431
0000a0 17 ad 86 3e 36 48 1c bc 2f 8a 53 bd 7d 79 28 3d
       0.26303932 -0.009538701 -0.051645454 0.041131485
0000b0 b6 8f c9 3d fd 66 d1 bd 57 24 4f 3d be c3 a0 3e
       0.09841864 -0.102247216 0.050571766 0.3139934
0000c0 ed 5c 12 3e 84 03 2e 3d bf 85 95 3d 6a af 77 3e
       0.14293261 0.04248382 0.07300901 0.24188009
0000d0 68 9b 48 3e de 32 4c 3e 74 42 38 3e 56 c8 96 bd
       0.19590533 0.1994128 0.179941 -0.0736243
0000e0 f1 af 5a bc 80 40 3d 3d 99 68 d7 bd 5b 34 93 be
       -0.013347612 0.04620409 -0.10517997 -0.28750882
0000f0 2a b8 50 3e 46 27 09 3e c6 4a c4 bd bb 0a 01 3e
       0.20382753 0.13393888 -0.095845744 0.1260175

decoder.4.weight f4 [128, 64]
000000 3a eb c4 3d a8 dd b9 bc c6 2d 4a bd 83 d9 6a 3c
       0.096151784 -0.022688702 -0.04936006 0.014334085
000010 44 bc 8e bc 88 ef 04 3e 6d 93 ff bd b4 41 a0 bd
       -0.017423756 0.12981999 -0.12479291 -0.07825032
000020 d9 e9 16 3d f1 1f 4e bd 60 85 f7 bb 03 00 e6 bd
       0.03684411 -0.05032343 -0.0075537413 -0.11230471
000030 04 a4 8f be cd f3 c9 3d 59 5b 2d 3e fa a2 95 3d
       -0.28054821 0.098609544 0.16929378 0.07306476
000040 58 12 fd 3c 47 67 5a bd 33 73 b1 bd 76 1d 62 bd
       0.030892536 -0.05332115 -0.08664551 -0.055203877
000050 ac 7d 2b bc 16 84 ae bd 20 11 b3 3d f0 3f 99 3d
       -0.010466974 -0.08521287 0.08743501 0.07482898
000060 d5 7a 22 3e 47 04 00 be dc 4c 65 3a ba 56 95 bd
       0.15867169 -0.12501632 0.00087471097 -0.072919324
000070 2b bd 11 3d ac d0 35 bd 0c d1 52 bd 57 1d 32 bd
       0.035580795 -0.044388458 -0.051468894 -0.043485012
000080 a9 82 cf 3d cf 72 ba bd a3 29 e7 bd bf 21 25 bd
       0.10132343 -0.09103929 -0.112872384 -0.040315386
000090 c8 d9 c2 bd ac ef 19 3e 60 ea 00 bc 47 0f 13 be
       -0.09514195 0.15032834 -0.007868379 -0.14361297
0000a0 cb a7 45 3e 75 c7 0f be 13 15 e4 3d da d7 68 3d
       0.19302289 -0.1404093 0.11136832 0.056846477
0000b0 2d 53 68 3d c2 aa 4f bb 4e db da 3c 67 34 02 be
       0.056719948 -0.0031687473 0.0267159 -0.12715302
0000c0 c2 cb d3 3d ba 21 b6 3a d0 9b 94 3d b8 ac 57 3c
       0.10341598 0.0013895549 0.072562814 0.013163738
0000d0 fc 5a 3f bd d2 97 a6 3c 33 c0 33 3b 21 60 74 3d
       -0.04671763 0.020336065 0.0027427792 0.05966199
0000e0 3f 2b 06 3e 80 dd 2d bb 72 51 b5 bd c2 89 00 3d
       0.13102435 -0.002652973 -0.08853425 0.031381376
0000f0 03 98 fb 3b 1b 03 66 3d 78 6d 4e 3d b0 07 e9 3d
       0.0076780333 0.056155305 0.050397366 0.113784194
000100 50 7d 04 3e 8c 70 57 3d ae ef 1b 3d a6 93 30 bb
       0.12938428 0.052597567 0.038070373 -0.0026943474
000110 03 7a 82 bd 43 b8 0c 3b 24 e8 a1 bd ca cb 41 bd
       -0.06370928 0.0021472133 -0.079056054 -0.04731349
000120 ba 4f da bd 7d 41 6c bd cc 1e 2c bd 9a 79 cd 3d
       -0.10659738 -0.057679642 -0.042021558 0.10032959
000130 ac 6f a2 3d 4c 03 97 3d 55 ae c9 bd a8 c4 18 bd
       0.07931456 0.07373676 -0.09847704 -0.03729692
000140 3c f9 0b bd a0 f7 b8 3d c0 68 08 bd fb 15 fe bd
       -0.034173235 0.09031606 -0.033303022 -0.12406536
000150 52 37 21 3d ea e3 a2 bd ae ef 74 bd 82 af 8f 3d
       0.0393594 -0.079536274 -0.05979889 0.07015897
000160 9e fc 27 bd d9 92 82 3d 42 cd 80 bd 24 67 5b 3d
       -0.0410124 0.06375665 -0.0628915 0.05356516
000170 39 e9 1c be 8a f4 db bd 5c bf 66 3d 47 ac 99 bd
       -0.15323342 -0.107400015 0.05633484 -0.075035624
000180 ae a4 37 bd 10 67 eb 3d 08 e3 0d bd 98 3b 17 be
       -0.044834785 0.11494267 -0.034640342 -0.14768827
000190 1c 5e f8 bd d3 42 2f 3d 80 10 dd ba 7e 87 d2 3d
       -0.12127325 0.042788338 -0.0016865879 0.10279749
0001a0 bf 17 13 3d 97 8f bd 3d 18 23 85 bd be d4 a6 3d
       0.035911318 0.09255903 -0.06500834 0.08146046
0001b0 86 09 62 3d 0e a2 b2 bd db 7e 09 be cb 20 1b 3e
       0.055184864 -0.08722316 -0.13427298 0.15149228
0001c0 9c e0 89 3c d3 07 bc 3c d3 c1 8c 3d f4 51 97 3d
       0.016830735 0.02295295 0.068729065 0.07388678
0001d0 a6 a3 08 3e 14 10 b5 bd e6 da 5a ba c4 90 9b bd
       0.13343677 -0.08840957 -0.00083486584 -0.07595971
0001e0 c9 16 46 3d 10 8b 95 bd 6b df bf bd 8f d5 e3 bd
       0.048361573 -0.07301915 -0.093687855 -0.111247174
0001f0 0d 95 d7 bd 82 e0 25 bc f4 a9 c3 bd ec 96 32 3d
       -0.10526476 -0.010124328 -0.095539 0.04360096
000200 db af fb 3c 3c 44 e8 3d 9e 8b 96 3c 71 b6 82 bd
       0.030723503 0.1134114 0.018377122 -0.06382454
000210 9e 83 bf bd 49 f1 80 3c 0e c4 49 bd 72 5e 2e bd
       -0.09351276 0.015740054 -0.049259238 -0.04257054
000220 d6 7c 2e 3d e3 be f9 3d 14 1c 42 3d 66 e5 fc 3c
       0.04259952 0.12194612 0.04739006 0.030871104
000230 82 99 53 bd c3 43 0b 3e 23 f0 fd bc 16 ac 95 3d
       -0.05166007 0.13600068 -0.030998295 0.073082134
000240 d0 4a ea bd 38 2d 63 3c c2 63 ba 3d de 23 97 3a
       -0.114400506 0.013865761 0.091010585 0.0011531075
000250 63 d5 db bd 85 0f e3 3d f1 8f 99 bd 3b 47 aa bd
       -0.1073406 0.110869445 -0.07498158 -0.083143674
000260 f0 e2 60 3c d7 23 19 bd 38 95 8f 3d 72 70 a1 3d
       0.013725981 -0.037387695 0.07010883 0.07882775
000270 09 36 5c 3c 00 7e c0 3a 60 2e c6 3c 74 26 e7 3d
       0.013440617 0.0014685988 0.024192035 0.11286631
000280 07 49 ce 3d 82 aa 1e 3d e6 fc cf bb c2 1d a0 bc
       0.100725226 0.038736828 -0.0063472865 -0.01954544
000290 00 ae 89 bc 2c 9b bd 3d 0c 93 e8 bd ba ed 31 bd
       -0.016806602 0.09258112 -0.11356172 -0.043439604
0002a0 77 fd e0 bc cd 3c 26 bd 2e 8a e3 3b 2f 40 ca bd
       -0.027464611 -0.040585328 0.0069439625 -0.09875523
0002b0 7f 1a 9a 3d bb 7e aa bd a3 1f 46 3d 34 86 ce be
       0.07524585 -0.08324953 0.048370015 -0.40336764
0002c0 52 b4 a8 bc 65 3b 1d 3d 7e 60 a5 bd 43 ae ae 3d
       -0.020593796 0.03838672 -0.08075045 0.085293315
0002d0 e5 be eb 3c 04 34 41 3d 56 62 9c 3d 61 dc df bd
       0.028777549 0.047168747 0.076359436 -0.10930706
0002e0 93 a1 7e 3c e0 e2 6d bc 9f e4 e8 3c d5 51 9d bd
       0.015541452 -0.014519423 0.028429328 -0.07681624
0002f0 8c 17 66 3d b6 59 0a bc d4 7c 7b bd 99 0f 35 3e
       0.0561748 -0.00844424 -0.061398342 0.17681731
000300 66 07 13 3e 30 c0 f7 bc 01 4a 6d be bb d5 f0 bd
       0.14358291 -0.03024301 -0.23172761 -0.11759516
000310 e8 d9 04 bd 75 2d dd 3c 2d 7d 99 bd 90 53 b0 bc
       -0.032434374 0.026999215 -0.074945785 -0.02152422
000320 7e b9 05 3d f6 04 cf bb b2 34 90 bd c8 ec 87 3d
       0.032647602 -0.00631773 -0.07041301 0.06636959
000330 ad 30 d4 bd e9 c0 9a 3d de 18 1d bc e1 43 76 bc
       -0.10360847 0.07556326 -0.009588448 -0.015030832
000340 64 1c 29 bd ea af ca 3d 43 a8 ee bc 02 b9 b6 bd
       -0.04128684 0.09896834 -0.029132968 -0.08922006
000350 04 50 0d 3e 93 dc 53 bc 33 ce 6a 3d 11 79 5b 3d
       0.13800055 -0.012931007 0.057325553 0.053582255
000360 dc e6 7f 3d 6c eb 7b 3d 2b aa 02 be d6 2b 9b bd
       0.062476024 0.061503813 -0.12760226 -0.075767204
000370 6e 91 2e 3d e0 d1 57 3d a4 24 41 bd f3 07 81 3d
       0.04261916 0.052690387 -0.047154084 0.06300344
000380 32 fe 40 bc 01 1c e0 3d 45 34 c8 3b 8e ff c7 3d
       -0.011779355 0.10942841 0.0061097466 0.0976554
000390 b4 f9 92 bd 3a 1c 4f bc 90 db 56 bc 68 db 89 3d
       -0.07176533 -0.012641007 -0.013113871 0.067313015
0003a0 c4 93 49 bd c5 a8 46 bd 11 a6 4e bc b4 92 d1 bd
       -0.049213186 -0.048500795 -0.0126128355 -0.102330595
0003b0 0f e3 a6 bd 8b bf 93 3d 84 e6 79 bd 56 04 92 be
       -0.08148777 0.07214268 -0.061010852 -0.28518933
0003c0 8d bf 0e 3d ad 92 24 3c 79 19 48 3d a9 3d 0e 3e
       0.034850646 0.010044736 0.048852418 0.13890709
0003d0 d7 be 68 3e 2e 89 c9 3d c5 68 93 3d ea 9b 71 bc
       0.2272905 0.09840618 0.071977176 -0.014746645
0003e0 ba 16 b7 3d ac 79 83 3d d4 27 04 3e cc 53 f6 bd
       0.089398816 0.064196914 0.12905818 -0.12027702
0003f0 38 8a b8 bc a1 2b d0 bd 1e 8d b7 3d ba cf 4d ba
       -0.022526845 -0.101645716 0.08962463 -0.0007851083
