Save_Models/model-lat10.pth (torch, 193270 bytes, 16 tensors)

encoder.0.weight f4 [128, 99]
0	0xbd9bc799	-0.076064296
1	0xbd3541b9	-0.04425213
2	0x3ca1686d	0.019703114
3	0xbd93b3b4	-0.0721201
4	0xbd27cb52	-0.040965386
5	0xbc35c16c	-0.011093479
6	0xbb42680c	-0.0029664068
7	0xbdd3d98b	-0.103442274
8	0xbda4b3e2	-0.080421224
9	0x3d826298	0.063664615
10	0xbd915121	-0.07095552
11	0xbd25dbab	-0.040492695
12	0xbde1f089	-0.110322066
13	0x3d188ad7	0.037241783
14	0xbcfb56e4	-0.030681081
15	0xbdcb73e9	-0.099342175
16	0x3c77af90	0.015117541
17	0xbd63bbbf	-0.05559897
18	0x3d22bd25	0.039731164
19	0x3d09dca2	0.033657677
20	0x3d80cd1a	0.0628912
21	0xbda86bc0	-0.08223677
22	0xbd615745	-0.055014867
23	0x3da7cf37	0.0819382
24	0xbc0d82a8	-0.008637108
25	0x3ca34b2b	0.019933304
26	0x3d0fb98e	0.035089068
27	0xbd32c116	-0.043641172
28	0xbd376d14	-0.04478176
29	0x3d6cefae	0.057845764
30	0xbdb9d670	-0.09074104
31	0x3c812ecf	0.01576939
32	0x3db01ae9	0.08598883
33	0xbdd68ce6	-0.10476093
34	0xbdcc2c82	-0.09969427
35	0xbd964206	-0.07336812
36	0x3b264a66	0.0025373935
37	0xbddf407c	-0.10900971
38	0xbc4f3083	-0.012645843
39	0xbde16b9d	-0.11006854
40	0xbdd7f112	-0.105440274
41	0xbdd00ec9	-0.1015907
42	0xbd4e58af	-0.050377544
43	0x3d47c939	0.048775885
44	0x3bc069b0	0.005871974
45	0xbcc9b105	-0.024620542
46	0xbd8ac0ea	-0.06775077
47	0xbdce0a35	-0.100605406
48	0x3d3ca737	0.046057906
49	0xbd5737d1	-0.052543465
50	0xbd243add	-0.0400952
51	0x3d405d70	0.04696411
52	0xbbd1bcfd	-0.006400703
53	0x3db6f2be	0.08933018
54	0x3d23bd7a	0.03997562
55	0x3db4d815	0.08830277
56	0x3c95d47a	0.018289793
57	0xbdae0563	-0.08497121
58	0x3c19ef5a	0.009395445
59	0x3c24b548	0.010052986
60	0x3c041bd2	0.0080632735
61	0xbdd53c34	-0.104118735
62	0x3c96a45c	0.01838892
63	0x3da1ba03	0.07896807
64	0x3d81d5fc	0.063396424
65	0xbd54f98f	-0.05199581
66	0xbd214bd4	-0.039378956
67	0xbd531f42	-0.05154348
68	0xbd2f6062	-0.042816527
69	0xbd8d0454	-0.06885591
70	0xbd92450f	-0.07142078
71	0xbd10271d	-0.03519355
72	0x3da31610	0.079631925
73	0xbbf64b3c	-0.007516293
74	0xbda778cc	-0.08177337
75	0xbd0df33c	-0.034655795
76	0x3a627ae6	0.0008639529
77	0x3d43ec6e	0.0478329
78	0xbd985a5e	-0.07439111
79	0x3dc7104a	0.09719904
80	0xbccce7bb	-0.025012841
81	0x3d25235f	0.040316936
82	0x3da4ddb2	0.080500975
83	0xbdae593f	-0.08513116
84	0xbcbf7b72	-0.023374293
85	0xbc7dd0b7	-0.015491656
86	0xbba3f113	-0.0050031035
87	0x3d9d26bd	0.07673404
88	0xbc5ec7e2	-0.01359746
89	0xbdc50048	-0.09619194
90	0x3cc89508	0.024485126
91	0x3cc5e113	0.024155175
92	0x3abc43ca	0.0014363464
93	0xbd3909d2	-0.04517538
94	0xbddd511b	-0.10806485
95	0x3d8903c6	0.06690173
96	0x3b152a7e	0.0022760923
97	0x3ccf2a62	0.025288764
98	0xbd62edd5	-0.055402596
99	0xbdcb5a46	-0.09929328
100	0x3d55b4d8	0.05217442
101	0xbd904b1f	-0.07045578
102	0xbd6c1c8c	-0.057644412
103	0x3a99f808	0.0011746893
104	0x3d3659a0	0.044519067
105	0x3bb281e2	0.005447612
106	0x3d90cdb6	0.07070486
107	0xbdd48a62	-0.10377957
108	0xbdaeee1d	-0.0854151
109	0xbd494407	-0.04913714
110	0xbda07130	-0.07834089
111	0x3d908f38	0.07058567
112	0x3d4c7d0a	0.049923934
113	0x3d02f5aa	0.031972565
114	0x3d991da8	0.074763596
115	0xbc0d130f	-0.008610501
116	0xbdca1cf8	-0.098688066
117	0xbd80a66d	-0.06281743
118	0x3c65bfc0	0.014022768
119	0x3d504bf1	0.050853673
120	0xbcc637e2	-0.024196569
121	0xbd8b27fd	-0.067947365
122	0xbb9652a5	-0.0045874887
123	0xbd681886	-0.056664012
124	0xbcee9337	-0.029122932
125	0xbd0dd932	-0.03463096
126	0xbd839182	-0.06424238
127	0x3da599cf	0.08085977
128	0xbc92c35c	-0.01791542
129	0xbdc94be9	-0.09828932
130	0xbdbc83e6	-0.09204845
131	0xbdd18887	-0.10231119
132	0xbba2808c	-0.0049591716
133	0xbdbfa570	-0.093577266
134	0xbdad8141	-0.08471919
135	0x3cbb9c61	0.022901716
136	0xbd24a381	-0.040194992
137	0xbbde5587	-0.006785098
138	0x3da32222	0.07965495
139	0xbdd9fec4	-0.10644296
140	0xbd6abece	-0.05731087
141	0x3d12a0f0	0.035798013
142	0xbd3a54f8	-0.04549119
143	0xbda7c375	-0.08191577
144	0x3c07a8a6	0.008279955
145	0x3da12843	0.078690074
146	0x3ca16a9d	0.019704157
147	0xbd056b07	-0.032572772
148	0xbd650565	-0.055913348
149	0xbd834ef4	-0.064115435
150	0x3add6db2	0.0016893654
151	0x3d3d7b42	0.046260126
152	0xbda15209	-0.07876975
153	0xbde3a710	-0.11115849
154	0x3c32cb2e	0.0109127
155	0x3d69b7ed	0.05706017
156	0x3d8292d3	0.06375661
157	0x3cd5a92e	0.026081648
158	0x3ca5c971	0.020237656
159	0x3d119d07	0.035550144
160	0xbd8c86dd	-0.06861661
161	0x3d9b9c02	0.075981155
162	0x3c8f1a79	0.017468678
163	0x3c8db6e4	0.017299123
164	0x3d57b913	0.052666735
165	0x3d077649	0.03307179
166	0xbda36d7a	-0.07979865
167	0xbd877be6	-0.066154286
168	0x3d96b0ea	0.073579624
169	0xbd884fc3	-0.06655838
170	0xbdbdc39b	-0.092658244
171	0xbdbad545	-0.09122709
172	0x3d8d2322	0.06891467
173	0x3b3cf905	0.002883495
174	0x3d46fe21	0.0485822
175	0xbd9a5368	-0.0753544
176	0xbd2e2765	-0.04251804
177	0x3db8da69	0.090260334
178	0x3dcf5033	0.10122719
179	0x3daf8e61	0.085720785
180	0xbcae2bdb	-0.021261146
181	0x3d3ba292	0.045809336
182	0xbce8b168	-0.028404906
183	0xbdbff3a1	-0.093726404
184	0xb9abcba2	-0.0003276738
185	0xbd46458c	-0.04840617
186	0xbd0c9b21	-0.03432763
187	0xbd52491a	-0.051339246
188	0xbb119634	-0.0022214772
189	0xbd4cebaf	-0.050029453
190	0xbdbc72f3	-0.09201612
191	0xbc25d999	-0.01012268
192	0x3d614f78	0.055007428
193	0x3c994f87	0.01871468
194	0x3d63ae9c	0.055586442
195	0xbd82f23a	-0.06393857
196	0xbd423c45	-0.04742076
197	0xbd3a9be1	-0.045558814
198	0xbd8f0ae8	-0.06984502
199	0xbdd5bc7c	-0.10436341
200	0xbc9609b4	-0.018315174
201	0x3d0778e0	0.03307426
202	0x3d0c16bc	0.03420137
203	0x3d2708c9	0.040779863
204	0x3d18910d	0.037247706
205	0xbd53958c	-0.05165629
206	0x3da07aa8	0.07835895
207	0xbd9ef280	-0.07761097
208	0x3c9c7c09	0.019102113
209	0xbd68a3fc	-0.056797013
210	0x3d3fc77b	0.0468211
211	0x3dd51394	0.10404125
212	0xbd809e3c	-0.06280181
213	0xbc89e575	-0.016833046
214	0xbdb7747d	-0.08957765
215	0xbacd2e24	-0.001565401
216	0xbdca34bc	-0.098733395
217	0xbdbcd92c	-0.0922111
218	0xbcd19bea	-0.02558704
219	0xbd01ad2d	-0.031659294
220	0xbdbf8bf7	-0.09352868
221	0x3a88938e	0.0010419951
222	0x3d196e97	0.037458982
223	0xbd5e9be5	-0.05434789
224	0x3c7798eb	0.015112142
225	0x3dd3a2d5	0.10333792
226	0xbd919796	-0.07108991
227	0x3d804077	0.06262296
228	0xbd8e4090	-0.06945908
229	0x3c1bebb2	0.009516643
230	0x3d9f11a4	0.077670366
231	0xbd28c8a3	-0.041206967
232	0xbdc3a6e9	-0.0955332
233	0x3d159760	0.036521316
234	0xbd86fbd4	-0.06591001
235	0xbd01cf55	-0.031691868
236	0xbdd28ca7	-0.102807336
237	0xbc287074	-0.010280717
238	0x3db06d9d	0.08614657
239	0xbd7990dc	-0.060929164
240	0x3dafd3eb	0.08585342
241	0x3d959b51	0.07305015
242	0xbc6e2fdb	-0.014537777
243	0x3a953a09	0.0011385094
244	0xbdd52a11	-0.10408414
245	0xbdbc29d6	-0.09187667
246	0xbdb885aa	-0.090098694
247	0x3db55b79	0.08855338
248	0xbdc22d64	-0.09481314
249	0x3d833e59	0.06408376
250	0xbdcac638	-0.099010885
251	0xbdab2a15	-0.08357636
252	0x3c17eccd	0.009272766
253	0xbb64f2ba	-0.0034934715
254	0xbda76cf7	-0.0817508
255	0xbd92e27a	-0.07172103

encoder.0.bias f4 [128]
0	0xbe0af2cb	-0.1356918
1	0xbdcc4321	-0.09973741
2	0xbe82ef68	-0.25573277
3	0xbe0271fb	-0.12738793
4	0xbe8c882f	-0.2744765
5	0xbe3407f9	-0.17581166
6	0xbe8df2d4	-0.27724326
7	0xbe372867	-0.17886506
8	0x3949892b	0.00019219953
9	0xbe382943	-0.1798449
10	0xbe57b3bd	-0.21064658
11	0xbde35ae1	-0.11101318
12	0xbe166c42	-0.14689735
13	0xbe99bb96	-0.3002593
14	0xbe968369	-0.29397133
15	0xbea1cb95	-0.31600633
16	0x3dc213b1	0.09476412
17	0xbe3693f1	-0.17829873
18	0xbe83dc50	-0.25754023
19	0xbe491c71	-0.19639756
20	0xb9e3108c	-0.00043309142
21	0xbea397ce	-0.31951755
22	0xbd963c6c	-0.07335743
23	0xbe59a153	-0.21252947
24	0xbe0cb437	-0.13740622
25	0xbe537d65	-0.20653303
26	0x3c186b7a	0.009302968
27	0xbe4459b4	-0.19174844
28	0xbe8ed5a3	-0.27897367
29	0xbd946870	-0.07246482
30	0xbe9946fb	-0.29936966
31	0xbe0edaa7	-0.13950597
32	0xbed01f0e	-0.40648693
33	0xbe87a89f	-0.26495835
34	0xbdbcd2f5	-0.09219924
35	0xbccd3089	-0.025047557
36	0xbdd366ac	-0.103223175
37	0x3d26195d	0.040551532
38	0xbe128323	-0.14307837
39	0xbe92f121	-0.28699592
40	0xbd4320b1	-0.0476386
41	0xbe113926	-0.14181957
42	0xbdeec7b0	-0.11659181
43	0xbe7206d6	-0.2363542
44	0xbe164130	-0.14673305
45	0xbea07000	-0.3133545
46	0xbe4b6782	-0.19863704
47	0xbdefa5fc	-0.11701581
48	0x3e97f6cf	0.29680488
49	0xbe32067d	-0.17385288
50	0xbe5fd4af	-0.21858476
51	0xbe6054ce	-0.2190735
52	0xbe963c14	-0.2934271
53	0xbe451f82	-0.192503
54	0xbe81d37d	-0.25356665
55	0xbe8924b1	-0.26785806
56	0xbe54ad8c	-0.20769328
57	0xbeb72173	-0.35767707
58	0xbe94f595	-0.29093614
59	0xbe5efd86	-0.21776399
60	0xbc355448	-0.0110674575
61	0xbe9270d7	-0.28601715
62	0xbd18a75a	-0.037268974
63	0xbde11683	-0.10990622
64	0xbe31303d	-0.17303558
65	0xbe5a2bf3	-0.21305828
66	0xbe8c7122	-0.27430063
67	0xbec37e18	-0.3818214
68	0xbe94b91e	-0.29047483
69	0xbe743cc9	-0.23851313
70	0xbe9aeaaa	-0.3025716
71	0xbd8d2746	-0.068922564
72	0xbce8ec60	-0.028433025
73	0xbe50412e	-0.20337364
74	0xbe34d0e2	-0.17657807
75	0xbebc9447	-0.36831877
76	0xbdea5ef1	-0.1144389
77	0xbe8ccb9b	-0.2749909
78	0xbe9d0e59	-0.3067501
79	0xbe994eb8	-0.2994287
80	0xbe91e73b	-0.28496727
81	0xbde2f9e2	-0.110828176
82	0xbdb58922	-0.08864047
83	0xbe2addbd	-0.16686149
84	0xbea2eeb2	-0.31822735
85	0xbd5aac2a	-0.053386845
86	0xbea16ecc	-0.31529844
87	0x3d98308d	0.07431135
88	0xbe87df53	-0.2653757
89	0xbe85c83a	-0.26129323
90	0xbc749312	-0.014927642
91	0xbe72c227	-0.23706876
92	0xbe99383a	-0.2992571
93	0xbe352783	-0.17690854
94	0xbe8dee89	-0.2772105
95	0xbd13d982	-0.036096103
96	0xbdfd73e3	-0.12375619
97	0xbe7f1620	-0.24910784
98	0xbdcbc428	-0.09949523
99	0xbe12c20a	-0.14331833
100	0xbe47e46c	-0.1952073
101	0xbe10f457	-0.14155708
102	0xbd593da2	-0.053037293
103	0xbe05583f	-0.13021944
104	0xbe50a2e4	-0.20374638
105	0xbe3df1f8	-0.18549335
106	0xbe72de38	-0.23717582
107	0xbde9df42	-0.11419536
108	0xbe557baf	-0.20847963
109	0xbe810e56	-0.2520625
110	0xbea352a9	-0.31899002
111	0xbe34607f	-0.17614935
112	0xbdff096f	-0.12452971
113	0xbe89fb6d	-0.26949635
114	0x3d2788f9	0.04090211
115	0xbdbc49d6	-0.091937706
116	0x3e14d7c9	0.1453544
117	0xbe9fa50c	-0.31180608
118	0xbe6aee20	-0.229424
119	0xbe166565	-0.14687116
120	0xbe206370	-0.15662932
121	0xbe18132a	-0.1485106
122	0xbe413c53	-0.18870668
123	0xbe1e0c4f	-0.15434383
124	0xbe4e4ff0	-0.20147681
125	0xbe12e944	-0.14346796
126	0xbe630ff3	-0.22174053
127	0xbe4d4f68	-0.20049822

encoder.3.weight f4 [64, 128]
0	0x3dc2077d	0.094740845
1	0x3d82fbe9	0.06395704
2	0x3e05c8f9	0.13064946
3	0x3d849224	0.064731866
4	0x3d0a3052	0.033737488
5	0x3d288eb3	0.041151714
6	0xbdfc7957	-0.12327831
7	0xbd5aa224	-0.053377286
8	0xbdce454f	-0.10071813
9	0xbd3fbc9d	-0.046810735
10	0x3d4b2637	0.04959699
11	0x3c2d63e7	0.010582901
12	0x3ba78d3d	0.0051132725
13	0xbce13fe4	-0.027496286
14	0x3e1f684e	0.15567133
15	0xbd8293fe	-0.063758835
16	0xbe8b658a	-0.27225906
17	0x3d8bbcac	0.06823096
18	0xbd1543bb	-0.036441546
19	0x3da1ea38	0.07906002
20	0x3cb53cd6	0.022123735
21	0xbd28bb0c	-0.041194007
22	0xbe131aff	-0.14365767
23	0xbdff4785	-0.12464813
24	0x3d0cb4ac	0.03435199
25	0xbdc58ce7	-0.096460156
26	0xbe3504f7	-0.17677675
27	0xbdf04194	-0.11731258
28	0x3a980b4e	0.0011600049
29	0x3d4687d9	0.0484694
30	0xbdb1fd16	-0.086908504
31	0xbda8b8fb	-0.08238407
32	0x3de7afc6	0.11312823
33	0xbca0700d	-0.01958468
34	0xbb82ed27	-0.003995556
35	0x3ddf71dc	0.10910389
36	0x3ccf8987	0.025334133
37	0x3dae02e9	0.08496649
38	0xbe13a860	-0.14419699
39	0x3e03e7c2	0.12881377
40	0x3d0af813	0.03392799
41	0xbdf11005	-0.117706336
42	0xbc11cde4	-0.008899186
43	0xbc380417	-0.011231444
44	0x3ab06b53	0.001345972
45	0xbd11b271	-0.035570566
46	0x3d2e402a	0.04254166
47	0x3cbb8b4e	0.022893574
48	0x3d8354c9	0.06412656
49	0x3dbb8113	0.09155478
50	0x3cb98b74	0.022649504
51	0xbda6ceae	-0.0814489
52	0xbe55b4b8	-0.2086972
53	0x3bbf9939	0.005847123
54	0x3c5ce926	0.013483321
55	0x3d6481bb	0.055787783
56	0x3de75f9f	0.11297535
57	0x3cff81da	0.031189848
58	0x3cdfdb79	0.027326332
59	0x3bbf24a1	0.005833224
60	0x3d95f78e	0.07322608
61	0xbd78ffae	-0.06079071
62	0x3dc340a2	0.09533812
63	0xbe0a42be	-0.13502023
64	0xbd8fd071	-0.07022179
65	0x3b1dc194	0.002407168
66	0xbe12aaa0	-0.14322901
67	0xbd359499	-0.044331167
68	0xbdcba9bd	-0.099444844
69	0xbce2b8ed	-0.02767607
70	0xbc9609b7	-0.01831518
71	0xbdd91acf	-0.106008165
72	0x3dd524cc	0.10407409
73	0x3dcf7e3d	0.101315
74	0x3dcc0a10	0.09962857
75	0xbca846af	-0.020541517
76	0x3dad6efc	0.08468434
77	0x3bd8b842	0.006613762
78	0x3da44f86	0.080229804
79	0xbb69e189	-0.0035687408
80	0xbd1eb622	-0.038747914
81	0xbdad159e	-0.08451389
82	0xbe0467dc	-0.12930244
83	0xbcfbef0a	-0.030753631
84	0x3c7cf789	0.015439876
85	0xbd01808f	-0.031616744
86	0xbc3642e2	-0.011124345
87	0xbe9bc506	-0.30423754
88	0xbd06648d	-0.032810736
89	0x3d7d938c	0.06190829
90	0xbdb81c44	-0.08989766
91	0xbc9c74aa	-0.019098599
92	0xbcf8d42a	-0.030374605
93	0xbcb491db	-0.022042206
94	0xbd4c38aa	-0.049858727
95	0x3d37a990	0.04483944
96	0xbd1c66ce	-0.03818398
97	0x3d1c41ab	0.038148563
98	0x3d58c539	0.05292246
99	0x3dda1546	0.10648589
100	0x3df9c736	0.121961996
101	0x3dcef302	0.10104944
102	0xbcb48da5	-0.022040198
103	0xbca01eca	-0.019545931
104	0xbcb70ac1	-0.022343995
105	0xbbd4aff2	-0.006490701
106	0xbccc87ab	-0.024967035
107	0xbbc22f8b	-0.0059260777
108	0xbddf7966	-0.10911827
109	0xbd80f12c	-0.06296
110	0xbc836c35	-0.016042808
111	0xbae457ce	-0.0017421187
112	0x3d1a00bf	0.037598368
113	0x3d6ae634	0.057348445
114	0xbe845398	-0.25845027
115	0xbdf26cae	-0.11837135
116	0x3d6c70d7	0.0577248
117	0x3d19eb5b	0.037577968
118	0x3d6db77b	0.05803631
119	0xbdf3d96f	-0.119067065
120	0x3d082175	0.033235032
121	0x3dd7fb93	0.10546031
122	0xbd50e3bb	-0.05099843
123	0xbd163e6c	-0.036680624
124	0x3e067bb7	0.13133131
125	0x3d77fb2e	0.060542278
126	0x3dc9747c	0.09836671
127	0xbe5c06de	-0.21486995
128	0x3cf0e68d	0.02940681
129	0xbd49f743	-0.049308073
130	0xbcb78e1d	-0.022406632
131	0x3c8ac5e8	0.016940072
132	0xbd462a69	-0.04838029
133	0x3d946e2d	0.07247577
134	0x3d831d02	0.06402017
135	0x3bac1bfd	0.00525236
136	0x3da150f8	0.07876772
137	0x3bd18230	0.0063936934
138	0x3db5c4ec	0.088754505
139	0x3d364a56	0.044504486
140	0xbcc62b5c	-0.024190597
141	0x3d5b2a73	0.05350728
142	0x3cf1556b	0.029459676
143	0x3d2fe944	0.04294707
144	0xbd00b20c	-0.0314198
145	0xbc8fb8bc	-0.017544143
146	0xbbf25298	-0.0073951
147	0x3dc98f96	0.0984184
148	0x3db7909a	0.089631274
149	0xbd100d21	-0.03516877
150	0xbca28a7d	-0.019841427
151	0x3c5ace56	0.013354858
152	0x3d8bb12e	0.06820904
153	0x3daf317c	0.0855436
154	0xbce1ba0c	-0.027554534
155	0xbbaead8e	-0.005330748
156	0x3a852ea7	0.0010160998
157	0x3c167262	0.009182544
158	0xbcde3a25	-0.027127335
159	0x3d768450	0.060184777
160	0xbc649c4c	-0.01395328
161	0x3d26c01b	0.04071055
162	0x3dd01425	0.10160092
163	0xbc602137	-0.013679794
164	0x3db9cff0	0.09072864
165	0xbd53ed43	-0.051739942
166	0xbd21507e	-0.039383404
167	0xbc8fb741	-0.017543437
168	0xbcb3b37f	-0.021936176
169	0xbd7d2290	-0.06180054
170	0x3cb7d23c	0.022439115
171	0x3db0c12a	0.08630593
172	0xbcfb1388	-0.030648962
173	0x3c85a267	0.016312791
174	0x3dc0827a	0.093998864
175	0x3b8ed1b0	0.004358493
176	0xbca57cdb	-0.020201137
177	0x3d5817d6	0.052757107
178	0x3d89be3e	0.06725739
179	0xbc810246	-0.015748154
180	0xbd81a187	-0.06329637
181	0x3d84419e	0.06457828
182	0xbd00e051	-0.031463925
183	0x3ca733eb	0.020410499
184	0x3cf8b32d	0.030358875
185	0x3d1e2be7	0.038616087
186	0x3ddca0eb	0.1077288
187	0x3cef1c12	0.02918819
188	0xbc395e00	-0.011313915
189	0xbd2ac636	-0.041692935
190	0x3dc2a95e	0.095049605
191	0xbd395c15	-0.045253832
192	0xbb0d1756	-0.0021528802
193	0xbd076d9d	-0.03306352
194	0x3dde159c	0.108439654
195	0xbd459626	-0.048238896
196	0xbd5b8ec8	-0.053602964
197	0x3db79c60	0.08965373
198	0xbc9ff803	-0.01952744
199	0x3b9fc4ed	0.0048757703
200	0xbd70679c	-0.05869256
201	0x3c7d79ee	0.015470965
202	0x3d60c778	0.05487773
203	0x3de8ae04	0.11361316
204	0xbc088a53	-0.00833376
205	0x3da9bf1a	0.08288403
206	0x3d21b68a	0.039480723
207	0x3de5887a	0.112076715
208	0x3c6f6711	0.014611975
209	0x3d8663f7	0.065620355
210	0xba1d44de	-0.0005999337
211	0x3c5613f7	0.013066283
212	0x3d78f746	0.060782693
213	0xbd5154ce	-0.051106267
214	0xbc9658ed	-0.01835295
215	0xbc6c17af	-0.0144099435
216	0x3ce921aa	0.028458435
217	0x3d911170	0.07083404
218	0x3d25d10b	0.040482562
219	0x3d233545	0.039845724
220	0x3dbd73fe	0.092506394
221	0x3d1ba8fa	0.038002945
222	0x3dbd3f3c	0.092405766
223	0x3d9ba966	0.076006696
224	0x3da33f81	0.07971097
225	0x3d45767a	0.04820869
226	0xbd3270c1	-0.04356456
227	0x3d5846aa	0.052801766
228	0xbd02ebce	-0.031963162
229	0x3db22233	0.08697929
230	0x3c931b9e	0.017957505
231	0x3da7d860	0.08195567
232	0x3dc31145	0.09524778
233	0xbcddbc5e	-0.02706736
234	0xbcb5743d	-0.022150153
235	0xbbffc427	-0.0078053656
236	0xbd28d187	-0.041215446
237	0x3dc49276	0.09598248
238	0x3de179f0	0.11009586
239	0x3d03007b	0.03198288
240	0x3d364d4a	0.044507302
241	0x3cef65f8	0.029223427
242	0xbd01511a	-0.031571485
243	0x3d6b1473	0.05739255
244	0xbd173404	-0.03691484
245	0x3dd341cc	0.10315284
246	0x3ceb4ab7	0.02872215
247	0x3d9c7367	0.07639199
248	0x3d32e6f1	0.043677274
249	0xbd52cb34	-0.05146332
250	0x3daf8a6b	0.08571323
251	0x3d4860d1	0.048920456
252	0xbd62e7fc	-0.05539702
253	0x3d129454	0.035785988
254	0x3dd49628	0.103802025
255	0xbd0fdeab	-0.035124462

encoder.3.bias f4 [64]
0	0xbd939a86	-0.072072074
1	0xbe464229	-0.19361176
2	0xbdefaace	-0.117025
3	0xbe6f7c0f	-0.23387168
4	0x3cebb9d4	0.028775133
5	0xbcb4978a	-0.022044916
6	0xbe81c0f4	-0.25342524
7	0x3be1d60f	0.006891973
8	0xbe186b35	-0.14884646
9	0xbe22ec60	-0.15910482
10	0xbda24628	-0.079235375
11	0xbe8a9520	-0.27066898
12	0xbd7968ff	-0.060891148
13	0xbe485a72	-0.19565752
14	0xbe0b9483	-0.13630871
15	0xbe7e40b9	-0.24829377
16	0x3ce3bb8f	0.027799396
17	0xbcfebb1a	-0.031095076
18	0xbd8695ff	-0.06571578
19	0x3db207d6	0.08692901
20	0xbe486b19	-0.19572105
21	0xbe1c412d	-0.15259238
22	0x3b23d541	0.0024998935
23	0xbca05a00	-0.019574165
24	0xbe779889	-0.24179281
25	0xb9a9172b	-0.00032251453
26	0xbdcc7d42	-0.099848285
27	0xbd1d009a	-0.03833065
28	0xbdc15ed6	-0.09441917
29	0xbe29964d	-0.16561241
30	0xbc9e91c9	-0.019356625
31	0xbd784c14	-0.06061943
32	0xbe87ba8f	-0.2650952
33	0xbd3a7808	-0.045524627
34	0xbe8bd4c6	-0.2731077
35	0xbd6948b0	-0.056954086
36	0xbe03bf44	-0.12865931
37	0xbd96721e	-0.07345985
38	0xbe1d5a58	-0.15366495
39	0xbabc8ebe	-0.0014385802
40	0xbe7ced39	-0.24699868
41	0xbeac232d	-0.33620587
42	0xbe1dd50e	-0.15413305
43	0xbe1aad39	-0.15105142
44	0xbe914516	-0.2837302
45	0xbd1717dc	-0.03688799
46	0x3b9b1850	0.004733123
47	0xbe39dcb3	-0.18150596
48	0xbe2f693a	-0.17129984
49	0xbe3df096	-0.18548808
50	0xbd9ebd96	-0.077510044
51	0xbe398872	-0.18118456
52	0xbe314b94	-0.17313987
53	0xbdecac1c	-0.11556265
54	0xbe56c0a1	-0.2097192
55	0xbda0b5d7	-0.07847183
56	0xbcc2757b	-0.02373766
57	0x3c2440c0	0.010025203
58	0xbecab183	-0.39588556
59	0xbc03ecc9	-0.008052059
60	0xbde9134f	-0.11380636
61	0xbe3198b9	-0.17343415
62	0xbc987be8	-0.01861377
63	0xbdd84cfc	-0.105615586

encoder.6.weight f4 [32, 64]
0	0x3dabb49c	0.08384058
1	0xbd29c821	-0.041450623
2	0xbd36c4cb	-0.04462127
3	0xbeac1ef0	-0.33617353
4	0x3c3a63f7	0.011376373
5	0x3dca4221	0.09875894
6	0x3d1c9510	0.038228095
7	0xbe1a8715	-0.15090592
8	0x3bac804d	0.005264318
9	0xbe29cfe3	-0.16583209
10	0xbd8f8057	-0.07006901
11	0x3e183d60	0.14867163
12	0x3dd27d97	0.102778606
13	0xbe2cbe33	-0.1686943
14	0x3d064a88	0.032785922
15	0xbe12f7ad	-0.14352293
16	0xbd34758a	-0.044057406
17	0xbd652080	-0.055939198
18	0xbd72f116	-0.05931195
19	0x3d802f5c	0.06259033
20	0x3cb4aa2c	0.0220538
21	0xbccacf65	-0.024757097
22	0x3d6f18b0	0.058373153
23	0x3cca8de3	0.02472586
24	0xbdaf6bbf	-0.08565473
25	0xbcdc7917	-0.026913209
26	0xbdc1474b	-0.09437426
27	0x3dcdf5a4	0.10056618
28	0xbdc4464c	-0.095837206
29	0xbe226736	-0.15859684
30	0x3c97085d	0.018436605
31	0xbdb5fda0	-0.08886266
32	0x3e0c132b	0.13679187
33	0xbdc4aca1	-0.09603239
34	0xbd685a8f	-0.05672699
35	0x3d9bd640	0.07609224
36	0xbcd11959	-0.025524782
37	0x3d81be16	0.06335084
38	0xbdf2c8c0	-0.11854696
39	0x3d24a6eb	0.040198248
40	0x3da10685	0.078625716
41	0xbdd79eb8	-0.1052832
42	0xbd145bf0	-0.03622049
43	0xbd6d7311	-0.057971064
44	0xbd0821a0	-0.033235192
45	0xbce90ea4	-0.028449364
46	0xbce657b1	-0.028117986
47	0xbd1f92a1	-0.038958196
48	0x3bfeebe4	0.007779585
49	0x3d41e064	0.047333136
50	0x3c81a831	0.01582727
51	0xbd8f6e82	-0.070034996
52	0x3d82a5f1	0.06379307
53	0x3dbd9116	0.092561886
54	0x3d5f5936	0.054528438
55	0x3df4e272	0.119572535
56	0xbd3f3c37	-0.046688285
57	0xbd22c509	-0.03973869
58	0xbd91bd0b	-0.07116135
59	0x3ddc4174	0.10754672
60	0x3cf8c723	0.030368393
61	0xbdd6a591	-0.10480798
62	0x3a0d2629	0.00053844095
63	0x3de96b0d	0.113973714
64	0xbe07e611	-0.13271357
65	0xbbe342ba	-0.0069354447
66	0xbb005679	-0.0019582792
67	0x3c817d6d	0.015806878
68	0x3c2a449c	0.010392334
69	0xbd748cb3	-0.059704494
70	0xbd69f0e4	-0.057114497
71	0xbe3bb67d	-0.18331333
72	0xbdcd9c73	-0.10039606
73	0xbe0288c7	-0.12747489
74	0xbe1f087b	-0.15530579
75	0x3d3b14ec	0.04567425
76	0xbd30f5a0	-0.043202996
77	0xbe36c493	-0.17848425
78	0x3cf9d6da	0.030497957
79	0x3e27fba6	0.1640459
80	0xbe232c76	-0.15934929
81	0xbe0a1b6a	-0.1348702
82	0x3dc97e2a	0.09838517
83	0x3d96f481	0.07370854
84	0x3dc8ba6d	0.09801183
85	0xbe2c930c	-0.16852969
86	0xbd8b872a	-0.0681289
87	0x3d925d95	0.071467556
88	0xbcb753b4	-0.02237878
89	0xbd382cb7	-0.04496452
90	0xbd6b2f7d	-0.057418335
91	0xbe05f1f1	-0.13080575
92	0x3c247f8c	0.010040175
93	0x3dadecc3	0.08492424
94	0x3d00a902	0.03141118
95	0x3cffc8e0	0.031223714
96	0x3df7db34	0.121023566
97	0xbe22c453	-0.15895204
98	0x3d8c62a4	0.06854752
99	0xbd670752	-0.056403466
100	0x3de6ae7f	0.11263751
101	0x3d794c0a	0.060863532
102	0xbdbb820a	-0.09155662
103	0x3dbf8148	0.0935083
104	0x3ddafa47	0.10692268
105	0x3d95def6	0.07317917
106	0xbdfaeb88	-0.12251955
107	0xbe1f7c39	-0.15574731
108	0xbd6a524e	-0.057207398
109	0x3d01168f	0.031515654
110	0xbe1a803e	-0.15087983
111	0x3daacc9d	0.08339808
112	0x3d38ea05	0.045145053
113	0x3e052fbb	0.13006489
114	0xbda5076d	-0.08058057
115	0xbc954e41	-0.018225791
116	0xbcb6ba8f	-0.022305755
117	0x3d058900	0.032601357
118	0x3d85afa5	0.06527642
119	0x3d57c15e	0.052674644
120	0xbc9936ec	-0.018702947
121	0xbe080630	-0.1328361
122	0xbe61198b	-0.219824
123	0x3e04672c	0.12929982
124	0x3dee9598	0.116496265
125	0xbcbec4ba	-0.023287166
126	0x3dac7791	0.08421243
127	0x3dbba0be	0.091615185
128	0x3df7b110	0.12094319
129	0x3ca9935d	0.020700151
130	0x3d768cbb	0.060192805
131	0xbd3fed03	-0.04685689
132	0x3df0093f	0.117205136
133	0xbc14f795	-0.009092231
134	0xbd89f22e	-0.06735645
135	0x3e14709f	0.14496087
136	0x3d266172	0.040620275
137	0x3d51977a	0.05116985
138	0x3e0e9904	0.13925558
139	0x3dcef02d	0.10104404
140	0x3dc3f413	0.09568038
141	0x3dd32246	0.103092715
142	0x3d8d313b	0.068941556
143	0xbb7f599f	-0.003896333
144	0x3c677b2a	0.014128486
145	0xbc578793	-0.013154882
146	0xbd7cefa0	-0.06175196
147	0x3dda23b1	0.10651339
148	0x3bf9c465	0.007622289
149	0x3d6e752a	0.058217205
150	0x3cb1defe	0.021712776
151	0xbe127ae3	-0.1430469
152	0x3ae9e916	0.0017845954
153	0xbdf46174	-0.1193265
154	0xbd30b47d	-0.043140877
155	0xbddbc5ef	-0.10731112
156	0xbc31a78d	-0.01084317
157	0x3b3fba0d	0.0029255182
158	0x3cdf0638	0.027224645
159	0x3d871b74	0.06597033
160	0x3d3ff59a	0.046865083
161	0x3e06495e	0.13113925
162	0xbdc25508	-0.09488875
163	0xbd513bd7	-0.05108246
164	0xbd4ba796	-0.04972037
165	0xbd747bbc	-0.059688315
166	0x3e178a9b	0.14798968
167	0x3d06dd8b	0.032926124
168	0x3dc584a5	0.096444406
169	0x3de81ae3	0.11333253
170	0x3d121689	0.035666022
171	0x3d20cc31	0.039257232
172	0x3da90408	0.08252722
173	0x3e1809ca	0.14847484
174	0x3dd49b51	0.10381187
175	0xbd3dc778	-0.046332806
176	0xbe56bab0	-0.20969653
177	0x3db75865	0.08952407
178	0xbc08d90b	-0.008352528
179	0xbdd67e66	-0.10473327
180	0x3d64a2be	0.055819266
181	0xbe309dcf	-0.17247699
182	0xbd709ecb	-0.058745187
183	0xbcaaf6c9	-0.02086963
184	0x3da447af	0.08021485
185	0xbc4d31ba	-0.012524063
186	0x3e5a62f9	0.21326818
187	0xbcec55e5	-0.028849551
188	0xbdfa6ca8	-0.12227756
189	0x3da578f5	0.08079711
190	0xbd205658	-0.039144844
191	0x3d0bf526	0.03416934
192	0x3d75c10d	0.05999856
193	0x3aeca85d	0.0018055547
194	0xbd4bcf4e	-0.049758248
195	0xbb9ed035	-0.0048465976
196	0x3c09e576	0.008416524
197	0xbd55f53b	-0.052235823
198	0x3d59d967	0.053185847
199	0x3ce88618	0.028384253
200	0x3c99d0e2	0.01877636
201	0xbdac2110	-0.08404744
202	0xbc8597a6	-0.016307663
203	0x3db118bd	0.086472966
204	0x3c0a28bb	0.008432562
205	0x3d88ce5f	0.06679987
206	0xbd6687ee	-0.056281976
207	0x3caa65ca	0.02080049
208	0xbd070486	-0.0329633
209	0x3d3bf3e2	0.04588688
210	0x3d2c53e7	0.042072203
211	0x3bcf2153	0.006321111
212	0x3df4616f	0.119326465
213	0x3c7e62ad	0.015526456
214	0xbd44b5dd	-0.048025
215	0xbddf0da4	-0.108912736
216	0xbcf7385f	-0.030178247
217	0xbc47efab	-0.012203137
218	0xbd1752a1	-0.036944035
219	0x3d57df91	0.052703444
220	0xbcd14fb9	-0.02555071
221	0xbbc76726	-0.0060852943
222	0x3ccc7736	0.024959188
223	0x3df9d625	0.12199048
224	0x3db471bf	0.08810758
225	0x3de127af	0.10993897
226	0xbe2affb7	-0.1669911
227	0xbdb2089f	-0.086930506
228	0xbd89514e	-0.06704961
229	0xbc0a6723	-0.008447441
230	0x3d68582a	0.056724705
231	0x3d0a0ada	0.033701755
232	0x3de136f1	0.10996807
233	0x3d8f537b	0.069983445
234	0x3cf6e535	0.030138591
235	0x3dff6986	0.12471299
236	0x3cff8e5d	0.031195814
237	0x3d994c7f	0.074852936
238	0x3df8f0d6	0.12155311
239	0xbda64d63	-0.08120229
240	0xbea36ec4	-0.31920445
241	0x3deb5352	0.114905015
242	0xbd8acad2	-0.06776966
243	0xbdb25546	-0.08707671
244	0xbc9ed465	-0.019388387
245	0xbe1626cb	-0.14663236
246	0x3dbc90fb	0.0920734
247	0x3b0d52a2	0.0021564146
248	0x3df12a79	0.11775679
249	0x3d1633a7	0.036670353
250	0x3d962c0d	0.07332621
251	0xbd09732b	-0.0335571
252	0xbe5a8ef9	-0.21343602
253	0x3de85124	0.11343601
254	0xbe240d21	-0.16020633
255	0x3b172c99	0.0023067354

encoder.6.bias f4 [32]
0	0x3d3e0958	0.04639563
1	0xbd8ff5a2	-0.070292726
2	0xbb247d01	-0.0025098922
3	0xbd5c10a4	-0.053726807
4	0xbde0ee68	-0.109829724
5	0xbd99dbda	-0.075126365
6	0x3e20bd28	0.15697157
7	0xbd28e5fb	-0.04123495
8	0x3e0a9469	0.13533176
9	0xbdddf42a	-0.10837586
10	0xbd028fa7	-0.03187528
11	0xbe2282ea	-0.15870252
12	0x3d92e8f1	0.07173336
13	0x3df7149f	0.1206448
14	0xbd931bdc	-0.07183048
15	0xbd994bb6	-0.07485144
16	0xbbdc9061	-0.0067310785
17	0x3dea756e	0.11448179
18	0xbdf564c5	-0.11982111
19	0xbddec999	-0.108782955
20	0x3d9ae263	0.07562711
21	0xbdd87118	-0.10568446
22	0x3ca5a3b5	0.020219663
23	0x3df52df3	0.11971655
24	0x3d2686c7	0.040655877
25	0xbe28cd2d	-0.16484518
26	0x3da5b734	0.08091584
27	0xbc8dcddc	-0.017310075
28	0xbdb8b3a9	-0.090186425
29	0x3d44923f	0.047991034
30	0x3d48f4fa	0.049061753
31	0xbd96b603	-0.07358935

encoder.9.weight f4 [10, 32]
0	0x3d9a094c	0.075213045
1	0xbc6e8e0c	-0.014560234
2	0x3cb1a6f5	0.021686057
3	0x3d0758f8	0.03304383
4	0xbe17eb23	-0.14835791
5	0x3ddf2bf9	0.10897059
6	0xbd5cd24c	-0.053911492
7	0x3e234b73	0.1594675
8	0x3e26135f	0.16218327
9	0xbc532174	-0.012886394
10	0x3e17b6dc	0.14815849
11	0x3ccae5ab	0.024767717
12	0x3baf4140	0.0053483546
13	0x3d232d23	0.039837968
14	0xbe250dab	-0.16118495
15	0xbc31ed44	-0.010859791
16	0xbb6f47c3	-0.003651128
17	0xbe11b899	-0.14230575
18	0x3d920fd8	0.07131928
19	0x3e176711	0.1478541
20	0xbe4aa15f	-0.1978812
21	0x3e14c817	0.14529453
22	0xbda2af6e	-0.07943617
23	0xbe58063b	-0.21096127
24	0x3dba2e00	0.09090805
25	0x3e349374	0.17634374
26	0xbdaac327	-0.083380036
27	0xbe02c6af	-0.12771104
28	0xbdee270f	-0.116285436
29	0xbe8823e8	-0.26589894
30	0xbb413ebc	-0.0029486855
31	0x3912e53b	0.0001400904
32	0xbe187828	-0.14889586
33	0x3c3eb183	0.011639002
34	0x3d7ca581	0.061681274
35	0xbd52ad5c	-0.05143486
36	0x3e6d3919	0.23166312
37	0xbe0d9692	-0.1382697
38	0xbe050164	-0.12988812
39	0x3dfaf534	0.122538
40	0xbdbf692b	-0.09346231
41	0x3e204f23	0.15655188
42	0xbcd68106	-0.02618457
43	0xbca98b50	-0.020696312
44	0xbe0d3fba	-0.13793841
45	0xbe35439b	-0.1770157
46	0x3e312dcf	0.17302631
47	0x3e509605	0.20369728
48	0x3e2be9b8	0.16788375
49	0xbd464172	-0.048402257
50	0x3e57d6df	0.2107806
51	0x3e302ce2	0.17204621
52	0xbd3a70a2	-0.04551757
53	0xbc20e3b7	-0.009819916
54	0xbb957f07	-0.004562262
55	0x3d419849	0.04726437
56	0xbd70085a	-0.058601715
57	0x3e45ba3f	0.19309328
58	0xbe276ade	-0.1634936
59	0xbd4a274e	-0.04935389
60	0x3c7cd76e	0.015432222
61	0x3df68e9f	0.120389216
62	0xbcae4588	-0.02127339
63	0xbdd3c96b	-0.10341152
64	0xbd9d3232	-0.076755896
65	0xbdb567b3	-0.0885767
66	0x3db3d9ce	0.08781777
67	0xbcde9f4a	-0.027175564
68	0xbe3accf2	-0.18242243
69	0x3e096458	0.13417184
70	0xbe163a03	-0.14670567
71	0x3cda5479	0.026651608
72	0xbc82cab5	-0.015965799
73	0xbe1590a8	-0.14605963
74	0xbd92dbe4	-0.07170847
75	0x3da75a10	0.08171475
76	0x3d337633	0.043813895
77	0x3cb47cc8	0.022032157
78	0xbd84a659	-0.06477041
79	0x3e18336c	0.14863366
80	0x3df22ec7	0.11825328
81	0xbde7efa4	-0.11325005
82	0x3e447618	0.19185674
83	0xbd45eb06	-0.04831984
84	0x3d014475	0.031559426
85	0xbe01e3ad	-0.12684508
86	0x3d71e401	0.059055332
87	0xbda6a184	-0.081362754
88	0xbe3b0d8b	-0.18266885
89	0x3ca81a31	0.020520302
90	0x3dcdfd97	0.10058134
91	0x3dc16bb7	0.09444373
92	0xbdcc81b4	-0.099856764
93	0x3dee8288	0.116459906
94	0xbdd0d08c	-0.10196027
95	0xbe2c7eb2	-0.16845205
96	0x3e442a96	0.1915687
97	0x3de66f5f	0.11251711
98	0x3b94b9d8	0.004538756
99	0x3e09cf27	0.13457929
100	0x3d7f61d3	0.06234915
101	0xbb8e2047	-0.004337344
102	0x3e15faac	0.14646405
103	0xbe121291	-0.14264895
104	0x3d9a6ccb	0.07540282
105	0x3e127a99	0.1430458
106	0x3d9f8650	0.0778929
107	0xbd1f1add	-0.03884398
108	0x3e284d28	0.16435683
109	0x3cb45b2d	0.022016132
110	0xbc470316	-0.012146732
111	0x3da1d91b	0.07902738
112	0xbdcfffbb	-0.101561986
113	0x3e1099f9	0.14121236
114	0x3d0dc4b9	0.034611437
115	0xbba6a1db	-0.0050852126
116	0xbd283878	-0.041069478
117	0xbe0f01eb	-0.13965575
118	0x3e4b04f5	0.1982611
119	0xbb9055cc	-0.004404759
120	0x3e4b37a3	0.19845442
121	0xbd338b24	-0.043833867
122	0xbddb6f4f	-0.1071459
123	0x3e1f8b20	0.15580416
124	0xbd00b8dd	-0.0314263
125	0x3d925eb5	0.0714697
126	0x3e10e91b	0.14151423
127	0x3d0de865	0.034645457
128	0xbd45b170	-0.04826492
129	0xbd61c3b9	-0.055118296
130	0x3e3aa77b	0.18227951
131	0x3e47e9c5	0.1952277
132	0x3c399f5e	0.0113295
133	0x3d8f7ca8	0.07006198
134	0x3e198778	0.14993083
135	0x3ddac9c3	0.10683014
136	0x3e21643b	0.15760891
137	0x3deff8b3	0.117173575
138	0x3de5519f	0.111972086
139	0xbdfa1823	-0.12211635
140	0x3e5413f1	0.20710732
141	0x3e5f2ed6	0.2179521
142	0x3e0ac612	0.1355212
143	0xbc5231a9	-0.012829223
144	0xbd3c5768	-0.045981795
145	0xbdedec7a	-0.1161737
146	0x3e1922f4	0.1495474
147	0xbd5ebf93	-0.05438192
148	0xbe3bd719	-0.18343772
149	0x3dbd2178	0.09234899
150	0x3dbcd2f7	0.09219926
151	0xbd152bd6	-0.03641876
152	0x3e074d40	0.13213062
153	0xbdf0aa5d	-0.11751244
154	0x3e29ac82	0.16569713
155	0xbe22826f	-0.15870069
156	0x3e17a20e	0.14807913
157	0x3d8ee6e4	0.06977633
158	0x3d59f59b	0.053212743
159	0x3e3229fd	0.1739883
160	0xbdf78673	-0.12086191
161	0x3d020d23	0.03175081
162	0xbccc23da	-0.02491944
163	0xbda7ad88	-0.08187395
164	0xbdf830c5	-0.12118677
165	0xbe11a1f0	-0.1422193
166	0xbd914772	-0.07093705
167	0x3e882b87	0.2659571
168	0xbd504def	-0.050855573
169	0xbd3b36e2	-0.045706637
170	0x3d0cdba5	0.034389157
171	0xbd203d58	-0.039121002
172	0x3de278c5	0.11058191
173	0x3d38dd1f	0.045132753
174	0x3cce8ca0	0.02521354
175	0x3d872130	0.06598127
176	0x3c348ad4	0.011019427
177	0xbd2d4534	-0.042302325
178	0xbe255205	-0.16144569
179	0xbe35756f	-0.17720579
180	0xbe3d2974	-0.18472844
181	0xbe82df78	-0.25561118
182	0x3d1f38e9	0.038872633
183	0x3d0e709b	0.034775358
184	0x3c881f79	0.01661657
185	0xbe1f82bf	-0.1557722
186	0x3ded438e	0.11585151
187	0xbe280491	-0.16407992
188	0x3da52240	0.08063173
189	0xbd37a529	-0.044835243
190	0x3db666f0	0.089063525
191	0x3d6c90c6	0.057755254
192	0x3e3b3dce	0.18285295
193	0x3e28f3c3	0.16499238
194	0x3dac40fa	0.08410831
195	0xbd48867f	-0.04895639
196	0xbcdfb7b5	-0.027309278
197	0xbd1d72fe	-0.038439743
198	0xbd2771fb	-0.040880185
199	0x3ba0633e	0.004894643
200	0x3d4e3e9a	0.05035267
201	0xbdf301f1	-0.11865605
202	0xbdf1b308	-0.118017256
203	0x3e3e7667	0.18599854
204	0xbd68a759	-0.05680022
205	0xbe073c81	-0.13206674
206	0xbe265596	-0.16243586
207	0x3e42dbe6	0.19029197
208	0xbd87d80b	-0.06633004
209	0x3e091fff	0.13391112
210	0xbdc8b799	-0.098006435
211	0xbd80df3d	-0.06292579
212	0x3d6eaa8e	0.058268122
213	0x3de15a53	0.11003556
214	0xbe3edc93	-0.1863883
215	0x3dcb5122	0.09927584
216	0xbdf2666b	-0.11835941
217	0xbe200ee4	-0.1563068
218	0x3cd19fd9	0.025588917
219	0x3df94ca0	0.12172818
220	0x3e4f1271	0.20221879
221	0x3e222f65	0.15838392
222	0x3d3b517c	0.045732006
223	0x3d0f97f0	0.03505701
224	0xbddfa8a0	-0.109208345
225	0xbe4e25a1	-0.20131542
226	0x3d4964ad	0.049168278
227	0xbdb7513e	-0.089510426
228	0x3e38f9f0	0.18064094
229	0x3e48be20	0.19603777
230	0x3d5cd1f1	0.053911153
231	0xbda44937	-0.08021777
232	0x3baf93fc	0.0053582173
233	0xbd4e40dc	-0.050354823
234	0x3db319cc	0.08745155
235	0x3c945a9c	0.018109612
236	0x3d36d1c0	0.044633627
237	0xbd45ba31	-0.04827327
238	0x3d6fb764	0.058524504
239	0xbe1a0dd7	-0.15044342
240	0x3e45fae2	0.19333985
241	0xbe50ff85	-0.20409973
242	0x3ddfa261	0.10919643
243	0x3d32acff	0.043622013
244	0x3bbe13eb	0.0058007143
245	0xbd318d5e	-0.04334771
246	0x3e207823	0.15670829
247	0xbe1875c8	-0.1488868
248	0xbd67ae9a	-0.056562997
249	0x3d41e9d5	0.04734214
250	0xbe52d5ca	-0.20589367
251	0xbde7b7e5	-0.11314372
252	0x3e2cd767	0.16879044
253	0xbd716b9b	-0.05894051
254	0x3dfa4407	0.122200064
255	0x3dac092f	0.08400189

encoder.9.bias f4 [10]
0	0xbb51e284	-0.0032025883
1	0xbd89bc17	-0.067253284
2	0x3b0db0c4	0.0021620253
3	0x3e005d17	0.12535511
4	0xbd982a88	-0.07429987
5	0xbd8b9c30	-0.068169
6	0x3d638ea1	0.055555943
7	0x3dffd12f	0.124910705
8	0x3e3cc5db	0.18434851
9	0xbd451c7d	-0.04812287

decoder.0.weight f4 [32, 10]
0	0xbe93b253	-0.28846988
1	0x3e1d3603	0.15352635
2	0x3e93b9db	0.28852734
3	0x3e1a54ae	0.15071365
4	0xbd3912e7	-0.045184042
5	0xbd98dbd0	-0.07463801
6	0xbe5ee60d	-0.21767445
7	0xbcb8e38c	-0.02256944
8	0xbbe1596b	-0.0068771145
9	0x3db1522a	0.0865825
10	0x3e1cbcbb	0.1530637
11	0x3e503325	0.2033201
12	0xbe864a80	-0.26228714
13	0xbe8d01b2	-0.27540356
14	0xbdbf6755	-0.09345881
15	0xbda9674f	-0.08271658
16	0x3df7b43a	0.12094922
17	0xbdc95728	-0.09831077
18	0xbe4934b9	-0.19649018
19	0xbd058fec	-0.032607958
20	0x3da8aea1	0.08236433
21	0x3e6e0241	0.23243047
22	0xbdf5f2a3	-0.1200917
23	0xbb398bfc	-0.0028312197
24	0xbd95da3c	-0.073170155
25	0x3ea43344	0.32070363
26	0x3e5764e1	0.21034576
27	0x3df31b7b	0.11870476
28	0x3dc3e8db	0.09565898
29	0x3a4e2a65	0.00078645936
30	0xbea9dc09	-0.33175686
31	0xbe5bcc32	-0.21464613
32	0x3dcff16f	0.10153472
33	0x3da1e969	0.079058476
34	0x3e1029c4	0.14078432
35	0xbddeba6a	-0.108753994
36	0x3e9b5eef	0.30345866
37	0xbe0c46e5	-0.13698919
38	0x3e8470bc	0.2586726
39	0x3e50a2bd	0.2037458
40	0x3e90118d	0.2813839
41	0xbdea007b	-0.11425873
42	0x3d9ce28d	0.07660399
43	0xbe4b2dfb	-0.19841759
44	0xbd8f5cf6	-0.07000153
45	0x3cd1414a	0.025543828
46	0x3e625c2a	0.2210547
47	0xbe403587	-0.18770419
48	0x3e6d83f3	0.23194866
49	0xbe8f0441	-0.27932933
50	0xbd01c07a	-0.0316777
51	0xbe43a5ec	-0.19106263
52	0xbc8f8dcd	-0.01752367
53	0x3e0cec6c	0.13762063
54	0x3e125d45	0.14293392
55	0xbd4dc35a	-0.05023513
56	0xbe9e8397	-0.3095977
57	0x3eb047cc	0.34429777
58	0x3e59dcfe	0.21275708
59	0xbe4c1b5f	-0.19932316
60	0xbe13a0ff	-0.14416884
61	0x3caf8f4a	0.02143063
62	0x3dc7fc1f	0.09764885
63	0xbe6a2bc5	-0.22868259
64	0x3e0e1df2	0.1387861
65	0x3ea4fc0c	0.32223547
66	0x3cbe2a50	0.023213536
67	0xbdf106e5	-0.11768893
68	0x3cb7f7d9	0.02245705
69	0xbd92b76a	-0.0716389
70	0x3e320f74	0.17388707
71	0x3d8be133	0.06830063
72	0xbc9b7bd6	-0.018979948
73	0xbdb39476	-0.08768551
74	0x3e0ad0d3	0.13556223
75	0x3e6a12a2	0.2285867
76	0xbdb4d586	-0.08829789
77	0xbe79d49a	-0.24397507
78	0x3e82785d	0.25482455
79	0xbe3d56a4	-0.18490082
80	0x3e73f3ad	0.23823424
81	0x3e638c43	0.22221474
82	0xbda67305	-0.08127407
83	0xbe90202d	-0.28149548
84	0x3e87fb2f	0.26558825
85	0x3e6845cf	0.2268288
86	0x3e9d590c	0.30732
87	0x3e1aef3b	0.15130322
88	0xbe428d46	-0.18999204
89	0xbd87db6e	-0.0663365
90	0x3e9a0853	0.30084476
91	0xbea6522b	-0.32484564
92	0xbd740dae	-0.05958336
93	0x3dd2b7cf	0.10288965
94	0x3e0ede2d	0.13951941
95	0x3e919fbc	0.2844218
96	0x3e555c50	0.20835996
97	0xbe3bc799	-0.18337859
98	0xbe07c0e0	-0.1325717
99	0x3e4e0ec3	0.20122819
100	0xbe08773c	-0.13326734
101	0x3e46372e	0.19356987
102	0x3d89670a	0.06709106
103	0x3e9df9f9	0.30854777
104	0x3e859f83	0.2609826
105	0xbe1d2a72	-0.15348223
106	0x3dfefa77	0.12450116
107	0xbe0a9f5e	-0.13537356
108	0xbdd2ebe9	-0.102989025
109	0xbe6f00df	-0.23340176
110	0x3d7b0526	0.061284207
111	0xbd7abecc	-0.061217114
112	0x3d9f86c1	0.07789374
113	0xbe33a006	-0.17541513
114	0xbd9a961b	-0.075481616
115	0xbddb2fef	-0.10702502
116	0x3e675558	0.2259115
117	0x3d26d0ee	0.040726595
118	0x3e958630	0.2920394
119	0x3e937265	0.28798214
120	0x3ebee70c	0.3728565
121	0x3e6d83d8	0.23194826
122	0x3d773c1c	0.06036006
123	0x3e42c0b2	0.1901882
124	0x3e2d0b42	0.16898826
125	0x3e2a7dba	0.16649523
126	0xbdc15b6a	-0.09441264
127	0x3e67933e	0.22614762
128	0x3cad5b45	0.021161685
129	0x3dcc5234	0.099766165
130	0x3e5e7a40	0.21726322
131	0xbe408c78	-0.18803585
132	0xbe6b8cc7	-0.23002921
133	0x3d76c16d	0.06024306
134	0x3e9e9b4c	0.30977857
135	0x3e36f831	0.17868115
136	0xbe0a3298	-0.13495862
137	0x3e8e0dfc	0.27745044
138	0xbbc60ef5	-0.0060442635
139	0xbe2f601d	-0.17126508
140	0x3d8e0574	0.06934634
141	0x3d8b506d	0.068024494
142	0xbe8f2524	-0.27958024
143	0xba1e28d5	-0.0006033306
144	0x3e83237f	0.2561302
145	0xbe9b118b	-0.30286822
146	0xbe50178d	-0.20321484
147	0x3e8a4365	0.27004543
148	0x3da08f16	0.078397915
149	0x3bc0980c	0.0058775004
150	0xbde850d1	-0.113435395
151	0x3d2b7b6a	0.041865744
152	0xbeb7e3cf	-0.35915992
153	0x3e33d88f	0.1756308
154	0xbc97fe7b	-0.018553963
155	0x3d57ff84	0.052733913
156	0xbe4a8888	-0.19778645
157	0xbe9d6501	-0.30741122
158	0xbdc96c55	-0.09835116
159	0x3e349ae6	0.17637214
160	0x3d93c7b7	0.07215827
161	0x3e64c2e5	0.22339971
162	0xbe2a0c24	-0.16606194
163	0xbe8d3a83	-0.27583703
164	0x3e671320	0.2256589
165	0xbe9b4907	-0.30329153
166	0xbc8dd5b4	-0.017313816
167	0x3e6adb5d	0.22935243
168	0x3e643cd7	0.22288834
169	0xbc985691	-0.018595966
170	0x3d394938	0.045235842
171	0xbedd771c	-0.43254936
172	0x3e72441a	0.23658791
173	0xbe9cba13	-0.30610713
174	0x3d0d1202	0.034441
175	0x3e35c9fb	0.1775283
176	0x3d2f8894	0.04285486
177	0x3e0a2c93	0.13493566
178	0xbe9c25e0	-0.30497646
179	0xbeb02175	-0.34400526
180	0x3ea25935	0.31708685
181	0xbea0b2c3	-0.31386384
182	0xbcf2423c	-0.029572599
183	0x3e8ef4b3	0.27921066
184	0xbe9ca0fd	-0.30591574
185	0x3df61931	0.12016524
186	0x3e26e2a8	0.162974
187	0x3e5d5e55	0.21618016
188	0xbe30e356	-0.17274222
189	0xbe56d8d0	-0.20981145
190	0x3dbe37bb	0.092879735
191	0xbe7f98c2	-0.24960616
192	0xbd1cb4e0	-0.038258433
193	0x3e9ea163	0.30982503
194	0x3dc6e541	0.097116955
195	0xbceb959e	-0.028757866
196	0xbcb109a5	-0.021611044
197	0x3da4764e	0.08030377
198	0xbb2e76f7	-0.0026621202
199	0xbe6742e2	-0.22584108
200	0xbd8b03a9	-0.067878075
201	0xbe48a580	-0.19594383
202	0x3da44f5d	0.0802295
203	0xbe4c4c3c	-0.19950956
204	0x3ea1ec11	0.31625417
205	0xbe347d79	-0.17625989
206	0xbc46422f	-0.01210074
207	0x3e8c5247	0.27406523
208	0xbdebc910	-0.11512959
209	0xbcdd3ec8	-0.027007475
210	0xbe94cc60	-0.29062176
211	0xbd5e787c	-0.05431412
212	0x3e840039	0.2578142
213	0x3da6d534	0.08146134
214	0xbe506e34	-0.20354539
215	0x3e656ff7	0.22405992
216	0x3e999c05	0.30001846
217	0x3e6c6924	0.23086983
218	0xbb47d2e7	-0.0030490698
219	0xbe713199	-0.23554076
220	0x3e7a15b1	0.24422337
221	0x3e50c1d0	0.20386434
222	0xbe85af21	-0.26110175
223	0xbea179f3	-0.31538352
224	0xbe238782	-0.15969661
225	0xbe3c3e8d	-0.18383236
226	0xbe002022	-0.12512258
227	0xbe959011	-0.29211476
228	0x3d1a6e53	0.03770287
229	0x3ea3a8cc	0.3196472
230	0xbcbbce99	-0.022925662
231	0x3e604a1c	0.2190327
232	0x3dc0877d	0.09400842
233	0x3d87307b	0.06601044
234	0x3e03a39c	0.12855381
235	0x3dd921e1	0.10602165
236	0x3e313a03	0.17307286
237	0x3e5aaa54	0.21354038
238	0x3df61bec	0.120170444
239	0x3d8ffbfa	0.070304826
240	0x3eade415	0.33963075
241	0x3e8233cd	0.25430146
242	0x3df62ee8	0.120206654
243	0x3e8bf6cb	0.27336726
244	0x3e4f94ce	0.20271608
245	0x3d8aabfe	0.06771086
246	0xbe08671e	-0.13320586
247	0x3dbed8f6	0.09318726
248	0xbe85f724	-0.26165116
249	0x3d18ad2b	0.03727452
250	0xbe144ac0	-0.1448164
251	0xbdcefa14	-0.10106292
252	0x3eb365bf	0.35038564
253	0x3e31b7b7	0.17355238
254	0xbd0c9498	-0.034321398
255	0xbd2dbd1a	-0.04241667

decoder.0.bias f4 [32]
0	0x3d34f38a	0.04417757
1	0x3e90d065	0.28283992
2	0x3e9c0034	0.30468905
3	0x3aea4e16	0.0017876055
4	0xbe85ca73	-0.2613102
5	0xbda25bcf	-0.07927667
6	0x3c1f8ff6	0.009738913
7	0xbd17e4ed	-0.037083555
8	0xbe9d411f	-0.30713746
9	0x3df6a073	0.12042322
10	0xbe1c002b	-0.15234439
11	0xbe42ee9f	-0.19036339
12	0xbd310535	-0.043217856
13	0x3d01e174	0.03170915
14	0x3ddf900c	0.10916147
15	0x3e1c89ef	0.15286992
16	0x3df993f7	0.12186425
17	0xbd8669d3	-0.06563153
18	0x3c6558fe	0.013998268
19	0x3d0a2447	0.033726003
20	0xbe5a3ad1	-0.21311499
21	0x3e5e9300	0.21735764
22	0x3e5e6726	0.21719036
23	0xbe6da340	-0.23206806
24	0x3e90999f	0.28242204
25	0x3e8cb182	0.27479178
26	0x3e05e9f6	0.1307753
27	0xbdb84062	-0.08996655
28	0x3e58f3e4	0.21186787
29	0x3d12537c	0.03572415
30	0x3dda2c1f	0.10652947
31	0xbe58e8c4	-0.21182543

decoder.2.weight f4 [64, 32]
0	0xbb6ba15a	-0.0035954327
1	0xbcb0eb2f	-0.02159652
2	0xbd54e710	-0.05197817
3	0xbd37ea3f	-0.04490113
4	0xbe1d4950	-0.15359998
5	0xbd82eea3	-0.063931726
6	0xbdd98510	-0.10621083
7	0xbc074474	-0.008256067
8	0xbd9ab912	-0.075548306
9	0x3d1bab8a	0.03800539
10	0x3d4a3f14	0.049376562
11	0x3dbbe51e	0.0917456
12	0xbdd9ae3f	-0.10628938
13	0xbe4d33f3	-0.20039348
14	0x3d57c7f1	0.052680913
15	0xbdc4bac0	-0.09605932
16	0x3ca75374	0.020425536
17	0x3e0d6009	0.13806166
18	0xbd420349	-0.047366414
19	0x3de67f88	0.112547934
20	0x3d767c65	0.060177226
21	0x3e20983a	0.1568307
22	0x3d3e8047	0.046509054
23	0x3e680fbd	0.22662254
24	0xbe8b999c	-0.27265632
25	0xbdcd4649	-0.100231715
26	0x3d52b386	0.05144074
27	0xbdd980dc	-0.10620281
28	0x3d8aeb0e	0.067831144
29	0xbe30275f	-0.17202519
30	0x3dc39d47	0.09551483
31	0x3d0dc263	0.03460921
32	0x3c3ab9ef	0.011396869
33	0x3b201137	0.0024424323
34	0x3d6495ca	0.055806912
35	0x3e0a680c	0.13516253
36	0x3df7444b	0.12073573
37	0xbdd1b4a2	-0.10239531
38	0xbd48f868	-0.049065024
39	0x3e0cf0de	0.13763759
40	0xbe453df9	-0.19261922
41	0x3d91a2b3	0.071111105
42	0xbe220f01	-0.15826036
43	0xbda9c825	-0.08290128
44	0xbe55c40b	-0.20875566
45	0x3de3dd4e	0.11126195
46	0xbe5312c2	-0.20612624
47	0x3da579ec	0.080798954
48	0x3df313dd	0.11869023
49	0x3e13aec8	0.14422143
50	0x3d89c927	0.0672782
51	0x3d92195e	0.07133745
52	0x3d07b0fc	0.03312777
53	0xbcadc3a7	-0.021211458
54	0x3d87752d	0.066141464
55	0xbe1e9243	-0.15485482
56	0xbe387073	-0.18011646
57	0x3db19fa1	0.08673025
58	0x3d95bfc1	0.07311965
59	0xbd0572ff	-0.032580372
60	0x3d362665	0.04447021
61	0x3d1e598c	0.038659617
62	0x3e3e79e3	0.18601184
63	0xbd9b1ca8	-0.07573825
64	0xbc1c40dd	-0.009536949
65	0x3e4a74d9	0.19771136
66	0x3c01a9ce	0.00791402
67	0x3d880ede	0.06643461
68	0x3de787b2	0.11305179
69	0x3d9bf7a4	0.07615593
70	0xbdbef3e2	-0.09323861
71	0xbccc9a78	-0.024976
72	0xbe17c814	-0.14822417
73	0xbd7307d0	-0.059333622
74	0x3d8c2b6f	0.06844222
75	0xbd3db0e1	-0.046311263
76	0xbd1d4a39	-0.038400862
77	0xbdd1c170	-0.102419734
78	0x3ba2a017	0.004962932
79	0x3e2cefb1	0.1688831
80	0x3ce69f20	0.028152049
81	0x3cde8f0b	0.027167818
82	0x3deb269d	0.11481974
83	0x3cdd40f0	0.027008504
84	0x3df9b4f6	0.12192719
85	0x3cf79a5a	0.030224968
86	0x3bab4e03	0.0052278056
87	0xbd44a4ee	-0.04800885
88	0x3c83bc0c	0.016080879
89	0x3c145d18	0.009055398
90	0xbd5cb8c8	-0.05388716
91	0xbdcf89c7	-0.10133701
92	0x3d40331a	0.046923734
93	0xbe1bce66	-0.15215454
94	0xbdd4c40f	-0.10388958
95	0x3cff7f60	0.031188667
96	0xbd82c603	-0.06385424
97	0x3e78a45a	0.24281445
98	0xbe2f5030	-0.17120433
99	0x3c9eade8	0.019370034
100	0x3c335780	0.010946155
101	0x3dc0a68c	0.09406766
102	0x3d8d5916	0.069017574
103	0x3da8b3df	0.08237433
104	0x3cb2e2da	0.021836687
105	0x3e2951d3	0.1653512
106	0x3da7341e	0.081642374
107	0xbce7c444	-0.028291829
108	0xbe53d7fe	-0.20687863
109	0xbd887709	-0.06663329
110	0x3e312ef0	0.17303061
111	0xbcc955a5	-0.024576971
112	0xbafc22b8	-0.0019236421
113	0x3d6b6bbf	0.0574758
114	0x3e3a430e	0.18189642
115	0xbd90c282	-0.070683494
116	0x3d970a64	0.07375029
117	0xbb1ec589	-0.0024226627
118	0x3e17d973	0.14829044
119	0x3c1f911e	0.0097391885
120	0x3de5b880	0.11216831
121	0x3e09ec54	0.13469058
122	0xbdac2721	-0.08405901
123	0x3e5d7d72	0.21629885
124	0xbdbfe7e2	-0.093704
125	0xbe2fcd25	-0.171681
126	0x3dd10271	0.10205544
127	0x3e1b91d1	0.15192343
128	0x3e44742e	0.19184944
129	0x3d0e1519	0.03468809
130	0x3e03d818	0.12875402
131	0x3e15d1d4	0.14630824
132	0x3de203ef	0.110359065
133	0xbd9a4980	-0.0753355
134	0x3e53b980	0.20676231
135	0x3e73ad69	0.2379662
136	0xbe08d646	-0.13362989
137	0xbde5eac9	-0.11226422
138	0xbe32c39b	-0.1745743
139	0x3dca2474	0.09870234
140	0x3e3070be	0.17230508
141	0xbdfa6df1	-0.12228001
142	0xbdbaee5c	-0.09127495
143	0x3e564004	0.20922858
144	0x3e26007a	0.1621112
145	0xbbfac4d7	-0.0076528597
146	0x3da4d9db	0.08049365
147	0xbe523c4b	-0.20530812
148	0xbdc0c39d	-0.0941231
149	0x3e1297a2	0.14315656
150	0x3d0e8ba0	0.034801126
151	0x3d5ba984	0.05362846
152	0xbd8428ce	-0.064530954
153	0xbd843acc	-0.06456527
154	0x3d006ee1	0.031355742
155	0x3c9eaf83	0.0193708
156	0x3dd6d4d5	0.10489813
157	0x3e659b73	0.2242258
158	0xbdf21ad6	-0.11821525
159	0xbe005077	-0.12530695
160	0x3e55c8d9	0.20877399
161	0x3e3d877d	0.18508716
162	0x3e76a013	0.24084501
163	0xbe689c9b	-0.2271599
164	0xbe37c0b3	-0.17944603
165	0xbc6bea44	-0.014399115
166	0x3d90b695	0.07066075
167	0x3e3b806b	0.18310706
168	0x3cba7d38	0.022764787
169	0x3db2122f	0.086948745
170	0xbdda87f7	-0.106704645
171	0xbe27292f	-0.16324304
172	0xbe2582aa	-0.16163126
173	0x3e22282a	0.15835634
174	0xbbbfc2d9	-0.005852085
175	0xbde3ce35	-0.11123315
176	0xbdf15652	-0.117840424
177	0xbda80ba3	-0.082053445
178	0xbd544018	-0.051818937
179	0xbdc64c39	-0.09682507
180	0xbdf61ab9	-0.12016816
181	0xbe0ea28d	-0.13929196
182	0x3d76b441	0.060230497
183	0x3db33002	0.08749391
184	0x3e1cf31d	0.15327115
185	0x3d4cd035	0.05000325
186	0xbd8e9a53	-0.06963029
187	0xbd7f63a1	-0.062350873
188	0x3e63af38	0.2223481
189	0x3dca84a4	0.098885804
190	0xbe3e6624	-0.18593651
191	0xbe3b6b0b	-0.18302552
192	0x3c27a949	0.010233232
193	0xbd42e0f1	-0.047577802
194	0x3e418954	0.18900043
195	0x3e1da0cc	0.1539337
196	0xbd3bca9a	-0.045847513
197	0xbdd013f7	-0.10160058
198	0x3de3aaec	0.11116585
199	0x3c032637	0.008004717
200	0xbd2d756b	-0.042348307
201	0xbd3971c4	-0.04527451
202	0x3c956eb8	0.018241271
203	0xbd107063	-0.03526343
204	0xbe189783	-0.14901547
205	0xbe20178b	-0.15633981
206	0xbd42725c	-0.047472343
207	0x3e5b0545	0.21388729
208	0x3e7b66b8	0.24550903
209	0x3e3c9f06	0.18420038
210	0x3e158e48	0.14605057
211	0x3e1a17f6	0.15048203
212	0xbe063dc5	-0.131095
213	0x3e11dbcb	0.14244
214	0x3e001359	0.1250738
215	0x3e399f1b	0.181271
216	0xbeb6de9c	-0.35716712
217	0x3e451b9e	0.19248816
218	0xbe7062ec	-0.23475236
219	0xbd382902	-0.044960983
220	0x3da60c08	0.081077635
221	0xbe451e65	-0.19249876
222	0x3e2f4961	0.17117836
223	0xbc8a91d1	-0.016915234
224	0xbbd3d716	-0.006464849
225	0x3e02eecf	0.12786411
226	0x3e516441	0.204484
227	0x3df3df16	0.11907785
228	0x3d281eb6	0.041044913
229	0xbd981c7d	-0.07427309
230	0x3d93e303	0.072210334
231	0xbd0fde8c	-0.035124347
232	0xbde5fd79	-0.11229987
233	0xbe4eeef0	-0.20208335
234	0x3dffcf3d	0.124906994
235	0x3deca6e6	0.11555271
236	0x3e235079	0.15948667
237	0xbdb1a7ea	-0.08674605
238	0x3d9903ea	0.0747145
239	0xbe79d9c4	-0.24399477
240	0x3e625216	0.22101626
241	0x3c74e906	0.014948135
242	0x3e1fabb5	0.15592845
243	0xbc9b0d51	-0.018927248
244	0xbdbaf161	-0.091280706
245	0x3d85c970	0.06532562
246	0x3e8dc29e	0.27687544
247	0xbe01af34	-0.12664491
248	0xbdb5b56e	-0.088724956
249	0xbe22fdc9	-0.15917124
250	0xbda0517b	-0.07828041
251	0x3d48b857	0.049003925
252	0xbe0fb912	-0.14035442
253	0x3d7f6daf	0.06236046
254	0xbe1b5974	-0.15170842
255	0x3dd7d123	0.105379365

decoder.2.bias f4 [64]
0	0x3e318197	0.17334591
1	0x3e0881b1	0.13330723
2	0x3e5a675a	0.21328488
3	0xbe877080	-0.26453018
4	0x3e49b53d	0.19698043
5	0x3e524ec2	0.20537856
6	0x3c1c9d1a	0.00955894
7	0xbd96a138	-0.07354969
8	0xbdfa3650	-0.122173905
9	0x3cbbe51f	0.022936402
10	0x3dc9b871	0.098496325
11	0xbd7cfd6d	-0.061765123
12	0xbe2dadfd	-0.16960903
13	0x3e6f9742	0.23397544
14	0x3cdcee4b	0.026969096
15	0xbdb5f3f9	-0.08884425
16	0x3a1e7c58	0.00060457503
17	0x3e2bf49f	0.16792534
18	0x3c731394	0.014836211
19	0xbde36fd2	-0.111053124
20	0xbdb648ac	-0.0890058
21	0xbdbbe539	-0.0917458
22	0xbd33a9a0	-0.04386294
23	0xbcb68a0a	-0.022282619
24	0xbde78ec7	-0.113065295
25	0x3e124270	0.14283156
26	0x3e427763	0.18990855
27	0xbd883bd3	-0.066520356
28	0x3e0ef198	0.13959348
29	0xbcb87da2	-0.022520844
30	0x3e877eb8	0.26463866
31	0x3e050910	0.12991738
32	0x3cf1eb4a	0.02953114
33	0xbe88fa3a	-0.26753408
34	0x3a370f60	0.0006983187
35	0xbe03eb6a	-0.12882772
36	0x3db12aa3	0.086507104
37	0xbd6bda39	-0.05758116
38	0xbce074b4	-0.027399398
39	0x3bc38909	0.0059672636
40	0xbe52dae2	-0.2059131
41	0x3e03c4ed	0.1286809
42	0x3e423aac	0.18967694
43	0x3e6b48b6	0.22976956
44	0xbdd315f3	-0.10306921
45	0xbe06fd88	-0.13182652
46	0xbe1f7a3a	-0.1557397
47	0x3bb029f2	0.005376094
48	0x3da66f84	0.08126739
49	0xbdba3537	-0.09092181
50	0x3e87be60	0.26512432
51	0x3e44b59c	0.19209903
52	0x3e21ecdb	0.1581301
53	0x3d27e2ce	0.040987782
54	0x3e53dabe	0.20688912
55	0x3de3a49a	0.1111538
56	0xbe0776c4	-0.13228899
57	0x3e3f7aa3	0.18699126
58	0x3e6f7119	0.23382987
59	0x3c9e11d6	0.019295614
60	0x3e3f71a4	0.18695694
61	0x3e2fcea9	0.17168678
62	0x3e3d9364	0.18513256
63	0x3e5a296e	0.21304867
