Save_Models/model-lat12.pth (torch, 193782 bytes, 16 tensors)

encoder.0.weight f4 [128, 99]
-0.052003104 0.06868441 0.04115392 0.03920239 0.059302516 -0.044251136 -0.023295585 0.06886523
0.056800134 -0.07186648 -0.005149958 -0.027787378 -0.11234972 0.04493591 0.08207109 0.07452889
-0.038291182 -0.041543547 -0.058727097 -0.08319345 -0.0673804 0.08286493 0.037981994 0.036580212
0.022710936 0.024085013 -0.020618461 0.06503391 -0.049813673 0.016896801 -0.0045887423 0.06944233
0.046799634 0.1301523 -0.0021705027 0.022098957 0.08745921 0.12646592 -0.049379908 0.012847789
0.04180325 0.03047841 -0.057359733 0.06881392 0.12530173 0.112381116 -0.048893556 -0.0328121
0.12135063 0.047323506 0.008238728 -0.0650393 -0.08506095 0.047433462 -0.057302807 0.0859474
-0.073480256 -0.015587005 0.049323928 -0.060723253 -0.007507706 -0.013945522 -0.0071237176 -0.04379167
-0.035684757 -0.03478429 0.06773828 0.05083278 0.06483395 -0.04015471 -0.038894024 0.009859253
0.068041906 0.019771473 0.06282885 0.082447685 0.002303818 -0.09617564 0.0042278557 0.08712929
0.08813963 -0.045957264 0.064601526 0.046862654 -0.047973335 -0.062105916 0.050257146 -0.021122845
9.759028e-05 -0.041306373 -0.074169114 0.037227232 0.024396094 0.032849763 0.046818424 0.06072898
0.08801637 0.05396009 -0.06244672 -0.1252496 -0.09003871 -0.083913654 -0.00757477 0.08181142
0.0074272566 0.017280532 -0.10440509 -0.091660306 -0.06370961 0.053365465 -0.09866888 0.002747222
-0.092229396 -0.073943585 0.055183444 0.055992175 -0.04918524 0.055883344 -0.019587437 0.043869626
-0.069903076 -0.10637332 -0.045571998 -0.07227657 -0.06642054 -0.04696941 -0.07175861 0.06772142
0.060806844 0.014562861 -0.08973371 -0.01904431 -0.039911382 0.011308382 0.022055842 -0.0863961
0.037391175 0.054980274 0.0385775 -0.07049878 0.07642618 0.076008946 0.030692594 -0.06722157
0.031202387 0.014595476 0.00060025486 0.060112916 -0.085500434 0.07127969 -0.0928303 -0.056558795
-0.031440135 0.0125112785 -0.071664184 -0.04968993 0.09986898 0.08742103 0.037247766 -0.08856424
0.093556866 -0.08767458 -0.052357644 0.055470176 -0.06308935 -0.009315161 -0.050415263 -0.052929003
0.001575959 0.05242915 0.031592954 -0.07732817 -0.06382939 0.043838285 0.04746828 -0.07440012
-0.044109702 -0.0788605 -0.008321328 0.012511571 0.000314191 -0.03521208 0.07373498 -0.049005307
0.09433877 -0.08760866 0.056626443 -0.08829886 0.09349604 -0.07516894 -0.058520816 0.04949049
-0.006956261 -0.022828141 -0.09233749 0.051896673 0.077590734 0.0522452 0.042921335 0.08221499
0.039664548 -0.0392387 0.0017713886 -0.015646862 0.01070171 -0.010206276 -0.060073514 0.039006803
0.017339794 0.026238848 0.07618201 0.08731382 -0.08363717 -0.08032284 0.02426599 0.08597319
0.062354516 -0.008200793 0.000118770855 0.08864456 0.028053762 0.09356118 -0.018664328 0.11163999
-0.049550712 -0.037805587 0.064574 -0.017121973 -0.025915068 0.10619319 0.008626777 0.021336487
0.07848697 0.0848029 0.09789919 -0.011323499 -0.013480998 -0.015442037 0.08358439 0.015914494
0.07882169 0.020329716 0.065546684 -0.019894572 -0.043954346 -0.0023579777 0.052323975 -0.042019665
-0.0066032535 0.020184299 -0.005648624 0.02544885 -0.021603689 0.08578127 -0.012541583 -0.067351885
00000000: 3501 55bd 69aa 8c3d 0391 283d af92 203d
00000010: 32e7 723d ae40 35bd 62d6 bebc 3709 8d3d
00000020: 42a7 683d bc2e 93bd fbc0 a8bb 5ba2 e3bc
00000030: 9c17 e6bd b70e 383d e314 a83d 9aa2 983d
00000040: 37d7 1cbd 9129 2abd d38b 70bd 5461 aabd
00000050: bcfe 89bd 17b5 a93d 0293 1b3d 22d5 153d
00000060: 490c ba3c ef4d c53c 0ce8 a8bc 8030 853d
00000070: 6c09 4cbd 296b 8a3c 295d 96bb c837 8e3d
00000080: f9b0 3f3d a546 053e fe3e 0ebb df08 b53c
00000090: d01d b33d 4880 013e 9642 4abd 887f 523c
000000a0: e239 2b3d dcad f93c 0af2 6abd 50ee 8c3d
000000b0: 194f 003e 1228 e63d 9c44 48bd fb65 06bd
000000c0: ae86 f83d 4bd6 413d bbfb 063c 5333 85bd
000000d0: 6f34 aebd 9749 423d 59b6 6abd 3105 b03d
000000e0: d17c 96bd a360 7fbc e307 4a3d f2b8 78bd
000000f0: 3403 f6bb c27b 64bc 136e e9bb e55e 33bd
00000100: 2e2a 12bd f979 0ebd 5eba 8a3d 0836 503d
00000110: a9c7 843d 4479 24bd 574f 1fbd b488 213c
00000120: 8e59 8b3d c9f7 a13c 69ac 803d 55da a83d
00000130: a7fb 163b bcf7 c4bd d389 8a3b d770 b23d
00000140: 8d82 b43d af3d 3cbd ce4d 843d 0ef3 3f3d
00000150: b07f 44bd c662 7ebd 70da 4d3d d109 adbc
00000160: 62a9 cc38 df30 29bd fae5 97bd 957b 183d
00000170: 51da c73c 798d 063d adc4 3f3d f3be 783d
00000180: ed41 b43d 4105 5d3d 22c8 7fbd 6e41 00be
00000190: 3766 b8bd ecda abbd c735 f8bb bf8c a73d
000001a0: 5860 f33b e78f 8d3c 56d2 d5bd 66b8 bbbd
000001b0: 2f7a 82bd bf95 5a3d e912 cabd bd0a 343b
000001c0: c4e2 bcbd bc6f 97bd 0908 623d 0d58 653d
000001d0: 7676 49bd efe5 643d d575 a0bc a3b0 333d
000001e0: 5829 8fbd 41da d9bd b4a9 3abd bd05 94bd
000001f0: 7e07 88bd ff62 40bd 2ef6 92bd 87b1 8a3d
00000200: 9910 793d 1199 6e3c 4fc6 b7bd d002 9cbc
00000210: 1e7a 23bd cb46 393c 74ae b43c 70f0 b0bd
00000220: 7d27 193d ff32 613d 7103 1e3d aa61 90bd
00000230: 5485 9c3d 94aa 9b3d 096f fb3c 76ab 89bd
00000240: 269c ff3c dd21 6f3c 6c5a 1d3a f638 763d
00000250: da1a afbd 16fb 913d d01d bebd 32aa 67bd
00000260: 5fc7 00bd 1bfc 4c3c acc4 92bd ab87 4bbd
00000270: 1c88 cc3d cc09 b33d 1d91 183d 2b61 b5bd
00000280: be9a bf3d bb8e b3bd f874 56bd b234 633d
00000290: fd34 81bd 9e9e 18bc 3c80 4ebd 15cc 58bd
000002a0: 6990 ce3a f3bf 563d 9d67 013d 3b5e 9ebd
000002b0: fcb8 82bd c68f 333d 196e 423d 175f 98bd
000002c0: 60ac 34bd 9d81 a1bd 2e56 08bc 55fd 4c3c
000002d0: 01ba a439 8b3a 10bd 5d02 973d cab9 48bd
000002e0: af34 c13d 2b6c b3bd 21f1 673d 08d6 b4bd
000002f0: da7a bf3d 2cf2 99bd 86b3 6fbd 8ab6 4a3d
00000300: 59f1 e3bb 1502 bbbc 701b bdbd 9b91 543d
00000310: e4e7 9e3d 10ff 553d 48ce 2f3d 5560 a83d
00000320: 4b77 223d c2b8 20bd f02d e83a d92d 80bc
00000330: 3a56 2f3c 3938 27bc a50f 76bd 99c5 1f3d
00000340: 2f0c 8e3c daf2 d63c 5005 9c3d 97d1 b23d
00000350: f749 abbd 4d80 a4bd 78c9 c63c b612 b03d
00000360: 7367 7f3d 9e5c 06bc 9e14 f938 478b b53d
00000370: 01d1 e53c 019d bf3d efe5 98bc 82a3 e43d
00000380: b0f5 4abd 08da 1abd 603f 843d 6143 8cbc
00000390: d64b d4bc d17b d93d 5357 0d3c dbc9 ae3c
000003a0: c7bd a03d 25ad ad3d 5f7f c83d 3286 39bc
000003b0: 67df 5cbc 9900 7dbc 4b2e ab3d 1d5f 823c
000003c0: 446d a13d 818a a63c 573d 863d f1f9 a2bc
000003d0: 7909 34bd 4d88 1abb aa51 563d d01c 2cbd
000003e0: 1b60 d8bb 8b59 a53c 1818 b9bb 1b7a d03c
000003f0: 38fa b0bc 17ae af3d 367b 4dbc c9ef 89bd

encoder.0.bias f4 [128]
-0.38071328 -0.13210778 -0.20181069 -0.22948848 -0.24868174 -0.26572394 -0.3385947 -0.25984544
0.09224092 -0.27093777 -0.2816873 -0.0805014 -0.22382067 -0.2630045 -0.5321895 -0.35338598
-0.22337666 -0.20946074 -0.08544397 -0.10374354 -0.29328668 -0.24018969 -0.2597614 -0.11561335
-0.12802029 -0.29874521 -0.3466831 -0.3674798 -0.41787204 -0.27034047 -0.2447521 -0.12539025
-0.38665503 -0.20484631 -0.2656269 -0.2953949 -0.24525239 -0.36509234 -0.30435076 -0.12144635
-0.32534406 -0.2028504 -0.24720515 -0.30174443 -0.4592803 -0.20193473 -0.31412688 -0.26380798
-0.15013404 -0.40867877 -0.27662095 -0.20844427 -0.33455783 -0.11842464 -0.3028897 -0.38257736
-0.1079748 -0.41310415 -0.32066044 0.09089167 -0.05557966 -0.37350807 0.067282245 -0.27359074
-0.0748003 -0.38235998 -0.3256512 -0.15883617 -0.14432372 -0.5875632 -0.19050594 -0.31517857
-0.20870736 -0.27791867 -0.3831523 -0.40782627 -0.07395098 -0.17713651 -0.23545875 0.116706505
-0.15717034 -0.23738554 -0.2783664 -0.14294724 -0.07014124 -0.40648672 -0.035689052 -0.05965731
-0.21515189 -0.3323382 -0.40737647 -0.3037396 0.30782753 -0.24727222 -0.31543657 -0.36021128
-0.14607681 -0.2735992 -0.1465647 -0.405223 -0.30141047 -0.29448038 -0.24966915 -0.17192975
-0.10922972 -0.19265889 -0.25198412 -0.19017065 -0.4201767 -0.078537226 -0.21501686 0.2531275
-0.2704307 -0.23665532 -0.193649 -0.21623129 -0.2862243 -0.15778139 -0.062243093 -0.22708455
-0.24443582 -0.36330715 -0.27075252 -0.14682491 -0.29390475 -0.20921458 -0.23100202 -0.44422537
00000000: daec c2be 4347 07be 76a7 4ebe 07ff 6abe
00000010: 6da6 7ebe f80c 88be 495c adbe 760a 85be
00000020: cfe8 bc3d 5bb8 8abe 5139 90be ebdd a4bd
00000030: 3f31 65be 87a8 86be 923d 08bf 02ef b4be
00000040: dabc 64be e07c 56be 40fd aebd 7e77 d4bd
00000050: ac29 96be 49f4 75be 72ff 84be b1c6 ecbd
00000060: c017 03be 22f5 98be 7380 b1be 5026 bcbe
00000070: 53f3 d5be 116a 8abe 4ba0 7abe 4d66 00be
00000080: a6f7 c5be 3bc3 51be 4000 88be 003e 97be
00000090: 7123 7bbe 62ed babe ddd3 9bbe ddb8 f8bd
000000a0: 7f93 a6be 04b8 4fbe 5923 7dbe 3f7e 9abe
000000b0: ca26 ebbe fac7 4ebe 3dd5 a0be d711 87be
000000c0: bdbc 19be 583e d1be 43a1 8dbe 6a72 55be
000000d0: 2a4b abbe 9e88 f2bd 5c14 9bbe 2ee1 c3be
000000e0: e421 ddbd 6382 d3be 9b2d a4be 6925 ba3d
000000f0: 7fa7 63bd 733c bfbe 46cb 893d 1614 8cbe
00000100: e630 99bd b0c4 c3be c1bb a6be f3a5 22be
00000110: 99c9 13be 8b6a 16bf fd13 43be 165f a1be
00000120: 62b7 55be 5b4b 8ebe 8a2c c4be 9bce d0be
00000130: 9d73 97bd 4663 35be 191c 71be d203 ef3d
00000140: 43f1 20be 3215 73be 0a86 8ebe c360 12be
00000150: 36a6 8fbd 071f d0be af2e 12bd 395b 74bd
00000160: c750 5cbe 3c28 aabe a693 d0be c283 9bbe
00000170: 929b 9d3e ee34 7dbe e780 a1be 9d6d b8be
00000180: 2995 15be 3215 8cbe 0f15 16be 6479 cfbe
00000190: 7952 9abe 22c6 96be 45a9 7fbe 5a0e 30be
000001a0: d5b3 dfbd 5f48 45be 1004 81be 18bc 42be
000001b0: 6721 d7be 20d8 a0bd 612d 5cbe ed99 813e
000001c0: e575 8abe c655 72be ec4b 46be bc6b 5dbe
000001d0: fe8b 92be 7291 21be 9df2 7ebd da88 68be
000001e0: 624d 7abe 6503 babe 13a0 8abe 4559 16be
000001f0: af7a 96be 593c 56be cb8b 6cbe 8271 e3be

encoder.3.weight f4 [64, 128]
-0.0019391936 -0.07614642 0.043763798 0.058229275 0.109315835 -0.0103540765 -0.040576268 0.01788868
-0.3212999 -0.005826812 -0.0851136 -0.02004485 -0.029626675 0.0076551465 -0.09018404 -0.12052574
-0.013208186 -0.040367663 0.0009909389 -0.16685565 0.10543114 -0.11344818 -0.02448155 -0.008564974
-0.010371964 0.039936736 0.04574645 -0.019020611 0.020709457 -0.18742001 0.055563673 0.042560536
0.02884402 0.009448768 -0.11817668 0.030049818 -0.032207917 -0.07809273 0.09480452 0.028960632
0.077966146 -0.018692588 -0.13946086 0.03199287 -0.06150222 0.07401788 0.06440099 -0.052729182
-0.033338293 0.098897964 -0.08257804 -0.111136824 0.037876762 -0.03997 0.037783325 0.11805394
-0.12008287 0.02703783 -0.05062792 0.04827384 -0.116031416 -0.033298176 0.022606026 0.004633288
0.025446167 0.0070010605 0.042269252 0.010108805 -0.03642409 0.13272502 -0.08641497 -0.07491398
0.0016182944 0.019078165 -0.006579915 -0.030486383 0.00949139 -0.016875826 -0.006561031 -0.106117025
-0.023593811 0.030464957 0.11124842 0.014113686 0.020361822 -0.0073439768 0.03188677 0.079041556
0.019673433 0.100628026 0.026977137 -0.10109187 -0.2988453 0.07228717 0.020281399 0.051080916
-0.13193952 0.03240693 -0.06720679 0.145299 -0.0013033248 0.06462347 -0.04952851 0.04505038
0.026347524 0.0067979065 -0.0088305855 -0.08696772 0.16437443 0.049627535 -0.07196849 -0.026686527
-0.043829422 -0.0033857976 -0.061957583 -0.020397602 -0.025215466 0.0051970095 -0.10379636 -0.011675616
0.025401846 -0.017447136 -0.0008584525 0.012257277 0.07697172 -0.033406455 0.060453363 0.02964823
0.1164274 -0.031923402 -0.0117212385 -0.054444175 -0.009167936 -0.05037115 -0.039959386 0.07546911
-0.13077542 0.07284666 -0.0275272 0.031020155 -0.03256118 -0.040374942 -0.08911648 -0.09965402
-0.040992294 0.02122143 0.03165716 -0.14061278 -0.010372479 -0.052544475 -0.03440491 0.048254237
-0.012184225 -0.053446326 0.09413902 -0.115908034 -0.08950999 0.09669332 -0.0021904737 0.032755084
-0.013158664 0.05680776 0.0075848554 0.085887596 0.044635963 -0.19104259 -0.043473877 -0.03544163
-0.00794202 0.054111216 -0.01090043 0.081734836 0.039718933 0.086847946 -0.0044922796 0.05164348
-0.07160646 0.07080084 0.060488723 0.05962463 -0.116525374 -0.04285776 0.08744253 -0.07094764
-0.02869801 0.06343925 0.07848615 -0.047055993 -0.09834208 -0.033677433 0.03806932 -0.08519468
0.03440194 0.078938976 -0.08026879 -0.031228691 0.040200185 0.02682896 -0.045506913 -0.18190666
0.041740816 -0.09345634 -0.0033579916 -0.09101778 -0.012290315 -0.11070224 0.01891754 0.016166234
-0.0021353238 0.029815122 0.07777974 -0.051798124 -0.03133149 -0.062709875 -0.028194264 0.064909585
-0.039821777 0.12008462 -0.025339786 -0.07301714 -0.050843563 -0.05099777 -0.016841749 0.01470481
0.013592309 0.0125987725 -0.06108924 0.05935329 0.081240945 -0.041189715 -0.04877618 -0.0008190262
0.10602791 0.03221323 0.037736 0.0146893775 0.1268452 0.012521949 -0.07162807 0.013903947
0.10583671 0.0057295305 0.057955854 -0.0024072789 -0.00038996284 0.024598721 -0.009932707 0.08196543
0.06440582 0.064311214 0.076035984 -0.03673713 0.013725997 -0.11916707 -0.02820844 -0.060112186
00000000: 8a2c feba a7f2 9bbd ab41 333d d281 6e3d
00000010: fbe0 df3d 25a4 29bc 4d33 26bd 488b 923c
00000020: 6c81 a4be d7ee bebb 0a50 aebd 1935 a4bc
00000030: a4b3 f2bc 06d8 fa3b 69b2 b8bd 33d6 f6bd
00000040: 2667 58bc 9058 25bd 64e2 813a 35dc 2abe
00000050: 48ec d73d 8557 e8bd 888d c8bc 1b54 0cbc
00000060: 2cef 29bc b494 233d a160 3b3d 1dd1 9bbc
00000070: e1a6 a93c 08eb 3fbe bc96 633d f553 2e3d
00000080: 4b4a ec3c 01cf 1a3c 9d06 f2bd 092b f63c
00000090: 73ec 03bd 15ef 9fbd df28 c23d d93e ed3c
000000a0: b7ac 9f3d 3321 99bc d4ce 0ebe f50a 033d
000000b0: c0e9 7bbd b096 973d abe4 833d 8efa 57bd
000000c0: bc8d 08bd 048b ca3d ad1e a9bd b49b e3bd
000000d0: aa24 1b3d 95b7 23bd b0c2 1a3d 44c6 f13d
000000e0: 02ee f5bd 707e dd3c 395f 4fbd caba 453d
000000f0: e1a1 edbd ab63 08bd 4630 b93c d6d2 973b
00000100: 7b74 d03c 2769 e53b 8622 2d3d 679f 253c
00000110: 6d31 15bd 11e9 073e 55fa b0bd 806c 99bd
00000120: f31c d43a d049 9c3c 549c d7bb 94be f9bc
00000130: c681 1b3c 2c3f 8abc ebfd d6bb e253 d9bd
00000140: cf47 c1bc a591 f93c 36d6 e33d 173d 673c
00000150: d6cd a63c bea5 f0bb b49b 023d 8ae0 a13d
00000160: 2e2a a13c 1116 ce3d 28ff dc3c 4109 cfbd
00000170: 4002 99be 4c0b 943d 2d25 a63c 393a 513d
00000180: 271b 07be 21bd 043d b7a3 89bd 43c9 143e
00000190: 53d4 aaba 4f59 843d 68de 4abd bf86 383d
000001a0: c3d6 d73c f9c0 de3b 29ae 10bc 221c b2bd
000001b0: c551 283e 3e46 4b3d 3764 93bd b49d dabc
000001c0: 7b86 33bd 42e4 5dbb 3cc7 7dbd df18 a7bc
000001d0: aa90 cebc ad4b aa3b 3093 d4bd 154b 3fbc
000001e0: 8817 d03c 4ced 8ebc c609 61ba bfd2 483c
000001f0: 59a3 9d3d 35d5 08bd f29d 773d d8e0 f23c
00000200: 7d71 ee3d 1dc2 02bd 700a 40bc db00 5fbd
00000210: 1c35 16bc fb51 4ebd 74ac 23bd 8c8f 9a3d
00000220: fee9 05be a130 953d b980 e1bc fb1d fe3c
00000230: df5e 05bd 3260 25bd b382 b6bd 6817 ccbd
00000240: 89e7 27bd 90d8 ad3c f0aa 013d ccfc 0fbe
00000250: 55f1 29bc e038 57bd 2aec 0cbd 3ca6 453d
00000260: 58a0 47bc 89ea 5abd f5cb c03d 3161 edbd
00000270: 0351 b7bd 2607 c63d 0d8e 0fbb 322a 063d
00000280: 7097 57bc 41af 683d 618a f83b d6e5 af3d
00000290: 33d4 363d aba0 43be aa11 32bd 3e2b 11bd
000002a0: 3f1f 02bc b9a3 5d3d b897 32bc 9864 a73d
000002b0: 52b0 223d 56dd b13d f933 93bb 1d88 533d
000002c0: 68a6 92bd 0800 913d 06c3 773d f538 743d
000002d0: dba4 eebd 9e8b 2fbd 1215 b33d ff4c 91bd
000002e0: 1718 ebbc 70ec 813d 59bd a03d c9bd 40bd
000002f0: 9367 c9bd 59f1 09bd 93ee 1b3d 8c7a aebd
00000300: 0ce9 0c3d c2aa a13d f763 a4bd 50d3 ffbc
00000310: f3a8 243d 68c8 db3c 7565 3abd bd45 3abe
00000320: 6bf8 2a3d 0a66 bfbd c011 5cbb 8867 babd
00000330: 515d 49bc dbb7 e2bd f5f8 9a3c 0d6f 843c
00000340: caf0 0bbb d83e f43c fc4a 9f3d 452a 54bd
00000350: 7355 00bd 096e 80bd a8f7 e6bc 51ef 843d
00000360: 291c 23bd edee f53d 6295 cfbc 038a 95bd
00000370: 5741 50bd 0ae3 50bd b5f7 89bc 72ec 703c
00000380: 47b2 5e3c 156b 4e3c b638 7abd 6f1c 733d
00000390: a761 a63d 8cb6 28bd 88c9 47bd ebb3 56ba
000003a0: 2925 d93d 05f2 033d 1091 1a3d b7ab 703c
000003b0: b5e3 013e dc28 4d3c bdb1 92bd 61cd 633c
000003c0: ebc0 d83d c9be bb3b 1e63 6d3d 70c3 1dbb
000003d0: ed73 ccb9 4283 c93c cbbc 22bc 7edd a73d
000003e0: 33e7 833d 99b5 833d c1b8 9b3d ac79 16bd
000003f0: 01e3 603c dd0d f4bd 6315 e7bc 3238 76bd

encoder.3.bias f4 [64]
-0.16160014 0.019464599 -0.24323176 0.03432318 -0.12257199 -0.17938273 -0.24251589 -0.09589675
-0.06948533 -0.118478216 0.10025299 -0.31523356 -0.33047736 0.0048666634 -0.25069106 0.029199945
-0.077304885 -0.07002247 -0.3539017 0.01886622 -0.3702864 0.030054973 -0.15011895 -0.054621674
-0.062966235 -0.13700996 -0.16467966 -0.018612156 -0.24904414 -0.098750025 -0.15942413 -0.13285768
-0.09042561 -0.047747515 -0.26595375 -0.1717718 -0.292893 -0.113380924 -0.2561493 -0.078611225
-0.18912113 -0.2572112 -0.1349758 -0.035987537 -0.1679624 0.060194697 -0.13151792 -0.3015598
-0.16305715 -0.058006555 -0.06197497 0.0013631069 -0.056130685 -0.022708664 -0.062877715 -0.21383022
-0.055491854 -0.10689242 -0.21507597 -0.014588853 -0.3350132 -0.13363963 -0.068776056 -0.075994894
00000000: 827a 25be 3974 9f3c bf11 79be 7696 0c3d
00000010: 0607 fbbd 1bb0 37be 1656 78be 8465 c4bd
00000020: 534e 8ebd b5a4 f2bd 7151 cd3d 4b66 a1be
00000030: 5434 a9be 8878 9f3b 945a 80be b934 ef3c
00000040: 0652 9ebd f167 8fbd 9b32 b5be 558d 9a3c
00000050: 2e96 bdbe d935 f63c c8b8 19be faba 5fbd
00000060: 71f4 80bd 574c 0cbe c9a1 28be 8578 98bc
00000070: 6d05 7fbe 743d cabd 1440 23be d80b 08be
00000080: 1031 b9bd e692 43bd 172b 88be f2e4 2fbe
00000090: 12f6 95be 4234 e8bd 0026 83be ecfe a0bd
000000a0: f8a8 41be 30b1 83be 1937 0abe ab67 13bd
000000b0: 56fe 2bbe b78e 763d a2ac 06be 0c66 9abe
000000c0: 74f8 26be 4898 6dbd 77d9 7dbd 47aa b23a
000000d0: 4ae9 65bd 8507 babc 08c6 80bd 4ff6 5abe
000000e0: 6d4b 63bd 6aea dabd e03c 5cbe 1606 6fbc
000000f0: da86 abbe d4d8 08be 76da 8cbd 36a3 9bbd

encoder.6.weight f4 [32, 64]
0.017361615 0.046338417 -0.18391493 0.037874572 0.002366388 0.13496971 0.12230556 0.06329111
-0.02341794 -0.058441374 0.047539197 0.1914164 -0.012817031 0.08311273 0.17099969 -0.09627098
0.14606392 -0.0031943351 0.09018587 0.08299966 0.052217394 -0.08144097 0.07983609 -0.14954147
-0.03402572 0.096794985 0.028094228 0.039375003 -0.0007411188 0.08580166 0.06365405 -0.16372274
-0.0053794095 -0.05046413 0.016873244 0.01193328 -0.0514885 -0.0037859657 0.1035874 0.046244156
-0.21543618 0.12217546 -0.14744313 -0.059580196 0.0014696058 0.13116907 0.10055192 0.14433524
0.09583136 -0.14233053 -0.027089126 0.14697395 -0.14221083 0.13211913 0.010104608 -0.032550823
0.0049020867 0.011482514 -0.1000855 0.14206073 0.08388336 0.0053694337 0.049640805 -0.14005424
-0.093977794 -0.15986346 -0.06210327 0.10137384 0.0700042 0.10112542 0.10643465 -0.15975116
-0.07448892 -0.096668445 0.00074574735 -0.07547266 -0.2111675 0.04088491 -0.023253975 -0.15932055
-0.0053766104 -0.10928348 0.0446879 -0.012381872 -0.11295139 -0.03499075 -0.003942146 0.0011273086
-0.08511461 -0.02890039 -0.08714849 0.026918607 0.043362096 0.02182497 0.022770494 -0.0588835
0.00081717747 0.08686718 0.029152976 0.098843254 0.036524057 0.08886295 0.032994647 -0.17379121
-0.093701385 0.032180216 -0.14393686 0.038816918 -0.131323 -0.00048375316 0.031063447 0.007214274
0.019285474 -0.015031082 0.11911692 0.0895791 -0.16759421 0.07946434 -0.0772535 0.024891037
-0.16160141 0.009316343 -0.025396533 -0.010395335 -0.010854556 0.0034383622 -0.16326277 -0.041647755
0.18310413 -0.026075741 0.15600817 -0.07681443 -0.0807266 -0.04926992 0.031255603 0.14770603
0.13026865 0.13555667 -0.06320327 -0.07471261 -0.034482982 -0.09841947 0.055835485 -0.04541759
0.055943217 -0.025830798 0.089151464 0.07426497 0.16592571 -0.04443729 0.078622006 -0.019204063
0.018534904 -0.024584256 -0.038473982 0.03871808 0.12199938 -0.0078069377 -0.052032232 -0.05996157
-0.08756313 0.05357133 0.022142164 0.09869371 0.07550058 0.018782917 0.123503216 0.00025024256
0.018907111 0.02216816 -0.0872354 0.039088093 -0.08502689 -0.05932347 -0.14454052 0.07548423
-0.009601357 0.017565684 -0.05242275 -0.035974655 -0.011314318 0.09008586 -0.061042055 0.12931338
-0.028251624 -0.03564845 0.032555353 0.06018235 -0.09470122 0.10662189 0.09614497 0.008611303
-0.09835566 -0.001561838 -0.037328564 0.102338225 -0.012217158 -0.03280208 0.0040170937 0.035124235
0.02408657 -0.073588304 0.08219942 -0.1082093 0.040917262 0.048391882 -0.012205303 0.08567275
0.13068323 0.033365432 -0.009352348 -0.0012239133 -0.1847433 -0.012631384 -0.12319168 0.15964632
0.08649385 -0.026383495 -0.05128466 0.021859203 -0.20140295 -0.033591118 0.010896611 0.052264385
0.04877664 0.061706644 -0.2185892 -0.03242838 0.05014422 -0.20948927 -0.020616762 0.018118398
0.07122972 -0.09008425 -0.02472258 -0.16757308 -0.0017117521 0.026765196 -0.022169927 0.09150575
-0.12991664 0.17707746 -0.09651996 0.00046748776 0.17453091 -0.10223404 -0.019650314 -0.055464346
0.09523674 0.14974761 0.032159977 -0.0033386692 -0.08876732 0.058934294 -0.06430652 0.09331401
00000000: f239 8e3c 5acd 3d3d 3254 3cbe 5e22 1b3d
00000010: 6715 1b3b 8035 0a3e 567b fa3d c59e 813d
00000020: fbd6 bfbc 3960 6fbd 76b8 423d a902 443e
00000030: 86fe 51bc 0237 aa3d 8b1a 2f3e b829 c5bd
00000040: c891 153e 0d58 51bb 5fb3 b83d bafb a93d
00000050: e8e1 553d 86ca a6bd 1b81 a33d 6621 19be
00000060: 8e5e 0bbd 733c c63d de25 e63c af47 213d
00000070: a447 42ba c8b8 af3d 0e5d 823d efa6 27be
00000080: c245 b0bb 7ab3 4ebd c239 8a3c ce83 433c
00000090: 9be5 52bd f71d 78bb a125 d43d 836a 3d3d
000000a0: 4d9b 5cbe 2137 fa3d 55fb 16be 5d0a 74bd
000000b0: ca9f c03a 2f51 063e 2aee cd3d 9ecc 133e
000000c0: 3b43 c43d 18bf 11be 04ea ddbc 5780 163e
000000d0: b79f 11be 3d4a 073e cc8d 253c 0354 05bd
000000e0: afa1 a03b 2821 3c3c a0f9 ccbd 5e78 113e
000000f0: 0acb ab3d 13f2 af3b 2854 4b3d 616a 0fbe
00000100: 6e77 c0bd 3fb3 23be 0060 7ebd 169d cf3d
00000110: 5d5e 8f3d d81a cf3d 69fa d93d cf95 23be
00000120: a68d 98bd 1bfa c5bd 427e 433a 6991 9abd
00000130: 4b3c 58be ef76 273d 1f7f bebc ed24 23be
00000140: 472e b0bb 04d0 dfbd a90a 373d 56dd 4abc
00000150: 0f53 e7bd 7652 0fbd 1e2d 81bb 33c2 933a
00000160: 9250 aebd 83c0 ecbc e87a b2bd 6984 dc3c
00000170: 749c 313d 48ca b23c 3089 ba3c d32f 71bd
00000180: da37 563a 6ce7 b13d 39d2 ee3c 556e ca3d
00000190: 409a 153d c7fd b53d 6525 073d 53f6 31be
000001a0: 83e6 bfbd 67cf 033d 2f64 13be 7dfe 1e3d
000001b0: 8979 06be 40a0 fdb9 c578 fe3c b765 ec3b
000001c0: 92fc 9d3c ed44 76bc 92f3 f33d 3f75 b73d
000001d0: d19d 2bbe 33be a23d 1537 9ebd 4ae8 cb3c
000001e0: d77a 25be 93a3 183c 640c d0bc 3251 2abc
000001f0: 4fd7 31bc 2556 613b 5b2e 27be d696 2abd
00000200: a67f 3b3e cb9c d5bc 9bc0 1f3e e250 9dbd
00000210: fd53 a5bd 41cf 49bd e005 003d 4040 173e
00000220: 2565 053e 5ecf 0a3e b770 81bd ed02 99bd
00000230: 073e 0dbd 2690 c9bd c0b3 643d cb07 3abd
00000240: b724 653d 1c9b d3bc 0b95 b63d 3c18 983d
00000250: 6ee8 293e e003 36bd 9304 a13d d751 9dbc
00000260: 83d6 973c ec64 c9bc e596 1dbd d996 1e3d
00000270: d0da f93d 57d1 ffbb c01f 55bd 439a 75bd
00000280: 4c54 b3bd 9c6d 5b3d 7c63 b53c ee1f ca3d
00000290: 0ca0 9a3d a2de 993c 41ef fc3d fd32 8339
000002a0: 16e3 9a3c 009a b53c 79a8 b2bd d61a 203d
000002b0: 9422 aebd 2bfd 72bd 6e02 14be 7a97 9a3d
000002c0: 034f 1dbc e9e5 8f3c 3db9 56bd 295a 13bd
000002d0: b05f 39bc ef7e b83d 3c07 7abd ba6a 043e
000002e0: f36f e7bc 1c04 12bd c358 053d c581 763d
000002f0: b7f2 c1bd 945c da3d a7e7 c43d 6c16 0d3c
00000300: b16e c9bd 96b6 ccba d6e5 18bd b496 d13d
00000310: 7a2a 48bc 795b 06bd d3a1 833b 6ede 0f3d
00000320: 3351 c53c 77b5 96bd 2b58 a83d d69c ddbd
00000330: dc98 273d 9136 463d c0f8 47bc 3275 af3d
00000340: d3d1 053e 31aa 083d 973a 19bc b76b a0ba
00000350: 592d 3dbe ddf3 4ebc eb4b fcbd 537a 233e
00000360: b023 b13d 3322 d8bc dd0f 52bd 1212 b33c
00000370: 933c 4ebe d796 09bd b387 323c 2e13 563d
00000380: 04ca 473d 1bc0 7c3d d9d5 5fbe 9fd3 04bd
00000390: 0764 4d3d 5b84 56be 7ce4 a8bc 096d 943c
000003a0: e3e0 913d 177e b8bd 0287 cabc 4798 2bbe
000003b0: df5c e0ba af42 db3c b59d b5bc 5e67 bb3d
000003c0: de08 05be cb53 353e 42ac c5bd 2519 f539
000003d0: 3bb8 323e 1560 d1bd b2f9 a0bc 952e 63bd
000003e0: 7b0b c33d 7057 193e 2eba 033d 93cd 5abb
000003f0: a4cb b5bd 1665 713d 23b3 83bd 6a1b bf3d

encoder.6.bias f4 [32]
0.009490317 0.045076054 -0.10163956 0.06610497 0.12336865 0.06051438 0.06217687 -0.21849908
0.100210726 0.024354419 0.0031377554 -0.10419636 -0.025410207 0.07614612 0.07982923 -0.04090144
-0.024756232 -0.006328415 0.062415913 -0.03347129 0.043780863 0.0907527 -0.15166117 -0.042943366
0.028313013 0.01908458 0.049517978 -0.1625042 0.07671818 0.08520792 0.05558808 0.09097306
00000000: 467d 1b3c aba1 383d 6728 d0bd 0b62 873d
00000010: b4a8 fc3d eddd 773d 2cad 7e3d 39be 5fbe
00000020: 483b cd3d eb82 c73c cda2 4d3b e764 d5bd
00000030: 1129 d0bc 7ff2 9b3d 827d a33d 4588 27bd
00000040: 95cd cabc 985e cfbb d4a7 7f3d 3119 09bd
00000050: 9053 333d 8ddc b93d 114d 1bbe 62e5 2fbd
00000060: b1f0 e73c 4457 9c3c 5dd3 4a3d 8067 26be
00000070: 6c1e 9d3d 7d81 ae3d 54b0 633d 1550 ba3d

encoder.9.weight f4 [12, 32]
-0.19151951 -0.025208903 0.019736465 0.121006936 -0.043251023 -0.00020496313 0.03673611 0.16812766
-0.049218565 -0.113614656 0.07857906 -0.08077885 0.10172629 0.00934709 0.115505524 0.19711033
0.14814512 0.10943 -0.037094366 -0.11692564 -0.033414904 -0.01354804 0.05823495 0.11095365
-0.07520032 -0.051917013 0.14102687 0.093156815 -0.026174502 -0.068566084 -0.04022102 -0.12719572
0.040204633 -0.011085106 0.14339693 -0.12668258 -0.23375528 0.06613599 -0.027522799 0.1957977
-0.016222633 0.12589851 0.099650435 0.098723486 -0.09944269 0.0040982035 -0.22041844 0.017929036
0.16522671 0.17278674 0.03346002 -0.15499793 -0.116037734 -0.03444305 0.1472833 -0.06948495
0.05301264 0.12543589 -0.123330444 0.13063495 0.07816718 -0.07549151 -0.009720889 -0.055350956
-0.1227444 -0.21379137 0.12218202 0.035133827 -0.06881863 -0.042386204 0.09147831 -0.11869315
0.09933355 0.16092572 -0.20078562 0.15350796 0.0014306564 -0.03637451 -0.20629534 -0.02131896
-0.099334925 0.05436587 0.037989486 0.14528881 -0.07151205 0.10466286 0.027022071 0.1396856
0.07301457 0.06615465 0.08339206 0.011470604 0.02464189 -0.17788221 0.020999486 -0.20820647
-0.0032087502 -0.11724793 0.10981525 -0.1188328 -0.084467255 0.16978496 -0.071946844 -0.12240848
0.020738436 0.038973123 0.084880576 -0.018516114 -0.070158385 -0.024803115 0.10869934 -0.14604163
0.021546172 0.1905342 0.0009208913 -0.03684874 0.19303001 -0.05228182 -0.13187936 -0.13656303
0.13692085 -0.08485963 -0.07625501 -0.03247288 0.081646785 -0.12531054 0.11721004 -0.07927955
0.057464316 0.07636733 -0.048763152 0.20393097 0.0028262862 0.10507451 0.15006836 0.070688754
0.10891331 -0.09070926 0.065243304 -0.095774874 0.0066882754 0.19406195 0.08808642 -0.13042386
-0.063929506 -0.006268677 0.0454489 0.1338333 0.13840923 0.13795552 0.1064986 -0.17921992
0.122481495 -0.21639135 0.1817625 -0.07289761 -0.043841198 0.044644803 0.007340605 0.12248563
-0.14006335 0.07885866 -0.14682858 -0.16148631 0.04328338 -0.14068174 -0.0076633785 -0.14678326
-0.13770956 -0.08327881 -0.042035192 0.07036085 0.100468464 0.012011964 0.14292967 -0.045046154
0.040031604 -0.029338082 -0.09269961 0.011816845 0.0756123 -0.088444844 0.05728503 -0.015612059
-0.11469925 0.15365377 -0.096226856 -0.1729299 -0.13083875 -0.05886901 -0.11050459 0.06985543
-0.1609005 0.022452801 0.14816682 -0.07925403 0.09916988 -0.008397049 -0.10676824 0.0760229
0.036649503 0.13269076 0.1637261 -0.1252883 -0.14665039 -0.20441848 -0.11925843 0.10474281
-0.14381315 -0.1479714 -0.17051668 0.16115753 0.016801089 -0.084714286 0.1747183 0.039904557
-0.042926423 -0.00570452 -0.068134956 0.05230223 -0.03292023 0.10712143 0.0489828 -0.0008463304
0.1307409 0.09427008 -0.2031539 0.014062993 -0.007213867 -0.140902 0.14726175 -0.14820859
-0.0016538502 0.21418078 -0.003768594 0.18102646 -0.0852115 -0.1036109 0.049089037 -0.13529623
0.17422532 0.05055499 0.08877773 -0.02692804 -0.045946926 -0.13184522 0.19663787 -0.14854153
0.11816313 -0.044205572 -0.09480415 -0.12593207 0.06727703 0.03799904 -0.024811758 -0.13052432
00000000: b11d 44be e782 cebc 5eae a13c 7cd2 f73d
00000010: fc27 31bd 5feb 56b9 9a78 163d a829 2c3e
00000020: 6899 49bd cdae e8bd 0fee a03d 626f a5bd
00000030: e055 d03d 8924 193c 298e ec3d 4ad7 493e
00000040: 5bb3 173e d61c e03d 43f0 17bd b676 efbd
00000050: 11de 08bd 99f8 5dbc c587 6e3d ab3b e33d
00000060: a002 9abd efa6 54bd 5969 103e 00c9 be3d
00000070: e96b d6bc 606c 8cbd ccbe 24bd 983f 02be
00000080: 9dad 243d 4e9e 35bc a5d6 123e 14b9 01be
00000090: 8b5d 6fbe 4e72 873d 7e77 e1bc 317f 483e
000000a0: 54e5 84bc 8aeb 003e 8715 cc3d 8a2f ca3d
000000b0: 9ca8 cbbd 394a 863b 5fb5 61be eadf 923c
000000c0: 3131 293e 02ef 303e 600d 093d c7b7 1ebe
000000d0: 31a5 edbd 2814 0dbd 6fd1 163e 204e 8ebd
000000e0: c823 593d 4472 003e ac94 fcbd 2bc5 053e
000000f0: 1d16 a03d 4b9b 9abd 5d44 1fbc afb7 62bd
00000100: 6a61 fbbd 20ec 5abe 913a fa3d 7de8 0f3d
00000110: c8f0 8cbd 289d 2dbd fb58 bb3d 6515 f3bd
00000120: 636f cb3d b6c9 243e bf9a 4dbe 3131 1d3e
00000130: dd84 bb3a 70fd 14bd 163f 53be 19a5 aebc
00000140: 1c70 cbbd bfae 5e3d dd9a 1b3d 97c6 143e
00000150: e974 92bd 7b59 d63d 645d dd3c be09 0f3e
00000160: aa88 953d 177c 873d 75c9 aa3d 33ef 3b3c
00000170: cadd c93c c126 36be 1d07 ac3c 1434 55be
00000180: e549 52bb af1f f0bd d1e6 e03d 9c5e f3bd
00000190: 2bfd acbd 1cdc 2d3e de58 93bd 4cb1 fabd
000001a0: a7e3 a93c 48a2 1f3d ded5 ad3d 1baf 97bc
000001b0: 33af 8fbd e72f cbbc c29d de3d f08b 15be
000001c0: 9981 b03c 661b 433e f867 713a b4ee 16bd
000001d0: a9a9 453e 7625 56bd 620b 07be 2ed7 0bbe
000001e0: fb34 0c3e e3ca adbd 962b 9cbd 4802 05bd
000001f0: 6e36 a73d 6851 00be d10b f03d 515d a2bd
00000200: b45f 6b3d 7a66 9c3d dfbb 47bd 48d3 503e
00000210: 3739 393b 4e31 d73d 85ab 193e 44c5 903d
00000220: f10d df3d c7c5 b9bd 489e 853d 9e25 c4bd
00000230: 5229 db3b 2db8 463e a766 b43d d58d 05be
00000240: 79ed 82bd 7969 cdbb a028 3a3d 990b 093e
00000250: 26bb 0d3e 3644 0d3e f01b da3d 6d85 37be
00000260: 94d7 fa3d b295 5dbe f31f 3a3e 584b 95bd
00000270: d492 33bd 78dd 363d 7589 f03b bfd9 fa3d
00000280: c46c 0fbe a680 a13d 3b5a 16be ab5c 25be
00000290: ea49 313d e00e 10be 141d fbbb 5a4e 16be
000002a0: bc03 0dbe 158e aabd 182d 2cbd 5919 903d
000002b0: 69c2 cd3d d4cd 443c 285c 123e 5182 38bd
000002c0: 2ef8 233d 6b56 f0bc 4bd9 bdbd 719b 413c
000002d0: 9fda 9a3d 9222 b5bd b5a3 6a3d b9c9 7fbc
000002e0: 71e7 eabd 6a57 1d3e 9612 c5bd 8914 31be
000002f0: 98fa 05be a220 71bd 3b50 e2bd 5d10 8f3d
00000300: 1ac3 24be f0ee b73c 0bb9 173e f04f a2bd
00000310: 9419 cb3d c793 09bc 4fa9 dabd e5b1 9b3d
00000320: ca1d 163d 16e0 073e d1a7 273e 934b 00be
00000330: 852b 16be 1453 51be c43d f4bd 6683 d63d
00000340: c143 13be d185 17be ed9b 2ebe 7b06 253e
00000350: 70a2 893c af7e adbd 5be9 323e f672 233d
00000360: 9ed3 2fbd fbec babb 578a 8bbd dd3a 563d
00000370: 5dd7 06bd 7b62 db3d 30a2 483d 46dc 5dba
00000380: f1e0 053e ac10 c13d 9307 50be 7868 663c
00000390: 4d62 ecbb 9d48 10be c9cb 163e fec3 17be
000003a0: 01c6 d8ba 3552 5b3e 84fa 76bb 005f 393e
000003b0: 5e83 aebd f431 d4bd 9611 493d 188b 0abe
000003c0: 1f68 323e c012 4f3d 19d1 b53d 3198 dcbc
000003d0: d832 3cbd 6f02 07be 705b 493e 451b 18be
000003e0: 83ff f13d e710 35bd ae28 c2bd 56f4 00be
000003f0: 8ac8 893d e2a4 1b3d 0742 cbbc 2ba8 05be

encoder.9.bias f4 [12]
-0.051952355 0.08585819 -0.067609146 -0.25928107 -0.11398595 -0.21143675 0.065243304 -0.17066628
-0.2352237 0.1552433 0.018169215 0.10578885
00000000: fecb 54bd 6bd6 af3d aa76 8abd 7dc0 84be
00000010: 7771 e9bd e082 58be 489e 853d 24c3 2ebe
00000020: 7bde 70be 1af8 1e3e 9bd7 943c d3a7 d83d

decoder.0.weight f4 [32, 12]
-0.28761435 -0.01025886 0.1997631 -0.06614022 0.042044908 0.17743547 0.11858234 0.0291507
0.24593438 0.092497975 0.19297868 -0.022247067 -0.07944143 0.02209409 0.20172964 0.025710497
-0.14520152 -0.27419773 -0.17706594 -0.2783324 0.008260573 -0.22232881 0.27317002 -0.050691232
-0.13445163 0.08497381 -0.2487574 0.011840402 -0.31275955 0.1999567 0.32265288 -0.13943087
-0.011519067 0.28049272 0.10788759 0.4106772 -0.015838984 -0.060112517 0.15332337 -0.1385155
0.16119654 0.23384954 0.23268838 0.14975244 0.16465199 -0.10389506 -0.14461106 0.028186271
-0.18525192 -0.32360008 -0.19031554 -0.0767644 -0.058888853 -0.15789154 -0.14523315 -0.23102218
0.1731694 0.13244788 0.063252844 -0.16217597 -0.4050202 0.10049028 0.1998439 -0.0015513501
-0.14821933 -0.24882556 -0.17993613 -0.25184408 -0.03819877 -0.03289903 -0.18937692 -0.09507697
0.03331143 0.18205474 0.28638935 -0.10832288 -0.04427225 -0.20444229 -0.16382992 0.0305427
-0.22833404 -0.110511295 0.024971854 -0.20915048 0.022978423 0.12736084 -0.28976494 -0.09433916
0.03838187 -0.18876304 -0.37825495 -0.22830337 -0.24868105 -0.19227275 -0.15983616 0.26086867
0.1532046 -0.3571502 -0.26067045 -0.09093312 0.082564116 -0.17586353 -0.053619314 0.005131585
-0.031393386 -0.061487228 -0.1725224 0.26021937 0.18820901 0.042924933 -0.0042781145 0.21106046
0.1980127 0.15769522 -0.119150564 0.08063764 -0.25677958 -0.3007461 -0.095426075 0.029954828
0.2892967 0.179376 0.06324845 -0.31351063 -0.12284346 -0.029990941 0.08829221 -0.2582583
-0.114622846 0.06897663 -0.15401107 -0.017098412 -0.023976248 0.24728888 -0.14751711 0.04957528
0.16278103 -0.13806346 -0.03145325 0.21276492 -0.22044462 0.008241106 -0.014664045 0.13821699
0.19620895 0.062027562 -0.26363042 -0.03184708 -0.03139318 -0.09410597 0.20254007 -0.29270566
0.20156588 0.30713746 -0.19710363 -0.055947553 0.2282186 -0.026228638 -0.0060999906 0.123746306
-0.17234553 0.32713094 0.27594993 -0.29413763 0.0125446655 0.33766863 0.19132708 0.06770738
0.14080252 0.015598948 -0.17733069 -0.08056059 -0.27914295 -0.19535914 -0.12809773 0.18088232
0.09171695 -0.1254073 0.31461683 -0.2557127 0.26345682 -0.100376904 0.012025913 -0.28751236
0.020971835 0.008046264 -0.06350582 -0.009700844 0.09353268 -0.1433232 -0.005292326 0.28260836
0.24102283 0.16020627 0.19236253 -0.14735536 -0.13235031 -0.2806226 -0.1401254 -0.23873858
0.18291649 -0.13871628 0.18300831 -0.24083017 0.15967682 -0.038542356 0.22160946 0.2577183
-0.17270254 -0.06323415 -0.20116003 0.030848054 -0.22630565 0.12623689 0.07310897 0.21916413
-0.09385656 0.19086108 -0.15805319 -0.09072737 -0.29203296 0.03463744 -0.20064475 -0.026748408
0.13438848 0.20531468 -0.25446436 0.29836774 -0.23240936 -0.18802235 0.1588025 0.12440308
-0.21017182 -0.22588573 -0.12912242 0.12326528 0.21064615 -0.0025640943 0.14906709 -0.24494915
0.1373138 -0.19847508 0.06662136 0.14818345 0.2555314 -0.24434614 0.2872754 -0.09078705
-0.18735993 0.11302482 0.21454868 0.25213224 -0.017017214 0.014692856 0.16525736 -0.27350286
00000000: 3042 93be c714 28bc b38e 4c3e 8674 87bd
00000010: 4837 2c3d a5b1 353e 4cdb f23d 73cd ee3c
00000020: 39d6 7b3e 946f bd3d 349c 453e 7b3f b6bc
00000030: 30b2 a2bd aafe b43c 3792 4e3e d29e d23c
00000040: b5af 14be a563 8cbe c650 35be 9681 8ebe
00000050: 5b57 073c 2aaa 63be f1dc 8b3e 9ca1 4fbd
00000060: b0ad 09be c006 ae3d 43ba 7ebe 3ffe 413c
00000070: 0522 a0be 73c1 4c3e c232 a53e f7c6 0ebe
00000080: 78ba 3cbc be9c 8f3e 2bf4 dc3d 4844 d23e
00000090: c2c0 81bc 8b38 76bd cd00 1d3e 02d7 0dbe
000000a0: b510 253e 4176 6f3e dd45 6e3e b458 193e
000000b0: 889a 283e efc6 d4bd ec14 14be e5e6 e63c
000000c0: aeb2 3dbe e9ae a5be 14e2 42be a736 9dbd
000000d0: 7035 71bd 52ae 21be 00b8 14be 1491 6cbe
000000e0: 5253 313e 6ba0 073e b58a 813d 7511 26be
000000f0: cf5e cfbe d9cd cd3d e1a3 4c3e ac56 cbba
00000100: cfc6 17be 21cc 7ebe 2d41 38be b5f1 80be
00000110: 5076 1cbd 22c1 06bd 06ec 41be b7b7 c2bd
00000120: 9171 083d 8f6c 3a3e a0a1 923e 63d8 ddbd
00000130: d256 35bd 5259 51be 08c3 27be af34 fa3c
00000140: 66d0 69be bf53 e2bd c691 cc3c 8b2b 56be
00000150: 3f3d bc3c e16a 023e 125c 94be e434 c1bd
00000160: 4f36 1d3d 194b 41be a2aa c1be 5cc8 69be
00000170: 3fa6 7ebe 26e3 44be 17ac 23be 9490 853e
00000180: abe1 1c3e 64dc b6be 9976 85be 253b babd
00000190: 6017 a93d 9215 34be ed9f 5bbd db26 a83b
000001a0: 5a96 00bd 08da 7bbd b6a9 30be 793b 853e
000001b0: ddb9 403e 0ed2 2f3d 6d2f 8cbb 3c20 583e
000001c0: d7c3 4a3e db7a 213e 3605 f4bd 5925 a53d
000001d0: 9d78 83be 65fb 99be bf6e c3bd d463 f53c
000001e0: b21e 943e 58ae 373e 6788 813d 7784 a0be
000001f0: 5a95 fbbd 90af f5bc 8cd2 b43d 6f3a 84be
00000200: 62bf eabd 9f43 8d3d 14b5 1dbe f811 8cbc
00000210: d669 c4bc 4c39 7d3e ba0e 17be 730f 4b3d
00000220: 12b0 263e 8260 0dbe 20d5 00bd 0cdf 593e
00000230: 3cbc 61be b405 073c 7641 70bc c188 0d3e
00000240: 00eb 483e 9d10 7e3d 91fa 86be 1572 02bd
00000250: 2396 00bd a1ba c0bd aa66 4f3e 84dd 95be
00000260: 4967 4e3e 1f41 9d3e 89d5 49be 4329 65bd
00000270: 23b2 693e 71dd d6bc 6ee2 c7bb b46e fd3d
00000280: 597b 30be b57d a73e 4f49 8d3e 3599 96be
00000290: 2488 4d3c e7e2 ac3e 3feb 433e 2baa 8a3d
000002a0: 892e 103e bb92 7f3c 2d96 35be f3fc a4bd
000002b0: d3eb 8ebe 3a0c 48be 0d2c 03be 3739 393e
000002c0: 19d6 bb3d c56a 00be 7515 a13e c6ec 82be
000002d0: d0e3 863e 6892 cdbd 5608 453c d234 93be
000002e0: 20cd ab3c 7ad4 033c 570f 82bd 4af0 1ebc
000002f0: 108e bf3d 51c3 12be 406b adbb 0bb2 903e
00000300: b0ce 763e 1d0d 243e affa 443e 53e4 16be
00000310: d786 07be c4ad 8fbe 087d 0fbe e377 74be
00000320: 764e 3b3e a40b 0ebe 8866 3b3e 2f9c 76be
00000330: 5282 233e 97de 1dbd 97ed 623e a7f3 833e
00000340: efd8 30be e880 81bd e5fc 4dbe 0fb5 fc3c
00000350: abbc 67be 3e44 013e 28ba 953d 906c 603e
00000360: de37 c0bd 1671 433e b2d8 21be 45cf b9bd
00000370: 5885 95be fddf 0d3d d175 4dbe 7a1f dbbc
00000380: 229d 093e 033e 523e 2749 82be a8c3 983e
00000390: b8fc 6dbe ee88 40be 1f9d 223e 0bc7 fe3d
000003a0: 4837 57be 974e 67be ab38 04be 8272 fc3d
000003b0: a0b3 573e 5d0a 28bb 0ba5 183e f3d3 7abe
000003c0: fd9b 0c3e 0d3d 4bbe c870 883d 67bd 173e
000003d0: 03d5 823e e035 7abe c315 933e 90ee b9bd
000003e0: 48db 3fbe 8f79 e73d a6b2 5b3e 7a17 813e
000003f0: af67 8bbc 4eba 703c 3a39 293e 9108 8cbe

decoder.0.bias f4 [32]
0.07660558 -0.20589626 0.11384608 0.059259392 0.13698179 -0.0356006 0.21273926 -0.085269816
-0.040121224 -0.06203473 0.30383858 0.14542304 -0.25677627 0.11408952 0.30219036 -0.004140559
-0.07911945 0.44425303 0.20394988 0.13903898 0.13787378 -0.08725489 -0.0618869 0.065656476
-0.047095984 -0.16595711 -0.07257474 0.004294996 0.1831852 0.2810472 0.09989441 0.16831243
00000000: 63e3 9c3d 78d6 52be 2228 e93d fab9 723d
00000010: f444 0c3e efd1 11bd 52d8 593e f1a1 aebd
00000020: 2756 24bd 2118 7ebd bb90 9b3e c7e9 143e
00000030: 2e78 83be c4a7 e93d b2b8 9a3e 87ad 87bb
00000040: 6109 a2bd 2275 e33e 3dd8 503e 3c60 0e3e
00000050: c92e 0d3e b1b2 b2bd 1e7d 7dbd e776 863d
00000060: b8e7 40bd a9f0 29be 11a2 94bd 0abd 8c3b
00000070: e794 3b3e 6be5 8f3e 7195 cc3d 185a 2c3e

decoder.2.weight f4 [64, 32]
0.15836781 0.07408686 0.08043988 0.18635224 0.08854646 0.02427851 -0.24488154 0.055142287
0.0043696794 -0.044069193 0.063745216 0.13547981 0.18396817 0.04154539 -0.20059988 0.12097913
-0.008513881 -0.039023664 0.15588798 0.07067803 -0.026759516 0.20481892 0.010664269 0.04208698
0.17520617 0.059964325 0.033519585 -0.07394952 0.017269934 0.092502885 0.20078528 -0.13506344
0.12848623 0.119668834 0.13035648 -0.066009395 -0.03171311 -0.06799616 0.13092217 0.026833722
-0.1009205 0.08210483 -0.0850694 0.06441352 -0.114498116 -0.053659678 0.07440573 0.037043743
0.05787032 -0.04352039 -0.06765933 0.09232051 -0.098189026 -0.0045971004 0.046057783 -0.136234
0.036593672 -0.12411855 -0.065510675 -0.08520052 -0.12169092 0.17359868 0.06950713 -0.09514594
0.21444076 -0.12087057 0.058648076 0.17537247 0.16272897 -0.06034405 -0.002370958 0.16451249
-0.12780945 -0.11552094 0.19216117 -0.1296153 0.019092126 0.12889656 -0.24553837 -0.12466766
0.0019878636 0.09053186 0.00763807 0.023619134 0.114729434 -0.097440146 -0.19948922 -0.035603333
0.120261565 -0.23241848 0.063199006 -0.0153711615 0.0026656177 -0.030481037 0.22545683 -0.038116697
0.057355568 0.037059493 -0.019035447 0.004694824 0.0634354 0.114252485 0.12437436 0.08491942
0.07487347 0.00833026 0.03868306 -0.1128704 -0.119623594 0.03441415 -0.19813819 -0.042425275
-0.21828292 -0.009866139 0.06981032 -0.13815728 -0.0688375 0.10142321 0.13549672 0.17010333
0.05711335 -0.20485161 -0.12164516 0.1719053 0.050962757 0.15024954 -0.09897858 -0.03435432
-0.010121165 0.11423577 -0.15957345 0.09528695 -0.0007783315 0.17668425 -0.07292934 0.14066134
-0.19892174 0.04631835 -0.029271021 -0.07428757 -0.15023392 -0.15358868 -0.034677334 -0.09076565
0.03403163 0.08752071 0.018069435 0.1260605 -0.07142781 0.15390316 0.13823187 -0.17707247
0.00962956 -0.022197375 -0.09904251 -0.01845626 0.15296832 0.22580346 -0.03919344 0.15468957
0.26520336 -0.0020045585 -0.08052638 0.1038163 0.14814413 -0.019267729 -0.14612745 -0.016060418
0.03258616 -0.097181365 0.010372166 -0.12809396 0.18911938 -0.096387744 0.049887456 0.091550164
0.15468563 0.23542185 -0.06501156 0.1848319 0.16215333 0.020819511 -0.12768573 -0.10347622
0.13932975 0.042012066 -0.087529026 -0.02083043 0.10699391 0.26518935 -0.05229414 -0.14441657
-0.14625119 -0.14939432 -0.1106681 0.04231099 0.17380692 -0.044172462 -0.15682736 -0.025598416
-0.1115153 0.11705318 0.14912835 0.07743492 -0.040763084 -0.008978539 0.07157456 -0.0911771
0.1356694 -0.08166946 0.18545616 0.037806667 -0.028488213 0.13652964 0.07721962 -0.028520606
-0.05847322 -0.043555863 -0.061291255 0.009759423 0.12714064 -0.1346208 -0.06417105 0.062220015
-0.13296689 -0.15902317 -0.0059569315 0.037952058 -0.087530635 0.105394974 -0.12293506 -0.055931155
-0.11331428 0.15034677 -0.06687885 -0.0022350564 -0.0126000885 -0.118396185 -0.029197754 0.14297082
-0.1465804 0.03406003 0.03415739 0.075688496 -0.065082066 -0.10462064 -0.13633695 -0.11561404
-0.027663246 -0.11372977 0.11468114 -0.04433787 0.0691122 -0.090515286 0.15550815 -0.13627706
00000000: 2c2b 223e daba 973d aabd a43d 1fd3 3e3e
00000010: d957 b53d bae3 c63c 3ac2 7abe e1dc 613d
00000020: 872f 8f3b e681 34bd da8c 823d 38bb 0a3e
00000030: 2762 3c3e 802b 2a3d 0e6a 4dbe e8c3 f73d
00000040: ce7d 0bbc 47d7 1fbd 19a1 1f3e a5bf 903d
00000050: c636 dbbc 0dbc 513e 30b9 2e3c 6663 2c3d
00000060: 3f69 333e 279d 753d d54b 093d d972 97bd
00000070: ad79 8d3c 2772 bd3d a89a 4d3e 124e 0abe
00000080: e591 033e ef14 f53d 2b7c 053e ef2f 87bd
00000090: 9be5 01bd 9241 8bbd 7610 063e 65d2 db3c
000000a0: 68af cebd 9426 a83d de38 aebd 3ceb 833d
000000b0: fd7d eabd 40ca 5bbd 0862 983d 2ebb 173d
000000c0: 6e09 6d3d 7042 32bd fa90 8abd 8912 bd3d
000000d0: 5417 c9bd 46a3 96bb 16a7 3c3d ed80 0bbe
000000e0: 3fe3 153d de31 febd 762a 86bd 9c7d aebd
000000f0: 1739 f9bd dac3 313e c159 8e3d e0db c2bd
00000100: 5c96 5b3e fd8a f7bd f738 703d d794 333e
00000110: 6ca2 263e 532b 77bd 1362 1bbb f675 283e
00000120: 7be0 02be 3e96 ecbd e6c5 443e e0b9 04be
00000130: 1767 9c3c 76fd 033e 696e 7bbe c251 ffbd
00000140: d146 023b c568 b93d c648 fa3b ea7c c13c
00000150: 44f7 ea3d b38e c7bd e746 4cbe cdd4 11bd
00000160: b24b f63d 1cff 6dbe 7b6e 813d 53d7 7bbc
00000170: a5b1 2e3b 5eb3 f9bc 28de 663e 4120 1cbd
00000180: aced 6a3d b2cb 173d 3af0 9bbc 0ad7 993b
00000190: 6bea 813d 35fd e93d fcb7 fe3d 3cea ad3d
000001a0: 4357 993d a57b 083c 2172 1e3d 9928 e7bd
000001b0: 37fd f4bd daf5 0c3d bde4 4abe 20c6 2dbd
000001c0: 8f85 5fbe 96a5 21bc b7f8 8e3d 1a79 0dbe
000001d0: adfa 8cbd f9b6 cf3d a7bf 0a3e 912f 2e3e
000001e0: b0ef 693d 9fc4 51be 1921 f9bd f107 303e
000001f0: 53be 503d 04db 193e 48b5 cabd 1eb7 0cbd
00000200: 3ed3 25bc 72f4 e93d 3967 23be ce25 c33d
00000210: f108 4cba b7ec 343e fa5b 95bd 8709 103e
00000220: 24b2 4bbe 4fb8 3d3d c8c9 efbc 1524 98bd
00000230: ecd6 19be 5a46 1dbe d209 0ebd 57e3 b9bd
00000240: c064 0b3d 0f3e b33d 5a06 943c 0116 013e
00000250: be48 92bd ca98 1d3e a88c 0d3e 7c52 35be
00000260: 4dc5 1d3c 45d7 b5bc cdd6 cabd 9531 97bc
00000270: baa3 1c3e 0639 673e 4d89 20bd f166 1e3e
00000280: bcc8 873e e95e 03bb 04eb a4bd a49d d43d
00000290: 18b3 173e 5bd7 9dbc 6fa2 15be 2391 83bc
000002a0: 1179 053d 0607 c7bd 04f0 293c 102b 03be
000002b0: 83a8 413e f066 c5bd ca56 4c3d a77e bb3d
000002c0: e965 1e3e 6d12 713e c824 85bd 9344 3d3e
000002d0: 860b 263e ae8d aa3c 0cc0 02be 57eb d3bd
000002e0: 75ac 0e3e d814 2c3d 6b42 b3bd 94a4 aabc
000002f0: a01f db3d e6c6 873e 6132 56bd f0e1 13be
00000300: dfc2 15be d3fa 18be f5a5 e2bd 4a4e 2d3d
00000310: 71fa 313e 2fee 34bd 5a97 20be c5b3 d1bc
00000320: 2262 e4bd 94b9 ef3d 1ab5 183e 3396 9e3d
00000330: 31f7 26bd b91a 13bc af95 923d 0fbb babd
00000340: ebec 0a3e 5142 a7bd 38e8 3d3e 2adb 1a3d
00000350: 1d60 e9bc 6dce 0b3e 5225 9e3d 0ca4 e9bc
00000360: 9d81 6fbd a267 32bd 8a0c 7bbd fde5 1f3c
00000370: 2831 023e 09da 09be 1d6c 83bd 6ada 7e3d
00000380: 7928 08be f8d6 22be 5d32 c3bb 9e73 1b3d
00000390: 4343 b3bd 52d9 d73d 60c5 fbbd 1118 65bd
000003a0: 5111 e8bd 81f4 193e c7f7 88bd 067a 12bb
000003b0: 9a70 4ebc b379 f2bd 2130 efbc f166 123e
000003c0: 2c19 16be 8882 0b3d 9fe8 0b3d 9202 9b3d
000003d0: bf49 85bd 5943 d6bd ea9b 0bbe 0ec7 ecbd
000003e0: 089e e2bc 27eb e8bd f2dd ea3d a09b 35bd
000003f0: b28a 8d3d 1460 b9bd 873d 1f3e 378c 0bbe

decoder.2.bias f4 [64]
-0.01686559 0.17439872 0.18584104 0.2512857 0.08860182 0.104521126 -0.046694797 -0.01743252
-0.16337317 0.058354046 0.22406851 -0.035042 0.09760942 -0.10545163 0.15749852 -0.10487765
-0.0016606227 -0.2051547 0.10005794 0.2623416 0.26438436 0.03412662 0.07945601 0.0056575676
0.26709157 0.21242665 0.16293018 0.13354206 0.1612352 0.14440612 0.26191986 0.20218487
0.09963583 0.265674 0.10014576 0.165163 0.060408067 0.09988678 0.09921767 0.12146383
0.0054608146 0.070286736 -0.056087237 0.26143402 0.022199385 0.11695193 0.03514078 0.26612747
0.04856139 -0.04648364 0.010990834 0.10884219 -0.3400212 -0.20852967 -0.21646795 -0.004618842
0.11018617 -0.010703011 0.024755215 -0.12184111 -0.11351711 0.23479457 -0.18741776 -0.007909671
00000000: b529 8abc 9495 323e 1d4d 3e3e 85a8 803e
00000010: df74 b53d 2c0f d63d 0b43 3fbd a5ce 8ebc
00000020: 4c4b 27be a704 6f3d 3772 653e 3388 0fbd
00000030: 73e7 c73d 06f7 d7bd 4b47 213e 18ca d6bd
00000040: 40a9 d9ba 1314 52be 2deb cc3d a351 863e
00000050: 635d 873e 5bc8 0b3d d5b9 a23d 1e63 b93b
00000060: 3ac0 883e 5f86 593e 2bd7 263e 40bf 083e
00000070: d71a 253e 33df 133e 5c1a 863e 8d09 4f3e
00000080: df0d cc3d 6c06 883e 3819 cd3d 7d20 293e
00000090: 736e 773d 7191 cc3d a232 cb3d 07c2 f83d
000000a0: a2f0 b23b 7ef2 8f3d bbbb 65bd aeda 853e
000000b0: 7cdb b53c 7e84 ef3d c7ef 0f3d dc41 883e
000000c0: 4fe8 463d a165 3ebd e612 343c a7e8 de3d
000000d0: 4217 aebe cd88 55be c6a9 5dbe a859 97bb
000000e0: 49a9 e13d af5b 2fbc 73cb ca3c d587 f9bd
000000f0: a97b e8bd fd6d 703e 71ea 3fbe 9197 01bc
