Save_Models/model-lat3.pth (torch, 191458 bytes, 16 tensors)

encoder.0.weight f4 [128, 99]
00000000: cfdf 373d ee05 543d 5de0 3e3c e873 99bd
00000010: 40e1 b83d 7c52 72bd 8deb 713d 07d3 32bc
00000020: f551 b2bd d4be 20bd 9b8e 693d a2b3 963d
00000030: f110 ee3c 5aa2 ac3b d6cd 8c3d c13c c33d
00000040: 6665 193d 44d9 9ebd 54e4 ecbc 9c0b aabb
00000050: 53e0 8d3d d3c9 073d d52d 43bd 2a36 d0bc
00000060: e431 91bd dd1f 6bbd d3da 913d 6ff9 aa3c
00000070: a69b cebc 3d4f d2bd 590b ebba 91c2 51bd
00000080: b286 1b3d cda3 193d b395 f43c 6dca 56bd
00000090: a3a2 093d 6430 a23d 0d69 e6bd 5c6d 363d
000000a0: 1425 90bd 8101 58bd 7d70 f4bc d9c9 383d
000000b0: 6ea6 d0bc 8010 843d 43c2 a6bd acc2 6339
000000c0: 7748 eb3b eec2 abbd 9aa6 8c3d 6e91 a8bd
000000d0: 2bad 6cbd a386 b23d eb5d 653d b0dd 86bd
000000e0: b1c4 cabd 003a 0a3c 4996 a03d 03b5 313c
000000f0: 0b41 c7bd 65b3 80bd 8068 bcbd bf0d 26bd
00000100: 622a 86bd 45f6 9dbd 4d25 9c3b 1dfd 7cbd
00000110: 1a80 5ebd 832c 41bd 1efd e0bc 99f8 973c
00000120: f489 c33c 4f48 993d a5bf 0e3c 576a 4ebd
00000130: 954b 0f3d bb2a 90bd 6092 a4bd 6970 fabc
00000140: 851b c7bd 60d7 013c 4b05 cdbd fad1 1d3d
00000150: 4df1 0c3d 7082 b6bd cd25 c7bc ce0c aabb
00000160: ddd7 a73c e986 17bd 85e3 c7bd f406 25bb
00000170: 0714 ebbd bb89 143a 3aea d63b a5ae 85bd
00000180: 53d0 cbbc 31c4 a93b 5ab7 833b e8e6 143d
00000190: bcd2 e03c c902 5b3d 2372 063d 3717 e9bc
000001a0: 07f7 20bd d3d7 6dbc a11a 13bd e238 903d
000001b0: 171a a4bd a524 223b dc57 81bd 5e6a 89bd
000001c0: d847 b93a 8fb3 b7bd da90 913d f25d fe3a
000001d0: fe01 8e3d da78 103d febb 1f3d aa42 49bd
000001e0: b9a8 7dba 21fd 783c 9c78 a8bd e7a7 dd3b
000001f0: 259e 9f3c 5d71 9fbd 9087 c83c a345 29bb
00000200: db60 733d 1166 d53d d92f 303d 09b5 a0bc
00000210: 8596 a93d 1d07 d83c 0172 e63c 61f7 e63d
00000220: 35bc 403d 68bd 573d 746b c03c 436d df3d
00000230: a62f d83d 6557 56bd f107 aa3d 247b 6ebd
00000240: 88a2 d73c 47d8 cf3b 28e1 eb3d f100 c43d
00000250: 7390 963d b057 893c 306b 833d 9c2e 783d
00000260: c5ab b33d d87d 213d 6796 4e3d ce2a c23d
00000270: 0cd4 0f3c df11 ba3c b4a7 57bd 7824 48bd
00000280: 20e1 64bc f137 b4bc acd8 8abd 5617 c43c
00000290: b7c8 953d 7f35 b9bd 7c91 d43d 06a1 a63c
000002a0: 50ff 36bd 467d df3d 4ad7 afbd c3e9 b63d
000002b0: 3bff adbd b070 aabc 3003 71bd 3f96 70bd
000002c0: 5f89 03bc 19e7 d03d 3999 853b 9712 9a3d
000002d0: e8ad 55bd d430 cc3d feab 3ebd 8cda 983d
000002e0: 6f1c a53d 4c45 a33d 86ff d53c 0fe5 113d
000002f0: 0b9a d1bc e211 f3bc 0330 09bd 1f87 8cbd
00000300: 35c7 70bc 5bcc 163d b608 64bd af07 97bd
00000310: 0c9a bebd f091 a63d 0c83 b8bd e635 c6bd
00000320: adb9 073d 5564 8fbd 7aea 39bd de48 5fbd
00000330: e1d7 f4bd 9bb1 e5bc 5703 5dbd 3aab f93a
00000340: 146e 833d 8af7 c5bc 70bd dcbc d2f1 8a3c
00000350: 9b4d 103d 0391 e6bc 28d4 333d 6737 f63c
00000360: bc4d 923c 2512 223c d8bb 823c 4d90 87bd
00000370: 6159 823a 4bcd a03d 901e 39bd 984f 0bbd
00000380: 5af5 abbd 30c6 2d3c f934 263b e1ea b83c
00000390: 4836 0ebd 3a78 963d 239d 49bd ead3 c9bc
000003a0: 38f7 2dbd a37c 57bd 3d68 123d 3e1a f53d
000003b0: 991e 693b 9b22 17bc fc97 3ebd 1bfa 303d
000003c0: 3fa7 19bd 30b8 dd3b 5531 1c3d 7a1f 013d
000003d0: e497 443d 5a4a d63c e518 013c 1947 c23c
000003e0: c69d bf3d bfaf 023e 0a81 8b3d 8600 23bc
000003f0: 030f ec3d 8ea4 8c3d b290 8c3d e957 cc3d
0.044891175 0.051763467 0.011650172 -0.074928105 0.09027338 -0.059160694 0.05906253 -0.010914571
-0.08707038 -0.039244488 0.057020765 0.07358481 0.029060813 0.0052683773 0.068751976 0.09533072
0.037450217 -0.07756284 -0.02891747 -0.005189372 0.06927552 0.03315146 -0.04765113 -0.025416452
-0.07089594 -0.057403434 0.071218155 0.020870892 -0.025220703 -0.1026902 -0.0017932459 -0.051210944
0.037970252 0.03750973 0.029856538 -0.052439142 0.033602368 0.07919386 -0.112505056 0.044537887
-0.07038322 -0.05273581 -0.029838795 0.045114372 -0.025469985 0.064484596 -0.08142521 0.00021720928
0.0071802693 -0.08386789 0.06867714 -0.082308635 -0.057782333 0.08717086 0.05599777 -0.06585252
-0.09900797 0.00843668 0.078411646 0.010846379 -0.09729203 -0.06284217 -0.09199619 -0.040540453
-0.06551053 -0.07712988 0.004765189 -0.061764825 -0.054321386 -0.04716159 -0.027464446 0.018551158
0.023869492 0.07484495 0.008712684 -0.050394382 0.03498419 -0.070394 -0.08035731 -0.03057118
-0.09722046 0.007924885 -0.10010775 0.038530327 0.03440981 -0.08911598 -0.024310017 -0.0051895147
0.020488674 -0.036993895 -0.09760193 -0.0025181146 -0.11478429 0.00056662754 0.0065586837 -0.065274514
-0.02487961 0.0051808585 0.00401966 0.03635302 0.027444236 0.053469453 0.032823693 -0.028453453
-0.039298084 -0.014516789 -0.035914067 0.070420995 -0.08012789 0.002474108 -0.06315586 -0.06709741
0.0014135791 -0.08969795 0.07107706 0.001940666 0.06933974 0.035271503 0.038997643 -0.04913584
-0.0009676326 0.015197069 -0.082261294 0.0067644003 0.019484589 -0.07785294 0.024478704 -0.002582886
0.05941854 0.10419858 0.04301438 -0.019617574 0.082806624 0.02637058 0.028130533 0.112776525
0.04705449 0.052670866 0.023488738 0.10909512 0.10555963 -0.05232944 0.08302296 -0.058222905
0.026322618 0.006342921 0.115175545 0.09570492 0.0735177 0.016765445 0.06416929 0.060591325
0.08772997 0.039426655 0.050436404 0.094808206 0.008778583 0.0227136 -0.05265017 -0.048862904
-0.01396969 -0.021999331 -0.06779608 0.023936909 0.07313674 -0.09043407 0.103793114 0.020340454
-0.04467708 0.10912566 -0.08585985 0.08931305 -0.08495947 -0.020805687 -0.05884093 -0.058737036
-0.008028357 0.102003284 0.0040771035 0.07523077 -0.052167803 0.09970251 -0.046550743 0.074635595
0.08062064 0.07972202 0.02612282 0.035618838 -0.025586149 -0.029671613 -0.033493053 -0.0686171
-0.014695932 0.036815982 -0.05567237 -0.073745124 -0.09306726 0.08133304 -0.0900937 -0.09678249
0.03313606 -0.07001559 -0.04538963 -0.05451285 -0.11955238 -0.02803879 -0.053958263 0.0019048222
0.0641748 -0.024165887 -0.0269458 0.016961012 0.03523026 -0.028145319 0.0439035 0.030055715
0.017859332 0.009892021 0.015958712 -0.0661932 0.000994485 0.078516565 -0.045195162 -0.034011453
-0.083964065 0.010606334 0.0025361164 0.022572936 -0.034719735 0.0734715 -0.049222123 -0.024637181
-0.042472094 -0.052609097 0.03574394 0.11967896 0.0035571216 -0.009224559 -0.046531662 0.04320727
-0.037513014 0.0067663416 0.038132984 0.03152416 0.047996417 0.0261585 0.0078794705 0.023715543
0.09356265 0.12762354 0.068117216 -0.009948855 0.11526301 0.06867324 0.06863536 0.09977705

encoder.0.bias f4 [128]
00000000: a4a3 36be a68e 93be 7452 b2be 24c8 18be
00000010: 0403 9abe 45b5 74be 48ec 82be 6f5e babd
00000020: 6dab bdbe b84a 4dbe ba22 59be 0553 9dbd
00000030: 4858 27be e1a1 82be 1bbb 42be f11f 4bbb
00000040: 52cd a2be 6d90 85be 2a83 e6be e4e5 7fbe
00000050: 4c49 7fbe 4a74 1fbe 3f69 ecbe 7cb4 95be
00000060: 1a2a 2dbe 8ca0 7fbe ff81 72be 72ea 3bbe
00000070: 306c 58be c7b6 06be 4970 b1be 809a e9bd
00000080: 547d cbbd d90c 87be a420 5cbe 679b 3fbe
00000090: 92bd 3dbe 2e88 2ebe 0354 78be a29d 7fbe
000000a0: a44d 88be 86da 8bbe f286 62be d356 3dbe
000000b0: 0666 12be f631 88be f6a1 6dbe 8d96 e2be
000000c0: fa97 cdbd 565b a9be 8975 e8bd ceb3 a2bd
000000d0: 9e4e e23d 86da 99be cfc0 4dbe 7896 bd3e
000000e0: 8668 dbbd 504d 94bd 8246 38be 8c63 21bd
000000f0: e638 e2bd 04b8 6fbe de54 a6be d17b e3bc
00000100: 1623 d4be 2b00 c3bd 3d04 b6be 105f a4be
00000110: fbdb a3be cce4 7bbe e780 febd dc2b adbe
00000120: 3e3b 3cbe f2ba e3bd 02b2 a3be c28e 99be
00000130: c7ef febd f692 3ebe b0a7 34be 1c32 98be
00000140: b01b babe 627e 9bbe 35e7 99be b864 0abe
00000150: c6bb 9bbe eb0d 93be 58d4 323c b9ed 93be
00000160: bdb0 80be 7b07 60be 297b 90be 7645 36bd
00000170: d223 9abe 7567 b53d 3007 13bd 2db2 68be
00000180: 32ad 87be bb10 8cbe fc9d 7bbe c708 61be
00000190: 9fcc c0be 412a d0bb baab 31be 9b30 1ebe
000001a0: 91c1 8cbe 00b8 38be 9cc2 24be a4ef 09be
000001b0: 171e cbbd bc32 e8be 81bc c7bd 768d 66be
000001c0: 8f23 b7be 71e8 1cbe 8e7c eabe e4f9 82be
000001d0: 998d 6dbe a87b a7be 73c9 6bbe bc40 b4be
000001e0: f267 a3be 1da2 b8be 2740 82be ac12 8abe
000001f0: b0d0 f5bd 0fb0 a7be cb0e b8be 5cac 18be
-0.17835861 -0.2881977 -0.34828532 -0.14920098 -0.30080426 -0.23897274 -0.25570893 -0.09100043
-0.3704485 -0.20048034 -0.21204653 -0.0768185 -0.1634227 -0.2551413 -0.19016688 -0.003099438
-0.31797272 -0.2608675 -0.45021945 -0.2499004 -0.24930304 -0.15571705 -0.46174046 -0.2923926
-0.16910592 -0.24963588 -0.23682402 -0.18351153 -0.2113502 -0.13155662 -0.3465598 -0.11406422
-0.09936014 -0.2637699 -0.21496826 -0.18711625 -0.18529347 -0.17044136 -0.24250798 -0.24962476
-0.26621735 -0.27315158 -0.2212179 -0.18490152 -0.14296731 -0.26600617 -0.23206314 -0.44255486
-0.10038753 -0.33077496 -0.11350543 -0.07944451 0.11050151 -0.30049533 -0.20093082 0.3702886
-0.10713296 -0.07241309 -0.17995647 -0.039401576 -0.11046009 -0.2341004 -0.32486624 -0.027769001
-0.41433018 -0.095215164 -0.3555011 -0.32103777 -0.3200377 -0.24598998 -0.1242693 -0.33822525
-0.18381974 -0.11119641 -0.31971747 -0.29991728 -0.12448078 -0.18610749 -0.17642093 -0.2972573
-0.3634925 -0.3036986 -0.3005921 -0.13514984 -0.30416697 -0.28721556 0.0109148845 -0.28892305
-0.2513484 -0.21877854 -0.28218964 -0.044499837 -0.30105454 0.088576235 -0.035895526 -0.22724219
-0.26499325 -0.27356514 -0.24571985 -0.21976005 -0.37656114 -0.0063526933 -0.17350665 -0.15448229
-0.2749143 -0.1803894 -0.16089863 -0.13470322 -0.099178486 -0.45351207 -0.09752751 -0.225149
-0.35769317 -0.15323044 -0.45798153 -0.25581276 -0.23198546 -0.3271153 -0.23026066 -0.35205638
-0.3191524 -0.36061183 -0.2543957 -0.2696737 -0.120026946 -0.3275151 -0.35948786 -0.149095

encoder.3.weight f4 [64, 128]
00000000: feef 9e3d b38c a9bb 4e00 df3d 377f 413d
00000010: bd1c a23b 370c 123d f76e 163d efa7 b43d
00000020: ace1 e83d ca54 ad3d de2d 8a3d c09e 0cbb
00000030: a6d9 203c ad9a 34bd cafd 63bc 23ca d03d
00000040: ed26 3ebc d24c bbbb 011a f83d 1a3d 923d
00000050: 5ac6 33bc c63f 91bc 63c0 eb3d d389 84bc
00000060: 81a0 1a3c e82d d33d bac9 69bd 0670 79bd
00000070: cad0 933d d880 9a3d 3cbe 273d 04f0 363d
00000080: 1331 0b3c 5597 47bc 1f46 01bd 2bdd aa3d
00000090: 2ea4 78bc 2e5e b13c e4c1 a93d 80ed 243d
000000a0: 262a c33d 62d3 4f3d 51d2 58bd c825 dbbc
000000b0: 4493 293d b441 2f3d d2f9 b6bd 754c c03d
000000c0: 5ae6 36bd ea3a 5a3d 702a b63b 36fe 003b
000000d0: a69c c9bc c3b1 49be 208d 373d f8d6 713c
000000e0: 4d96 84bd 2af7 d4bc fbe1 953d f5cc 083d
000000f0: d9d1 283d 7c21 5e3d 7091 973d a4db 8e3d
00000100: c7f4 983d 3cd4 92bd d740 773d 260b 09bd
00000110: 423b 6a3d 3063 62bd 729c bb3a 987c 5a3c
00000120: 8c6d d33d 8e49 44bc bb3d b03d f877 be3d
00000130: 5022 33bd 2594 693d 2b13 723d b3a1 5f3d
00000140: dbe7 593d f398 873d 046a 1bbd d406 3fbd
00000150: fae6 ef3d 1813 e1bb eb80 e33c 9f8f 833d
00000160: 344e af3d c0e4 d43a 214c 22bd a25a 27be
00000170: e5ce 023d c525 adbe 5aee 863d e7e1 55bb
00000180: 6cfa 583c dbdd 393b e522 033c 8922 48bd
00000190: 0527 60be 8c67 87bd 0922 4dbd feca 903c
000001a0: 053f debc 0698 bc3b cbf9 28bd 8e06 a83d
000001b0: e41e 983d 0127 d83d b406 073d 4313 b53d
000001c0: 62f0 ec3d 08bb 0cbe ac9c 403d 838a 1bbd
000001d0: 06c9 da3c 2135 973d 6779 fe3d 6168 f43d
000001e0: 4b2b b43d b529 debc c5e6 a13d 068e 9c3d
000001f0: dd97 68bd 9278 51bd eb7c d03d 50d7 7f3d
00000200: 2550 263d d3a8 073c 580b 37bd a252 1d3a
00000210: 913e bb3c 6d8a 0ebd 71a7 233d e33c a23d
00000220: a617 00bc 73b7 67bd cff8 803d 2a6b ea3c
00000230: 473c b63d 1f38 f9bd a33b 083d 579a 33bc
00000240: c0a3 a43d 544d 8a3d 1729 823d aac5 9b3c
00000250: 1b7b cabc d6c3 70bd 91cd c0bd ea4b 8d3b
00000260: fb19 7bbd adb3 8f3d dbab 173d d0ae 73bd
00000270: 66c9 0ebd fb60 7e3d 313f cbbb 420f 2a3d
00000280: 442c c93d 19b8 403d 34cf 11bd 8b23 b83d
00000290: fed1 bfbd c8e5 8b3d 8b2c 80bc 58ba 313d
000002a0: a10e 01bd 66e4 5bbc 78f0 ad3c a749 87bc
000002b0: d910 293b 3a26 99bc 555d 0bbd 3dea f93d
000002c0: 4358 fbbc d205 5ebd 115e f13b cee6 d73d
000002d0: bcbb 853d 4b5c 42bd 768c ffbc a9e6 afbd
000002e0: 24ed 06bc ec3c 793c d9cb 7ebb 40e5 8d3d
000002f0: ade1 db3d c46b b83d 309a df3d 3681 d63c
00000300: 79f9 e8bc aac8 25bd 3fe3 87bd e8fc d63d
00000310: f688 803c cb19 f73d 8fd9 f5bd 6a61 72bd
00000320: fd4b 9e3d 47c3 d13c ad88 863d 33a0 8a3c
00000330: b18d ba3d bdef 15bc d3de 34bd cadd 2bbd
00000340: 57d8 4c3d 32a8 3b3d 046a 273a 294e 4b3d
00000350: ac0f 07bc 6996 06be 9045 5d3d a1df d93d
00000360: 26d7 1d3d aa2e df3d 6763 b4bd 6269 183c
00000370: 6a9d 14bd 2da2 163e 5105 37bd f383 babc
00000380: 2e3f 3bbc b7aa cd3c bfa3 cd3d 6655 dd3d
00000390: f1da a0bd c860 943d 9ae6 37be 0eb2 1fbe
000003a0: d724 cd3c d9a3 a73c 01ce 953d d55f 49bd
000003b0: 7f3f b63d d575 823d 97e2 2d3d 8349 8e3d
000003c0: 4e1d 143d bb71 7ebd 3d2f fdbc 7645 7dbd
000003d0: 9164 3dbd 999a 103c c98c 98bd f83a 6d3c
000003e0: bccd 883d 85c1 c93d 54de 05be a6dc 16bd
000003f0: adf2 293c 4633 b53d 1b02 84bc e2fe b4bd
0.077606186 -0.0051742434 0.1088873 0.047240462 0.0049472735 0.03565618 0.036726918 0.08821093
0.113711685 0.08463438 0.0674703 -0.0021456927 0.009817516 -0.044092823 -0.0139154885 0.101948045
-0.01160596 -0.005715945 0.12114335 0.071405604 -0.010972584 -0.017730605 0.11511304 -0.016179001
0.009437681 0.1031149 -0.057077147 -0.06089785 0.07217558 0.07544106 0.040952906 0.04466249
0.008495587 -0.012182076 -0.031561013 0.08342966 -0.015175862 0.021651354 0.08288935 0.04026556
0.095295236 0.0507387 -0.05293495 -0.026751414 0.04140021 0.04278727 -0.08934368 0.09389583
-0.044653274 0.05327884 0.005559258 0.0019682772 -0.024610829 -0.19696717 0.04481232 0.014760725
-0.0647398 -0.025996763 0.07318493 0.033398587 0.04121575 0.054231152 0.07400787 0.06975487
0.074685626 -0.07169387 0.06036457 -0.033457898 0.05718542 -0.055270374 0.0014313592 0.0133353695
0.10323629 -0.011980427 0.08605524 0.09300226 -0.043733895 0.057026047 0.05910031 0.054597568
0.05319963 0.066209696 -0.0379429 -0.04663737 0.11713977 -0.006868731 0.027771434 0.06423878
0.08559838 0.0016242489 -0.039623383 -0.16343167 0.03193559 -0.33817878 0.06588431 -0.003263587
0.013243299 0.0028360996 0.008003925 -0.04886106 -0.21889885 -0.06611547 -0.050081287 0.01767492
-0.02712966 0.0057554273 -0.041253846 0.08204375 0.07427767 0.105543144 0.032965377 0.088415645
0.11569287 -0.13743222 0.047024414 -0.037973892 0.026707184 0.073831804 0.124254994 0.11933971
0.0879732 -0.027119497 0.07905344 0.07644276 -0.056785453 -0.051140375 0.10180076 0.062461197
0.040603776 0.008279997 -0.044688553 0.0006001388 0.022856982 -0.03479998 0.039954606 0.079217695
-0.007818138 -0.056571435 0.062974565 0.028615553 0.08898216 -0.121689074 0.03326 -0.01096209
0.08039045 0.067530304 0.063554935 0.019015152 -0.024716904 -0.058780514 -0.09414209 0.004312028
-0.061304074 0.07016692 0.03702913 -0.059492886 -0.034860037 0.062104207 -0.0062026014 0.041518457
0.09822896 0.04705057 -0.035597995 0.08991154 -0.09366225 0.06830937 -0.01564624 0.043390602
-0.03150809 -0.013421154 0.021232828 -0.016514612 0.0025797396 -0.018694986 -0.034024555 0.122028805
-0.030681735 -0.05420477 0.00736595 0.105420694 0.06529948 -0.0474513 -0.031194907 -0.08588917
-0.00823525 0.015212279 -0.0038878827 0.069284916 0.107364036 0.0900493 0.10918081 0.02618466
-0.02843927 -0.04047457 -0.06635141 0.10497457 0.015690308 0.120654665 -0.12004387 -0.059174933
0.07729337 0.02560581 0.065690376 0.016922092 0.09109057 -0.009151396 -0.044157814 -0.04195956
0.050011005 0.0458147 0.0006386342 0.049635086 -0.008243483 -0.13143314 0.054021418 0.10638357
0.03853526 0.10897572 -0.08808022 0.009302469 -0.036282934 0.14710303 -0.044682804 -0.022767996
-0.011428637 0.025105817 0.10040998 0.10807304 -0.0785426 0.07245022 -0.17959061 -0.15595266
0.02504198 0.02046387 0.07314683 -0.04916366 0.0889883 0.06370131 0.04245242 0.06947615
0.03616076 -0.06212018 -0.030906314 -0.06183382 -0.046238486 0.008825921 -0.07448728 0.014479391
0.06679866 0.09851364 -0.13073093 -0.03683152 0.0103728 0.0884767 -0.016114285 -0.088376775

encoder.3.bias f4 [64]
00000000: b7dc a1be a64e 98bd 1daa c8be 78a1 05bc
00000010: 6f32 a4be a4de 87bc bb05 18be a6fe 00be
00000020: e834 aebd 6563 4d3c ec8e 40be a2ff 92bc
00000030: e6fc d3be ba7d a7be 134a 45bd a8c4 83bd
00000040: 39fa d6be 76eb 7bbe 6473 423b ad23 d4bd
00000050: 8e95 74be 4974 94be 2277 623c 6f99 8cbe
00000060: 5aee d6bd cd2f d4bd a9b9 d9bd a2d3 2bbe
00000070: 3c16 e0bd 1b9f 33be e7fd 97be e42c d3bd
00000080: 3bcb 4bbe c00d 63be 5b7b 26be c472 e7bc
00000090: 45ed 87be cb98 f1bc a73e 73be e382 09be
000000a0: 326f 9bbd 5bad d6bd 3289 e4bd 859f a3bd
000000b0: 4490 b3bd 54de 42bd 40b9 44be ef00 bdbd
000000c0: e57e 90be 3066 b1bd 3600 9bbe 2181 49be
000000d0: 0628 84bd 73cc 90bd 1493 54be 06c9 c83b
000000e0: ce6b 23be a244 65bd 2c19 e4bd bd92 a2bd
000000f0: 665b 23be 37f0 aebd e476 a6bd 70e4 01be
-0.31613705 -0.07436876 -0.39192286 -0.008156173 -0.32069728 -0.016585656 -0.14845936 -0.1259714
-0.08506185 0.0125359045 -0.1880452 -0.01794416 -0.41403884 -0.3271311 -0.048166346 -0.064339936
-0.4198778 -0.2460154 0.002967083 -0.10358367 -0.23885176 -0.2899497 0.013822349 -0.2746081
-0.10494681 -0.1036068 -0.10631115 -0.1677995 -0.10941741 -0.17541163 -0.296859 -0.103112966
-0.19901745 -0.22173214 -0.16257994 -0.028252967 -0.2654821 -0.029491803 -0.23754369 -0.13428836
-0.07589568 -0.10482284 -0.111589804 -0.0798941 -0.08767751 -0.04757531 -0.19211292 -0.09228694
-0.28221813 -0.08662069 -0.30273598 -0.19678165 -0.06452946 -0.070702456 -0.20759231 0.0061274795
-0.15959093 -0.055973656 -0.11137614 -0.07938144 -0.15952834 -0.08541911 -0.08128145 -0.12684798

encoder.6.weight f4 [32, 64]
00000000: 3621 77bd 2026 fabd da2f 043e 098e eebd
00000010: 3ac4 65bd 0233 a03d f3a6 0fbc 278e a73d
00000020: c3b4 b6bc bbc3 13be 500b 14be 2c4e 4fbd
00000030: a8ed 1f3b 680a fabc e937 a5bd 6dad 3fbc
00000040: 44ec 9dbd eff7 843c 5a81 403d c52f 8d3d
00000050: 6134 c2bc 49ab 01be b402 c53d 45bb 82bd
00000060: 4658 503d ea9d 023e 17a8 babd d469 b2bd
00000070: 78f9 56bd f326 19be 1d6c 73bd e6bb 7c3d
00000080: 1873 8e3d 843e ea3d 252e fcbd 1b20 1ebd
00000090: 1884 4abc 4391 08be b8d0 ed3d ba4a 0bbd
000000a0: cf15 713d 3116 413d e87d 693c 2d8c f93d
000000b0: 5e21 cdbc 5e33 80bd 2722 043e 9a2b c1bc
000000c0: 5c70 6bbd dbdc 033e d00e f83b 48cd 19bc
000000d0: c680 253e 4885 9f3d e897 493d 3c36 a6bd
000000e0: 2772 813d c74c d0bd 0c8d 753d c4dc c0bb
000000f0: c717 c6bc 7018 cb3d 9bec dc3c d14c 02be
00000100: 3645 333e f0a8 543d 888f 8a3e 2d84 983d
00000110: 8222 ab3d 06a9 b0bd 5987 453d 917d 7ebb
00000120: 2c2e 55bd a8fa 5c3d 316b 9b3d 0af7 dfbc
00000130: a124 663e dc30 42be aa90 26bd 2a13 c93d
00000140: 48f3 403e d93d c73d 9ebe c33d 647a 8b3d
00000150: 6721 863c eb12 7fbd 3d0a d0bc 1f7c eb3d
00000160: 2fc0 353d e0aa 513d 10a7 d93d 9c02 143e
00000170: 24a0 08be 5481 b23d 848c 54be e7cd 65bd
00000180: 5d59 9bbd 827c a63c 7736 2cbd abe0 233d
00000190: 9a4b 1d3c 7a31 313d 1bea f63d 9fd1 6c3d
000001a0: bea9 a43d 8d9b 9bbd 5fff 41bc 9698 79bd
000001b0: b5c3 07be c587 aabd a2d2 b63d 32dd 8a3d
000001c0: 22af 923d f9dc 0bbd 0e6f 093e 4832 353e
000001d0: 4f90 dc3c 2869 8c3d 539b f73d 10c7 a43d
000001e0: 0cae 1e3d 2301 0a3e e1f1 5f3e 3496 54bd
000001f0: 92f5 253e a7a4 8f3c 6982 a7bc ebb5 423c
00000200: 48d6 dc3c 2960 3abc 35bf cbbc 1be8 1c3d
00000210: 4aa5 73bd 8a4e ccbc faeb 043d 2e86 4abe
00000220: 8756 a13d 7aeb b43d 7111 c6bc fcdc cfbd
00000230: dc01 d83c 1f3d a5bd 1ae7 073e 36d8 673c
00000240: 1388 e33d 051d 5ebd 9786 3bbd 246f 05be
00000250: b061 cabb 98f8 a1bc 443d 3bbe c979 ed3d
00000260: 7ea9 d6bd 9ec8 d33d 0855 c93d a9c6 2dbc
00000270: d3df 6fbd 5d98 2c3d 2a12 7dbc f57b a1bd
00000280: 6fdf 093e a5de 72be 1868 9e3d 45b7 1fbd
00000290: 4a48 e93d 5df5 aa3d 1e62 053e 3c34 45be
000002a0: b4e6 923d 8c39 45be b670 8fbe 2c09 34be
000002b0: c0d2 7e3d 7100 50be 462e 963d 3025 cd3b
000002c0: 6108 ae3d 5f68 953d f6bd 91bb 586a c3bc
000002d0: 8a3b d03c 3fed 5abe 76e5 60bd 3501 673d
000002e0: 6ffe c83d 4269 72bd 6b16 1f3d a373 1cbe
000002f0: 540b 833b 3bc9 b1bd fa08 c23d d86e 51bd
00000300: df0a 083e c270 2b3e 0530 443e 2bb1 41bd
00000310: 16f9 003e 0c3d dc3d 7efb b93d 2922 933d
00000320: 2f06 2abd 8623 b1bc c1dd 863d 12ba 923d
00000330: b38f 1e3d 6ab0 c9bd 9af9 453b a709 b83d
00000340: b85b d33d c6a7 da3d cfec 8fbd 43be 0abe
00000350: 27e2 9b3d 14c9 023d 5669 b53c 1f67 ec3d
00000360: 9175 a1bd 8525 a43c cbec 143e b671 453d
00000370: 4958 4ebd b1a1 4bbc fcf1 00be c227 2abc
00000380: c5a1 d63c c9f4 2fbb 6c60 013e 92dd 083d
00000390: 3d3c e0bc cbc3 f93b 04a1 dd3c 8a0d bdbd
000003a0: 38eb 93bc d04b 96bc c057 0fbe 0a5e 1bbd
000003b0: da72 bbbd 916e f53d 0ad7 a7bd 13fa d4bc
000003c0: 2c07 d43d 4176 4dbd ec10 16bc d89a 0ebd
000003d0: d4c5 b03d 184d 93bd dd67 3b3d 0a30 83bc
000003e0: ecc7 a43d a925 973d b9fd 9b3c 5a30 913d
000003f0: 8ace 033e 056f 923d b7c8 823d e183 9f3d
-0.060334407 -0.12214303 0.12908879 -0.11648185 -0.05609534 0.07822229 -0.008767831 0.0818141
-0.02230299 -0.14430134 -0.1445744 -0.05061166 0.0024403129 -0.03052254 -0.08067305 -0.011699063
-0.0771108 0.016231505 0.04699836 0.06893877 -0.023706617 -0.12662996 0.09619656 -0.06383375
0.050865434 0.12755552 -0.09114092 -0.08711591 -0.052484006 -0.14956264 -0.059429277 0.06170263
0.06955546 0.11437705 -0.12313489 -0.038604837 -0.012360595 -0.13336663 0.116120756 -0.03400681
0.05885869 0.047140304 0.01425121 0.121849395 -0.025040325 -0.062597975 0.12903653 -0.023580361
-0.0574802 0.12877218 0.007570125 -0.009387322 0.16162404 0.07789093 0.049217135 -0.08115813
0.06320601 -0.10170894 0.059948966 -0.0058856923 -0.02418126 0.099167705 0.026968291 -0.12724616
0.1750687 0.051918924 0.2706263 0.074470855 0.08356191 -0.08625989 0.04822478 -0.0038832168
-0.052045986 0.053949982 0.075888045 -0.027339477 0.2247491 -0.18963951 -0.040665306 0.098181084
0.18842804 0.097285934 0.09557842 0.068104535 0.01637335 -0.0622739 -0.025395507 0.114982836
0.044372734 0.05118835 0.10627568 0.1445412 -0.13342339 0.08716074 -0.20756727 -0.056104567
-0.07585404 0.020323042 -0.04204413 0.040009182 0.009600544 0.043260075 0.12056371 0.057817098
0.08040188 -0.07598028 -0.01184067 -0.060936533 -0.1325825 -0.08326677 0.08926894 0.06780471
0.0716231 -0.034146283 0.1342127 0.17694962 0.02692428 0.068559945 0.120901726 0.08045781
0.038740203 0.13476996 0.21869613 -0.051901057 0.16206959 0.017534567 -0.020447927 0.011884193
0.026957646 -0.011375465 -0.024871448 0.03830729 -0.059483804 -0.024939794 0.032451607 -0.19777748
0.07877832 0.08833976 -0.024178239 -0.10149571 0.026368074 -0.080682985 0.13271752 0.01415067
0.111099385 -0.054226894 -0.04578265 -0.13030678 -0.006176196 -0.019771859 -0.1828509 0.11595494
-0.10481547 0.10340999 0.098306715 -0.010606446 -0.058563065 0.042137492 -0.015446225 -0.07884971
0.1346414 -0.23717745 0.07734698 -0.03899314 0.11390741 0.083475806 0.1302571 -0.19258207
0.071729094 -0.19260234 -0.2801568 -0.17581624 0.062212706 -0.20312668 0.07333045 0.0062605366
0.08497692 0.07295298 -0.004447694 -0.02385442 0.025419015 -0.21379565 -0.05490633 0.056397635
0.09814154 -0.059182413 0.03883974 -0.15278487 0.003999153 -0.0868096 0.094743684 -0.0511311
0.13285397 0.16742232 0.19158943 -0.0472881 0.12595019 0.10753831 0.090811715 0.0718425
-0.041509803 -0.021623384 0.06585265 0.07164396 0.03871126 -0.098481014 0.0030208589 0.08986216
0.10320228 0.106765315 -0.070275895 -0.13549142 0.076114945 0.031930044 0.022144955 0.11543106
-0.07883752 0.020037422 0.14543454 0.048204146 -0.050377164 -0.012428687 -0.1259231 -0.010385456
0.026200185 -0.0026848784 0.12634438 0.03341443 -0.027372474 0.0076222173 0.027054317 -0.09231098
-0.018056497 -0.018346697 -0.13998318 -0.03793148 -0.091527656 0.119839795 -0.08195312 -0.02599815
0.103529304 -0.050161604 -0.009159308 -0.03481564 0.08631483 -0.07192439 0.04575335 -0.016014118
0.080459446 0.0738023 0.019041883 0.070893005 0.12871757 0.071500815 0.063859396 0.07788826

encoder.6.bias f4 [32]
00000000: 6d2d 28bc b01e 92be 51f6 be3b f1f2 63be
00000010: 5e5c 773d 14da 3f3d 7531 7e3c 518e 7b3d
00000020: b007 bcbd 33c5 a33d 105d 11be 6332 d23c
00000030: 04e3 24bd 3fc0 2b3d 9524 4fbd 6b25 87be
00000040: 8834 24be 6050 da3c ded0 753c fbcb 863d
00000050: 6365 3abd ce13 bfbd 9bda 02bd 3744 b8bc
00000060: 408e c4bd ed3a 20be d319 bc3d cfbb ed3d
00000070: 93e7 1dbe ec9b 07be da99 b53d 1b43 99bd
-0.010264737 -0.28539038 0.005827703 -0.22260644 0.060390823 0.046838835 0.015514721 0.06141502
-0.09181154 0.07996597 -0.14195657 0.025658792 -0.04025556 0.041931387 -0.050571997 -0.26395735
-0.16035664 0.026649654 0.015003411 0.06581875 -0.045506846 -0.09329949 -0.03194676 -0.022493465
-0.095974445 -0.15647478 0.09184613 0.11608087 -0.1542037 -0.13243073 0.088672355 -0.074835025

encoder.9.weight f4 [3, 32]
00000000: 3c51 25be db4e 18be 2a1f 8ebd f1e1 b0bc
00000010: b38f 14bd ff19 f3bd efc7 8abd 60bb 97bd
00000020: de25 f83d ab2c 41be 6f18 19be ca5a 7ebd
00000030: aa83 28be 06ab f43d 1f23 083e 6049 80bc
00000040: bf98 423e 2eb6 f7bc b9ec dabd 88fc 773b
00000050: ad0b 373e b3c5 3b3c 2a6a 1bbe 0c42 803d
00000060: 5d26 ff3d 1590 2cbd 0e1b b5bd 6982 da3b
00000070: a1f4 293e eb12 89bd 5dc3 47bd d442 243e
00000080: d780 033e 928e 673e 305e 68bd bb46 a03d
00000090: 2abb 89bd 5b62 18be 580c e73d c6dd 393c
000000a0: f1d6 db3d eb97 de3d ca70 853d fd00 8b3d
000000b0: 2078 773d 7823 05be 50e4 623d aecd acbd
000000c0: e955 f53d e324 e73d b8d8 073d b87d d0bc
000000d0: ed2b acbd 2216 653d 7e32 09be 64b4 3f3d
000000e0: be13 503d ca35 ac3d 4d65 c6bd da9b 583d
000000f0: 1322 ba3d b31e df3d 29e2 52be f15a 2ebe
00000100: 6272 1c3b b33d 383e c6dd 343e b95d c13d
00000110: acff 863d 5815 203e 8691 4bbd cd72 30be
00000120: 181d 3ebe e99e 883d 9670 f7bd c9a1 f8bc
00000130: 6779 eebc 19fa 9b3c a2de e43c 6ac4 203e
00000140: a8b7 283d 9b29 13be 1e4d d03d 40fa 0b3e
00000150: 165e 323c 8e4a 05be 6247 4ebe fee2 cebd
00000160: cd77 133d 4413 33bd 59c0 ad3d ddbe 04be
00000170: 60a3 d43c 3df7 74bd 3a79 923d 34ce 023d
-0.1614427 -0.14873831 -0.06939538 -0.021592112 -0.036269855 -0.11870193 -0.067764156 -0.07408786
0.121165976 -0.18864696 -0.14950727 -0.062098302 -0.16456476 0.11946683 0.13294648 -0.015659988
0.1900358 -0.030238237 -0.106896825 0.003783973 0.17875548 0.011460709 -0.15177217 0.062625974
0.12458489 -0.042129595 -0.08843051 0.006668378 0.16597225 -0.066930614 -0.048770297 0.16041118
0.12842117 0.2261298 -0.05673045 0.07825991 -0.06725152 -0.1488127 0.11281651 0.011344379
0.10734356 0.1086882 0.065156534 0.06787298 0.060417295 -0.13001812 0.055393517 -0.08437668
0.11979277 0.112863325 0.033165663 -0.025450572 -0.08406816 0.05592931 -0.13398167 0.046802893
0.050800078 0.08408697 -0.0968729 0.052883007 0.090885304 0.10894527 -0.20594086 -0.17026879
0.0023871888 0.17992286 0.17662725 0.09441704 0.06591734 0.15633142 -0.04969933 -0.17231293
-0.18565786 0.06670935 -0.12082021 -0.030350583 -0.029110624 0.019040154 0.02793819 0.15699926
0.041190773 -0.1437134 0.10170959 0.13669682 0.01088669 -0.13016722 -0.20144418 -0.10101889
0.036002923 -0.043719545 0.08483953 -0.12963434 0.02595681 -0.059806097 0.071520284 0.031934932

encoder.9.bias f4 [3]
00000000: fe69 72bd d587 133e d279 c3bd
-0.059183113 0.14407285 -0.0954472

decoder.0.weight f4 [32, 3]
00000000: ac3d 6ebe 8080 bc3e 88fe a43b e0b5 3cbe
00000010: 3623 26bf d170 30be 1cdb a2be 3a3c 1cbf
00000020: 8d9a 963e 1f0b 953e d3bd a23e 4d1d a0be
00000030: 1246 9b3c 655f 6c3c 083b c13e c92a 6d3e
00000040: 60d9 83be 1b94 003f 9444 533e d01c fbbe
00000050: d847 c83e 1ba7 5bbe b9ed 9fbe 0a40 0e3f
00000060: 804c 53be 18fd 8fbd cc5a eabe f0ee 0bbe
00000070: 9c66 823e ecc3 15be 922c b73e 3e3a ed3d
00000080: 30bf debe 0b2d 07bf 68af 883d 358f 823e
00000090: 2cac 01bf bfca 0e3c d1d3 0fbf 704a 69be
000000a0: cc73 183e 3c58 ccbe ad73 22be 9804 67be
000000b0: 2dc9 c1be 9273 f03e 1964 b7be ef21 fa3d
000000c0: 67cd 153f 4dde 0ebd 7160 bd3e cd02 90bd
000000d0: 087e 1f3f fd4a bc3e e084 2c3e 20ea a53e
000000e0: 6d2c 99be 6075 d83d cfce 913b d7d1 bf3e
000000f0: 2e41 953e 1e64 843e de2b e3be ffc5 033e
00000100: b2c0 0dbe 8673 033f 9abb 2cbe d414 89be
00000110: b62e 0dbe 3910 f43e e890 97bd 6c47 00be
00000120: 8d1d 2c3e df44 71be df23 cb3e 19e7 e13e
00000130: 30ad 19bf 4c03 08be 41c9 92be 2f17 563c
00000140: a4c9 133f 951f d53e 6932 21bf 1d13 34bc
00000150: 0d9b 16bf c66f e8bd c4cf c3bd fa5b d83e
00000160: 1eb1 9f3e ff9d 6b3e 2774 a3bd 143a 103f
00000170: 0618 1dbe 5fa8 113f 8bd9 0e3f 9a15 d4be
-0.23265713 0.36816788 0.0050352253 -0.18428755 -0.6489748 -0.17230536 -0.31807792 -0.610294
0.29414788 0.29110047 0.3178545 -0.31272355 0.01895431 0.014427041 0.3774035 0.23160852
-0.2575178 0.5022599 0.20631629 -0.4904542 0.39117312 -0.21450464 -0.31236055 0.55566466
-0.20634651 -0.07030696 -0.45772398 -0.13665366 0.2546891 -0.1462552 0.35776192 0.115833744
-0.4350524 -0.52803105 0.06674081 0.25499883 -0.5065334 0.008715331 -0.5618258 -0.22782302
0.14887923 -0.39911067 -0.1586444 -0.22560346 -0.37848797 0.46963173 -0.35818556 0.122135036
0.58516544 -0.03487997 0.3698764 -0.07031784 0.62301683 0.36775962 0.16847563 0.32405186
-0.29916707 0.105692625 0.0044497023 0.37464783 0.2915129 0.25857633 -0.44369406 0.12868498
-0.13843039 0.5134815 -0.1686844 -0.26773703 -0.1378735 0.47668627 -0.074006855 -0.12527245
0.16808148 -0.23561428 0.39675805 0.44121626 -0.6002989 -0.13282508 -0.2866917 0.013067051
0.57729554 0.41625658 -0.62967545 -0.010990885 -0.5883034 -0.11349444 -0.095611125 0.42257673
0.31189817 0.2300949 -0.07981139 0.5633862 -0.15341195 0.5689754 0.55800694 -0.4142273

decoder.0.bias f4 [32]
00000000: 5f00 203f 4b4f 1dbe 6bce 893e ce3a 703e
00000010: 4ceb ef3e df00 a53e baa1 4a3e e8c5 aa3d
00000020: b479 9fbe 16c1 b33e 3661 cfbe f0bd aabe
00000030: af5f 4d3e c3d1 383e 1608 693e e62a 31bf
00000040: d0dd ec3e 5b1f 933d c98c bd3d fcee 92bd
00000050: bb23 053f e514 123e ea8c 853e e1e2 fe3d
00000060: 28f6 0a3f 6a82 fe3e 7543 c53e c02d cbbe
00000070: 0566 803e ed75 87be b7f8 88be 5999 2c3e
0.62500566 -0.15362279 0.26915297 0.23459932 0.46859205 0.32227227 0.19788256 0.08338529
-0.3114754 0.3510825 -0.40503854 -0.33348036 0.20056032 0.18048768 0.22756991 -0.6920608
0.4626298 0.07183715 0.09255368 -0.07174489 0.52007645 0.14265783 0.2608407 0.124456175
0.54281855 0.49708873 0.38528028 -0.39683342 0.25077835 -0.26457158 -0.26752254 0.16855372

decoder.2.weight f4 [64, 32]
00000000: 3d13 003e b7a7 43bd cfdc 193d ed41 403e
00000010: d996 173e d4eb 4fbe 132d d73b 00e1 94bb
00000020: ab5b 52bd cc1e 163e 0ffe 1dbf 1076 05be
00000030: 0eb1 3c3d e712 b7bd 3853 57bd a124 263d
00000040: 28c5 c33c 4a01 07be 550e cd3d 12ea 21be
00000050: 64dd a0bd 12a7 a4bc 6e52 ab3d ba46 75be
00000060: e523 6a3c d4f1 963d 9ea2 123e cdb4 aabd
00000070: 37a1 23bc 8c90 77be 6e76 4cbd b487 ddbd
00000080: 8a11 753d a42b 2a3e 5ba3 353e 1616 a83d
00000090: 2c8c 2c3d bfdd d43d 20ff af3d 8321 1abd
000000a0: 5c08 73bd d04d 7abd 1d66 4ebe 545e 0f3e
000000b0: be76 863d 17cc 07be e7df ee3d f1bf 303d
000000c0: 28d3 0fbe 1462 43bc c10f f43d b72e b4bd
000000d0: d988 10bd 1a89 c7bd 3478 493e 1966 46be
000000e0: 10c6 11be 3472 2dbe f3a3 f63c 5637 5e3d
000000f0: 656a 893d 0dca a9be 4c96 b03d 3aad d7bd
00000100: 0b09 d4bd 0146 ebbd 1f18 06bf 29d2 1c3e
00000110: 5e19 bfbc d3ec f8bb 49bd 4c3e eb3a aabd
00000120: 3ffa 0ebd 11d3 ecbd 86ae f7bd 4a94 88be
00000130: 42bb 2abc be5b 0f3c 3a4d bb3d 8d88 a03d
00000140: d84f 57be 6ff2 9ebe 4600 20bd e490 5c3c
00000150: bab9 743e 0120 db3d 7900 313d 4242 c4bd
00000160: 0812 4bbe 62ac d93c a5fc 26be 939f 3b3e
00000170: 5ccd b6bb 72cd 24be 186d c8ba b041 f53d
00000180: e0a4 08be 1afb 123e e68a 923d 7cc7 d43d
00000190: 5c2d d53c 861e d6bd e715 2a3e 0f69 f5bd
000001a0: 84d3 e13d 3f81 23be 3b4f 09be 6136 933e
000001b0: b0eb 513c 614f e73d 18d0 e4bd 3ae8 083e
000001c0: c945 41be 1908 b43d 7735 8ebd a775 173e
000001d0: 8bc3 d1bc b2d8 ba3d a7b6 dc3d 961a 863d
000001e0: 641a 77bd 4518 ba3c b163 073e d88a d03d
000001f0: 59be e1bc a8c0 1ebd d555 ee3d b349 943a
00000200: 2dc6 2fbd e80f a33e 306f f33d af35 edbd
00000210: 0938 c03d 044e db3d 728a 523d 63b2 e9bb
00000220: 1a63 00be 50a3 13be 4d91 21be 8e76 163e
00000230: c74d cfbd b480 7bbe b582 763e 9e85 fdbd
00000240: facb ce3d 7c7d d33d 660e 71be 5269 e7bd
00000250: 632a 043e 2e55 88bd e17d 843e 5eaf d93d
00000260: 30cc 933d 7cc9 4b3d 8eb6 373e bfc3 acbd
00000270: aa9e 933d 9c8d b33d 98dc 66be 1f3c 59be
00000280: 5a18 193c a514 1cbe 0fef ba3c 8a8f d5bd
00000290: a887 2e3e 466f a33d 8e4b 1fbe 91fa 193e
000002a0: 7f81 483e 5fd3 efbd 3bc3 003e 70de 833d
000002b0: 945d bf3d 223b 793b d253 9dbd b2bb 9d3d
000002c0: bce3 3a3e 8346 193c 8399 b4bd 56d7 3a3e
000002d0: f9ec 81bd af31 c0bb 3d3c e3bd 3f43 0c3e
000002e0: fbc5 01bc 0165 ea3d c685 c2bd 8b76 e73d
000002f0: 050f cbbd 9896 473d b757 3a3e 5e42 2cbe
00000300: 6b39 cabd 357e 913e d34c 653d ab66 173c
00000310: 9b34 a6bd d5ab 773d 8db9 843d 905a 5d3e
00000320: cb33 99bd 73c7 b6bd 8d97 033e 76dd 883d
00000330: 6be1 0bbe d2ad 67bd 538d 67be 10a8 c1bc
00000340: f21c eabd ead4 6ebd b72b 52be 1ef4 2d3e
00000350: f49f a43d 84b2 b53d dc7c 9cbe 89fe b13d
00000360: 74b1 34bc a96a 953d 3dfe d7bc 5027 813e
00000370: 3aa3 833e 9072 173e f976 3d3e e2d6 28be
00000380: 80b3 453e 9712 0dbd a535 11be 12a9 bf3d
00000390: af87 2d3d dfd0 89bc 847d a03c 413b 143e
000003a0: 6fb9 4abd c5cf 39be e89d 1dbc 76fa f2bd
000003b0: f9fd ec3d 26bb 2fbe 14d6 22be 0e6f acbd
000003c0: e4fb 2f3e 4100 143d 8b9e 603d 582d f53d
000003d0: bc41 a3bd dc79 c83d 886f c73c d47c 063d
000003e0: ab3b bdbd 1c9f 2abd 769a 0c3e 79a6 9f3d
000003f0: e73e 5e3d f652 023e fa5e 5abe 74a8 22be
0.12507339 -0.047767367 0.037564095 0.18775149 0.14803638 -0.20304805 0.0065666526 -0.0045434237
-0.051356953 0.14660186 -0.6171579 -0.13033319 0.04606729 -0.08939152 -0.052569598 0.040562276
0.023897722 -0.13184085 0.10012499 -0.15811947 -0.07854727 -0.020099197 0.083653316 -0.23952761
0.0142907845 0.07370344 0.14319846 -0.08335266 -0.009987167 -0.24176234 -0.04991763 -0.10816899
0.05983118 0.1661821 0.17738096 0.082073376 0.042125866 0.10393857 0.08593583 -0.037629616
-0.059334144 -0.061109364 -0.2015614 0.14000827 0.06565617 -0.13261448 0.116638 0.0431518
-0.14045393 -0.011925239 0.11917067 -0.08797973 -0.035286758 -0.09742947 0.1967476 -0.19374885
-0.14235711 -0.16938096 0.030107474 0.05425199 0.06709746 -0.33161965 0.08622417 -0.10531087
-0.10353287 -0.114879616 -0.52380556 0.15314545 -0.023327526 -0.007596591 0.19994082 -0.08312019
-0.034906622 -0.11563695 -0.120938346 -0.26675636 -0.010420622 0.0087499 0.09145589 0.07838545
-0.21026552 -0.31044337 -0.03906276 0.013462279 0.23898974 0.10699464 0.04321334 -0.0958295
-0.19831097 0.026571456 -0.16307314 0.18322591 -0.00557868 -0.16093996 -0.0015291302 0.119754195
-0.13344145 0.143536 0.07155399 0.10389611 0.026022606 -0.10455041 0.16609918 -0.11982929
0.110266715 -0.15967272 -0.1340913 0.28752425 0.01281254 0.11294437 -0.11172503 0.13369837
-0.18874277 0.08790607 -0.06943791 0.14790975 -0.025605937 0.091233626 0.10777026 0.065480396
-0.060327902 0.02271665 0.13221623 0.10182732 -0.027556585 -0.03875795 0.11637465 0.0011313468
-0.042913605 0.31848073 0.11886442 -0.11582505 0.09385688 0.1070824 0.051401563 -0.007131861
-0.12537804 -0.14417768 -0.15778084 0.14693663 -0.10122257 -0.24560815 0.24073298 -0.12379001
0.10097499 0.103266686 -0.23540649 -0.11299385 0.12906794 -0.06656872 0.25877288 0.10629152
0.0721668 0.049752697 0.17940733 -0.08435773 0.07207997 0.08767244 -0.22545087 -0.2121434
0.009344185 -0.1524225 0.02281907 -0.104277685 0.17043936 0.07980208 -0.15556166 0.1503699
0.19580649 -0.11710238 0.12574475 0.06438911 0.093440205 0.003802963 -0.07682003 0.07701816
0.18250936 0.00935519 -0.088183425 0.18246207 -0.06344027 -0.0058652977 -0.11095474 0.13697527
-0.007920737 0.11445046 -0.094981715 0.11301907 -0.09914974 0.0487276 0.18197523 -0.16822192
-0.09874233 0.284166 0.05598147 0.009240787 -0.081155024 0.060466606 0.064807035 0.21616578
-0.07480582 -0.08924761 0.12850781 0.06682865 -0.13660209 -0.056562252 -0.22612505 -0.023639709
-0.11431302 -0.05830852 -0.20524488 0.16987655 0.08038321 0.0887194 -0.3056401 0.08691127
-0.011028636 0.072957344 -0.026366347 0.25225306 0.2571047 0.14789796 0.18502416 -0.16488221
0.19306755 -0.034441557 -0.1418062 0.093584195 0.042365726 -0.01682323 0.0195911 0.14475729
-0.04949325 -0.18145664 -0.009620167 -0.11864178 0.11571879 -0.17161235 -0.15901977 -0.084196195
0.17185932 0.036133055 0.0548387 0.11971539 -0.07971522 0.09788868 0.024345174 0.03283389
-0.092398964 -0.041655645 0.13730797 0.07795424 0.054259207 0.1272696 -0.21325293 -0.15884572

decoder.2.bias f4 [64]
00000000: 2eec 1b3e ee82 383d 78d2 543e c208 c6be
00000010: 9dfe 84bd af32 1d3e 5160 90be 7388 ee3d
00000020: f6d0 503d 78d9 3e3e 0677 253e 7c98 053e
00000030: 8fb4 b5bc ae39 bcbc 22d2 1d3d b1ea 1c3d
00000040: 61cd 0bbe 9e2e 8bbb 28df 36be bda5 a5bd
00000050: 0686 533e ec51 673e 226f d0bd 13fc 353e
00000060: a027 ce3d 8461 883d 79fa cebd 8acd 30bd
00000070: 7a9e fc3a ad7c 263e 7024 573d dc2a 6d3d
00000080: a68f cb3d 892d 03bd 42fd 9d3d 600a 693d
00000090: 24f8 ccbc 1efd c7bd f5c1 773e aa99 213e
000000a0: c8f3 f6bd 61cb 1ebe 22b7 04be 4a9a 3dbd
000000b0: d463 233e 72a9 90bb 4909 1d3e 1b17 abbe
000000c0: d60b 3f3e 3060 95bc d20a 9dbe 5e19 0f3e
000000d0: 9fb7 263e 5df0 4c3e a22a 8f3e 2698 513e
000000e0: 5dce 4abc 7f56 fa3d 1cf1 f73d 832e 05be
000000f0: f8e7 14be 2da1 673e 5867 223c f066 a63d
0.15226814 0.04504674 0.20783412 -0.38678557 -0.06493876 0.15351366 -0.28198484 0.116471194
0.05098053 0.18637645 0.16158685 0.1304645 -0.022180824 -0.022976723 0.038530476 0.038309757
-0.13652565 -0.0042475006 -0.17858565 -0.08088253 0.20656595 0.22589844 -0.10177447 0.1777194
0.100661516 0.06659225 -0.101063676 -0.043164767 0.0019273304 0.16258498 0.052524984 0.057902202
0.09939508 -0.032025848 0.07714321 0.05689466 -0.025020666 -0.09765075 0.24195082 0.15781274
-0.12058216 -0.1550727 -0.12960485 -0.04628972 0.1595605 -0.0044147307 0.15335573 -0.33416066
0.18656859 -0.018234342 -0.30672318 0.1397452 0.16280983 0.20013566 0.27962214 0.20468196
-0.012378302 0.12223529 0.12106535 -0.13006024 -0.14541614 0.22620077 0.009912334 0.081251025

decoder.4.weight f4 [128, 64]
00000000: 904f 88bd e2e5 2c3d 3ddf 95be 38c4 07be
00000010: 2f2a 343d cef0 04bd da1d eebd 9964 e73d
00000020: 933c a3bd d793 ba3d ddf6 a4bc 44f9 633d
00000030: 4f02 e1bc 4a11 8fbb 06ef 073d 7fba 063e
00000040: 498f 003d d185 a83d faa4 133d 34f9 66bd
00000050: f61a a7bc 1f8a 0fbe c745 143d 2951 973c
00000060: 6005 2d3c 802d 8d3d c84e ae3c 1c43 9c3d
00000070: 0d4e 58bd b7b8 8f3c dce3 a83c 3b47 483d
00000080: b279 b2bd 4446 1cbe 89d9 24bd 7596 f03d
00000090: b2de b53d 4ae7 a23c 013a 803d 0269 a03c
000000a0: acc2 63bd 8cda 11bd c060 b73d e731 01bd
000000b0: 27c0 2b3c a1ae 593e 387c 95bd 4b2f 973d
000000c0: 1819 a73c 2e22 62be 7049 573d 6ab6 1c3e
000000d0: f459 bb3d f085 353c 1f8b ae3a c26f 6ebd
000000e0: d77d d53d f664 15be 1ed5 583c a78b cdbd
000000f0: 38f3 1d3d ab66 0fbd 4007 0dbe 5b69 c2bd
00000100: 5d0d 8d3d 2f02 9dbd d30f 9dbe 4df5 b6bd
00000110: 2ae4 a2bd 3a21 98bd dd0f 7fbd 9a8a 093d
00000120: abc6 563d 664c 9a3d c871 913d e846 973d
00000130: 6902 df3d 7344 ec3d 316a 6bbd d33a 2ebd
00000140: 63c1 45be 99b5 eb3d e7e7 a03d 6be1 2cbe
00000150: c9fa 893d 2b76 02bd 3ee5 213c 484c 99bd
00000160: c7c3 3b3e 8399 353e 3eb5 1fbd 6ce9 32bd
00000170: bbc8 573d 691c b3bb b9bd f13d c0de 7e3d
00000180: e20d 193e e67e 12be 3848 edbd 1904 2d3e
00000190: f4d0 d33d 39f9 db3c 3f70 db3e a203 9abd
000001a0: 6d97 1abe 7705 3ebe 2fd1 adbc 9c8f 2c3d
000001b0: 394f 143e ee70 833c 8753 09be 34e5 39be
000001c0: 60ef b7bd 4626 41be c36f 9ebd f003 7d3d
000001d0: 6e98 a1bd 1fc1 d33d 7573 cc3b 72b5 f9bd
000001e0: a0a0 2a3d 1c89 58be b380 683b a608 1d3d
000001f0: 8a2e cb3b 3889 f2bb f6eb 083d 92ba 22be
00000200: a8aa 18bd a80f a3bd 0acc c9bd 7e53 aa3d
00000210: 50de b63d a09f f8bd 04ed 29bd 3c0b f83d
00000220: 1c24 51bd 8080 833d d45e 1cbd ca61 97bd
00000230: b6d8 f2bd 7629 883d c4ad fa3d 6cca 483d
00000240: 40a1 27bb b421 283d 7e7c ba3d 0625 9fbd
00000250: f079 c73d 6ee8 8ebd 2220 93bd cc6a ea3d
00000260: 6c98 a13d 8001 2d3b 202b c5bb 6c22 a03d
00000270: ac59 fe3d c024 af3c fe28 abbd 809c 213b
00000280: 2261 e1bd c056 4fbd b4c7 74bd 9492 eebd
00000290: ce05 d0bd bc07 e9bd 3276 a4bd e8b0 9cbd
000002a0: 768e c5bd 2ac1 c63d 56e9 aebd d857 c83c
000002b0: 724b d43d dc6c 9fbd 005c 253a e265 a13d
000002c0: b4d8 c5bd 4002 fbbc c84d a43d 2c66 bebd
000002d0: cac9 f63d 7cc3 cc3d 3015 433d 60db 693c
000002e0: d668 bdbd 52bc e9bd c4ed cfbd 783e f63c
000002f0: 509b 5e3d 04eb 453d 90ba f5bc 1c82 4abd
00000300: a46c d9bc f5a1 13bd d24e 593e dcf0 2f3d
00000310: 465a fc3d 3ed9 aeb9 170f 0f3e e852 7f3d
00000320: 74a4 20bc 1aef 4039 f092 e6bd 8ee8 59bc
00000330: 31cd cd3b 4807 debd 5435 8dbd 671c 14bd
00000340: 9524 d4bc 73dd 8b3b c075 a0bb fe79 ff3d
00000350: 0b4e 8abd eae2 d43d 0511 073e 0d52 35bd
00000360: 726f 59bc 2f27 fcbd 29f5 393d 94a6 f93d
00000370: 3f21 92bd c695 2d3c e421 4a3c ebf9 753d
00000380: c692 bebd 5772 44be c5da fa3d e3a7 093d
00000390: cbc5 24be eb7b 46be 9ac4 66bd d11c 603e
000003a0: aeb3 c83d db3e 483d 882f 443d 6831 03be
000003b0: 7884 f5bb 40ce cc3b b79e 03bd 90c7 78bd
000003c0: 32c1 a53c eacb 4b3d e5f9 84be ae43 fa3d
000003d0: bd50 c73c cf5e 00bd d192 acbd 3aee e2bc
000003e0: 953e 9cbd 265e 92bd 185d febc 1f85 473e
000003f0: a58c 993b afa8 7e3d e9ef 963d a26c 193e
-0.066558 0.04221142 -0.2927188 -0.13258445 0.043985542 -0.03245621 -0.116267875 0.11298484
-0.07970538 0.091102295 -0.020137245 0.05565764 -0.027466921 -0.0043660747 0.033186935 0.1315708
0.031386647 0.082286485 0.036046006 -0.056390002 -0.020398598 -0.14017533 0.036199357 0.018471317
0.0105603635 0.06893444 0.0212778 0.076299876 -0.05280881 0.017544134 0.020616464 0.048896056
-0.08714618 -0.15261179 -0.04024652 0.117474474 0.088803664 0.019885678 0.06261063 0.019581322
-0.055605575 -0.035608813 0.089540005 -0.03154173 0.010482824 0.21258022 -0.072990835 0.07382067
0.020397708 -0.22083351 0.05256027 0.1530396 0.091480166 0.0110792965 0.0013316608 -0.05821205
0.10424393 -0.14589295 0.013234405 -0.10036402 0.03856203 -0.03501002 -0.13772297 -0.09492751
0.068873145 -0.07666432 -0.30676135 -0.08933506 -0.07953675 -0.074282125 -0.062270988 0.033579446
0.05243556 0.07534103 0.0710178 0.07386571 0.108891316 0.11536493 -0.05747432 -0.042536568
-0.19312052 0.115092464 0.07856732 -0.16882865 0.067372866 -0.031850975 0.009881316 -0.074852526
0.18336402 0.17734341 -0.038991205 -0.04367964 0.052681666 -0.0054660332 0.11803765 0.06222415
0.14946702 -0.1430622 -0.1158604 0.16896094 0.10342589 0.026852237 0.42859074 -0.07520224
-0.15096827 -0.18556772 -0.02121791 0.042129144 0.14483346 0.01604506 -0.1341077 -0.1815384
-0.08981204 -0.18862256 -0.077361606 0.061771333 -0.07890402 0.10339569 0.0062393495 -0.12192811
0.04165709 -0.21146053 0.0035477101 0.038338326 0.0062006162 -0.0074016117 0.033428155 -0.15891483
-0.037272125 -0.079619706 -0.098533705 0.08316706 0.089291215 -0.12139821 -0.0414858 0.12111518
-0.051059827 0.06420994 -0.038176373 -0.07391699 -0.118577406 0.06648533 0.122401744 0.04902117
-0.002557829 0.041047767 0.09105776 -0.077707335 0.097400546 -0.06977926 -0.07183863 0.11446151
0.078904 0.00263986 -0.006017104 0.078190655 0.12419447 0.021379828 -0.08357428 0.0024659932
-0.11004855 -0.05061984 -0.059760764 -0.11649051 -0.10157357 -0.11378428 -0.080303565 -0.0765093
-0.09646313 0.09704812 -0.08540599 0.02445595 0.103659526 -0.07784435 0.00063079596 0.07880761
-0.096604735 -0.030640721 0.08022648 -0.092968315 0.12050207 0.09998223 0.047627628 0.0142734945
-0.092485115 -0.114128724 -0.10152772 0.030059084 0.054347336 0.04831983 -0.029996186 -0.04944049
-0.026541062 -0.036043126 0.21221474 0.04295431 0.12321906 -0.00033349724 0.139706 0.062334925
-0.009804834 0.00018399619 -0.11258495 -0.013300074 0.0062805642 -0.108412325 -0.06894937 -0.0361599
-0.02589635 0.004268342 -0.0048968494 0.1247444 -0.06753167 0.10394843 0.13190086 -0.044267703
-0.0132712 -0.12312161 0.04539982 0.121899754 -0.071352474 0.010594791 0.012337182 0.060052793
-0.093053386 -0.19184242 0.12248758 0.033607375 -0.16091077 -0.19383208 -0.056339838 0.21885993
0.09799896 0.04888807 0.04789689 -0.12811816 -0.007492598 0.006250173 -0.032133784 -0.060737193
0.020233724 0.049755014 -0.25971904 0.1221994 0.024330491 -0.031340417 -0.084264405 -0.027701486
-0.07629124 -0.07146864 -0.03105025 0.19484375 0.0046859556 0.062172588 0.07369978 0.14982846

decoder.4.bias f4 [128]
00000000: 7594 2a3d f970 b73d 18f9 c8bc 0e4b 83bc
00000010: 69a3 01bc f2d3 d7bd ee4c fa3d c6fa 043e
00000020: 0c8f b5bd 56d3 a93c 4ce6 5c3a f8e5 e6bc
00000030: c5ce 0c3e 4cac 163e b819 8bbd 68c6 2cbc
00000040: e0b8 303e 582b 753d f8d7 d03c 34fa c0bc
00000050: 1504 9dbc 7217 36bd 9b86 c3bd 9fdf 75bd
00000060: cf5c a73c ab43 a43d 502e dd3c e9ad b13d
00000070: 4e20 0abe f257 183c 9eeb 73bc 3c29 04bd
00000080: fb55 0a3e f05d 063e e7e3 dfbc cb82 31bd
00000090: 22db 4c3d 8bc8 003e 0361 083e 20ab 213e
000000a0: 9997 1d3e 86f1 1e3c 9a3b d7bd 5e68 183d
000000b0: 2158 00be 5f7b 483e 82ff 8e3d 8023 173c
000000c0: ce95 2d3a 77a8 a73d 9b58 f3ba 013a 94bd
000000d0: 2624 0abd 6573 163e 0a96 2f3d e609 153e
000000e0: b7e8 0a3d a81c 1fbb 1b89 6a3b 95a3 023e
000000f0: 3d68 a23d f008 7e3d c6a2 49bd a0ce 63be
00000100: 8133 643d 1608 7fbe 3fe6 153e b6da 163e
00000110: 4096 c8bb d8db 063e 302c 45bd a9ad 1d3e
00000120: 7288 ac3d cbd7 e2bd ad87 c33c 5743 9f3d
00000130: c01d b63d f8ac 8dbe ea3a 053e fd90 10be
00000140: 93c6 58bd 1fa2 043e 0faf 2fbe ba1a cdbb
00000150: b459 c63d 12cf d8bd 0cc5 113e 6ab6 1c3e
00000160: cc08 2a3e 0f96 e5bd e068 413d 61cf 4d3e
00000170: 2f09 a73d f80f f0bd 7ca9 ee3b 5162 aa3c
00000180: 0404 eb3d e15f 2ebe c0a6 f4bd 05bd 27bd
00000190: 8b3a a13d bf4d d23d 1a8b d83d 23bf f5bd
000001a0: 1cdb 163e 6f98 893b d129 b4bd c4ea 7ebd
000001b0: bf7f 543d dc46 1d39 d363 c73d d917 62bd
000001c0: 1bbf 633d b83e 5d3d d4eb 9fbd 7955 bebc
000001d0: 71b7 5abc e44e af3d 0537 623c a8cb 4abd
000001e0: 3247 223e 9561 a43d 3517 13bc 57f9 aabd
000001f0: e1d6 51bc 898b db3d c92a 173c c927 d7bd
0.041645486 0.08957095 -0.02453284 -0.016027 -0.007912495 -0.10538472 0.122217044 0.12986287
-0.08865175 0.020730656 0.0008426651 -0.02818583 0.13750751 0.14714164 -0.06792015 -0.010545351
0.17258024 0.05985579 0.025493607 -0.023556806 -0.019166986 -0.044455953 -0.09547158 -0.060027715
0.020429997 0.08020719 0.026999623 0.08675749 -0.13488886 0.009298312 -0.0148877185 -0.032265887
0.13509361 0.13121772 -0.027330352 -0.043337625 0.05001367 0.12576501 0.13318257 0.15787935
0.15389861 0.009701138 -0.10509415 0.037208907 -0.12533619 0.19578312 0.06982328 0.009224772
0.0006621749 0.08186429 -0.0018565835 -0.07237626 -0.03372588 0.14692457 0.042867698 0.14554557
0.03391334 -0.0024278555 0.0035787288 0.12757714 0.07930038 0.062020242 -0.0492275 -0.2224679
0.05571318 -0.24905428 0.14638613 0.14731869 -0.006121427 0.13169801 -0.048137844 0.15398277
0.084244624 -0.110763155 0.023868406 0.07776516 0.08892393 -0.27671027 0.13010755 -0.14117809
-0.05292375 0.1295247 -0.17156623 -0.0062592896 0.09685078 -0.105863705 0.14235324 0.1530396
0.16604918 -0.11210262 0.047219157 0.2009864 0.081560485 -0.11721796 0.0072833877 0.020798834
0.11475375 -0.17028762 -0.119458675 -0.040951747 0.07872494 0.10268735 0.105734065 -0.11999347
0.14732021 0.0041990797 -0.08797038 -0.06223561 0.05187964 0.00014999084 0.09735837 -0.055198524
0.055602174 0.05401489 -0.078086525 -0.023234116 -0.0133494 0.08559969 0.013807063 -0.049510628
0.15847471 0.08026425 -0.008977701 -0.08348339 -0.012807579 0.107199736 0.009226509 -0.10505635
