Save_Models/model-lat17.pth (torch, 195126 bytes, 16 tensors)

encoder.0.weight f4 [128, 99]
0.011546924 -0.0014494186 -0.058313243 -0.084828824 -0.036695514 -0.025106907 -0.011495356 -0.12414048
-0.13972354 0.008821164 -0.08827844 0.0060993247 0.055364687 -0.036448896 -0.11403027 -0.053186253
-0.112242475 -0.094472215 -0.07430024 -0.1185939 0.019598603 0.03246593 0.073347345 -0.04921569
-0.112753026 0.06937378 0.014015521 -0.0035143264 0.023215033 0.08973958 -0.102514364 0.031387147
-0.04044194 0.048157204 0.050878428 -0.080771595 0.05781577 0.061590772 0.07070521 0.09780919
0.033395905 0.006900491 -0.0014403581 -0.06559521 0.04999779 -0.012357748 -0.06265455 0.03168388
-0.03625029 0.10542794 -0.049058843 0.08661824 0.0051462557 0.047540735 0.10924283 0.04437099
0.011272657 -0.0033331953 -0.04986337 0.09302529 0.06720788 -0.008249938 -0.018471822 0.06676401
-0.036366012 -0.0077039194 -0.008570277 3.054156e-06 -0.050861217 -0.079193436 0.062671475 0.090805024
0.095999956 0.041114274 -0.007797756 -0.07411164 0.048753813 0.07160234 -0.029493477 0.06270178
0.10234999 0.005587621 -0.052258477 0.104292326 0.09672177 0.03937424 0.024875144 -0.047719084
0.11534106 0.07481536 0.029251002 0.09296685 -0.07824227 0.0033454034 0.047317106 -0.047487214
-0.02507497 -0.085159205 -0.048753884 0.0018568118 -0.071083345 -0.052544855 0.07733144 -0.06757311
0.005398282 -0.00010031363 -0.03166619 -0.0028866883 -0.07015788 0.02081541 0.10201794 0.052693184
0.1025672 -0.048307974 0.100020915 -0.003451396 0.019046776 0.03586635 -0.023180502 -0.02285533
0.11635208 0.103057995 0.007978276 0.009405625 -0.0024267319 0.042590298 0.058122214 -0.0651534
0.08058448 0.09276433 0.06560517 -0.009657317 0.13268167 0.028866924 0.13169591 0.11559708
0.11496812 -0.06577988 0.059798185 0.030267693 0.012638671 0.08162769 0.08189749 -0.052861102
0.022223027 -0.03189676 0.012828749 -0.053855266 -0.010824896 0.04324148 0.098725244 0.022220612
-0.056459464 0.0025500604 -0.025429748 -0.012997786 -0.06251825 -0.02560805 0.055772047 0.05119519
-0.0468531 0.015235732 0.08263883 0.016625462 -0.067959264 -0.073870875 0.018397052 -0.038613472
-0.05307866 -0.0028346267 -0.057720963 -0.03245169 0.045379676 -0.0166705 -0.011585826 -0.0179273
0.05963847 0.010129787 0.06699208 0.0202149 -0.09795693 0.032580882 -0.068480045 -0.12062775
0.020925768 0.011285857 0.07154305 0.06500734 0.045439247 0.014398748 -0.0712698 -0.07078277
-0.015284261 -0.010335939 -0.07969504 -0.0809414 -0.13682991 -0.027796872 -0.08203746 -0.10227722
-0.037094615 0.051227737 0.0488232 -0.0035170058 0.027131755 0.051548976 0.025814038 0.0357628
-0.06995265 -0.054365203 0.041880965 -0.09665369 0.08325485 0.026880566 -0.082060575 -0.032386534
-0.01945977 -0.052777715 -0.07018157 -0.029881299 0.07688063 0.023781814 0.057253886 0.06394314
-0.021618992 0.0022808537 -0.090652905 -0.04521877 0.01053756 -0.09468683 -0.053468417 -0.056331474
-0.1024046 -0.022226367 -0.07273006 0.021504633 -0.114589214 0.035750207 -0.09116363 -0.09730336
-0.05511726 0.07936204 0.045732107 -0.114250116 -0.07599954 0.05508674 0.03761899 -0.08923656
0.012775797 -0.09828782 0.03148161 -0.08650544 -0.027524278 0.059722237 -0.025718076 -0.009374071
00000000: 4f2f 3d3c 6bfa bdba ded9 6ebd bcba adbd
00000010: 094e 16bd 00ad cdbc 0557 3cbc 5d3d febd
00000020: b013 0fbe a586 103c 54cb b4bd d8dc c73b
00000030: 15c6 623d 704b 15bd b488 e9bd d4d9 59bd
00000040: 62df e5bd a67a c1bd b92a 98bd 5ce1 f2bd
00000050: 408d a03c fffa 043d 2237 963d 6496 49bd
00000060: 0feb e6bd d713 8e3d 5ba1 653c 9d50 66bb
00000070: 742d be3c 63c9 b73d 0df3 d1bd cf8f 003d
00000080: 73a6 25bd 7d40 453d e665 503d 946b a5bd
00000090: 3bd0 6c3d 9b46 7c3d e5cd 903d 2f50 c83d
000000a0: 25ca 083d 841d e23b 66ca bcba c856 86bd
000000b0: 7cca 4c3d 2778 4abc 0751 80bd f5c6 013d
000000c0: 2f7b 14bd 9bea d73d edf1 48bd e764 b13d
000000d0: eca1 a83b 13ba 423d b4ba df3d 5bbe 353d
000000e0: f3b0 383c bd71 5abb 883d 4cbd 0b84 be3d
000000f0: 49a4 893d bf2a 07bc 3852 97bc 92bb 883d
00000100: 87f4 14bd 2971 fcbb 596a 0cbc 00f6 4c36
00000110: da53 50bd 2b30 a2bd e759 803d fcf7 b93d
00000120: a09b c43d 7167 283d 5284 ffbb d8c7 97bd
00000130: 14b2 473d 3fa4 923d 4e9c f1bc ca69 803d
00000140: df9c d13d 5d18 b73b fc0c 56bd 3797 d53d
00000150: 1016 c63d e246 213d f5c6 cb3c 1675 43bd
00000160: ef37 ec3d cc38 993d cc9f ef3c 6765 be3d
00000170: 7c3d a0bd 8e3e 5b3b 95cf 413d f481 42bd
00000180: 066a cdbc f367 aebd 27b2 47bd 4460 f33a
00000190: 2594 91bd 4639 57bd f25f 9e3d c563 8abd
000001a0: 12e4 b03b 785f d2b8 68b4 01bd 982e 3dbb
000001b0: efae 8fbd 1485 aa3c c8ee d03d cfd4 573d
000001c0: c10e d23d 95de 45bd c4d7 cc3d d130 62bb
000001d0: fc07 9c3c 98e8 123d 09e5 bdbc 1a3b bbbc
000001e0: 004a ee3d 1210 d33d 51b7 023c 0d1a 1a3c
000001f0: ce09 1fbb 2a73 2e3d 8f11 6e3d 256f 85bd
00000200: 7a09 a53d 3afb bd3d 015c 863d b939 1ebc
00000210: b4dd 073e 547a ec3c 4bdb 063e 29be ec3d
00000220: 6874 eb3d 9ab7 86bd f1ee 743d f4f3 f73c
00000230: 6e12 4f3c 6b2c a73d dfb9 a73d e284 58bd
00000240: 110d b63c 2da6 02bd ac2f 523c 5797 5cbd
00000250: e85a 31bc fa1d 313d 7630 ca3d 0008 b63c
00000260: 0a42 67bd ea1e 273b 0c52 d0bc aaf4 54bc
00000270: 9109 80bd f9c7 d1bc 3b71 643d 0cb2 513d
00000280: 09e9 3fbd 4b9f 793c 8c3e a93d 1f32 883c
00000290: 3a2e 8bbd 9d49 97bd 6ab5 963c 2929 1ebd
000002a0: 0269 59bd 25c5 39bb d16c 6cbd 10ec 04bd
000002b0: 0ae0 393d 9390 88bc 7ad2 3dbc 46dc 92bc
000002c0: 7847 743d 68f7 253c 2533 893d b899 a53c
000002d0: a59d c8bd 8873 053d 443f 8cbd af0b f7bd
000002e0: 846c ab3c 51e8 383c 2a85 923d 9122 853d
000002f0: 811e 3a3d bae8 6b3c e7f5 91bd 8ff6 90bd
00000300: d66a 7abc 1258 29bc 2737 a3bd 9bc4 a5bd
00000310: 241d 0cbe 44b6 e3bc 4103 a8bd b876 d1bd
00000320: 86f0 17bd 2dd4 513d d6fa 473d 917d 66bb
00000330: 6a43 de3c 0525 533d f677 d33c 047c 123d
00000340: 5643 8fbd 0cae 5ebd 608b 2b3d 5ff2 c5bd
00000350: 8581 aa3d a234 dc3c 600f a8bd bea7 04bd
00000360: 186a 9fbc 722d 58bd 5bbb 8fbd a0c9 f4bc
00000370: 9773 9d3d 14d2 c23c 0d83 6a3d 9ff4 823d
00000380: 501a b1bc 607a 153b 3ba8 b9bd 5137 39bd
00000390: bba5 2c3c 2beb c1bd b301 5bbd d5bb 66bd
000003a0: 81b9 d1bd 1214 b6bc 7ff3 94bd 7c2a b03c
000003b0: c0ad eabd cf6e 123d ffb3 babd fc46 c7bd
000003c0: a3c2 61bd 9188 a23d 9751 3b3d f7fb e9bd
000003d0: a6a5 9bbd a2a2 613d 5f16 1a3d a8c1 b6bd
000003e0: 9451 513c 204b c9bd dcf2 003d c429 b1bd
000003f0: 987a e1bc 4e9f 743d b7ae d2bc b495 19bc

encoder.0.bias f4 [128]
-0.04464211 -0.06579421 0.02554148 -0.16782553 -0.20217915 -0.080551155 -0.07578234 -0.12184857
-0.0900306 -0.20584612 -0.25372732 -0.00047972862 -0.019894661 -0.051688604 -0.17063461 -0.17026502
0.0186086 -0.124196 -0.019406483 -0.16545646 -0.10739826 -0.28566474 -0.23107933 -0.11580879
-0.06288081 -0.16029371 -0.095227115 -0.041207504 -0.006902795 -0.026602421 -0.07317934 -0.2883122
-0.021079926 -0.26858193 -0.23046969 0.023694735 -0.15816744 -0.08335236 0.062340822 -0.17828892
0.11436333 -0.10867416 -0.1110095 -0.21745609 -0.108016975 -0.056756075 -0.21546449 -0.2560629
-0.013912376 -0.19853793 -0.11901643 0.027859224 -0.055771276 -0.016632235 -0.0075225346 -0.16051911
-0.063964 -0.033633225 -0.13690056 -0.0124521945 -0.051759977 -0.08199135 -0.07859988 0.0013320022
-0.21040455 0.0043014 -0.15390311 -0.17347781 -0.16726443 -0.13683474 -0.060469516 -0.12848586
-0.14647636 -0.26660842 -0.20334929 -0.13362584 -0.07497408 -0.16400656 -0.055738356 -0.120379776
-0.14865716 0.059703816 -0.12920904 -0.39262286 0.23669606 -0.16882016 -0.18163003 -0.10708758
-0.11315254 -0.15052766 0.012659124 0.06977333 -0.13808133 -0.12132183 -0.17248197 0.09023692
-0.030223005 -0.069862194 -0.17977725 -0.24060407 -0.17494923 0.025417915 -0.035337076 -0.19316962
-0.0030058315 -0.15333496 -0.029905615 -0.05994296 0.023995658 -0.08596033 0.032613978 -0.2270529
-0.063821875 -0.039047528 0.10638672 -0.13110583 -0.054575223 -0.11363671 -0.055280566 -0.21858695
-0.116640106 -0.1792711 0.089995585 -0.2164367 -0.15792169 -0.21788721 0.21614833 -0.07960313
00000000: a5da 36bd 1dbf 86bd 5e3c d13c 75da 2bbe
00000010: 0d08 4fbe 01f8 a4bd c533 9bbd be8b f9bd
00000020: f761 b8bd 53c9 52be 8ce8 81be 1684 fbb9
00000030: 21fa a2bc 6eb7 53bd d7ba 2ebe f459 2ebe
00000040: 1071 983c 795a febd 58fa 9ebc 6b6d 29be
00000050: 9ef3 dbbd a642 92be 0fa0 6cbe 292d edbd
00000060: a7c7 80bd 0924 24be 6f06 c3bd 33c9 28bd
00000070: d730 e2bb 52ed d9bc 0ddf 95bd a89d 93be
00000080: cfaf acbc 9283 89be 3f00 6cbe 761b c23c
00000090: a5f6 21be a4b4 aabd 1759 7f3d 5f91 36be
000000a0: 5237 ea3d 8f90 debd f358 e3bd cfac 5ebe
000000b0: 0138 ddbd 0f79 68bd b9a2 5cbe ad1a 83be
000000c0: bcf0 63bc 874d 4bbe e3be f3bd 0739 e43c
000000d0: 6c70 64bd 5340 88bc 987f f6bb 1f5f 24be
000000e0: 8fff 82bd fec2 09bd a92f 0cbe 4a04 4cbc
000000f0: 4502 54bd 15eb a7bd f9f8 a0bd 9496 ae3a
00000100: 4a74 57be c2f2 8c3b c798 1dbe 2ba4 31be
00000110: 5e47 2bbe 681e 0cbe e2ae 77bd cc91 03be
00000120: e6fd 15be e680 88be cc3a 50be 36d5 08be
00000130: 038c 99bd 56f1 27be e74d 64bd ac89 f6bd
00000140: 9539 18be fd8b 743d 604f 04be dd05 c9be
00000150: 7460 723e 31df 2cbe 39fd 39be bc50 dbbd
00000160: 85bc e7bd ec23 1abe 3768 4f3c 52e5 8e3d
00000170: 3165 0dbe 9477 f8bd 1d9f 30be 22ce b83d
00000180: 3c96 f7bc e913 8fbd 8717 38be ea60 76be
00000190: e425 33be 3b39 d03c 9cbd 10bd 42ce 45be
000001a0: 7cfd 44bb d703 1dbe 9ffc f4bc c086 75bd
000001b0: 8b92 c43c f80b b0bd 3c96 053d 8e80 68be
000001c0: 0bb5 82bd 4df0 1fbd 48e1 d93d 9b40 06be
000001d0: 458a 5fbd 5dba e8bd e06d 62bd 42d5 5fbe
000001e0: 02e1 eebd d892 37be 9b4f b83d 95a1 5dbe
000001f0: 39b6 21be d31d 5fbe fd55 5d3e f706 a3bd

encoder.3.weight f4 [64, 128]
0.055360217 -0.07297448 -0.056700755 -0.08905373 -0.102897905 -0.034905784 0.01774195 -0.013754204
-0.012600056 -0.115315355 -0.017071731 -0.052241426 0.02028498 -0.07597753 -0.07445182 -0.010899109
0.0951563 -0.019513944 -0.002437917 0.036237616 -0.04022913 -0.023191232 0.01667856 0.023870958
0.034424026 0.026758533 0.047644276 -0.08380021 0.063258834 -0.0015128262 -0.09479753 -0.020897789
0.0266967 -0.0009041072 -0.084492 0.030353187 -0.047108095 -0.039126147 0.029256584 0.01319954
0.021869605 -0.060511008 -0.0821233 -0.09838177 0.009162338 0.0831293 0.026116708 -0.11215447
-0.044623304 -0.022251518 0.025757352 -0.00549963 -0.02002581 0.0925087 -0.084591925 0.09346945
0.09056497 -0.06948851 -0.04779855 0.013779069 0.06803397 0.010315217 -0.020819744 0.08927506
0.03325699 -0.039228708 -0.06355498 -0.0005854936 -0.054505125 -0.04698176 0.0728842 0.07306596
-0.05280325 -0.02408469 -0.022155397 0.08812725 0.029666636 0.018484436 0.00023803022 -0.102998376
0.015265574 -0.07219 0.004193839 -0.05390455 0.04560909 0.015209844 -0.037151225 -0.074810855
0.019540796 0.05738078 -0.016731102 0.052321687 -0.032991532 0.045605276 0.05932861 -0.10618581
0.07683442 -0.060438894 0.093835406 -0.0067018406 0.0140157305 0.04976267 0.06224334 0.081595875
0.09426525 0.08703612 -0.0029049441 -0.021662025 -0.04026971 -0.08991679 0.005967023 0.0015319446
-0.04791572 0.08939348 -0.045779042 0.027238118 -0.0998482 0.09193642 -0.04230953 0.0043198746
-0.1154209 -0.011067913 -0.0011058343 0.04325505 -0.051910546 0.033400685 0.008866206 0.057388604
0.09732591 0.047186162 -0.05465008 -0.09040305 -0.026411163 0.036882456 -0.018745849 -0.004022097
-0.06114074 -0.051686466 0.021687042 0.054059222 -0.13382754 -0.03247832 -0.109316975 -0.033844315
0.075892255 -0.12005696 -0.056868363 0.037379485 0.11491779 -0.064494215 0.07089231 -0.097956635
-0.06917043 -0.004837377 0.079152375 0.027423138 0.0828768 -0.023307916 -0.1663656 0.06797576
0.06085475 0.055756293 -0.11498965 -0.036752414 0.036417264 -0.03124136 0.0077864123 -0.015839003
-0.048206203 0.04941058 -0.03625242 -0.17164542 -0.11978866 0.042023256 0.039312866 -0.059412133
0.029561002 0.106083825 0.010031566 0.00883873 -0.0729473 0.053594455 -0.03261356 -0.047573645
-0.03688483 0.014895649 0.0332267 0.0588746 -0.038761284 -0.032554597 -0.05307723 0.069317475
0.070714004 -0.019346662 -0.006968477 -0.009410904 -0.008404322 -0.017722506 0.09883371 0.048751224
0.003749089 -0.019719413 -0.19893232 0.028791046 -0.047435578 0.07518504 0.08459691 -0.03500583
-0.036627598 -0.005245394 -0.09591169 -0.11501936 -0.12751241 0.07621888 0.022793222 -0.0048622075
-0.12391278 0.019671712 -0.0147701 -0.07533154 -0.030192913 0.00797338 0.059963662 -0.06666652
0.07075179 0.0008306859 0.015976606 0.040091116 -0.009048486 0.064384684 0.020163553 0.08791046
0.0037033889 -0.05377514 -0.05441065 -0.032124292 0.014565947 -0.096077055 0.029990831 0.051979855
0.065473504 -0.029815005 -0.06278104 -0.036800213 -0.08539104 0.04315594 -0.085091755 0.11044133
0.0059043886 0.0744031 -0.04002549 -0.18521395 -0.19393657 0.105607636 0.029881962 -0.051364593
00000000: 65c1 623d a573 95bd 0d3f 68bd cd61 b6bd
00000010: 23bc d2bd 5ef9 0ebd 9157 913c 5059 61bc
00000020: 7770 4ebc 752a ecbd 04da 8bbc 1bfb 55bd
00000030: b02c a63c 1b9a 9bbd 327a 98bd 2d92 32bc
00000040: 4ee1 c23d b5db 9fbc 76c5 1fbb e56d 143d
00000050: 4dc7 24bd 8afb bdbc 7aa1 883c 078d c33c
00000060: 3500 0d3d b634 db3c a526 433d 729f abbd
00000070: d98d 813d 064a c6ba 3525 c2bd d731 abbc
00000080: 0ab3 da3c 9b01 6dba 240a adbd 3fa7 f83c
00000090: 6bf4 40bd bd42 20bd 81ab ef3c e242 583c
000000a0: e327 b33c 64da 77bd 4330 a8bd 627c c9bd
000000b0: a21d 163c b23f aa3d b5f2 d53c 3eb1 e5bd
000000c0: edc6 36bd d148 b6bc 1501 d33c 3d36 b4bb
000000d0: 2b0d a4bc 3475 bd3d 883e adbd e96c bf3d
000000e0: 217a b93d fe4f 8ebd 6ac8 43bd 9bc1 613c
000000f0: 6555 8b3d 2801 293c 2b8e aabc d8d5 b63d
00000100: 7b38 083d 48ae 20bd 1d29 82bd cf7b 19ba
00000110: c440 5fbd f26f 40bd 5044 953d 9ba3 953d
00000120: 3848 58bd 414d c5bc 3c7f b5bc 0f7c b43d
00000130: 7207 f33c ac6c 973c c097 7939 d0f0 d2bd
00000140: 751c 7a3c 5ad8 93bd 796c 893b 04cb 5cbd
00000150: 99d0 3a3d b632 793c e22b 18bd 6f36 99bd
00000160: 0514 a03c 1c08 6b3d aa0f 89bc 444f 563d
00000170: 2122 07bd 99cc 3a3d 8e02 733d f277 d9bd
00000180: 5d5b 9d3d c68e 77bd c72c c03d 1d9b dbbb
00000190: 3ca2 653c f1d3 4b3d dff2 7e3d bd1b a73d
000001a0: 240e c13d fe3f b23d e060 3ebb 8f74 b1bc
000001b0: daf1 24bd 4b26 b8bd 0487 c33b 88cb c83a
000001c0: 4643 44bd ee13 b73d ce82 3bbd 7922 df3c
000001d0: 377d ccbd 2949 bc3d c24c 2dbd bc8d 8d3b
000001e0: cb61 ecbd 3156 35bc a4f1 90ba 352c 313d
000001f0: 27a0 54bd 28cf 083d 9043 113c 5010 6b3d
00000200: cf52 c73d 4746 413d c3d8 5fbd 3c25 b9bd
00000210: 395c d8bc 0f12 173d e590 99bc cccb 83bb
00000220: b66e 7abd 30b5 53bd 06a9 b13c 346d 5d3d
00000230: 160a 09be fd07 05bd 94e1 dfbd 56a0 0abd
00000240: 666d 9b3d 6ce0 f5bd cdee 68bd 3b1b 193d
00000250: 055a eb3d 8b15 84bd fd2f 913d 7d9d c8bd
00000260: 3aa9 8dbd dc82 9ebb a41a a23d 7da6 e03c
00000270: 50bb a93d 3ef0 bebc be5b 2abe e036 8b3d
00000280: d542 793d b660 643d b27f ebbd b389 16bd
00000290: 452a 153d e1ed ffbc 2925 ff3b ccc0 81bc
000002a0: de73 45bd c062 4a3d 6b7d 14bd d1c3 2fbe
000002b0: c253 f5bd 9420 2c3d 8706 213d 235a 73bd
000002c0: ea29 f23c 7a42 d93d 705b 243c 52d0 103c
000002d0: 6565 95bd dc85 5b3d cc95 05bd 95dc 42bd
000002e0: 8c14 17bd e10c 743c b818 083d 7e26 713d
000002f0: 27c4 1ebd f857 05bd 8267 59bd 52f6 8d3d
00000300: 81d2 903d e47c 9ebc d257 e4bb 3130 1abc
00000310: 48b2 09bc ca2e 91bc 5469 ca3d 5daf 473d
00000320: 47b3 753b 9b8a a1bc eab4 4bbe 33db eb3c
00000330: cf4b 42bd 9dfa 993d 2541 ad3d 4662 0fbd
00000340: d206 16bd 8ee1 abbb 596d c4bd 458f ebbd
00000350: 9d92 02be a518 9c3d dab8 ba3c 2753 9fbb
00000360: fcc5 fdbd 9226 a13c 4afe 71bc 6c47 9abd
00000370: 2157 f7bc c8a2 023c 759c 753d 7588 88bd
00000380: 51e6 903d 63c2 593a 5fe1 823c 9536 243d
00000390: 1a40 14bc 1edc 833d 092e a53c 660a b43d
000003a0: 8eb4 723b 5243 5cbd b4dd 5ebd c394 03bd
000003b0: 03a6 6e3c 0cc4 c4bd 55af f53c d4e8 543d
000003c0: f916 863d 993e f4bc 5993 80bd d2bb 16bd
000003d0: 7fe1 aebd 48c4 303d 9644 aebd 102f e23d
000003e0: 9a79 c13b a760 983d c5f1 23bd baa8 3dbe
000003f0: 4f97 46be d148 d83d 04cb f43c ae63 52bd

encoder.3.bias f4 [64]
-0.06330567 -0.054938413 -0.019554177 -0.025395088 0.023625296 -0.13555183 -0.12065848 -0.12067808
-0.027711943 -0.03531298 0.03961611 0.03602285 -0.01882663 0.037201736 -0.009897248 -0.26147756
-0.07096488 -0.22068353 -0.03264194 -0.084060915 -0.09457545 -0.1430413 -0.108001746 -0.012290922
-0.07695007 -0.061311167 -0.1320024 -0.06378822 -0.10843737 -0.2366715 -0.0061532236 -0.16200249
-0.073431306 -0.08652787 -0.05802331 -0.12740314 -0.14137967 -0.11049835 0.05603481 -0.18770316
-0.05167977 -0.043873988 -0.12828214 -0.047795393 0.124341674 -0.104660876 -0.058422733 -0.11023178
-0.16231053 -0.19167228 -0.0058635813 -0.059977844 -0.09179638 0.04353684 -0.14445712 -0.013117423
0.0057906476 -0.075291224 -0.13616633 -0.04074029 -0.11477847 -0.05463626 -0.16866092 -0.056281302
00000000: 67a6 81bd 1a07 61bd 1530 a0bc 5c09 d0bc
00000010: d689 c13c 19ce 0abe cb1b f7bd 1226 f7bd
00000020: 2804 e3bc 58a4 10bd 8144 223d b28c 133d
00000030: 4e3a 9abc d960 183d 1128 22bc 63e0 85be
00000040: 0956 91bd ddfa 61be 8eb3 05bd 2128 acbd
00000050: c6b0 c1bd 6b79 12be 0530 ddbd dd5f 49bc
00000060: 0098 9dbd 6b21 7bbd a32b 07be 66a3 82bd
00000070: 6914 debd 045a 72be fba0 c9bb fbe3 25be
00000080: 2763 96bd 8635 b1bd daa9 6dbd f875 02be
00000090: d5c5 10be f54c e2bd c284 653d 4235 40be
000000a0: 2bae 53bd 36b5 33bd 655c 03be 1ac5 43bd
000000b0: d9a6 fe3d 7158 d6bd ad4c 6fbd 33c1 e1bd
000000c0: bb34 26be bd45 44be 4923 c0bb 54ab 75bd
000000d0: beff bbbd af53 323d 91ec 13be 76ea 56bc
000000e0: 79bf bd3b 4932 9abd 306f 0bbe 4adf 26bd
000000f0: f910 ebbd 45ca 5fbd 73b5 2cbe 3987 66bd

encoder.6.weight f4 [32, 64]
-0.08027008 0.04586179 -0.036177106 -0.06002226 -0.030893395 0.19593062 0.1622647 0.10622331
0.098250374 -0.051814876 -0.014361644 0.10381618 -0.11540652 -0.09397712 -0.039634768 -0.022914166
-0.045594335 -0.057700086 -0.06514719 0.056341384 0.03702487 -0.08871625 0.0022597634 -0.11930581
0.01967431 -0.16462058 0.14975837 -0.09598476 0.029513288 0.1546111 -0.08614893 -0.06171904
0.021022648 -0.07070383 0.047618747 -0.0539822 0.005133373 -0.16820672 0.09725271 -0.00370968
0.028882861 -0.040064566 0.071120664 0.01247035 -0.03802261 -0.09762145 0.084616065 0.0132165365
-0.028168354 0.20804214 -0.028055565 0.042046577 -0.08699264 0.0015935813 0.09358651 -0.18299697
0.007964507 -0.01548673 0.021332908 -0.107401006 -0.061148778 -0.0672927 0.00232676 -0.11542284
0.051123958 -0.058592845 0.08996385 0.10962031 -0.1332655 -0.08475126 -0.0098190475 -0.099797964
-0.113099314 0.03141268 0.083595894 0.060256172 0.13141593 0.10179064 0.06368082 -0.030388098
0.12029766 -0.04593484 0.05785215 -0.025860338 -0.17476647 -0.08577446 0.12435587 0.020053798
0.023944667 0.024754563 -0.17275088 -0.086642146 0.020702427 -0.08595707 0.0002008554 -0.016040472
-0.025491646 -0.08060455 -0.08390977 0.14782602 -0.041813422 0.10581823 -0.0131806275 -0.05286122
-0.06564318 0.059817605 0.09331758 -0.009799523 0.06337296 -0.13158374 -0.026159527 0.03280388
0.069478884 -0.0928456 -0.018823719 -0.056446813 -0.024219187 -0.025175115 -0.0047742547 0.043440588
0.11740701 0.09327197 0.024980795 0.0733285 0.0143291205 0.004246749 0.11034924 -0.087011404
0.1323915 -0.04616141 -0.055838767 0.03138235 -0.122073285 -0.20424616 -0.00809998 -0.034467153
-0.028777197 0.06764368 0.019951347 -0.037789986 0.073344395 0.08550652 -0.03262062 -0.07527052
-0.040210027 0.06351245 0.12082478 0.13362783 -0.024062892 0.08242246 0.12942038 0.04878239
-0.018077224 -0.0039868415 -0.07174394 0.12171932 -0.06428379 -0.17647515 0.13118257 -0.038483717
-0.006528309 0.12746538 0.13273966 0.09242726 0.19591638 0.017689154 -0.0071010804 -0.052727614
-0.04861839 0.00027408553 -0.008800243 -0.068955004 0.061397675 -0.048692077 0.061817262 -0.23567985
0.05544091 -0.006331314 -0.017448284 0.08463279 -0.020108372 0.11393759 -0.22471371 0.009513326
-0.053027023 0.1655014 -0.09776558 0.071363844 -0.056276705 -0.050518814 -0.053769123 -0.020225871
-0.12605496 -0.09237108 0.20371723 -0.13298938 0.06048707 0.047263972 0.022570513 0.01735317
0.031134272 -0.104774676 0.011915284 0.1354264 0.035780393 -0.180245 -0.08877297 0.08978721
0.016254833 0.12298659 -0.08554453 0.06129004 -0.0052223615 -0.008725789 -0.14928707 0.067430146
-0.12843436 -0.0041292943 -0.009493717 0.12222195 0.10326348 -0.061152123 -0.045751985 -0.04773568
-0.21995409 -0.06651621 -0.040437125 0.19693261 0.09948475 0.06872415 0.10698782 0.09498445
-0.18738833 -0.010058659 0.0005328461 0.09062001 -0.04114439 -0.024752252 0.11666645 0.05442281
-0.053237543 0.040976927 0.13804154 -0.20775558 0.05567123 0.06650297 -0.017011564 -0.044349305
-0.13928951 -0.064103365 0.12611017 -0.12817468 -0.029813204 -0.10395396 -0.055483673 -0.11886362
00000000: a464 a4bd 93d9 3b3d 722e 14bd e7d9 75bd
00000010: 2514 fdbc 09a2 483e b828 263e 9b8b d93d
00000020: 7e37 c93d d63b 54bd 1a4d 6bbc 949d d43d
00000030: 415a ecbd 1477 c0bd 1158 22bd 7db6 bbbc
00000040: 20c1 3abd ed56 6cbd e46b 85bd 39c6 663d
00000050: 64a7 173d deb0 b5bd 8a18 143b 9b56 f4bd
00000060: 052c a13c 4c92 28be 425a 193e a893 c4bd
00000070: dac5 f13c 5f52 1e3e da6e b0bd 1bcd 7cbd
00000080: b037 ac3c 2bcd 90bd e00b 433d 701c 5dbd
00000090: db35 a83b 623e 2cbe 6e2c c73d 1a1e 73bb
000000a0: c09b ec3c be1a 24bd b6a7 913d 7050 4c3c
000000b0: 99bd 1bbd c1ed c7bd 304b ad3d 2c8a 583c
000000c0: 52c1 e6bc 0009 553e c9d4 e5bc 0839 2c3d
000000d0: 3229 b2bd b7df d03a 49aa bf3d 8f63 3bbe
000000e0: 907d 023c 0ebc 7dbc 5ac2 ae3c 0ff5 dbbd
000000f0: 2477 7abd c1d0 89bd 8e7c 183b cf62 ecbd
00000100: 5b67 513d 0dff 6fbd f83e b83d 9d80 e03d
00000110: c076 08be 1292 adbd 12e0 20bc e062 ccbd
00000120: 9da0 e7bd 95aa 003d 5334 ab3d 2dcf 763d
00000130: e691 063e 9c77 d03d 176b 823d 76f0 f8bc
00000140: 9f5e f63d 2c26 3cbd 60f6 6c3d 0fd9 d3bc
00000150: fbf5 32be 85aa afbd 4aae fe3d dd47 a43c
00000160: 9b27 c43c 15ca ca3c 9be5 30be 7071 b1bd
00000170: 2398 a93c 430a b0bd b69c 5239 4f67 83bc
00000180: dbd3 d0bc 0014 a5bd e3d8 abbd b45f 173e
00000190: 8d44 2bbd 3ab7 d83d 8ff3 57bc 0285 58bd
000001a0: ee6f 86bd 4e03 753d 4a1d bf3d 2e8e 20bc
000001b0: afc9 813d e3bd 06be 814c d6bc 5c5d 063d
000001c0: f24a 8e3d d525 bebd 3334 9abc c634 67bd
000001d0: 5167 c6bc 0b3c cebc 5a71 9cbb c2ee 313d
000001e0: 1673 f03d 6005 bf3d 86a4 cc3c 412d 963d
000001f0: b0c4 6a3c 5028 8b3b c8fe e13d 0933 b2bd
00000200: a391 073e bf13 3dbd 31b7 64bd c78a 003d
00000210: 8f01 fabd e825 51be c7b5 04bc 6e2d 0dbd
00000220: 28be ebbc c588 8a3d 0271 a33c acc9 1abd
00000230: 9635 963d 0b1e af3d 339d 05bd 6e27 9abd
00000240: 45b3 24bd d112 823d fb72 f73d bcd5 083e
00000250: 8b1f c5bc 1bcd a83d c786 043e 0bd0 473d
00000260: b016 94bc 0da4 82bb 7dee 92bd fb47 f93d
00000270: 38a7 83bd e7b5 34be b954 063e 1aa1 1dbd
00000280: 6deb d5bb 4986 023e e8ec 073e 814a bd3d
00000290: 4e9e 483e d8e8 903c 2eb0 e8bb e9f8 57bd
000002a0: 1424 47bd 23b3 8f39 e52e 10bc 4838 8dbd
000002b0: 217c 7b3d 5871 47bd 1934 7d3d 0f56 71be
000002c0: 0216 633d e976 cfbb b4ef 8ebc f553 ad3d
000002d0: 50ba a4bc 1c58 e93d 5a1b 66be c8dd 1b3c
000002e0: dd32 59bd 3379 293e 5239 c8bd 3527 923d
000002f0: 6782 66bd d1ec 4ebd 033d 5cbd bab0 a5bc
00000300: 8d14 01be 0c2d bdbd 409b 503e 5e2e 08be
00000310: 4ac1 773d de97 413d cce5 b83c 3c28 8e3c
00000320: 4d0d ff3c 1b94 d6bd 5338 433c 38ad 0a3e
00000330: 768e 123d 2592 38be 9ace b5bd 5be2 b73d
00000340: db28 853c 65e0 fb3d f831 afbd 440b 7b3d
00000350: 5820 abbb 9df6 0ebc b6de 18be d118 8a3d
00000360: 4c84 03be 084f 87bb 898b 1bbc 804f fa3d
00000370: ce7b d33d a67a 7abd 6f66 3bbd 7d86 43bd
00000380: a53b 61be a739 88bd 66a1 25bd b4a8 493e
00000390: a9be cb3d 3fbf 8c3d 6e1c db3d 3587 c23d
000003a0: bae2 3fbe 13cd 24bc b2ae 0b3a fc96 b93d
000003b0: 0587 28bd 3cc5 cabc d2ee ee3d 74ea 5e3d
000003c0: 9c0f 5abd 6cd7 273d c35a 0d3e e1bd 54be
000003d0: 8407 643d b632 883d d65b 8bbc 9ea7 35bd
000003e0: e9a1 0ebe a048 83bd 0623 013e 3940 03be
000003f0: d23a f4bc d0e5 d4bd d942 63bd c56e f3bd

encoder.6.bias f4 [32]
-0.12178241 -0.13159618 0.034943502 0.11384455 0.064532585 0.1076639 0.026079325 -0.020283032
-0.012755903 0.032568734 -0.088362835 -0.03358198 0.03892511 0.063118346 0.062916756 0.0037210716
0.10598593 0.07632089 0.079178296 -0.027431438 0.08979681 -0.21362452 -0.1052206 0.008679697
-0.035267405 0.19493991 -0.15509121 0.028383663 0.07907003 0.10077234 -0.01855658 0.02257362
00000000: 0e69 f9bd 26c1 06be eb20 0f3d 5527 e93d
00000010: a929 843d e47e dc3d 4fa4 d53c 9a28 a6bc
00000020: 23fe 50bc cb66 053d 93f7 b4bd 428d 09bd
00000030: f06f 1f3d 3144 813d 80da 803d 39dd 733b
00000040: 270f d93d 204e 9c3d 3b28 a23d e5b7 e0bc
00000050: 64e7 b73d 63c0 5abe e67d d7bd 4a35 0e3c
00000060: 8e74 10bd 549e 473e 3bd0 1ebe db84 e83c
00000070: 78ef a13d bb61 ce3d f803 98bc 50ec b83c

encoder.9.weight f4 [17, 32]
-0.1359205 0.040831253 0.04446409 -0.08947348 0.1298305 0.10251184 -0.15923375 -0.107226394
0.016347636 -0.11812719 -0.11487558 0.034703217 0.06349902 0.018025804 0.029294202 -0.081239395
-0.11402337 5.6533965e-05 0.06768594 -0.09403797 0.24191552 -0.21993 -0.021042999 -0.036835432
0.050157595 0.13033752 -0.17472827 -0.033002667 0.11050999 0.07349262 -0.060655467 -0.078303985
-0.043601546 0.06908501 -0.13725083 0.14450116 -0.11793644 -0.077060774 0.05839361 0.13982053
0.08561269 0.08854733 0.06260415 0.1168866 0.0759401 0.11054115 0.04866738 0.07724879
-0.15619056 -0.0019075656 0.08040743 0.09719487 0.088620566 -0.094821416 0.18689702 -0.08491298
0.13274418 -0.1595589 -0.08407379 0.1466903 0.14339527 0.14379047 -0.018850217 -0.05553007
-0.0595943 0.071147725 0.04569756 0.12788793 0.025714496 -0.14194341 0.1015593 -0.08188693
-0.0493576 -0.011975738 0.106700286 0.112353705 -0.12293461 -0.10015147 -0.03232874 -0.13456418
0.049309142 -0.0013763028 -0.14641482 -0.14856926 0.1988196 -0.2160499 -0.023242513 0.12778455
0.06294238 0.15044364 -0.037459347 0.003132391 -0.043001205 -0.09363136 0.05939474 0.034917835
-0.03888406 -0.067790076 -0.1524052 -0.0014362637 0.012053293 -0.15475853 -0.20805828 0.050361145
0.09947572 0.13462166 -0.11659409 -0.04774847 -0.041917276 -0.17137033 0.19570984 0.19273607
-0.08555469 -0.12741573 -0.18517245 -0.021060377 0.15218095 0.13185383 -0.056646265 -0.18289028
-0.093767345 -0.07328378 -0.10576489 -0.13310596 -0.12508267 0.17316252 -0.03574558 -0.19721445
0.018956158 0.15319876 0.19606917 0.12806971 -0.13978556 -0.013112583 -0.16785876 -0.13367274
-0.070635766 0.124714725 0.07471057 0.052835166 0.011848525 0.17734188 0.12772314 0.059093114
-0.11294898 0.17963965 0.038958564 0.12493745 0.15403983 0.10286639 -0.009532968 -0.1160319
-0.10912732 -0.1860402 0.059705313 -0.091244705 -0.008118458 -0.005060643 0.006836116 0.063473806
0.025894448 -0.05178879 -0.11920937 -0.120980754 0.04601472 0.05688476 0.13729423 -0.1617689
-0.007546115 0.05181173 0.03146215 0.024067413 -0.01320662 0.016924862 0.18971753 -0.06919072
0.14667374 0.0855771 0.045601636 0.03949024 0.14957653 0.019943852 -0.0732848 0.06603163
-0.066045545 0.07099394 -0.06804161 0.14895 -0.084477596 -0.1191914 -0.094872914 -0.025950644
-0.09969369 -0.11318444 -0.09547952 0.12402695 0.08632785 0.14086895 -0.036402762 -0.08930143
0.07761354 -0.08135946 0.08737168 0.054597434 -0.054157075 -0.085446775 0.19442058 -0.014446675
-0.037439037 0.029208682 0.14009458 0.16367029 -0.0701514 -0.1308852 -0.042870626 0.028427878
-0.013996409 -0.0148256775 -0.17947103 -0.031091686 -0.14337425 -0.10940146 0.0787657 0.01603892
-0.010104102 -0.1486685 -0.033931747 0.09945106 0.071329765 -0.15633985 -0.16426809 -0.13789478
0.08736805 -0.095555 0.076188006 -0.11827293 0.2516101 -0.037532784 -0.13848753 -0.054853637
0.18366414 0.13573009 -0.011847362 0.012948319 0.048346028 -0.061637353 0.035378125 0.10652738
-0.15123492 0.015353801 -0.1765562 -0.13001926 -0.18764113 -0.17813893 0.058450162 -0.08134357
00000000: be2e 0bbe ac3e 273d fa1f 363d df3d b7bd
00000010: 49f2 043e baf1 d13d 2c0e 23be 8399 dbbd
00000020: 7aeb 853c abec f1bd e343 ebbd f624 0e3d
00000030: c60b 823d daaa 933c 65fa ef3c d760 a6bd
00000040: 1685 e9bd e21e 6d38 ed9e 8a3d fb96 c0bd
00000050: b4b8 773e 5435 61be 5e62 acbc c0e0 16bd
00000060: 0d72 4d3d 3377 053e f8eb 32be ce2d 07bd
00000070: 1053 e23d 4c83 963d de71 78bd d75d a0bd
00000080: 8997 32bd 717c 8d3d 7b8b 0cbe 1df8 133e
00000090: a988 f1bd 0ad2 9dbd 232e 6f3d 1d2d 0f3e
000000a0: b555 af3d 4d58 b53d 9b36 803d 3e62 ef3d
000000b0: 7c86 9b3d 6663 e23d 7257 473d 9d34 9e3d
000000c0: 6bf0 1fbe 4807 faba a7ac a43d 1b0e c73d
000000d0: b37e b53d bb31 c2bd ef61 3f3e dbe6 adbd
000000e0: 17ee 073e 6963 23be e12e acbd fb35 163e
000000f0: 36d6 123e cf3d 133e c56b 9abc 8073 63bd
00000100: 2719 74bd e6b5 913d 5d2d 3b3d 0ef5 023e
00000110: 35a7 d23c 9d59 11be 53fe cf3d 56b4 a7bd
00000120: 322b 4abd e335 44bc ae85 da3d b319 e63d
00000130: 24c5 fbbd 371c cdbd 246b 04bd 31cb 09be
00000140: 62f8 493d 0f65 b4ba c4ed 15be 8a22 18be
00000150: 5d97 4b3e 2f3c 5dbe 1567 bebc f4d9 023e
00000160: efe7 803d e60d 1a3e f96e 19bd cd48 4d3b
00000170: 0822 30bd ccc1 bfbd e647 733d 0106 0f3d
00000180: e444 1fbd 86d5 8abd 1c10 1cbe 0341 bcba
00000190: 2d7b 453c 0579 1ebe 3b0d 55be 7d47 4e3d
000001a0: edb9 cb3d 43da 093e e2c8 eebd e693 43bd
000001b0: 73b1 2bbd b47b 2fbe 2968 483e 9b5c 453e
000001c0: 4c37 afbd 4579 02be d99d 3dbe d086 acbc
000001d0: 53d5 1b3e b104 073e ea05 68bd 9747 3bbe
000001e0: 1809 c0bd ce15 96bd 439b d8bd ee4c 08be
000001f0: ac15 00be 8451 313e f569 12bd 96f2 49be
00000200: f249 9b3c 23e0 1c3e 5bc6 483e b524 033e
00000210: f223 0fbe 29d6 56bc 2be3 2bbe 82e1 08be
00000220: 7ca9 90bd 6f6a ff3d db01 993d b069 583d
00000230: 5120 423c 1c99 353e dbc9 023e 9f0b 723d
00000240: cb51 e7bd 75f3 373e 0493 1f3d 35df ff3d
00000250: 9ebc 1d3e 9dab d23d 2a30 1cbc 22a2 edbd
00000260: 257e dfbd 5281 3ebe 8f8d 743d 81de babd
00000270: 4803 05bc c0d3 a5bb 7f01 e03b 8efe 813d
00000280: 9820 d43c 7b20 54bd 0b24 f4bd c2c4 f7bd
00000290: ee79 3c3d feff 683d dc96 0c3e bfa6 25be
000002a0: 6745 f7bb 8938 543d 75de 003d 0629 c53c
000002b0: 9460 58bc 02a6 8a3c 5045 423e ddb3 8dbd
000002c0: a431 163e 0c43 af3d c8c8 3a3d 85c0 213d
000002d0: 972a 193e 4a61 a33c 5716 96bd 973b 873d
000002e0: e342 87bd 4565 913d 6659 8bbd 5986 183e
000002f0: 9702 adbd 9f1a f4bd bb4c c2bd 7296 d4bc
00000300: 352c ccbd 3ecd e7bd c48a c3bd d701 fe3d
00000310: a8cc b03d f33f 103e 101b 15bd abe3 b6bd
00000320: d9f3 9e3d ca9f a6bd ecef b23d 8fa1 5f3d
00000330: cfd3 5dbd b8fe aebd 3016 473e bfb1 6cbc
00000340: ad59 19bd 0c47 ef3c f474 0f3e 2f99 273e
00000350: 8aab 8fbd c506 06be 1c99 2fbd 95e1 e83c
00000360: 3251 65bc 66e7 72bc 41c7 37be feb3 febc
00000370: b3d0 12be df0d e0bd e94f a13d 0e64 833c
00000380: ad8b 25bc 8e3c 18be 04fc 0abd ffac cb3d
00000390: 5715 923d 8e17 20be e535 28be 4a34 0dbe
000003a0: 05ee b23d 57b2 c3bd 7508 9c3d 1439 f2bd
000003b0: 0ad3 803e fabb 19bd adcf 0dbe 35ae 60bd
000003c0: 7412 3c3e d4fc 0a3e 701b 42bc 3025 543c
000003d0: 7c06 463d 7377 7cbd a7e8 103d 072b da3d
000003e0: 54dd 1abe 828e 7b3c 26cb 34be c523 05be
000003f0: ff24 40be 0d6a 36be 7069 6f3d 7597 a6bd

encoder.9.bias f4 [17]
0.04126694 0.23911753 0.10788961 0.07625436 0.16539499 0.04172053 -0.030707883 -0.18502833
0.13230857 0.121731654 0.1593206 -0.15897505 0.02527347 0.08019684 -0.17759232 0.011681437
-0.1384481
00000000: 8607 293d 3adb 743e 3af5 dc3d 3f2b 9c3d
00000010: 4e5d 293e 25e3 2a3d 198f fbbc 1178 3dbe
00000020: e67b 073e 724e f93d f024 233e 5bca 22be
00000030: 4f0a cf3c 3e3e a43d c3da 35be 7f63 3f3c
00000040: 57c5 0dbe

decoder.0.weight f4 [32, 17]
0.015969012 0.067076676 0.19262215 0.07397843 -0.15287389 -0.12247378 -0.09872426 -0.19141164
0.22596994 -0.027605856 0.30206198 -0.21368144 -0.030049654 0.02090766 -0.17425375 0.048205055
0.11206803 0.118587345 -0.11602785 0.2791812 0.079238765 -0.14268951 0.24610908 -0.2788841
0.24673125 0.112781614 -0.121334136 -0.10521162 0.09996608 -0.21586062 0.012522339 -0.15034011
0.053887013 0.15576354 -0.026710648 0.0754065 0.00841237 0.005666136 0.10275917 -0.10860564
0.19822022 -0.036211178 -0.24633987 0.2154028 -0.1114669 -0.2209699 -0.073976666 -0.029392196
0.19024444 0.18993652 -0.1434482 -0.20363049 -0.13783666 -0.11820823 0.24380532 -0.16247858
0.17726304 -0.25200704 0.11235305 0.038507394 0.14523715 0.29420424 0.111145 -0.14691506
0.15387052 0.23470324 -0.15141536 -0.13198617 -0.07696256 0.1960148 -0.046016373 -0.12887907
-0.23101927 -0.009862691 -0.10160239 -0.15215035 0.17457509 0.14610112 0.04921172 0.12709495
0.20631224 -0.19404274 0.18803385 0.024880381 0.17037879 -0.0926892 0.2317896 -0.056709863
-0.15554352 -0.063164905 0.06512918 0.22929959 -0.065084845 0.1899012 -0.21705468 0.053918958
0.14845999 0.12792622 0.17702234 0.07438253 0.05390472 0.035049975 0.025172926 -0.07774807
-0.06821421 0.039378796 -0.17767023 0.024359474 0.17841178 -0.103357494 -0.08123656 -0.2566394
-0.23645703 -0.13580865 -0.16440135 -0.31981185 -0.20724021 0.07733163 -0.0033626447 0.12766209
0.14208513 -0.15856582 -0.035616577 0.07363183 0.08471885 -0.22411972 0.16619135 0.19520792
0.22527531 0.14890128 -0.22382139 0.18751705 -0.09413276 -0.17038198 -0.06073137 0.008156096
0.06259107 0.12176684 -0.13678125 0.1664524 0.17607892 0.075906694 -0.01456818 -0.02563257
-0.023547633 -0.23975006 0.14156817 -0.1465918 0.080428176 -0.051883582 0.17800313 0.13722643
-0.16053759 -0.13123037 0.10699559 -0.16451702 -0.105392106 -0.012979655 -0.27160832 -0.09441499
0.20345336 0.10628478 -0.024716668 0.18638629 0.17087708 0.171684 -0.10405981 -0.051043667
0.07926892 -0.15645616 0.045376282 0.12309469 -0.0011649664 0.26213712 0.17897467 -0.25186557
-0.16516355 0.1544124 -0.2516419 -0.031826552 -0.021597622 0.18684024 -0.08019775 -0.10087186
-0.1038164 -0.1547885 0.111363225 -0.056834526 0.10624747 0.044675887 -0.16013825 0.22080152
0.19348542 -0.19683912 0.116021685 0.033830725 0.1385914 -0.0073812893 -0.1389558 0.15329397
0.0047688717 0.10891998 -0.09459376 -0.21124464 0.08053534 -0.11291824 0.17487822 0.07574126
0.20892322 0.20817518 -0.30495209 -0.1122452 -0.18117794 -0.07427791 -0.13715823 0.15120292
-0.18220477 -0.0867317 -0.18212587 0.07302057 -0.14114882 -0.096271336 0.074615024 0.05692223
-0.22537011 -0.18402456 0.15814506 0.21098277 -0.21257715 0.023512151 -0.1948537 -0.18848825
-0.17976394 0.23649374 0.19689976 -0.034883477 0.25295255 -0.25085008 0.06168703 0.01048224
0.14384907 0.08303445 0.11190471 0.27209833 0.29461783 0.09132406 -0.25664395 0.031961106
-0.18467836 0.036754593 0.10491698 0.050737258 0.22310694 -0.034052175 -0.07071486 0.23988786
00000000: 72d1 823c 7f5f 893d be3e 453e 0182 973d
00000010: f98a 1cbe 88d3 fabd f22f cabd 6a01 44be
00000020: aa64 673e ad25 e2bc dea7 9a3e 4fcf 5abe
00000030: b12a f6bc 8a46 ab3c 936f 32be aa72 453d
00000040: ec83 e53d ecdd f23d 02a0 edbd d7f0 8e3e
00000050: ef47 a23d 331d 12be 0504 7c3e e6c9 8ebe
00000060: 1ea7 7c3e 0cfa e63d 087e f8bd 3179 d7bd
00000070: 04bb cc3d 910a 5dbe 7f2a 4d3c c2f2 19be
00000080: a1b8 5c3d 7a80 1f3e 4ad0 dabc b96e 9a3d
00000090: 0ad4 093c feaa b93b 6673 d23d a26c debd
000000a0: 3efa 4a3e 2c52 14bd 8540 7cbe 8d92 5c3e
000000b0: c248 e4bd ef45 62be 1481 97bd e7c7 f0bc
000000c0: 70cf 423e b87e 423e 16e4 12be 8384 50be
000000d0: 0e25 0dbe 2817 f2bd 1aa8 793e c960 26be
000000e0: 7184 353e 1107 81be 5b19 e63d eeb9 1d3d
000000f0: 0cb9 143e f0a1 963e fd9f e33d e770 16be
00000100: 3c90 1d3e 0c56 703e a10c 1bbe 6227 07be
00000110: 8c9e 9dbd 1bb8 483e aa7b 3cbd e0f8 03be
00000120: 5190 6cbe 2097 21bc ea14 d0bd 4dcd 1bbe
00000130: d0c3 323e 889b 153e 3a92 493d 2e25 023e
00000140: 8443 533e 24b3 46be f28b 403e f1d1 cb3c
00000150: c777 2e3e d6d3 bdbd 415a 6d3e 9a48 68bd
00000160: cd46 1fbe 9a5c 81bd 7362 853d 83cd 6a3e
00000170: 344b 85bd 7675 423e 9543 5ebe 20da 5c3d
00000180: e505 183e 17ff 023e 5845 353e de55 983d
00000190: 32cb 5c3d 9090 0f3d 7437 ce3c 613a 9fbd
000001a0: e4b3 8bbd a94b 213d 2fef 35be 858d c73c
000001b0: 94b1 363e 18ad d3bd 5b5f a6bd 3d66 83be
000001c0: cb21 72be 6c11 0bbe d458 28be 61be a3be
000001d0: c736 54be 0c60 9e3d d15f 5cbb dab9 023e
000001e0: c47e 113e 145f 22be b0e2 11bd 49cc 963d
000001f0: 1481 ad3d a47f 65be 112e 2a3e 96e4 473e
00000200: 92ae 663e 9479 183e 6f31 65be 7804 403e
00000210: adc8 c0bd 9d78 2ebe 75c1 78bd 25a1 053c
00000220: bf2f 803d e560 f93d 6210 0cbe 7f72 2a3e
00000230: 084e 343e f874 9b3d 60af 6ebc 65fb d1bc
00000240: f7e6 c0bc 0a81 75be 3ff7 103e 291c 16be
00000250: 87b7 a43d e183 54bd 7446 363e 1685 0c3e
00000260: f763 24be 4161 06be 8120 db3d 2677 28be
00000270: d1d7 d7bd 9ea8 54bc 3f10 8bbe a55c c1bd
00000280: 1456 503e d6ab d93d 9c7a cabc 0cdc 3e3e
00000290: 67fa 2e3e eecd 2f3e 4f1d d5bd 2a13 51bd
000002a0: be57 a23d 0b36 20be 7bdc 393d 1219 fc3d
000002b0: c9b1 98ba d636 863e 2345 373e 86f4 80be
000002c0: a220 29be 491e 1e3e 35d7 80be 8f5c 02bd
000002d0: 7fed b0bc 0c53 3f3e b83e a4bd e895 cebd
000002e0: b19d d4bd e080 1ebe 6712 e43d 52cb 68bd
000002f0: 4698 d93d 10fe 363d 48fb 23be cb19 623e
00000300: 0b21 463e 3290 49be c79c ed3d 1692 0a3d
00000310: e7ea 0d3e bede f1bb 6e4a 0ebe 18f9 1c3e
00000320: 3244 9c3b 7011 df3d 60ba c1bd 8450 58be
00000330: b6ef a43d ae41 e7bd 4713 333e 3c1e 9b3d
00000340: f8ef 553e e02b 553e ae22 9cbe d0e0 e5bd
00000350: b686 39be 041f 98bd 3573 0cbe f0d4 1a3e
00000360: e393 3abe 64a0 b1bd 347f 3abe cf8b 953d
00000370: 5189 10be e829 c5bd c3cf 983d 4927 693d
00000380: 6cc7 66be ef70 3cbe c7f0 213e de0b 583e
00000390: d3ad 59be 8e9c c03c ba87 47be 1003 41be
000003a0: 0a14 38be 6a2b 723e 17a0 493e fae1 0ebd
000003b0: ff82 813e 6c6f 80be 8aab 7c3d b3bd 2b3c
000003c0: 2c4d 133e f70d aa3d 4c2e e53d 7950 8b3e
000003d0: 26d8 963e 1c08 bb3d d666 83be a6e9 023d
000003e0: 531c 3dbe fc8b 163d b7de d63d dfd1 4f3d
000003f0: 2576 643e 4b7a 0bbd f4d2 90bd 2aa5 753e

decoder.0.bias f4 [32]
-0.028331177 -0.10585167 -0.13085647 0.06967692 -0.06473637 -0.078928255 0.0019686304 0.2954157
0.07044363 0.061395153 0.20552303 0.29098687 0.13384283 -0.084129445 0.002995693 0.16850422
0.21608484 -0.21922918 0.1476656 0.036037713 0.20611553 0.066826634 -0.010695685 -0.13783264
0.23160791 0.16595669 0.15655859 -0.08183635 0.14348926 0.07499135 -0.3140314 0.26863387
00000000: c916 e8bc c3c8 d8bd 3dff 05be c6b2 8e3d
00000010: 8194 84bd 23a5 a1bd 2304 013b ba40 973e
00000020: c044 903d 7c79 7b3d a174 523e 3bfc 943e
00000030: 180e 093e 0f4c acbd 6353 443b 5f8c 2c3e
00000040: 5845 5d3e 9d7d 60be a735 173e 489c 133d
00000050: f30f 533e 67dc 883d f43c 2fbc 0024 0dbe
00000060: a02a 6d3e 8df0 293e e550 203e d199 a7bd
00000070: d9ee 123e 1195 993d b9c8 a0be 618a 893e

decoder.2.weight f4 [64, 32]
-0.080868654 0.21483305 -0.06056575 0.16663417 0.055915978 0.24226403 -0.13217735 0.025538344
-0.073669255 -0.060126018 -0.021092542 -0.06686407 0.07702683 0.03245304 -0.15411271 0.12651496
-0.11833316 0.023851424 0.056191307 0.021379652 0.22299457 -0.013340795 -0.0742374 0.1027879
0.123566166 -0.09837842 0.057882834 0.0063726585 -0.07626085 -0.09430442 -0.039576843 0.14727944
0.0012323868 0.094124496 0.028494569 -0.07766212 -0.07853668 -0.045152448 -0.024099551 0.079453014
-0.033696223 0.099690795 0.113370016 0.14358734 -0.020531565 0.14321356 -0.13766332 0.07417168
-0.09570681 0.10291724 -0.054509856 -0.051900044 0.021411741 -0.047090244 0.121291146 0.17420642
-0.21199392 -0.12461481 0.01809588 -0.06785904 -0.0003903595 -0.0058240904 -0.0720361 0.10562168
-0.12895681 -0.043107826 -0.11924078 0.08119351 0.0470877 -0.050713472 -0.23879927 0.0055391584
-0.16674323 0.045850143 -0.15594406 0.102384575 0.08456524 0.10502976 0.062428933 0.16587967
-0.22120282 0.11004784 0.07192733 -0.21449195 0.17759815 0.0075755357 0.13350824 0.06493985
-0.004793311 -0.064280674 0.087759495 0.121022366 0.09673723 -0.24699089 -0.02702123 0.0047391197
-0.13475536 0.16744246 -0.00405051 0.31336606 0.19689763 0.03176981 -0.019888619 0.17512666
-0.18108398 -0.14226072 -0.06394931 0.021721335 -0.14228825 -0.09362608 -0.074952506 -0.0015482232
-0.054454774 0.019198377 0.038807116 0.004288349 0.05182575 -0.017990643 0.17975166 -0.059037864
-0.027419409 0.14548613 -0.06233594 0.1556256 0.08009874 0.04980687 0.15317024 0.13697396
0.07098498 0.06989979 0.024624558 0.09340248 -0.03334962 -0.03791928 0.16118686 0.030860513
-0.11050971 0.008848955 0.0077771787 0.013290683 0.028586892 0.06811558 0.11408145 0.14216775
0.15853958 -0.081502736 0.21217425 0.18293685 0.17752923 0.1729615 -0.21766096 -0.19604394
-0.034223784 -0.069283165 0.04130259 0.20366922 0.14538676 0.024579985 -0.27969795 0.0023267588
0.13672139 0.053013876 0.034330375 -0.025919583 0.06804777 -0.020273361 -0.23305234 0.046351712
-0.10810751 -0.1638409 -0.0711191 -0.10589915 0.044311047 -0.09290352 -0.26089597 0.21007223
0.16502447 0.14416893 0.06281521 -0.087763816 0.014237247 -0.12479673 0.041975226 0.19783771
0.025400732 -0.03151681 0.119615465 -0.12639356 -0.16318484 0.12280923 0.018788043 0.15441522
-0.02897651 -0.12249731 0.08679491 0.25622302 0.056720313 -0.09884624 0.11004449 -0.031441763
0.14318272 0.058500797 -0.12603468 0.05756185 0.021868395 0.022282455 0.055682685 0.12191646
0.14789782 -0.045551214 0.021248246 0.06430941 -0.10929172 -0.033807065 -0.22593515 0.020193415
0.058999766 -0.085402675 0.057283618 0.17272589 0.042188305 0.16458638 -0.22208017 -0.09791721
0.09766302 -0.097923204 0.11361285 0.10253991 0.072100945 -0.20607027 -0.23663098 0.12894386
-0.0968903 -0.07239425 -0.17037089 0.082964905 0.05376069 -0.053102367 -0.100654095 0.043720786
-0.2243694 0.12471804 0.23516333 -0.11660809 0.13401602 0.16720653 0.08584593 0.04928851
-0.09833043 -0.15593055 0.05542251 -0.07918935 0.164614 -0.052345295 0.11059271 0.070807226
00000000: 779e a5bd 32fd 5b3e cb13 78bd 26a2 2a3e
00000010: 2708 653d 1014 783e 8059 07be ca35 d13c
00000020: e8df 96bd b346 76bd 44ca acbc 08f0 88bd
00000030: 3ec0 9d3d 7bed 043d b9cf 1dbe 238d 013e
00000040: a858 f2bd 1064 c33c db28 663d 6124 af3c
00000050: b058 643e 5a93 5abc c709 98bd 7682 d23d
00000060: 4210 fd3d a07a c9bd 8d16 6d3d bcd1 d03b
00000070: a62e 9cbd ad22 c1bd 541b 22bd 6cd0 163e
00000080: 0a88 a13a 58c4 c03d 716d e93c 510d 9fbd
00000090: d7d7 a0bd c6f1 38bd 6c6c c5bc 43b8 a23d
000000a0: 0d05 0abd b02a cc3d 8a2e e83d 8f08 133e
000000b0: d031 a8bc 93a6 123e 9df7 0cbe 52e7 973d
000000c0: ef01 c4bd 46c6 d23d ba45 5fbd 2495 54bd
000000d0: ad67 af3c b3e1 40bd 7e67 f83d 2b63 323e
000000e0: ef14 59be 0d36 ffbd d03d 943c aef9 8abd
000000f0: 2aa9 ccb9 03d8 bebb aa87 93bd 2e50 d83d
00000100: 410d 04be d591 30bd 8334 f4bd c848 a63d
00000110: 08df 403d eeb8 4fbd cc87 74be d481 b53b
00000120: bdbe 2abe 5ccd 3b3d cdaf 1fbe 01af d13d
00000130: 8a30 ad3d d819 d73d 7bb5 7f3d 5cdc 293e
00000140: fe82 62be c360 e13d a34e 933d c7a3 5bbe
00000150: 4adc 353e 333c f83b 62b6 083e 2fff 843d
00000160: 3511 9dbb 96a5 83bd 40bb b33d 93da f73d
00000170: 2b1e c63d 2eeb 7cbe a05b ddbc 9e4a 9b3b
00000180: 4ffd 09be 0976 2b3e 24ba 84bb 8471 a03e
00000190: 889f 493e 0f21 023d 75ed a2bc 6754 333e
000001a0: 146e 39be cbac 11be dbf7 82bd f1f0 b13c
000001b0: 03b4 11be 08bf bfbd b380 99bd c0ed caba
000001c0: f80b 5fbd ea45 9d3c 36f4 1e3d 4785 8c3b
000001d0: 3d47 543d 1d61 93bc d210 383e b0d1 71bd
000001e0: ab9e e0bc 51fa 143e f853 7fbd 515c 1f3e
000001f0: cf0a a43d 4a02 4c3d a9d8 1c3e e742 0c3e
00000200: 9360 913d 9f27 8f3d 71b9 c93c cd49 bf3d
00000210: 9c99 08bd 3f51 1bbd 2b0e 253e 30cf fc3c
00000220: ea52 e2bd 35fb 103c b4d7 fe3b 2ac1 593c
00000230: 0f2f ea3c 2e80 8b3d 89a3 e93d 6c94 113e
00000240: 3358 223e e8ea a6bd 3544 593e cc53 3b3e
00000250: 39ca 353e d21c 313e 84e2 5ebe bebf 48be
00000260: 3d2e 0cbd 55e4 8dbd e82c 293d aa8e 503e
00000270: 44e0 143e f75b c93c 9234 8fbe 897c 183b
00000280: b100 0c3e 1425 593d 029e 0c3d 4e55 d4bc
00000290: a15c 8b3d 5214 a6bc 46a5 6ebe 4bdb 3d3d
000002a0: 7867 ddbd e9c5 27be e4a6 91bd a7e1 d8bd
000002b0: 807f 353d 3344 bebd 2894 85be 2d1d 573e
000002c0: 2dfc 283e 05a1 133e 43a5 803d 84bd b3bd
000002d0: 5843 693c 6e95 ffbd 37ee 2b3d f895 4a3e
000002e0: 3215 d03c c517 01bd f4f8 f43d 506d 01be
000002f0: ed19 27be 6883 fb3d 62e9 993c 061f 1e3e
00000300: 2560 edbc dfdf fabd 88c1 b13d aa2f 833e
00000310: 8f53 683d e66f cabd 015f e13d 14c9 00bd
00000320: 7e9e 123e 889e 6f3d 3c0f 01be f9c5 6b3d
00000330: 5925 b33c b289 b63c 8713 643d 56af f93d
00000340: 8772 173e e993 3abd cd10 ae3c a7b4 833d
00000350: 56d4 dfbd 4779 0abd 8b5b 67be a96c a53c
00000360: bda9 713d 99e7 aebd 3aa2 6a3d 0edf 303e
00000370: a5cd 2c3d 5589 283e fc68 63be d188 c8bd
00000380: 8d03 c83d f68b c8bd dbad e83d 7200 d23d
00000390: a9a9 933d 1604 53be 644f 72be dc09 043e
000003a0: 6c6e c6bd 7043 94bd b575 2ebe 81e9 a93d
000003b0: 2b34 5c3d de81 59bd bc23 cebd 9114 333d
000003c0: 18c1 65be 2c6c ff3d a8ce 703e 39d0 eebd
000003d0: 7f3b 093e 3038 2b3e fecf af3d c0e2 493d
000003e0: 7761 c9bd 42ac 1fbe b702 633d 072e a2bd
000003f0: 9390 283e 0568 56bd 6e7e e23d 6103 913d

decoder.2.bias f4 [64]
0.20943275 -0.08058334 0.097281344 -0.15268351 0.10239363 0.095409274 0.16192907 -0.025422929
-0.074640594 0.019140411 0.2522325 0.21520813 0.24366288 0.05190138 0.053133532 0.18417719
0.19468667 -0.00020126697 0.080390394 -0.053802375 -0.139351 0.22676452 0.14193352 0.15158208
-0.3505308 -0.05551915 0.033003602 -0.074111044 0.14901718 0.17427637 0.17273368 -0.12519488
0.05989422 0.2953484 0.073226586 -0.04420254 0.15659359 -0.021895362 0.138032 0.28034118
0.19328508 0.023977323 -0.032481704 0.07948764 0.16508418 -0.027634513 0.08231238 0.15053998
0.33696294 0.01970956 0.020929318 -0.072619155 0.08143088 0.1226709 -0.02303776 0.038636133
-0.1353785 0.15405497 0.22328705 0.14940453 -0.14666478 -0.04135049 0.039907 -0.046591867
00000000: 8a75 563e e108 a5bd 713b c73d 1159 1cbe
00000010: c0b3 d13d f065 c33d bcd0 253e bf43 d0bc
00000020: 2bdd 98bd 5acc 9c3c 9e24 813e 855f 5c3e
00000030: c382 793e 8b96 543d 8ca2 593d f298 3c3e
00000040: f15b 473e 310b 53b9 b8a3 a43d e15f 5cbd
00000050: 07b2 0ebe f534 683e 0557 113e 5538 1b3e
00000060: c678 b3be 0c68 63bd c92e 073d 88c7 97bd
00000070: f697 183e 8175 323e 19e1 303e 1633 00be
00000080: a453 753d e837 973e d2f7 953d b90d 35bd
00000090: 125a 203e e75d b3bc 4358 0d3e e188 8f3e
000000a0: 86ec 453e 176c c43c 890b 05bd 6aca a23d
000000b0: d40b 293e c661 e2bc 6593 a83d 2727 1a3e
000000c0: 6886 ac3e f175 a13c f673 ab3c 5ab9 94bd
000000d0: 3cc5 a63d e13a fb3d afb9 bcbc ec40 1e3d
000000e0: a9a0 0abe 96c0 1d3e 5ca5 643e 80fd 183e
000000f0: 4b2f 16be 225f 29bd 8675 233d 1dd7 3ebd
