Save_Models/model-lat4.pth (torch, 191714 bytes, 16 tensors)

encoder.0.weight f4 [128, 99]
000000 48 f6 bd bc fc 39 5f bc 99 32 34 bc 0d df 12 bc
       -0.023188725 -0.013624664 -0.010998392 -0.008964312
000010 a1 1c 0d 3d 72 41 bb bc f8 a0 c5 3d db 31 cf 3d
       0.03445113 -0.022858355 0.09649843 0.10116931
000020 4c f3 aa bb ec 61 d9 3c 6d 03 a7 bd 13 35 e7 3c
       -0.0052169915 0.02653595 -0.0815495 0.02822355
000030 c9 2a 96 bc 9f ab 7a 3d 34 4d ae 3d 46 42 b5 bb
       -0.018330948 0.061198827 0.08510819 -0.005531582
000040 e6 98 b1 bd 58 d9 f5 3c 10 66 3f bd c4 b7 dd 3d
       -0.08671741 0.030010864 -0.046728194 0.10826066
000050 09 87 c6 3d b2 8e 6f 3d 9b fb f3 3c 14 31 85 bd
       0.09693725 0.058485694 0.02978306 -0.065035015
000060 b4 0a 25 3d a7 14 4d 3c cb 7a de 3d 78 39 a4 bd
       0.04029341 0.012517131 0.10863265 -0.08018774
000070 fd 61 2e 3d af de 3a 3d de 3b d6 3d fe 8c ae bb
       0.042573918 0.045622524 0.104606375 -0.005326866
000080 23 b0 b8 bc d4 66 c7 3d cf 12 4b 3a 66 d6 c5 3d
       -0.022544926 0.0973641 0.0007746638 0.09660034
000090 ab 04 c6 3d c7 e2 9c 3c cd 7b 6c 3d 59 94 d6 3b
       0.09668859 0.019151105 0.057735253 0.006548446
0000a0 78 22 4f bd b0 68 fe bc aa f2 3a 3d 16 88 2d bd
       -0.05056998 -0.031055778 0.04564158 -0.04236611
0000b0 3f a8 66 bd c6 d8 94 3d 8d 38 9e 3d 73 9a b4 3d
       -0.056312796 0.07267909 0.0772563 0.08818521
0000c0 5f 6e a3 3b 0a 58 23 3d 4b 7b 0f 3d 20 2f 8e 3d
       0.0049875225 0.039878882 0.03502969 0.06942582
0000d0 6f 69 8b 3d f4 37 b4 bd 6f 47 14 bb 28 90 f7 3b
       0.06807219 -0.08799735 -0.0022625586 0.0075550266
0000e0 77 fb 77 bc 2d 3a 4e bd 20 18 5f 3c 16 ad c0 bc
       -0.0151356375 -0.05034845 0.013616592 -0.023520034
0000f0 2b 3d d8 3d 22 f8 8f 3d ab 79 9a bd 49 82 f3 bc
       0.10558542 0.070297495 -0.075427376 -0.02972521
000100 6b ca 79 3d 0e 32 85 bd 56 c1 55 3d e7 16 c2 bc
       0.060984056 -0.06503688 0.052186333 -0.023692561
000110 d0 74 a4 bc 52 d4 1d 3d e3 72 1b bd 83 dd d9 3c
       -0.020075232 0.038532563 -0.03795136 0.026594883
000120 c6 70 8f 3d 19 57 b5 3d 64 3c 9a bd b0 25 a4 bd
       0.07003932 0.08854503 -0.0753105 -0.08015001
000130 4a 78 60 bc f7 ee 82 bd 4d 07 b3 bd 85 f6 cf 3c
       -0.013700554 -0.06393235 -0.08741627 0.025386104
000140 af fa 6a 3d cf 2a 56 3d 17 a8 e3 3c 47 9d cc 3d
       0.057367977 0.05228692 0.027790112 0.09990936
000150 d2 17 a4 bc 91 7d 15 bd 78 28 6e bd d7 45 78 3d
       -0.02003089 -0.036496703 -0.058144063 0.06061348
000160 89 ea 47 3d e6 f6 4e bd de 45 79 3c 3c 07 a6 bd
       0.048807655 -0.05052843 0.015214412 -0.081068486
000170 60 9f a5 3d e5 b3 01 bd 73 52 3c bd b0 ae 02 3d
       0.08087039 -0.0316657 -0.045977067 0.031904876
000180 16 cf 92 bd 00 1e b6 bd a3 96 88 3b 66 c7 33 bd
       -0.07168405 -0.08892441 0.004168348 -0.043891333
000190 ff 50 ab bd ca 1a 3b bd 0f 14 f2 bc 96 c7 18 bd
       -0.08365058 -0.045679845 -0.02955058 -0.037299715
0001a0 4e f2 fc 3c 38 57 42 bc d4 3d 87 bd e3 58 67 3d
       0.030877259 -0.011861615 -0.0660359 0.056481253
0001b0 96 16 35 bd c7 a2 cc 3c 13 08 a9 bd 1d 47 83 3d
       -0.044210993 0.024979962 -0.08253493 0.06410048
0001c0 2e 9f 6e bd ce 00 96 3d 05 94 9f 3d 8e 37 1d 3d
       -0.058257274 0.07324372 0.07791904 0.03838306
0001d0 b8 2e 1b 3c af 91 a3 3d e4 0f 0c bd 23 36 36 bd
       0.009471588 0.07986771 -0.034194842 -0.044485223
0001e0 94 ee 09 bd 53 c5 a3 3d 79 13 92 3c 30 17 d8 3c
       -0.03367479 0.07996621 0.01783155 0.026378244
0001f0 50 7f eb 3d 39 15 f2 bc 54 38 86 3d fc cf ba 3c
       0.11498892 -0.029551135 0.065537125 0.022804253
000200 2c f2 5d bd 57 18 00 3e 5e b9 68 3d 72 37 54 bd
       -0.05418603 0.12509285 0.056817405 -0.05181069
000210 aa d4 75 bd 2b 2c 20 3d da eb f8 3d 47 21 ca bc
       -0.060017265 0.03910462 0.1215436 -0.024674071
000220 65 aa 33 3d 4a f5 6e 3d b4 30 b8 3d 43 45 ac ba
       0.043863673 0.058339395 0.089936644 -0.00131432
000230 1d 89 e8 3d 20 ea 96 3d 40 01 04 bd a8 31 b7 3d
       0.11354277 0.073688745 -0.032227755 0.08945018
000240 70 80 15 bd 69 21 a0 3d 9c ac 7a 3d b2 23 59 bd
       -0.03649944 0.078188725 0.06119977 -0.053012557
000250 42 07 32 3d 5f 8d 44 3d c7 22 89 bd 72 d2 94 3d
       0.043463953 0.047986384 -0.066960864 0.07266702
000260 80 ca a5 bd 09 1f 8c 3d 76 f7 1a bd 23 ff 46 bd
       -0.080952644 0.06841857 -0.037833653 -0.04858316
000270 16 c2 54 bd 9a 10 40 3c da 6c 7c bc 37 54 4c 3c
       -0.051942907 0.011722708 -0.015406812 0.01247125
000280 e2 cb 91 bd c2 99 d7 bc 1d 87 ba bc d0 f2 97 3d
       -0.07118966 -0.026318435 -0.022769505 0.0741936
000290 b7 1b 8c 3d da b4 8b 3d 8a b8 01 bd 0d c6 83 3d
       0.06841224 0.06821604 -0.03167013 0.064342596
0002a0 2d 02 87 3c 10 53 06 bd 91 ae 9c bd 97 e1 46 bd
       0.01648053 -0.03279406 -0.076504834 -0.048554983
0002b0 36 17 66 3c 9b 32 aa bd ab 4f c7 3d a6 80 d4 3d
       0.01404362 -0.083104335 0.09731992 0.103761
0002c0 bb c7 2a bc cf f3 9c 3d a3 31 9e bb 38 63 be 3c
       -0.010423596 0.0766369 -0.0048276945 0.02324067
0002d0 f7 71 8e bd 7d a7 3a 3d 07 04 2f 3d 38 99 ab bd
       -0.06955331 0.045569886 0.04272845 -0.083788335
0002e0 4b 35 1c 3d a2 fc 8d 3d 77 7e 88 bc bb 79 e5 3d
       0.03813676 0.069329515 -0.016661866 0.11204859
0002f0 ab f5 82 bd b2 b1 b6 3c 32 a9 19 bd ee 34 db 3c
       -0.06394514 0.022301529 -0.037514873 0.026758637
000300 b3 f1 18 3c e9 7d ab bd ef 03 9d bd b2 43 d4 bb
       0.009334969 -0.08373625 -0.07666766 -0.0064777965
000310 f9 ca 31 bd 66 03 d1 bd 7f 08 02 3e f4 0a b5 bd
       -0.04340646 -0.10205726 0.12698554 -0.0883998
000320 3d 66 1e bd 18 d3 ab 3d bb fb 57 bd 43 0c 6c bc
       -0.03867172 0.08389872 -0.052730303 -0.01440722
000330 31 b1 7f 3d 74 c0 2c bd 5a c5 de 3d 41 05 12 bd
       0.062424842 -0.042175725 0.108774856 -0.03564954
000340 7e 0f 96 3d 20 84 49 bd be 57 91 3c 5b 56 04 3e
       0.07327174 -0.04919827 0.017742034 0.12923567
000350 fa 4f af 3d fa ae 6d 3d 43 4b 0c bd 69 c2 e9 3b
       0.08560176 0.0580282 -0.034251463 0.007133771
000360 85 1e 0f 3e bd 58 d6 3d 56 7b 04 3e 03 dd 85 3d
       0.13976486 0.10466144 0.12937674 0.06536295
000370 47 a3 07 3e 16 7c a0 3d 81 15 8e 3c 9e ab 90 bd
       0.13245879 0.078361675 0.017344238 -0.070639834
000380 08 6c 91 3d aa 0e aa 3d 62 7b ae 3c b1 4a 21 3d
       0.071006835 0.08303578 0.021299068 0.039377872
000390 4f 28 1b bb 58 28 81 bd f9 df 92 bd 39 c2 f7 3c
       -0.002367515 -0.06306523 -0.07171626 0.03024398
0003a0 99 8a 88 bd 00 0d 9a 3d 83 6e bb 3d 25 7f 25 bd
       -0.066670604 0.07522011 0.09151938 -0.040404458
0003b0 dd e5 70 bd a5 8f 96 3b c1 24 0e 3c 38 58 11 bd
       -0.058812965 0.0045947605 0.008675755 -0.035484523
0003c0 c9 a7 e3 3d fd 1e ab bc ae fd 7a 3d d9 90 ee 3d
       0.11115987 -0.0208888 0.061277084 0.11648721
0003d0 f2 e8 b4 3d e1 65 0d 3d f7 6c f0 3d 4a 7a f8 3d
       0.08833493 0.034520987 0.117395334 0.121327
0003e0 ce b7 8c bd db c8 ab 3d c8 f1 2a bd e0 80 b2 bc
       -0.068709955 0.083879195 -0.041734487 -0.021789968
0003f0 6d 2b 00 3e 52 a6 be bc 9c 05 46 bc dc e7 92 bd
       0.12516566 -0.023272667 -0.012086298 -0.0717313

encoder.0.bias f4 [128]
000000 9a c2 1d be da e4 a3 be e1 79 f9 bb 84 f0 d1 be
       -0.15406266 -0.32010537 -0.007613406 -0.4100381
000010 22 37 3a be 96 a6 b6 be 2a 54 c2 be 5c 70 5f be
       -0.18185094 -0.3567397 -0.37954837 -0.21820205
000020 50 00 a9 be ba 59 87 be 32 c0 e8 be fc 08 66 be
       -0.3300805 -0.26435643 -0.45459133 -0.22464365
000030 b9 f8 95 be 38 b5 11 bf 6f 5d 3e be 7c f8 6f be
       -0.29291323 -0.5691714 -0.1859033 -0.23434633
000040 ae e0 a5 be 3a f1 1a be d1 f5 cb be a8 29 78 be
       -0.3239798 -0.15131083 -0.3983598 -0.2423464
000050 79 55 b5 be 5b 8a c4 be c0 a4 8e be 19 61 a4 be
       -0.35416773 -0.38386807 -0.2786007 -0.3210533
000060 dd 67 d4 be f9 15 0b bf be cd 76 be bf 42 33 be
       -0.4148549 -0.543304 -0.24101922 -0.1750593
000070 b1 fb df be d8 80 19 bf 88 95 85 be fc 60 97 be
       -0.43746713 -0.59962225 -0.26090646 -0.2956618
000080 11 99 be 3d 8b 44 ad be bd 32 e2 bd 83 68 24 be
       0.09306539 -0.33841357 -0.11044834 -0.16055493
000090 e1 b3 60 3e 92 a9 d0 be fa 1b 46 be 8c da 97 be
       0.21943618 -0.40754372 -0.1934661 -0.29658926
0000a0 fa 5a 04 bf 5b 07 91 be 24 14 98 bd 3e 64 92 be
       -0.5170132 -0.28325924 -0.074257165 -0.28592104
0000b0 58 b1 b8 be 9d e2 41 be b4 5b 3b be fa a6 d4 be
       -0.36072803 -0.18934102 -0.182967 -0.41533643
0000c0 41 11 86 be 11 74 15 be 03 e6 32 3e 86 a1 94 be
       -0.2618504 -0.14595057 0.17470555 -0.29029483
0000d0 ce e1 8e be ff 2e 7e be 9d a9 bc be 3e 8f 14 be
       -0.2790665 -0.24822615 -0.36848155 -0.14507768
0000e0 b1 fb c5 be 09 36 07 bf 9c 2f ae be d0 0c 2b 3d
       -0.38668588 -0.52816826 -0.34020698 0.041760266
0000f0 d6 be 4a bd dc d4 59 be 00 db f5 bd 41 bd 15 be
       -0.0494984 -0.21272606 -0.120046616 -0.14622976
000100 e5 09 ab be 44 82 a2 be 7a 0b d6 3c f2 80 80 be
       -0.33405986 -0.3174001 0.02612852 -0.25098377
000110 8e f7 76 be ee 97 35 be 9a 80 28 be 11 8c 36 be
       -0.24117872 -0.17733738 -0.16455308 -0.17826869
000120 99 27 b8 bd 63 00 04 bf 06 9a 2c be 8e c5 a7 be
       -0.08991928 -0.5156309 -0.1685563 -0.3276791
000130 f0 85 a1 be 56 8c ce be 50 5c 48 be a7 eb e1 be
       -0.315475 -0.40341443 -0.19566464 -0.441251
000140 9f e8 b5 be 5d 3d d0 be 28 ec 79 be 24 18 cd be
       -0.35529038 -0.40671816 -0.24406493 -0.4005748
000150 9f 41 d3 be eb 86 24 be 77 0c bb bd 42 4b 21 be
       -0.41261002 -0.16067092 -0.09133237 -0.15751365
000160 f1 4a dd bd a7 85 ba be 99 26 84 be ba 73 5d be
       -0.108053096 -0.36430094 -0.25810698 -0.21626177
000170 7a 1b 20 be f1 f6 8e be 49 38 83 be 94 e9 d3 be
       -0.15635481 -0.27922776 -0.2562888 -0.41389143
000180 9d 8d a9 be 66 ee 7d be 47 17 39 be 0d cc ce be
       -0.33115855 -0.24797973 -0.18075286 -0.40390053
000190 df cf 51 be f4 fc 81 be c9 01 07 bf 2e f2 f3 be
       -0.20489453 -0.253883 -0.527371 -0.47645706
0001a0 48 4f d9 be 42 20 c8 be 01 18 a7 be b1 21 8a be
       -0.424433 -0.3908711 -0.326355 -0.2697883
0001b0 cb 68 6f be 5f 56 69 be 47 35 c3 bd f5 47 9c be
       -0.23379819 -0.22786854 -0.09531646 -0.3052365
0001c0 6c d1 6e be 3b 3b a2 be 9d bd 90 be 73 4e c7 be
       -0.23322076 -0.31685814 -0.28269663 -0.3892704
0001d0 42 23 45 be e6 f1 fa be d5 a7 1d be 6c fe a4 be
       -0.19251731 -0.4901268 -0.15396054 -0.32225358
0001e0 f9 13 d8 be 86 d9 01 bf d7 ac 91 be 55 69 24 be
       -0.42202738 -0.5072254 -0.2845218 -0.16055806
0001f0 f8 6b 8e be b1 56 57 be e4 a4 63 be 0f df 87 be
       -0.2781675 -0.21029164 -0.2223087 -0.26537368

encoder.3.weight f4 [64, 128]
000000 a6 31 fe 3d 58 b7 a9 3d 90 92 02 3d 87 11 ef bc
       0.124118134 0.08286923 0.031878054 -0.029183162
000010 e7 45 2b bd 81 46 24 3e 8c 09 68 3d 39 85 19 3d
       -0.04181471 0.1604252 0.05664973 0.037480567
000020 b9 29 30 bd 7e 03 91 3c e4 1a f5 3d ce 2b c9 bd
       -0.04300854 0.01770186 0.119680196 -0.09822808
000030 0e 6e d3 bd ac 96 ef bb 1c 7d a9 3c 54 80 cf bd
       -0.10323726 -0.0073116627 0.02068954 -0.101318985
000040 a6 77 73 3d d4 7d 06 3d 5b 42 aa bd a7 ee 32 be
       0.059440278 0.032834843 -0.083134376 -0.17473851
000050 b0 ee 09 3e c8 10 19 3d 4f 1e a0 3d 47 be d4 bd
       0.13469958 0.03736952 0.07818281 -0.10387855
000060 12 a9 de bb e9 62 72 3e 7a a0 81 3d 84 82 bb 3d
       -0.006795057 0.23670544 0.063294366 0.09155753
000070 3d a7 29 be d5 52 3f 3d 06 e0 1c 3d 59 0e 24 bc
       -0.16567703 0.046709854 0.038299583 -0.010013186
000080 6c 19 1e 3c cc 08 5b bc d3 75 f9 bc 80 5c 81 bd
       0.009649616 -0.013368797 -0.03045169 -0.06316471
000090 d3 c9 e2 bd a9 cb af 3d f8 70 f6 bd ca 14 c7 bd
       -0.11073651 0.08583767 -0.12033266 -0.09720762
0000a0 39 6e d0 bb 2c 82 49 be 71 68 9f 3d fe f4 02 be
       -0.006360796 -0.19678563 0.077835925 -0.1278877
0000b0 d5 22 22 bd 54 af b4 3c 8c d5 b2 bd 22 2f 0f 3c
       -0.039584 0.02205626 -0.08732137 0.008739265
0000c0 eb 83 00 bc c1 6e 24 3d 27 be df bd d0 a1 d2 3d
       -0.007843952 0.040144686 -0.109249406 0.102847695
0000d0 db d0 aa bd bb e9 45 bc 52 2d d2 3c 4f 7e 44 bc
       -0.08340617 -0.0120796515 0.025656376 -0.011993005
0000e0 68 7c bd bc 35 7c e2 3c d3 64 67 3d 3f 06 bb 3b
       -0.02313061 0.027647117 0.056492638 0.0057075317
0000f0 07 47 0b 3d 01 34 53 3d 6f cd 01 bd 5d 9c d1 bd
       0.034003284 0.051563267 -0.031690057 -0.10234902
000100 c0 25 83 3d 34 58 d4 3d e7 a2 95 bd 4c 16 5c 3d
       0.064036846 0.10368386 -0.07306462 0.0537322
000110 ad a1 96 bc ce e6 6b 3d 28 09 9c 3c b2 49 b9 bd
       -0.01838764 0.05759316 0.019047335 -0.090472594
000120 ea e4 f0 3a 37 83 29 3d 47 d4 89 3a 5c 3d 66 bd
       0.0018378769 0.0413849 0.0010515534 -0.05621086
000130 7e 3d 30 bc 18 de ae bd 16 22 35 bd 06 bc f0 3d
       -0.010756848 -0.08538455 -0.04422196 0.117546126
000140 96 da 0c 3e a7 f7 c4 bd 1a aa 55 bd ff 79 6c bc
       0.13755259 -0.096175484 -0.052164175 -0.014433383
000150 6d 22 87 bd d9 93 05 bd 45 9b cd bc 0c 49 13 bd
       -0.06598363 -0.0326117 -0.025098452 -0.035958335
000160 bc ac 4a 3d 57 69 12 be 19 4b e7 3c 26 aa 13 3d
       0.04948114 -0.14297996 0.028234052 0.036050938
000170 1f 4f e1 bc 80 8a 02 3e 37 a7 be 3d 07 2b 3d 3d
       -0.027503548 0.12748146 0.093092375 0.046183612
000180 e4 70 42 3d 03 0a 6a bd e7 6c 0e bd aa ef 8e 3d
       0.047470942 -0.057138454 -0.034771826 0.06979306
000190 9e 93 a7 3d d2 3e c5 bc ee c2 11 3d 41 f7 27 3c
       0.081824526 -0.024077807 0.03558629 0.010251821
0001a0 28 7c 14 be 69 c1 df bd fa db 1e 3c b0 6a c4 bb
       -0.14500487 -0.10925562 0.009696001 -0.0059941635
0001b0 99 17 6e 3d c1 50 3e bd 30 4a b7 ba e9 73 b2 3d
       0.058127973 -0.04646373 -0.0013983902 0.08713514
0001c0 5e 32 fa bc 2e a0 10 be 69 2e af 3d 18 6a 35 be
       -0.030541595 -0.14123604 0.08553774 -0.17716253
0001d0 35 cc a8 bd cd ad ae bd 74 55 2e 3c 7d 66 f1 bd
       -0.082420744 -0.085292436 0.010640491 -0.11787126
0001e0 87 e0 9a 3d d6 4e 34 3e d3 ce cf 3c bf 45 59 3d
       0.075623564 0.17608199 0.025367176 0.05304503
0001f0 9f bc c3 3d f7 98 82 3d 9e c6 7a bc b7 57 cf bc
       0.09557461 0.06376832 -0.015306143 -0.02531038
000200 3b 23 e0 3b 32 e9 5d bd b3 d0 68 bc c8 b4 d8 3c
       0.0068401373 -0.05417747 -0.014209914 0.02645339
000210 97 f5 95 3d 57 d0 c8 3c cc 2d 65 3d e2 42 0c bc
       0.07322233 0.024513407 0.05595188 -0.008560868
000220 0c 70 25 3d e3 89 22 3d d8 fb 72 bd 38 f0 71 3d
       0.04039006 0.03968228 -0.05932221 0.05906698
000230 e6 48 89 3d 82 fc 4a 3d 1f 5b 27 bd c0 70 50 3d
       0.067033574 0.049557216 -0.040858384 0.050888777
000240 51 5d 67 3d 2c e8 c9 3b 3a 49 48 3d 37 f9 2b 3d
       0.056485478 0.0061617102 0.04889796 0.041985717
000250 5d 48 83 bc 01 47 6d bd c1 4a 8f 3d 28 77 c1 3c
       -0.016025716 -0.057929043 0.0699668 0.023616388
000260 74 3c c1 3d aa 9e 85 3d 48 c3 61 3d ea 03 7d 3c
       0.09435359 0.065244034 0.055117875 0.015442828
000270 11 9e cf 3d 12 f2 99 3d 1e 7b fb 3c b6 92 cb 3c
       0.10137571 0.075168744 0.030698355 0.02485023
000280 28 a3 d5 bc 16 f8 43 bd f6 88 a2 3d db 96 37 3c
       -0.026078776 -0.047844015 0.079362795 0.0112054
000290 a1 72 fc 3b 99 fb 08 bd 9f 7a 6c 3d a0 c3 cd bb
       0.0077040945 -0.033443067 0.057734128 -0.006279424
0002a0 5f 4f e5 3c 42 a7 42 3d 84 56 f8 bc 3e 51 59 3d
       0.027991949 0.04752279 -0.030314691 0.053055994
0002b0 d7 16 82 3d a9 82 8f 3d 3b 99 9b 3d a1 1a da 3c
       0.063520126 0.07007343 0.07597586 0.026624026
0002c0 df e7 5a 3d 0e 50 ab bd 75 29 2c 3d 91 fe d2 3d
       0.053443786 -0.083648786 0.042031724 0.10302461
0002d0 bb 71 4e bb c6 ac b2 3d 40 9d ad 3d 64 91 ce 3d
       -0.0031500894 0.0872436 0.08477259 0.10086325
0002e0 fa 47 13 bd 57 fd bb 3c 2c 62 8b 3d 49 ad 9c bb
       -0.035957314 0.02294795 0.06805834 -0.0047813994
0002f0 fc b8 99 bc 32 3e ac 3d 26 2a b0 3d 36 32 4a bc
       -0.018764965 0.084103 0.08601789 -0.012341073
000300 28 71 d4 3d b1 e3 4f 3d e7 23 96 bb 3b 84 07 3d
       0.10373145 0.050754253 -0.0045819166 0.03308509
000310 14 45 13 bb d2 ac f1 bc 0d 3d 1a bd 35 3c 67 bd
       -0.0022471594 -0.029501352 -0.03765588 -0.056453902
000320 4f ca 9d bd 6b a5 07 bd 47 8b 6e bd 9f d9 48 bc
       -0.07704603 -0.03311674 -0.058238294 -0.012258916
000330 3c 25 df 3d 86 48 2c 3d 1a 07 cc bb b4 70 36 bd
       0.10895774 0.04206135 -0.0062264325 -0.044541076
000340 11 43 49 bd b5 44 e4 3d a2 3c a4 bd 3f 1a dc 3d
       -0.049136225 0.11145917 -0.08019377 0.107471935
000350 7c c5 6d 3c 5d ed ad 3d 63 3b 9a bd e6 1d 7b bd
       0.014512416 0.08492539 -0.07530858 -0.06130781
000360 f1 4a 8b bd b0 f7 78 3d f1 ce 27 bd 50 66 a4 3d
       -0.06801403 0.06078309 -0.04096884 0.08027327
000370 4a f5 ec bb d8 97 a7 3b 00 0f cf 3d 93 2d 59 3d
       -0.007231389 0.0051145367 0.10110283 0.05302198
000380 b2 4b 87 3d b1 4f 4c bd a0 3a 3b 3c c1 02 3a 3d
       0.066062346 -0.049880687 0.0114275515 0.045412783
000390 46 8a 46 bc 72 1e 9f 3d ae ad 16 bd 01 7e 04 bd
       -0.012117928 0.07769479 -0.036786728 -0.03234673
0003a0 41 0a 2f 3d 70 85 ac 3d cd d4 2d bd e8 41 3b bd
       0.04273439 0.08423889 -0.04243927 -0.04571715
0003b0 2d e1 68 3d a3 fa 07 bd 03 17 00 bd 18 2e 86 3d
       0.05685537 -0.03319801 -0.031271946 0.065517604
0003c0 0e 84 9a 3d d5 fc 7f 3d 53 82 99 3d 23 eb 17 3e
       0.07544719 0.06249698 0.074955605 0.14835791
0003d0 61 c3 30 3c 4f 0a 14 3e 03 b4 0a bd 6f c9 a2 3d
       0.010788769 0.14457057 -0.03386308 0.07948577
0003e0 a2 2e dd 3d 6c 50 44 bd 9a c4 3c bc 6b 79 2a bc
       0.1079991 -0.04792826 -0.011521483 -0.010404925
0003f0 30 1f 59 3c c4 a9 99 3d 86 43 f1 bc d2 ad 45 3c
       0.013252065 0.07503083 -0.029451143 0.012065368

encoder.3.bias f4 [64]
000000 0b 02 2f be 21 7f 8b be 4e a8 27 be d5 24 d1 be
       -0.17090623 -0.2724543 -0.16372797 -0.40848413
000010 23 46 33 be e9 e7 17 bc 9e af 19 3d 15 05 2a be
       -0.17507224 -0.0092716 0.037520997 -0.16603501
000020 12 02 e1 be 4a 89 e1 bd a7 eb 75 3c 5f 5f 37 bb
       -0.43946892 -0.11012514 0.015009797 -0.002798043
000030 f1 b9 31 bd 77 5e a7 3d 8d 66 53 be fa 5b 55 bd
       -0.04339022 0.081723146 -0.20644589 -0.05208967
000040 6b 75 d3 bc f3 33 1e be 69 14 67 bd c4 4e 20 bd
       -0.025812825 -0.15449505 -0.05641595 -0.039137617
000050 75 7d c4 be ff 74 a4 bc 63 e5 7d be 0b 10 42 bc
       -0.38376966 -0.02007532 -0.24794535 -0.011844645
000060 f4 21 a4 bd a2 39 94 be 39 52 c2 be ff 05 88 be
       -0.080142885 -0.2895022 -0.37953356 -0.26567075
000070 3b 5a 45 be e2 84 f0 bd 6a 05 4b bd a4 3a 82 bd
       -0.19272701 -0.117440954 -0.04956571 -0.06358841
000080 a1 c6 54 bd 3c 65 17 be 12 df 46 3c 69 2f 58 3d
       -0.05194724 -0.14784712 0.012138145 0.05277959
000090 ae c6 05 be 82 b0 16 be b8 93 90 be bb 70 22 be
       -0.13064072 -0.1471577 -0.282377 -0.15863316
0000a0 59 b5 bd be 7f d0 fe bd 49 66 96 be 9b 7a 80 bd
       -0.3705242 -0.12442111 -0.29374912 -0.06273385
0000b0 2d 7e 95 be 9e da 21 3c 77 54 cb be 46 cb 50 be
       -0.29197827 0.009878783 -0.3971288 -0.20390043
0000c0 56 21 36 3d 51 02 2f bd e8 b5 d1 bd 0f 7e 64 be
       0.044465385 -0.04272682 -0.10239774 -0.22313713
0000d0 29 e0 ce be 10 fb 56 be cc 12 6c bd 20 0b df bd
       -0.40405396 -0.2099421 -0.057635114 -0.10890794
0000e0 a1 f6 95 bd 44 6a 3d be e2 e4 3e bd 4c e6 85 bd
       -0.07322431 -0.18497568 -0.046605 -0.06538066
0000f0 3e 04 92 be b5 62 84 3c 3b ca 0e 3d 39 a6 3d bc
       -0.28518862 0.016160348 0.03486083 -0.011575275

encoder.6.weight f4 [32, 64]
000000 8d 68 6f 3d 59 26 fd 3d 2a 56 27 be 56 48 c2 3d
       0.058449317 0.1236083 -0.16341463 0.09486453
000010 2a 91 5b 3d 58 fe 61 3c d3 ef 78 3b 8d de 6c 3e
       0.053605236 0.01379355 0.0037984743 0.23131771
000020 25 9f f2 3d 69 0f 4a be 69 a9 83 be fe f4 a9 bb
       0.11846761 -0.19732441 -0.25715187 -0.005186676
000030 03 3f 35 bd 1d f6 7e bd 60 eb ac bd 91 e6 1c bd
       -0.044249546 -0.06224643 -0.08443332 -0.038305823
000040 b8 7b 8f 3d 36 81 36 be 3d e7 92 3d da c8 8d 3d
       0.07006019 -0.17822728 0.071730115 0.06923075
000050 bb 4d dc 3d 58 02 93 bd a1 e6 05 3e 8b 82 c3 bd
       0.107570134 -0.071781814 0.13076259 -0.095463835
000060 64 52 9a 3c f4 a1 96 bc 42 cd 53 bd 3f 36 a6 bd
       0.018838115 -0.018387772 -0.05170942 -0.08115815
000070 7f ac 1a 3d 1e 92 2c 3d a1 ca ae 3c 32 74 50 bc
       0.03776216 0.042131536 0.021336855 -0.012723016
000080 a6 64 54 3d 74 3c 61 be 87 90 fd 3d 6d 39 94 3c
       0.0518538 -0.21995717 0.12381082 0.018093789
000090 9d 4f 26 be 58 ed 0b 3d 0f ff 2a 3e 5c ba 59 3c
       -0.16241308 0.034161896 0.1669886 0.01328906
0000a0 c0 5a 71 3c 4a 53 28 bd bc 1a 13 3e 14 b3 f3 bd
       0.014731109 -0.041095056 0.14365667 -0.11899391
0000b0 5a 54 8e bd 06 75 88 3c 3c a3 60 3d 19 71 14 be
       -0.069496825 0.016657364 0.054843172 -0.14496268
0000c0 09 7b 57 be 25 4e 74 3d ff 15 4d 3d 09 7b 9f bc
       -0.21043028 0.059644837 0.050069805 -0.019467847
0000d0 7b 38 23 bc 5d 4c 17 bd a6 d3 17 be 3f 8f 1f 3e
       -0.009962196 -0.03693806 -0.14826831 0.15581988
0000e0 6e 49 79 be 0a 09 fb bc 76 99 c6 3d 3c 5e 79 3d
       -0.24344417 -0.030643959 0.09697239 0.060880885
0000f0 6c bb 31 3d 24 43 dd 3d 05 8f 40 bd e6 b0 17 bc
       0.04339163 0.10803822 -0.047011394 -0.0092584845
000100 ec 99 07 3d e4 7c d0 3b f7 04 3f be 66 62 12 3e
       0.033105776 0.0063625444 -0.18654238 0.14295349
000110 76 2a d9 bd e0 14 6f bd 9c 8a 7b bd 20 04 0d 3e
       -0.10603802 -0.058369517 -0.061411485 0.13771105
000120 14 a2 ff 3d 93 82 0b be 12 78 f0 bd 6a e5 dc bd
       0.12482086 -0.13624029 -0.117416516 -0.10785945
000130 76 bc ce 3c 55 27 16 3d 91 4c a9 bc e2 dd 13 3e
       0.02523635 0.036658604 -0.020666393 0.1444011
000140 e5 cb b8 3c a8 24 3c be 37 af 8a 3d dc 16 ea 3b
       0.022558162 -0.18373358 0.06771701 0.0071438383
000150 4d 07 a3 bd e2 a7 b0 be 7e cf 15 3e 51 35 51 3a
       -0.07960377 -0.34503084 0.14629933 0.0007980662
000160 cc 23 ff 3d 4f 74 7f 3d c0 f7 92 bd 4c 8c 5e be
       0.124579996 0.06236678 -0.07176161 -0.21733207
000170 ae 13 9d 3c 79 5f 0e be b0 ae 23 3d 59 46 c1 3d
       0.019174423 -0.13903607 0.039961517 0.09437246
000180 9e 41 a2 3d 58 0b ae be 96 64 aa 3d 05 b1 ae bc
       0.07922672 -0.3399303 0.083199665 -0.021324644
000190 6e e0 5b bc ed 6e b2 3d b1 c6 03 3e 1c 56 80 3d
       -0.013420207 0.08712564 0.12868764 0.06266424
0001a0 d8 f2 53 3b db 89 ef 3d 83 15 ca 3d 1b b4 a2 bd
       0.003234079 0.11696216 0.09867384 -0.07944509
0001b0 ed 42 5b bd 8b 4f f4 3b 7c 84 25 bc 24 83 bc bd
       -0.053530622 0.0074557713 -0.0101023875 -0.092047006
0001c0 2d ef 06 be f5 d9 b6 3c d9 0a a7 3d 03 9f 0e 3d
       -0.13177176 0.022320727 0.08156366 0.034819614
0001d0 6f b3 27 bd 02 24 7b bd 77 e8 1a be 47 e7 c2 3c
       -0.040942606 -0.061313637 -0.15127741 0.023791922
0001e0 8d 1c 79 be e0 cb 7e bc 6e d7 00 bd ba 82 19 3e
       -0.24327298 -0.015551537 -0.03145545 0.14991274
0001f0 d9 df a9 bc ed af 66 bd b8 fa 84 bd d3 b7 eb 3d
       -0.020736622 -0.05632012 -0.06493133 0.11509671
000200 f2 46 e8 bb f9 9b 6b bc cc e5 20 bd 7e 19 97 3d
       -0.0070885355 -0.0143804485 -0.03928165 0.07377909
000210 25 b8 0d 3e 6f 96 30 bd 16 bb a7 bd ee f5 9f bd
       0.13839777 -0.043112215 -0.08189981 -0.07810579
000220 26 8d 1d 3d 5d f4 5e 3d fe 44 a6 3d 8f 01 53 be
       0.038464688 0.05443226 0.08118628 -0.20606063
000230 01 bf 11 be 9b 1b 4b bc 06 3c 3b bd d9 8a 02 3e
       -0.14233018 -0.012396718 -0.04571154 0.12748279
000240 32 2e fa bd 14 2b 1c 3d 4c 75 68 3d f5 53 d4 bd
       -0.12215842 0.03812702 0.056752488 -0.10367576
000250 2d af 3a 3d df 3d 8b bd e0 d7 a3 3d e8 d6 c3 3c
       0.045577217 -0.0679891 0.08000159 0.023906186
000260 dd 01 5c bd 96 82 0a 3e 61 bb 0f 3e 0d e1 89 bd
       -0.053712714 0.13526377 0.14036323 -0.06732378
000270 ce 89 5f 3d f3 8f aa bd be 8e 22 3b 68 d0 be bd
       0.05457478 -0.083282374 0.002480432 -0.09317094
000280 34 a5 9f bd 3e ea 23 bd d3 6a 2a be 32 70 27 bc
       -0.07795182 -0.040018313 -0.16642313 -0.010219621
000290 5e ef 7a 3d fe 7f 61 be 9c 41 b4 bd cf 35 cc 3c
       0.061263435 -0.22021481 -0.088015765 0.024928002
0002a0 71 ed 9c 3d 2b d3 9a bd dd 7a 7c bd 6b 0a a9 3d
       0.07662476 -0.07559808 -0.06164061 0.0825394
0002b0 1d 2a ce 3d 61 f7 22 bd 6b 6e d5 3d 22 8e 5d 3d
       0.10066626 -0.0397867 0.10421451 0.054090627
0002c0 0d 2f ce 3d 9a d9 07 be a5 85 c8 bd a1 f5 0b bd
       0.10067568 -0.13266602 -0.09791116 -0.034169797
0002d0 51 27 6b bd f0 2a 81 3d 74 0f d8 3d 9b a3 30 bc
       -0.057410542 0.06307018 0.105498224 -0.010781194
0002e0 f7 19 42 bd 27 28 94 3c 44 71 99 3c d9 86 6b be
       -0.047388043 0.018085552 0.018730767 -0.23000659
0002f0 a5 d5 a9 3d 30 08 30 be 90 18 cb 3c 35 3e 57 be
       0.082927026 -0.17190623 0.024791986 -0.21019824
000300 49 fc 41 be 86 c6 20 3e f4 82 90 3d 14 13 be 3c
       -0.18943895 0.1570073 0.07056227 0.023202457
000310 be 67 22 3e b2 7c 2c be 87 b7 16 be 8e b2 00 be
       0.15859887 -0.16844442 -0.14718448 -0.12568113
000320 28 0e eb ba be b4 a2 bd 29 9c e2 3c dd 9e 6a bd
       -0.0017933296 -0.0794463 0.027662354 -0.05728041
000330 3d ad 0c be c1 39 07 be 46 c5 dd 3d 27 c1 82 bd
       -0.1373796 -0.13205625 0.108286425 -0.06384497
000340 76 1a 7e bb 84 5b 8d bd 91 b8 7e 3c db 3e 24 bd
       -0.0038773096 -0.06902221 0.015546934 -0.040099006
000350 30 a5 bb 3c a4 4d b3 3d a2 65 8f 3c 19 c6 16 3d
       0.022905916 0.08755043 0.017504517 0.036810014
000360 87 03 04 be 70 af 02 bd 19 13 22 3e 17 49 a7 3d
       -0.1289197 -0.03190559 0.15827598 0.08168238
000370 e8 f4 28 3d fe 05 93 bc fa 26 d2 bc ec 0c 1a be
       0.041249186 -0.017947193 -0.025653351 -0.15043992
000380 c7 ee 2c 3c c7 08 25 3d 5e 57 0d bd 97 77 2e be
       0.010554976 0.040291574 -0.034507148 -0.17037807
000390 88 4d 65 3d bc 43 9f 3b b1 b3 d9 bd 84 2a 5e bd
       0.055982143 0.0048603695 -0.106299765 -0.054239765
0003a0 32 5e 59 ba e3 b3 05 3d 7d e2 35 3d 67 93 f4 3c
       -0.0008291929 0.032642256 0.04440545 0.029855443
0003b0 f9 ef ce 3d 61 d4 8d 3c 12 f2 ac 3d 2b e0 15 3e
       0.10104365 0.017313184 0.08444609 0.14636295
0003c0 a6 10 d5 3d b2 b0 ad 3b ca 72 d5 bc 2e e6 01 be
       0.10403566 0.0053006047 -0.026055712 -0.12685463
0003d0 3c 40 13 3e 97 a6 e0 3d ca dd 50 3d b3 6f 3e be
       0.14379972 0.109692745 0.050992765 -0.18597297
0003e0 0f 3d ce 3c bb 25 07 3e 5a 3d 3f be 7b bc cb bd
       0.0251756 0.13197987 -0.18675748 -0.09948059
0003f0 37 8f 74 3c 39 8d b0 bc 43 38 2f be 4a cb 13 be
       0.014926723 -0.021551715 -0.17111306 -0.14433017

encoder.6.bias f4 [32]
000000 45 9f 5b 3b a0 b4 50 be 7b cd c8 3c e7 cb ca 3b
       0.003351168 -0.20381403 0.024512043 0.006188858
000010 a3 9b 91 bc 50 ec 2c 3d b7 82 dd 3b fd 18 02 3d
       -0.017774409 0.042217553 0.006759967 0.031762112
000020 e5 6d c3 3c 5f c0 14 3d 43 fa 0a 3d e1 60 0a 3d
       0.023856113 0.036316272 0.033930074 0.033783797
000030 fb d4 27 bd 38 1b 62 3c d3 cf 42 bd 92 a6 0d 3d
       -0.0409746 0.013800435 -0.047561478 0.034582682
000040 45 c4 0f bd 71 b8 09 bd ef 4c 9f 3c cd 76 a4 3c
       -0.035099287 -0.033623163 0.019445864 0.02007618
000050 b7 25 a6 3c e3 d8 45 3d ad 24 55 3d 74 97 41 3d
       0.020281656 0.048302542 0.05203693 0.047263578
000060 48 6e 3b 3d fd 1f 2b 3d 56 b0 24 3d 3f 2b 54 3d
       0.04575947 0.041778553 0.04020723 0.051799055
000070 5e 1f 9f 3c c3 f3 ee 3c 6e 16 1c 3d 24 cc f2 bc
       0.019424137 0.029168969 0.038107328 -0.029638357

encoder.9.weight f4 [4, 32]
000000 24 00 09 be b5 b3 38 bd 88 c6 55 3d 92 7c ba bd
       -0.1337896 -0.045093257 0.052191287 -0.09105791
000010 3f be c0 bc 49 16 88 bc e2 7f 09 be 34 63 84 bc
       -0.023528216 -0.016612189 -0.1342769 -0.016160585
000020 d3 84 2e 3d db cd 94 ba f0 47 c3 bc 25 c7 72 3c
       0.04260714 -0.0011352854 -0.023838013 0.014817988
000030 76 d8 4e 3e eb c6 b2 bd 68 36 9f bc b7 47 66 3d
       0.20199761 -0.08729347 -0.019435123 0.056220736
000040 c4 8f cf bd 7d 5a 4a be 3e 14 86 bc d6 a6 20 be
       -0.10134843 -0.19761081 -0.016367074 -0.15688643
000050 58 45 80 bb 61 b5 b7 bc 36 e5 a5 bc a3 71 be 3b
       -0.0039145164 -0.022425355 -0.020250898 0.0058118864
000060 c8 50 a0 3d 7f fd 0f 3d 85 36 9a 3d 85 69 72 3d
       0.07827908 0.035153862 0.0752993 0.059182663
000070 c5 65 41 3e a1 5c ab bc 8d f7 8f bc 45 00 82 bc
       0.18886478 -0.020918192 -0.017574096 -0.01586927
000080 48 b7 f1 bd 38 a4 4b be 82 64 47 3e ee c7 1a 3e
       -0.11802536 -0.19886863 0.19471934 0.1511533
000090 68 9b df bd 36 e3 9a 3d 50 b0 1f 3e 8a d2 8a bc
       -0.10918313 0.07562868 0.15594602 -0.016946096
0000a0 d9 0e 3d 3e 86 de 0a 3e ea eb b8 3d 30 83 e8 3d
       0.18462695 0.13561448 0.09029372 0.11353147
0000b0 f4 5d c7 bd cb cf eb 3d c6 66 c9 bd 44 c5 14 3e
       -0.09734717 0.11514243 -0.098340556 0.14528376
0000c0 e3 4f 33 be e9 06 1e be 05 2b 3d be 7c 1e 3c 3c
       -0.17510943 -0.15432324 -0.18473442 0.011481877
0000d0 e9 79 8a 3d 13 9c b8 3d 4d 0f 94 3d cd 35 9d 3d
       0.06761534 0.09014144 0.07229481 0.07676277
0000e0 a5 12 21 3e d2 c6 5b 3d a5 b9 06 3e 5e b0 b5 3d
       0.15729769 0.053656407 0.13156755 0.0887153
0000f0 41 cd b6 bc ba 90 ca 3d 96 de c0 3d bc ed ab bd
       -0.02231467 0.09890886 0.09417455 -0.083949536
000100 15 55 f4 3d b9 ba 0c 3e 50 85 cb bd 39 b9 51 be
       0.119302906 0.13743104 -0.09937537 -0.20480813
000110 1b d7 ae 3d 57 18 2c bd 66 96 4a be 89 35 31 3e
       0.08537122 -0.0420154 -0.19783935 0.17305578
000120 a4 cb 9d bc 46 46 37 be 92 16 af bd 83 6a 3a bd
       -0.019262142 -0.17897901 -0.08549227 -0.045511734
000130 f2 16 ed 3d 3f b9 38 be 7f 6b dd 3d 7a 75 1c bd
       0.11576642 -0.18039416 0.10811519 -0.038197972
000140 cf 8c 95 3d ed 3b 32 be 29 3b 1a 3d 2a 91 41 3e
       0.07302248 -0.17405672 0.037654076 0.18903032
000150 dd cd b0 3d 25 13 37 bd 02 b2 bf bc 6c f2 85 bc
       0.08633015 -0.044695992 -0.02340031 -0.016350947
000160 d7 29 b5 3c db e5 11 bd 75 08 9b 39 c2 ab ad bc
       0.022114677 -0.035619598 0.00029570205 -0.021200065
000170 f5 ee 3a be 6e 74 de bd 5d 0a 75 3d 0f df ce 3d
       -0.18255217 -0.10862051 0.059824336 0.10101139
000180 22 09 10 bd 0a b5 06 bd a4 2c 39 3a 99 0d fe bd
       -0.03516496 -0.032887496 0.0007063842 -0.12404937
000190 ea c2 c0 bb f6 70 6d 3e 0c f7 24 be ac ac 0c 3d
       -0.0058826106 0.23187622 -0.16109866 0.03434436
0001a0 44 c0 76 3b 43 14 d7 bb b0 67 44 bd cf 98 b1 bd
       0.003765122 -0.0065636947 -0.047950447 -0.08671724
0001b0 67 01 e4 3c 01 1c d8 bc 89 18 3c 3b 79 ae 89 bd
       0.0278327 -0.02638054 0.0028701148 -0.06722731
0001c0 b9 5c d5 bb 35 03 b6 3d 79 0b ad 3b bb 60 ba 3a
       -0.0065112975 0.088873304 0.0052809087 0.0014219502
0001d0 74 fd c5 3d f4 a9 7b 3e 71 0a 52 3e b2 cb 54 3e
       0.09667483 0.2457655 0.20511796 0.20780829
0001e0 1f 0d b4 bd 6e d3 4c 3e 42 a0 4f bd 46 10 7f 3e
       -0.08791565 0.20002529 -0.050689943 0.24908552
0001f0 c7 74 e5 3c c7 2c 34 bd e7 b6 26 3e 9c 59 f3 3c
       0.028009785 -0.043988016 0.16280709 0.029705815

encoder.9.bias f4 [4]
000000 4b 54 93 3c 5a 8e 63 bd 1e 9c 02 3e 3e 6a 15 bd
       0.01798453 -0.05555568 0.12754866 -0.036478274

decoder.0.weight f4 [32, 4]
000000 d4 91 9a be 03 05 02 3e 2b 6f 6a be c4 f0 46 3e
       -0.30189383 0.12697224 -0.2289397 0.19427782
000010 e0 28 5e bc ab dd 01 3f 91 7f 02 bf bc 9e 9d 3c
       -0.01355955 0.50728863 -0.509759 0.01924073
000020 1d c7 c7 3e c9 8c ce 3e 57 54 a3 be f2 41 85 be
       0.390191 0.40341786 -0.31900284 -0.26026875
000030 fa c0 d1 3e 29 f9 09 3f ab f6 ea be 3b 3f 56 3e
       0.40967542 0.53895813 -0.45891318 0.20922558
000040 a5 a2 9b 3e 06 f2 86 3e c8 2e a7 bd 8c e4 7f be
       0.30397525 0.26356524 -0.0816322 -0.24989527
000050 fa a2 d4 be e3 59 e8 3e 78 87 8e 3e 8c 2d b6 3e
       -0.4153059 0.45381078 0.2783773 0.35581625
000060 69 55 97 be 67 ec 88 be ad 7d 77 3e 95 e1 cb 3e
       -0.2955735 -0.2674286 0.24169035 0.39820543
000070 84 a1 35 3e 02 06 84 be ee 30 9f be 6f 57 9c 3e
       0.17737395 -0.25785834 -0.31092018 0.30535457
000080 56 44 2d 3e 58 6b 34 3e 07 31 cc 3e d1 a9 27 be
       0.169206 0.17619073 0.39881155 -0.16373374
000090 c3 03 fc 3e c8 83 80 bd ff b3 d5 be 0b da 94 3e
       0.4922162 -0.06275135 -0.4173889 0.29072604
0000a0 e7 4c 50 3e 2a 8a c3 be b9 07 c2 3d 0a 99 0b bf
       0.20341836 -0.38191348 0.09474129 -0.54530394
0000b0 17 c7 bb 3e 6e 3a 04 bf 2f 0c 08 3f a0 e3 e7 3e
       0.3667533 -0.51651657 0.5314359 0.45290852
0000c0 45 ad 1b 3c cf f1 9e 3e 7b aa e2 3e cb aa 8f 3e
       0.00950176 0.3104386 0.4427069 0.28059992
0000d0 c7 17 a2 bc fe e6 ef be bf f6 9d be 3f c0 3a bd
       -0.019786729 -0.4685592 -0.30852315 -0.045593496
0000e0 be 22 6a be c2 65 68 3b 81 39 03 be 32 3a f9 bb
       -0.22864816 0.0035461043 -0.12814905 -0.0076058144
0000f0 17 a9 0f 3f d0 09 74 be 63 50 ec 3d 98 e9 a4 3c
       0.56117386 -0.23831868 0.1153877 0.020130917
000100 68 4f 5d bd 27 16 69 be c2 5b f7 bb 25 93 b5 3e
       -0.054030806 -0.22762357 -0.00754878 0.35463825
000110 d3 ad 9c 3e ad d7 18 3e e0 c8 74 be 07 5d b6 be
       0.30601367 0.14926024 -0.23904753 -0.3561785
000120 7d 12 c2 bd 48 f0 59 be 6f 91 e6 3e d1 af 97 be
       -0.094761826 -0.21283066 0.45032832 -0.29626325
000130 e5 73 32 be fd 6d 04 be e0 e9 ca be cc 0f 4b be
       -0.17427023 -0.12932582 -0.39631557 -0.19830245
000140 a6 4a cc ba 73 88 bd be c5 6f 8f be 42 33 da 3e
       -0.0015586212 -0.37018165 -0.2801496 0.42617232
000150 60 1c 93 3e f8 c0 d9 3e 45 d3 b6 be f7 d9 e7 bd
       0.28732586 0.42530036 -0.3570806 -0.1132087
000160 14 b0 08 be 08 fb 55 3e f5 1c 00 3e b4 cc 67 3e
       -0.13348418 0.20896542 0.12511046 0.22636682
000170 be 62 9d be 6f c8 4f bd 60 0e 1b 3d d9 bf 83 3e
       -0.30739397 -0.050728258 0.037855506 0.25732306
000180 1d 8a 55 be a6 79 7c be 83 ae 94 3e 60 34 82 3e
       -0.20853467 -0.2465578 0.29039392 0.25430584
000190 79 ab b8 3e 10 73 cc be cb 6f e0 be 8c b1 08 3d
       0.36068323 -0.39931536 -0.4383529 0.033372447
0001a0 8e 70 d4 bd c5 ff 09 3f 78 0c 87 be 29 53 64 be
       -0.103730306 0.539059 -0.263767 -0.22297348
0001b0 f4 fb ff 3e 26 12 6e be 2b c4 bb bd 58 3c 4c 3c
       0.49996912 -0.2324911 -0.091682754 0.012465559
0001c0 bc 85 f3 be 90 c8 b5 be c4 ff d1 be 21 78 97 3e
       -0.4756297 -0.3550458 -0.41015446 0.2958384
0001d0 cc 4d 85 bd e3 02 7b 3e 72 50 b5 3e 6c 64 e3 3e
       -0.06508979 0.2451282 0.35412937 0.44412553
0001e0 04 5b eb 3d c2 9a a4 be 8b ae d8 be b8 1c 94 3e
       0.11491969 -0.3214932 -0.42320666 0.2892816
0001f0 e0 6c 28 bd ef 72 98 be c5 1f 5c 3e 8d dd 99 be
       -0.041119456 -0.29775187 0.21496494 -0.30051842

decoder.0.bias f4 [32]
000000 13 56 34 bf 29 80 e9 3d b2 8c 09 bf 2a 8c 97 3e
       -0.7044384 0.11401398 -0.5373031 0.29599124
000010 1e c4 54 3e 03 94 14 3e 55 e2 79 be 63 f2 0d be
       0.20777938 0.14509587 -0.24402745 -0.13861994
000020 95 ee e1 3e f6 d2 0e bf ab ef 78 3d 7b 76 ec 3d
       0.44127336 -0.5579065 0.06077544 0.11546036
000030 7d 21 99 3e 6c 8f 59 3e 67 cd b0 3e bc 93 ad 3d
       0.29908362 0.21246117 0.3453171 0.08475444
000040 c4 5b c3 3e 9f ac f0 be b2 bf db 3d f4 8b e8 be
       0.3815595 -0.470067 0.10729922 -0.45419276
000050 7b 77 b6 be f2 56 ae be 87 53 ce be ab 86 fc 3e
       -0.3563803 -0.3405071 -0.402981 0.49321494
000060 9d 36 d8 bd 1a f0 24 be fe fb 12 3e 5e f3 66 3d
       -0.10557292 -0.16107216 0.1435394 0.056384437
000070 f2 63 c6 3e d5 24 36 3e 55 e6 27 be 0b 3a cd 3e
       0.38748127 0.17787488 -0.16396458 0.40083346

decoder.2.weight f4 [64, 32]
000000 2a 1e d7 3d 35 da b4 3d 4f fa 18 3e 3c 42 87 3d
       0.105038 0.08830682 0.14939235 0.0660443
000010 7a 18 b8 bc 95 b2 22 bd 60 f2 7a be 7f c9 8e 3d
       -0.022472609 -0.03972109 -0.24506521 0.06972026
000020 c2 a4 57 3d 59 1c 01 3d ad 05 1b 3e d4 83 45 be
       0.05264736 0.031521175 0.15138884 -0.1928857
000030 28 19 a8 3d c0 a4 1b 3e 13 40 08 be 8d 4c b2 bd
       0.08207923 0.15199566 -0.13305692 -0.08706007
000040 ff 53 f5 3d 3d fc 1b 3d e2 04 94 3d 29 35 97 3c
       0.119789116 0.03808235 0.07227494 0.018457966
000050 f4 6d 61 bd 8a 4b d0 3d fa 9f 9b 3e 60 a6 a7 3c
       -0.0550365 0.10170658 0.3039549 0.020465076
000060 d0 74 88 be 6e 42 f0 bd 6e ea 84 bd 1f 11 ba bd
       -0.2665162 -0.117314205 -0.064900264 -0.09085297
000070 d2 ce 90 bb 76 20 0c 3e 1d 6c f1 3d 40 f0 96 3d
       -0.004419186 0.13684258 0.11788199 0.07370043
000080 52 98 b4 bd e0 72 c9 bd 1d 06 5d be 03 7e b7 3d
       -0.08818115 -0.09836364 -0.21584363 0.08959582
000090 e8 1f 75 bd 94 ab 1f 3e 85 3d 40 3c b3 29 1d be
       -0.05984488 0.15592796 0.011733417 -0.15347938
0000a0 fa 04 b8 3d e9 cf 8f bd 5c 30 82 bd 72 52 b8 3c
       0.08985324 -0.070220776 -0.0635688 0.02250025
0000b0 af 66 3e 3c d7 52 6f bd d9 c3 3b 3e 6a 0f a9 3c
       0.011621161 -0.05842861 0.18336429 0.020637233
0000c0 7e 0d 5c bd 40 1a 2f be 3f f5 e6 bd 51 81 12 3d
       -0.053723805 -0.17099857 -0.11277246 0.035767857
0000d0 a3 04 4e bd fc 22 92 be 6b dc 23 3d ec 30 b7 3d
       -0.05029739 -0.28542316 0.04000513 0.08944878
0000e0 02 2d bf 3d 9f 89 b3 3c b4 f6 b5 be 4d 5c dd 3d
       0.093347564 0.021916209 -0.35539782 0.108086206
0000f0 c9 35 12 be 0d b4 ec 3d 12 5e 1c be 78 c0 1f 3e
       -0.1427833 0.115577795 -0.1527026 0.15600765
000100 a0 12 2a bd 9e e6 72 3d bc d3 4e 3d be 6f 65 3e
       -0.04152167 0.059301965 0.050494894 0.22405908
000110 53 fa 26 3d 45 8b 2b 3d 21 ea 7e be 5e 5b c1 ba
       0.04076607 0.041880865 -0.24894 -0.0014751961
000120 e5 83 86 3e 0e 1b a6 3d bd 38 1f 3a 46 f0 0d 3d
       0.26272503 0.08110629 0.00060738233 0.03465297
000130 af c4 1d 3d a5 53 20 be 34 ca 73 bd 70 1f c0 bd
       0.03851765 -0.15656908 -0.059519008 -0.09380996
000140 5b 67 8d bd e8 81 89 3d 18 08 1d bd 60 f5 da bd
       -0.06904479 0.06714231 -0.038337797 -0.10691333
000150 d3 62 f9 bd 01 8b 26 be 0f c8 c8 3d 89 77 57 3d
       -0.12177052 -0.16263963 0.09803783 0.052604232
000160 4e de ed bd 07 3f ea bd 75 12 fa bc 4a 00 c5 3d
       -0.11614667 -0.11437803 -0.03052638 0.09619196
000170 9d b2 18 3d d7 3c 07 3d 8b 4e 0f be d0 13 83 be
       0.037279714 0.033017006 -0.13994806 -0.25601053
000180 dd 36 fb 3c d8 41 47 bd 10 1f b7 3d b3 88 49 3d
       0.03066581 -0.048646778 0.089414716 0.049202632
000190 da 24 ad bd e1 a1 15 be 78 80 30 bd b5 df 40 be
       -0.084542945 -0.14612533 -0.043091267 -0.18835337
0001a0 86 d6 21 3e 7d c0 1b bd de d8 9a 3d 18 3a 24 bc
       0.1580449 -0.038025368 0.075608954 -0.010023616
0001b0 e2 21 d0 3c ef 67 65 3e dd 0a 8d 3d fb 42 39 bd
       0.025406782 0.22402929 0.06886838 -0.045229893
0001c0 2b ef 8b bd d4 41 18 3e a3 2a 36 3c dc 2d f3 bc
       -0.06832727 0.14868861 0.011118564 -0.029684953
0001d0 50 53 04 3e 45 9d 7b bd 1e dc ea bd 35 b6 b4 bd
       0.12922406 -0.06142928 -0.11467765 -0.08823816
0001e0 4d 1f b5 bc 05 98 48 3e e4 d4 0a 3c 3d 2b 0f 3e
       -0.022109652 0.19589241 0.008473609 0.13981338
0001f0 ad 3b 97 bd b4 ff eb bd 81 42 27 be da 74 83 3e
       -0.07384429 -0.11523381 -0.16333963 0.25675088
000200 54 2c 9c bd 25 83 d5 3b 44 61 bf 3d 89 41 10 bd
       -0.076256424 0.006515878 0.09344724 -0.03521875
000210 db 77 15 be ea a1 fb 3d 4e e5 01 be 23 1c a0 3c
       -0.14596502 0.12286742 -0.12685129 0.019544667
000220 f7 89 5d bd 07 36 04 3d 46 84 fe 3d 48 c1 8a 3d
       -0.05408665 0.032278087 0.12427573 0.06775147
000230 b8 56 cb bd 4a 81 90 bd d3 f3 de 3d 3d 39 43 bd
       -0.0992865 -0.0705591 0.108863495 -0.04766201
000240 0e 85 93 bd 73 47 14 bd 7c 0d 96 3d a5 a8 f2 bd
       -0.072031125 -0.03620095 0.07326791 -0.11848573
000250 a3 95 6e 3d 7f f1 10 3e 6c 44 24 be 79 90 14 be
       0.058248173 0.14154623 -0.16041726 -0.14508237
000260 4f 2c 8d 3d f2 df 32 be 60 02 e0 bd 98 b8 45 be
       0.06893217 -0.17468241 -0.10937953 -0.19308698
000270 97 08 1b 3d 68 56 3e be c3 29 26 3c 52 b6 ec 3d
       0.03784999 -0.18587649 0.010141793 0.11558212
000280 1a 03 53 bd f8 50 fb 3b 54 d3 2d 3e e7 a8 6d 3d
       -0.05151663 0.0076695643 0.16975147 0.058022406
000290 38 b2 ca 3c ec 8a 06 be 7c f1 0e be 78 e3 ec bd
       0.024743184 -0.13138932 -0.13959306 -0.11566824
0002a0 13 7b a7 3c 8b 93 f9 bd 94 ec a6 3d b1 c6 fe 3d
       0.020444429 -0.12186345 0.081505924 0.12440241
0002b0 27 c4 f8 bd a2 60 db 3d 73 60 39 3e c5 ea 5f bc
       -0.12146788 0.107117906 0.18103199 -0.013666813
0002c0 59 d0 aa 3d 5b 07 dc 3d 3e 67 1a 3e f4 81 9e bd
       0.083405204 0.107435904 0.15078446 -0.0773963
0002d0 f8 20 f2 3d 04 ac 0c 3e 16 71 0b 3e c3 10 a8 bd
       0.118226945 0.13737494 0.13617358 -0.08206322
0002e0 a5 38 54 bd 47 bd ae 3d ae 14 0d 3d 30 a0 a7 3c
       -0.051811833 0.085321955 0.03444355 0.020462126
0002f0 fe d2 17 3e 76 c7 d2 3d ca 9b 8f 3d 98 9a 6e 3d
       0.14826581 0.102919504 0.07012136 0.0582529
000300 21 56 8c bc 95 1d 91 bd 53 a3 ab bd bd 29 ce 3d
       -0.017130913 -0.070857204 -0.08380761 0.10066555
000310 15 6a c1 bd 76 15 2c 3d bf ff 14 3d 5f 51 ea bc
       -0.09444062 0.042012654 0.03637671 -0.028603254
000320 17 d8 68 3e 8c 16 8f 3d 57 38 2f 3d 34 db 05 3e
       0.22738682 0.06986722 0.04277834 0.130719
000330 b6 99 e0 bd 90 36 fd bb db c9 83 bd 5f 34 c1 bd
       -0.10966818 -0.0077274516 -0.06434985 -0.09433817
000340 b9 ef 20 3e a0 35 96 be db df 14 be 7b be fc 3c
       0.15716447 -0.29337788 -0.14538519 0.030852547
000350 e9 71 9b bd fe f5 a8 bc a3 62 50 bd 10 b6 11 3e
       -0.07590086 -0.02062511 -0.050875317 0.14229608
000360 53 ea 1c bd db 4e cf bd c3 88 b1 3d 6b d5 8a 3e
       -0.038309406 -0.10122462 0.08668663 0.2711595
000370 3c f4 bc bd cd 1d b1 bd c3 36 19 be b2 13 85 bd
       -0.092262715 -0.08648262 -0.14962296 -0.06497897
000380 2f 70 ad bd 22 90 c0 bd 82 78 44 bd 74 37 4f be
       -0.08468663 -0.09402491 -0.047966488 -0.20235997
000390 11 e0 8f 3d be 36 b9 3d 09 7d dd bc 0d c1 45 3e
       0.07025159 0.09043644 -0.02703716 0.19311924
0003a0 76 d0 32 be 39 d8 7f 3e 66 00 f9 3d 46 3a 49 3d
       -0.17462334 0.24984826 0.12158279 0.04912784
0003b0 6b b8 0b bd d0 11 70 3e 6e fd a6 bd e8 1e 8d bd
       -0.03411142 0.23444295 -0.081538066 -0.068906605
0003c0 49 d5 36 be 2e 79 45 3c 56 e2 0b 3e c8 bd 1e be
       -0.178548 0.012052817 0.13660559 -0.15502083
0003d0 8f c4 46 3d 26 51 48 be a9 e9 5c 3d 4a 00 e1 3d
       0.048527297 -0.19562206 0.053933773 0.10986383
0003e0 4e 4c 21 be 91 59 03 be 51 8a d5 3d d1 4d 2f 3e
       -0.15751764 -0.12827136 0.104267724 0.17119528
0003f0 24 ed 98 bd ca 75 80 bd f3 3f ea 3d eb 6d 4a 3e
       -0.07467106 -0.062724665 0.114379786 0.19768493

decoder.2.bias f4 [64]
000000 04 57 89 be e5 2b a0 bc f3 e9 4c bd 57 4e 4f 3e
       -0.268242 -0.01955218 -0.0500278 0.20244728
000010 14 46 2b bd 47 3f af 3d ee b6 c7 3c ae 44 09 3e
       -0.04181488 0.08556991 0.02437922 0.13405105
000020 ae 55 03 be da c9 58 3e ed 29 07 bd 95 89 aa bd
       -0.12825653 0.2117075 -0.032998968 -0.08327023
000030 70 86 8e 3d a1 8d 0f bd 0d ec ab 3d e3 1d 91 3d
       0.06959236 -0.035047177 0.083946325 0.070857786
000040 a6 0f c0 3e f2 b7 3b 3c 1f c7 52 3c 5b a1 94 3d
       0.3751194 0.01145743 0.012864857 0.072573386
000050 42 81 57 3c 35 c5 83 3d f6 07 3b 3d 4e 96 fc 3b
       0.013153376 0.06434099 0.04566189 0.0077083474
000060 1b 07 92 3d e1 dd 9d bd 7c cb 87 bd 6c c5 34 3d
       0.071302615 -0.07708336 -0.066306084 0.04413359
000070 63 ca 7c bd eb 65 b4 3d 08 0d 55 bd ea 7e 12 3e
       -0.06171645 0.08808502 -0.05201438 0.14306226
000080 e4 cc 22 3e 6a 96 20 bd bf 8b 16 3e 4f 23 3d 3e
       0.15898472 -0.039205946 0.14701746 0.184705
000090 50 6d 1b 3e 90 dd b5 bd 6d 49 89 bd c0 b9 3b 3e
       0.15178418 -0.0888015 -0.06703458 0.18332577
0000a0 d9 a0 19 3e 70 99 01 3e 92 1e 24 bd d0 01 9e 3d
       0.15002765 0.12656188 -0.040068217 0.077151895
0000b0 5b 67 12 3d ef bb 0b 3e b4 b7 12 bd 26 2b 9a 3e
       0.0357431 0.1364591 -0.035819724 0.30111045
0000c0 42 38 2b 3e 7a a4 4c bb 85 c3 cb 3d 7d 70 6a 3e
       0.1672068 -0.0031225965 0.09949402 0.22894473
0000d0 e6 c5 55 3e 09 92 6d 3e ed e6 20 3e 9c e2 07 bd
       0.20876274 0.23200239 0.15713091 -0.033175096
0000e0 44 1c 0e 3e f2 0f 0a be f8 af 91 be 00 cd ae 3d
       0.1387797 -0.13482645 -0.28454566 0.085351944
0000f0 f4 5e 94 be 95 15 1d 3e 37 3e 2b 3e 45 57 37 3e
       -0.28978693 0.15340264 0.16722952 0.17904384
