Save_Models/model-lat8.pth (torch, 192738 bytes, 16 tensors)

encoder.0.weight f4 [128, 99]
0.0768718 -0.047132377 -0.02075346 0.07039098 0.056227997 0.002619804 -0.01840627 0.07753508
0.020081671 0.059253618 -0.012017076 -0.062453616 0.054250367 -0.063821726 0.08663867 0.024156177
0.09758833 0.08616198 -0.07306458 -0.007615433 0.04582753 -0.044725247 0.083796255 -0.009934677
0.047409065 -0.056407444 0.07467651 0.097155735 0.038771693 0.078434944 0.026008457 -0.02809661
0.021880366 -0.016938 0.080917284 0.047822952 0.048230905 0.10177315 0.049487505 0.095768765
0.03664399 0.05461309 -0.07511754 0.042576566 -0.02477657 0.08357802 0.0015980822 0.090108536
0.03726957 -0.08780653 -0.06782085 0.038952384 0.025705878 0.10074971 -0.047900893 -0.026543586
-0.048963014 0.05645915 0.05212376 0.026898742 -0.08861838 0.0113516655 0.08494546 0.048710946
-0.098496184 -0.038877197 0.017756958 -0.030410698 0.016359301 0.05590484 0.019925823 0.09165366
0.013645498 0.017949326 0.05502572 0.0820658 -0.09851206 0.016669074 -0.07208768 -0.029613283
-0.08632545 -0.08067351 -0.10051701 0.07758854 0.0033759652 -0.02526297 0.09285377 0.01701382
0.021451013 0.04340214 0.048262484 0.0024387469 -0.060110446 -0.101494126 -0.044261295 0.05351124
0.06680982 -0.039600186 0.0638141 -0.02218359 -0.06416716 -0.011572039 -0.026542325 0.050480217
0.040912353 -0.050771825 -0.015805624 0.018465713 0.11202643 0.094722815 0.10155761 0.0479447
-0.05888097 0.0011578617 0.03714213 0.048371926 0.096296914 0.04884993 -0.010166995 0.053599533
0.10820378 0.11091884 -0.06718775 0.06751164 0.09299027 0.02022257 0.08187656 0.09439349
0.072801806 0.114029855 -0.050603308 0.00414193 0.057959322 0.0176172 0.04688407 0.07046404
-0.008848322 0.111506194 0.05449444 -0.027151724 0.07556264 0.11911089 0.03151862 0.11696538
0.08203939 -0.013876233 0.014840733 0.04489014 -0.061997466 -0.03297146 0.0957721 -0.02820014
0.06406469 -0.03696358 -0.06361481 -0.0059374124 -0.020249007 -0.050528694 0.019574367 -0.068072855
0.062336132 -0.05651203 -0.023305502 0.077671096 -0.038203727 -0.058989502 -0.059409745 -0.03254015
0.09048123 0.10156176 0.023417305 -0.07920267 -0.059394076 0.08652207 0.09565629 0.0687891
-0.04789106 0.0358979 0.05313623 -0.07723773 0.032989293 0.015856888 0.06429208 -0.05657785
0.0047838017 -0.0494135 -0.03818791 -0.09580301 -0.04747526 0.026723363 0.024055105 -0.09220264
-0.09854002 0.0016397742 0.054503117 -0.04149973 -0.04045374 0.022074847 -0.03140112 -0.10969334
-0.02891997 -0.0058999998 -0.07111609 0.003909773 0.032593768 -0.06967259 0.07237189 0.08549282
-0.054597996 0.05586053 -0.029030014 0.08877761 0.030358177 0.08361697 -0.039840672 -0.013652227
-0.086716846 0.04763127 -0.01089378 -0.075852364 -0.0042808424 -0.078877516 -0.08523391 -0.099552564
0.07301484 -0.077351816 -0.047373563 -0.008249423 0.053612363 -0.08687202 -0.051131517 -0.04039236
-0.07937738 -0.07833144 -0.016264372 -0.09979953 -0.019984249 0.032940146 -0.08308054 -0.018002402
0.028861322 0.017914431 -0.032578014 -0.060798276 -0.055092797 0.07484724 -0.076192714 -0.017344264
-0.06802173 -0.010981721 0.034779366 0.07116121 -0.09203639 0.083109066 -0.07665049 0.08311826
00000000: f66e 9d3d e10d 41bd 2903 aabc 2529 903d
00000010: 544f 663d 05b1 2b3b bfc8 96bc b6ca 9e3d
00000020: 5182 a43c ecb3 723d 45e3 44bc 5dcf 7fbd
00000030: a235 5e3d f7b4 82bd 9d6f b13d 2de3 c53c
00000040: 64dc c73d b175 b03d e2a2 95bd e28a f9bb
00000050: a6b5 3b3d d231 37bd 5f9d ab3d 0ec5 22bc
00000060: 0230 423d 7e0b 67bd 00f0 983d 96f9 c63d
00000070: 11cf 1e3d 80a2 a03d b00f d53c dd2a e6bc
00000080: 743e b33c 90c1 8abc f6b7 a53d 00e2 433d
00000090: c58d 453d 716e d03d 69b3 4a3d 6a22 c43d
000000a0: 0218 163d fab1 5f3d 3ad7 99bd c464 2e3d
000000b0: 3cf8 cabc f42a ab3d be76 d13a d38a b83d
000000c0: faa7 183d e9d3 b3bd a8e5 8abd 898c 1f3d
000000d0: 2295 d23c dd55 ce3d ba33 44bd ef71 d9bc
000000e0: 718d 48bd b641 673d b97f 553d c05a dc3c
000000f0: 8e7d b5bd 56fc 393c e3f7 ad3d 2185 473d
00000100: 5eb8 c9bd b23d 1fbd 0a77 913c db1f f9bc
00000110: f103 863c 79fc 643d 7b3b a33c eab4 bb3d
00000120: 5e91 5f3c 770a 933c a662 613d 1d12 a83d
00000130: b1c0 c9bd 958d 883c b5a2 93bd 8e97 f2bc
00000140: 66cb b0bd 2738 a5bd dddb cdbd bee6 9e3d
00000150: 4c3f 5d3b 4af4 cebc 1e2a be3d 9160 8b3c
00000160: 09ba af3c 71c6 313d e2ae 453d 62d3 1f3b
00000170: 5f36 76bd 27dc cfbd 554b 35bd 9a2e 5b3d
00000180: 96d3 883d ce33 22bd f8b0 823d 5cba b5bc
00000190: 126a 83bd a698 3dbc 4a6f d9bc 58c4 4e3d
000001a0: b693 273d 1ef6 4fbd cc7a 81bc 6845 973c
000001b0: 1d6e e53d 09fe c13d 70fd cf3d a961 443d
000001c0: 2c2d 71bd 64c3 973a 5922 183d a421 463d
000001d0: 5137 c53d dd16 483d 7893 26bc 2f8b 5b3d
000001e0: f299 dd3d 6b29 e33d bb99 89bd 8b43 8a3d
000001f0: af71 be3d cea9 a53c e6ae a73d 6051 c13d
00000200: 1d19 953d 7c88 e93d 6a45 4fbd 07b9 873b
00000210: c166 6d3d f251 903c 8309 403d 734f 903d
00000220: 8df8 10bc 5c5d e43d 9035 5f3d 4b6d debc
00000230: 96c0 9a3d 69f0 f33d ab19 013d 8c8b ef3d
00000240: 4504 a83d 2459 63bc 8c26 733c b9de 373d
00000250: 0ef1 7dbd 150d 07bd 2a24 c43d fb03 e7bc
00000260: 5934 833d 1f67 17bd 7b48 82bd a08e c2bb
00000270: 3fe1 a5bc 2df7 4ebd 6c5a a03c c869 8bbd
00000280: 2c54 7f3d 2979 67bd 2eeb bebc 0612 9f3d
00000290: 837b 1cbd fa9e 71bd a257 73bd d248 05bd
000002a0: 394e b93d 9dff cf3d a6d5 bf3c 0235 a2bd
000002b0: 3447 73bd 7c32 b13d 72e7 c33d 4de1 8c3d
000002c0: 6b29 44bd ad09 133d 60a5 593d d12e 9ebd
000002d0: c81f 073d 4ee6 813c 91ab 833d 2dbe 67bd
000002e0: 70c1 9c3b cf65 4abd ed6a 1cbd 5e34 c4bd
000002f0: 6b75 42bd f4ea da3c 360f c53c bdd4 bcbd
00000300: 5acf c9bd b1ed d63a a93e 5f3d 9ffb 29bd
00000310: d2b2 25bd 4fd6 b43c 769e 00bd e7a6 e0bd
00000320: 93e9 ecbc c954 c1bb 50a5 91bd 8e1d 803b
00000330: 0b81 053d 81b0 8ebd b737 943d dc16 af3d
00000340: 26a2 5fbd 03ce 643d 5ad0 edbc 09d1 b53d
00000350: b6b1 f83c 603f ab3d f92f 23bd 97ad 5fbc
00000360: 9a98 b1bd 0219 433d d37b 32bc 7c58 9bbd
00000370: 4f46 8cbb 898a a1bd 1e8f aebd 37e2 cbbd
00000380: ce88 953d a16a 9ebd c80a 42bd 9628 07bc
00000390: a398 5b3d f5e9 b1bd 486f 51bd 7672 25bd
000003a0: 9c90 a2bd 3c6c a0bd dc3c 85bc b263 ccbd
000003b0: 02b6 a3bc 3fec 063d 2126 aabd c679 93bc
000003c0: 946e ec3c 49c1 923c 8670 05bd 9d07 79bd
000003d0: fca8 61bd 8249 993d ed0a 9cbd 8f15 8ebc
000003e0: fa4e 8bbd adec 33bc cf74 0e3d f8bc 913d
000003f0: 937d bcbd 1635 aa3d effa 9cbd e839 aa3d

encoder.0.bias f4 [128]
-0.10060349 -0.10721026 -0.14794931 0.040536344 -0.095805675 0.009087945 -0.27277458 -0.07557717
-0.036359772 0.026918886 -0.14633565 0.038456444 -0.1429824 -0.05811613 -0.10652481 -0.046592332
-0.09521174 0.023336068 0.017528037 0.06310792 -0.020114163 -0.118091285 -0.014083294 -0.011362675
0.029645922 0.06581783 -0.110812284 -0.13320127 -0.14605896 -0.054832347 -0.018554922 -0.17273629
-0.075397566 -0.12844074 -0.12648539 0.027789686 -0.19220963 -0.06747077 -0.019471738 -0.15117949
-0.05442274 0.0077886786 -0.008949774 -0.1679697 -0.0742102 -0.11567486 -0.07682299 -0.18768424
-0.045432188 -0.01720815 -0.1938869 -0.044334058 -0.093048394 -0.14595127 -0.029199366 -0.025461627
-0.021984724 -0.29123488 0.08855014 -0.15125848 -0.11080666 -0.11825912 -0.07606491 -0.14717937
-0.024210446 -0.10425898 -0.1560379 -0.026209367 0.0075100358 -0.059716564 -0.015281629 -0.022109874
-0.0074142753 -0.043535132 -0.15499991 -0.1697716 0.09816871 0.0076126107 -0.35607395 -0.13836432
-0.13450982 -0.3466069 -0.13312706 -0.096843585 -0.09530707 -0.15068388 -0.048702586 -0.111531846
-0.11894764 0.010920269 -0.017951556 -0.1864041 -0.058467783 -0.08058266 -0.13342465 -0.043304447
-0.09826008 0.0845391 -0.070856795 -0.15547039 -0.00073069 -0.07262864 -0.092839606 -0.15834408
-0.0054540336 0.03069074 -0.053291194 -0.11684119 -0.021213828 -0.11334113 -0.241254 -0.10919147
-0.06696848 -0.18202536 -0.14985578 -0.109567046 -0.09241976 -0.18951422 -0.03410337 -0.12844764
0.027555471 0.04969469 -0.057555333 -0.048938986 -0.16182147 -0.1895 -0.042821005 -0.025053697
00000000: 3409 cebd 0e91 dbbd 0680 17be 7009 263d
00000010: c435 c4bd 9be5 143c 1ca9 8bbe 34c8 9abd
00000020: fced 14bd ff84 dc3c 03d9 15be 8184 1d3d
00000030: fa69 12be 2e0b 6ebd ae29 dabd 9ad7 3ebd
00000040: 5ffe c2bd 482b bf3c f596 8f3c ba3e 813d
00000050: 75c6 a4bc d8d9 f1bd 9ebd 66bc 832a 3abc
00000060: 01dc f23c 80cb 863d 8df1 e2bd ea65 08be
00000070: 7b90 15be e297 60bd 7e00 98bc c8e1 30be
00000080: 0a6a 9abd f885 03be 6385 01be 32a7 e33c
00000090: 9ad2 44be 1d2e 8abd 3283 9fbc ccce 1abe
000000a0: 61ea 5ebd 2c38 ff3b 13a2 12bc 4000 2cbe
000000b0: 84fb 97bd f1e6 ecbd 5f55 9dbd 4c30 40be
000000c0: 1a17 3abd 1bf8 8cbc 4a8a 46be a197 35bd
000000d0: 2890 bebd 4074 15be 8233 efbc e794 d0bc
000000e0: 4f19 b4bc bd1c 95be c759 b53d 81e3 1abe
000000f0: 9aee e2bd d631 f2bd ebc7 9bbd 30b6 16be
00000100: fc54 c6bc bb85 d5bd 66c8 1fbe 07b5 d6bc
00000110: bf16 f63b 5b99 74bd cc5f 7abc c41f b5bc
00000120: 73f3 f2bb e551 32bd 4cb8 1ebe 9bd8 2dbe
00000130: ad0c c93d 3573 f93b 534f b6be 60af 0dbe
00000140: f1bc 09be 7676 b1be 7652 08be ee55 c6bd
00000150: 5a30 c3bd e04c 1abe 5d7c 47bd cf6a e4bd
00000160: d29a f3bd eeea 323c 240f 93bc b7e0 3ebe
00000170: ea7b 6fbd 8608 a5bd 79a0 08be 0160 31bd
00000180: 953c c9bd d622 ad3d 5e1d 91bd a133 1fbe
00000190: c78b 3fba 53be 94bd b122 bebd f324 22be
000001a0: c0b7 b2bb 266b fb3c de47 5abd 6f4a efbd
000001b0: 9fc8 adbc 651f e8bd 4a0b 77be c79f dfbd
000001c0: c526 89bd db64 3abe cb73 19be b064 e0bd
000001d0: 9246 bdbd 0410 42be faaf 0bbd c787 03be
000001e0: 03bc e13c a98c 4b3d 24bf 6bbd 3f74 48bd
000001f0: 87b4 25be 4a0c 42be 1465 2fbd 693d cdbc

encoder.3.weight f4 [64, 128]
-0.030833488 0.041647732 -0.06621937 -0.06328735 0.06389275 0.07255528 -0.05358993 -0.025704432
0.056972217 0.0001984967 0.0041243085 -0.055088222 -0.025915748 -0.07227188 0.021533865 -0.12272707
-0.041430496 -0.045781955 0.05142312 0.08557557 -0.02462197 -0.079660706 0.10239104 -0.055261705
0.0029951322 0.030567102 -0.010674525 0.060072884 0.032751508 0.06831972 0.065440185 -0.0757961
-0.03830775 -0.04347744 -0.017612077 0.0927143 0.06411595 0.093155086 0.05258502 -0.06545865
0.03844137 -0.06679857 -0.0496717 -0.10747533 0.007123908 -0.042571552 -0.09182663 -0.033251595
0.010578943 -0.035832983 0.015086558 -0.035925694 0.08796579 -0.011706835 0.04151978 0.0277076
-0.038730804 -0.043229993 0.03173907 0.073359385 0.06605494 0.08795679 0.08272376 -0.004437678
0.017872652 0.067431495 0.028461574 -0.04485461 0.016626157 0.053853918 0.01197148 0.00046837924
0.06403629 -0.06682971 0.027205536 0.011965566 0.04100352 -0.020516606 0.07292185 -0.04077731
-0.015979666 -0.036483586 0.07248776 -0.09040393 0.04693783 0.03505722 -0.09298786 -0.042695723
-0.10287888 -0.07143997 0.011816913 0.015476127 0.08417772 0.10053934 -0.07976575 -0.076585695
0.0026634126 0.07647433 0.049469773 0.00569662 0.07625517 -0.0002736515 0.039360624 -0.067952976
-0.05697154 -0.022697678 -0.039725814 -0.03766179 0.027705444 0.061838377 0.05397398 -0.032800194
-0.05474237 0.050323468 -2.2690307e-05 0.00039583293 -0.064017706 -0.05420484 0.038614318 0.07585296
-0.061332487 -0.059792656 0.08592352 0.08199514 -0.099330015 -0.019338444 -0.06635883 -0.021134367
-0.06459547 0.016119322 -0.08103536 0.092168435 -0.03291103 0.06876317 0.09605766 0.014336181
0.022772744 -0.018318973 -0.1251248 -0.06465202 0.014499651 0.086163856 0.10481606 -0.058211695
0.022110889 0.09346412 0.0891544 -0.0644352 -0.04635286 -0.005256531 0.04095667 -0.03769135
-0.014418469 0.089920506 0.070501335 -0.032830663 -0.03857288 -0.017233422 -0.037579 -0.010987908
0.043047186 0.032661926 0.08914929 0.06475882 0.004798921 0.07104176 -0.059831757 -0.04483824
-0.0037966825 -0.10577882 0.04144088 -0.028371898 -0.049897976 -0.06586655 -0.06716347 -0.071368225
-0.039600227 -0.03835456 0.029635444 -0.04837342 -0.06551141 0.05037851 -0.029682895 -0.03223067
0.08732067 -0.06534962 -0.12965752 0.03303481 0.06677768 0.08531553 0.041786343 0.063756265
0.004697301 0.096381605 0.054345988 -0.11468831 0.07343764 -0.09291946 -0.089097634 -0.04117448
0.021028256 -0.019670187 0.043810904 0.04671829 -0.041002996 -0.16425076 0.12480044 -0.0027565614
-0.0020690775 0.08330373 0.074310414 -0.038229305 -0.025931073 -0.12234076 -0.08411692 -0.07004788
-0.048554447 -0.021851012 0.10083889 -0.01806168 0.055624135 0.07353648 0.033285286 0.055609196
-0.114800654 -0.10257181 -0.008644396 -0.105459966 0.093041815 -0.040262856 -0.078158006 -0.03692382
0.07828032 -0.0036792026 -0.091465294 -0.04965596 -0.082607344 -0.005744956 -0.0011497164 -0.028346732
0.040058933 -0.1241132 -0.0070258584 0.055647895 -0.13248067 0.010577264 -0.027816828 -0.068707176
0.054913484 0.036599454 -0.036819015 0.07486494 -0.038644105 -0.008407754 -0.02123635 0.04576635
00000000: 8396 fcbc d096 2a3d 059e 87bd cc9c 81bd
00000010: 34da 823d dd97 943d 1d81 5bbd 1a92 d2bc
00000020: b35b 693d 8d23 5039 3525 873b 30a4 61bd
00000030: 434d d4bc 4803 94bd ca67 b03c 5458 fbbd
00000040: 06b3 29bd dc85 3bbd 0da1 523d 3f42 af3d
00000050: 03b4 c9bc 2725 a3bd 65b2 d13d 195a 62bd
00000060: fb49 443b dc67 fa3c 34e4 2ebc fc0e 763d
00000070: 7226 063d 36eb 8b3d 8105 863d fc3a 9bbd
00000080: 96e8 1cbd 6615 32bd 3447 90bc ffe0 bd3d
00000090: 394f 833d 18c8 be3d 6463 573d 2f0f 86bd
000000a0: b374 1d3d b0cd 88bd 8d74 4bbd 071c dcbd
000000b0: ac6f e93b 825f 2ebd 9a0f bcbd d332 08bd
000000c0: 4e53 2d3c 9bc5 12bd 9c2d 773c d226 13bd
000000d0: 6827 b43d 06ce 3fbc a510 2a3d 0cfb e23c
000000e0: 31a4 1ebd ef11 31bd d400 023d 723d 963d
000000f0: d047 873d b122 b43d 136b a93d f169 91bb
00000100: ab69 923c 8619 8a3d 3f28 e93c 78b9 37bd
00000110: 9433 883c ed95 5c3d 0724 443c cc90 f539
00000120: 7525 833d 04de 88bd 25de de3c 390b 443c
00000130: 4ff3 273d 7112 a8bc 0d58 953d 1c06 27bd
00000140: cae7 82bc d06f 15bd 7674 943d b225 b9bd
00000150: e241 403d 2998 0f3d 6b70 bebd b6e1 2ebd
00000160: 2ab2 d2bd 1e4f 92bd ba9b 413c 958f 7d3c
00000170: 5e65 ac3d 92e7 cd3d 3a5c a3bd f6d8 9cbd
00000180: a68c 2e3b 939e 9c3d d1a0 4a3d b6aa ba3b
00000190: ac2b 9c3d e278 8fb9 9b38 213d ee2a 8bbd
000001a0: fd5a 69bd 7bf0 b9bc 89b7 22bd 4043 1abd
000001b0: 87f6 e23c 3d4a 7d3d d213 5d3d 7f59 06bd
000001c0: 8939 60bd fb1f 4e3d 1057 beb7 cc87 cf39
000001d0: b71b 83bd e505 5ebd 0c2a 1e3d cc58 9b3d
000001e0: c637 7bbd 25e9 74bd acf8 af3d 11ed a73d
000001f0: 896d cbbd a86b 9ebc 23e7 87bd fb21 adbc
00000200: a14a 84bd ab0c 843c def5 a5bd cec2 bc3d
00000210: b7cd 06bd b4d3 8c3d e1b9 c43d 4de2 6a3c
00000220: e88d ba3c ac11 96bc b720 00be 4768 84bd
00000230: f28f 6d3c ad76 b03d cda9 d63d 636f 6ebd
00000240: e521 b53c 1e6a bf3d 9596 b63d 9af6 83bd
00000250: 7fdc 3dbd fa3e acbb 2ec2 273d 3f62 1abd
00000260: 713b 6cbc 3e28 b83d 0163 903d 7279 06bd
00000270: 99fe 1dbd 1b2d 8dbc 70ec 19bd a006 34bc
00000280: 3f52 303d 83c8 053d e793 b63d 46a0 843d
00000290: 4440 9d3b 587e 913d 2512 75bd 4da8 37bd
000002a0: c3d1 78bb 91a2 d8bd eabd 293d 2f6c e8bc
000002b0: d261 4cbd 0be5 86bd 008d 89bd 8129 92bd
000002c0: d933 22bd ac19 1dbd 08c6 f23c 3523 46bd
000002d0: d92a 86bd b259 4e3d 8b29 f3bc 4f04 04bd
000002e0: 2ed5 b23d 06d6 85bd f1c4 04be 824f 073d
000002f0: bcc2 883d e9b9 ae3d 2828 2b3d a592 823d
00000300: d1eb 993b b863 c53d e699 5e3d b4e1 eabd
00000310: 7966 963d 8f4c bebd d278 b6bd 92a6 28bd
00000320: 7343 ac3c 5f23 a1bc 1073 333d ad5b 3f3d
00000330: c2f2 27bd 5a31 28be 6097 ff3d 6da7 34bb
00000340: 5c99 07bb 259b aa3d 0f30 983d 5596 1cbd
00000350: 676d d4bc cb8d fabd 7e45 acbd 4375 8fbd
00000360: 07e1 46bd e500 b3bc 9f84 ce3d 17f6 93bc
00000370: 22d6 633d 4b9a 963d 2756 083d 78c6 633d
00000380: 9b1c ebbd 2b11 d2bd 3aa1 0dbc 65fb d7bd
00000390: b58c be3d aaea 24bd 4e11 a0bd 6e3d 17bd
000003a0: 6f51 a03d c71e 71bb 2852 bbbd 0c64 4bbd
000003b0: 0a2e a9bd 2f40 bcbb 15b2 96ba 6837 e8bc
000003c0: d614 243d 102f febd 2c39 e6bb 0cef 633d
000003d0: 03a9 07be 434c 2d3c 1ee0 e3bc 59b6 8cbd
000003e0: f6ec 603d 4fe9 153d 89cf 16bd ca52 993d
000003f0: 4849 1ebd adc0 09bc dbf7 adbc 7f75 3b3d

encoder.3.bias f4 [64]
-0.10159594 -0.073577315 -0.0012986935 -0.018761069 -0.10451687 0.016991962 0.019591153 0.0002145789
-0.09645298 0.010349446 -0.10615521 0.041087303 -0.111889206 -0.08394658 -0.11013903 -0.21527964
-0.02671568 0.0418622 -0.13075837 -0.10792129 -0.050091907 -0.13221681 0.0018944693 0.0073866546
-0.070422724 -0.10391281 -0.18581623 0.041245766 0.013648227 -0.10675085 0.016661448 -0.0304764
-0.08850531 0.050782286 0.010241363 0.021805659 0.0263118 -0.17200956 -0.04912639 -0.059574146
-0.06693206 -0.07361552 -0.028676298 0.01705761 -0.13604732 -0.031621117 0.03202391 -0.1556872
-0.10332831 -0.00761945 -0.04878932 -0.09422822 -0.045476414 -0.15006441 -0.09958178 -0.054848015
-0.16822943 -0.03809058 -0.066459104 -0.116488606 0.010729144 -0.016094029 -0.07770217 -0.07540639
00000000: 8811 d0bd b4af 96bd ec38 aaba d0b0 99bc
00000010: f10c d6bd ba32 8b3c a07d a03c 9600 6139
00000020: 2489 c5bd b990 293c e767 d9bd 294b 283d
00000030: 2b26 e5bd 2fec abbd 9290 e1bd 4472 5cbe
00000040: d7da dabc b377 2b3d 86e5 05be d605 ddbd
00000050: 2c2d 4dbd d863 07be d74f f83a c00b f23b
00000060: ca39 90bd 3dd0 d4bd 9c46 3ebe 52f1 283d
00000070: d09c 5f3c 31a0 dabd 977d 883c a5a9 f9bc
00000080: 4642 b5bd 1601 503d 64cb 273c c8a1 b23c
00000090: d88b d73c 4623 30be c138 49bd 0504 74bd
000000a0: ad13 89bd bcc3 96bd 8eea eabc 67bc 8b3c
000000b0: fd4f 0bbe 2585 01bd 812b 033d 776c 1fbe
000000c0: cb9d d3bd 94ac f9bb 4fd7 47bd bafa c0bd
000000d0: 7a45 3abd 7caa 19be 88f1 cbbd 50a8 60bd
000000e0: 5644 2cbe de04 1cbd b61b 88bd 9491 eebd
000000f0: 4bc9 2f3c a0d7 83bc 5122 9fbd aa6e 9abd

encoder.6.weight f4 [32, 64]
-0.035624072 0.045644958 -0.08374098 0.0759352 -0.09204036 0.12284063 -0.0534895 0.13667388
-0.06027632 -0.24786806 0.14299837 -0.0035513863 -0.02874624 -0.0010951841 -0.015428377 -0.023780355
-0.0118425395 0.12966865 -0.12839636 -0.13778204 0.10426359 -0.047928337 0.00016791187 0.080882
0.043613855 0.13017653 0.03936091 -0.036444094 0.093430966 -0.093738884 0.1162232 -0.06887497
0.05357378 -0.16126277 -0.058286548 0.108918786 -0.011020086 0.14161965 0.05637178 -0.038218908
-0.031063506 -0.16067083 0.07309055 -0.024351068 0.043097857 -0.13206252 -0.032115914 -0.03233057
0.12375763 -0.10852295 0.10284425 -0.07968524 0.058766406 -0.18466157 0.054655857 -0.077955805
-0.113459505 -0.11077654 0.050196815 -0.07560421 -0.039602265 0.032384906 -0.050047975 0.010972281
0.12567993 0.04349531 -0.11551278 -0.13569558 0.021847755 0.07519767 0.009539599 0.09878894
0.09281817 -0.10648853 0.073254324 0.13359958 0.113067865 -0.17976074 -0.1436192 0.11837
0.1146067 0.13273056 0.18333955 -0.06396383 0.012423698 0.07220009 -0.10515223 0.012017491
-0.029270813 0.0634886 0.1251599 -0.008390131 -0.024289152 -0.054621603 -0.091191255 -0.12522134
-0.07284307 -0.11057809 0.13318759 0.11079156 -0.041530963 -0.019265592 -0.021750156 -0.08134611
-0.12009207 0.00558011 0.09596583 0.0019250107 -0.091380306 -0.13398647 -0.0075762584 0.19860464
0.1403882 -0.008122601 0.09039708 -0.053024404 -0.04712155 -0.10257379 0.13428925 0.08766341
-0.039916653 0.032841586 -0.05594054 0.0856013 0.038630847 -0.05310845 -0.11074425 0.030771429
-0.11511621 -0.09421839 0.0032119888 -0.049801704 0.073280506 -0.04654334 -0.08035692 -0.03697351
0.05390362 -0.003990595 0.0008934338 -0.06787526 -0.016296595 0.11712769 -0.0027576776 0.023095924
0.029103756 -0.03879593 0.020193582 0.12502521 -0.0063399696 0.08481141 -0.01752568 0.004160809
0.045296654 -0.080413535 -0.00011255277 0.090508826 -0.06962534 0.07184725 0.0552348 -0.05900641
-0.08105224 0.041656543 -0.06106734 -0.030625645 -0.06496669 0.09218543 0.029021094 0.025869468
-0.012886039 0.067609906 0.056247544 0.11495259 -0.09170014 -0.08938955 -0.08135556 -0.022176856
0.047093593 0.061180603 0.0004692535 0.04896144 0.06125756 -0.05427507 -0.14865181 -0.091810286
0.0032428603 -0.02235209 -0.13063191 0.016726218 -0.04551868 0.05725191 0.018116597 0.037942618
0.045623276 0.11011771 -0.06430476 -0.07857485 -0.01710629 -0.04875 -0.13726228 -0.014422494
0.09912132 -0.13323043 -0.10282624 0.03669763 0.10068353 -0.06399904 -0.13917972 0.10493863
0.016044388 -0.024026345 0.20431066 -0.07303427 -0.045290746 0.13357861 -0.20464443 -0.07208847
-0.044156007 0.1095054 0.03755856 -0.0015772094 0.012374105 0.05250794 -0.07248748 0.116152816
-0.07737515 0.063227735 0.048295878 -0.022527492 -0.117393374 0.07392685 0.08119644 0.03958062
-0.17223704 -0.14424844 0.025301697 -0.0730236 0.07356854 0.037123233 -0.09995923 0.050226796
0.06378839 0.01564587 -0.010688655 0.007813558 -0.098626666 0.06660372 0.12042312 -0.036620297
-0.007667224 -0.07439434 -0.025655137 0.027528452 0.04049894 0.014179428 -0.07932222 0.047613535
00000000: 8cea 11bd 35f6 3a3d 6480 abbd ea83 9b3d
00000010: a87f bcbd de93 fb3d ce17 5bbd 3df4 0b3e
00000020: 4de4 76bd 20d1 7dbe 2a6e 123e 60be 68bb
00000030: 3c7d ebbc 488c 8fba 4ec7 7cbc 05cf c2bc
00000040: 3607 42bc dcc7 043e 567a 03be bc16 0dbe
00000050: 2688 d53d 8150 44bd 8011 3039 76a5 a53d
00000060: 71a4 323d ff4c 053e e838 213d 6746 15bd
00000070: bc58 bf3d 2cfa bfbd 6e06 ee3d 520e 8dbd
00000080: 2e70 5b3d 1122 25be e0bd 6ebd d010 df3d
00000090: 978d 34bc be04 113e 18e6 663d 6e8b 1cbd
000000a0: e578 febc e586 24be 80b0 953d e47b c7bc
000000b0: 6187 303d 663b 07be fa8b 03bd 0f6d 04bd
000000c0: a474 fd3d 4841 debd 02a0 d23d 0432 a3bd
000000d0: 0bb5 703d ec17 3dbe d2de 5f3d 4ba7 9fbd
000000e0: 755d e8bd d0de e2bd 2d9b 4d3d 61d6 9abd
000000f0: fc35 22bd 09a6 043d 1bff 4cbd 15c5 333c
00000100: 3db2 003e 2328 323d f791 ecbd c8f3 0abe
00000110: 10fa b23c 3c01 9a3d fa4b 1c3c db51 ca3d
00000120: 7417 be3d a916 dabd 5d06 963d 54ce 083e
00000130: 2090 e73d 3313 38be e910 13be f86b f23d
00000140: ebb6 ea3d 85ea 073e 5dbd 3b3e 78ff 82bd
00000150: c48c 4b3c a4dd 933d 0d5a d7bd 03e5 443c
00000160: 58c9 efbc 5006 823d eb29 003e c376 09bc
00000170: 0bfa c6bc e7ba 5fbd 7bc2 babd 063a 00be
00000180: bf2e 95bd c476 e2bd 5462 083e afe6 e23d
00000190: 5f1c 2abd e0d2 9dbc 622d b2bc ca98 a6bd
000001a0: d5f2 f5bd 5bd9 b63b bc89 c43d a450 fc3a
000001b0: 9925 bbbd c033 09be 4342 f8bb 045f 4b3e
000001c0: edc1 0f3e a814 05bc 1b22 b93d 1e30 59bd
000001d0: 8702 41bd 3512 d2bd 1f83 093e e088 b33d
000001e0: a57f 23bd e684 063d e821 65bd bc4f af3d
000001f0: 613b 1e3d 3f88 59bd e2cd e2bd 5d14 fc3c
00000200: 0cc2 ebbd 92f5 c0bd 3b80 523b dffc 4bbd
00000210: 1714 963d 3ba4 3ebd 2b92 a4bd 8971 17bd
00000220: 0bca 5c3d 8ac3 82bb 5435 6a3a 2f02 8bbd
00000230: 7080 85bc a4e0 ef3d 27ba 34bb aa33 bd3c
00000240: 006b ee3c 7be8 1ebd 036d a53c 9c06 003e
00000250: 85bf cfbb 9bb1 ad3d 0492 8fbc 6557 883b
00000260: fc88 393d daaf a4bd 4f0a ecb8 b15c b93d
00000270: bb97 8ebd a724 933d e33d 623d b5b0 71bd
00000280: b8fe a5bd 0da0 2a3d bf21 7abd a2e2 fabc
00000290: 420d 85bd b7cb bc3d a5bd ed3c 35ec d33c
000002a0: f71f 53bc 1077 8a3d d363 663d 436c eb3d
000002b0: 48cd bbbd de11 b7bd be9d a6bd 3dac b5bc
000002c0: 36e5 403d 8398 7a3d 2306 f639 ca8b 483d
000002d0: 35e9 7a3d 894f 5ebd 2e38 18be 0807 bcbd
000002e0: 2b86 543b bb1b b7bc 5fc4 05be 6c05 893c
000002f0: cc71 3abd fb80 6a3d 4269 943c b869 1b3d
00000300: 79df 3a3d 6585 e13d 37b2 83bd daeb a0bd
00000310: 7e22 8cbc 14ae 47bd 7c8e 0cbe 534c 6cbc
00000320: 1e00 cb3d 8f6d 08be 9096 d2bd 4150 163d
00000330: 2b33 ce3d ee11 83bd 2185 0ebe 10ea d63d
00000340: 856f 833c e6d2 c4bc d036 513e fe92 95bd
00000350: ca82 39bd d5c8 083e 4f8e 51be 1fa3 93bd
00000360: eedc 34bd 5e44 e03d 01d7 193d 5eba ceba
00000370: c2bc 4a3c 9112 573d 5174 94bd 87e1 ed3d
00000380: dd76 9ebd 8b7d 813d e6d1 453d 938b b8bc
00000390: f06b f0bd f666 973d 524a a63d 4a1f 223d
000003a0: e85e 30be ddb5 13be 8145 cf3c 668d 95bd
000003b0: 1aab 963d 880e 183d 6db7 ccbd 9dba 4d3d
000003c0: 7da3 823d c42b 803c 781f 2fbc 7004 003c
000003d0: c7fc c9bd 8867 883d 66a0 f63d 2aff 15bd
000003e0: 563d fbbb 0f5c 98bd b92a d2bc 5983 e13c
000003f0: 37e2 253d d550 683c b073 a2bd 6906 433d

encoder.6.bias f4 [32]
-0.04033798 0.07268717 -0.12493932 0.038844407 0.1243003 0.03519072 -0.086881205 -0.01808539
-0.03923724 0.07619968 -0.1799414 -0.025095707 -0.086913005 0.052863594 0.028961375 0.02189949
0.025444193 -0.102448605 0.056855805 0.09063023 0.10485682 -0.12073015 -0.02520668 0.06076406
-0.049162332 0.0737297 -0.016357595 -0.0036436797 0.10533042 -0.006203845 -0.0041508926 0.029661939
00000000: 7039 25bd 03dd 943d 30e0 ffbd 501b 1f3d
00000010: 2891 fe3d 2524 103d c6ee b1bd d027 94bc
00000020: 3ab7 20bd 940e 9c3d 8f42 38be 8395 cdbc
00000030: 72ff b1bd 7f87 583d 6840 ed3c 8f66 b33c
00000040: 5770 d03c 93d0 d1bd a2e1 683d 589c b93d
00000050: 2cbf d63d 5e41 f7bd 3d7e cebc bce3 783d
00000060: 715e 49bd 99ff 963d 5d00 86bc cdca 6ebb
00000070: 7ab7 d73d a049 cbbb 3604 88bb 98fd f23c

encoder.9.weight f4 [8, 32]
-0.06275965 0.011531901 0.044810385 0.12841201 -0.019024082 -0.13034093 0.028408967 -0.16290677
0.057089113 0.18368106 -0.09084195 -0.0980138 -0.12533268 0.12230124 -0.17707536 -0.15624534
-0.1382057 0.07302661 -0.06905748 0.017559517 -0.107323214 0.14076301 -0.17917135 -0.111513965
0.12267539 -0.045438495 -0.043175433 0.14863338 -0.10759387 -0.11691467 0.18626374 0.15456074
0.073261194 0.1795598 -0.06870616 -0.04680098 -0.12663585 0.05645225 -0.0101448605 -0.020618286
-0.06367296 0.009602744 -0.12464679 -0.21223278 0.1618912 -0.024544565 0.161321 -0.11102095
0.15822685 -0.0050225095 -0.01824114 -0.17777625 -0.08641476 -0.0054938593 0.16925728 -0.15528366
0.0063057514 -0.075248785 -0.12321331 -0.176053 0.08473458 -0.11529826 0.17088953 -0.11476531
-0.037212722 -0.14783555 -0.099490866 0.16392922 0.028630659 0.062851295 -0.034956325 -0.06340935
-0.07150305 0.17007458 -0.15953586 -0.028963929 0.2149862 0.06093265 0.06852785 -0.16404602
0.10500162 0.023817042 -0.026079303 -0.11172246 -0.023723118 -0.09930335 0.076335326 0.13030185
-0.06632295 0.091941744 0.056257423 -0.062479004 -0.088296905 -0.12064755 -0.004793426 0.18515877
0.010204768 0.15833218 -0.15483215 0.17006244 0.02410536 0.049561992 -0.19250038 0.04693763
-0.1585384 0.2058068 -0.12471122 0.09279736 0.06355026 0.1809686 0.19300173 -0.09569716
0.024117291 -0.18330905 -0.15065521 0.13804355 0.11716285 -0.1019868 0.11873643 0.062589675
-0.070392035 -0.08719065 0.16231088 0.011299356 -0.15897521 -0.032221474 0.013045589 -0.027674565
-0.18631642 -0.098973736 0.18736136 0.013068502 -0.16897677 -0.14916979 0.21326897 -0.049433045
-0.05330245 -0.027608747 -0.10184642 -0.2210617 0.04468048 -0.0734775 0.10068565 -0.16737163
0.008267869 -0.14300364 0.09728859 -0.12232788 -0.11660166 -0.06790096 0.006445165 -0.01481555
0.063586295 0.2673803 0.049507905 -0.04317148 0.18809259 0.052604247 -0.15239859 0.004262582
-0.042659856 0.042103194 -0.04330468 -0.031707045 -0.060097832 -0.08653258 -0.06723315 0.012643057
0.09959356 -0.16697553 -0.09966686 0.032183416 0.042689025 0.07415469 -0.066191144 -0.15607516
0.05107717 -0.021088416 -0.12953396 -0.117447466 0.13607489 0.077257864 -0.07716565 -0.12824672
-0.09855506 0.025252631 -0.13374709 0.16482215 -0.017812759 -0.052419264 -0.16256306 -0.17839645
-0.058646597 -0.13458812 0.06954962 -0.0602825 0.038026113 0.022383371 -0.12458377 -0.25821367
-0.028911281 0.096529156 0.08288052 0.0035901999 -0.019223433 0.06596371 0.06385624 0.009983157
-0.106168315 0.16025749 0.01673528 0.06800169 -0.15289533 -0.021258084 -0.14192978 -0.03482147
-0.09851777 0.11424771 -0.06971667 0.18150608 0.15508658 -0.18324122 -0.18148635 -0.11078746
0.05665772 -0.15877272 0.11742288 -0.043602705 0.16492213 0.09837178 0.05509167 -0.055649128
-0.0023806042 -0.056816664 0.0561622 0.112568796 -0.04429815 -0.07252793 0.061813127 0.20383942
-0.009925515 0.0047730138 -0.14328378 0.15099353 0.15515369 -0.2624849 -0.14726856 0.020994816
-0.14892584 -0.16552542 -0.087404594 0.04158438 0.13724259 0.11089234 -0.15825087 0.05906659
00000000: 2288 80bd 4cf0 3c3c 188b 373d 707e 033e
00000010: 64d8 9bbc 1878 05be ecb9 e83c 08d1 26be
00000020: 46d6 693d e316 3c3e 580b babd 76bb c8bd
00000030: 3657 00be 1379 fa3d 3e53 35be c7fe 1fbe
00000040: cc85 0dbe fa8e 953d 026e 8dbd fad8 8f3c
00000050: 46cc dbbd 2e24 103e b278 37be 6f61 e4bd
00000060: 3c3d fb3d b71d 3abd b9d8 30bd 5933 183e
00000070: 2d5a dcbd f570 efbd ecbb 3e3e 2c45 1e3e
00000080: f709 963d 86de 373e d1b5 8cbd 62b2 3fbd
00000090: d4ac 01be 793a 673d a136 26bc aee7 a8bc
000000a0: f866 82bd d454 1d3c d146 ffbd 8d53 59be
000000b0: cfc6 253e af11 c9bc 5531 253e f45e e3bd
000000c0: 3806 223e dd93 a4bb 716e 95bc fa0a 36be
000000d0: 39fa b0bd d505 b4bb c851 2d3e ae02 1fbe
000000e0: 7aa0 ce3b 091c 9abd 4357 fcbd 3d47 34be
000000f0: 5389 ad3d 7e21 ecbd aafd 2e3e 130a ebbd
00000100: 5e6c 18bd 3462 17be dec1 cbbd 10dd 273e
00000110: d88a ea3c 2eb8 803d 5d2e 0fbd c3dc 81bd
00000120: 3170 92bd 0828 2e3e 5e5d 23be c345 edbc
00000130: 5825 5c3e 8494 793d 5458 8c3d aefb 27be
00000140: 170b d73d f51b c33c 43a4 d5bc bfce e4bd
00000150: fc56 c2bc 8e5f cbbd b255 9c3d d96d 053e
00000160: 54d4 87bd f44b bc3d 2f6e 663d fce9 7fbd
00000170: 02d5 b4bd 1016 f7bd 2c12 9dbb 439a 3d3e
00000180: e631 273c d521 223e 528c 1ebe d924 2e3e
00000190: 9b78 c53c 8401 4b3d d21e 45be ac41 403d
000001a0: e457 22be 05bf 523e 9968 ffbd 8b0c be3d
000001b0: a426 823d d54f 393e 3fa2 453e dffc c3bd
000001c0: a091 c53c 5eb5 3bbe 5c45 1abe 4a5b 0d3e
000001d0: 14f3 ef3d 75de d0bd 162c f33d 042f 803d
000001e0: b329 90bd 0391 b2bd d334 263e ef20 393c
000001f0: 66ca 22be aafa 03bd 2bbd 553c c5b5 e2bc
00000200: bbc9 3ebe beb2 cabd a8db 3f3e 451d 563c
00000210: 3f08 2dbe f7bf 18be 2e63 5a3e 4e7a 4abd
00000220: ab53 5abd bd2b e2bc db94 d0bd 005e 62be
00000230: e102 373d 5f7b 96bd 4734 ce3d 7863 2bbe
00000240: f575 073c 8c6f 12be 3e3f c73d 0a87 fabd
00000250: dacc eebd a90f 8bbd f631 d33b ecbc 72bc
00000260: 8839 823d 12e6 883e cdc8 4a3d 94d4 30bd
00000270: 589b 403e 8d77 573d 600e 1cbe 21ad 8b3b
00000280: 1abc 2ebd 6674 2c3d 4060 31bd 3fdf 01bd
00000290: 2529 76bd fe37 b1bd 89b1 89bd d324 4f3c
000002a0: b5f7 cb3d a2fb 2abe 241e ccbd c2d2 033d
000002b0: b0da 2e3d 6ade 973d 398f 87bd 2bd2 1fbe
000002c0: 4b36 513d 9dc1 acbc 8da4 04be 4c88 f0bd
000002d0: 3757 0b3e 5f39 9e3d 0609 9ebd 1c53 03be
000002e0: 3cd7 c9bd 9bde ce3c fff4 08be 23c7 283e
000002f0: 10ec 91bc 95b5 56bd ee76 26be 8fad 36be
00000300: 6a37 70bd 78d1 09be 0870 8e3d c8ea 76bd
00000310: 45c1 1b3d 555d b73c c725 ffbd 9534 84be
00000320: 5ad7 ecbc 14b1 c53d 43bd a93d 8f49 6b3b
00000330: 767a 9dbc fb17 873d 0fc7 823d 6590 233c
00000340: c66e d9bd 8a1a 243e 6d18 893c 7844 8b3d
00000350: 9890 1cbe 6f25 aebc 0a56 11be f5a0 0ebd
00000360: afc3 c9bd b4fa e93d 9dc7 8ebd bbdc 393e
00000370: 04cf 1e3e 96a3 3bbe 8fd7 39be 89e4 e2bd
00000380: ed11 683d 5195 22be 687b f03d c098 32bd
00000390: 59e1 283e 2577 c93d cea7 613d 57f0 63bd
000003a0: e903 1cbb 97b8 68bd 560a 663d 788a e63d
000003b0: fa71 35bd 8689 94bd c32f 7d3d 48bb 503e
000003c0: a19e 22bc f166 9c3b fcb8 12be 0c9e 1a3e
000003d0: 9ce0 1e3e 6c64 86be 92cd 16be 52fd ab3c
000003e0: 0480 18be 7f7f 29be 2e01 b3bd 6254 2a3d
000003f0: 5289 0c3e 861b e33d 840c 22be cfef 713d

encoder.9.bias f4 [8]
0.018589409 0.119227484 0.13161336 0.049359318 -0.13459164 -0.053810544 0.0704677 -0.018741865
00000000: d148 983c 8a2d f43d a7c5 063e ff2c 4a3d
00000010: 64d2 09be 7268 5cbd 5f51 903d 8a88 99bc

decoder.0.weight f4 [32, 8]
-0.20734648 -0.13020933 -0.05617004 0.046171896 -0.18159308 -0.21060927 -0.15213874 0.18460347
-0.28346387 0.12624122 0.20605077 -0.2890207 -0.31797907 0.11645248 -0.2914154 0.23085079
0.16527702 0.17807466 0.30058825 0.19281828 -0.20645995 -0.023647977 0.25904134 -0.078658044
0.3268766 0.18631183 -0.0787632 0.10379018 0.1584846 0.20404792 0.14584662 -0.24700603
-0.31102186 0.00045497713 0.0285523 0.3184785 0.15473986 0.16103135 0.25724903 0.35722318
0.1501243 -0.31731448 -0.28664476 -0.30356413 0.060795974 0.008009022 -0.008895214 -0.20276901
-0.31918898 0.08952542 0.13477308 0.1780576 -0.14740767 -0.29379195 -0.31049415 0.072974816
-0.35113406 -0.29331586 0.3078011 0.11783715 0.27493778 -0.32041156 -0.17046909 -0.18526115
0.15620436 0.14196634 -0.10966702 0.26142558 -0.33273536 0.15997484 -0.2790099 0.14124241
0.3389254 0.24399206 -0.012619644 0.12606551 0.31371364 0.12179872 0.069933504 -0.11263969
-0.06295643 -0.17022486 0.40878177 0.2500278 -0.3388873 0.13650334 0.23951153 -0.2585836
0.21672797 0.06346533 0.0692231 -0.2747608 0.24687253 0.16727272 0.118782155 0.11455302
0.36158207 0.117688194 -0.061950862 -0.32048893 -0.1817617 0.29633942 0.087762326 0.23448564
-0.20303085 0.3139406 -0.31853586 0.27339226 -0.24529088 0.13179457 -0.1733403 0.2035521
0.048461128 -0.123162255 -0.177924 -0.3174034 -0.039381243 0.25912046 -0.0067223823 -0.35170984
0.074161835 0.057353783 -0.12486685 -0.07491185 0.21038128 0.005513085 0.032141864 0.16653389
-0.13012242 0.21703625 0.24187776 -0.0044568134 0.19414239 0.2617226 -0.21511947 -0.14266683
-0.15804198 0.07913304 0.28871953 -0.14687935 -0.24897738 -0.29053512 0.31682715 -0.07440262
0.24160478 0.18475728 -0.3041706 -0.22870085 -0.34697038 -0.21877597 -0.1690481 -0.046222873
-0.3195971 0.029251164 -0.07775659 -0.05809273 0.0067743906 -0.015638351 0.31695807 -0.12689416
-0.12259107 0.025002334 -0.111105755 0.28843108 0.13678211 0.08668132 -0.014330375 0.16169743
-0.3501658 -0.27620462 0.0153961005 -0.31827924 0.08956044 0.18691725 0.019706367 -0.022846011
-0.13848157 -0.35216004 -0.036944937 -0.15260042 0.009058043 -0.24710612 0.05382722 -0.11211718
0.11510743 -0.18141878 -0.25004336 -0.1591386 -0.12650846 -0.25852913 0.30574438 0.14381665
0.31796885 -0.049512915 -0.06009467 0.2811067 0.04146406 0.06725373 -0.33580053 -0.14846028
0.2029194 -0.19500476 0.10284389 -0.03729375 0.119746946 -0.25703216 -0.010706139 0.24378972
0.2617124 0.06273669 0.06710453 0.12654248 -0.0879921 0.06272373 0.44405922 0.26080486
-0.23808043 0.057525437 -0.12601596 -0.2217849 -0.23504765 -0.009956384 0.18910217 -0.3450941
0.0061149155 -0.26024914 -0.13776983 -0.17260775 0.046610925 -0.2643387 -0.041530628 -0.08907688
-0.32428455 -0.2824754 -0.21868037 -0.21311593 0.23899874 0.35202944 -0.16182049 0.4183171
0.3629522 -0.25858983 -0.059800748 -0.31888294 -0.098982446 -0.3159112 -0.03987809 -0.23254739
-0.22660244 0.011571187 0.18172267 0.3460241 -0.04384678 0.022714943 0.042761885 0.26728317
00000000: a352 54be 9855 05be 8e12 66bd be1e 3d3d
00000010: 89f3 39be f5a9 57be 42ca 1bbe b108 3d3e
00000020: 2d22 91be 6145 013e f9fe 523e 85fa 93be
00000030: 27ce a2be a37e ee3d 6634 95be 2664 6c3e
00000040: 613e 293e 3459 363e b4e6 993e 2872 453e
00000050: 3d6a 53be 67b9 c1bc 11a1 843e 7817 a1bd
00000060: 5f5c a73e 87c8 3e3e 9a4e a1bd f28f d43d
00000070: c949 223e f0f1 503e d158 153e 26ef 7cbe
00000080: 423e 9fbe ff89 ee39 83e6 e93c 9d0f a33e
00000090: 2074 1e3e 67e5 243e 25b6 833e f5e5 b63e
000000a0: 2fba 193e 0b77 a2be 1ac3 92be c26c 9bbe
000000b0: 3305 793d 4638 033c 3bbd 11bc aea2 4fbe
000000c0: bd6c a3be 1a59 b73d f401 0a3e bb54 363e
000000d0: 09f2 16be e66b 96be 17f9 9ebe d273 953d
000000e0: d8c7 b3be 7f2d 96be 1b98 9d3e 9b54 f13d
000000f0: a5c4 8c3e fc0c a4be 738f 2ebe 19b5 3dbe
00000100: 09f4 1f3e a05f 113e 1a99 e0bd 93d9 853e
00000110: 4a5c aabe 72d0 233e 63da 8ebe daa1 103e
00000120: a187 ad3e 0ed9 793e a0c2 4ebc 5117 013e
00000130: 139f a03e 9b71 f93d 4c39 8f3d a3af e6bd
00000140: 4def 80bd 6d4f 2ebe d84b d13e a503 803e
00000150: a382 adbe 88c7 0b3e 8342 753e 1265 84be
00000160: f0ed 5d3e 1cfa 813d d7c4 8d3d 73ad 8cbe
00000170: 27cc 7c3e 8a49 2b3e 0f44 f33d c69a ea3d
00000180: 4921 b93e 8206 f13d 30c0 7dbd 2017 a4be
00000190: bd1f 3abe cdb9 973e bcbc b33d 011d 703e
000001a0: 52e7 4fbe d3bc a03e 2217 a3be 12fa 8b3e
000001b0: 882d 7bbe 28f5 063e 1f80 31be f66f 503e
000001c0: 2d7f 463d 7e3c fcbd b631 36be b382 a2be
000001d0: 3a4e 21bd 70ab 843e 6e47 dcbb 5013 b4be
000001e0: 29e2 973d cdeb 6a3d 31ba ffbd 626b 99bd
000001f0: 316e 573e 1ca7 b43b 30a7 033d dc87 2a3e
00000200: d03e 05be c03e 5e3e ceae 773e 760a 92bb
00000210: 43cd 463e 8100 863e 4748 5cbe 4117 12be
00000220: c2d5 21be 8110 a23d 0cd3 933e 8a67 16be
00000230: edf3 7ebe 05c1 94be 2b37 a23e 6760 98bd
00000240: 3e67 773e 0331 3d3e 40bc 9bbe 8e30 6abe
00000250: 1aa6 b1be cf06 60be f21a 2dbe 3254 3dbd
00000260: 3ba2 a3be 23a0 ef3c d93e 9fbd a4f2 6dbd
00000270: b5fb dd3b 001c 80bc 5448 a23e 8bf0 01be
00000280: 0711 fbbd b2d1 cc3c 6a8b e3bd 3dad 933e
00000290: 9c10 0c3e fa85 b13d f3c9 6abc 0394 253e
000002a0: ef48 b3be b16a 8dbe ed3f 7c3c 7ff5 a2be
000002b0: 776b b73d 3c67 3f3e 3f6f a13c 8f27 bbbc
000002c0: 1dce 0dbe 524e b4be 9353 17bd 4943 1cbe
000002d0: 3068 143c 6309 7dbe ee79 5c3d b19d e5bd
000002e0: 72bd eb3d d8c5 39be af05 80be 3bf5 22be
000002f0: 6f8b 01be ee5d 84be 878a 9c3e ac44 133e
00000300: d0cc a23e 0ece 4abd d425 76bd 38ed 8f3e
00000310: 38d6 293d 53bc 893d 0cee abbe f905 18be
00000320: 1aca 4f3e 54af 47be d19f d23d 55c1 18bd
00000330: e33d f53d b899 83be cd68 2fbc 03a4 793e
00000340: 2bff 853e 187c 803d 1a6e 893d 5a94 013e
00000350: 3435 b4bd 4d75 803d bb5b e33e 3788 853e
00000360: 5bcb 73be cb9f 6b3d 540a 01be 951b 63be
00000370: 55b0 70be 1a20 23bc 00a4 413e 2db0 b0be
00000380: a15f c83b 603f 85be 8913 0dbe 16c0 30be
00000390: 19eb 3e3d 6757 87be 051c 2abd f06d b6bd
000003a0: a008 a6be 9ea0 90be bfed 5fbe 103b 5abe
000003b0: 16bc 743e 343d b43e 45b4 25be a92d d63e
000003c0: dfd4 b93e e365 84be a1f1 74bd a044 a3be
000003d0: 4fb7 cabd 1dbf a1be 3557 23bd e720 6ebe
000003e0: 780a 68be 1395 3d3c 8215 3a3e 122a b13e
000003f0: ae98 33bd b014 ba3c 1627 2f3d 57d9 883e

decoder.0.bias f4 [32]
-0.21449964 0.040645223 0.27747378 0.0032102051 0.28063035 0.064133935 -0.006564885 0.3040535
0.36590278 0.27778086 -0.4175034 0.227232 0.38234997 -0.2824149 0.17636979 -0.0065047517
0.01130432 -0.28134227 -0.032319665 0.103412665 -0.12657519 0.3975294 0.009197233 -0.22325924
0.35019597 0.14360069 -0.2113968 -0.32328856 -0.33810562 -0.25958702 0.15135403 0.3559656
00000000: cba5 5bbe 9b7b 263d 0b11 8e3e 4e62 523b
00000010: c8ae 8f3e a758 833d 3f1e d7bb e6ac 9b3e
00000020: 9c57 bb3e 4b39 8e3e 01c3 d5be 81af 683e
00000030: 60c3 c33e b098 90be 489a 343e d025 d5bb
00000040: c135 393c 180c 90be a061 04bd 05ca d33d
00000050: ed9c 01be f988 cb3e feaf 163c 129e 64be
00000060: e34c b33e 0f0c 133e 6778 58be 1486 a5be
00000070: 2e1c adbe 97e8 84be 8dfc 1a3e 2041 b63e

decoder.2.weight f4 [64, 32]
0.009998493 -0.1417946 0.0559434 0.07527361 -0.07724951 -0.13595857 0.050820027 -0.06769268
0.15722261 -0.10123368 0.14585423 0.09102685 -0.0149585735 -0.017885372 0.032934166 -0.033958822
0.046149723 0.11812905 0.10164847 -0.023555867 -0.0062953364 -0.034404572 -0.0281705 0.12981601
-0.10781601 0.058513284 0.033203732 0.023653135 0.045502685 -0.008844107 0.112403445 0.08904728
-0.1582476 0.103599764 0.05894594 -0.013639119 0.0015474743 0.07278908 0.013792797 -0.08778294
-0.04291439 0.1769009 -0.13229309 0.0018826713 -0.1669305 0.077906914 0.17105395 0.17501025
0.02738394 0.12569138 -0.05030919 0.21237622 0.023379838 0.16206063 -0.06765881 -0.141692
-0.13321862 -0.12156494 0.1695987 0.06885295 0.00069320656 0.020985752 -0.110309064 0.047239214
-0.15180439 0.048056833 0.11296167 0.10956412 0.0853151 -0.011657144 -0.2390883 0.08205777
0.096344545 0.17338124 0.03520637 -0.066106915 -0.049486768 -0.006401312 -0.15194279 0.13167205
-0.01748427 0.0021142017 0.053306878 -0.1527717 0.005746075 -0.061408017 0.112688266 -0.061157715
0.028822323 0.049171526 -0.08237029 0.07985359 0.16535808 -0.20292768 0.033031236 -0.1479135
0.15049481 -0.07484087 -0.16604623 0.12296996 -0.022743562 -0.15641691 0.094772555 0.19986144
0.035624515 0.103733025 0.07755762 0.096452534 -0.0066525172 -0.22019649 0.00038098288 0.091102496
-0.027981717 0.028531596 -0.1611817 -0.014500194 -0.19083096 -0.13739549 -0.034577757 0.05621043
-0.09766208 0.0769259 0.08193089 0.07297088 0.111594066 0.06481292 -0.10311931 -0.14412029
-0.17394617 0.05877284 -0.08481992 0.1248374 0.1328072 0.07367028 -0.034220662 0.08010771
-0.15036143 0.038756322 0.08316673 0.1492364 0.005812746 -0.0031286902 0.11016419 -0.11649794
-0.10351081 0.046352606 0.1691328 -0.030602636 -0.15720612 0.12265024 -0.08591212 -0.015796673
-0.1199592 0.18855482 0.09537589 0.024945162 0.09142169 -0.06448557 -0.05761113 0.044900075
0.15745312 0.13510859 -0.12700394 -0.15228258 -0.081734814 -0.06065481 -0.14430039 0.109576814
-0.035674393 -0.118885145 -0.007486812 -0.033208832 0.067232 0.12996824 -0.16293804 0.15185136
0.105500475 -0.15992633 0.15916854 -0.06539006 0.09386642 0.10246723 0.17448938 0.15523645
-0.07431864 0.17998242 0.29040495 -0.07691046 -0.12749635 0.07582657 -0.13448194 0.06676642
-0.099060096 -0.07011179 0.3417658 0.030493082 0.19485693 -0.08961341 -0.09673768 0.05047817
0.26752773 0.349497 0.016582401 0.15339716 0.16380572 -0.1403762 -0.06519201 0.0012889563
0.0547063 -0.057389922 0.06312561 0.15278213 -0.0046575083 -0.05399292 -0.088861644 -0.019650936
0.27114692 0.12005606 -0.11256428 -0.09923909 0.0050276276 -0.30218682 0.020518847 0.15944329
-0.15897764 0.089055195 -0.004565693 -0.04582358 -0.09046004 -0.0044478043 0.09596626 -0.10711703
-0.112054475 0.080100775 -0.048440658 0.10472334 0.10896678 0.031958487 0.09760912 0.013809053
-0.09281675 -0.018010527 -0.12937495 0.20173094 -0.12505756 -0.0002572652 0.06455457 0.129546
0.18260553 0.14096168 0.0010495043 -0.14552885 0.12508792 0.011078814 0.04167221 -0.17584981
00000000: b8d0 233c 9b32 11be e824 653d 0d29 9a3d
00000010: fe34 9ebd b938 0bbe a928 503d 76a2 8abd
00000020: f7fe 203e 9b53 cfbd d05a 153e 496c ba3d
00000030: ce14 75bc 5884 92bc fae5 063d 6818 0bbd
00000040: 7e07 3d3d a5ed f13d 132d d03d 3cf8 c0bc
00000050: 1c49 cebb cfeb 0cbd d2c5 e6bc 7dee 043e
00000060: a4ce dcbd a0ab 6f3d a300 083d 38c4 c13c
00000070: 0661 3a3d e0e6 10bc c733 e63d 6c5e b63d
00000080: a90b 22be 1d2c d43d 4c71 713d 9d76 5fbc
00000090: 9fd4 ca3a 7112 953d 2ffb 613c 8bc7 b3bd
000000a0: 00c7 2fbd 8225 353e d777 07be f7c3 f63a
000000b0: d4ef 2abe a98d 9f3d c428 2f3e e335 333e
000000c0: 4954 e03c 3eb5 003e 0211 4ebd 2779 593e
000000d0: 1387 bf3c 39f3 253e b490 8abd b517 11be
000000e0: 766a 08be 0af7 f8bd 48ab 2d3e c702 8d3d
000000f0: 4eb8 353a 50ea ab3c b8e9 e1bd e87d 413d
00000100: 9c72 1bbe 3ed7 443d 7358 e73d 2763 e03d
00000110: afb9 ae3d 9bfd 3ebc 90d3 74be e70d a83d
00000120: 4a50 c53d da8a 313e 8e34 103d 1063 87bd
00000130: a3b2 4abd 19c2 d1bb e496 1bbe 0ad5 063e
00000140: 2c3b 8fbc 6b8e 0a3b 5058 5a3d 2f70 1cbe
00000150: 9249 bc3b f986 7bbd 1bc9 e63d 8380 7abd
00000160: cb1c ec3c 1568 493d c1b1 a8bd 478a a33d
00000170: a153 293e 46cc 4fbe c34b 073d a376 17be
00000180: 501b 1a3e 2c46 99bd 0608 2abe add7 fb3d
00000190: b550 babc c12b 20be 1d18 c23d 7aa8 4c3e
000001a0: 03eb 113d fb71 d43d 88d6 9e3d e888 c53d
000001b0: 5cfd d9bb 307b 61be a8be c739 f293 ba3d
000001c0: ea39 e5bc 18bb e93c d10c 25be 3992 6dbc
000001d0: 3169 43be 67b1 0cbe 68a1 0dbd e83c 663d
000001e0: 0e03 c8bd 548b 9d3d 62cb a73d c271 953d
000001f0: 6e8b e43d a3bc 843d 3830 d3bd 4594 13be
00000200: f21e 32be cabb 703d 11b6 adbd c0aa ff3d
00000210: 9cfe 073e 72e0 963d f72a 0cbd 830f a43d
00000220: 59f8 19be f3be 1e3d 5253 aa3d 6dd1 183e
00000230: d978 be3b b60a 4dbb c39d e13d 7996 eebd
00000240: 7afd d3bd 3bdc 3d3d 2631 2d3e 61b2 fabc
00000250: a4fa 20be 0d30 fb3d b2f2 afbd 0668 81bc
00000260: 2bad f5bd 8414 413e 6f54 c33d cc59 cc3c
00000270: 4c3b bb3d 0311 84bd a6f9 6bbd 24e9 373d
00000280: 643b 213e e859 0a3e 520d 02be f7ef 1bbe
00000290: 9564 a7bd 2e71 78bd 7bc3 13be cf69 e03d
000002a0: 501f 12bd 0e7a f3bd ee53 f5bb fc05 08bd
000002b0: eeb0 893d 6516 053e 3bd9 26be ec7e 1b3e
000002c0: a210 d83d bac3 23be 14fd 223e 39eb 85bd
000002d0: 0a3d c03d 57da d13d 58ad 323e 4ef6 1e3e
000002e0: 5f34 98bd 504d 383e f5af 943e 3b83 9dbd
000002f0: 678e 02be f64a 9b3d a2b5 09be d5bc 883d
00000300: 05e0 cabd c596 8fbd edfb ae3e a1cc f93c
00000310: 9388 473e 3c87 b7bd 681e c6bd 33c2 4e3d
00000320: 65f9 883e 45f1 b23e d1d7 873c 2514 1d3e
00000330: b0bc 273e c7be 0fbe 6383 85bd 32f2 a83a
00000340: b713 603d b211 6bbd 0048 813d eb72 1c3e
00000350: 039e 98bb ae27 5dbd 18fd b5bd 00fb a0bc
00000360: c5d3 8a3e f4df f53d 1a88 e6bd dd3d cbbd
00000370: ccbe a43b 3bb8 9abe 2417 a83c 1a45 233e
00000380: 09cb 22be 9262 b63d cf9b 95bb 82b1 3bbd
00000390: 1d43 b9bd e3be 91bb f589 c43d 2c60 dbbd
000003a0: d17c e5bd e00b a43d b669 46bd 3179 d63d
000003b0: fa29 df3d e7e6 023d 4ae7 c73d 5e3f 623c
000003c0: b516 bebd d08a 93bc de7a 04be 8e92 4e3e
000003d0: 170f 00be 8de1 86b9 3035 843d b5a7 043e
000003e0: f2fc 3a3e 4258 103e 858f 893a 8405 15be
000003f0: 0c17 003e ea83 353c 7bb0 2a3d f911 34be

decoder.2.bias f4 [64]
0.072427906 0.06848636 0.019274095 0.07273003 -0.01761546 -0.041065298 0.024080463 0.12286219
0.13840741 -0.090232566 -8.8345594e-05 0.16890228 0.051255833 0.20027925 0.036341034 0.16676602
0.13048953 0.15826605 0.12855364 -0.018647749 0.0194734 0.06788874 -0.15064764 -0.16923116
0.16735795 0.18634352 -0.09323162 0.18471664 0.17019957 -0.1832385 0.08287956 -0.017537585
0.1751793 0.093619324 -0.059805892 0.010147989 -0.0069403085 0.098608784 -0.02086679 0.15895256
0.12361792 0.26246792 0.06308971 -0.24246532 0.079634435 -0.09916817 -0.1810477 0.08051737
0.059399966 0.17758843 0.0973943 -0.094882734 0.1649895 -0.08302561 0.17585947 0.07102201
-0.23083772 -0.10960817 0.1057601 0.029167766 0.02653176 -0.13975312 0.1764577 -0.018689243
00000000: 1555 943d 9442 8c3d b5e4 9d3c 7bf3 943d
00000010: 4c4e 90bc 1634 28bd 6444 c53c 2c9f fb3d
00000020: acba 0d3e dacb b8bd 2e46 b9b8 b8f4 2c3e
00000030: a3f1 513d 0116 4d3e 56da 143d b6c4 2a3e
00000040: 0c9f 053e 7f10 223e 91a3 033e 2ac3 98bc
00000050: ae86 9f3c 4009 8b3d 6043 1abe ef4a 2dbe
00000060: e25f 2b3e d6d0 3e3e 38f0 bebd 5c26 3d3e
00000070: cc48 2e3e e0a2 3bbe c2bc a93d fbaa 8fbc
00000080: 3462 333e 7dbb bf3d 06f7 74bd c043 263c
00000090: 876b e3bb 67f3 c93d d5f0 aabc 76c4 223e
000000a0: 642b fd3d 3262 863e 2e35 813d d448 78be
000000b0: 6117 a33d ae18 cbbd 9164 39be 4ae6 a43d
000000c0: 614d 733d bed9 353e aa76 c73d e151 c2bd
000000d0: 02f3 283e 5509 aabd 8114 343e fd73 913d
000000e0: b960 6cbe 407a e0bd c098 d83d 3df1 ee3c
000000f0: 2259 d93c 711b 0fbe 54b1 343e 2f1a 99bc
