Save_Models/model-lat2.pth (torch, 191202 bytes, 16 tensors)

encoder.0.weight f4 [128, 99]
000000 23 fe 7e bd b1 a1 d2 bd 1e 17 ef bc 67 2e a6 bd
       -0.062254082 -0.102847464 -0.029185828 -0.08114319
000010 06 37 26 3d aa 49 52 bc f8 02 36 bb ea c0 c1 3c
       0.04057982 -0.012834946 -0.0027772766 0.023651559
000020 e6 d8 a5 bd d4 03 0c bc 12 77 15 3b 91 9c 01 bb
       -0.08098011 -0.008545835 0.0022806567 -0.0019777159
000030 7b c7 50 bd 2b b6 bf bd 30 05 6c 3d 5b 92 83 bc
       -0.05097149 -0.09360918 0.057622135 -0.016060999
000040 a6 26 6f 3d b8 9a ae 3d fb 53 12 bd a9 d7 48 3d
       0.058386467 0.08525604 -0.03572462 0.049033795
000050 e9 ba 86 3b 6d c2 e9 3c 7d b5 1b 3d d1 e4 70 3d
       0.004111637 0.028535092 0.038014878 0.058811966
000060 5b a6 49 3c 44 b4 10 bc 55 d0 8d bc ac c8 d3 3b
       0.012307729 -0.008832041 -0.017311255 0.006463131
000070 5d 45 1b 3d 32 5c bb 3c 29 fc 4f bb 67 a9 ac 3d
       0.037907947 0.02287111 -0.0031735993 0.084307484
000080 74 6a 70 bd a4 a1 59 bd 9e 06 68 bd d5 9a 1c 3d
       -0.05869527 -0.05313267 -0.056646936 0.038233597
000090 ca 65 8d 3d fe b4 c0 bc 9b c8 25 bd 0c 62 8c 3d
       0.0690418 -0.023523804 -0.040474515 0.068546385
0000a0 39 3e b6 3d 2a 2a 72 3d b9 9d 16 bd 44 5a 87 3d
       0.08898587 0.059122242 -0.03677151 0.06609014
0000b0 b5 f1 a5 3d f6 a9 67 3d b2 9e ff bb bf a3 32 3d
       0.081027426 0.05655857 -0.0078009004 0.04361319
0000c0 5f ea f9 3d c3 da fa 3d a4 c4 51 3d 2c 15 98 3b
       0.12202906 0.12248757 0.05121292 0.0046411958
0000d0 61 fd db 3d bf ef c1 3c 4b 83 86 3d 81 33 98 bd
       0.107416876 0.02367389 0.06568011 -0.074316986
0000e0 57 11 bb 3b 0e 32 39 bd e4 db a2 3d 57 8c 9c bc
       0.005708854 -0.04521375 0.07952097 -0.019109888
0000f0 12 6e 0c bd f4 8b 8b bd 73 de d8 3c 33 79 84 bd
       -0.03428466 -0.06813803 0.02647326 -0.064684294
000100 7d db 88 bc 8d a2 a0 3d 27 28 1f bc 03 91 6b 3d
       -0.016706223 0.07843504 -0.009714163 0.05751134
000110 a6 e5 cd 3d 34 b0 25 bd 4f c8 2e bd 6c 0b a1 3d
       0.100535676 -0.040451244 -0.042671498 0.07863507
000120 c2 2d 5e 3d e5 4d ea bc 82 40 77 bd 27 98 b5 3d
       0.054242857 -0.028601596 -0.060364254 0.088669114
000130 64 0f a4 3c 6b a2 94 bd be 20 2e bd 93 54 aa 3c
       0.02002687 -0.07257541 -0.042511694 0.020792281
000140 28 c4 bd 3a 94 b1 92 3d d8 f2 bc 3c 58 f0 7c bd
       0.0014478015 0.071627766 0.023065016 -0.061752647
000150 64 f3 91 bd fd 6c 52 3d a7 70 54 bb 66 b9 99 bd
       -0.07126501 0.05137347 -0.003241578 -0.07506065
000160 72 79 f2 3b ee 11 02 bd 18 43 3d 3d 72 8d 6f bc
       0.0073997313 -0.03175538 0.046206564 -0.0146211255
000170 5b b0 c9 bd e2 55 a4 3d 05 60 b0 3c 23 37 9d bd
       -0.0984809 0.08024193 0.02153016 -0.07676532
000180 9f d2 46 bd 21 4a 50 3d f7 38 84 bc 2a 8d 5a bd
       -0.048540708 0.050851945 -0.016140444 -0.05335728
000190 7f 94 42 3d 43 b2 91 3d b4 10 ab bd 8f 8c 1e bd
       0.0475049 0.07114079 -0.08352795 -0.038708266
0001a0 83 4d 15 bc 46 36 59 bd 1e df a0 bd d0 d8 d7 bd
       -0.0091127185 -0.053030275 -0.07855056 -0.105394006
0001b0 6b 73 5d bd 49 9f 99 3d 4e dd ae 3d 6e 15 93 3d
       -0.05406515 0.07501084 0.08538304 0.07181822
0001c0 dc be a3 bd 89 f3 57 bc 3b 99 9e 3d d3 8f 0c bd
       -0.07995388 -0.013180622 0.0774407 -0.03431685
0001d0 30 43 a6 3d 88 d9 df bb bf 92 63 bc 18 b4 a1 3d
       0.08118284 -0.0068313517 -0.013889967 0.07895678
0001e0 41 71 09 bd 23 59 0a ba a3 f6 7e 3c f2 4d 94 3d
       -0.033555273 -0.00052775646 0.015561732 0.072414294
0001f0 ae 16 b6 bc 9b 8b 1f 3d 71 df 8e bc 65 d9 ee 3c
       -0.022227611 0.038951498 -0.01744053 0.029156396
000200 f0 22 96 3d 5a 74 0f bc 5b ca a2 3c 93 1b 60 3d
       0.073308825 -0.008755768 0.019871881 0.054713797
000210 d0 43 72 3d 9d d5 75 3d b5 cf a5 3d 4c a2 83 bc
       0.059146702 0.06001817 0.080962576 -0.0160686
000220 44 16 19 3d 1c 90 c4 bd 04 b8 45 bd 50 a2 82 3d
       0.03737475 -0.09597799 -0.048271194 0.06378615
000230 00 a4 b9 bb 74 0d 8a bc 8b c4 6a bc 54 e3 a8 3d
       -0.0056653023 -0.016852118 -0.014329086 0.082464844
000240 28 df 4e 3d 9b 29 c0 bd 03 63 f8 bb 1b 91 82 3d
       0.050505787 -0.093829356 -0.0075801625 0.06375333
000250 b6 0d 85 bd a0 66 4e bd 42 a3 cf bd b6 03 8f bd
       -0.06496756 -0.05039084 -0.10138561 -0.0698313
000260 51 58 32 3d dc 10 17 bd 0e 19 33 bd dc 41 91 bd
       0.043541256 -0.036881313 -0.043725066 -0.0709264
000270 46 34 fe bc 5e d7 2b bd 31 38 49 3d 82 fa 4f 3d
       -0.031030785 -0.041953437 0.049125854 0.050776012
000280 3c 10 d0 bd ae 04 bd 3b 44 f4 ad 3d a6 01 76 3d
       -0.101593465 0.00576838 0.084938556 0.060060166
000290 82 67 c2 bd 12 11 fa bb fa 06 a0 3d 4d 86 32 bc
       -0.09492399 -0.0076314295 0.07813831 -0.010896278
0002a0 b2 b1 68 3d 1d c0 f6 bc 3d f2 85 bd bd c7 eb 3d
       0.05681009 -0.030120904 -0.06540344 0.115127064
0002b0 ab 8f b4 3b 77 c2 73 3d 32 4f af 3d fe 49 d0 3c
       0.0055102906 0.059511628 0.08560027 0.025425907
0002c0 16 10 87 bd 99 a3 8c bd 1b 76 ee 3d 43 71 ae bc
       -0.06594865 -0.06867141 0.116436206 -0.021294242
0002d0 35 49 42 3d 1f bc 23 3d 89 40 0b 3b 7c 37 99 39
       0.047433097 0.039974328 0.0021248183 0.00029223773
0002e0 3d 28 3c bd fc 88 95 3d bf 5a 92 3d 1e b7 15 3d
       -0.04593681 0.07301518 0.07146215 0.036551587
0002f0 3d e8 ef 3d fc e6 aa bb f8 53 f7 bc c8 17 e2 3c
       0.11714218 -0.0052155238 -0.030191407 0.02759923
000300 fa 66 fe 3d bc 82 03 3e b7 9f 1a bd 07 da a6 3d
       0.12421985 0.1284284 -0.037749972 0.08147054
000310 f1 a3 dd 3d e9 84 ed 3d 57 67 d6 3d b6 96 91 bd
       0.10822285 0.11597616 0.10468929 -0.07108824
000320 92 87 09 bd b8 87 80 bd c3 8b 8c 3b e5 55 4e bd
       -0.033576556 -0.06275886 0.004289122 -0.050374884
000330 a7 02 eb 3c 34 35 c7 3d 0e a0 a4 bd bb ce d6 3d
       0.028687788 0.097269446 -0.080383405 0.104886495
000340 dc f9 0a 3c d3 c4 a0 3d b3 06 0c 3d b8 45 aa 3d
       0.008482423 0.07850041 0.034186076 0.08314079
000350 97 65 05 bd d5 69 ab bc 46 88 8b 3d b6 7c 04 bc
       -0.032567587 -0.020924488 0.068131015 -0.008086374
000360 a6 d3 32 3d 33 b6 0a bd c3 d1 94 3d 05 e1 e9 3d
       0.043658875 -0.033865165 0.072665714 0.11419872
000370 7a 39 b6 3d a3 76 f4 bc f3 25 20 bd 26 9f 9e 3d
       0.088976815 -0.029841727 -0.03909869 0.07745199
000380 42 0d a6 3d da 2a 26 3d 72 64 cc 3d 00 cb 79 bd
       0.081079975 0.04056821 0.09980096 -0.06098461
000390 04 38 96 3d 84 40 2f 3d 74 34 95 bc 81 71 ba bb
       0.07334903 0.042786136 -0.018213488 -0.0056898003
0003a0 22 8e 1a 3d 51 58 24 bd 89 b4 77 3d 8a 54 8d bd
       0.037733205 -0.040123288 0.060474906 -0.0690089
0003b0 c4 91 e2 3d e7 48 c3 3d 23 fc f5 3c 38 a3 d4 3c
       0.11062959 0.095353894 0.030027455 0.025956735
0003c0 3a 9f 27 bc 27 19 8f 3b a6 ee ac 3c c6 8c df 3d
       -0.010230834 0.004367012 0.02110989 0.10915522
0003d0 a4 4c 69 bc 46 20 31 3d 73 7a f6 3d 8a 9c 82 3d
       -0.014239464 0.04324367 0.12035074 0.06377514
0003e0 c9 7c a0 3d 39 5c f4 3d 86 51 c8 3d eb 4e 51 bd
       0.07836301 0.119316526 0.09781174 -0.051100653
0003f0 fd 29 2e bc 19 a8 be bc cc e2 71 3b 3f 33 45 3d
       -0.010630128 -0.023273515 0.0036908863 0.048144575

encoder.0.bias f4 [128]
000000 bf a7 c8 be c8 3b a1 bd f9 56 0d 3d d7 df 4d be
       -0.3919048 -0.078727305 0.03450677 -0.2010492
000010 4f a2 b2 be 9c d0 b6 3c 81 cf 25 be 72 e1 05 be
       -0.34889457 0.02231627 -0.16192438 -0.13074282
000020 6b 15 37 be 59 53 c7 bd f0 dd 34 be 49 c8 14 be
       -0.17879264 -0.09732694 -0.17662787 -0.14529528
000030 cf 7c b6 be ac 34 20 be bd b9 86 be 86 e9 df be
       -0.35642096 -0.15645093 -0.26313582 -0.43732852
000040 29 5f 26 be 09 0f 0d be ea 2c 49 be 3f 90 67 be
       -0.16247238 -0.13775267 -0.1964604 -0.2261362
000050 d0 11 a6 be 58 f2 81 be 53 cc c1 be 83 56 d4 be
       -0.32435465 -0.25380206 -0.378512 -0.41472253
000060 ab 95 7f be 73 ac 38 bd d0 20 62 be 41 96 38 be
       -0.24959438 -0.045086335 -0.2208283 -0.18026067
000070 bf b4 8a be 1f 7a 8e be 93 cf ba be 7b 4a af be
       -0.27091023 -0.27827546 -0.36486492 -0.34236512
000080 1e 98 4e be 7c 4b 5b 3e a9 10 b8 bd 1a 1d 71 be
       -0.20175216 0.21415514 -0.08987553 -0.23546258
000090 13 22 c4 be d1 ed a2 be 21 55 b6 be 34 03 f7 bd
       -0.38307247 -0.31822065 -0.35611823 -0.12061158
0000a0 29 df d6 be 6b b7 6b be 66 97 17 bd 57 84 ad be
       -0.41967133 -0.23019187 -0.03700962 -0.3389003
0000b0 09 18 8d be 4f 0e 17 3c cb 0c ad 3e 3f 86 91 be
       -0.275574 0.00921972 0.33798823 -0.28422734
0000c0 f4 0e 9d be ec 05 8e be e1 a1 3f be 12 b8 46 be
       -0.3067547 -0.27738893 -0.18714096 -0.19406155
0000d0 84 8d a1 bd 9e f6 b2 be 2a 8b 59 be c6 14 3e be
       -0.0788832 -0.3495378 -0.21244493 -0.18562612
0000e0 f1 96 43 bd c4 34 98 be bf 43 9c be 99 ed f0 be
       -0.04775137 -0.29727757 -0.30520436 -0.47056273
0000f0 a8 12 d7 be fe bf 8c bd 65 bd a6 be 96 60 2c be
       -0.4200642 -0.06872557 -0.32566372 -0.1683372
000100 a3 80 52 be 58 ba fc 3d e2 8c 78 be 6e c9 ef be
       -0.20556884 0.1234023 -0.24272493 -0.46833366
000110 3f c4 a2 bd 50 97 1a be 6c 76 40 be 7f 76 a1 be
       -0.07947587 -0.15096784 -0.18795174 -0.31535718
000120 3f 86 db be 6d f9 34 be c4 7a 15 be 8e 99 d8 be
       -0.4287586 -0.17673273 -0.14597613 -0.42304653
000130 74 65 b0 bd ba 54 7a be a0 0b be be 4e ad 72 be
       -0.08613101 -0.24446383 -0.37118244 -0.23698923
000140 2a c1 7a be 57 cf 9e be 08 e6 2e be 29 e4 b1 be
       -0.24487749 -0.31017563 -0.17079937 -0.34744385
000150 29 92 4f be b8 82 06 be 4a 14 2d bd d0 cc b6 be
       -0.202706 -0.13135803 -0.042255677 -0.35703135
000160 4f e4 d5 be 63 e1 86 be 9d 8d 7a be c4 55 03 bc
       -0.41775748 -0.2634383 -0.24468084 -0.008016054
000170 80 fb 94 be 44 43 01 bf 16 19 06 bf 0b 4f d2 bd
       -0.2909813 -0.50493264 -0.5238203 -0.102689825
000180 f9 52 ab be fd 2b a6 3a 87 d8 98 bd 0e 63 db be
       -0.3346174 0.0012677904 -0.07463174 -0.4284901
000190 02 07 c1 be 97 55 69 be 2e 19 b2 bd d5 42 f4 be
       -0.3770066 -0.22786556 -0.08696209 -0.4770724
0001a0 7f 9a 2e 3e 25 b8 31 be 58 11 47 be 85 d9 39 be
       0.17051123 -0.17355402 -0.1944021 -0.18149383
0001b0 a5 05 96 be b3 a3 1d be 36 3f c8 be 49 a2 60 bd
       -0.2930118 -0.15394478 -0.39110726 -0.054842267
0001c0 b6 c6 5f be d0 e8 d1 be 88 26 df bd 17 a5 20 be
       -0.21853146 -0.40997934 -0.10896021 -0.15687977
0001d0 4d 2e 89 be 03 ec f9 bd f2 e6 6e be 1d a2 e9 bd
       -0.26793137 -0.12203219 -0.23330286 -0.11407874
0001e0 ea 8f 07 bf 9c 96 76 be 02 61 af be f9 ec 63 be
       -0.5295397 -0.2408089 -0.342537 -0.22258367
0001f0 42 e0 14 bf 7d be b2 be 93 09 04 bf 8d d8 1e be
       -0.5815469 -0.34910956 -0.5157711 -0.15512295

encoder.3.weight f4 [64, 128]
000000 a6 a2 0c bd de 98 2b bd 46 b1 8b 3c 44 cd 42 3d
       -0.0343348 -0.041893832 0.017052304 0.047559038
000010 39 87 92 3d 49 6c 5c 3c c1 1e 67 3d a2 4e 79 bd
       0.07154698 0.013453552 0.056425814 -0.060866006
000020 39 1c e0 3c e2 54 6f 3d 94 78 96 bd 76 02 23 b9
       0.027357208 0.05843056 -0.07347217 -0.00015545808
000030 fc b6 2a 3d 74 cb 92 bd 6b f1 ec bc 55 c9 65 3b
       0.041678414 -0.07167712 -0.02892371 0.003506263
000040 57 a1 d0 3c 96 45 b2 bc dc 77 a5 3d 62 ce d2 bd
       0.025467558 -0.021761697 0.08079502 -0.10293271
000050 39 4a 5e 3d be bf 44 bd 86 cd 96 3b 41 76 29 be
       0.054270003 -0.048034422 0.004602137 -0.16549017
000060 77 22 31 3c c8 cd 82 bd e0 b4 3d bd 04 65 45 3d
       0.01081144 -0.06386906 -0.046315074 0.04819204
000070 a9 11 0c 3d 81 f1 46 3d 7b 13 23 bd b1 30 c8 3d
       0.03419653 0.04857016 -0.0398135 0.09774912
000080 3c 47 bc 3c 69 5c 82 3d 4e 1d 0c 3d aa 59 48 bd
       0.022983186 0.06365282 0.034207635 -0.048913635
000090 6d 29 d6 bc c1 42 83 bd 56 9c 51 3d 9a 52 c9 bb
       -0.0261428 -0.06409217 0.051174484 -0.00614388
0000a0 c8 af c2 bd 24 d9 3f bd b1 19 cf bd 10 63 f3 3d
       -0.09506184 -0.04683794 -0.10112322 0.11884129
0000b0 85 67 ba 3d 5c c2 5b bd 49 49 34 bd 6f ed 11 bb
       0.09101776 -0.053652152 -0.044015203 -0.0022266766
0000c0 d9 4a b4 3d 62 22 53 3d 43 40 f7 3c d2 5d 51 3d
       0.088033386 0.051546462 0.03018201 0.051114865
0000d0 06 28 f2 bc d4 fe 96 ba c6 64 02 be 58 ad 6c 3d
       -0.0295601 -0.0011520036 -0.12733755 0.0577825
0000e0 d1 89 88 bd 45 81 82 3d aa 7d 13 3c ed c9 4d bc
       -0.066669114 0.063723125 0.009002129 -0.01256035
0000f0 8c d1 66 bd 4b 15 32 3d 65 90 d5 bb 3c 91 6a 3d
       -0.056352183 0.043477338 -0.0065174573 0.057267413
000100 13 e6 fc bc bc 7c 1f 3d b0 9d a4 ba ac b4 e2 3d
       -0.030871427 0.038937315 -0.0012559202 0.11069617
000110 f7 f3 87 3c 5c 3c 95 bd 83 e8 de bd cc 74 e1 bd
       0.016595824 -0.07286903 -0.10884192 -0.11008605
000120 34 9f c6 bc ae e6 65 bd fb 58 f5 bb f6 a3 a9 bc
       -0.024245836 -0.056128196 -0.007487414 -0.020708065
000130 3c 38 50 bd a3 22 9f 3d 3c 8e 4d bc ee 7d 4a bd
       -0.05083488 0.07770278 -0.012546118 -0.049436502
000140 3c c8 a3 3b 46 e1 89 bd 8c d1 a3 3c 6c d2 f1 bd
       0.004998235 -0.067324206 0.01999738 -0.11807713
000150 ed 5c e8 3c 02 2d c7 bb fc b3 a7 bc 0e bb 83 3c
       0.028364623 -0.0060783634 -0.020471565 0.016080406
000160 35 c1 eb bd d1 c1 59 3d 06 0c f8 bb 60 08 72 3d
       -0.11511461 0.053163353 -0.0075697927 0.05909002
000170 e3 6d f9 3b bc 94 fb 3d 15 e6 60 3d 5a d8 42 3d
       0.0076119765 0.12284228 0.054906923 0.04756961
000180 42 fc 83 3d 3f 6a 82 bc 50 e5 c6 bc 76 ed 67 bc
       0.06444599 -0.015919803 -0.024279267 -0.014155736
000190 15 6e f6 bd f0 21 e2 3c c1 09 6d bd f3 ff d6 bc
       -0.12032715 0.027604073 -0.05787063 -0.026245093
0001a0 63 cd 01 3d 55 06 87 3c 61 1f ae bd b3 60 60 bd
       0.031690013 0.016482512 -0.08502079 -0.05477972
0001b0 23 2f 13 bc ce 36 1d 3d d9 d1 4e bd b3 82 29 3d
       -0.008983406 0.038382344 -0.050493095 0.04138441
0001c0 03 9d 3e 3c 76 23 c9 3d a1 fb 87 bd d0 aa 34 bc
       0.011634114 0.09821217 -0.06639791 -0.011027053
0001d0 35 7b 81 3d 8a df cf ba a2 04 e3 3d ea 90 52 3b
       0.06322328 -0.0015859467 0.11084868 0.0032129833
0001e0 9a 5a 9e 3d 56 ba 15 bd 8a d2 59 3d 26 e9 90 3c
       0.077321246 -0.036554657 0.0531793 0.017689299
0001f0 7a 15 06 bd c0 40 ae 3d 60 df 5f bd 8a 24 ee bb
       -0.032735325 0.08508444 -0.054656386 -0.0072675394
000200 cb 1a 0b 3c a6 5e 0b 3d 4a a4 1a be 9c 63 89 3d
       0.008490275 0.03402581 -0.15101734 0.06708452
000210 47 e7 7a 3d b5 91 14 3d 99 7d 0f 3d a1 9b 33 3c
       0.06125572 0.03627177 0.03503189 0.010962398
000220 b6 6b 62 bd c4 33 07 bd cf 3f 69 3d 6d 90 5f 3c
       -0.055278502 -0.033008352 0.05694562 0.013645274
000230 60 18 e6 3c a6 56 d4 3b ec 65 a4 39 ed 84 2f 3e
       0.028087795 0.006480056 0.00031356455 0.17140551
000240 55 47 8b 3d 1c fb 60 3d 2e a8 3c bd e3 ee 37 bd
       0.06800715 0.054926977 -0.046058826 -0.044905555
000250 72 de fe 3d de 93 db 3b 41 8e 9e 3d 01 75 af 3d
       0.12444772 0.0067009768 0.077419765 0.085672386
000260 7c 62 a6 bc e6 b1 d1 3c 3c 8a 53 bd d0 a2 13 3d
       -0.020310633 0.025597524 -0.051645502 0.036043942
000270 51 63 0d be 8a 28 c4 3c 4a c5 98 bb 6a 96 b2 3d
       -0.13807417 0.023945112 -0.0046621906 0.087200955
000280 1d 0d 9a 3d b4 f5 8c bc 05 81 7d 3c 71 00 d0 3c
       0.075220324 -0.017207004 0.015472655 0.025390835
000290 fe 11 22 3d 83 76 ca ba ac 15 ae 3d 7e 01 1e 3c
       0.03956794 -0.0015446696 0.08500227 0.00964391
0002a0 8b 26 cd 3d 66 0d 9e 3d 23 0d a3 3d e7 ea 17 3d
       0.10017117 0.07717399 0.0796149 0.037089255
0002b0 61 b0 31 3d 89 e8 f9 bb 07 5c 85 3c 9f 07 8e 3c
       0.0433811 -0.0076265973 0.016279234 0.017337618
0002c0 20 d0 d5 3d 4e 9f 78 3d c4 7a 77 3b 51 28 3f 3c
       0.10440087 0.0606988 0.0037762383 0.011667327
0002d0 7a e1 17 bd 39 79 ad 3c 74 75 87 3d 98 73 65 3d
       -0.037080266 0.021175968 0.06614199 0.056018442
0002e0 87 4e 25 3d 60 c3 46 3d ba 35 e7 bb 75 7f a6 3d
       0.040358093 0.048526168 -0.0070559653 0.08129779
0002f0 8c 9d da 3d ee c8 7d bd 6c d6 db 3d 35 9e e3 3c
       0.10674581 -0.0619592 0.10734257 0.0277854
000300 00 a8 a3 3d 59 2a 2f 3d 03 65 eb bc 1a a0 b4 3c
       0.07991028 0.042764995 -0.02873469 0.022048999
000310 0b dd dc bb 6f 6b 1c bd 82 c9 cf 3d 1e 69 9d 3d
       -0.0067402176 -0.038188394 0.101458564 0.07686065
000320 e7 e7 07 3e 64 98 ac bb a9 e8 e3 3c c3 9f 9d 3d
       0.13272057 -0.00526719 0.027820902 0.07696488
000330 01 85 ba bc 6e 76 25 3d e9 e0 07 3d 5d 7d f1 3c
       -0.0227685 0.040396146 0.033173475 0.029478723
000340 d7 7b 0f 3b e9 ae a3 3d 7a f8 37 bc a6 2a 63 bd
       0.0021893883 0.07992346 -0.011228675 -0.055460595
000350 2c 14 87 bc e7 80 3e bd e0 7e 9d bb 93 99 08 3c
       -0.01648911 -0.04650965 -0.0048063844 0.008337396
000360 ec 37 c5 3d b3 c5 7f 3c a4 00 ea 3b 17 8f 9c 3b
       0.09629807 0.0156111 0.0071411896 0.0047778
000370 ec 0e c2 3d af 93 7e 3d 2f ad 7d bc c1 df 2d bb
       0.09475502 0.06215256 -0.015483185 -0.0026531073
000380 bc 5d ed 3d 9a 64 89 3d 9c d6 99 bd 26 cc 37 3c
       0.11590144 0.06708641 -0.075116366 0.011218106
000390 94 77 7d ba 4e 1a a5 bc f3 ea 08 3d 46 82 eb 3c
       -0.00096690026 -0.020154145 0.03342719 0.028748643
0003a0 0f 98 47 be 2d 5a 18 3d bd 70 9f bd ae 3f 7d bd
       -0.194916 0.037195373 -0.07785175 -0.061828308
0003b0 28 ca cf 3d 59 1d 9d 3d a6 32 bf 3d 83 6a 41 bb
       0.1014598 0.07671613 0.09335832 -0.0029512949
0003c0 32 a6 70 3d 48 45 a8 3d 98 f9 83 3d 0c 15 65 bc
       0.058752246 0.08216339 0.064440906 -0.013982069
0003d0 4d c2 6e bc 35 3e ae 3d e1 9c 63 3d 25 9c 9c 3d
       -0.014572692 0.08507959 0.055569533 0.0764697
0003e0 28 00 99 3d 40 8e 94 bc 6a 39 02 3e 71 cd 56 bd
       0.07470733 -0.018134236 0.12717214 -0.052442018
0003f0 48 ec b8 3d 13 74 2b 3d 13 ad 0f 3e 35 35 a0 3b
       0.09029442 0.041858744 0.14030866 0.0048891553

encoder.3.bias f4 [64]
000000 25 8b 16 bd ee c9 dd be 3b 4c bf bd 77 af 0a be
       -0.036753792 -0.43318123 -0.09340712 -0.13543497
000010 0a 1c 0e be 85 5a e1 bd a5 c9 f3 bd de 46 d7 be
       -0.13877884 -0.11003593 -0.11903695 -0.42046255
000020 c3 19 6d be 82 b2 81 bd f3 3f a2 bd 4f 98 76 be
       -0.23154359 -0.06332876 -0.079223536 -0.24081539
000030 27 bb 11 be 48 9f 02 be e6 75 94 bd 77 46 d1 bd
       -0.14231549 -0.12756073 -0.0724905 -0.10218518
000040 b5 f4 06 3d ff c1 85 bd 86 33 c2 bd ac df a7 bd
       0.032948215 -0.065311424 -0.094824836 -0.08196959
000050 6a 29 fb bc da d7 0a be ec ca 2f bd 99 50 13 3b
       -0.030659396 -0.13558903 -0.04291813 0.002247846
000060 76 5b 8f be f6 71 2f bd d0 86 05 bd 58 7e ee bd
       -0.27999467 -0.04283329 -0.03259927 -0.11645192
000070 5f 7c 32 be 66 d4 4e be 1c d5 c5 bd 04 a9 26 be
       -0.17430256 -0.20198211 -0.09659788 -0.16275412
000080 8b 2c 11 3e cf 44 06 be a2 9a 6d bd 2f f5 22 be
       0.14177148 -0.13112186 -0.058008797 -0.15913843
000090 7a b7 ac be fb 42 7c be c4 f5 de bd 93 67 c5 bd
       -0.33733732 -0.24634926 -0.1088672 -0.09638896
0000a0 96 b0 c7 be 3f ed 8a bd 9b 8a b1 be 65 81 23 be
       -0.39001912 -0.06783532 -0.3467606 -0.15967329
0000b0 79 2d 28 bd ba bf 56 be f4 51 a1 be 0e 61 17 be
       -0.04105899 -0.20971575 -0.31507838 -0.14783117
0000c0 8f 4e 06 bf ee 7a 02 be 71 55 5b be 87 8d e2 bd
       -0.5246362 -0.12742206 -0.21419312 -0.110621504
0000d0 7a 3f f3 bd 2b 49 05 be 65 e6 9e bc f9 b8 97 bd
       -0.118773416 -0.13016193 -0.01939697 -0.074083276
0000e0 e0 de a7 bd d7 ac c8 3a 74 4c 18 be e2 40 91 be
       -0.08196807 0.0015310299 -0.14872915 -0.28369814
0000f0 b8 b3 3e be ed 60 cd bd 71 59 46 be b2 2a 85 be
       -0.18623245 -0.10028253 -0.19370057 -0.26009136

encoder.6.weight f4 [32, 64]
000000 27 0b 00 be a7 c4 45 3d ea 4f 69 bc 93 f1 24 3e
       -0.12504254 0.048283245 -0.014240244 0.16107778
000010 15 3c 73 be 56 b2 2b be b0 92 2c 3e b3 69 1f 3e
       -0.23753388 -0.16767249 0.16852832 0.15567665
000020 bb 54 1b 3d 48 14 c3 bd 63 1c c3 bd af 50 35 3e
       0.037922602 -0.09525353 -0.09526899 0.1770656
000030 fa 62 f4 3d 03 d2 d0 3c 9d bd 0b bd 8d 1c 35 be
       0.11932941 0.025490766 -0.034116376 -0.17686673
000040 4d f2 00 3e a8 ee 5d bd 0b de 17 be cc c5 de 3d
       0.1259243 -0.05418268 -0.14830796 0.108775705
000050 14 6f 12 bd 7a 87 6e be a5 47 0d 3e c4 b6 93 3d
       -0.035750464 -0.23293868 0.13796861 0.07212594
000060 46 21 f5 bd 20 2f b1 3d 4f 01 4e 3d 68 82 3d be
       -0.11969237 0.086515665 0.050294217 -0.18506777
000070 56 46 98 3d ff 8e 81 bd 64 98 9c bd 6f 7d 86 bc
       0.074352905 -0.063261025 -0.07646254 -0.016417233
000080 45 be db bd 64 3e 84 be 92 eb 21 3c fa b6 a3 bd
       -0.107296504 -0.2582885 0.0098828245 -0.079938844
000090 33 52 8b 3e 0a ca f1 3d c5 ec 17 3e 60 37 68 3d
       0.2721115 0.11806114 0.14836414 0.056693435
0000a0 cc d0 34 bd b3 87 18 3e a8 f5 0c 3e 1b 57 c0 3d
       -0.044144437 0.14895515 0.13765585 0.09391614
0000b0 59 0d 36 3c 99 98 b1 bd 72 f8 b8 3d db d5 d9 3d
       0.011111581 -0.08671684 0.09031762 0.10636493
0000c0 51 53 69 3e 7b a4 e2 bd 32 c2 32 bd 78 13 60 be
       0.22785689 -0.110665284 -0.04364223 -0.21882427
0000d0 48 66 16 be b5 60 02 3e 50 b4 0c bc fc 0a b4 bc
       -0.14687455 0.12732203 -0.008587912 -0.021977894
0000e0 5a 9f c4 be 74 7b 29 bd 92 a5 5d bd 68 3e 82 bd
       -0.38402826 -0.0413775 -0.05411298 -0.06359559
0000f0 c4 35 3f 3d 31 a0 18 bc 5f 16 56 be 48 d2 0e 3d
       0.046682134 -0.009315536 -0.20906971 0.03486851
000100 c4 e8 f8 bd d2 e9 c5 bc 2e b2 7a 3d bd a7 51 3d
       -0.121537715 -0.024159346 0.06120508 0.05118536
000110 76 2c 0b be 1b ac c8 bd b1 a7 e2 3d be 0f d1 3d
       -0.13591179 -0.097984515 0.11067141 0.10208081
000120 28 a2 69 bd b4 a2 4f bc 8f 47 20 be 6a 30 75 3d
       -0.05703941 -0.012673069 -0.15652297 0.059860624
000130 51 c5 b1 3d b6 d2 db 3d 4a 58 b1 bd b5 e6 4c be
       0.08680213 0.10733549 -0.08659418 -0.20009883
000140 bc 76 2e bc 1d f6 2a bd e2 c9 3d bd fe 33 62 3d
       -0.010648426 -0.04173862 -0.04633511 0.055225365
000150 ad 97 16 3d ba 10 1f bc 64 2c 7f 3d 65 fc a8 3d
       0.036765743 -0.009708578 0.062298194 0.082512654
000160 6d 9f 2a be d9 eb 52 3d f4 fa 2b bd 55 b8 bf bd
       -0.16662379 0.051494453 -0.041987374 -0.093613304
000170 e2 64 be 3d 57 8d 70 bd 81 d6 83 bd 77 4e e9 3d
       0.092965856 -0.058728542 -0.06437398 0.11391919
000180 47 e5 23 bd 9c 6c c3 bd d2 51 0c 3e 4d a7 aa bc
       -0.040013578 -0.095422 0.13703087 -0.020831728
000190 1b 41 43 3e 31 2c c8 bc 98 c9 b0 3d 6a 71 af 3d
       0.19067805 -0.024435135 0.08632201 0.08566554
0001a0 72 8d 00 be c2 ad c2 3d 7a 81 14 3e a2 db 2d 3d
       -0.12553957 0.09505798 0.14502516 0.042445786
0001b0 3f f0 95 bd 0c 77 e9 bd 6b e6 80 3e 5a 90 e5 bc
       -0.07321214 -0.113996595 0.25175795 -0.028022934
0001c0 50 3f 75 3e ea a4 1f bc d4 ad 11 bd ec 57 16 be
       0.23949933 -0.009743908 -0.035566166 -0.14681977
0001d0 d9 76 1f be 95 9e dc 3d 4d ec 3a 3d 60 7a d0 3c
       -0.1557268 0.107724346 0.04563551 0.025448978
0001e0 3d 7a 2b be c2 16 c8 3d 43 d9 81 bd 88 a7 c2 3b
       -0.16745849 0.09769966 -0.063402675 0.0059403814
0001f0 b2 57 ad 3c 8e ad fe bb 7f 1c 9f 3b cb e7 9e bc
       0.02115998 -0.007772154 0.004855692 -0.019397637
000200 1d 7c 39 3c 68 a1 12 bd 6e 96 1e be 64 6d 22 be
       0.011321095 -0.03579846 -0.15487072 -0.15862042
000210 47 8f 0a 3c 38 c5 6a 3d 5f cf 2e 3e c4 92 99 3d
       0.008457012 0.05731699 0.17071293 0.074986964
000220 8f d7 1a 3e ec 24 8e bc 79 9d 51 3c 2e dd 0d be
       0.15121292 -0.01735159 0.012793892 -0.13853905
000230 47 c7 ae bc ea 03 1a be 9b 05 bc 3d 9b a5 0e 3e
       -0.021335257 -0.15040556 0.09180757 0.13930361
000240 f8 db ba bd cf b1 15 bd 4c b5 b4 bc 2a 46 1a be
       -0.09123987 -0.036546525 -0.022059105 -0.15065828
000250 49 10 9e 3d c5 b8 6b 3c 19 01 8e bd de 29 00 bd
       0.0771795 0.014387314 -0.06933803 -0.031289928
000260 b0 51 0e 3e a3 b6 de bd 18 88 22 3e 25 c2 91 b9
       0.13898349 -0.10874679 0.15872228 -0.00027801204
000270 56 1e 28 be e0 66 d1 3d 66 8a c6 3d d0 17 af 3c
       -0.16417822 0.102247 0.09694366 0.02137366
000280 1e 3f 03 be c3 01 8c 3d e4 66 09 bd be 15 3f 3e
       -0.12817046 0.068362735 -0.03354539 0.18660638
000290 c9 4f bd 3d 06 6b a5 bc 0a 8b b6 bd 29 aa 8a bd
       0.092437334 -0.020192634 -0.08913238 -0.06770737
0002a0 2e 23 b1 3c 60 0b 34 bd 6f f3 36 be 3a ac 67 3d
       0.02162322 -0.04395616 -0.178663 0.056560732
0002b0 7c 19 08 3d 04 2f 5b 3d 07 f8 71 3d 78 e1 4b bd
       0.03322743 0.053511634 0.059074428 -0.04977557
0002c0 6b 07 63 3e ef 50 25 3e 52 76 47 3d a4 80 3e bd
       0.22170798 0.16144155 0.048696823 -0.0465094
0002d0 97 05 f3 bc 13 d4 0f 3e 08 c4 15 be 40 ab 8c bd
       -0.029665751 0.14045744 -0.14625561 -0.06868601
0002e0 47 83 b6 bd 87 5a eb bb e5 de 42 3d 3b d5 36 3e
       -0.08911758 -0.0071824226 0.04757585 0.17854778
0002f0 00 31 82 bd 9b 0d 28 bd 82 48 80 3a 62 41 1c 3d
       -0.06357002 -0.0410286 0.0009787234 0.03814829
000300 8a 5b ae bd c4 c9 14 3e 75 02 de 3c b1 af 17 3e
       -0.085135534 0.14530092 0.027100781 0.14813115
000310 92 28 7b bd 3b 90 93 be 6d ec 6d 3d 3f aa e3 3d
       -0.061317988 -0.28820977 0.0580868 0.11116456
000320 5c 8a 69 3d d3 7d 7a bd 68 46 06 be 59 41 ee 3d
       0.057016715 -0.06115515 -0.13112795 0.11633558
000330 2d 6d 6f 3d eb 65 26 3e 80 1c c3 bd 2c 4e 37 be
       0.058453728 0.16249816 -0.0952692 -0.17900914
000340 b8 55 3e 3a a5 a7 99 bc b2 88 ec bd 0e 21 6f 3d
       0.0007260698 -0.018756697 -0.1154951 0.058381133
000350 72 36 34 3e bb e3 0e be 18 ca e3 bc 45 1e 87 3c
       0.17598894 -0.1395406 -0.027806327 0.016493926
000360 c4 ec a4 bd 7a e1 1a bd 45 32 ed bc ed 7d 9b bd
       -0.08052972 -0.037812687 -0.028954634 -0.07592378
000370 4f 66 84 3b b5 09 03 bc 90 fd 60 3c 84 24 f6 3d
       0.0040405164 -0.00799792 0.013732329 0.120186836
000380 84 3d 11 3d 92 c8 88 be c6 3c 24 bc 59 50 a4 3d
       0.035459056 -0.26715523 -0.010024255 0.080231376
000390 0f 5f 50 3e 01 13 f9 3d 76 67 57 3d 6b 6d a6 3c
       0.20348762 0.12161828 0.052588902 0.020315846
0003a0 7e cd 1e be 0a 07 a1 3d b3 d2 13 3c 7d b6 9b 3d
       -0.15508077 0.07862671 0.009022403 0.07603166
0003b0 9d b7 12 3d 64 5f c9 bd 4d ec 8e 3e e0 e8 fc 3d
       0.03581964 -0.098326474 0.27914658 0.12349105
0003c0 11 f1 4b 3e 81 11 16 be 2b 7f ad bd 52 41 3a be
       0.19916178 -0.14655115 -0.08471521 -0.1818898
0003d0 30 f2 88 bb 7a 41 ec 3b 65 b4 28 bc 12 ac a4 3d
       -0.0041792616 0.007209954 -0.010296916 0.08040632
0003e0 2b 82 74 be 92 78 0a 3d cc f6 77 bd 82 b8 c2 bd
       -0.2387778 0.03380639 -0.0605381 -0.09507848
0003f0 c4 f8 fa 3c 96 0f 1d 3e e0 03 1e be d3 7d 92 bc
       0.030636199 0.15337977 -0.15431166 -0.017882263

encoder.6.bias f4 [32]
000000 b6 45 b1 bc 7e 52 e6 3b 00 32 7e 3d e0 b7 f1 3c
       -0.021639686 0.007028877 0.062059402 0.029506624
000010 c2 01 ae 38 3b 41 72 3d 2b 53 18 3d 3e 2d a3 3d
       8.297294e-05 0.05914424 0.03718869 0.07967614
000020 09 47 ad bc 9e ad 09 3d fe 1f bf bd ee bc f3 3d
       -0.021152036 0.03361284 -0.09332274 0.1190127
000030 17 d3 d7 3d 5f 37 fa bd 7a 8b 6e 3d 41 c8 a6 3d
       0.10538309 -0.122175924 0.058238484 0.08143664
000040 6c 68 79 3d 31 55 8c bb 61 e4 7b bc f3 1b 9a 3d
       0.0608906 -0.0042826165 -0.015374274 0.07524862
000050 78 fd 90 3b 43 ae 91 3d e4 e8 22 3d db 6e 0b bd
       0.004424747 0.07113316 0.039772883 -0.034041267
000060 aa 19 89 3d 1a 13 4d bd f1 5d 8c 3d 93 57 4b 3d
       0.06694348 -0.050067045 0.068538554 0.049644064
000070 60 d1 58 bb 3d b9 00 be 4a 64 c9 3d f4 a4 99 bd
       -0.0033083782 -0.12570663 0.09833582 -0.075021654

encoder.9.weight f4 [2, 32]
000000 5c 82 ec bd c3 df ff bd 86 aa 0e bd 09 48 fd bd
       -0.115483016 -0.12493851 -0.034830593 -0.12367255
000010 aa e4 59 bd 94 f7 98 3d 40 9b 9d bd 75 41 25 3e
       -0.053196587 0.07469097 -0.07695627 0.16138251
000020 8d 25 33 3e ee 92 30 bd c9 ee 81 bd 24 b3 44 3e
       0.17494793 -0.043108873 -0.06344373 0.19208962
000030 37 f4 87 3e 1f 99 de bd 62 ca 2f 3e bb f5 cd 3d
       0.2655351 -0.10869049 0.17167047 0.10056635
000040 96 fb 53 3e 46 59 7c be 9a b1 32 3d 8d e2 d2 bc
       0.20701441 -0.2464343 0.043626405 -0.025742793
000050 c5 99 03 bd eb ba 95 3d ab 25 0d 3e 9b 0c f2 bd
       -0.032129068 0.073110424 0.137839 -0.118188106
000060 3d ac 4b 3a 47 43 83 3e bc c7 25 3d 78 d8 45 bd
       0.0007769501 0.25637266 0.040473685 -0.048302144
000070 82 82 7a bc e9 00 46 3e f6 0b 31 3d 8d f3 4a 3e
       -0.015289905 0.19336285 0.043224297 0.1981947
000080 4b f1 10 be 4f 42 29 be ed af 1d 3e 04 0f 1c be
       -0.14154546 -0.16529201 0.15399142 -0.15240103
000090 57 73 4c 3e 4b 7a 0f 3e 35 8f 6d 3e d5 24 5f bd
       0.19965874 0.14011495 0.2319916 -0.054478485
0000a0 0f c4 82 bd f3 df fa bd 92 b2 18 be 40 58 85 bd
       -0.063850515 -0.12249746 -0.14911869 -0.06510973
0000b0 de b3 c0 bd 88 bc 3c be f7 14 81 bd b4 bc fd 3d
       -0.09409307 -0.18431294 -0.06302827 0.12389508
0000c0 e2 b7 9c bd 81 0f 7f 3a 06 d2 be bd c0 9e 13 3e
       -0.0765226 0.0009729788 -0.093174025 0.14416027
0000d0 2e cc fa bd da e0 18 3e f7 d0 3a 3e 2c ef 36 be
       -0.122459754 0.14929524 0.18243776 -0.17864674
0000e0 cd 77 ff 3d c7 73 c3 bd 0e 41 ea 3d 2b 95 35 3e
       0.12474022 -0.09543567 0.114381894 0.17732684
0000f0 55 38 f5 3d 36 5c 88 bd 60 21 1a 3e 45 cc 8d bd
       0.11973635 -0.06658213 0.15051794 -0.06923727

encoder.9.bias f4 [2]
000000 b8 46 4e 3e 2f 51 b3 bd
       0.20144165 -0.08755719

decoder.0.weight f4 [32, 2]
000000 a3 6a 31 3d 08 2c 62 3e c9 4f c0 3e 6c 35 01 3f
       0.043314587 0.22087109 0.3756087 0.5047214
000010 e1 5c 6e 3e 23 bc 23 bf 08 c3 c7 3e 05 a1 12 3f
       0.23277618 -0.6395895 0.39015985 0.57276946
000020 01 22 af be 4c d0 eb 3e d4 97 c3 3e 00 6e 23 bf
       -0.3420563 0.46057355 0.38201773 -0.6383972
000030 75 f8 9a 3e 10 e9 2c 3f e7 d8 d2 be 78 bf af bd
       0.30267683 0.67543125 -0.41181108 -0.08581442
000040 b4 8d ef 3c 0c 1e 5e be a1 18 09 3f 0f 75 62 bd
       0.029242374 -0.2169115 0.53553206 -0.055287417
000050 ff a1 a4 3e 81 88 a6 3e 4f 51 c1 3e 01 45 09 3f
       0.32154843 0.3252602 0.37757346 0.53620917
000060 d2 06 e0 be cf 2b bc bd cd 8a 87 3e 99 10 04 3f
       -0.43755203 -0.09188043 0.26473084 0.51587826
000070 be 76 06 3f be e6 2f bf 15 93 0e be e0 6a 9f be
       0.52524936 -0.6871146 -0.13923295 -0.31136227
000080 95 ca 85 bd d1 a5 72 be 1b 42 02 3f 02 cf b8 3e
       -0.0653278 -0.23696066 0.5088212 0.36095434
000090 a7 27 5d 3e 37 6a 2e 3f 2b 7d 0c 3e fd 62 24 3d
       0.21597157 0.6813082 0.13719623 0.040133465
0000a0 58 f3 22 bf cb 8e 93 be c4 1a 08 3f cb 36 08 3f
       -0.63652563 -0.2881988 0.5316584 0.5320861
0000b0 8b 40 09 3e 9b 79 22 bf a7 21 8e be 4a dd 25 3f
       0.13403527 -0.63466805 -0.2776005 0.64790785
0000c0 05 1c 31 3f c0 94 8c 3d 4b 1f 29 3f 9f 1a a7 3c
       0.6918338 0.06864309 0.66063374 0.020398436
0000d0 16 6a 17 bf f2 cf 6d 3e a4 4e 25 bf 5b 36 9d 3e
       -0.5914625 0.23223856 -0.6457312 0.30705532
0000e0 7c e5 22 bf 8f ef 89 be 5a 4c 9e bd ee a0 7f be
       -0.63631415 -0.2694058 -0.07729407 -0.24963734
0000f0 a1 d7 b7 3e 55 28 24 3e 57 b4 bc bc cd c2 40 be
       0.359067 0.1603101 -0.023035211 -0.1882431

decoder.0.bias f4 [32]
000000 6e dd f6 3e bc 9d 76 be da 72 df 3e 92 4f dc 3a
       0.48215812 -0.24083608 0.43642312 0.0016808382
000010 ff fc ad be 68 7f 42 3e ce cb 90 ba e9 17 4b 3c
       -0.33982083 0.18993914 -0.0011047067 0.012395837
000020 3c 3f fe be cb 08 52 bf f2 53 48 be f1 06 1a be
       -0.4965762 -0.82044667 -0.19563273 -0.1504171
000030 ec 38 85 3e ba 42 24 3d a6 8e df bc 93 b9 e9 3b
       0.2601999 0.040102698 -0.0272897 0.007132718
000040 49 7e ed 3d c0 cc c2 be ed ee 3b 3f dd 3f 16 bf
       0.115963526 -0.38046837 0.73411447 -0.586912
000050 23 d8 a8 bc 76 39 54 bd 34 07 3e bf 04 b7 26 bf
       -0.020610875 -0.05181261 -0.7422974 -0.6512301
000060 e8 2a 89 be ea 11 ab 3e d8 88 5c 3e c3 cf 52 3d
       -0.26790547 0.33412105 0.21536577 0.05146767
000070 b6 bf 43 3d 0f f9 c0 3e a9 e4 b3 be cc 88 9d bc
       0.04779025 0.37690017 -0.3513539 -0.019230269

decoder.2.weight f4 [64, 32]
000000 3c d2 4c 3b 63 a7 c7 3d 90 ee 4c be 0f e7 8f 3d
       0.003125324 0.09748723 -0.2001288 0.07026493
000010 52 8c ce 3d 13 13 28 3e 85 7a ea bb c6 64 6b bd
       0.10085358 0.16413526 -0.0071557187 -0.057469152
000020 53 9a 7b be 09 cc 7c 3d fe a2 a9 bd b8 9b 8c bd
       -0.24570589 0.06171802 -0.082830414 -0.068656385
000030 14 83 4d 3d ff c4 96 3d 01 00 b6 bb 9c cb 9d 3d
       0.050173834 0.07361793 -0.0055541997 0.07704851
000040 1b 26 b1 bd 83 c3 e1 3d 21 13 30 3e b8 07 6b be
       -0.08649846 0.11023619 0.17194797 -0.22952163
000050 9a 58 ea 3d 12 6e b2 3a 3f fa 0b be ce 12 bc 3d
       0.11442681 0.0013613126 -0.1366968 0.09183274
000060 1e 6c ac bd 93 6a 6a 3d 12 1a 46 3e ec 78 8e bd
       -0.08419059 0.057230543 0.19345883 -0.06956658
000070 85 7f 2d 3d 2d 64 11 be b0 07 dc bd a8 c4 26 3d
       0.04235794 -0.1419837 -0.10743654 0.04071489
000080 9c 6c 1c bd 7a f0 4a 3c d7 51 16 3c 53 1b ae bd
       -0.038189515 0.012386436 0.009174786 -0.085013054
000090 95 ac 17 be b1 d1 13 3e b3 4f 2f 3e 26 29 d3 3d
       -0.14811929 0.1443546 0.17120247 0.10310583
0000a0 7c 26 40 bd 59 85 4d 3e e2 ac 57 3d b0 4e c9 bd
       -0.0469117 0.200704 0.05265511 -0.098294616
0000b0 a0 05 f7 bd da 71 db bd c8 6d 02 be e8 55 8c bd
       -0.1206162 -0.10715075 -0.1273719 -0.06852323
0000c0 11 f4 b8 bd c5 e6 1c 3e 0b cf d7 bd 8e 1a 94 3e
       -0.09030927 0.15322407 -0.10537537 0.2892651
0000d0 80 fd fa 3d 94 0a 58 3d 90 7f 6c bd 0f 94 a2 3d
       0.122553825 0.052744463 -0.05773884 0.07938396
0000e0 1d 56 e6 3c 6a 90 b3 3d 4a ab 1b 3e f0 1d 7f bb
       0.028117234 0.08767779 0.1520206 -0.0038927756
0000f0 4a 92 fe 3d 07 46 63 bd d0 2f d0 bc 4d bf 4c 3d
       0.12430246 -0.055486705 -0.025413424 0.049987126
000100 80 87 e1 bd e8 f8 0f 3e c8 15 29 3d 28 8d b2 bd
       -0.11012173 0.14059794 0.041280538 -0.0871833
000110 7e 86 99 39 0a 61 61 be ca 4b c0 3d 00 7f 9b bd
       0.0002928264 -0.22009674 0.093894556 -0.07592583
000120 94 b1 90 3d e3 af 7e 3e a7 ce 63 3d e3 65 66 3d
       0.0706512 0.24871783 0.055617 0.05624951
000130 b9 4d b8 be 39 60 9b bd 3c 41 15 be 10 0a 69 3c
       -0.35996798 -0.075867124 -0.14575666 0.0142235905
000140 50 63 1a 3c 6c 5a 04 3d 02 d4 04 be 9a ec 12 3f
       0.009423092 0.032312796 -0.129715 0.57392275
000150 36 05 7b bd c0 a0 a8 3d 85 06 26 be 20 9a 27 3e
       -0.061284266 0.08233786 -0.16213425 0.16367388
000160 5e d7 e5 bd 36 0e 0c be 2c 67 d3 3d ad 0a 2a 3e
       -0.11222719 -0.13677296 0.10322413 0.16605635
000170 2a 18 b2 3d 40 9f 57 3d f4 a0 5d 3e 62 74 a7 bd
       0.08696015 0.052642107 0.2164343 -0.08176495
000180 c5 fc 02 3e 64 41 d8 3d 62 e6 24 3e e9 ec e8 3d
       0.12791736 0.10559347 0.16103509 0.11373312
000190 59 22 38 be a0 78 dd bc a9 57 e8 ba 55 7b 7e bd
       -0.17981853 -0.027035058 -0.001772632 -0.062129337
0001a0 45 27 a5 3d 0d 64 13 bd 79 c6 f2 bc c2 4a 30 3b
       0.08064131 -0.035984088 -0.029635655 0.0026900028
0001b0 1f a7 8a 3d 46 7d ac bd e4 c0 21 3e 0b 13 06 3e
       0.06770157 -0.084223315 0.15796238 0.13093202
0001c0 67 f9 f7 3d 52 7a ce 3d 07 63 a8 3c e3 3f 64 be
       0.121081166 0.100819245 0.020555032 -0.22289996
0001d0 cd 1a 28 bd 94 5b fc bd fc e6 1a 3e c6 15 b2 bd
       -0.041041184 -0.12322155 0.15127176 -0.08695559
0001e0 22 37 30 bd 96 5b 43 3e 35 24 07 be 5d f6 0e 3e
       -0.04302133 0.19077906 -0.13197406 0.13961168
0001f0 b9 17 a7 3d a2 71 00 3d b7 0f 6a bb f4 57 96 bc
       0.081588216 0.03135837 -0.0035714933 -0.018352486
000200 1c ab 8b 3d 21 81 0c 3e 1d db 37 3e 34 9a 3a be
       0.06819746 0.13721134 0.17954679 -0.18222886
000210 7d 65 25 3d fc 34 20 3e 3d d6 76 bd bd 45 05 3e
       0.04037999 0.15645212 -0.060262907 0.13014884
000220 23 ce 43 be 4a 68 4e be 2a 70 90 3d e8 09 88 3b
       -0.19121604 -0.2015697 0.070526436 0.0041515715
000230 41 d9 df 3d 81 85 d7 bd c3 1c c8 bd 5a 9e df bd
       0.1093011 -0.10523511 -0.09771111 -0.10918875
000240 c3 81 e7 bd 03 45 b9 bc 89 c3 cc bc a1 df c9 3d
       -0.11304047 -0.022615915 -0.024995582 0.09857107
000250 62 84 cc 3d 65 bf cc 3d 75 15 22 be c9 4a 13 3e
       0.099861875 0.09997443 -0.15828498 0.14383997
000260 9f 33 fc 3d 52 54 e4 3c 6d 42 db bd 93 f1 45 3d
       0.123145334 0.027872238 -0.10706029 0.048326086
000270 0e a3 4a bc b2 ec a2 3c 77 e4 f9 3c f8 0b 84 3d
       -0.012367977 0.019888256 0.030504448 0.06447595
000280 4a 39 25 3c bb 89 d3 3d cc f1 12 3e 86 7c 01 bd
       0.01008446 0.103290044 0.1435005 -0.031612895
000290 f7 ad d8 3d d5 5c eb 3d bc 34 15 be a1 3e 1f 3e
       0.10580056 0.11492316 -0.14570898 0.15551235
0002a0 4e 8c 13 be da e7 d5 bd 1a 4a 77 bd ff 60 e9 bc
       -0.1440899 -0.10444613 -0.060373403 -0.028488634
0002b0 f8 4e 09 3e 46 bc 74 be 53 82 3c 3e d8 ba cd 3d
       0.1340903 -0.23899946 0.1840909 0.10045403
0002c0 42 f2 ba bd e6 79 2c be 34 65 0c 3d 83 a3 db bd
       -0.09128238 -0.16843376 0.034276202 -0.10724547
0002d0 23 f7 6a 3d 52 e1 0c be bd 94 ff bd c6 c3 c7 bd
       0.057364594 -0.13757828 -0.124795415 -0.09754138
0002e0 ba ff 2a bd 78 0f 0a bd ea 2c 31 3e 33 c7 7b 3e
       -0.041747786 -0.03370616 0.1730229 0.24587707
0002f0 22 9d b4 bd 0d c5 1b 3e fe 8d 09 3e 1c 12 ec 3d
       -0.08819033 0.15211888 0.13433072 0.115268916
000300 08 34 b0 3d a0 6b 95 3c 7d fd b6 3d ff 24 f3 bd
       0.08603674 0.018239796 0.08935068 -0.11872291
000310 c3 1b 02 3e e0 c8 0b 3e 12 47 eb 3d dc c8 d1 bd
       0.12705903 0.13650846 0.11488165 -0.10243389
000320 6c 77 10 3d f0 66 8b 3d eb c1 e8 3d ea 9a e8 3d
       0.03527014 0.06806743 0.11365112 0.113576725
000330 5d 62 50 3e 89 39 20 be 6a 20 0c 3c af cc 2d 3d
       0.20350023 -0.15646948 0.00855265 0.04243153
000340 48 85 fd 3d d1 c2 29 bd 4d 85 94 3d fa 23 4f bd
       0.12378937 -0.041445557 0.072519876 -0.05057142
000350 1a 87 c9 3d 1e 38 56 3c 34 ec 12 3d 3f 70 52 bd
       0.09840222 0.013074903 0.035869792 -0.051376577
000360 fc 71 bf bd 72 46 ec bd 85 82 ca bd dd cc 53 bd
       -0.09347913 -0.11536874 -0.09888176 -0.051709045
000370 b7 5d cf 3c 7a 22 d8 3c d1 0d 45 bb 03 18 11 be
       0.025313241 0.026383627 -0.003006805 -0.14169316
000380 86 a5 74 bd 40 7a b5 bd 42 d2 f3 bb 9d 26 21 be
       -0.059728168 -0.08861208 -0.007440836 -0.15737386
000390 77 11 fe 3d 13 69 c2 bd 75 e6 8f 3b 55 0f c1 bd
       0.12405675 -0.094926976 0.0043914863 -0.094267525
0003a0 c5 67 47 3e c2 c9 3b bd ea fa 71 bb b4 33 14 3e
       0.19473179 -0.045846708 -0.0036923238 0.14472848
0003b0 f6 c4 30 3e 0b 98 04 be bd d3 2f 3e 5d 48 f5 bd
       0.17262635 -0.12948625 0.17170615 -0.11976693
0003c0 3f 14 b7 3a bb 84 ee 3d 4d f3 29 3e e2 c5 a1 3e
       0.0013967826 0.1164641 0.16596718 0.31596285
0003d0 7c 4f 8b bd fc e7 9c 3d d8 c3 24 3e 15 a4 4b 3d
       -0.0680227 0.07661435 0.16090333 0.049717028
0003e0 cb cd db bc 41 6d ea 3c 09 52 0b bc 4f 7f 96 bc
       -0.026831528 0.02861655 -0.008503445 -0.018371252
0003f0 a1 ed b7 3d 5c 22 4c 3c d8 2f b7 3c c8 b7 09 3d
       0.08980871 0.012459364 0.02236168 0.033622533

decoder.2.bias f4 [64]
000000 57 a6 cc 3d aa bf a7 bd cc f1 92 be 5f 77 45 3e
       0.09992664 -0.08190854 -0.287001 0.19283818
000010 a0 f4 cd 3d f2 37 57 3e 44 7c 9a 3d 00 c8 44 be
       0.10056424 0.21017435 0.07543233 -0.19216919
000020 9a 63 37 3e 93 f6 66 3e 71 16 66 3d f1 d4 0b 3e
       0.17909089 0.22554998 0.056173746 0.1365545
000030 7c 7f 12 3e 0d aa 51 3d 23 9b dc bd 2c 5e d4 3d
       0.14306444 0.051187564 -0.107717775 0.10369524
000040 46 9a 8b 3d f7 7b 54 be 42 fb 13 3e 44 54 15 3e
       0.06816535 -0.20750414 0.14451316 0.14582926
000050 e3 d4 58 3e 7b c7 4e 3e e0 31 11 be 17 65 42 3d
       0.2117496 0.20193283 -0.14179182 0.047459688
000060 66 57 b8 3d 59 7a 01 bd 55 48 d1 bc fb 32 76 bd
       0.09001045 -0.03161082 -0.025547186 -0.060107213
000070 66 f3 71 bd d5 98 74 3e a7 68 7e 3e f5 1f 50 3e
       -0.059070013 0.23886426 0.24844609 0.2032469
000080 38 b6 37 3d 9f fe 75 3d c3 89 90 3d 5b 87 0a 3b
       0.04485151 0.06005728 0.07057526 0.0021137807
000090 49 4f bb 3d 13 8b a0 be 58 9d b1 bd 6b 7b 0b be
       0.09145982 -0.31356105 -0.08672589 -0.13621299
0000a0 b0 ea 62 3e 73 cd ca 3d 91 26 07 bd 23 ff cd 3d
       0.22159839 0.099024676 -0.032995764 0.10058429
0000b0 b5 90 3a 3e 79 d0 88 3e 1f 03 1d be b6 7e a8 3d
       0.18219264 0.26721552 -0.15333222 0.08227293
0000c0 74 8d a5 bd 2a fd 0d 3c a5 f0 d2 3d e4 bf 9d 3e
       -0.08083621 0.008666316 0.102998056 0.30810463
0000d0 be 45 1e bd b0 2d 29 be 6e b4 90 3d 1c 49 86 3c
       -0.03864073 -0.16521335 0.07065664 0.016392283
0000e0 f7 db 47 3e ac 92 a9 3d 0d d3 b6 3d 66 74 b5 3c
       0.19517504 0.082799286 0.089269735 0.02215023
0000f0 91 29 5d 3e 2c 02 c3 3d ff bc d2 3d 9b 58 37 bd
       0.21597888 0.095218986 0.102899544 -0.044762235

decoder.4.weight f4 [128, 64]
000000 f2 00 41 bd 18 b4 cd 3c 7d 97 92 3d fe e7 80 3c
       -0.047120042 0.02511029 0.071578 0.015735622
000010 74 c5 5e bd d4 be e2 3d 6b 64 91 3d 1a 6d da bd
       -0.054387525 0.11071554 0.07099231 -0.10665341
000020 7a 6c c5 bc 65 15 36 bd 2f e5 a7 3a 6e f5 6b bc
       -0.024099577 -0.044453997 0.0012809391 -0.014401777
000030 e3 0d f8 3c 69 f0 b9 3d 00 ae e7 3c d0 fb 32 3d
       0.03028006 0.09079058 0.028281212 0.04369718
000040 5f 18 ad 3c d2 53 b6 3d 40 d7 2f 3d 11 52 e3 bc
       0.021129785 0.08902706 0.042929888 -0.027749093
000050 ef 96 bd 3d f8 33 02 be 59 f2 2b 3d 11 75 d3 bd
       0.09257304 -0.12715137 0.041979168 -0.10325063
000060 ed ce bc 3c e9 c0 a4 3d 0f 4d 31 bb 00 67 47 3d
       0.023047889 0.08044607 -0.0027053987 0.048682213
000070 6b 41 ae 3c 2d e5 8d bc 7b 51 27 3e cf 67 97 bd
       0.021271428 -0.017321194 0.16339676 -0.07392847
000080 b2 3d 77 3d 2f 12 12 3e 9b 26 78 3d f4 38 5f be
       0.06036157 0.14264749 0.060583692 -0.2179907
000090 d7 f2 5e 3d 8d 4b 8e 3d 10 55 d5 3d 40 79 f6 3b
       0.05443081 0.06948004 0.10416615 0.0075217783
0000a0 c3 96 37 3e 47 34 be 3b 96 8a 6d bd b0 2b fe bd
       0.17928605 0.005804572 -0.057993494 -0.124106765
0000b0 1b ed 84 bd fc 1f 86 bc 41 8a d6 3d 5c 5a 0f 3a
       -0.06490537 -0.016372673 0.104755886 0.00054684817
0000c0 69 66 2a bc 0f 76 c1 bd 4d 33 0b bd fa 27 3a 3e
       -0.010400393 -0.09446346 -0.03398447 0.18179312
0000d0 b6 cf 54 3d b5 86 a5 bd 82 fb 1a be 43 53 c2 3c
       0.0519559 -0.08082334 -0.15135005 0.023721343
0000e0 ab 45 90 3e ff 36 76 be aa 9f c3 bd 32 3c 9c 3d
       0.28178152 -0.24044417 -0.09551938 0.07628669
0000f0 bc 68 26 be 07 86 1a be bc 3d e0 bc 33 ac e1 bc
       -0.1625089 -0.1509019 -0.027373187 -0.027547931
000100 e6 2e 0b 3d 45 4d d3 bd 65 ad 2b be 04 6f b4 3d
       0.033980273 -0.10317472 -0.16765364 0.08810237
000110 2d 92 cf 3c 12 db 85 bd e5 c8 ac bc b1 ea 2b 3d
       0.025338257 -0.06535925 -0.021091888 0.041971866
000120 6a 82 6b 3d 72 da 35 bd 47 b5 05 bc ec 6f cd bd
       0.05749742 -0.04439778 -0.008160896 -0.10031113
000130 a2 14 4b bc 24 d8 d5 bd dc 65 ab bd 88 da 4c 3d
       -0.012395056 -0.10441616 -0.083690375 0.050013095
000140 50 71 6d 3d 97 70 11 bd 80 dc 95 3a 52 33 fa bc
       0.05796939 -0.035507765 0.0011433512 -0.03054205
000150 f5 c9 9e 3e be 40 ee 3d e0 9b 39 3d 3d 29 11 3e
       0.31013456 0.11633442 0.04531467 0.14175887
000160 08 32 0e bd 75 2b 4e be 7a da 1e bd fb 35 12 bd
       -0.034715682 -0.20133765 -0.038782574 -0.03569601
000170 54 ad 94 bc 6d 2a a6 bd b9 16 e3 bc dc 71 40 bb
       -0.018149056 -0.08113561 -0.027720796 -0.002936474
000180 19 1d f2 3d 2f 89 c7 be 04 90 d6 3d 29 2a ee 3d
       0.11821956 -0.3897185 0.104766876 0.11629135
000190 a5 6f d1 3d 18 93 48 3d 81 11 0c 3e c0 bd 32 be
       0.10226373 0.048968405 0.13678552 -0.17455196
0001a0 35 8d aa 3c 04 98 46 bd 64 b7 a7 bd 90 bb a6 3c
       0.020819286 -0.048484817 -0.08189276 0.020353109
0001b0 c1 60 5a 3c 99 d5 e8 3d b7 a5 44 be 97 19 92 3d
       0.013328732 0.113688655 -0.1920384 0.07133787
0001c0 60 5c f6 bd a5 fa 3d be eb d1 e3 bb 5a c1 11 be
       -0.12029338 -0.18552645 -0.0069525144 -0.14233914
0001d0 a1 e0 8e 3d ab 6a 0d be 78 3b 7f 3c d1 81 12 bd
       0.06976438 -0.13810222 0.015578143 -0.035768334
0001e0 be 2d 51 3e bf e2 db 3c 7f 6e 49 3c 0c 31 f4 bd
       0.20427606 0.02684152 0.012294411 -0.119234174
0001f0 56 7b 4f 3d df 44 df 3d 95 6f 15 3e 69 0c 29 bd
       0.05065473 0.10901808 0.14593346 -0.0412716
000200 00 62 47 3d 58 a9 ad 3c 90 18 57 3d ac 40 0b bd
       0.048677444 0.021198913 0.05251366 -0.033997223
000210 54 32 18 3d 8a 25 f4 bd 90 ed 02 bd e0 ad 66 3c
       0.03715737 -0.119212225 -0.03196484 0.014079541
000220 50 6f 9c bd 54 3a 95 3d 70 a2 06 3d e8 62 e7 bd
       -0.07638419 0.07286516 0.032869756 -0.11298162
000230 e0 a0 9a 3d c4 48 57 3d 00 54 a2 bb 48 8f d3 bd
       0.07550216 0.05255963 -0.0049538612 -0.10330063
000240 dc 06 c2 3d 40 f9 3a 3d d0 04 f4 bd 70 19 2f bd
       0.094739646 0.04564786 -0.119149804 -0.04274887
000250 4e cf dd 3d f0 66 e2 bd 54 6c be bd 88 c9 0d 3d
       0.10830556 -0.1105479 -0.09298006 0.034616023
000260 a0 d5 5a bd d0 f6 5b bc 6a 92 e9 3d 6e 31 9c bd
       -0.053426385 -0.013425544 0.114048794 -0.076266155
000270 a8 17 bc bc 80 d7 1f bd 0a 69 b6 bd 50 54 9a bd
       -0.022960499 -0.039023876 -0.08906753 -0.075356126
000280 d4 c4 26 3d 34 44 a3 bd c4 6e 90 bd 40 aa 86 3b
       0.040715054 -0.07971993 -0.07052377 0.004109651
000290 40 b7 02 3d 58 bb 46 bd 38 2b 71 3d 98 90 7a bd
       0.031913042 -0.04851851 0.058879107 -0.06117305
0002a0 1c c1 6c 3d 40 84 84 3c 50 ba d7 3c 80 47 ef bc
       0.05780135 0.016176343 0.026333958 -0.029208899
0002b0 60 d1 98 bb 70 81 7f bc 78 cb 92 3c 90 3d 78 bc
       -0.0046636313 -0.015594825 0.017919287 -0.015151396
0002c0 4c a9 59 bd 3c 66 06 bd 20 a9 9d bb 20 ca ed 3d
       -0.05313997 -0.032812342 -0.004811421 0.11610818
0002d0 8c 1b 86 bd 28 8e 93 3d 10 15 59 bc b2 0a eb 3d
       -0.06548223 0.072048485 -0.013249651 0.11476649
0002e0 c8 dc c6 bd d4 fc e5 bd 38 30 04 3d b6 ae cc 3d
       -0.097100794 -0.11229864 0.032272547 0.09994261
0002f0 ae 0c a6 3d 20 ed d3 bb b6 21 c8 bd 60 95 17 bd
       0.08107887 -0.0064674765 -0.09772055 -0.03700769
000300 92 f4 ea 3d a8 a0 94 bd 06 4a f5 3d 10 33 44 3d
       0.11472429 -0.07257205 0.119770095 0.04790026
000310 3c 0c b0 bd c4 5b 1b bd 98 6f f8 3c 50 56 90 bd
       -0.085960835 -0.03792931 0.03032665 -0.07047713
000320 dc 8c 9e bd 30 89 36 3c 4a cc d0 3d 60 0a 0f 3c
       -0.077417105 0.0111411065 0.10195215 0.008730501
000330 6e 20 99 3d 2c 2d 3b bd 38 e2 93 bd 02 ab a8 3d
       0.074768886 -0.045697376 -0.07220882 0.08235742
000340 f8 8b 47 bd 80 1f 0c 3c cc af c8 bd 7c 2a b0 bd
       -0.04871747 0.008552432 -0.097991556 -0.08601853
000350 38 81 a7 3c 84 1e ab bd 74 a7 fd 3d e4 20 7b bd
       0.020447358 -0.0835543 0.12385455 -0.061310664
000360 88 f1 49 bd d0 5e f8 bd 94 f0 95 bd e0 f5 87 3d
       -0.049302608 -0.12127459 -0.07321277 0.06638694
000370 38 8a 68 3d 20 50 88 bd d0 3f 90 3c e6 66 8c bd
       0.05677244 -0.06655908 0.017608553 -0.06855564
000380 8c 4d d1 bd 80 30 d4 bb b0 1a 45 bc 1a 4c cc bd
       -0.10219869 -0.006475508 -0.012030289 -0.09975453
000390 00 fe dd 3a 2e 4c ef 3d e0 ec 82 3c 56 d6 fe 3d
       0.001693666 0.11684452 0.015982091 0.12443225
0003a0 8c 0a a8 3d 0a 05 c4 bd 80 a7 8e bb a8 b6 b8 bc
       0.08205137 -0.095712736 -0.0043534636 -0.022548035
0003b0 50 85 77 3c f0 58 ca 3c 9a a4 db bd a0 76 0c 3d
       0.015107468 0.024700612 -0.10724755 0.034292817
0003c0 1e 57 b1 3d d2 96 aa 3d 88 cf b2 bc b6 2b e9 bd
       0.086591944 0.08329548 -0.021827474 -0.1138529
0003d0 40 c0 7f bd 48 d3 82 bd a0 bc 2f 3c e0 20 b2 3b
       -0.062439203 -0.06387955 0.010726124 0.005436048
0003e0 38 2c fd 3c 10 ee fb bc a2 6d da 3d e0 38 f3 3d
       0.030904874 -0.030753165 0.10665442 0.118760824
0003f0 ce 44 93 bd 2e f4 c6 bd cc c6 bc 3d 80 be ae 3c
       -0.07190858 -0.09714542 0.09217605 0.021331072
