Save_Models/model-lat12.pth (torch, 193782 bytes, 16 tensors)

encoder.0.weight f4 [128, 99]
-0.09953341 -0.09734359 -0.079888135 -0.09282594 -0.02174882 -0.112980634 -0.09354126 -0.0018058791
-0.052347403 -0.112135075 0.062878005 -0.052283213 0.042426758 -0.061474066 -0.05095292 0.06607765
-0.08577291 -0.06679398 -0.030632373 0.040049013 -0.120771155 0.037638694 -0.109851085 0.028917776
-0.017445713 -0.07303143 -0.023153422 0.05428949 -0.025865687 -0.053815626 0.03793888 0.022490796
-0.06585643 0.036546227 -0.045931455 -0.0014636137 0.027999243 -0.06887593 -0.005280243 0.01532639
-0.027616123 0.012544921 0.030665794 0.02057214 -0.05173768 0.038401734 0.027176788 -0.07951107
-0.08893045 -0.08156512 0.075814776 -0.056854237 0.08794974 -0.09680668 0.032655165 0.06859454
-0.08009645 0.06731158 0.026325863 0.07082891 -0.066789396 -0.070831984 0.0025044682 -0.08909288
0.09717787 0.08342166 0.08029278 -0.02789913 -0.058417827 -0.05647053 -0.026961438 0.033463776
-0.022969816 0.07768747 -0.013792456 -0.0037238465 0.10392577 0.06652716 -0.05433909 -0.018466678
-0.0908372 -0.08519043 0.003332044 0.09051415 -0.045624312 0.079559624 -0.022868192 0.07870337
0.009091352 0.0064096353 -0.09268808 -0.004192555 -0.11651817 0.054221135 0.07109159 -0.119106285
0.018825563 0.03531351 -0.061198406 0.024777694 -0.04486114 0.027179878 -0.1069743 -0.11121943
-0.032975666 -0.08383291 0.049827702 0.07828628 -0.04580288 -0.10959369 -0.10203203 0.08890517
0.034063198 0.07353925 0.09542378 0.06582342 0.09973352 -0.017440027 0.06968362 0.028825784
-0.078004695 0.071283914 0.100752905 0.04332517 0.033984378 0.09652163 0.06263146 0.020063119
0.06477047 0.04470117 0.078328356 0.1056107 -0.07492025 0.0029841135 0.033402037 0.09964755
0.107564345 0.1038287 0.08075679 -0.069371484 0.050190814 0.033137098 0.022733876 -0.03322259
-0.0136295995 0.08351412 0.09179498 0.10758063 0.11455534 0.080905 -0.0066940617 0.07471414
-0.08632412 -0.038090307 0.1027187 0.09189402 0.11036363 -0.027567148 -0.0013519237 -0.07162107
-0.054792862 -0.08880448 -0.07124241 -0.05945642 -0.042724933 0.07644621 -0.06269673 -0.0032502003
-0.08780203 0.058036562 -0.037591293 -0.05254003 0.015979657 -0.0034838882 0.005928478 0.06311039
0.059160672 -0.004377916 -0.013498192 -0.03190589 0.037007973 -0.08418483 0.07926836 0.06549921
-0.084164545 0.053614724 0.08989162 -0.03247871 0.048925217 -0.06343614 0.045796808 -0.02897297
0.028306272 0.023428256 -0.025513565 -0.05576302 0.04393981 -0.04895041 0.105660506 0.06551324
-0.03621663 -0.016188879 0.049078606 -0.09949195 -0.058700737 0.036072783 -0.046010967 0.075936094
-0.034817968 -0.093318604 -0.042009234 -0.045832667 0.035535727 0.054518614 -0.040317874 0.06200584
-0.09841108 0.010401714 0.024124967 -0.009417408 0.017882494 -0.03643782 0.086844034 0.017402055
-0.0006241927 -0.05660891 0.03227768 -0.008034808 -0.03245864 -0.0421795 -0.0022634515 -0.05826907
-0.015032595 0.026762608 0.0853073 0.06609408 -0.029565599 -0.031707942 0.024598489 0.0903898
0.06978138 0.03457572 0.07851108 -0.07598399 0.09002884 -0.046740647 0.080810905 0.0936332
0.10351636 -0.021536311 0.024008762 0.07592178 0.020147858 0.054598596 -0.01586011 -0.006609175
00000000: 2cd8 cbbd 135c c7bd 649c a3bd 871b bebd
00000010: 952a b2bc 6462 e7bd 8f92 bfbd 3fb3 ecba
00000020: 3b6a 56bd 13a7 e5bd 2fc6 803d ec26 56bd
00000030: aec7 2d3d 3bcc 7bbd 02b4 50bd b853 873d
00000040: b5a9 afbd 48cb 88bd bef0 fabc 6f0a 243d
00000050: de56 f7bd 082b 1a3d 9bf9 e0bd f9e4 ec3c
00000060: 50ea 8ebc 8191 95bd 3fac bdbc a85e 5e3d
00000070: 47e4 d3bc c66d 5cbd cd65 1b3d 9e3e b83c
00000080: bcdf 86bd 7fb1 153d 9f22 3cbd bad6 bfba
00000090: ab5e e53c d30e 8dbd e305 adbb 8a1b 7b3c
000000a0: 353b e2bc 3689 4d3c d536 fb3c e886 a83c
000000b0: e4ea 53bd 234b 1d3d dba1 de3c b3d6 a2bd
000000c0: 2b21 b6bd 9d0b a7bd c744 9b3d fddf 68bd
000000d0: fe1e b43d 9542 c6bd 6cc1 053d 4b7b 8c3d
000000e0: 9c09 a4bd a7da 893d 56a9 d73c bf0e 913d
000000f0: e1c8 88bd 5c10 91bd 0122 243b 5476 b6bd
00000100: 3105 c73d fad8 aa3d 8b70 a43d b78c e4bc
00000110: 8847 6fbd a44d 67bd 3cde dcbc 5011 093d
00000120: 322b bcbc 9c1a 9f3d c1f9 61bc c70b 74bb
00000130: 09d7 d43d 643f 883d aa92 5ebd 6e47 97bc
00000140: db08 babd 5278 aebd 6c5e 5a3b 7c5f b93d
00000150: 8fe0 3abd 28f0 a23d 1356 bbbc 3c2f a13d
00000160: e5f3 143c eb07 d23b 40d3 bdbd b361 89bb
00000170: 14a1 eebd fb16 5e3d 7898 913d ffed f3bd
00000180: 1138 9a3c e6a4 103d 2eab 7abd 97fa ca3c
00000190: 51c0 37bd 56a8 de3c 5815 dbbd 03c7 e3bd
000001a0: 7e11 07bd 97b0 abbd 2218 4c3d 8f54 a03d
000001b0: cd9b 3bbd a872 e0bd 2bf6 d0bd ea13 b63d
000001c0: da85 0b3d bf9b 963d 8b6d c33d 6ece 863d
000001d0: 1641 cc3d 63de 8ebc 49b6 8e3d 0d24 ec3c
000001e0: edc0 9fbd 4dfd 913d 8a57 ce3d bc75 313d
000001f0: 3433 0b3d 22ad c53d ec44 803d 695b a43c
00000200: 61a6 843d 9318 373d 9e6a a03d 6c4a d83d
00000210: ca6f 99bd 1e91 433b 93d0 083d 0414 cc3d
00000220: b24a dc3d 24a4 d43d d163 a53d a312 8ebd
00000230: e294 4d3d c4ba 073d 653c ba3c 6914 08bd
00000240: af4e 5fbc 7309 ab3d 02ff bb3d 3c53 dc3d
00000250: fd9b ea3d 85b1 a53d dc59 dbbb ba03 993d
00000260: b3ca b0bd 9504 1cbd 2f5e d23d ef32 bc3d
00000270: 5406 e23d 80d4 e1bc 0833 b1ba 11ae 92bd
00000280: 7b6e 60bd 20df b5bd 8ae7 91bd 9388 73bd
00000290: 5700 2fbd d58f 9c3d 2567 80bd 5001 55bb
000002a0: 8dd1 b3bd bfb7 6d3d 54f9 19bd 3734 57bd
000002b0: c5e7 823c f251 64bb ae43 c23b 0540 813d
000002c0: 7652 723d 9f74 8fbb 8527 5dbc c0af 02bd
000002d0: ac95 173d 1969 acbd 7357 a23d 7324 863d
000002e0: 765e acbd 1d9b 5b3d 1919 b83d 6508 05bd
000002f0: cf65 483d cfea 81bd 6f95 3b3d b958 edbc
00000300: 8ee2 e73c 9dec bf3c d301 d1bc c467 64bd
00000310: 3bfa 333d 3a80 48bd 8964 d83d ce2b 863d
00000320: e457 14bd 8a9e 84bc a606 493d 6fc2 cbbd
00000330: 2f70 70bd 0ec1 133d ff75 3cbd 6284 9b3d
00000340: 499d 0ebd d31d bfbd e011 2cbd 09bb 3bbd
00000350: e98d 113d e94e 5f3d 5b24 25bd d6f9 7d3d
00000360: c08b c9bd f36b 2a3c b9a1 c53c 794b 1abc
00000370: 4f7e 923c d33f 15bd 49db b13d c18e 8e3c
00000380: dda0 23ba bfde 67bd 9a35 043d 6da4 03bc
00000390: 5af3 04bd 69c4 2cbd 6a56 14bb 8cab 6ebd
000003a0: 464b 76bc 423d db3c 98b5 ae3d 555c 873d
000003b0: 8e33 f2bc 30e0 01bd c582 c93c 4a1e b93d
000003c0: 8ae9 8e3d 459f 0d3d 6bca a03d 7f9d 9bbd
000003d0: 0a61 b83d 1f73 3fbd 3080 a53d c3c2 bf3d
000003e0: 6300 d43d eb6c b0bc 06ae c43c e17c 9b3d
000003f0: 1f0d a53c c7a2 5f3d 10ed 81bc c791 d8bb

encoder.0.bias f4 [128]
-0.042316426 -0.2568535 -0.120776564 -0.31821528 -0.18055883 -0.23082563 -0.20194447 -0.12875964
-0.076783486 -0.09356651 -0.14706658 -0.12623428 -0.108358756 -0.14300601 -0.07158881 -0.19335482
-0.17511702 -0.22510995 -0.14193542 -0.17751376 -0.20090778 0.008380507 -0.10542358 -0.20809296
-0.066082925 -0.045247205 -0.1440612 -0.1777216 -0.06722388 -0.07092724 -0.12688626 0.054659236
-0.2686383 -0.00090693234 -0.10782861 -0.10219471 0.0045826584 0.014632091 -0.07387896 -0.18720852
-0.061926533 -0.10697224 -0.22183569 -0.056856226 -0.014637605 -0.13364659 -0.11558054 -0.14320385
-0.1664774 -0.21778461 -0.07986173 -0.13419975 -0.044645086 -0.014796937 -0.388035 -0.15397814
-0.1671649 -0.04063923 -0.12471237 0.0075426134 -0.092857346 -0.07234289 -0.16235344 -0.07144897
-0.15431525 -0.13902287 -0.17424932 -0.1680628 -0.014070926 -0.10107866 -0.14175834 -0.09536878
-0.3106591 -0.05561778 -0.047218386 -0.08390096 -0.11109925 -0.13814013 0.19530539 -0.18272106
-0.21573825 -0.17036416 -0.090394236 -0.2444548 -0.27773753 0.06708854 -0.113895126 -0.08226704
-0.2006813 -0.32513055 -0.2745818 -0.036100674 0.06724446 -0.10468379 0.009666627 -0.16441222
-0.14602609 -0.13904594 -0.25588557 -0.12368051 -0.16574593 -0.13391763 -0.005113662 -0.03638899
-0.1915693 -0.16023703 -0.1933697 -0.2791029 -0.27469 -0.17948453 0.0032560844 -0.104296505
0.021958143 -0.051087234 -0.080806166 0.0074185533 -0.16482554 -0.11471053 -0.0811178 -0.13034168
-0.09847206 -0.18933293 0.008424916 -0.087687284 0.0031388064 -0.11563245 0.011279195 -0.2131575
00000000: fd53 2dbd 4d82 83be b459 f7bd 1ded a2be
00000010: 6ae4 38be 8e5d 6cbe 88ca 4ebe 91d9 03be
00000020: a940 9dbd cc9f bfbd 9f98 16be 8f43 01be
00000030: 32eb ddbd 2b70 12be 279d 92bd cefe 45be
00000040: e051 33be 3983 66be 8557 11be 2bc6 35be
00000050: c5ba 4dbe 654e 093c 51e8 d7bd 5216 55be
00000060: 7c56 87bd 2255 39bd c784 13be a7fc 35be
00000070: acac 89bd 4d42 91bd 79ee 01be 5de2 5f3d
00000080: f68a 89be 33bf 6dba 3fd5 dcbd 764b d1bd
00000090: 202a 963b 70bb 6f3c da4d 97bd 97b3 3fbe
000000a0: ada6 7dbd 4314 dbbd e528 63be 13e2 68bd
000000b0: 91d2 6fbc a7da 08be 7db5 ecbd 08a4 12be
000000c0: 0d79 2abe ee02 5fbe 8c8e a3bd a96b 09be
000000d0: c4dd 36bd da6e 72bc 86ac c6be 72ac 1dbe
000000e0: 472d 2bbe 5275 26bd 3369 ffbd 0728 f73b
000000f0: fe2b bebd 8228 94bd fb3f 26be d653 92bd
00000100: d104 1ebe 035c 0ebe 6a6e 32be a818 2cbe
00000110: be89 66bc 5402 cfbd 1929 11be b550 c3bd
00000120: b60e 9fbe 78cf 63bd 1168 41bd 44d4 abbd
00000130: 0188 e3bd 9b74 0dbe 23fe 473e 3b1b 3bbe
00000140: 7dea 5cbe f173 2ebe 9d20 b9bd 5c52 7abe
00000150: 9d33 8ebe b765 893d d941 e9bd 9f7b a8bd
00000160: 667f 4dbe 8377 a6be fc95 8cbe 4dde 13bd
00000170: 77b7 893d 7464 d6bd c660 1e3c ad5b 28be
00000180: dd87 15be 0f62 0ebe 6f03 83be 354c fdbd
00000190: 4db9 29be b421 09be 8290 a7bb 9f0c 15bd
000001a0: be2a 44be 2d15 24be b502 46be 93e6 8ebe
000001b0: 2ba4 8cbe cbca 37be 0864 553b 6899 d5bd
000001c0: 90e1 b33c d940 51bd b47d a5bd 5617 f33b
000001d0: 07c8 28be 5bed eabd 1721 a6bd 4a78 05be
000001e0: b8ab c9bd 7ee0 41be a908 0a3c 6495 b3bd
000001f0: 6fb4 4d3b b5d0 ecbd 5fcc 383c f645 5abe

encoder.3.weight f4 [64, 128]
0.05538451 -0.044791594 0.06412923 -0.14279017 -0.05409125 0.10662959 -0.0097876275 -0.12787506
-0.059749737 0.041774195 -0.028536316 0.00086859334 0.11341982 0.022886144 -0.06237728 0.05167958
-0.014116823 0.037676625 0.045271274 -0.011618819 -0.005679363 -0.04866042 -0.040132686 0.068395965
0.032313067 0.034973763 0.1070221 0.011947457 0.0988823 0.08700727 0.03611769 -0.16993304
0.042463757 0.022644963 -0.12104282 -0.013851513 0.00787802 -0.022583155 0.095852144 0.08441682
0.010840939 0.13867012 0.051602338 0.13691469 -0.018976046 -0.026650144 -0.07420516 0.05552782
-0.012372859 0.07403906 -0.047681984 0.05157178 0.020819636 -0.042887837 -0.049896315 -0.04525226
-0.02094443 -0.06626051 -0.038090065 -0.06607297 0.04440839 0.007416039 0.05707638 -0.027196137
0.09137259 0.08703953 0.06915046 0.05506666 -0.013187695 -0.020471748 0.028764969 0.071586035
0.104148455 -0.041555688 0.023269108 0.044285607 0.07079639 -0.080149055 -0.15591238 -0.03009755
-0.058589175 0.018904319 0.11378334 0.1121171 0.039842617 -0.13579412 0.0029291313 0.056665473
-0.03038748 -0.03337359 -0.034310736 -0.026419677 -0.1176884 0.021549923 -0.18280499 -0.12414947
-0.05828289 -0.111396104 -0.007468276 -0.040957 -0.02427519 0.108876854 0.07480454 -0.056027796
0.049213912 0.014717933 0.076853685 -0.059380062 0.038514223 -0.048498753 0.0074903592 -0.019685064
-0.019974932 0.072477534 0.01705861 -0.028542865 0.068617426 0.043769848 0.0928434 -0.108597115
0.06792746 0.04037271 0.0043626074 -0.012201651 0.012447832 0.073673144 -0.059814803 -0.039216522
-0.10654219 0.08960111 -0.053013355 0.15849029 0.08834446 0.081503905 0.004613764 0.07433068
-0.11265796 -0.05810106 0.015376553 -0.029219938 -0.037672203 -0.0181987 0.10449259 -0.04864387
-0.05490362 -0.17085068 6.828262e-05 -0.013283838 0.11158933 -0.00835178 -0.00086498656 -0.06019766
-0.05920509 -0.07821529 -0.049928386 0.075324744 -0.15328309 0.04036694 -0.090144314 -0.0065292646
0.021878155 -0.083630264 -0.015679019 -0.045077074 0.011218159 -0.1301604 -0.0056713503 -0.08335757
0.13375199 0.024203971 0.008731711 -0.065881275 0.03461998 -0.0075090663 -0.0207043 -0.044164117
-0.01851913 0.099665135 -0.03291558 -0.12115311 -0.04966757 -0.08739249 0.038848117 0.00329562
0.015397582 0.108371 -0.11662376 -0.17861216 -0.08766315 0.035303846 0.021872457 -0.020539725
0.016444467 -0.074294075 -0.065862566 -0.02787884 -0.17757627 -0.011714327 0.046705876 -0.050077345
-0.007856733 0.13352843 0.011785648 0.003998962 -0.094361946 -0.055633124 0.049341325 0.06992282
-0.021537922 -0.042427167 -0.035639465 -0.09666431 -0.1069942 0.06923979 -0.038782515 0.12080742
0.11807191 0.17371736 0.1338206 -0.059400402 0.013248039 0.014026132 -0.010860596 0.0132181095
0.040564906 -0.09135175 -0.09232288 -0.07145782 0.07307653 0.05290076 0.007900742 -0.07088824
-0.023529781 -0.14285073 0.03207414 0.12158723 -0.0108082 -0.02395931 -0.07183932 0.10442794
-0.074634135 -0.06204775 0.016207708 0.054641142 -0.008498762 -0.0006192862 0.10774834 0.096542045
-0.10661868 -0.1557515 -0.08245682 -0.043710534 0.08000632 0.031205665 -0.043335866 0.10429381
00000000: deda 623d 6477 37bd 3056 833d 9637 12be
00000010: c98e 5dbd 9d60 da3d 495c 20bc aef1 02be
00000020: 24bc 74bd 6b1b 2b3d fec4 e9bc 50b2 633a
00000030: a748 e83d b97b bb3c 527f 7fbd f8ad 533d
00000040: 3f4a 67bc ce52 1a3d 5f6e 393d dc5c 3ebc
00000050: f319 babb 2650 47bd 2c62 24bd 2f13 8c3d
00000060: b55a 043d a640 0f3d 672e db3d 44bf 433c
00000070: ce82 ca3d de30 b23d 25f0 133d ed02 2ebe
00000080: 7aee 2d3d ee81 b93c 4ce5 f7bd 75f1 62bc
00000090: d012 013c 4f00 b9bc 214e c43d bae2 ac3d
000000a0: 329e 313c 8aff 0d3e f95c 533d 5d33 0c3e
000000b0: a773 9bbc 6751 dabc e0f8 97bd 2471 633d
000000c0: 88b7 4abc caa1 973d 2f4e 43bd ee3c 533d
000000d0: f18d aa3c 28ab 2fbd 1460 4cbd 6f5a 39bd
000000e0: a793 abbc 97b3 87bd 5404 1cbd 4451 87bd
000000f0: 92e5 353d 3e02 f33b ecc8 693d 6fca debc
00000100: 8d21 bb3d c841 b23d c29e 8d3d 948d 613d
00000110: 3411 58bc 5eb4 a7bc 83a4 eb3c b39b 923d
00000120: c94b d53d 4c36 2abd db9e be3c d364 353d
00000130: b3fd 903d 3025 a4bd 7fa7 1fbe 238f f6bc
00000140: 34fb 6fbd 3bdd 9a3c 3d07 e93d a69d e53d
00000150: 0332 233d 9d0d 0bbe abf6 3f3b 0e1a 683d
00000160: 2aef f8bc bfb2 08bd 6a89 0cbd 146e d8bc
00000170: 9e06 f1bd 7789 b03c 3b31 3bbe 1442 febd
00000180: 0aba 6ebd a423 e4bd 71b8 f4bb 87c2 27bd
00000190: c3dc c6bc d4fa de3d 1f33 993d 677d 65bd
000001a0: 8794 493d 7c23 713c 7765 9d3d 8238 73bd
000001b0: 17c1 1d3d a1a6 46bd b071 f53b 9242 a1bc
000001c0: 78a2 a3bc 1a6f 943d 80be 8b3c bad2 e9bc
000001d0: 4b87 8c3d 0348 333d ae24 be3d 2a68 debd
000001e0: 8d1d 8b3d db5d 253d 34f4 8e3b 6fe9 47bc
000001f0: fef1 4b3c f2e1 963d 5e00 75bd 81a1 20bd
00000200: cb32 dabd c980 b73d 8824 59bd 474b 223e
00000210: f1ed b43d 85eb a63d 0f2f 973b af3a 983d
00000220: 37b9 e6bd 61fb 6dbd f0ed 7b3c a75e efbc
00000230: 2b4e 1abd 7115 95bc 3600 d63d cb3e 47bd
00000240: 9ee2 60bd 7bf3 2ebe f432 8f38 74a4 59bc
00000250: f288 e43d e7d5 08bc 44c0 62ba d291 76bd
00000260: 0981 72bd 572f a0bd b581 4cbd dc43 9a3d
00000270: 3ef6 1cbe ce57 253d 959d b8bd 71f3 d5bb
00000280: d139 b33c 5846 abbd 4971 80bc bda2 38bd
00000290: 5fcc 373c c548 05be bcd6 b9bb 60b7 aabd
000002a0: 48f6 083e 6847 c63c 730f 0f3c c3ec 86bd
000002b0: aecd 0d3d 9d0e f6bb 109c a9bc 6fe5 34bd
000002c0: 6eb5 97bc 3c1d cc3d 7dd2 06bd 1f1f f8bd
000002d0: 3970 4bbd d5fa b2bd 341f 1f3d 54fb 573b
000002e0: 2446 7c3c 9df1 dd3d 70d8 eebd 1be6 36be
000002f0: bd88 b3bd c49a 103d de2d b33c ed42 a8bc
00000300: 8cb6 863c 7e27 98bd f4e2 86bd 2a62 e4bc
00000310: 8ed6 35be 73ed 3fbc a94e 3f3d e71d 4dbd
00000320: 87b9 00bc adbb 083e 9718 413c ba09 833b
00000330: d640 c1bd 8fdf 63bd 211a 4a3d b233 8f3d
00000340: 4c70 b0bc 1cc8 2dbd b0fa 11bd f0f7 c5bd
00000350: c61f dbbd 97cd 8d3d 6ada 1ebd e169 f73d
00000360: b0cf f13d f7e2 313e 4408 093e d64d 73bd
00000370: 4e0e 593c ddcd 653c a4f0 31bc c590 583c
00000380: 6327 263d a016 bbbd c713 bdbd 7a58 92bd
00000390: 26a9 953d 78ae 583d 1d72 013c db2d 91bd
000003a0: 87c1 c0bc 7647 12be 2c60 033d ba02 f93d
000003b0: e014 31bc 5146 c4bc 7e20 93bd 51de d53d
000003c0: c8d9 98bd c825 7ebd 07c6 843c 64cf 5f3d
000003d0: 643e 0bbc 9857 22ba 29ab dc3d d6b7 c53d
000003e0: e55a dabd 527d 1fbe 1fdf a8bd d109 33bd
000003f0: 5ada a33d 06a3 ff3c f380 31bd fe97 d53d

encoder.3.bias f4 [64]
-0.13945848 -0.04345147 -0.1829632 -0.051954806 -0.046434674 -0.036994383 -0.23233075 -0.09365879
-0.043831468 -0.08169582 -0.06597043 -0.15267263 -0.06238198 -0.02267789 -0.030766005 -0.3551726
-0.04646768 0.044319164 -0.20811945 -0.09276362 -0.15021841 -0.1155685 -0.09140416 -0.07006975
0.019048259 -0.3191549 -0.10577965 -0.20040214 -0.08706487 -0.01564061 -0.08039396 -0.2828355
-0.084931776 -0.105607815 0.012495237 -0.09012777 -0.23894653 -0.084508315 -0.0009517167 -0.061933212
-0.07870622 -0.15811235 -0.10535235 -0.093124 -0.045130443 -0.0023311656 -0.15833792 -0.26106796
-0.17970492 -0.18141031 -0.05770491 -0.12645572 -0.18364203 -0.22750531 -0.015677407 0.0039399574
-0.040869996 -0.19757329 -0.27993 -0.01310818 -0.022451662 -0.09410538 -0.1902808 -0.21054085
00000000: 34ce 0ebe 2bfa 31bd b55a 3bbe 90ce 54bd
00000010: 4932 3ebd 6c87 17bd 1de8 6dbe 2ed0 bfbd
00000020: a088 33bd 2350 a7bd 811b 87bd 3756 1cbe
00000030: 3f84 7fbd fbc6 b9bc fd08 fcbc 2fd9 b5be
00000040: e554 3ebd 0388 353d 441d 55be dafa bdbd
00000050: dbd2 19be 2daf ecbd 1b32 bbbd bb80 8fbd
00000060: 180b 9c3c 4568 a3be 00a3 d8bd 3836 4dbe
00000070: 114f b2bd bd20 80bc 97a5 a4bd d1cf 90be
00000080: b6f0 adbd e948 d8bd d3b8 4c3c e994 b8bd
00000090: 66ae 74be b212 adbd a07c 79ba aead 7dbd
000000a0: ba30 a1bd 34e8 21be f9c2 d7bd ccb7 bebd
000000b0: b3da 38bd 78c6 18bb 5623 22be b3aa 85be
000000c0: 9104 38be a0c3 39be fc5b 6cbd 9c7d 01be
000000d0: a80c 3cbe 27f7 68be e86d 80bc c21a 813b
000000e0: 4c67 27bd a750 4abe fc52 8fbe b1c3 56bc
000000f0: 8cec b7bc 52ba c0bd f8d8 42be 0598 57be

encoder.6.weight f4 [32, 64]
-0.01909625 0.042729665 0.08485115 -0.086534314 0.016242946 0.032461032 -0.013084094 0.065064654
0.08612492 -0.061887864 -0.16223906 0.10405227 0.00579966 -0.002903331 0.050224435 0.03792849
-0.034917522 0.023397418 0.04313661 0.0343252 0.0023878934 0.023418223 0.048134442 0.08738583
0.13403878 0.018575368 -0.008454975 -0.08210442 0.12585296 -0.0028464478 -0.094559096 0.00630323
-0.06492314 0.073772736 -0.15510759 0.0003601921 -0.1342539 0.008456745 -0.09057242 0.04920136
-0.005712223 -0.08864 -0.0029128098 0.06794603 -0.0431192 0.026591137 0.025787393 -0.12152723
-0.0486999 0.004430955 -0.16327514 -0.067362316 0.049680464 -0.08409964 0.032312494 -0.06649875
0.022959197 -0.18094827 -0.020558074 -0.080087446 0.1047183 0.053678323 -0.0556629 -0.021537814
-0.0662614 -0.14589289 -0.003341529 0.15274525 -0.12029404 0.06997221 -0.16303353 0.040807936
-0.13603061 -0.009776322 0.021115415 -0.028925726 0.053664204 0.08189544 0.15561545 0.10336922
-0.0742973 0.034539588 -0.13175726 -0.026334545 0.041718487 -0.20335853 -0.18092558 -0.18283467
-0.058113534 0.0034180942 -0.15507762 -0.0050166813 -0.057197567 0.16271845 -0.10822512 0.10269591
-0.1124652 -0.106205545 0.15438865 -0.23020518 -0.019304434 -0.037646238 0.06955611 -0.08047685
0.17877851 0.003423924 -0.10403497 -0.018535575 -0.016838206 -0.013095337 0.0067549576 0.15097682
0.15617537 -0.010449951 0.060300816 0.074006155 -0.040326383 -0.18893431 0.12978683 0.0076429155
-0.025837654 -0.0011242597 -0.022858107 0.11019515 -0.10633397 -0.18795407 -0.029445656 0.044224285
0.049770232 0.0010506398 0.09157116 -0.063206635 0.060845263 0.06898282 -0.07157379 -0.018648712
0.13397026 -0.020407137 -0.09290929 0.09163756 -0.095283955 0.030096892 0.07442069 0.08824868
-0.054833617 -0.029419636 -0.083769575 0.14815202 0.017066143 0.1307112 0.14350887 0.0101290075
-0.011164827 0.1532083 -0.087985605 -0.14053059 0.015832111 0.0037645053 -0.078051016 -0.018739251
0.08275436 0.1273531 -0.015608292 -0.0382099 0.07219006 0.1331286 0.010360136 0.07707135
-0.13268386 0.10926459 0.08089756 0.08661311 -0.16084592 -0.069558 0.036277853 -0.224602
-0.02074047 0.14855245 -0.06723033 0.12364432 -0.122604735 -0.01772722 -0.04390589 -0.14550541
-0.15281585 -0.054319803 0.13350388 -0.11998247 0.048699465 0.09982453 -0.12249277 -0.0037110902
-0.052060187 -0.026259363 -0.0869726 0.056483116 -0.14114758 -0.26549354 0.08084359 0.06590656
-0.18244873 0.08369382 -0.03509348 0.026685622 -0.017797591 -0.12418732 0.071949065 0.062964514
0.009827282 0.12396318 -0.019498672 -0.016756907 -0.03786383 -0.10766352 -0.16154471 -0.0029208618
0.010874859 0.13326982 -0.055144068 -0.021127868 0.021081522 -0.06133707 -0.009874048 0.07560775
-0.17075266 -0.15522555 -0.09951334 -0.12847297 0.024676064 -0.1818879 0.08741907 0.08255824
-0.0062493323 -0.325077 -0.045889646 -0.30419376 0.11048523 0.10698192 0.0054527675 0.018262058
0.08807598 -0.052153762 0.12931766 -0.12284557 -0.0008840309 0.037662182 -0.016387364 -0.0584343
-0.029548125 0.030067274 0.050989542 0.11210701 0.05942254 0.034793336 0.063454874 -0.044380914
00000000: bd6f 9cbc 4d05 2f3d 71c6 ad3d e738 b1bd
00000010: ed0f 853c dcf5 043d ab5e 56bc 9e40 853d
00000020: 4362 b03d 217e 7dbd ff21 26be 5b19 d53d
00000030: 130b be3b d045 3ebb 23b8 4d3d e85a 1b3d
00000040: ad05 0fbd f1ab bf3c 04b0 303d 9598 0c3d
00000050: 347e 1c3b 93d7 bf3c 9f28 453d 58f7 b23d
00000060: 7641 093e 5f2b 983c bc86 0abc 5d26 a8bd
00000070: 99df 003e 788b 3abb 33a8 c1bd 538b ce3b
00000080: 6cf6 84bd 2916 973d 86d4 1ebe 2ad8 bc39
00000090: db79 09be 298e 0a3c 087e b9bd 5e87 493d
000000a0: 992d bbbb e388 b5bd d7e4 3ebb 4a27 8b3d
000000b0: c29d 30bd a8d5 d93c 1540 d33c 45e3 f8bd
000000c0: 8c79 47bd 8b31 913b 9931 27be 41f5 89bd
000000d0: be7d 4b3d 6f3c acbd 1b5a 043d 7f30 88bd
000000e0: ed14 bc3c 814a 39be 6869 a8bc e304 a4bd
000000f0: 8c76 d63d cddd 5b3d c8fe 63bd 1270 b0bc
00000100: 0fb4 87bd f264 15be 8efd 5abb 4069 1c3e
00000110: b95c f6bd 974d 8f3d 43f2 26be 3926 273d
00000120: 9c4b 0bbe de2c 20bc 3cfa ac3c a5f5 ecbc
00000130: ffce 5b3d ccb8 a73d a859 1f3e 3eb3 d33d
00000140: 2f29 98bd 6279 0d3d 60eb 06be 8bbb d7bc
00000150: 01e1 2a3d 383d 50be 8e44 39be 0339 3bbe
00000160: 7508 6ebd 1b02 603b abcc 1ebe f962 a4bb
00000170: ff47 6abd aa9f 263e 22a5 ddbd 3c52 d23d
00000180: 2854 e6bd 4b82 d9bd 0f18 1e3e e8ba 6bbe
00000190: 5524 9ebc f132 1abd 6f73 8e3d 0cd1 a4bd
000001a0: b711 373e ea63 603b 4910 d5bd ebd7 97bc
000001b0: 47f0 89bc d38d 56bc b158 dd3b ab99 1a3e
000001c0: 70ec 1f3e 4536 2bbc fdfd 763d 8a90 973d
000001d0: 472d 25bd ff77 41be d7e6 043e 6c71 fa3b
000001e0: 7da9 d3bc e55b 93ba ed40 bbbc ffad e13d
000001f0: a0c5 d9bd 0877 40be 0438 f1bc 8624 353d
00000200: dfdb 4b3d 9fb5 893a a989 bb3d 7b72 81bd
00000210: e238 793d dd46 8d3d 4795 92bd 2fc5 98bc
00000220: 802f 093e de2c a7bc 3a47 bebd 79ac bb3d
00000230: 3c24 c3bd c28d f63c e069 983d b9bb b43d
00000240: 3799 60bd 7301 f1bc 628f abbd 2ab5 173e
00000250: 4cce 8b3c 28d9 053e fdf3 123e 23f4 253c
00000260: aeec 36bc a3e2 1c3e cc31 b4bd 40e7 0fbe
00000270: 58b2 813c ebb5 763b 36d9 9fbd 0f83 99bc
00000280: 1e7b a93d da68 023e ecb9 7fbc fc81 1cbd
00000290: 62d8 933d dd52 083e 8fbd 293c 95d7 9d3d
000002a0: 47de 07be 1dc6 df3d 9fad a53d 3762 b13d
000002b0: cbb4 24be 6d74 8ebd 1698 143d 11fe 65be
000002c0: ebe7 a9bc 221e 183e 0eb0 89bd 3c39 fd3d
000002d0: 3118 fbbd ad38 91bc aad6 33bd 5fff 14be
000002e0: c27b 1cbe 717e 5ebd 3eb5 083e 5fb9 f5bd
000002f0: 1779 473d ce70 cc3d 7ddd fabd c335 73bb
00000300: 103d 55bd e01d d7bc b11e b2bd d75a 673d
00000310: fe88 10be c5ee 87be 5391 a53d 05fa 863d
00000320: d7d3 3abe aa67 ab3d 2ebe 0fbd ce9b da3c
00000330: 41cc 91bc ec55 febd 085a 933d 8af3 803d
00000340: 9c02 213c 68e0 fd3d aebb 9fbc c845 89bc
00000350: 1a17 1bbd b17e dcbd fa6b 25be ee6b 3fbb
00000360: 772c 323c e277 083e bfde 61bd 5a14 adbc
00000370: 28b3 ac3c 943c 7bbd c2c6 21bc 3cd8 9a3d
00000380: c9d9 2ebe 72f3 1ebe a6cd cbbd 6b8e 03be
00000390: 7525 ca3c d240 3abe c508 b33d 4b14 a93d
000003a0: 33c7 ccbb 7e70 a6be c8f6 3bbd 49bf 9bbe
000003b0: 1546 e23d 5619 db3d 21ad b23b 509a 953c
000003c0: 2e61 b43d 2f9f 55bd d96b 043e 7596 fbbd
000003d0: 4fbe 67ba a943 1a3d cb3e 86bc ce58 6fbd
000003e0: e90e f2bc a54f f63c 69da 503d 5c98 e53d
000003f0: 0d65 733d 7583 0e3d a1f4 813d c3c8 35bd

encoder.6.bias f4 [32]
0.078780375 0.09408547 -0.12535904 -0.025967445 0.101422794 -0.028292771 0.10984469 0.06762546
-0.14830482 -0.01922392 -0.014486313 -0.07275163 0.06157845 0.043433376 -0.11627072 0.06948594
-0.079280555 -0.08568844 0.11816761 0.08651702 -0.17719209 -0.012070021 -0.09600327 -0.107500955
-0.09568736 0.03182669 0.09277018 0.11719681 0.004830297 0.09508078 0.040469002 -0.06193303
00000000: 9b57 a13d e2af c03d 1f5e 00be aeb9 d4bc
00000010: c1b6 cf3d 3ec6 e7bc 41f6 e03d 387f 8a3d
00000020: 38dd 17be 7b7b 9dbc 0058 6dbc cefe 94bd
00000030: af39 7c3d 32e7 313d 581f eebd a54e 8e3d
00000040: d85d a2bd 6c7d afbd dc01 f23d d62f b13d
00000050: d871 35be 56c1 45bc 5d9d c4bd 7629 dcbd
00000060: bcf7 c3bd b45c 023d 4bfe bd3d e204 f03d
00000070: 7847 9e3b b6b9 c23d d3c2 253d 7dad 7dbd

encoder.9.weight f4 [12, 32]
0.017650958 -0.13495179 -0.08234209 -0.03344873 0.04214325 0.06682902 -0.108146735 -0.122852966
0.18226251 -0.07614358 -0.10005899 0.17581466 0.032858312 -0.019115692 -0.018390872 0.074867666
-0.17457484 0.103883 -0.09304291 0.15757401 0.11369373 0.11699787 -0.14393662 0.12439987
-0.04269738 -0.12725247 0.10878489 -0.025152382 -0.0019523891 -0.19644232 0.1115575 0.25487596
0.10580547 -0.15538448 -0.12104644 0.014883119 0.17775147 -0.0033596505 -0.008054451 0.08990188
-0.012757043 0.0577027 0.09637147 0.23044026 -0.13716961 0.06967232 -0.13151816 0.124465
0.0064068586 0.13798949 0.041384164 0.14387776 -0.0019919623 -0.15630463 0.06646455 0.14929847
0.056401376 0.2592355 -0.12028663 -0.08870383 -0.09251628 0.08990657 0.12283606 -0.090208896
0.026624294 -0.13973396 0.1521403 -0.183339 -0.061249424 -0.20888336 0.058424015 -0.11997124
0.07346244 -0.03984089 -0.10563469 0.006188907 -0.054183945 -0.0101639405 -0.20256853 0.09520961
-0.027947344 0.04278819 0.12421548 0.14435615 0.07307836 0.12514141 -0.11321129 -0.07764083
-0.0694313 0.09040371 0.07946216 -0.054599896 -0.17572293 -0.114681706 0.01624101 -0.008152746
0.16863152 0.021608558 -0.16209906 -0.1394908 0.084636904 0.052988153 0.12050779 0.14226493
0.089117326 0.07703697 -0.15612465 -0.038455408 -0.08024393 0.01349595 0.018905245 -0.03561523
0.16551703 0.057960715 0.044660743 0.057950314 -0.12996942 0.08767082 0.121896565 -0.004114972
-0.12038303 -0.012022138 -0.012502617 -0.16908844 0.13422602 -0.024162332 -0.08871137 -0.1031013
0.005639356 0.15916722 -0.04723245 0.018067071 0.05980531 -0.06743666 -0.03696909 0.14402069
-0.16855694 0.15090208 -0.0947058 0.089287594 0.045574497 -0.03872111 -0.025947291 -0.14832786
0.10140414 -0.08631893 0.033661783 -0.06715363 -0.0157364 -0.072013326 -0.12321236 0.04731861
0.06683147 0.16345772 -0.09504601 -0.07455268 0.15736659 0.137728 0.07778868 0.1927159
0.045789648 -0.10891611 0.05553617 -0.049759373 -0.15260072 -0.06124226 -0.095820695 0.059062894
0.20314285 -0.12276172 -0.14276227 -0.16103534 -0.000789818 -0.09854618 -0.055365775 0.01601616
0.0809519 0.15254058 -0.14150508 0.07483618 -0.06949241 -0.027622474 0.08689776 0.22145566
0.042453807 -0.111808605 0.11061146 -0.021925349 0.02936361 -0.008158275 -0.012832999 0.07699956
-0.046018306 -0.03857058 0.039716832 -0.047024183 0.15629147 -0.004771131 -0.06257709 -0.045043834
-0.043178838 0.1858721 0.08934547 0.03633465 -0.013978862 -0.10883014 0.035869185 0.14066288
-0.003859406 0.113239564 -0.1600524 0.08994317 0.051759355 0.015253565 -0.073310874 -0.08512017
0.0060178004 -0.073329836 0.1504095 -0.08969836 0.12759264 -0.009732405 -0.26713797 0.08710427
0.11144791 -0.011772677 -0.07268624 0.08853854 -0.08588774 0.115935564 -0.054296073 -0.056393884
-0.08641075 -0.08327696 -0.14905196 0.123099595 -0.20522523 0.12159841 -0.06220693 -0.0068350136
0.04110475 0.12050589 -0.041762132 0.020579817 0.046267148 0.07794135 0.16276664 -0.03905652
-0.12528789 -0.12973677 -0.14635137 -0.104620546 -0.15549952 0.108129255 0.07671436 0.20555365
00000000: be98 903c cd30 0abe f8a2 a8bd 8901 09bd
00000010: 679e 2c3d a7dd 883d 097c ddbd 569a fbbd
00000020: 06a3 3a3e 2af1 9bbd baeb ccbd c208 343e
00000030: 7096 063d 8398 9cbc 74a8 96bc 3854 993d
00000040: bfc3 32be 9cc0 d43d 488d bebd 155b 213e
00000050: 42d8 e83d 949c ef3d 1f64 13be 5cc5 fe3d
00000060: 73e3 2ebd 794e 02be 9dca de3d 5e0c cebc
00000070: 4fe7 ffba 2d28 49be 4278 e43d 1a7f 823e
00000080: 8ab0 d83d 1c1d 1fbe 32e7 f7bd 53d8 733c
00000090: 7b04 363e 952d 5cbb d1f6 03bc 7a1e b83d
000000a0: eb02 51bc ab59 6c3d 685e c53d 88f8 6b3e
000000b0: 3176 0cbe 5cb0 8e3d b2ac 06be 82e7 fe3d
000000c0: a0f0 d13b 1e4d 0d3e 7182 293d b154 133e
000000d0: 958b 02bb 520e 20be 911e 883d b3e1 183e
000000e0: 2105 673d 84ba 843e d658 f6bd 5baa b5bd
000000f0: 2d79 bdbd f020 b83d 7991 fb3d 71bf b8bd
00000100: 311b da3c 6b16 0fbe abca 1b3e 38bd 3bbe
00000110: ade0 7abd 85e5 55be 054e 6f3d 7bb3 f5bd
00000120: 7a73 963d 3330 23bd 0057 d8bd 51cc ca3b
00000130: fcef 5dbd a886 26bc 206e 4fbe 42fd c23d
00000140: d4f1 e4bc ab42 2f3d b064 fe3d 19d2 133e
00000150: 1baa 953d 1225 003e 52db e7bd 2802 9fbd
00000160: ff31 8ebd 9525 b93d 0fbd a23d 24a4 5fbd
00000170: b6f0 33be 3ede eabd de0b 853c 1893 05bc
00000180: bead 2c3e 6e04 b13c 4cfd 25be add6 0ebe
00000190: 1d56 ad3d 1b0a 593d cacc f63d e6ad 113e
000001a0: 2583 b63d 8fc5 9d3d 24df 1fbe 6b83 1dbd
000001b0: ee56 a4bd 1e1e 5d3c 2cdf 9a3c 47e1 11bd
000001c0: 4c7d 293e 3768 6d3d 2fee 363d 4f5d 6d3d
000001d0: b416 05be c28c b33d e8a4 f93d e3d6 86bb
000001e0: 618b f6bd 80f8 44bc c7d7 4cbc 8525 2dbe
000001f0: 8c72 093e 15f0 c5bc 4fae b5bd c626 d3bd
00000200: 59ca b83b bbfc 223e d076 41bd 6501 943c
00000210: 6af6 743d 3b1c 8abd e76c 17bd 297a 133e
00000220: 319a 2cbe 1386 1a3e 1df5 c1bd 6adc b63d
00000230: 53ac 3a3d 079a 1ebd 6a8f d4bc 42e3 17be
00000240: f9ac cf3d fbc7 b0bd f0e0 093d d887 89bd
00000250: 9fe9 80bc b97b 93bd c356 fcbd 29d1 413d
00000260: f0de 883d 7661 273e 7ca7 c2bd 13af 98bd
00000270: b524 213e 9208 0d3e ac4f 9f3d 5157 453e
00000280: ed8d 3b3d 690f dfbd e579 633d 7cd0 4bbd
00000290: 5d43 1cbe 2ad9 7abd a43d c4bd efeb 713d
000002a0: ae04 503e 7f6a fbbd 4630 12be 73e6 24be
000002b0: ca0b 4fba 94d2 c9bd 39c7 62bd 5234 833c
000002c0: 1cca a53d 9933 1c3e b5e6 10be b643 993d
000002d0: 0952 8ebd 8748 e2bc 74f7 b13d 46c5 623e
000002e0: 0be4 2d3d e9fb e4bd 4388 e23d ca9c b3bc
000002f0: f48b f03c 49aa 05bc 8041 52bc f2b1 9d3d
00000300: b17d 3cbd 2ffc 1dbd 1eae 223d 6e9c 40bd
00000310: df0a 203e 2657 9cbb 6b28 80bd e27f 38bd
00000320: 4bdc 30bd 4155 3e3e c2fa b63d a4d3 143d
00000330: 9907 65bc 56e2 debd 91eb 123d ee09 103e
00000340: 17ee 7cbb 25ea e73d c7e4 23be 2034 b83d
00000350: 9e01 543d 17ea 793c 0324 96bd 7c53 aebd
00000360: f830 c53b f42d 96bd f304 1a3e c6b3 b7bd
00000370: a5a7 023e aa74 1fbc 4fc6 88be b963 b23d
00000380: cd3e e43d 30e2 40bc 86dc 94bd b253 b53d
00000390: e9e5 afbd a06f ed3d 8f65 5ebd 46fd 66bd
000003a0: 1ff8 b0bd 1c8d aabd 14a1 18be a41b fc3d
000003b0: 9026 52be 9608 f93d b2cc 7ebd 40f8 dfbb
000003c0: 745d 283d cbcb f63d c50e 2bbd 0197 a83c
000003d0: 9f82 3d3d b79f 9f3d 4cac 263e bbf9 1fbd
000003e0: 784b 00be b7d9 04be 22dd 15be 4c43 d6bd
000003f0: 443b 1fbe df72 dd3d 6b1c 9d3d a87c 523e

encoder.9.bias f4 [12]
0.10272387 0.08759856 0.100391366 0.07647966 0.110112645 -0.17672956 0.14762606 0.08941122
0.1420246 -0.16137618 0.16624875 -0.11274635
00000000: e460 d23d e066 b33d fd99 cd3d 5ea1 9c3d
00000010: bd82 e13d 98f8 34be 492b 173e 3b1d b73d
00000020: e66e 113e cc3f 25be 1d3d 2a3e 8fe7 e6bd

decoder.0.weight f4 [32, 12]
-0.05012567 0.316436 -0.16396041 -0.11856016 0.12724479 -0.14445454 0.20985232 -0.15274128
0.29220065 0.22398734 0.043842115 -0.19476707 -0.21220419 0.019079123 -0.21982619 -0.078053124
-0.050792705 0.2063646 -0.21792556 0.016195206 -0.106123 0.009939678 0.36150637 0.32025406
-0.16588068 0.18640512 -0.07488116 0.25086102 0.24018821 0.0421701 -0.1520276 -0.0037896154
-0.20993818 0.20950073 0.09476679 -0.18794449 0.15450135 -0.039090898 -0.021492438 -0.05153556
-0.13464154 0.09343036 0.26242486 -0.018086817 -0.25626206 0.11751766 -0.16926813 0.0024702696
-0.19284832 -0.24869516 -0.077892534 0.08930339 0.12550701 -0.27317065 -0.33861297 0.2699085
0.056878317 -0.011689685 0.24971032 0.08252045 0.14037947 -0.06624442 -0.16348311 -0.20526919
0.013854069 0.09899639 -0.34679818 0.06979162 0.04680286 0.14562102 0.25295419 -0.23560163
0.1963082 0.23034385 0.11502574 -0.19934368 0.04517137 0.06768118 -0.13316497 0.0669175
-0.23964141 -0.22488837 0.2780608 -0.11245655 -0.13263686 0.21353239 0.13696341 0.2646462
-0.0020768954 -0.31861424 0.009781109 0.040548697 -0.15410228 -0.15504324 -0.15198296 -0.20931278
0.13694417 0.04435588 -0.026205882 -0.057088546 0.019465482 -0.3137348 0.117920116 0.1905007
-0.16791716 0.20987734 -0.25078815 0.18536241 -0.26864702 -0.09738961 0.2640446 0.13260326
0.23728335 -0.28629753 0.0057440535 0.20363002 -0.25386882 -0.177516 0.1779087 -0.18489392
0.13333833 -0.21760367 -0.0535036 -0.074655816 0.2697079 -0.18805018 0.02255591 0.21790701
0.060298387 -0.22550689 0.26833263 0.053261463 0.30398732 0.12884325 -0.026336312 0.13188408
-0.07611536 -0.05582909 0.04101081 -0.26829687 -0.123919085 0.116742395 -0.22816698 0.18453567
0.14241908 -0.20886682 0.071293436 0.2706334 0.2626165 0.064797305 -0.1385479 -0.15547927
0.2968528 -0.037249684 -0.2828506 -0.10888681 -0.14350453 0.22287102 0.17076369 0.10413929
-0.011315426 0.26262414 0.2981842 0.2538167 0.18991673 0.16987596 -0.027860302 -0.22257225
-0.13786393 -0.19898437 0.1728039 0.11274215 -0.14652336 -0.26802015 0.037638128 0.04039654
0.07047793 -0.4110386 -0.20551088 0.17136519 0.11882106 -0.088423364 0.035764158 0.228105
0.24123392 0.025461974 0.14921807 -0.15759511 0.23976202 -0.005926115 -0.2544738 0.2634352
0.08133088 -0.056870665 0.10935393 0.06179994 -0.10418919 0.1230141 0.26252326 0.010013071
-0.11497825 -0.26917696 0.25210828 -0.09158075 0.26791686 0.06503184 0.029899001 -0.099113874
0.07579018 0.25565314 0.24652565 0.08356724 0.184761 -0.07546637 0.109458625 0.26091704
0.005049589 0.07241731 -0.045419782 0.09754638 -0.074820936 -0.22839233 -0.007938664 -0.24785258
-0.19216241 0.14751162 0.098738894 -0.30684206 0.1821881 -0.29276922 0.2518453 0.23001914
0.043474577 -0.19052622 -0.06337784 -0.2818645 -0.2464338 0.29936346 0.2542993 0.15577368
-0.09175295 0.25941116 0.13248363 -0.21094427 -0.22207062 -0.07234843 -0.062807284 -0.038606465
0.15423825 0.25310048 -0.050861944 0.12495255 0.15623918 0.09971657 0.12575215 -0.2903312
00000000: 9350 4dbd e603 a23e 3de5 27be abcf f2bd
00000010: 754c 023e e4eb 13be 87e3 563e 3668 1cbe
00000020: 539b 953e f05c 653e ca93 333d 0571 47be
00000030: 0e4c 59be d24b 9c3c 1e1a 61be 51da 9fbd
00000040: 030c 50bd 3e51 533e e127 5fbe cfab 843c
00000050: 0457 d9bd 08da 223c 5d17 b93e 57f8 a33e
00000060: a0dc 29be fce0 3e3e 4b5b 99bd db70 803e
00000070: e6f3 753e 8eba 2c3d 20ad 1bbe 325b 78bb
00000080: 09fa 56be 5c87 563e 1715 c23d 8574 40be
00000090: 9a35 1e3e c71d 20bd e910 b0bc f416 53bd
000000a0: 79df 09be 6b58 bf3d 8d5c 863e ce2a 94bc
000000b0: c834 83be 19ad f03d a054 2dbe 3fe4 213b
000000c0: 087a 45be f2a9 7ebe 1f86 9fbd b2e4 b63d
000000d0: e984 003e 06dd 8bbe ae5e adbe 7231 8a3e
000000e0: 3df9 683d 1886 3fbc 10b4 7f3e 7b00 a93d
000000f0: a3bf 0f3e 28ab 87bd 1e68 27be 1632 52be
00000100: 2dfc 623c 9fbe ca3d 888f b1be e9ee 8e3d
00000110: 5bb4 3f3d ad1d 153e 3683 813e 8e41 71be
00000120: 0405 493e 42df 6b3e 9d92 eb3d c020 4cbe
00000130: 9d05 393d 6e9c 8a3d 665c 08be 0b0c 893d
00000140: 8f64 75be 2349 66be fc5d 8e3e 9f4f e6bd
00000150: f5d1 07be 3ca8 5a3e 2340 0c3e b57f 873e
00000160: 861c 08bb 6821 a3be f240 203c 6416 263d
00000170: fdcc 1dbe a8c3 1ebe 6ca1 1bbe 1756 56be
00000180: 183b 0c3e 83ae 353d b8ad d6bc aed5 69bd
00000190: 1376 9f3c d9a1 a0be 1a80 f13d 9e12 433e
000001a0: 7af2 2bbe 16ea 563e 4e67 80be a5cf 3d3e
000001b0: 1a8c 89be 3474 c7bd db30 873e 26c9 073e
000001c0: 68fa 723e 9795 92be 9d38 bc3b 6384 503e
000001d0: 18fb 81be c1c6 35be b32d 363e d554 3dbe
000001e0: d889 083e 7fd3 5ebe 9726 5bbd 26e5 98bd
000001f0: 2717 8a3e 3a90 40be 2cc7 b83c 0423 5f3e
00000200: 71fb 763d 47eb 66be e562 893e b128 5a3d
00000210: 3aa4 9b3e 7cef 033e 40bf d7bc 9f0c 073e
00000220: 5fe2 9bbd 0bad 64bd f3fa 273d 355e 89be
00000230: 4ac9 fdbd a316 ef3d 9ba4 69be ebf6 3c3e
00000240: 4fd6 113e 2fe1 55be 4b02 923d 7690 8a3e
00000250: ab75 863e 73b4 843d 80df 0dbe f535 1fbe
00000260: 17fd 973e 2093 18bd cbd1 90be 0c00 dfbd
00000270: daf2 12be 4d38 643e addc 2e3e fb46 d53d
00000280: 5664 39bc ac76 863e 99ab 983e 43f4 813e
00000290: 8879 423e f7f3 2d3e 4a3b e4bc fbe9 63be
000002a0: 342c 0dbe 8fc2 4bbe 81f3 303e 5be5 e63d
000002b0: 380a 16be f039 89be 702a 1a3d d876 253d
000002c0: bc56 903d a773 d2be 7271 52be 5b7a 2f3e
000002d0: 7558 f33d 4f17 b5bd 707d 123d 5b94 693e
000002e0: 0606 773e a195 d03c 9fcc 183e 9d60 21be
000002f0: 2d84 753e db2f c2bb 644a 82be fbe0 863e
00000300: ce90 a63d 37f1 68bd f4f4 df3d ef21 7d3d
00000310: 2461 d5bd d1ee fb3d 7369 863e dd0d 243c
00000320: b779 ebbd 90d1 89be 5614 813e b08e bbbd
00000330: 662c 893e 6a2f 853d c0ee f43c 37fc cabd
00000340: e237 9b3d f8e4 823e 3871 7c3e 4d25 ab3d
00000350: fd31 3d3e 1d8e 9abd d82b e03d eb96 853e
00000360: 0677 a53b 874f 943d 180a 3abd 65c6 c73d
00000370: b83b 99bd aedf 69be 2c11 02bc 11cd 7dbe
00000380: 39c6 44be 490d 173e 9e37 ca3d 671a 9dbe
00000390: 848f 3a3e d9e5 95be def1 803e 238a 6b3e
000003a0: 6612 323d 4e19 43be 3ecc 81bd 8b50 90be
000003b0: 2459 7cbe 2b46 993e 8533 823e 2383 1f3e
000003c0: f8e8 bbbd 8ad1 843e caa9 073e c601 58be
000003d0: 7b66 63be 6a2b 94bd 1ba1 80bd d021 1ebd
000003e0: a2f0 1d3e 6396 813e 9d54 50bd 1fe7 ff3d
000003f0: 2afd 1f3e 3338 cc3d 2cc5 003e 4ba6 94be

decoder.0.bias f4 [32]
-0.20765357 0.22263885 -0.16911314 -0.14977264 0.074639715 0.050034333 0.06687506 0.19287083
0.19303209 0.058325093 -0.06752422 0.16257398 -0.011170777 -0.07877301 -0.014340295 0.2636813
0.22118609 0.31583643 0.37127453 -0.041589398 0.046645865 -0.10134298 -0.11283765 0.1496681
0.14649251 0.019834412 0.27840766 -0.17570765 0.08581994 0.10532815 0.11645642 -0.086445354
00000000: 23a3 54be 70fb 633e ff2b 2dbe 005e 19be
00000010: b5dc 983d cdf0 4c3d cbf5 883d ee7f 453e
00000020: 34aa 453e 4be6 6e3d 234a 8abd cb79 263e
00000030: a205 37bc be53 a1bd 8ff3 6abc 3c01 873e
00000040: 9b7e 623e 50b5 a13e b217 be3e a559 2abd
00000050: bc0f 3f3d e98c cfbd 6d17 e7bd 9842 193e
00000060: 2202 163e c77b a23c 738b 8e3e b5ec 33be
00000070: 5dc2 af3d 49b6 d73d b480 ee3d 430a b1bd

decoder.2.weight f4 [64, 32]
-0.021377716 0.23965214 0.06922267 -0.09587389 -0.025541548 0.23911856 -0.1579846 -0.037373845
0.07183168 0.02567856 0.0098370155 0.21887828 0.013049319 -0.021249708 -0.08084972 -0.092351615
0.03965336 0.22153805 -0.16718777 0.08978551 0.08566695 0.12103386 0.033977 0.08596536
0.18753155 -0.019394461 -0.06937416 -0.19493087 -0.024061397 0.006796804 0.13661394 0.002416336
-0.044344265 0.20801073 0.02666909 -0.1478817 0.011985317 0.07808907 0.14858353 0.17923048
0.042458702 0.015278251 0.12709382 0.209295 -0.060901433 0.10307001 0.21244735 -0.134892
-0.07373961 0.10106974 -0.053305596 0.06832623 0.100408964 -0.11849957 0.16763876 0.054913945
0.05893382 0.13522741 -0.12874211 0.18888187 -0.0647154 -0.0061468957 -0.0013065296 0.008632336
0.15877552 0.11695928 0.0076850886 -0.019732764 -0.09909787 0.1351099 -0.024440693 0.15665679
-0.09571633 -0.07304261 -0.08382674 0.0831092 -0.14329897 -0.20895676 0.021354435 0.16572535
-0.13488366 0.1446168 0.20684503 -0.013698843 0.10411936 -0.13356388 -0.16864504 -0.01822875
0.09519191 -0.20543465 0.05074961 -0.21182765 0.097249344 -0.061056506 0.02677514 -0.09076169
0.19572008 0.15143922 0.20497425 0.1999972 0.11737761 0.06176064 -0.12293779 -0.16419841
0.12274224 -0.15744652 0.08912022 -0.122799344 0.06184563 0.05586083 0.023205983 -0.1345515
0.032136608 0.06501191 0.01825637 -0.00694597 0.14359972 0.03084779 -0.053191293 -0.031102005
0.17269777 -0.096588746 -0.03837274 0.2030812 0.20475209 0.029589858 -0.06472225 -0.095124714
0.023257406 0.13006829 -0.19497214 -0.09335363 -0.19471332 0.21964398 -0.068229154 0.040171873
0.1462258 0.047837473 -0.08881258 -0.0781907 -0.1309914 -0.18382502 -0.108975425 0.07245786
-0.03250371 0.14500454 -0.0033796125 0.18371803 0.052024838 0.05291269 -0.12911718 -0.102599576
0.023490932 0.0922069 0.028485887 0.059696425 0.0014088618 -0.010872375 0.052001454 0.09792969
-0.12823246 0.23616327 0.16372932 -0.042223234 -0.0899548 0.09491645 -0.14732604 -0.05034599
-0.22806731 0.11015266 -0.120957494 0.09004026 -0.036870923 -0.06730098 -0.1061399 0.07901967
0.05320031 -0.097970076 -0.051999353 0.042521566 0.20843825 -0.11945569 0.07170394 0.13946138
0.013350048 0.005194199 -0.04687777 0.1050476 -0.18021461 0.08882656 -0.006636083 -0.17138053
0.1814493 0.21516782 0.19626674 0.055556923 -0.09159184 0.25576487 -0.13175222 -0.005441966
-0.14303288 0.16994232 0.0129880505 -0.052468527 -0.06951085 0.09332419 0.17504568 0.085012116
0.1488403 0.069387116 -0.14184219 -0.015721843 -0.07445511 0.13077983 0.032451905 0.09754687
0.13301672 0.080587015 0.040009834 0.00090454327 0.12849905 -0.074274674 -0.124590345 -0.15566973
-0.067218326 -0.004413331 0.08388078 -0.070605524 0.027729973 0.120062284 -0.31702912 -0.14455447
0.08011718 0.031919416 0.15472253 0.178358 0.11458647 0.07178042 0.10504988 0.12676834
-0.1324902 0.043218974 0.15606707 0.090887815 0.019750977 0.028798658 -0.051547352 0.18541838
0.15253347 -0.10615599 0.15294215 -0.08774325 -0.12082081 -0.15083478 0.07551597 -0.1227146
00000000: 5220 afbc 5f67 753e 9dc4 8d3d 8859 c4bd
00000010: 823c d1bc 7fdb 743e b7c6 21be 5115 19bd
00000020: 7d1c 933d d85b d23c 6f2b 213c a121 603e
00000030: d0cc 553c de13 aebc 8a94 a5bd d822 bdbd
00000040: 906b 223d dfda 623e 4533 2bbe 77e1 b73d
00000050: 2772 af3d 9ae0 f73d 772b 0b3d 9b0e b03d
00000060: 4508 403e 22e1 9ebc 0a14 8ebd f59b 47be
00000070: 681c c5bc b9b7 de3b 86e4 0b3e 645b 1e3b
00000080: 55a2 35bd c400 553e 2379 da3c 4d6e 17be
00000090: 105e 443c 2aed 9f3d 4826 183e 3288 373e
000000a0: 2de9 2d3d a151 7a3c e224 023e 6e51 563e
000000b0: c873 79bd 5f16 d33d cc8b 593e 2121 0abe
000000c0: cb04 97bd a7fd ce3d f856 5abd 9fee 8b3d
000000d0: 37a3 cd3d e7af f2bd 7fa9 2b3e 72ed 603d
000000e0: 9764 713d 0e79 0a3e f9d4 03be 406a 413e
000000f0: 8289 84bd e66b c9bb dc3f abba a46e 0d3c
00000100: 0d96 223e 5988 ef3d 32d3 fb3b 9ba6 a1bc
00000110: d3f3 cabd 405a 0a3e d937 c8bc a36a 203e
00000120: ec06 c4bd 5d97 95bd 5bad abbd 2835 aa3d
00000130: f7bc 12be c3f8 55be 7fef ae3c e8b3 293e
00000140: f11e 0abe 6d16 143e 2fcf 533e 1d71 60bc
00000150: 883c d53d f8c4 08be 49b1 2cbe 7654 95bc
00000160: faf3 c23d 765d 52be d3de 4f3d 59e9 58be
00000170: aa2a c73d 6316 7abd 8a57 db3c 44e1 b9bd
00000180: d86a 483e e212 1b3e c5e4 513e 11cc 4c3e
00000190: ac63 f03d baf8 7c3d cfc6 fbbd a123 28be
000001a0: 4960 fb3d a939 21be a984 b63d 397e fbbd
000001b0: d851 7d3d 53ce 643d 791a be3c dec7 09be
000001c0: ada1 033d f724 853d 628e 953c 059b e3bb
000001d0: ce0b 133e 81b4 fc3c 1ddf 59bd a2c9 febc
000001e0: afd7 303e 52d0 c5bd bc2c 1dbd 85f4 4f3e
000001f0: 88aa 513e 6e66 f23c 198d 84bd bfd0 c2bd
00000200: 5186 be3c 9f30 053e c7a6 47be 3030 bfbd
00000210: ee62 47be 5aea 603e babb 8bbd 438b 243d
00000220: 37bc 153e 3af1 433d 5fe3 b5bd 7222 a0bd
00000230: 9c22 06be a03c 3cbe 822e dfbd c964 943d
00000240: 9c22 05bd 127c 143e 7d7c 5dbb 9420 3c3e
00000250: ff17 553d faba 583d 4b37 04be ba1f d2bd
00000260: 0e70 c03c f9d6 bc3d 3c5b e93c 3d84 743d
00000270: 8fa9 b83a 0c22 32bc 7aff 543d 5c8f c83d
00000280: 5f4f 03be c9d4 713e a9a8 273e 45f2 2cbd
00000290: 393a b8bd 8e63 c23d a3dc 16be 9937 4ebd
000002a0: 7a8a 69be b897 e13d 90b8 f7bd 0767 b83d
000002b0: f705 17bd 19d5 89bd e05f d9bd 11d5 a13d
000002c0: 91e8 593d 89a4 c8bd 46fd 54bd 182b 2e3d
000002d0: d670 553e 2fa5 f4bd 84d9 923d f7ce 0e3e
000002e0: 29ba 5a3c 1934 aa3b e802 40bd 3223 d73d
000002f0: 2e8a 38be b3ea b53d 8073 d9bb 617e 2fbe
00000300: d8cd 393e f454 5c3e 26fa 483e a88f 633d
00000310: 8194 bbbd 9df3 823e 0eea 06be 8552 b2bb
00000320: 3677 12be 5c05 2e3e d5cb 543c 3de9 56bd
00000330: b45b 8ebd c120 bf3d 2d3f 333e d51a ae3d
00000340: 9769 183e d51a 8e3d 143f 11be 18cb 80bc
00000350: ec7b 98bd 26eb 053e 4aec 043d a7c6 c73d
00000360: 8935 083e ce0a a53d 5ae1 233d df1e 6d3a
00000370: 4195 033e 521d 98bd 3929 ffbd e367 1fbe
00000380: c3a9 89bd b49d 90bb b0c9 ab3d a199 90bd
00000390: f829 e33c 37e3 f53d a451 a2be 1606 14be
000003a0: 7a14 a43d efbd 023d 956f 1e3e 7ba3 363e
000003b0: 50ac ea3d 9d01 933d 6424 d73d 8fcf 013e
000003c0: 83ab 07be 6106 313d 0cd0 1f3e 6423 ba3d
000003d0: cdcc a13c 2aeb eb3c 5123 53bd 51de 3d3e
000003e0: bc31 1c3e 5068 d9bd de9c 1c3e bcb2 b3bd
000003f0: e770 f7bd 6f74 1abe 1ea8 9a3d cb51 fbbd

decoder.2.bias f4 [64]
0.12854153 0.061979894 0.23033203 -0.10949982 0.025114242 0.04202573 -0.113595866 0.055219356
0.20553307 0.1585175 0.030161997 0.09023159 0.047285188 -0.06761608 0.030195596 -0.100272894
0.15078613 -0.020750066 -0.102004796 -0.082065 0.27063915 -0.15787536 -0.06462201 -0.12585758
0.160109 0.117910296 0.028320866 0.04077536 -0.16796169 -0.02199744 -0.14829502 0.25743932
-0.0052044806 0.24846393 0.0005975277 0.015792964 0.010087603 0.08202333 -0.07950206 0.12824945
-0.07292704 0.06751632 -0.14618716 -0.019271389 0.13849412 0.03784296 0.029611709 0.12947837
0.18837184 0.059893895 0.14718562 0.22937982 0.20863768 0.18553548 0.19253375 -0.0345483
0.13609299 -0.074384294 0.07727621 0.097104676 0.05846473 0.17111845 0.012096877 -0.05506491
00000000: 64a0 033e a1de 7d3d 29dc 6b3e 7141 e0bd
00000010: 62bc cd3c 2c23 2c3d f3a4 e8bd b12d 623d
00000020: 4377 523e 6952 223e 4b16 f73c 57cb b83d
00000030: 1dae 413d 4d7a 8abd c15c f73c e05b cdbd
00000040: ae67 1a3e 0bfc a9bc e4e7 d0bd b211 a8bd
00000050: 3791 8a3e 14aa 21be 8b58 84bd cfe0 00be
00000060: 9df3 233e f47a f13d 2901 e83c 1004 273d
00000070: 26fe 2bbe fa33 b4bc a6da 17be 16cf 833e
00000080: 598a aabb 546d 7e3e 68a3 1c3a 3f60 813c
00000090: 7946 253c d9fb a73d fad1 a2bd d353 033e
000000a0: c65a 95bd ff45 8a3d 16b2 15be 08df 9dbc
000000b0: 67d1 0d3e 3801 1b3d 4194 f23c fa95 043e
000000c0: 8ce4 403e 4d53 753d d4b7 163e 8be2 6a3e
000000d0: 1ea5 553e 03fd 3d3e 9127 453e 8582 0dbd
000000e0: f65b 0b3e cb56 98bd fd42 9e3d d1de c63d
000000f0: b678 6f3d ad39 2f3e fb31 463c be8b 61bd
