Save_Models/model-lat20.pth (torch, 195894 bytes, 16 tensors)

encoder.0.weight f4 [128, 99]
0	0x3d8d088f	0.06886398
1	0x3dada40b	0.08478554
2	0x3d0f636d	0.03500693
3	0xbdaed478	-0.08536619
4	0x3d44ff21	0.048094872
5	0xbb8fd436	-0.004389311
6	0xbda87498	-0.082253635
7	0xbdb5145c	-0.08841774
8	0xbd820bf2	-0.06349935
9	0xbd860b87	-0.065451674
10	0x3d2fe5ce	0.04294377
11	0x3d954664	0.072888166
12	0x3c68c0a1	0.014206083
13	0xbcc38426	-0.023866724
14	0x3cbc9794	0.023021497
15	0xbd1b25ab	-0.03787772
16	0xbd0ac70c	-0.033881232
17	0xbb5eeaee	-0.003401454
18	0x3c0f3c7d	0.008742449
19	0x3c201f3c	0.009773072
20	0x3daa37c1	0.083114155
21	0x3d7abc29	0.0612146
22	0x3cdd9da9	0.027052717
23	0xbc68efab	-0.014217298
24	0x3d892c04	0.066978484
25	0xbc78bf88	-0.015182383
26	0xbb8184b4	-0.003952587
27	0xbdb2392f	-0.08702313
28	0x3cbe4750	0.023227364
29	0xbdb0e820	-0.08638024
30	0x3db915f3	0.090373896
31	0xbc68b5a4	-0.014203463
32	0x3da78275	0.081791796
33	0x3dd28649	0.10279519
34	0xbd1d7eb9	-0.03845093
35	0x3d771247	0.060320165
36	0xbd7b7a11	-0.06139571
37	0xbd74a600	-0.059728622
38	0x3d9dfba6	0.07714014
39	0xbcea105f	-0.02857226
40	0x3bc475ef	0.005995504
41	0xbd9edd07	-0.07757001
42	0x3daa929b	0.08328744
43	0x3d1f69f3	0.0389194
44	0x3d3f79a4	0.046746865
45	0x3d94059c	0.072276324
46	0x3dd41c38	0.10356945
47	0xbd7925a0	-0.060826898
48	0xbd96b948	-0.07359558
49	0xbc9a420a	-0.018830318
50	0x3c3c176d	0.0114801945
51	0xbd5cb408	-0.05388263
52	0xbda99146	-0.08279662
53	0x3d38e40c	0.045139357
54	0xbd46f293	-0.04857118
55	0xbc0e4dc5	-0.008685534
56	0x3daca27c	0.08429429
57	0x3d1ceefb	0.038313847
58	0xbd499913	-0.04921825
59	0x3caaf7ea	0.020870168
60	0x3d8d5bd5	0.06902281
61	0x3d5e66e7	0.054297354
62	0xbd0a80b7	-0.03381416
63	0x3da639e3	0.0811651
64	0x3d611a9a	0.05495701
65	0x3db78961	0.0896175
66	0x3bf3f002	0.0074443826
67	0x3de7acc8	0.11312252
68	0x3d1d513e	0.038407557
69	0x3dadb11d	0.08481047
70	0x3d42806b	0.04748575
71	0x3db70271	0.089360125
72	0x3d59bf7d	0.053161133
73	0xbd9e7bd3	-0.07738461
74	0x3dc906b7	0.09815734
75	0x3d6958cb	0.056969445
76	0x3ca446db	0.020053318
77	0x3de200f5	0.11035339
78	0xbd2f595e	-0.042809837
79	0x3d9b7df3	0.07592382
80	0x3c98dddf	0.018660484
81	0x3ca55c2d	0.020185554
82	0xbd454c9c	-0.048168764
83	0xbd1271e6	-0.035753153
84	0xbd4d4be4	-0.050121203
85	0x3d9c69cf	0.07637369
86	0x3de23463	0.11045148
87	0xbccae1c8	-0.024765864
88	0xbbfcd910	-0.0077163056
89	0xbc4bbe40	-0.012435496
90	0xbd0927b2	-0.033485122
91	0xbb874f42	-0.0041293213
92	0xbdb6fe80	-0.08935261
93	0xbc34bc57	-0.011031232
94	0xbd6f09f2	-0.058359094
95	0x3c08a890	0.00834097
96	0xbd080fcc	-0.03321819
97	0xbd5d46a3	-0.054022443
98	0xbd38ae13	-0.045087885
99	0xbdbb9f7c	-0.091612786
100	0x3d9b2eb0	0.07577264
101	0x3dc6db26	0.09709768
102	0x3d69bef5	0.057066876
103	0xbd658791	-0.05603749
104	0x3d30b8cd	0.04314499
105	0xbda4f12c	-0.080538124
106	0xbd762f0b	-0.060103457
107	0xbd4b3146	-0.049607538
108	0xbd0f777d	-0.035026062
109	0x3b9f4a62	0.004861162
110	0xbd882151	-0.066469796
111	0xbd5a87a6	-0.05335202
112	0xbcc5555f	-0.02408856
113	0xbd2597be	-0.040427916
114	0x3d2151c3	0.039384615
115	0x3d1865bf	0.037206408
116	0xbd204752	-0.039130516
117	0x3dafb7de	0.08579992
118	0xbd3fe70e	-0.04685121
119	0x3bcc4418	0.0062337033
120	0xbcf86744	-0.030322678
121	0xbd7d131a	-0.061785795
122	0x3d7912be	0.06080889
123	0xbd10b67c	-0.03533028
124	0xba87fe58	-0.0010375483
125	0x3cb3b4b0	0.021936744
126	0xbc99db40	-0.018781304
127	0x3ce491a4	0.027901478
128	0x3dae2922	0.08503939
129	0x3da91c13	0.08257308
130	0x3d5db008	0.054122955
131	0x3d427bb4	0.047481254
132	0xbcea460a	-0.02859785
133	0x3d9616e5	0.073285855
134	0x3ded3501	0.11582375
135	0xbd884a91	-0.066548474
136	0xbd26282e	-0.040565662
137	0x3d9e91de	0.07742666
138	0x3d79d588	0.060994655
139	0x3df5d8f6	0.12004273
140	0x3dee02ce	0.11621629
141	0xbc1a2cac	-0.009410065
142	0xbd61bff0	-0.055114686
143	0xbd945f0e	-0.07244693
144	0xbd10a6a6	-0.03531518
145	0x3d178663	0.036993396
146	0xbd80a39b	-0.06281205
147	0xbcc9d0b4	-0.02463565
148	0xbd2ed684	-0.042685047
149	0x3e02f856	0.12790045
150	0x3b7af5bd	0.0038293444
151	0x3cde0022	0.027099673
152	0xbbca306a	-0.006170322
153	0x3dfa760c	0.12229547
154	0x3da2ac4a	0.07943018
155	0x3dcaf422	0.09909846
156	0x3da6c4c0	0.08142996
157	0x3dba0027	0.0908206
158	0x3dc47952	0.095934525
159	0xbcf6dfd3	-0.030136025
160	0xbd2faf80	-0.04289198
161	0x3d1837df	0.037162658
162	0xbd835901	-0.064134605
163	0x3d571d16	0.052517973
164	0x3d7c03a0	0.061526895
165	0x3c3a60e0	0.011375636
166	0xbc0a81e0	-0.008453816
167	0x3d761156	0.060075127
168	0x3d7347e4	0.059394732
169	0x3dafe41c	0.0858843
170	0x3c2fb0e0	0.010723323
171	0x3ceaa672	0.02864382
172	0x3d8e2364	0.06940344
173	0x3cdc07fc	0.026859276
174	0xbc97ff2a	-0.018554289
175	0x3dec049e	0.11524318
176	0x3d81a91d	0.06331084
177	0xbc50ec75	-0.012751688
178	0xbc869fab	-0.016433557
179	0x3d8646d9	0.06556482
180	0xbce66d67	-0.028128339
181	0xbb2e97ff	-0.002664089
182	0xbc67cca9	-0.014147916
183	0xbc5ef5c6	-0.013608402
184	0x3d22b790	0.03972584
185	0x3d604aa8	0.054758698
186	0x3deadb1a	0.114675716
187	0x3d5ddd80	0.054166317
188	0xbd95b595	-0.07310025
189	0x3d1e98af	0.03871983
190	0x3d58e77e	0.052955143
191	0x3c9efcb0	0.0194076
192	0x3d43a086	0.04776051
193	0xbda8c610	-0.082409024
194	0xbd3464cb	-0.044041436
195	0x3aee0691	0.0018159916
196	0xbb256480	-0.0025236905
197	0x3d4439d4	0.04790671
198	0x3d851f9c	0.0650017
199	0x3dc20b62	0.09474827
200	0xbaccadf9	-0.0015615813
201	0xbd9997d6	-0.074996635
202	0x3d299e9a	0.04141102
203	0xbd60cdc2	-0.054883726
204	0x3d2cd81d	0.04219829
205	0xbdb50a0a	-0.088398054
206	0xbd2cb0b5	-0.04216071
207	0xbde19ed7	-0.110166244
208	0xbd7a85cd	-0.06116276
209	0x3d7a75f6	0.061147653
210	0xbd6be472	-0.05759091
211	0xbc085a42	-0.0083223
212	0x3c38bcaa	0.01127545
213	0x3d2c850a	0.042119063
214	0x3b8a9151	0.004228749
215	0xbda3e360	-0.08002353
216	0xbde83e59	-0.11340017
217	0xbdabbca0	-0.08385587
218	0xbda67a4e	-0.081287965
219	0xbde75ddb	-0.112971984
220	0x3d8e62b2	0.069524184
221	0x3caf01b1	0.021363111
222	0xbd8d70f7	-0.06906312
223	0x3d89fb45	0.06737379
224	0xb8bbcfc2	-8.955553e-05
225	0xbce4c2c0	-0.027924895
226	0xbc242d78	-0.010020606
227	0xbdc7207e	-0.09722994
228	0x3db1d6bf	0.08683538
229	0x3d842581	0.06452466
230	0x3c84b823	0.016201084
231	0xbd93fcfe	-0.07225989
232	0xbdbcf9d2	-0.09227337
233	0xbd2bba59	-0.04192576
234	0xbcf63f26	-0.030059408
235	0xbdc75f8f	-0.09735023
236	0xbd7e890d	-0.06214242
237	0xbc1b9f81	-0.009498478
238	0xbd842f1c	-0.06454298
239	0x3db6f999	0.08934326
240	0x3d8f2df6	0.06991188
241	0x3d9c32d4	0.07626882
242	0xbdc49714	-0.09599128
243	0x3da78b21	0.081808336
244	0xbd907cac	-0.07055029
245	0x3dd7e7cf	0.10542261
246	0xbd712481	-0.058872703
247	0xbd772d20	-0.06034577
248	0x3ca36299	0.019944476
249	0xbceea7f7	-0.029132826
250	0xbc5bc8b7	-0.013414553
251	0x3de9e38a	0.11420353
252	0x3a38720e	0.00070360384
253	0xbd959ba5	-0.073050775
254	0x3d322e0c	0.043500945
255	0xbc81d767	-0.015849782

encoder.0.bias f4 [128]
0	0xbd72e12e	-0.05929678
1	0xbdeca2d6	-0.11554496
2	0xbca6446c	-0.020296298
3	0xbe039342	-0.12849143
4	0xbdc8e7cd	-0.098098375
5	0xbdfbff35	-0.12304536
6	0xbd15c478	-0.03656432
7	0xbdab8e61	-0.08376766
8	0x3d4d2d19	0.050091837
9	0xbe6aa9a6	-0.22916278
10	0xbe2f2baa	-0.171065
11	0xbd6b8af0	-0.057505548
12	0x3c3426de	0.010995595
13	0xbc8690d6	-0.016426485
14	0xbe3adedf	-0.18249081
15	0xbe3e4761	-0.18581916
16	0x3cd0e7bc	0.025501125
17	0xbd85dcc1	-0.06536246
18	0xbc538416	-0.01290991
19	0xbdf556ca	-0.11979444
20	0xbdd1c88e	-0.10243331
21	0x3d176b26	0.03696742
22	0xbdc2b5fb	-0.09507366
23	0xbe2cdaac	-0.16880292
24	0xbe2fc925	-0.17166574
25	0xbe065616	-0.13118777
26	0xbe119b05	-0.14219292
27	0xbd2b285b	-0.041786533
28	0xbc93952e	-0.01801547
29	0xbd2d5979	-0.042321656
30	0xbe3c7866	-0.18405303
31	0xbc93deea	-0.01805063
32	0x3b5803e6	0.0032961308
33	0xbc2e4b36	-0.010638049
34	0xbe0e8621	-0.13918354
35	0xbbc4ec68	-0.006009627
36	0xbeaf8750	-0.34282923
37	0xbd9b703b	-0.07589766
38	0xbe38e9f9	-0.18058003
39	0xbdc1dfbc	-0.09466502
40	0xbe1b4b46	-0.15165433
41	0xbd887b5a	-0.066641524
42	0xbe1a582e	-0.150727
43	0xbe02d11c	-0.12775081
44	0xbe0b1fe9	-0.13586392
45	0x3c554e25	0.013019119
46	0xbde4098e	-0.11134635
47	0xbc4c9184	-0.0124858655
48	0x3c82496d	0.015904153
49	0xbcd801ed	-0.026368106
50	0xbdf2056d	-0.11817441
51	0xbe1fafbc	-0.15594381
52	0xbeac6df1	-0.3367763
53	0xbd8acf00	-0.06777763
54	0xba4da6e1	-0.0007844996
55	0xbdf8847e	-0.12134646
56	0xbe1944dd	-0.14967676
57	0xbe2ba900	-0.16763687
58	0xbce9da4d	-0.028546477
59	0xbe06e15d	-0.13171907
60	0xbb387e47	-0.002815144
61	0xbcbb3788	-0.022853628
62	0xbb267da6	-0.0025404482
63	0xbde56394	-0.11200634
64	0xbd7e713d	-0.06211971
65	0x3d076cb8	0.033062667
66	0x3e41aacd	0.18912812
67	0x3c45ad14	0.012065191
68	0xbb7f3e2e	-0.0038946974
69	0xbd3873fc	-0.045032486
70	0x3da00216	0.07812898
71	0xbeaff5a5	-0.343671
72	0xbd457a01	-0.048212055
73	0xbe0cb14d	-0.1373951
74	0xbe13b837	-0.14425741
75	0x3b7c1316	0.0038463525
76	0x3c0ba074	0.008522142
77	0xbe31a606	-0.17348489
78	0xbdfa0d5a	-0.12209578
79	0xbd9ec624	-0.07752636
80	0xbd847a83	-0.0646868
81	0xbccb1f1b	-0.024795106
82	0x3cf79142	0.030220632
83	0xbd9eb165	-0.07748679
84	0xbcc5b9b2	-0.024136398
85	0xbe2861d2	-0.16443565
86	0x3ca3eaa3	0.020009344
87	0xbe330f1e	-0.17486235
88	0xbce0834b	-0.027406355
89	0x3d7d1462	0.061787017
90	0x3cb42ccc	0.021994017
91	0xbd963eb3	-0.07336178
92	0xbd98757c	-0.07444283
93	0xbdb61d58	-0.088923156
94	0xbcf5b5fb	-0.029994002
95	0xbe3e07be	-0.18557641
96	0xbc2251f1	-0.009907232
97	0xbdb97f21	-0.09057451
98	0xbd9038b8	-0.07042068
99	0xbe23fc05	-0.16014107
100	0xbdaad2d3	-0.08340993
101	0xbe09077b	-0.1338176
102	0xbdfccedf	-0.12344145
103	0xbe12f2be	-0.14350411
104	0xbe19e49c	-0.15028614
105	0x3d7a668a	0.061132945
106	0x3b73ea3e	0.0037218477
107	0xbe335687	-0.17513476
108	0xbdf51e3b	-0.11968657
109	0xbe19e840	-0.15030003
110	0xbd1ebd52	-0.03875477
111	0xbde536e1	-0.11192108
112	0x3ccd62bc	0.025071494
113	0xbcd9be6e	-0.026580062
114	0xbdab9ab4	-0.08379117
115	0xbe2c8fa2	-0.16851667
116	0xbe4b3754	-0.19845325
117	0xbca4ec76	-0.020132285
118	0xbe20f93d	-0.15720077
119	0xbe5ccdaf	-0.21562837
120	0xbdcb35f5	-0.09922401
121	0xbbf6ac9e	-0.007527902
122	0x3bc4611c	0.0059930217
123	0xbe1fcf23	-0.1560636
124	0xbe237f9e	-0.15966651
125	0xbe213aa1	-0.15745021
126	0xbd10236f	-0.035190042
127	0xbdfe8c17	-0.12429064

encoder.3.weight f4 [64, 128]
0	0xbd2c8163	-0.04211558
1	0x3d89daaf	0.06731164
2	0xbe8f64a5	-0.28006473
3	0xbd0c1f9b	-0.03420983
4	0xbaf57692	-0.0018727353
5	0x3c9bc91b	0.019016793
6	0xbd5d654e	-0.05405169
7	0xbcb6ca6c	-0.02231332
8	0xbdc34dd7	-0.09536331
9	0x3dd4b9dc	0.10387012
10	0xbdc3493e	-0.09535454
11	0xbd497bf0	-0.04919046
12	0x3db800f8	0.0898456
13	0xbd574901	-0.052559856
14	0xbdc61aab	-0.09673055
15	0x3d6845ea	0.0567073
16	0x3d204708	0.03913024
17	0xbd99666c	-0.074902385
18	0xbd1133b6	-0.035449706
19	0xbc4d5127	-0.012531555
20	0x3d35e7a3	0.04441036
21	0xbdb1438e	-0.08655463
22	0x3cc1d67f	0.02366185
23	0xbcd74b56	-0.02628104
24	0xbde5623d	-0.11200378
25	0xbd131495	-0.0359083
26	0x3d856023	0.06512477
27	0xbd05b861	-0.03264654
28	0xbe6986de	-0.22805354
29	0x3d111387	0.035419013
30	0xbcd6a46b	-0.026201447
31	0x3d185eac	0.03719966
32	0x3c2752d6	0.010212621
33	0x3ddbe9a5	0.107379235
34	0x3dbbc634	0.091686636
35	0xbd99cabd	-0.075093724
36	0xbd59b552	-0.053151436
37	0xbd0118ef	-0.03151792
38	0x3d958598	0.073008716
39	0xbba36eeb	-0.0049875877
40	0x3d2666bf	0.04062533
41	0xbd47c0f4	-0.048768
42	0xbd5968fc	-0.053078637
43	0x3d077efb	0.033080082
44	0x3d8ddfb2	0.06927432
45	0x3a1b15b4	0.0005916015
46	0xbda46abf	-0.08028173
47	0x3d895523	0.06705692
48	0xbd52ff0f	-0.051512774
49	0x3d6d712c	0.057969257
50	0xbdbeed98	-0.09322661
51	0xbda47d24	-0.08031681
52	0x3df29cab	0.11846288
53	0xbd39e431	-0.045383636
54	0xbc83bdad	-0.016081655
55	0x3cc7f313	0.024407899
56	0xbd823648	-0.063580096
57	0x3d20f537	0.039296355
58	0xbc05bdf2	-0.008162962
59	0x3c296d22	0.010340961
60	0xbbfad73d	-0.007655053
61	0xbc2d3b02	-0.010573151
62	0x3d0bea4d	0.034158994
63	0x3d274aee	0.040842943
64	0x3d191f78	0.037383527
65	0xbe3e86c8	-0.18606102
66	0xbd88aad9	-0.066732116
67	0xbcf83bec	-0.03030201
68	0xbe173bc4	-0.14768893
69	0xbd65b075	-0.056076486
70	0xbd9b9439	-0.075966306
71	0x3b72c19c	0.003704167
72	0xbdcb8320	-0.099371195
73	0x3cb1c224	0.021699019
74	0xbd3f1786	-0.046653293
75	0xbc933976	-0.017971735
76	0xbdbdc7a5	-0.09266595
77	0x3d83bdd0	0.06432688
78	0x3d9a7061	0.07540966
79	0xbd815fe8	-0.06317121
80	0xbd104092	-0.03521783
81	0xbccdb844	-0.025112279
82	0x3d3d8a36	0.046274386
83	0xbda82673	-0.082104586
84	0xbde13cea	-0.109979466
85	0xbc95ab76	-0.018270236
86	0xbd695ff3	-0.05697627
87	0x3c8b94de	0.017038759
88	0xbcc2a94b	-0.023762366
89	0xbe2dc42a	-0.16969362
90	0xbd7ac4ca	-0.06122283
91	0x3cbbc989	0.022923248
92	0xbd698e62	-0.057020552
93	0x3d3aa758	0.045569748
94	0xbd3d6b9c	-0.046245202
95	0xbdc584db	-0.09644481
96	0x3d965d97	0.073420696
97	0x3d96c0b3	0.07360973
98	0x3d31765c	0.043325767
99	0xbd648bbb	-0.05579732
100	0xbdf798be	-0.1208968
101	0x3d4105dc	0.04712473
102	0x3dac551f	0.08414673
103	0x3d4f6543	0.05063368
104	0x3d28dac0	0.04122424
105	0xbdeceef4	-0.11569014
106	0xbe41ae1e	-0.18914077
107	0xbda0d7dc	-0.07853672
108	0xbda9b795	-0.082869686
109	0xba9d628f	-0.0012007522
110	0xbb6f55aa	-0.0036519566
111	0xbdb9f709	-0.09080321
112	0xbd1bdcec	-0.038052484
113	0xbd83ad17	-0.06429499
114	0x3db84f1a	0.089994624
115	0x3dc2824d	0.09497509
116	0xbd3ca530	-0.046055973
117	0xbce22679	-0.027606236
118	0x3d68993a	0.056786753
119	0xbe615ea8	-0.22008765
120	0xbd3082b5	-0.043093402
121	0xbc14ead3	-0.00908919
122	0xbd87939b	-0.066199504
123	0x3ca17651	0.019709738
124	0x3d7c1fb3	0.06155367
125	0xbc9233e3	-0.017847007
126	0x3de65d2e	0.11248241
127	0xbcf16b53	-0.029470121
128	0xbd2e9609	-0.042623553
129	0xbd313a8f	-0.043268736
130	0x3c8a9a4d	0.01691928
131	0xbd409fbd	-0.04702734
132	0x3e04db4d	0.12974282
133	0x3e15a9f8	0.14615619
134	0x3d00b47d	0.031422127
135	0x3dbd5bb9	0.0924601
136	0x3dbc6597	0.09199064
137	0xbd47ed4a	-0.04881028
138	0xbbb0148e	-0.005373544
139	0x3dbfc550	0.09363806
140	0xb9eb1652	-0.00044839323
141	0x3cd74794	0.026279248
142	0x3cabad7f	0.020956753
143	0x3d48ca3e	0.049021
144	0xbd00b3ee	-0.031421594
145	0x3e06d326	0.13166484
146	0x3d450114	0.04809673
147	0xbbd87ac6	-0.0066064326
148	0x3dafb766	0.08579902
149	0xbd1789de	-0.036996715
150	0xbccdf5c3	-0.025141602
151	0x3ce41436	0.027841669
152	0x3dc915a3	0.0981858
153	0x3e1d0f9f	0.1533799
154	0xbd6e5e24	-0.05819525
155	0xbe7391e5	-0.23786123
156	0x3d79d930	0.06099814
157	0x3c4c5942	0.012472453
158	0x3bb6469d	0.005562617
159	0x3beec394	0.0072864983
160	0xbd4d9579	-0.050191376
161	0xbc3b391d	-0.011427191
162	0x3c8a2d49	0.016867297
163	0xbc8dfabd	-0.017331475
164	0xbdb04bdd	-0.0860822
165	0x3b01abb8	0.001978619
166	0x3cb55d3a	0.02213918
167	0x3d3c5856	0.04598268
168	0x3dd6ea80	0.10493946
169	0x3dcc6594	0.09980312
170	0xbe577768	-0.21041644
171	0x3dc1a046	0.09454398
172	0xbd2d8970	-0.0423674
173	0x3ccd9f56	0.025100391
174	0x3d2025a0	0.039098382
175	0x3b3ae01f	0.0028514934
176	0xbccf8c25	-0.02533538
177	0x3dc6ce37	0.09707301
178	0xbd4b46e1	-0.049628142
179	0x3da7ce13	0.081936024
180	0x3c9b979f	0.018993197
181	0x3d750795	0.059821684
182	0x3d4e3f2b	0.05035321
183	0xbd38591f	-0.045006867
184	0x3db583ca	0.088630274
185	0xbcdc6b52	-0.026906643
186	0xbd05b64e	-0.032644562
187	0x3d07edd2	0.033185787
188	0x3d65211b	0.055939775
189	0x3c97fac7	0.018552197
190	0xbd5fbf31	-0.054625694
191	0xbda29c46	-0.07939963
192	0xbdb8f391	-0.090308316
193	0x3d91cdc7	0.07119327
194	0x3dad25fe	0.08454512
195	0xbd6872d5	-0.056750137
196	0xbb7a81d6	-0.003822436
197	0xbd812536	-0.063059255
198	0x3c188c0b	0.009310733
199	0x3cab05ba	0.020876754
200	0xbccc01f0	-0.024903268
201	0xbd5c2a0f	-0.053751048
202	0xbd71823e	-0.0589621
203	0xbcca4dc4	-0.024695285
204	0xbd680f3d	-0.056655157
205	0x3db7b5f1	0.089702494
206	0x3b4dbcd7	0.0031393075
207	0x3cbbab7a	0.022908915
208	0xbd5653c8	-0.052325994
209	0x3cc45b51	0.023969324
210	0xbc86a078	-0.01643394
211	0xbe2a5b01	-0.16636278
212	0x3cbea2ee	0.02327105
213	0xbe27d5e9	-0.16390194
214	0x3b37fbb3	0.0028073608
215	0xbce8e557	-0.02842967
216	0x3dd0fd63	0.1020458
217	0xbd0c3a55	-0.034235317
218	0xbcf993f5	-0.03046606
219	0xbd06e884	-0.032936588
220	0x3a49d80e	0.0007699736
221	0xbd5293d9	-0.05141053
222	0x3d8604a6	0.06543855
223	0x3dc641f0	0.09680545
224	0x3d086758	0.03330168
225	0xbd87e19e	-0.0663483
226	0xbd60fe78	-0.05493018
227	0xbd652340	-0.05594182
228	0xbe5bdce4	-0.21470982
229	0x3d8e7de9	0.06957609
230	0xbd5858d4	-0.052819088
231	0xba1c8d34	-0.00059719686
232	0x3d85a7e3	0.065261625
233	0xbd29ec3b	-0.041485053
234	0xbe0ab2fe	-0.13544843
235	0xbd11e1a8	-0.035615593
236	0x3d920dcd	0.071315385
237	0x3da15ae9	0.07878668
238	0x3d0a7837	0.033806052
239	0x3d4b57ed	0.0496444
240	0x3d3acaa6	0.045603417
241	0x3d5168f7	0.051125493
242	0x3da9e964	0.08296469
243	0x3da8b704	0.082380325
244	0x3d8c7eaa	0.06860097
245	0x3d05cfee	0.032669
246	0xbd99cb72	-0.07509507
247	0xbc611025	-0.013736759
248	0x3d0dfae3	0.034663092
249	0x3c869235	0.016427139
250	0xbd6ad5d3	-0.057332825
251	0xbdb9beab	-0.0906957
252	0x3d760118	0.060059637
253	0x3c92c06f	0.017914025
254	0x3d1e298d	0.038613845
255	0xbda002e5	-0.07813052

encoder.3.bias f4 [64]
0	0xbdba2295	-0.09088627
1	0xbccf47a4	-0.025302716
2	0x3cdd7d3a	0.027037252
3	0xbd1a4168	-0.037660033
4	0xbd2f1ee4	-0.04275407
5	0xbd4cd73e	-0.05000996
6	0x3d1380d9	0.03601155
7	0x3ca57be6	0.020200681
8	0xbcc109c3	-0.023564225
9	0xbe064bcf	-0.13114856
10	0xbd927dda	-0.071529105
11	0x3d799b22	0.06093896
12	0x3d6669f5	0.056253392
13	0x3d47bf6d	0.048766542
14	0x3cbecd58	0.023291275
15	0xbd9e9458	-0.07743138
16	0xbba92ef0	-0.005163066
17	0xbb758232	-0.0037461636
18	0xbd90970c	-0.0706006
19	0x3d26b752	0.04070217
20	0x3d6e1b33	0.058131408
21	0xbd927c3f	-0.07152604
22	0xbddf70e5	-0.10910205
23	0xbd9f73c8	-0.077857554
24	0xbd9ad9fb	-0.07561108
25	0x3d783e3d	0.06060623
26	0x3d17ec9c	0.037090883
27	0xbd9031c9	-0.07040746
28	0xbd37ef8d	-0.044906188
29	0x3cd70a95	0.026250163
30	0xbe799ea0	-0.24376917
31	0xbd77b799	-0.060477827
32	0xbd94100b	-0.072296225
33	0xbe3fea4b	-0.1874172
34	0xbe06ed38	-0.1317643
35	0xbdb25e56	-0.087093994
36	0x3d6a2e3e	0.057173006
37	0x3c3e3949	0.0116103375
38	0x3c7b9a84	0.015356664
39	0xbc6fbf6f	-0.014633044
40	0xbda68311	-0.08130468
41	0xbc182a4d	-0.009287429
42	0xbce130b4	-0.027489044
43	0xbc3fae0e	-0.011699213
44	0xbdc9402d	-0.09826694
45	0xbdc36e2b	-0.09542497
46	0xbdb1ded6	-0.08685081
47	0x3cd89fa1	0.026443304
48	0xbd3ed964	-0.04659404
49	0x3cc884f8	0.024477467
50	0x3c8fd442	0.017557267
51	0xbdcba1c1	-0.099429615
52	0xbd0da8a5	-0.03458466
53	0xbb81f231	-0.003965639
54	0xbdcf6726	-0.10127096
55	0xbd478491	-0.04871041
56	0xbaca9f9a	-0.0015458942
57	0xbd94fdfb	-0.072750054
58	0xbd7db7f6	-0.061943017
59	0xbd589e26	-0.052885197
60	0xbc31138e	-0.010807885
61	0xbdfbea95	-0.12300602
62	0xbe0dfc9a	-0.13865891
63	0x3ca85760	0.020549476

encoder.6.weight f4 [32, 64]
0	0x3da5b42a	0.08091004
1	0xbd40cefb	-0.047072392
2	0xbd849890	-0.064744115
3	0xbe276205	-0.16345985
4	0x3da1f49b	0.07907983
5	0xbd27a0a1	-0.040924672
6	0x3dc3537e	0.09537409
7	0x3d3a0273	0.045412492
8	0xbe4183d5	-0.18897946
9	0xbdc60526	-0.09668951
10	0xbd051622	-0.03249181
11	0x3ccad581	0.02476001
12	0xbd9ae93f	-0.075640194
13	0x3d44e487	0.048069503
14	0x3c553ebd	0.013015446
15	0xbdd8928f	-0.10574829
16	0x3d125f63	0.0357355
17	0xbba45fe3	-0.0050163134
18	0x38c2d030	9.289419e-05
19	0x3dcab25e	0.09897302
20	0xbe1482fa	-0.14503089
21	0x3c85f41e	0.016351756
22	0x3a5bf25d	0.0008390302
23	0x3e0334ca	0.12813106
24	0xbba26d7a	-0.0049568983
25	0xbdd09957	-0.10185497
26	0xbdf905d3	-0.12159314
27	0x3cf01d0e	0.02931073
28	0xbb5c5e4a	-0.0033625537
29	0xbdeb654d	-0.11493931
30	0x3e0780fc	0.13232797
31	0x3dd70ef9	0.10500903
32	0x3c75b51b	0.014996792
33	0x3e293422	0.16523793
34	0xbd8b28a1	-0.06794859
35	0x3d946593	0.07245936
36	0xbde52c5d	-0.11190102
37	0x3ce37b59	0.027768778
38	0xbdd29535	-0.10282365
39	0x3c031626	0.008000886
40	0xbe1fa841	-0.15591528
41	0xbd2d8a88	-0.04236844
42	0x3e1643c2	0.14674285
43	0x3d9d095a	0.07667799
44	0xbd4aa7ec	-0.04947655
45	0xbe0c6ecd	-0.13714142
46	0xbdbafa21	-0.091297396
47	0x3d496948	0.04917267
48	0xbda95c68	-0.08269578
49	0x3d9010dd	0.070344664
50	0xbce705fa	-0.028201092
51	0x3d3cceed	0.046095777
52	0xbdafebd5	-0.08589903
53	0x3d8614c5	0.0654693
54	0x3b801c18	0.003909599
55	0xbdd33d25	-0.10314397
56	0xbd5f6c1a	-0.054546453
57	0xbdba71a0	-0.091037035
58	0xbe20b801	-0.15695192
59	0x3d095376	0.03352686
60	0x3c81431e	0.015779074
61	0x3d4d1f34	0.050078586
62	0xbbac17c1	-0.005251855
63	0x3cb606ed	0.0222201
64	0xbe237b47	-0.15964995
65	0xbbbc47f7	-0.0057458836
66	0x3ca12c2f	0.019674389
67	0xbd062f14	-0.03275974
68	0xbd1df347	-0.038562085
69	0xbe16f0d9	-0.14740314
70	0xbccd22a0	-0.025040925
71	0xbd93ab18	-0.07210368
72	0xbd7f21a2	-0.062287934
73	0xbe2145cb	-0.1574928
74	0x3cd9614d	0.026535654
75	0xbde7037d	-0.11279962
76	0x3d8c6460	0.068550825
77	0x3dacc70b	0.08436402
78	0x3cfb7465	0.03069515
79	0x3d9f56fe	0.07780264
80	0xbd6e86b4	-0.05823393
81	0x3df27fc2	0.11840774
82	0x3ccea91c	0.025227122
83	0xbcb3d475	-0.021951893
84	0x3e0ea942	0.13931754
85	0xbb0ee5e4	-0.0021804506
86	0xbd7c6650	-0.06162101
87	0xbe42936e	-0.19001552
88	0xbdfdbaa8	-0.123891175
89	0x3d3d4445	0.046207685
90	0x3e192eae	0.14959213
91	0xbd9bcdfa	-0.07607646
92	0xbda25e3f	-0.07928132
93	0xbdc5695b	-0.096392356
94	0xbdad850d	-0.08472643
95	0x3ca5e2e0	0.020249784
96	0xbdb4df14	-0.08831611
97	0xbe260a10	-0.16214776
98	0xbd7fb4d8	-0.062428325
99	0xbdf2bbad	-0.118522026
100	0x3d4c3e1b	0.049863916
101	0xbd00a988	-0.031411678
102	0xbc4a7ec4	-0.012359325
103	0x3cebb426	0.028772425
104	0x3d87a137	0.06622546
105	0xbd0417d7	-0.032249298
106	0xbc9e0d30	-0.019293398
107	0x3dca4d28	0.09877998
108	0xbdbb52c5	-0.091466464
109	0xbd080f4c	-0.033217713
110	0x3e1f3ddf	0.15550946
111	0xbcb74d89	-0.022375839
112	0x3d33a334	0.043856815
113	0x3d437efc	0.047728524
114	0x3d538a28	0.051645428
115	0xbdc5e0a3	-0.09661987
116	0x3dd45905	0.10368542
117	0xbcc03a73	-0.02346537
118	0x3d86aa2a	0.06575425
119	0xbdcd9667	-0.100384526
120	0xbd0ded85	-0.034650344
121	0x3c39655e	0.011315672
122	0x3c9ca674	0.01912234
123	0x3d89b1c0	0.06723356
124	0x3d20c786	0.03925278
125	0xbc9c572e	-0.01908454
126	0xbdde02c4	-0.10840371
127	0x3d5a7751	0.053336445
128	0xbe3c41f5	-0.18384536
129	0x3d5dfa80	0.054193974
130	0x3d025b0a	0.031825103
131	0x3a65361f	0.00087437214
132	0xbd1fee42	-0.03904558
133	0xbda46596	-0.080271885
134	0x3da77e49	0.08178384
135	0xbd6a8021	-0.0572511
136	0xbd4a9f0b	-0.04946808
137	0xbe025838	-0.12728965
138	0x3db13aeb	0.08653816
139	0xbd435ab2	-0.047693916
140	0x3c763a88	0.015028603
141	0x3d432b39	0.047648642
142	0x3d458e82	0.04823161
143	0x3de678d7	0.11253517
144	0xbcdf8438	-0.027284727
145	0x3dc1742b	0.094459854
146	0x3c63705c	0.013881769
147	0x3d9503a0	0.07276082
148	0x3d1e443b	0.03863929
149	0xbe22db3e	-0.15903947
150	0xbd3ebc04	-0.046566024
151	0xbc25ae63	-0.010112378
152	0xbe04fe15	-0.1298755
153	0xbd8aa3c2	-0.067695156
154	0x3ddc237b	0.10748955
155	0xbe0d3623	-0.13790183
156	0xbe925856	-0.2858302
157	0x3da5c481	0.08094121
158	0xbe173974	-0.1476801
159	0x3d0d9144	0.034562364
160	0xbd07f34f	-0.03319102
161	0xbdcc8b72	-0.099875346
162	0x3d848b23	0.06471851
163	0xbe166bee	-0.1468961
164	0x3dbf88a7	0.09352236
165	0xbe4cb713	-0.19991712
166	0xbd523e24	-0.051328793
167	0x3cdd76aa	0.027034122
168	0xbd45b45d	-0.04826771
169	0xbbcd6bba	-0.0062689455
170	0x3d95b958	0.07310742
171	0xbdd9472e	-0.106092796
172	0xbdd4c99b	-0.10390016
173	0xbdc7d96e	-0.09758268
174	0x3c8b8b63	0.017034238
175	0x3d9b55c1	0.07584716
176	0x3d9c3e58	0.076290786
177	0xbd8f90b7	-0.07010024
178	0x3cbf1c1d	0.023328835
179	0xbdbce251	-0.09222854
180	0x3dd87564	0.105692655
181	0x3d8afa8c	0.06786069
182	0xbdde8a51	-0.108662255
183	0x3dc8df26	0.09808187
184	0xbc98027e	-0.018555876
185	0x3da3be0b	0.07995232
186	0x3d993bee	0.07482134
187	0xbc66c496	-0.014084956
188	0x3bf4cf93	0.007471034
189	0xbd73585c	-0.059410438
190	0xbe0e74ef	-0.13911794
191	0x3d813183	0.06308272
192	0xbccabb18	-0.024747416
193	0xbce905a7	-0.028445078
194	0x3dbdc619	0.092663
195	0xbc60d8cd	-0.013723564
196	0x3dca3a0f	0.09874355
197	0x3df446d6	0.119275734
198	0xbd9604b7	-0.07325118
199	0xbc4f8d23	-0.012667927
200	0x3da38153	0.07983651
201	0x3d988a0e	0.07448207
202	0xbc8300e4	-0.015991636
203	0x3db152a8	0.086583436
204	0xbb93b8bf	-0.0045081074
205	0xbe0d6b65	-0.13810499
206	0xbd73d5e6	-0.05953016
207	0xbc1caf64	-0.009563301
208	0x3e024eb8	0.12725341
209	0xbd5037dd	-0.050834525
210	0x3b699835	0.00356437
211	0xbcc8e321	-0.024522366
212	0xbdbcf7ec	-0.09226975
213	0x3d85f688	0.06541163
214	0xbdb5a41b	-0.08869191
215	0x3c8ee5b2	0.017443512
216	0x3cf89c38	0.030347928
217	0xbd63084b	-0.05542783
218	0xbdd4c1e7	-0.103885464
219	0xbd2f59d8	-0.04281029
220	0x3cda3434	0.02663622
221	0xbdcec3ff	-0.10095977
222	0x3d9a8350	0.07544577
223	0x3df52be6	0.119712636
224	0x3da96698	0.08271521
225	0x3dbf8c34	0.093529135
226	0x3de07b95	0.109610714
227	0x3d835cf5	0.064142145
228	0xbd8adf52	-0.06780876
229	0x3bd79db1	0.0065800776
230	0x3d44f530	0.04808539
231	0xbd0af6f5	-0.033926923
232	0x3d95a8b7	0.073075704
233	0xbc71e1f7	-0.014763347
234	0x3ddb8830	0.10719335
235	0x3d048ab5	0.032358844
236	0x3be61f7a	0.0070227953
237	0x3c151066	0.009098148
238	0x3d804c47	0.06264549
239	0x3cb0cbd8	0.021581575
240	0x3dfc0a78	0.12306684
241	0xbddb71c3	-0.10715058
242	0xbb9e4765	-0.0048302882
243	0x3dbc6f82	0.09200956
244	0xbb3d55a6	-0.0028890162
245	0xbcfe29df	-0.031025825
246	0xbd4f7f1e	-0.050658338
247	0xbd8bd13d	-0.068270184
248	0x3ca37509	0.019953268
249	0xbd86e6ae	-0.065869674
250	0xbc9fdcc5	-0.01951445
251	0x3af5a1c6	0.0018740229
252	0xbc94a885	-0.018146763
253	0x3c90374a	0.017604489
254	0xbcf43ded	-0.029814685
255	0x3da30895	0.07960621

encoder.6.bias f4 [32]
0	0xbdda8df6	-0.10671608
1	0xbd744fdd	-0.059646476
2	0x3bca03e4	0.0061650146
3	0xbdc5e8c7	-0.096635394
4	0xbddf727b	-0.10910507
5	0xbd018d92	-0.031629153
6	0xbda78341	-0.081793316
7	0xbdb5b413	-0.08872237
8	0xbdfb0f17	-0.122587375
9	0x3ca94900	0.020664692
10	0xbdfab3f0	-0.122413516
11	0xbe0f0917	-0.13968311
12	0xbd7ee235	-0.062227447
13	0xbd12ae9b	-0.035811048
14	0xbd61f417	-0.055164423
15	0xbd776910	-0.06040293
16	0xbcaa4967	-0.020786954
17	0xbe204a92	-0.15653446
18	0xbdd93cce	-0.10607301
19	0x3cb062a4	0.02153141
20	0x3ce76558	0.028246567
21	0x3cc2db06	0.02378608
22	0xbddeeba3	-0.10884788
23	0x3d88a28c	0.06671628
24	0xbde52e81	-0.111905105
25	0x3dd2bf21	0.10290361
26	0x3d813c6f	0.06310355
27	0xbddcbaaf	-0.107777946
28	0xbcbb6c55	-0.022878805
29	0x3e062e06	0.13103494
30	0xbdd50249	-0.104008265
31	0xbd830f78	-0.06399435

encoder.9.weight f4 [20, 32]
0	0x3de264e0	0.11054397
1	0x3e30f8e6	0.17282447
2	0x3d894cae	0.067040786
3	0xbcec8bf9	-0.028875338
4	0xbe04e84f	-0.12979244
5	0xbce8c653	-0.02841488
6	0x3df651ef	0.12027346
7	0xbe39a457	-0.18129097
8	0xbdfce770	-0.12348831
9	0xbd574b7d	-0.052562226
10	0xbbb24e58	-0.005441468
11	0xbe166fd7	-0.14691101
12	0xbd275f65	-0.04086246
13	0x3e1871a1	0.14887096
14	0x3e2bc6ef	0.16775106
15	0x3d993737	0.074812345
16	0xbd9f3a49	-0.07774789
17	0x3d594964	0.053048506
18	0xbd48436d	-0.048892427
19	0x3dda1561	0.10648609
20	0x3e0f07f7	0.13967882
21	0xbe02f1ac	-0.12787503
22	0xbcd4b6aa	-0.025966007
23	0xbe05b15d	-0.1305594
24	0xbb1914e3	-0.0023358397
25	0x3dc98778	0.09840292
26	0x3dc096bd	0.09403751
27	0xbe4ba2d2	-0.1988633
28	0x3e001f3b	0.12511913
29	0xbe1941af	-0.14966463
30	0x3cf5ebf6	0.030019742
31	0x3dc2d64d	0.09513531
32	0xbaa3e0ec	-0.0012502945
33	0x3d4e9d72	0.05044312
34	0xbd8a0f23	-0.06741168
35	0xbe24e3e6	-0.16102561
36	0x3e06cca9	0.13164009
37	0x3d2ae9a5	0.041726727
38	0x3d9fff6b	0.07812389
39	0xbe3bb67a	-0.18331328
40	0xbe39443b	-0.18092434
41	0x3e0e0f3d	0.13873
42	0x3cf20d65	0.029547403
43	0xbd221274	-0.03956838
44	0x3cdf0bc8	0.027227297
45	0x3dadcddf	0.084865324
46	0x3dcd47f1	0.10023487
47	0xbd70f281	-0.05882502
48	0xbe119cb5	-0.14219935
49	0x3d309739	0.043112967
50	0x3d930e5d	0.07180474
51	0xbd0eefa7	-0.03489652
52	0x3e153e67	0.14574586
53	0xbe2cf6c7	-0.16891013
54	0x3e147a7a	0.14499846
55	0x3dfbfc5e	0.123039946
56	0xbdf86bd2	-0.1212994
57	0x3cae31b3	0.021263933
58	0xbddb96ad	-0.107220985
59	0xbe13bed0	-0.14428258
60	0x3d33a236	0.04385587
61	0xbd92289e	-0.07136653
62	0xbdf4edf6	-0.1195945
63	0x3e0b0ba1	0.13578655
64	0x3caf09bb	0.021366945
65	0x3c9f0ee1	0.019416275
66	0x3e1caaa8	0.15299475
67	0xbd2dc2ce	-0.04242211
68	0xbdb2c6c4	-0.08729318
69	0x3e217666	0.15767822
70	0xbb973314	-0.0046142433
71	0xbdccf0c5	-0.10006861
72	0x3e38b014	0.18035918
73	0xbcfec4dc	-0.03109973
74	0xbe1fba65	-0.15598448
75	0x3e2ff940	0.17184925
76	0x3cd434f2	0.025904153
77	0x3d1c12b8	0.03810379
78	0xbe17a645	-0.1480952
79	0xbda3ba63	-0.07994535
80	0x3c710658	0.014710985
81	0x3e293657	0.16524635
82	0xbe2afcd4	-0.16698009
83	0x3e2a6ade	0.16642329
84	0x3e4065b8	0.18788803
85	0xbd61b79e	-0.05510675
86	0x3e08476b	0.13308494
87	0xbcf45d43	-0.029829627
88	0xbc4b12c6	-0.012394613
89	0xbdbac838	-0.0912022
90	0x3c5ca5fe	0.01346731
91	0x3e203f31	0.15649106
92	0xbd8dc0a3	-0.06921508
93	0xbdce8cfd	-0.10085485
94	0x3e4e0997	0.20120846
95	0x3b8a8b47	0.004228029
96	0x3de09ff7	0.10968011
97	0x3e3d13c6	0.18464574
98	0x3e24dbb5	0.16099437
99	0x3dea3eef	0.11437785
100	0x3d4d0c25	0.05006041
101	0x3d5aea6a	0.05344621
102	0x3cb804ca	0.022463221
103	0x3e1eb6b1	0.15499379
104	0xbe3d2f25	-0.18475015
105	0x3d429f9f	0.047515508
106	0xbd9f441c	-0.07776663
107	0xbe45c1bc	-0.19312185
108	0x3da0659f	0.07831883
109	0x3de94d49	0.11391694
110	0x3e504125	0.2033735
111	0xbe105b28	-0.14097273
112	0xbe450520	-0.19240236
113	0xbddf136e	-0.10892378
114	0x3dce9ab8	0.10088104
115	0xbcf11e83	-0.029433494
116	0xbe25710d	-0.16156407
117	0x3e278110	0.16357827
118	0xbdeb30a0	-0.11483884
119	0xbdb8b6ff	-0.09019279
120	0xbccdf516	-0.02514128
121	0xbd9ae22c	-0.0756267
122	0xbd859caa	-0.06524022
123	0x3d27ee27	0.040998604
124	0x3cbc2c16	0.02297024
125	0x3ded1a05	0.115772285
126	0xbe0d8ed2	-0.13824013
127	0x3d850b41	0.06496287
128	0xbdba834e	-0.09107076
129	0x3d586fb8	0.05284092
130	0xbd0c8e41	-0.03431535
131	0x3d6b868c	0.05750136
132	0x3e3b8915	0.18314011
133	0x3e247e50	0.1606381
134	0xbd76e36e	-0.060275488
135	0xbdac24df	-0.0840547
136	0x3d690a32	0.05689449
137	0x3e0216f7	0.12704073
138	0xbe26359e	-0.16231391
139	0xbdcf7d18	-0.101312816
140	0x3e30ef5e	0.17278811
141	0x3da7e285	0.08197502
142	0x3cc5415f	0.024079023
143	0x3ccd5c18	0.025068328
144	0xbdaa5f47	-0.08318954
145	0x3c6a674f	0.014306857
146	0x3deb6aea	0.114950016
147	0xbd0753b9	-0.03303883
148	0xbc6dbffc	-0.014511105
149	0x3de8cb20	0.11366868
150	0xbb3e4c7d	-0.002903729
151	0xbdc927d5	-0.098220505
152	0x3ce596d9	0.028026031
153	0x3d6026ec	0.05472462
154	0xbd2dd85a	-0.042442657
155	0x3e1021e4	0.14075428
156	0x3d6676e7	0.056265738
157	0x3db984b8	0.09058517
158	0xbd136dcf	-0.035993394
159	0x3e078a8b	0.13236444
160	0xbd3fdff4	-0.046844438
161	0x3dc02cdb	0.093835555
162	0xbcaa5aa9	-0.020795183
163	0xbda169fe	-0.078815445
164	0x3c3bb8d5	0.011457642
165	0xbd96edda	-0.07369585
166	0x3e173a60	0.14768362
167	0x3df4392b	0.119249664
168	0xbd6ed751	-0.05831081
169	0xbd04be44	-0.032408014
170	0x3e0e08ab	0.13870494
171	0x3e36afbc	0.17840475
172	0x3d285e3e	0.0411055
173	0x3c999a91	0.01875046
174	0xbd910a45	-0.07082037
175	0x3e2b2ca8	0.16716254
176	0x3e10b20b	0.14130418
177	0x3e157386	0.1459485
178	0xbe00732f	-0.12543939
179	0xbdc3082f	-0.09523045
180	0xbe26c039	-0.16284265
181	0xbdf9bdb8	-0.12194389
182	0x3c875ff9	0.016525256
183	0x3e1c05bc	0.15236562
184	0xbdd1fcd9	-0.10253305
185	0xbd202885	-0.039101142
186	0xbe2b281a	-0.16714516
187	0xbd9e81f5	-0.07739631
188	0x3e29bc85	0.1657582
189	0xbdc2cd27	-0.09511786
190	0xbb87c24c	-0.004143035
191	0xbe2052e5	-0.15656622
192	0xbcf0da8c	-0.029401086
193	0x3e22fc96	0.15916666
194	0x3cc243af	0.023713915
195	0xbde25678	-0.11051649
196	0x3e043dc7	0.12914191
197	0x3da3577e	0.07975672
198	0xbe1c5163	-0.15265422
199	0x3d32364d	0.043508817
200	0xbdbab067	-0.09115677
201	0xbcd87595	-0.026423255
202	0x3e08b04a	0.13348499
203	0x3e3d4e5e	0.18486926
204	0x3d9b1a66	0.075733945
205	0xbe321598	-0.1739105
206	0xbd8a04a3	-0.06739166
207	0x3e2f8fa1	0.17144634
208	0x3e2adf9a	0.1668686
209	0x3e1d19ac	0.15341824
210	0xbd2036ef	-0.03911489
211	0xbdc655cb	-0.096843325
212	0x3e158035	0.14599688
213	0xbe03c4e8	-0.12868083
214	0xbc966b39	-0.018361675
215	0x3d919422	0.07108332
216	0xbe5cd3fd	-0.21565242
217	0xbdeb5c90	-0.11492264
218	0x3bc29f6c	0.0059394147
219	0x3c6fd238	0.014637522
220	0x3e1a2f51	0.15057112
221	0xbdc608fc	-0.096696824
222	0xbe250d2d	-0.16118307
223	0x3d5d693d	0.05405544
224	0x3e00a381	0.12562372
225	0xbca551d9	-0.02018063
226	0xbe11369a	-0.14180985
227	0x3d88adce	0.066737756
228	0xbc996856	-0.018726509
229	0x3d7d84a5	0.061894078
230	0xbd0245b4	-0.031804755
231	0xbe1b1123	-0.15143256
232	0xbd8f0321	-0.06983019
233	0x3dc6a6b5	0.096997656
234	0xbe2c53d5	-0.16828854
235	0xbd8ab51e	-0.067728266
236	0xbe1de233	-0.1541832
237	0x3c131e42	0.008979382
238	0x3e41f532	0.18941191
239	0x3df0023d	0.11719177
240	0xbe17b55a	-0.14815274
241	0xbc07260a	-0.008248815
242	0x3e242230	0.16028666
243	0xbe0ac41b	-0.13551371
244	0x3e28dae8	0.16489756
245	0x3e0360b9	0.12829866
246	0xbe233283	-0.15937237
247	0x3e11bad6	0.14231429
248	0xbc2f2338	-0.010689549
249	0xbdc6d1e1	-0.09708
250	0xbe13c3dd	-0.14430185
251	0xbdfcc1bf	-0.12341642
252	0xbcbad58f	-0.02280691
253	0x3d8c4823	0.068496965
254	0xbe0ddac8	-0.1385299
255	0xbe230ace	-0.1592209

encoder.9.bias f4 [20]
0	0x3ddb07f5	0.10694877
1	0xbbb07bd0	-0.0053858534
2	0xbd81172c	-0.06303248
3	0xbd423078	-0.047409505
4	0x3e4464c0	0.19179058
5	0x3e0ebeed	0.1394002
6	0x3e388633	0.18019943
7	0x3bf2e687	0.007412735
8	0x3e167c11	0.14695765
9	0x3ca58d87	0.020209087
10	0xbdad0ce2	-0.08449723
11	0xbdcc980c	-0.09989938
12	0x3e36bd8e	0.17845747
13	0x3cacb3f0	0.021081895
14	0x3e112f32	0.1417816
15	0xbdd2abe4	-0.10286692
16	0x3e46c898	0.19412458
17	0xbbbf6dcd	-0.0058419467
18	0x3e42d8fa	0.19028082
19	0x3e1bd408	0.15217602

decoder.0.weight f4 [32, 20]
0	0xbe269383	-0.16267209
1	0xbd180675	-0.037115533
2	0xbe3e3f13	-0.18578748
3	0xbe24258b	-0.16029947
4	0xbe3e25bf	-0.18569086
5	0xbd505175	-0.050858933
6	0x3cf242f5	0.029572943
7	0x3de2c574	0.110728174
8	0xbd146c1d	-0.036235917
9	0xbe8c51f4	-0.27406275
10	0x3d54bebb	0.051939707
11	0xbe09c230	-0.13452983
12	0x3df371af	0.11886918
13	0xbdbc85a6	-0.09205179
14	0x3e4a85dc	0.19777626
15	0xbe08fbe0	-0.13377333
16	0xbcd5fa05	-0.026120195
17	0xbd8b9b59	-0.068167396
18	0x3dc33b17	0.09532755
19	0x3d7131cb	0.058885377
20	0xbdab528f	-0.08365356
21	0x3dafa008	0.085754454
22	0x3b643eb0	0.0034827404
23	0x3d308069	0.04309121
24	0xbd9f16fe	-0.07768057
25	0x3e23f97a	0.16013137
26	0x3b2f5ec2	0.002675936
27	0xbd9782f7	-0.073980264
28	0x3cb4b2fb	0.022058
29	0xbdd4f505	-0.10398296
30	0xbe5fcb61	-0.21854927
31	0x3e3bc75e	0.18337771
32	0x3bf2c338	0.007408526
33	0x3dcc317c	0.09970376
34	0x3a9b1724	0.0011832458
35	0xbc6ce6d9	-0.014459335
36	0x3deb6098	0.11493033
37	0x3e4ac736	0.19802555
38	0xbe3316ff	-0.17489241
39	0x3d117064	0.035507575
40	0xbe8fb7d7	-0.28069946
41	0xbde00649	-0.10938699
42	0xbc728580	-0.014802337
43	0x3eb09fc4	0.34496891
44	0x3dc2318e	0.09482108
45	0x3e318267	0.17334901
46	0xbe33540c	-0.1751253
47	0xbc595ee8	-0.013267256
48	0x3e55329e	0.2082009
49	0xbd5e43a5	-0.05426373
50	0x3e05a8a7	0.13052617
51	0x3cd053b4	0.025430538
52	0xbceb8c4d	-0.028753424
53	0x3e74a474	0.23890859
54	0xbc990e70	-0.018683642
55	0xbd0e4b76	-0.034739934
56	0x3e7cf614	0.24703246
57	0xbd45c8b0	-0.048287094
58	0xbd846106	-0.06463818
59	0x3e13e0af	0.14441179
60	0xbd41d3bb	-0.047321063
61	0xbda78166	-0.08178978
62	0x3e42c1ad	0.19019194
63	0x3e170fd4	0.14752132
64	0x3d41045a	0.04712329
65	0xbde02d4d	-0.109461404
66	0xbe85c26f	-0.26124904
67	0xbe4ada04	-0.19809729
68	0xbe2917b7	-0.16512953
69	0xbe145f74	-0.14489537
70	0xbd8e5d4d	-0.069513895
71	0x3e8183dd	0.25295916
72	0xbe3640e5	-0.17798193
73	0x3e1b0e87	0.1514226
74	0x3df4d546	0.11954741
75	0xbcd74833	-0.026279544
76	0xbdffbb1f	-0.124868624
77	0x3d4da358	0.050204605
78	0x3e21ca2d	0.1579978
79	0x3e58aed1	0.21160437
80	0x3dff97f3	0.12480154
81	0x3e08cb95	0.1335891
82	0x3d7ca3eb	0.06167976
83	0x3d973142	0.07382442
84	0x3e87554e	0.2643227
85	0x3e0f3d57	0.13988243
86	0x3e20b14b	0.15692632
87	0xbc9046fd	-0.017611975
88	0x3d122f30	0.035689533
89	0xbde337c3	-0.1109462
90	0xbd4daa7f	-0.050211426
91	0xbdb7b7a3	-0.08970573
92	0x3e495abf	0.19663523
93	0xbe2ad673	-0.16683368
94	0x3e7c5850	0.24643064
95	0x3e33f03e	0.17572114
96	0x3cba7ef5	0.022765616
97	0x3db0530b	0.08609589
98	0x3dd387f2	0.10328664
99	0xbdc95d3a	-0.09832235
100	0x3d91eb04	0.07124904
101	0x3daae562	0.083445325
102	0x3cad1c33	0.02113161
103	0xbe1eb0d0	-0.15497136
104	0x3d59a159	0.05313239
105	0xbd9784ef	-0.07398402
106	0x3ddd5e93	0.10809054
107	0x3e03767a	0.12838164
108	0xbca66ac5	-0.020314584
109	0xbe5af83b	-0.21383755
110	0xbc40033d	-0.011719522
111	0x3d86f64b	0.065899454
112	0x3e33b3b1	0.17549016
113	0x3e70ed8d	0.23528118
114	0xbe0e0f4b	-0.13873021
115	0x3e98664d	0.2976555
116	0xbdbedc2d	-0.09319339
117	0xbc8af8c1	-0.016964318
118	0x3c7f4a99	0.01558175
119	0xbdff8c76	-0.12477963
120	0x3e5fb078	0.21844661
121	0x3d0c521c	0.034257993
122	0xbbf52171	-0.007480793
123	0x3db68c63	0.089134954
124	0xbb7fe3e5	-0.0039045748
125	0x3c9a722e	0.018853273
126	0xbe626797	-0.22109829
127	0xbda8eb3a	-0.08247991
128	0x3d801fab	0.0625604
129	0x3e6e3585	0.23262604
130	0xbe646a73	-0.22306232
131	0x3e641ece	0.22277376
132	0xbda05e14	-0.07830444
133	0x3d1e6c0e	0.038677268
134	0x3d184bb1	0.03718156
135	0x3e0ead7c	0.13933367
136	0x3e376048	0.17907822
137	0x3e0ec238	0.13941276
138	0x3d573fc1	0.052551035
139	0xbdd5f5a9	-0.104472466
140	0x3e1a9731	0.15096737
141	0xbd92646d	-0.07148061
142	0xbd4d583a	-0.050132968
143	0x3d8f8aa8	0.070088685
144	0xbcfabec6	-0.030608546
145	0xbdf9ab8e	-0.121909246
146	0x3e0310f8	0.12799442
147	0x3e1a0aa3	0.1504312
148	0x3d094075	0.033508737
149	0x3d35b298	0.044359773
150	0xbdaed1c7	-0.085361056
151	0x3e47b4a0	0.19502497
152	0xbd2aa579	-0.041661713
153	0x3e59b298	0.21259534
154	0xbcbbe081	-0.0229342
155	0x3dd81430	0.105507255
156	0x3e71683a	0.23574916
157	0xbe5ced59	-0.21574916
158	0x3cfb9b50	0.030713707
159	0x3d0d045d	0.03442799
160	0xbe2db3e5	-0.16963156
161	0x3d15d6b9	0.03658173
162	0x3e246380	0.16053581
163	0x3d6ca0b3	0.057770442
164	0x3d03a957	0.032143917
165	0x3e42b459	0.1901411
166	0xbe223fad	-0.15844603
167	0xbd1bfe8b	-0.038084548
168	0x3ddc72a5	0.10764054
169	0x3dab4953	0.08363595
170	0xbcd1443a	-0.025545228
171	0xbe45fe34	-0.19335252
172	0x3db20bba	0.08693643
173	0x3e299e27	0.16564237
174	0x3e3aaaab	0.18229167
175	0x3d6baa36	0.057535373
176	0xbe6036a2	-0.21895841
177	0xbe3ea1d0	-0.18616414
178	0x3e3c094e	0.18362924
179	0xbd8cdc3f	-0.06877946
180	0x3d696e63	0.05699004
181	0xbe1dbcff	-0.15404128
182	0xbdc7a885	-0.097489394
183	0xbd99e2d7	-0.075139694
184	0xbe27e64f	-0.1639645
185	0x3dc1752f	0.09446179
186	0x3c12cdf0	0.008960232
187	0xbe0f5cf5	-0.14000304
188	0x3e1da15b	0.15393583
189	0xbe397861	-0.18112327
190	0xbcc0be36	-0.0235282
191	0x3d8a9da0	0.06768346
192	0x3d5d2110	0.05398661
193	0xbdaa4c8e	-0.08315383
194	0xbe624c86	-0.22099504
195	0x3e691048	0.22760117
196	0x3e43c391	0.19117571
197	0xbd2de9a7	-0.042459156
198	0xbdce2052	-0.10064758
199	0x3dd5ea84	0.10445121
200	0x3d8b4642	0.0680051
201	0xbbaf2806	-0.0053453473
202	0x3da78fbe	0.081817135
203	0xbd410f3b	-0.047133666
204	0x3e5033ed	0.20332308
205	0xbe3f4051	-0.18676879
206	0x3e4108c4	0.18851
207	0xbd5db06d	-0.05412333
208	0x3da04f48	0.07827622
209	0x3e4364ca	0.19081417
210	0x3cbd142f	0.023080913
211	0x3dfa1beb	0.12212356
212	0x3de3ca06	0.11122517
213	0xbd6f9177	-0.058488335
214	0x3d29dde8	0.041471392
215	0xbe06d95d	-0.13168855
216	0xbd8d58c4	-0.06901696
217	0x3e45c4d9	0.19313373
218	0x3e5b090f	0.21390174
219	0x3dcdebb1	0.1005472
220	0x3db37349	0.08762223
221	0xbe2ba596	-0.16762385
222	0xbe0b4dd6	-0.13603911
223	0xbe8806a1	-0.26567557
224	0xbe73987c	-0.23788637
225	0xbcb63eed	-0.022246802
226	0xbcb9cdcb	-0.022681138
227	0xbe5623ff	-0.20912169
228	0x3d3a37ec	0.045463488
229	0x3d3022ab	0.043001812
230	0x3e4af4f8	0.1982001
231	0x3dbc46f5	0.091932215
232	0xbdde3e8b	-0.10851773
233	0xbe6fd041	-0.23419286
234	0xbc24822c	-0.010040801
235	0xbdd4d888	-0.103928626
236	0x3e0c75ba	0.13716784
237	0x3da05800	0.07829285
238	0x3e6bf283	0.2304173
239	0x3e0fdb70	0.14048553
240	0xbe345094	-0.17608863
241	0xbdb9c1c0	-0.09070158
242	0xbd53421a	-0.05157671
243	0xbe20f142	-0.15717033
244	0x3dffe2f5	0.124944605
245	0x3e38c4b4	0.18043786
246	0x3de1f649	0.11033303
247	0xbdd35681	-0.10319234
248	0x3dfc753a	0.12327047
249	0x3e0d83ac	0.1381976
250	0xbdace6c0	-0.084424496
251	0xbe782cf6	-0.24235901
252	0xbd396c96	-0.04526957
253	0xbe0e12c1	-0.13874342
254	0x3d4d9581	0.050191406
255	0x3e2ccb72	0.16874483

decoder.0.bias f4 [32]
0	0xbd182313	-0.037142824
1	0x3c455dea	0.012046317
2	0x3d2ad75e	0.041709296
3	0xbe6c4daa	-0.23076501
4	0x3d27418d	0.040834
5	0xbd4c5c3f	-0.04989266
6	0x3d5a6bb8	0.053325385
7	0xbdd4c250	-0.10388625
8	0xbd6e2716	-0.058142744
9	0xbde991cd	-0.114047624
10	0x3e397e69	0.18114628
11	0x3e0b87b2	0.13625982
12	0x3e5c4841	0.21511938
13	0xbe5ae65a	-0.21376935
14	0xbe631929	-0.22177567
15	0xbc712e60	-0.014720529
16	0x3e01c237	0.12671743
17	0xbda247c8	-0.079238474
18	0x3b86fd61	0.0041195606
19	0x3d87a8d3	0.066239975
20	0x3e2454ce	0.16047975
21	0xbe32bd5a	-0.17455044
22	0xbd5d14ce	-0.05397492
23	0x3e78479d	0.24246068
24	0x3e7df85c	0.24801773
25	0x3e2cebb3	0.16886787
26	0xbe02f288	-0.12787831
27	0x3dfaf09c	0.12252924
28	0xbe154c1b	-0.14579813
29	0x3e4de530	0.2010696
30	0x3e0eeeab	0.13958232
31	0x3e137af3	0.1440237

decoder.2.weight f4 [64, 32]
0	0xbd7c571f	-0.061606523
1	0x3d89be52	0.06725754
2	0x3e4eeb0a	0.20206848
3	0x3d4901ef	0.04907411
4	0x3c77eac0	0.015131652
5	0x3e0e4d10	0.13896585
6	0xbe068a8f	-0.13138793
7	0x3d1ad01c	0.037796125
8	0x3d818de4	0.063258916
9	0xbd58963a	-0.052877642
10	0x3dc75be1	0.097343214
11	0x3e00027b	0.12500946
12	0x3db7f471	0.089821704
13	0x3da260a3	0.07928588
14	0x3d143bd6	0.036189876
15	0x3e2dcb47	0.16972075
16	0xbe0bd6e7	-0.13656197
17	0x3e32c6d4	0.1745866
18	0x3c8282e2	0.01593155
19	0x3dcf694a	0.10127504
20	0x3c962c6d	0.01833173
21	0x3e0c1dce	0.13683245
22	0x3cae4060	0.02127093
23	0x3cdc97be	0.026927825
24	0x3e0d979d	0.13827367
25	0xbda90914	-0.08253685
26	0xbe2aa199	-0.16663207
27	0xbdc4708e	-0.095917806
28	0xbe47b0ef	-0.19501089
29	0xbe4a581e	-0.19760177
30	0xbe0e430c	-0.13892764
31	0xbe3f00cb	-0.18652646
32	0x3cdbac84	0.02681566
33	0x3dab4f09	0.08364684
34	0x3e7c0de4	0.24614674
35	0xbe35e011	-0.17761256
36	0x3dec4e70	0.11538398
37	0x3e4162c9	0.1888534
38	0xbb6d05c4	-0.0036166767
39	0x3d273465	0.04082145
40	0x3e0b1f3e	0.13586137
41	0x3e2fa726	0.17153606
42	0x3e09590c	0.13412875
43	0x3e0340ec	0.12817734
44	0x3d406b1d	0.04697715
45	0x3d90157f	0.0703535
46	0x3dceda55	0.10100237
47	0xbd6130bb	-0.054978114
48	0xbe41533b	-0.18879406
49	0xbd9d8ff1	-0.0769347
50	0x3d88537a	0.06656547
51	0xbccc70b5	-0.024956087
52	0xbca1e01d	-0.019760186
53	0xbcc1adc5	-0.02364243
54	0xbb190c2a	-0.0023353198
55	0xbd2b3396	-0.041797243
56	0xbe210a52	-0.15726593
57	0xbde15879	-0.11003203
58	0xbd19c6fa	-0.037543274
59	0x3dbb9b2f	0.09160458
60	0xbd9354b4	-0.0719389
61	0xbe5837f2	-0.21115091
62	0x3dc6264a	0.09675272
63	0xbd6f3fcd	-0.058410455
64	0xbe0a0fd5	-0.13482602
65	0xbd371e69	-0.044706736
66	0x3d44bd28	0.048031956
67	0x3e1e6261	0.15467216
68	0xbdd6a331	-0.10480345
69	0x3de08d67	0.1096447
70	0x3e03338f	0.12812637
71	0xbdacdca6	-0.08440523
72	0x3d87ec14	0.06636825
73	0x3dfc7d44	0.1232858
74	0xbddd420d	-0.10803614
75	0x3d5e11ec	0.05421631
76	0xbcb2c077	-0.02182029
77	0x3d9a03dd	0.07520268
78	0x3dbc13a0	0.09183431
79	0x3e119e25	0.14220484
80	0x3e413c6d	0.18870707
81	0x3c370468	0.011170484
82	0x3e05aab2	0.13053396
83	0x3d8d3424	0.06894711
84	0x3d85ba60	0.06529689
85	0xbd85fde4	-0.065425664
86	0x3e4dac60	0.20085287
87	0xbe22ce39	-0.1589898
88	0xbd2cb613	-0.042165827
89	0x3dc802e7	0.097661786
90	0xbe47c062	-0.19506982
91	0x3d850d8c	0.064967245
92	0x3de90f91	0.11379922
93	0xbdbd9241	-0.09256411
94	0x3d9dee39	0.07711453
95	0x3d6b1644	0.05739428
96	0xbe8e34c3	-0.2777463
97	0x3e4dd8c6	0.20102224
98	0xbcbb7458	-0.022882625
99	0xbd207346	-0.039172433
100	0xbdec5288	-0.11539179
101	0xbdafd4fa	-0.08585544
102	0xbd9d548c	-0.07682142
103	0xbddfe8e2	-0.10933091
104	0x3e310cff	0.17290114
105	0xbeacdf2a	-0.3376401
106	0xbdfb272f	-0.12263333
107	0x3dc00e39	0.09377713
108	0xbe826243	-0.25465593
109	0xbe297eb0	-0.16552234
110	0x3de4f515	0.11179558
111	0x3bbdd22f	0.005792878
112	0xbc9d2073	-0.019180512
113	0x3d837e64	0.064205915
114	0x3e1c4946	0.15262327
115	0x3daeb295	0.085301556
116	0xbe0a9f6b	-0.13537376
117	0x3e2eea02	0.17081454
118	0x3dc5eaef	0.09663951
119	0x3d92c29b	0.07166024
120	0x3d42538c	0.047442958
121	0x3e008091	0.12549044
122	0x3e0d849d	0.13820119
123	0x3e2d739e	0.16938636
124	0x3da1d6f1	0.07902325
125	0x3d6c88c0	0.057747602
126	0x3d6b8550	0.057500184
127	0x3e276c17	0.16349827
128	0xbe0ab98e	-0.13547346
129	0x3e1f46ee	0.15554401
130	0xbe171fca	-0.1475822
131	0x3e254d30	0.16142726
132	0xbd47b313	-0.048754763
133	0x3d8bbc5c	0.06823036
134	0x3bf47ff3	0.007461542
135	0xbe26cb37	-0.16288458
136	0x3dd2de18	0.10296267
137	0xbd8fd440	-0.07022905
138	0xbbe4e00b	-0.006984716
139	0x3d191ee8	0.03738299
140	0xbe24e0c0	-0.1610136
141	0x3ca163af	0.019700853
142	0x3b8a96f0	0.004229419
143	0xbd91e347	-0.07123428
144	0x3b61e14e	0.0034466567
145	0xbdfa0c73	-0.12209406
146	0xbd85b0ba	-0.065278485
147	0x3ce38d40	0.027777314
148	0x3d3f9d9a	0.04678116
149	0x3d0dbd40	0.03460431
150	0xbe120afa	-0.14262
151	0xbe190409	-0.14942946
152	0xbc0cb425	-0.008587872
153	0x3c7a566e	0.0152793955
154	0xbda42eab	-0.08016714
155	0x3c389188	0.011265166
156	0xbdff146c	-0.12455067
157	0x3e01a502	0.12660602
158	0x3d5f9cc1	0.05459285
159	0x3e2178ff	0.15768813
160	0x3c04f4df	0.008115022
161	0x3dd223e8	0.10260755
162	0x3c0b39f8	0.008497708
163	0xbdbbb156	-0.091646835
164	0xbe1abbc4	-0.1511069
165	0x3de2b8bb	0.11070391
166	0x3d89e6af	0.067334525
167	0xbdf65885	-0.120286025
168	0x3d56433c	0.052310213
169	0x3e2fd902	0.17172626
170	0x3d899b61	0.06719089
171	0x3e10b525	0.14131601
172	0xbdc2f4bf	-0.09519338
173	0x3d8d4b53	0.068991326
174	0x3ddddf34	0.10833588
175	0xbd94399b	-0.0723755
176	0x3daa913f	0.08328485
177	0xbdaf4fe4	-0.0856016
178	0x3e303e61	0.17211296
179	0xbe785419	-0.2425083
180	0x3e1a5986	0.15073213
181	0xbd2f182b	-0.042747658
182	0xbd6fb663	-0.058523547
183	0xbbe6d615	-0.0070445635
184	0x3e2db556	0.16963705
185	0x3d63e25b	0.05563579
186	0x3daa59fe	0.08317946
187	0x3d5b554c	0.053548142
188	0x3cad681e	0.021167811
189	0xbd1cdcbd	-0.03829645
190	0x3d964b19	0.073385425
191	0x3c8649ee	0.016392674
192	0x3e16d448	0.14729416
193	0x3d01ad46	0.031659387
194	0x3e9675b6	0.2938668
195	0x3cea405e	0.028595146
196	0xbe234116	-0.15942797
197	0xbe3d965d	-0.1851439
198	0x3d9a92b2	0.07547511
199	0xbcb5c98f	-0.022190837
200	0xbe0ccf8e	-0.13751051
201	0xbdc37cd5	-0.09545294
202	0xbd84e9dd	-0.064899184
203	0xbe272ca8	-0.16325629
204	0x3ded6736	0.115919515
205	0x3deddeb7	0.11614745
206	0xbd4d06c6	-0.050055288
207	0x3df67b55	0.120352425
208	0xbcd6d0e9	-0.026222663
209	0x3e18b022	0.1491094
210	0xbb862cf8	-0.004094716
211	0xbd0d6301	-0.034518246
212	0xbe12745a	-0.14302197
213	0x3df57377	0.11984914
214	0xbcdb4c1d	-0.026769692
215	0xbe44c8b3	-0.19217186
216	0x3d27f79a	0.041007616
217	0xbe8045ce	-0.25053257
218	0xbe2213d4	-0.15827876
219	0xbc592ec0	-0.013255775
220	0x3bdc1b94	0.0067171548
221	0xbd662fbc	-0.056197867
222	0x3d9f1f42	0.07769634
223	0xbe507141	-0.20355703
224	0xbdc6ac1c	-0.09700796
225	0xbccdce88	-0.025122896
226	0x3db90d87	0.09035783
227	0x3de78ac9	0.11305768
228	0xbe1edb4b	-0.15513341
229	0xbceff801	-0.029293062
230	0x3e069151	0.13141371
231	0x3d30979b	0.043113332
232	0xbdfdfee9	-0.12402136
233	0x3e070605	0.1318589
234	0xbcaf8378	-0.021424994
235	0xbc9739fc	-0.018460266
236	0xbc5923b5	-0.013253142
237	0x3ce94c4c	0.028478764
238	0x3e1f52ad	0.15558882
239	0xbe04d448	-0.12971604
240	0x3e3fea20	0.18741655
241	0x3e11d40f	0.1424105
242	0x3d49b547	0.049245145
243	0x3d9ed7e2	0.0775602
244	0x3d8088c4	0.06276086
245	0x3d307685	0.04308178
246	0x3e3fc6f6	0.18728241
247	0x3c369a52	0.011145191
248	0xbc8522f2	-0.016252015
249	0xbd1b300a	-0.03788761
250	0xbcf9a8ea	-0.030476052
251	0x3e18c10e	0.14917395
252	0xbdf1e48d	-0.11811171
253	0x3dd0888f	0.101822965
254	0x3da9a35c	0.082831115
255	0x3e3e988a	0.18612877

decoder.2.bias f4 [64]
0	0xbd5e2f55	-0.054244358
1	0x3dae2521	0.085031755
2	0xbe540db1	-0.20708348
3	0x3d9f3379	0.077734895
4	0xbd880811	-0.066421635
5	0x3e1dc8a7	0.15408574
6	0x3c88b696	0.016688626
7	0xbd4f9435	-0.05067845
8	0xbe1af336	-0.1513184
9	0x3d648b91	0.055797163
10	0x3dcc8a47	0.09987312
11	0x3e3dd55a	0.18538418
12	0xbdedafd4	-0.11605802
13	0x3b938d3c	0.0045029204
14	0xbc30a555	-0.010781606
15	0x3e3adbad	0.18247862
16	0x3e0fd0bc	0.1404447
17	0x3cb5d621	0.022196831
18	0x3d543e85	0.051817436
19	0xbcb325be	-0.021868583
20	0x3d88848f	0.066659085
21	0xbd8edc23	-0.069755815
22	0x3d9015e1	0.07035423
23	0x3dc0959b	0.09403535
24	0xbd87ab9e	-0.0662453
25	0x3dfb5a4a	0.12273081
26	0xbd74bc39	-0.059749816
27	0xbe710ed6	-0.23540816
28	0x3e1f83b3	0.15577583
29	0xbd150e28	-0.036390454
30	0xbd2fd197	-0.04292449
31	0xbcf24c4d	-0.029577399
32	0x3e246ac6	0.16056356
33	0xbc78ca72	-0.0151849855
34	0x3e575f91	0.2103255
35	0xbe0951ae	-0.13410065
36	0x3e09726d	0.13422556
37	0x3e2f2326	0.17103252
38	0xbcac1363	-0.021005338
39	0xbe0397d3	-0.12850885
40	0x3e2e7cec	0.17039841
41	0xbda25be0	-0.0792768
42	0xbe1d94c8	-0.15388787
43	0x3d28f0b2	0.04124517
44	0x3da149a7	0.07875376
45	0x3e4857ea	0.19564787
46	0xbe3aac5b	-0.18229811
47	0xbdd87008	-0.10568243
48	0xbd8558be	-0.06511067
49	0xbde6c25e	-0.11267541
50	0xbd172664	-0.036901847
51	0x3dbbc807	0.091690116
52	0xbdb4217e	-0.08795451
53	0xbd090e75	-0.033461053
54	0xbdc256e9	-0.09489233
55	0x3d36c9cc	0.044626042
56	0x3e2a29df	0.16617535
57	0x3a9fdc2d	0.0012196355
58	0x3e24f876	0.16110405
59	0x3d90659f	0.07050633
60	0x3e5d7546	0.21626768
61	0x3d037f58	0.032103866
62	0xbe047822	-0.12936452
63	0x3e4c65e2	0.1996074
