Save_Models/model-lat19.pth (torch, 195638 bytes, 16 tensors)

encoder.0.weight f4 [128, 99]
0	0xbdead8bf	-0.11467122
1	0xbcca1021	-0.024665894
2	0x3c036cc6	0.008021539
3	0x3d92f660	0.071758986
4	0xbd9e3445	-0.07724813
5	0xbddf1627	-0.10892897
6	0x3d796599	0.060887907
7	0xbb78d615	-0.00379694
8	0xbdad8a9d	-0.08473704
9	0xbd3b0d26	-0.045666836
10	0x3d1371f2	0.03599734
11	0xbd817877	-0.06321805
12	0xbd96a434	-0.07355538
13	0xbb07cb08	-0.0020720381
14	0x3d0c2cf2	0.03422255
15	0x3d9ec5e2	0.07752587
16	0xbd431205	-0.047624607
17	0xbd6547ce	-0.05597668
18	0xbc5b753b	-0.013394649
19	0xbd410481	-0.047123436
20	0x3d3124fb	0.043248158
21	0x3d648c5e	0.055797927
22	0x3b02aafc	0.001993834
23	0xbd1c259b	-0.0381218
24	0xbae5bd46	-0.0017527721
25	0xbd2cf178	-0.04222247
26	0x3cc75e03	0.02433682
27	0x3c61e3b7	0.013787202
28	0x3b0500e9	0.0020294732
29	0x3d862532	0.06550063
30	0x3d0b0b8d	0.033946563
31	0xbde649ff	-0.112445824
32	0x3d18c91f	0.03730118
33	0xbdb09ce2	-0.08623673
34	0xbd1ea6f9	-0.038733456
35	0xbdb1dcce	-0.08684693
36	0xbd8924db	-0.06696483
37	0x3d1386f1	0.036017362
38	0xbd9b213d	-0.07574699
39	0x3d428cb9	0.047497485
40	0xbdd5105f	-0.10403513
41	0x3d45ea1d	0.04831897
42	0x3da6b44c	0.08139858
43	0x3d01d388	0.031695873
44	0xbda68196	-0.08130185
45	0xbd19d1cf	-0.037553605
46	0xbd9f8196	-0.077883884
47	0xbd06a05c	-0.032867774
48	0x3d3c34dd	0.04594885
49	0x3cc21fa1	0.023696722
50	0xbc3c5f1f	-0.011497288
51	0xbdbf1a8f	-0.093312375
52	0xbbcddbee	-0.006282321
53	0xbcbcbc2d	-0.023038948
54	0xbd3ad6f8	-0.045615166
55	0x3c875170	0.016518325
56	0xbce6ec0c	-0.028188728
57	0x3d816822	0.0631869
58	0x3c71ec2f	0.014765783
59	0x3dca621f	0.09881996
60	0x3c3cfe2b	0.011535208
61	0xbd895bc2	-0.067069545
62	0x3d861ba8	0.06548244
63	0xbd212505	-0.039341945
64	0x3c77093a	0.015077883
65	0x3dddcd7f	0.10830211
66	0xbdb05118	-0.086092174
67	0xbdacdf32	-0.084410086
68	0x3d496da8	0.049176842
69	0xbd14b636	-0.036306582
70	0xbd84e3c6	-0.06488757
71	0x3d718414	0.05896385
72	0x3d553194	0.052049235
73	0x3da133b5	0.078711905
74	0x3da77b12	0.08177771
75	0xbd8c8b59	-0.06862516
76	0xbd970f33	-0.07375946
77	0xbc49b7a4	-0.01231185
78	0x3c327fc1	0.010894717
79	0x3dc2339b	0.09482499
80	0xbdacafd2	-0.084319726
81	0x3db789b8	0.08961815
82	0x3d9ab990	0.075549245
83	0x3c69832c	0.014252465
84	0xbbac3775	-0.0052556344
85	0x3b03d2b0	0.0020114593
86	0xbca035fc	-0.019556992
87	0x3d464be2	0.04841221
88	0x3bc20349	0.005920802
89	0x3da10dcd	0.078639604
90	0x3c487e8f	0.012237205
91	0xbd7c252d	-0.06155889
92	0xbd75b788	-0.059989482
93	0xbdbd88cf	-0.0925461
94	0xbd058224	-0.032594815
95	0xbd9afbf8	-0.075675905
96	0x3d86c27b	0.06580063
97	0x3d16cc8e	0.036816172
98	0x3d8d9ff4	0.06915274
99	0x3d132a2b	0.035928886
100	0x3dba09d7	0.09083908
101	0xbdbc55ac	-0.09196028
102	0xbdb4ffc3	-0.08837845
103	0xbdcbac16	-0.09944932
104	0xbd937d65	-0.072016515
105	0x3d1bc0fb	0.038025837
106	0x3b872f05	0.004125478
107	0xbd0ab664	-0.033865348
108	0x3d76bdb0	0.060239494
109	0xbd02ad78	-0.031903714
110	0xbc835871	-0.016033383
111	0x3c9d4099	0.019195842
112	0x3d89feaa	0.067380264
113	0x3d641b83	0.0556903
114	0xbdc47bdb	-0.09593936
115	0x3cc3c11e	0.023895796
116	0xbd5dd360	-0.05415666
117	0x3cd4e383	0.025987392
118	0xbc458010	-0.012054458
119	0xbd90915c	-0.07058975
120	0x3d400330	0.04687804
121	0xbdd69539	-0.10477681
122	0xbdcb85c9	-0.09937627
123	0x3d335bba	0.04378865
124	0xbb3d0b84	-0.0028845975
125	0x3ccd5890	0.025066644
126	0xbdc27483	-0.09494879
127	0x3afde720	0.0019371249
128	0x3d1c003f	0.038086172
129	0xbd5a4434	-0.0532877
130	0xbcadc3c3	-0.02121151
131	0x3d535e86	0.051603816
132	0xbd838878	-0.06422514
133	0x3db67990	0.08909905
134	0xbd87b96f	-0.066271655
135	0x3ce3e5b9	0.027819501
136	0x3d1cc947	0.03827789
137	0xbb9ba5b9	-0.0047499803
138	0xbc82a78f	-0.015949039
139	0xbd90ac4c	-0.07064113
140	0x3d1968f0	0.03745359
141	0x3d873fa2	0.06603934
142	0x3d8a6c8c	0.06758985
143	0x3ca19898	0.019726083
144	0x3db81517	0.089883976
145	0xbd8eb96d	-0.06968961
146	0xbd5d87c2	-0.054084547
147	0x3d989344	0.07449964
148	0x3d44dfb0	0.048064888
149	0x3d3663b2	0.04452867
150	0x3ce1aa8a	0.02754714
151	0x3dacc362	0.08435704
152	0xbbf86f95	-0.007581661
153	0x3d9be45d	0.07611916
154	0xbdbee3ba	-0.09320779
155	0x3d95e90b	0.0731984
156	0x3d976538	0.07392353
157	0xbc83c067	-0.016082956
158	0xbcb947d2	-0.022617254
159	0xbc165d53	-0.009177524
160	0x3cccfdcd	0.025023365
161	0xbc4a8a43	-0.012362066
162	0x3d888b8b	0.06667241
163	0xbd076910	-0.03305918
164	0x3db74cda	0.08950205
165	0xbc09dad0	-0.008413985
166	0x3cce1d66	0.025160503
167	0xbd3f15a4	-0.046651497
168	0x3dab7bdb	0.08373233
169	0xbd600261	-0.05468977
170	0xbca74af0	-0.020421475
171	0x3c8b45d0	0.017001063
172	0xbd0922a2	-0.033480294
173	0xbd5d9f78	-0.05410716
174	0x3d0ce4b9	0.034397814
175	0x3d4346ad	0.047674824
176	0x3ddc7e32	0.10766257
177	0x3b7b7691	0.0038370232
178	0x3da8bff3	0.082397364
179	0xbd431de4	-0.047635928
180	0x3d389c4a	0.045070924
181	0x3ba43bd4	0.005012015
182	0xbd03d90f	-0.032189425
183	0xbcc2825d	-0.023743803
184	0x3c77a0d9	0.015114033
185	0x3d725d36	0.059170924
186	0x3de438b2	0.11143626
187	0x3dffdcad	0.124932624
188	0xbd4cfade	-0.050043933
189	0xbcffbb2f	-0.031217186
190	0xbd58b8dd	-0.052910674
191	0x3df06ec2	0.117398754
192	0x3da36bb5	0.07979528
193	0x3d404ff5	0.046951253
194	0x3dc3ee46	0.095669314
195	0x3db42fb8	0.08798164
196	0xbd444277	-0.04791495
197	0x3db8fddf	0.09032797
198	0xbdc6b3cf	-0.097022645
199	0x3c6a1e27	0.014289415
200	0x3d061ce2	0.03274239
201	0x3d398493	0.04529245
202	0x3b2729fa	0.0025507198
203	0xbd1799e8	-0.03701201
204	0x3dc20b62	0.09474827
205	0x3d8c7c07	0.06859594
206	0x3d92abd7	0.07161682
207	0xbc73912b	-0.014866154
208	0x3cdfcab6	0.02731834
209	0xbba6e9bc	-0.0050937813
210	0x3cde85c4	0.027163394
211	0xbd8cdcc6	-0.06878047
212	0xbd793972	-0.0608458
213	0x3b9b069e	0.0047310134
214	0x3d8c8e6d	0.06863103
215	0x3c354326	0.011063373
216	0x3dd27564	0.10276297
217	0xbdacf85d	-0.08445809
218	0x3d6db136	0.05803033
219	0xbc52b20a	-0.012859831
220	0xbdadb54d	-0.08481846
221	0xbd7ab1d6	-0.061204754
222	0x3d6aa83b	0.057289343
223	0x3a39ad60	0.0007083025
224	0x3a662188	0.00087788
225	0xbbf4ad60	-0.007466957
226	0xbd8ccaad	-0.06874595
227	0x3c718a42	0.014742436
228	0xbd246d92	-0.040143557
229	0x3d2ac01c	0.041687116
230	0x3d2c4361	0.042056445
231	0xbcd49c6f	-0.0259535
232	0x3d67df2d	0.05660932
233	0x3dcab3c6	0.0989757
234	0x3dc2d055	0.095123924
235	0x3dc0656f	0.09394347
236	0xbd357da1	-0.044309262
237	0xbc00ad09	-0.007853755
238	0xbc3d787a	-0.011564368
239	0xbd2f4ca4	-0.0427977
240	0x3cf3c1a2	0.029755417
241	0x3db1f258	0.086888015
242	0x3de6405d	0.11242745
243	0x3bb17888	0.00541598
244	0x3d1861ae	0.03720253
245	0x3da212ed	0.07913766
246	0x3dca276a	0.09870799
247	0xbd77944c	-0.06044416
248	0x3d106e6e	0.035261564
249	0x3da0d72d	0.078535415
250	0x3c17af13	0.00925805
251	0x3d483a65	0.048883814
252	0xbda6f852	-0.08152832
253	0x3bd1297b	0.0063831187
254	0xbceeb197	-0.029137416
255	0x3d592841	0.053016905

encoder.0.bias f4 [128]
0	0xbeb6f4a4	-0.3573352
1	0xbe38d77d	-0.18050952
2	0xbe15bcd7	-0.14622818
3	0xbe3d633e	-0.18494889
4	0xbe8c2bd9	-0.27377203
5	0xbe9268d3	-0.285956
6	0xbdb2ce78	-0.08730787
7	0xbebe7ec7	-0.37206098
8	0xbea93d66	-0.33054656
9	0xbec8a9c7	-0.3919203
10	0xbee2066b	-0.44145522
11	0xbe7d1a07	-0.2471696
12	0xbc6023a8	-0.013680376
13	0xbe773488	-0.24141133
14	0x3dd3d77b	0.10343834
15	0xbeacf96b	-0.3378404
16	0xbde3ac62	-0.11116864
17	0xbe3077c9	-0.17233194
18	0xbe037453	-0.12837343
19	0xbea2d4b1	-0.31802896
20	0xbe559afa	-0.208599
21	0xbed5dacf	-0.417685
22	0xbe462c4e	-0.19352838
23	0xbe7231b6	-0.23651776
24	0xbd2224f1	-0.03958601
25	0xbeb0eae1	-0.34554198
26	0xbe3bb0e5	-0.18329199
27	0xbdf187c8	-0.11793476
28	0xbe92fe93	-0.2870985
29	0xbe018103	-0.1264687
30	0xbedd7dc0	-0.43260002
31	0xbe6786c2	-0.2261
32	0xbe85ec1a	-0.26156694
33	0xbdd9701c	-0.10617086
34	0xbec14102	-0.3774491
35	0xbe18cb74	-0.14921361
36	0xbea48f7e	-0.32140726
37	0xbe7c488b	-0.24637048
38	0xbe4fd22c	-0.20295018
39	0xbe37b0b5	-0.17938502
40	0xbe678b8b	-0.22611825
41	0xbd421d5d	-0.047391284
42	0xbea14147	-0.31495115
43	0xbe89dfd1	-0.2692857
44	0xbea5da9d	-0.3239335
45	0xbddb313a	-0.107027486
46	0xbe87b5d3	-0.26505908
47	0xbeaca031	-0.33715966
48	0xbe6b3829	-0.22970642
49	0xbe240188	-0.16016209
50	0xbeb98f33	-0.36242065
51	0xbe53baac	-0.20676678
52	0xbe8bc77c	-0.27300632
53	0x3d7ddc27	0.06197753
54	0xbe8acdfa	-0.27110273
55	0xbe31d925	-0.1736799
56	0xbea014c4	-0.31265843
57	0xbe1e57f9	-0.15463246
58	0xbe84749b	-0.25870213
59	0xbeb267e9	-0.34844902
60	0xbe813580	-0.2523613
61	0xbe26f588	-0.163046
62	0xbef74197	-0.4829223
63	0xbcd4bb52	-0.025968228
64	0xbe83cae8	-0.25740743
65	0xbec60a58	-0.38679767
66	0xbe9aee67	-0.30260012
67	0xbd292b57	-0.041301098
68	0xbedc84f7	-0.43070194
69	0xbe9dcd87	-0.30820867
70	0xbe84234e	-0.25808185
71	0xbe6bb6c5	-0.2301894
72	0xbe92f383	-0.2870141
73	0xbe6520d3	-0.22375803
74	0xbe6dff86	-0.23242006
75	0xbe4b0196	-0.19824824
76	0xbe40102a	-0.18756166
77	0xbe9a9361	-0.30190566
78	0xbe66f06b	-0.2255265
79	0xbe612f28	-0.21990645
80	0xbe9cc0d9	-0.3061588
81	0xbd0c9c3c	-0.034328684
82	0xbec3054d	-0.38089982
83	0xbd1b41d3	-0.03790457
84	0xbe817f33	-0.25292358
85	0xbdd9bf67	-0.1063221
86	0xbe8d2c02	-0.27572638
87	0xbe663387	-0.22480594
88	0xbe413208	-0.18866742
89	0x3c639f3a	0.013892943
90	0xbe7ff474	-0.24995595
91	0xbe633795	-0.22189172
92	0xbe761452	-0.24031189
93	0xbdf645fe	-0.12025069
94	0xbe9c6587	-0.3054621
95	0xbe315709	-0.17318358
96	0xbe081bb6	-0.13291821
97	0xbe516eb6	-0.20452389
98	0xbe44540b	-0.19172685
99	0xbe014974	-0.12625676
100	0xbe523a85	-0.20530136
101	0xbe6c2b75	-0.23063453
102	0xbd7f63a4	-0.062350884
103	0xbe2a1525	-0.16609628
104	0xbe81f3df	-0.2538137
105	0xbe0c425f	-0.13697194
106	0xbeaf6703	-0.3425828
107	0xbe9aec99	-0.30258635
108	0xbe6a973c	-0.22909254
109	0xbda3345f	-0.07968973
110	0xbeb1e2fa	-0.34743482
111	0xbe34151c	-0.17586178
112	0xbe0700ec	-0.13183945
113	0xbe289b13	-0.16465406
114	0xbe9c9b1b	-0.30587086
115	0xbeaa6b67	-0.33285066
116	0xbe7aaa46	-0.24479017
117	0xbde38f05	-0.11111263
118	0xbdd5fcc5	-0.104486026
119	0xbe3f72f3	-0.18696193
120	0xbe837f4a	-0.2568305
121	0xbe916983	-0.28400812
122	0xbe918fa8	-0.28429914
123	0xbe2dee61	-0.16985466
124	0xbe230a94	-0.15922004
125	0xbe298267	-0.16553651
126	0xbe687b45	-0.22703274
127	0xbe93fa6b	-0.2890199

encoder.3.weight f4 [64, 128]
0	0x3df1c497	0.11805075
1	0xbbecfc4d	-0.007232225
2	0x3d356e1f	0.044294473
3	0x3d3a8b68	0.045543104
4	0x3c9374f2	0.0180001
5	0xbc87dafb	-0.01658391
6	0xbd8defec	-0.06930527
7	0x3d93e444	0.072212726
8	0xbd8fb14d	-0.07016239
9	0x3de67644	0.11253026
10	0x3e63c1a8	0.22241843
11	0xbc48d470	-0.01225768
12	0x3db03a03	0.08604815
13	0x3df86781	0.12129117
14	0x3b52c9f0	0.003216382
15	0x3dce5e5e	0.10076593
16	0xbcc8ba6a	-0.024502952
17	0x3cc59998	0.02412109
18	0xbc1d3bfd	-0.009596822
19	0xbbfa39ed	-0.0076363
20	0xbc1c4b63	-0.009539458
21	0xbb6f8e6c	-0.0036553396
22	0x3d283d09	0.041073833
23	0xbce6b3ab	-0.028161844
24	0xbc9f4e0a	-0.019446392
25	0xbd0c7583	-0.034291755
26	0xbd067cf5	-0.032834012
27	0x3cdcc2b7	0.026948316
28	0x3d1d53aa	0.038409866
29	0xbd047556	-0.032338463
30	0x3aac90e8	0.0013165744
31	0x3c40f5d3	0.011777359
32	0x3d85e9ab	0.06538709
33	0x3d9a449f	0.0753262
34	0x3d48f2c2	0.049059637
35	0xbcd754ca	-0.026285548
36	0x3dba8272	0.09106912
37	0x3d7a1c35	0.061062057
38	0x3dc48347	0.09595352
39	0x3c9059e9	0.017620998
40	0xbca1a834	-0.019733526
41	0xbd7a8af1	-0.06116766
42	0xbd7f28d6	-0.062294804
43	0x3d56ab1c	0.052409276
44	0xbc8522dc	-0.016251974
45	0xbd965493	-0.0734035
46	0xbd257bd6	-0.040401302
47	0xbc04acb4	-0.008097816
48	0x3cd56b7d	0.026052231
49	0x3d4bdd4f	0.049771603
50	0x3d898587	0.067149214
51	0xbc698603	-0.014253142
52	0x3d8c3a8a	0.06847103
53	0x3ca12883	0.019672638
54	0x3d0bdbc7	0.034145143
55	0x3d47ca23	0.048776757
56	0x3e06cd8a	0.13164344
57	0x3dcdbd71	0.10045899
58	0x3dbb6092	0.09149279
59	0x3dede9af	0.11616837
60	0xbc4d1d03	-0.012519124
61	0x3d159a90	0.036524355
62	0x3e2e0015	0.16992219
63	0x3d821426	0.06351499
64	0x3dd7021f	0.104984514
65	0x3debeb01	0.11519433
66	0x3d439add	0.04775511
67	0xbd37ae80	-0.04484415
68	0x3d91d883	0.071213745
69	0x3d1ee4c9	0.038792405
70	0x3daf4cd0	0.08559573
71	0x3dbb17d9	0.09135408
72	0xbca70aff	-0.020390986
73	0xbdf2a743	-0.11848309
74	0xbcb04afa	-0.021520127
75	0xbdba0ce7	-0.09084492
76	0xbc80a8b7	-0.01570545
77	0xbd0722ed	-0.032992292
78	0x3df9ec12	0.1220323
79	0x3dad3e57	0.08459156
80	0xbbb2d93c	-0.0054580253
81	0xbd0af189	-0.033921752
82	0x3dcd73ae	0.1003183
83	0xbc4e8535	-0.012605001
84	0xbbb64208	-0.0055620708
85	0xbc9c8590	-0.019106656
86	0x3ca6abbc	0.020345561
87	0xbd92d2f4	-0.07169142
88	0xbd056bda	-0.03257356
89	0xbdc54e38	-0.0963406
90	0x3e103b58	0.14085138
91	0xbc4740c6	-0.012161439
92	0x3dc0f2e3	0.09421327
93	0x3d8929e9	0.06697447
94	0x3d477b6c	0.04870169
95	0x3db98580	0.09058666
96	0xbdbb5bd4	-0.09148374
97	0x3ddf8b57	0.10915249
98	0x3d8de90d	0.069292165
99	0xbe0be49b	-0.13661425
100	0xbdf1682a	-0.11787446
101	0xbbceef20	-0.006315127
102	0xbd0dde15	-0.034635622
103	0xbca1b107	-0.019737734
104	0x3d82eae5	0.06392459
105	0x3c95a0b2	0.018265102
106	0x3d45f210	0.048326552
107	0x3cdaeab6	0.026723247
108	0xbdf8f266	-0.12155609
109	0xbd1bfaef	-0.038081106
110	0x3dfe1020	0.12405419
111	0x3d93788e	0.07200728
112	0xbcd922b9	-0.026505815
113	0x3d7da039	0.06192038
114	0x3dcb6987	0.09932237
115	0x3cd533d8	0.026025698
116	0xbd84c9c3	-0.064837955
117	0x3d7fc4a1	0.06244338
118	0xbe191485	-0.14949234
119	0x3c355846	0.011068409
120	0xbd0425d9	-0.032262657
121	0xba4f9be9	-0.0007919656
122	0x3dc3ca8a	0.09560116
123	0x3d2faae4	0.042887583
124	0x3d958cb8	0.073022306
125	0xbdb18d44	-0.086695224
126	0x3b647f3a	0.0034865872
127	0x3d94217f	0.072329514
128	0x3caf6f0d	0.021415258
129	0xbdf69375	-0.12039844
130	0xbcec0b61	-0.02881402
131	0x3d81db52	0.0634066
132	0x3dafeeea	0.08590491
133	0x3d054cf9	0.03254411
134	0xbe0a2983	-0.13492398
135	0x3de37b45	0.11107496
136	0xbdc671c8	-0.09689671
137	0x3c91904f	0.017769007
138	0xbdb59104	-0.0886555
139	0x3c086cb9	0.008326703
140	0x3c3c0c8c	0.011477601
141	0x3d889e69	0.06670839
142	0xbc42693c	-0.01186591
143	0xbd5e28ee	-0.054238252
144	0x3d9842e9	0.07434637
145	0x3d9b469e	0.075818285
146	0x3ca94167	0.02066107
147	0x3cab175e	0.020885166
148	0x3dab9625	0.08378247
149	0x3db7e2a5	0.08978776
150	0x3d99908e	0.07498275
151	0x3d66a2bc	0.05630754
152	0xbd0e2585	-0.03470375
153	0xbc8319ab	-0.01600345
154	0x3da640c7	0.08117824
155	0x3cbf4148	0.023346558
156	0xbbab37cd	-0.005225158
157	0x3d930b71	0.07179917
158	0xbdb1671b	-0.08662244
159	0x3c752f44	0.014964882
160	0xbb5a8700	-0.0033344626
161	0xbd28c59f	-0.04120409
162	0x3d24452c	0.04010503
163	0x3cf787b1	0.03021607
164	0xbd123c2d	-0.03570192
165	0x3ddf2548	0.10895783
166	0xbdaf11c8	-0.085483134
167	0xbc93fda2	-0.018065277
168	0x3d024347	0.031802442
169	0xbc0c06a5	-0.008546506
170	0xbda574d1	-0.080789216
171	0x3ddec266	0.10876922
172	0xbdfde426	-0.123970315
173	0xbd844e3a	-0.06460233
174	0x3dacd4d9	0.08439035
175	0xbd5b607a	-0.053558804
176	0x3d83a854	0.064285904
177	0xbd4593d4	-0.048236683
178	0xbd015413	-0.03157432
179	0xbc2ddf13	-0.010612267
180	0x3d9a22ec	0.07526192
181	0xbc99cc72	-0.018774245
182	0xbd84dfd1	-0.06488002
183	0xbd982453	-0.07428803
184	0xbb917883	-0.004439415
185	0xbd55a8bc	-0.05216287
186	0xbac0e806	-0.0014717586
187	0xbd892bea	-0.06697829
188	0xbd4240c6	-0.047425054
189	0xbd07a4e3	-0.033116233
190	0xbd5b3bc9	-0.053523812
191	0x3c23a88f	0.009988918
192	0x3d33218f	0.043733176
193	0x3afb7df0	0.0019187313
194	0xbc0480e8	-0.008087374
195	0xbdd7cbdd	-0.10536931
196	0x3c19ca05	0.009386544
197	0xbd11c786	-0.03559067
198	0xbcfba193	-0.030716693
199	0x3da3b7c8	0.07994038
200	0xbd129687	-0.035788085
201	0xbc518708	-0.012788542
202	0xbd12a771	-0.035804216
203	0xbe1ee848	-0.15518296
204	0x3ca252dc	0.019814901
205	0x3d7f15d6	0.062276684
206	0x3d9c34af	0.07627236
207	0x3dad9742	0.08476116
208	0x3dbf79c3	0.09349396
209	0x3b8ebec8	0.004356239
210	0x3dd3f472	0.103493586
211	0x3cb31bd5	0.021863857
212	0xbd37376d	-0.044730593
213	0xbca85abd	-0.02055108
214	0xbd03279e	-0.032020204
215	0x3c8c7ae6	0.017148446
216	0x3d1d123b	0.038347464
217	0x3c7ae8bd	0.015314278
218	0xbc0d1153	-0.008610087
219	0x3d6243ae	0.055240326
220	0x3d30fd99	0.0432106
221	0xbcde19bf	-0.027111886
222	0x3b1ff95a	0.00244101
223	0xbcca252c	-0.024675928
224	0xbc73aab6	-0.014872244
225	0xbb3ff301	-0.0029289129
226	0xbd029bb6	-0.03188678
227	0xbc2833c9	-0.010266253
228	0x3d06f456	0.03294786
229	0x3c08d241	0.00835091
230	0xbd5a6c10	-0.053325713
231	0xbd68e3a5	-0.056857724
232	0xbde3850a	-0.111093596
233	0x3d133a7b	0.035944443
234	0x3cb14625	0.021639893
235	0xbcd505ff	-0.026003836
236	0xbdb7e67f	-0.089795105
237	0x3d66502d	0.056228805
238	0x3ba82138	0.005130913
239	0x3c0390e0	0.008030146
240	0xbd7c9670	-0.061666906
241	0xbd3e045c	-0.046390876
242	0x3d1a0e93	0.037611555
243	0x3d6d9db9	0.058011744
244	0xbc7fecba	-0.015620405
245	0x3d27ebe2	0.04099644
246	0xbd215c33	-0.03939457
247	0xbd0a48e4	-0.03376092
248	0xbd8b50cc	-0.0680252
249	0xbc9a6495	-0.01884679
250	0xbdcaff20	-0.099119425
251	0xbbe8e2aa	-0.0071070986
252	0x3d85eb9a	0.06539078
253	0xbddcd760	-0.10783267
254	0x3d8d8bea	0.06911452
255	0x3d4db1fd	0.05021857

encoder.3.bias f4 [64]
0	0xbe227b8f	-0.15867446
1	0xbd031acb	-0.032007974
2	0xbd653136	-0.055955134
3	0xbdfae3f3	-0.12250509
4	0xbe17f059	-0.14837779
5	0xbe40136f	-0.18757413
6	0xbe23b398	-0.15986478
7	0xbd9cddf5	-0.076595224
8	0xbcfaf465	-0.030634115
9	0xbea97895	-0.3309981
10	0xbe311010	-0.17291284
11	0xbdb90d76	-0.090357706
12	0xbcf7865d	-0.030215437
13	0xbd4cc5ff	-0.04999351
14	0xbe5a9f89	-0.2134992
15	0xbde02e3e	-0.1094632
16	0xbd3b9fc7	-0.045806672
17	0xbe745186	-0.23859224
18	0xbe41386e	-0.18869182
19	0xbded7e9e	-0.11596416
20	0xbe9c1a6f	-0.30488917
21	0xbd9c5c6a	-0.07634814
22	0xbe0fcbc7	-0.14042579
23	0xbce30c48	-0.027715817
24	0xbdb99845	-0.09062246
25	0xbdce588d	-0.100754835
26	0xbe437cc8	-0.19090569
27	0xbe7d40ad	-0.24731703
28	0xbd90bd72	-0.07067384
29	0xbe1e0577	-0.15431772
30	0xbed4489a	-0.4146164
31	0xbe1a90fb	-0.15094368
32	0xbe50e721	-0.20400669
33	0x3c606e21	0.013698132
34	0xbe2b7399	-0.16743316
35	0xbe5b0f48	-0.21392548
36	0xbe8d4a51	-0.2759576
37	0xbe5d6252	-0.21619537
38	0xbdd511eb	-0.10403808
39	0xbe860076	-0.26172227
40	0x3ce194bc	0.027536742
41	0xbe7b5f98	-0.24548185
42	0xbe2e3384	-0.17011839
43	0xbc2a0ec0	-0.010379493
44	0x3d8c8540	0.06861353
45	0x3cbed053	0.023292696
46	0xbe1df643	-0.15425973
47	0xbe4a8a23	-0.19779257
48	0xbdde4ed6	-0.108548805
49	0xbcc5799e	-0.024105843
50	0xbec669ea	-0.3875268
51	0xbe05db4c	-0.13071936
52	0xbe77ce6b	-0.24199836
53	0x3cd8b4ed	0.02645346
54	0xbe00e364	-0.12586743
55	0x3d70f38e	0.05882602
56	0xbde63f04	-0.11242488
57	0xbe91a711	-0.28447774
58	0x3d0face6	0.035077
59	0xbe4e5009	-0.20147718
60	0xbd6d854e	-0.057988457
61	0x3bdc1b5c	0.0067171287
62	0x3cd76a99	0.026295947
63	0xbe24d6d0	-0.1609757

encoder.6.weight f4 [32, 64]
0	0x3cc1fcdb	0.023680141
1	0xbaaada55	-0.0013035039
2	0x3cf12c09	0.029439943
3	0x3c433ae3	0.011915895
4	0x3d6871dd	0.056749213
5	0x3e080db7	0.13286482
6	0xbe3c7ec4	-0.18407732
7	0x3e10c881	0.14138986
8	0xbb219af6	-0.0024659014
9	0x3e332384	0.17494017
10	0xbd0328a2	-0.032021172
11	0xbb8820b7	-0.0041542905
12	0xbd2c20df	-0.042023536
13	0xbd748cb8	-0.059704512
14	0x3db56d0a	0.08858688
15	0xbd917ebb	-0.0710425
16	0x3c7244f3	0.014786947
17	0x3d6d40ad	0.057923008
18	0xbe5fe9d1	-0.21866538
19	0xbd3f2bec	-0.046672747
20	0x3ac506de	0.0015031954
21	0xbc05a48f	-0.00815691
22	0x3d23a08b	0.039948028
23	0x3cf2b6bc	0.02962815
24	0xbe2c9e4c	-0.1685726
25	0x3b9a71b3	0.004713261
26	0x3e14f9ae	0.1454837
27	0x3c97084c	0.018436573
28	0x3df86248	0.12128121
29	0x3ceade0f	0.028670339
30	0x3c08ff0c	0.008361589
31	0xbccc8e43	-0.02497018
32	0x3ce47ead	0.027892435
33	0xbd662d9a	-0.056195833
34	0xbc855da1	-0.016279997
35	0xbdec69f4	-0.115436465
36	0xbe46a4e8	-0.19398844
37	0xbd215947	-0.039391782
38	0xbe0721d7	-0.13196503
39	0x3c716ee3	0.01473591
40	0xbd079a1c	-0.033105955
41	0x3d716d50	0.05894214
42	0xbe60fb1d	-0.21970792
43	0x3d2c87ba	0.042121626
44	0xbce4854c	-0.027895592
45	0xbe2b82a7	-0.16749059
46	0xbd866627	-0.06562453
47	0xbdcc69b6	-0.099811
48	0xbe3f4972	-0.18680361
49	0x3d71372a	0.0588905
50	0x3e2468c1	0.16055585
51	0xbcc493f4	-0.02399633
52	0x3cd634bc	0.026148193
53	0xbdd5ea98	-0.10445136
54	0x3d37086c	0.044685766
55	0xbd177e1e	-0.03698551
56	0xbbd50cec	-0.0065017845
57	0xbcaf2ec5	-0.021384606
58	0x3d051eb2	0.032499976
59	0x3e0acff0	0.13555884
60	0xbc3d085a	-0.011537636
61	0x3cd215d4	0.025645174
62	0x3be84f2d	0.0070895166
63	0xbd9cb04f	-0.07650816
64	0x3d30a510	0.043126166
65	0x3d69f249	0.057115827
66	0x3c5b706b	0.013393502
67	0xbcae045a	-0.02124231
68	0xbdc3cc9f	-0.09560513
69	0xbd8b9514	-0.06815544
70	0x3d9172e7	0.07101994
71	0xbe1f8dec	-0.15581483
72	0xbd35ed64	-0.044415846
73	0xbdbb5135	-0.091463484
74	0xbcabd3de	-0.02097505
75	0xbdef762a	-0.1169246
76	0xbdcbbe46	-0.09948401
77	0xbe061b15	-0.13096268
78	0xbd96d059	-0.07363958
79	0x3c9ac1c3	0.01889122
80	0xbe374020	-0.17895555
81	0x3d247775	0.040152986
82	0x3e13b391	0.14423968
83	0x3d83c42c	0.06433901
84	0x3d44f4c6	0.048084997
85	0x3d4105bf	0.04712462
86	0x3a0b8456	0.0005322149
87	0xbe414425	-0.18873651
88	0x3cedb808	0.029018417
89	0xbd12aae3	-0.0358075
90	0xbe1a1237	-0.15046011
91	0x3c11d5ca	0.008901069
92	0xbd2ef492	-0.04271371
93	0xbcd30a2b	-0.025761684
94	0xbd232368	-0.039828688
95	0xbaece9e7	-0.001807508
96	0x3cd9ad08	0.026571766
97	0x3d136f19	0.035994623
98	0xbc0e7b13	-0.008696335
99	0xbcc456e2	-0.02396721
100	0x3e1ad5b5	0.15120585
101	0x3c5eb965	0.013594006
102	0xbde25164	-0.1105068
103	0x3dabf61c	0.08396551
104	0xbcf55d5a	-0.02995174
105	0xbc823690	-0.015895158
106	0x3dd5c159	0.10437269
107	0x3dc5de0f	0.09661495
108	0xbe40a2ac	-0.18812054
109	0xbccb0a0f	-0.02478507
110	0xbc70731b	-0.014675881
111	0x3e468671	0.19387223
112	0x3c3f3612	0.011670606
113	0xbe4ef1eb	-0.20209472
114	0xbe2b1852	-0.16708496
115	0xbda00a9c	-0.078145236
116	0x3d944eb3	0.07241573
117	0xbd9d5c3a	-0.076836064
118	0x3df09e1c	0.11748907
119	0xbca4295d	-0.020039255
120	0xbe058df5	-0.13042434
121	0x3c9a3077	0.018821938
122	0x3ce40c07	0.027837766
123	0xbd9a9c33	-0.07549324
124	0xbd0b9bae	-0.034084015
125	0xbda30b7b	-0.07961174
126	0x3cb0681c	0.021534018
127	0x3d9fae70	0.07796943
128	0x3d908b79	0.07057852
129	0x3d9eb15a	0.07748671
130	0x3d0a29e2	0.03373135
131	0xbdce14aa	-0.10062535
132	0x3ddcbc4e	0.10778104
133	0xbd713100	-0.05888462
134	0xbda08665	-0.07838134
135	0x3dbd1a1d	0.09233496
136	0x3dcdd095	0.100495495
137	0xbc295c09	-0.010336884
138	0x3dd4145f	0.10355448
139	0xbe21bb87	-0.15794192
140	0xbdb88545	-0.09009794
141	0xbe38fe32	-0.18065718
142	0x3d38a230	0.04507655
143	0xbd8c9d49	-0.06865937
144	0xbe09aeb4	-0.1344555
145	0x3d994abb	0.07484957
146	0xbde92941	-0.11384822
147	0xbdce4a09	-0.10072715
148	0x3e006c61	0.12541343
149	0x3dbca559	0.09211225
150	0x3de14abf	0.11000585
151	0x3d8badcc	0.068202585
152	0x3b236a53	0.00249352
153	0x3bc56058	0.006023448
154	0x3a06d8c0	0.00051439926
155	0xbe0e79e4	-0.13913685
156	0x3de997bf	0.114058964
157	0x3d3b9cf3	0.045803975
158	0xbc871823	-0.016491001
159	0x3b80c852	0.00393013
160	0x3df6af5c	0.12045166
161	0xbe663a91	-0.22483279
162	0x3cffd4ed	0.03122946
163	0xbd4ef6de	-0.0505284
164	0xbe4ed038	-0.20196617
165	0xbca5ed6f	-0.020254819
166	0xbdd80f5e	-0.10549806
167	0x3d271f6b	0.040801447
168	0xbe779443	-0.24177651
169	0xbd710fdd	-0.05885302
170	0xbdfa09eb	-0.12208923
171	0xbe7f3b83	-0.24925046
172	0xbe4a23dd	-0.19740243
173	0xbda2cfc1	-0.07949782
174	0xbcd91db5	-0.026503423
175	0x3d615af7	0.05501839
176	0xbda9cbb1	-0.08290804
177	0x3dd6b79c	0.104842395
178	0xbb833241	-0.0040037935
179	0x3c6bcdb7	0.014392308
180	0xbdcb4e05	-0.099269904
181	0xbd0f59be	-0.034997694
182	0xbd99f886	-0.07518105
183	0x3d278e8b	0.040907424
184	0xbe527ada	-0.20554677
185	0x3e0484e6	0.12941322
186	0x3cdb2e75	0.02675555
187	0xbda60193	-0.08105769
188	0xbda240d6	-0.07922523
189	0xbc594b72	-0.0132626165
190	0x3c73e1b8	0.0148853585
191	0xbbf396b3	-0.007433736
192	0xbd1717ad	-0.036887813
193	0xbda740cf	-0.08166658
194	0xbd0bb42e	-0.03410738
195	0x3cd645d9	0.026156353
196	0x3e0e5086	0.13897905
197	0x3d7d343b	0.06181739
198	0x3de33ccc	0.110955805
199	0xbd8e1cc0	-0.069390774
200	0xbd10cdbf	-0.035352465
201	0x3cf16004	0.02946473
202	0x3dd24de0	0.1026876
203	0x3d8745dc	0.066051215
204	0x3db5e0e4	0.08880785
205	0x3d84cb22	0.06484057
206	0xbdf4d4ff	-0.11954688
207	0xbd5af066	-0.053451918
208	0x3ddedd32	0.108820334
209	0x3dc42256	0.095768616
210	0x3db6e164	0.089297086
211	0x3d9facec	0.07796654
212	0x3e034299	0.12818374
213	0x3d01f01f	0.031723138
214	0x3c3cddbe	0.011527477
215	0x3d4e5566	0.05037441
216	0x3e11de93	0.14245062
217	0x3cdeaae1	0.02718109
218	0x3dceb4c0	0.10093069
219	0x3dee43de	0.116340384
220	0x3d10ddb0	0.035367668
221	0xbd528b3b	-0.05140231
222	0x3e3b9e26	0.18322048
223	0xbdc1b2a5	-0.09457902
224	0xbcad4bde	-0.02115434
225	0x3e1ac906	0.15115747
226	0xbd0c32b7	-0.034228053
227	0x3d7f148b	0.06227545
228	0x3dc8b3ef	0.097999446
229	0xbda98777	-0.08277791
230	0x3e3093c2	0.17243865
231	0xbd0fc20b	-0.035097163
232	0x3e10e52e	0.14149925
233	0x3dbeac33	0.09310188
234	0x3e0373ba	0.12837115
235	0xbc24dcfa	-0.010062451
236	0x3dd6b239	0.10483212
237	0xbe688b3c	-0.22709364
238	0x3d8f65a7	0.070018105
239	0xbd5d3e64	-0.05401458
240	0x3ce88de6	0.028387975
241	0xbc5dda14	-0.013540763
242	0x3c87f861	0.016597928
243	0x3dbb6270	0.09149635
244	0xbc0426bc	-0.008065876
245	0x3e13b4e1	0.14424469
246	0xbb8f9a07	-0.004382375
247	0x3d868083	0.065674804
248	0x3d8354fe	0.06412695
249	0x3d6b0f83	0.05738784
250	0xbddc1ea2	-0.1074803
251	0xbce2ccc9	-0.02768554
252	0xbd0bb44f	-0.034107503
253	0x3d67eb3d	0.056620825
254	0xbddea16f	-0.10870635
255	0x3d575043	0.052566778

encoder.6.bias f4 [32]
0	0x3d86e7df	0.06587195
1	0x3cb9115a	0.022591282
2	0x3ccfac7c	0.025350802
3	0xbd0ec8dc	-0.034859523
4	0x3dbb2761	0.0913837
5	0xbbbdc880	-0.0057917237
6	0x3da2d2f3	0.079503916
7	0x3d45bc1f	0.04827511
8	0x3d2ddd42	0.042447336
9	0x3d650d40	0.05592084
10	0x3e13f639	0.14449395
11	0x3da0644a	0.078316286
12	0x3d008729	0.0313789
13	0xbe0b0bfe	-0.13578793
14	0xbe4a02f2	-0.19727686
15	0x3d6be48f	0.057591017
16	0x3b39de64	0.0028361315
17	0xbdcb18eb	-0.09916862
18	0xbdb8cf1b	-0.09023877
19	0xbe571e67	-0.21007691
20	0x3ce8c089	0.02841212
21	0xbadf81c5	-0.0017052224
22	0x3d0c0989	0.03418878
23	0xbd5830e6	-0.05278101
24	0x3c278f36	0.010227015
25	0x3d20f4f4	0.039296106
26	0x3d9ab38e	0.075537786
27	0x3d364796	0.044501863
28	0xbd0d5a17	-0.034509744
29	0x3dd6e435	0.10492746
30	0xbe8d1c12	-0.27560478
31	0xbe0f317a	-0.13983718

encoder.9.weight f4 [19, 32]
0	0xbcf1d8ac	-0.029522263
1	0x3c43d81c	0.01195338
2	0x3e407121	0.18793155
3	0x3dd3cd34	0.10341874
4	0x3b21a99e	0.002466775
5	0x3d23d477	0.039997544
6	0x3e36c6d8	0.1784929
7	0x3dc2c4af	0.09510171
8	0xbe1a92ff	-0.15095137
9	0x3d8495ac	0.0647386
10	0x3d623600	0.05522728
11	0x3e131826	0.1436468
12	0x3d97a0a7	0.07403689
13	0xbe594666	-0.21218261
14	0xbd6ec2a5	-0.058291096
15	0x3c52f6c8	0.01287622
16	0x3c7ae0dd	0.015312401
17	0x3e20f5ec	0.15718812
18	0x3cf5b866	0.029995155
19	0xbda9ae95	-0.08285252
20	0xbd7c1d6b	-0.061551493
21	0x3c0d71bb	0.0086330725
22	0xbe17b509	-0.14815153
23	0x3e1e830e	0.15479681
24	0xbe151ec5	-0.14562519
25	0x3c5960f2	0.0132677425
26	0xbd287df0	-0.04113573
27	0x3e0c644c	0.13710135
28	0x3db5c5ce	0.08875619
29	0x3dc05224	0.09390667
30	0xbd582452	-0.052769013
31	0xbdf3db6e	-0.11907087
32	0x3e081e30	0.13292766
33	0x3e637bec	0.22215241
34	0xbdabd6d6	-0.08390586
35	0xbe453f59	-0.19262446
36	0xbe5b9199	-0.2144226
37	0xbd9fda6e	-0.07805334
38	0x3e381a3c	0.17978758
39	0x3c94cea1	0.018164935
40	0x3e401d18	0.18761098
41	0x3d957ef5	0.07299606
42	0xbe080b04	-0.13285452
43	0xbe53a538	-0.20668495
44	0x3dec7c2d	0.11547122
45	0xbdcb78ee	-0.09935175
46	0xbe198370	-0.14991546
47	0x3e0d71c0	0.13812923
48	0xbe2725a4	-0.16322953
49	0xbccba3b6	-0.024858337
50	0x3d5f25e1	0.054479484
51	0xbd97e436	-0.07416575
52	0xbc2d531f	-0.0105789
53	0xbe371af9	-0.17881383
54	0xbdad312a	-0.08456643
55	0x3d86e1d8	0.06586045
56	0xbdfb1f72	-0.12261857
57	0x3e107217	0.14106022
58	0x3c8c51a3	0.017128771
59	0xbcdfa286	-0.027299177
60	0xbde0bc24	-0.10973385
61	0x3db7d29e	0.08975719
62	0xbda7371b	-0.081648074
63	0x3df808ad	0.1211103
64	0x3e3a96b3	0.1822155
65	0xbdd05d16	-0.10174005
66	0x3d5e58a1	0.05428374
67	0xbe1e0f60	-0.15435553
68	0x3db34147	0.08752685
69	0xbd4bbb17	-0.04973897
70	0x3d6e419b	0.058168035
71	0x3e1f37c6	0.1554862
72	0x3e1b7c49	0.1518413
73	0x3e095989	0.13413061
74	0x3d730934	0.05933495
75	0x3e107c0a	0.14109817
76	0xbdc8df22	-0.09808184
77	0xbe0196f0	-0.12655234
78	0xbd00c75c	-0.031440124
79	0x3e2fb539	0.17158975
80	0x3e03c3f5	0.1286772
81	0xbe52b167	-0.20575486
82	0x3d89a17b	0.06720253
83	0x3d71f472	0.05907101
84	0xbd5adaeb	-0.053431433
85	0x3da3567f	0.07975482
86	0x3e0df043	0.13861184
87	0x3dcf79cc	0.10130653
88	0xbaed5f8b	-0.0018110139
89	0x3e2fa341	0.1715212
90	0x3ddc3626	0.107525155
91	0x3d5f965a	0.054586746
92	0x3e26dc49	0.1629497
93	0x3e2cdb60	0.1688056
94	0x3e0baf1a	0.13641015
95	0x3dff1e50	0.124569535
96	0xbe1ab455	-0.15107854
97	0xbdcbaab9	-0.09944672
98	0x3d8060dc	0.062684745
99	0xbd4b5660	-0.04964292
100	0x3cf4e386	0.029893648
101	0x3dc72899	0.0972454
102	0x3dd93240	0.106052876
103	0x3cd2d959	0.025738405
104	0x3d9ac68f	0.07557403
105	0x3cac3636	0.021021944
106	0x3d12bcde	0.03582465
107	0xbd8992d8	-0.06717461
108	0x3e01e2be	0.12684152
109	0x3d83bd9d	0.0643265
110	0x3d317d70	0.043332517
111	0xbd9f2231	-0.07770193
112	0xbd9b2a85	-0.07576469
113	0x3dd4f7a0	0.10398793
114	0xbd41fb6f	-0.047358926
115	0x3e033adf	0.12815426
116	0x3e1911d1	0.14948203
117	0xbc19c498	-0.0093852505
118	0xbe31f128	-0.1737715
119	0x3e00e691	0.12587954
120	0xbdfc4678	-0.12318128
121	0x3b20fa14	0.002456312
122	0x3e53ddd0	0.20690084
123	0xbd84905b	-0.06472846
124	0x3e19adb5	0.1500767
125	0xbe2a6d66	-0.16643295
126	0x3e2e458b	0.17018716
127	0x3bc7b520	0.00609459
128	0xbce4916c	-0.027901374
129	0x3bc0ab6b	0.0058798096
130	0xbe299df6	-0.16564164
131	0x3d44807d	0.0479741
132	0x3cf288ec	0.029606305
133	0xbe36788d	-0.17819424
134	0xbd9f6fed	-0.0778502
135	0xbb354787	-0.0027661042
136	0xbe22e650	-0.1590817
137	0xbe58a9bf	-0.21158503
138	0xbd04878b	-0.032355826
139	0x3d97f1b6	0.074191496
140	0x3e2e7b01	0.1703911
141	0x3cf80d20	0.030279696
142	0xbdbf5666	-0.09342651
143	0x3d2577ab	0.040397327
144	0xbe2e129b	-0.16999285
145	0x3e067ce8	0.13133585
146	0xbddf5070	-0.10904014
147	0xbde5f55e	-0.11228441
148	0x3d9ce995	0.0766174
149	0x3dbedf50	0.09319937
150	0x3e0c612a	0.1370894
151	0x3df58a46	0.11989264
152	0x3c6992db	0.0142562045
153	0xbe01213d	-0.12610336
154	0x3e1fd243	0.15607552
155	0x3cdc9be8	0.02692981
156	0x3e74bb5c	0.23899597
157	0xbdc53b3f	-0.09630441
158	0xbdaee1e6	-0.085391805
159	0x3d5d1752	0.053977318
160	0xbe3bb1bb	-0.18329518
161	0x3e40aacc	0.18815154
162	0x3cc8ec89	0.024526851
163	0x3cc157f5	0.023601511
164	0x3d1c99cf	0.03823262
165	0xbdcfa17c	-0.101382226
166	0xbdda21c6	-0.10650973
167	0xbde585cc	-0.1120716
168	0x3db9de25	0.09075574
169	0xbd8c5902	-0.068529144
170	0xbcdd12d2	-0.026986513
171	0xbd9daa3b	-0.076984845
172	0xbd6a857d	-0.05725621
173	0xbd84950c	-0.06473741
174	0x3b3b5877	0.0028586665
175	0xbdce732c	-0.10080561
176	0x3e173a15	0.1476825
177	0xbe1412a4	-0.14460236
178	0x3cd4fc3e	0.025999185
179	0x3dccb6c0	0.09995794
180	0xbe199ccb	-0.15001218
181	0x3e03910e	0.12848303
182	0x3e01a11a	0.12659112
183	0x3ddbca49	0.10731942
184	0xbdbdbde8	-0.09264737
185	0xbe53cb81	-0.206831
186	0xbe1e20f9	-0.15442266
187	0xbe1bfa47	-0.15232192
188	0x3e376ce2	0.17912629
189	0xbe1adede	-0.1512408
190	0x3ddf30b7	0.108979635
191	0xbe3680d7	-0.17822586
192	0xbe2cd76c	-0.16879052
193	0xbe125947	-0.14291869
194	0xbe0c4f8a	-0.13702217
195	0x3e579f99	0.21056975
196	0xbe2d9245	-0.16950329
197	0xbe4d6cbc	-0.2006101
198	0x3e0f61d7	0.14002167
199	0xbd671ba3	-0.05642284
200	0xbe06b468	-0.13154757
201	0xbdf40738	-0.11915439
202	0xbd9157d6	-0.070968315
203	0xbe3e7a84	-0.18601424
204	0xbcdde7c8	-0.027088061
205	0xbc9735a5	-0.018458197
206	0x3b973620	0.0046146065
207	0x3d03ee4f	0.03220969
208	0x3de63661	0.11240841
209	0x3e1ba292	0.15198734
210	0x3e2cce15	0.16875489
211	0x3d810453	0.06299653
212	0xbb853b9f	-0.0040659453
213	0xbd49bcc1	-0.049252275
214	0x3dae4a7f	0.08510303
215	0x3dc8d0de	0.09805463
216	0x3d4473d9	0.047962043
217	0xbc74cb77	-0.014941088
218	0xbb5d3f48	-0.0033759642
219	0xbdd3fcd0	-0.103509545
220	0x3e2d1fa9	0.16906609
221	0x3d877a3d	0.06615112
222	0xbe2aaf1a	-0.16668358
223	0xbd6384db	-0.055546623
224	0xbdd0dc40	-0.10198259
225	0xbb934010	-0.004493721
226	0x3c89a5b3	0.016802644
227	0xbe2c7192	-0.16840199
228	0x3bed5110	0.0072423294
229	0x3d183d45	0.037167806
230	0xbe111dd1	-0.1417153
231	0x3d4cb1a5	0.049974103
232	0xbe2da526	-0.1695753
233	0x3d25ff64	0.040526763
234	0x3d214d8f	0.039380606
235	0x3c326b5c	0.010889854
236	0xbdd23460	-0.10263896
237	0xbdf883ff	-0.12134551
238	0x3b8780cf	0.004135228
239	0xbdef9522	-0.11698367
240	0xbc138654	-0.009004194
241	0x3e812516	0.25223607
242	0xbd480487	-0.048832443
243	0x3a8b0422	0.001060609
244	0xbd619d5a	-0.055081703
245	0xbce3bc7e	-0.027799841
246	0xbe0d4b9b	-0.13798372
247	0x3dc18b6c	0.09450421
248	0xbd633e54	-0.055479363
249	0xbd4ca316	-0.04996022
250	0x3e3bd468	0.18342745
251	0xbe2f3db9	-0.17113389
252	0xbdc0b30b	-0.0940915
253	0xbddd8804	-0.108169585
254	0xbe46f0c3	-0.19427781
255	0x3da706c9	0.08155591

encoder.9.bias f4 [19]
0	0xbe39cdad	-0.18144865
1	0x3d5ca002	0.053863533
2	0x3d4a8ca9	0.04945055
3	0x3d00cbe2	0.031444438
4	0xbd9d6321	-0.07684923
5	0xbda220b7	-0.07916396
6	0x3e14ff3d	0.1455049
7	0xbe69c7a9	-0.2283007
8	0xbdfc51a0	-0.12320256
9	0x3d6dfcbc	0.058102354
10	0x3e16baa8	0.14719641
11	0x3e192494	0.1495536
12	0xbde57845	-0.1120458
13	0xbdd1858f	-0.102305524
14	0xbce6abe6	-0.02815814
15	0xbd3ff0c8	-0.046860486
16	0x3b0efb6d	0.0021817342
17	0xbdb210c4	-0.08694604
18	0x3e0f44a9	0.13991036

decoder.0.weight f4 [32, 19]
0	0x3c04b135	0.00809889
1	0x3e49a5e4	0.19692189
2	0x3e0fa98b	0.1402952
3	0x3e44bea9	0.19213356
4	0xbe425836	-0.18978962
5	0xbe832b9b	-0.25619206
6	0xbe45e467	-0.1932541
7	0xbe098fd8	-0.13433778
8	0x3e2f3088	0.17108357
9	0xbe34d673	-0.17659931
10	0xbe500197	-0.20313106
11	0x3ca5fc95	0.020262042
12	0xbe041ac8	-0.12900841
13	0xbc15bb0e	-0.009138836
14	0x3c2eed24	0.010676656
15	0xbda2f197	-0.07956236
16	0x3c9f7bb9	0.019468175
17	0x3e228f45	0.15874965
18	0xbdc6dda5	-0.09710244
19	0x3b8df985	0.0043327236
20	0x3d0139b0	0.031549156
21	0xbc30aa79	-0.010782831
22	0xbe552c6e	-0.2081773
23	0x3e2e77b9	0.17037858
24	0xbd96e4e6	-0.07367878
25	0xbe265279	-0.16242398
26	0xbe58e0a1	-0.21179439
27	0xbe4fcbcc	-0.20292586
28	0xbe76deb3	-0.2410839
29	0xbe3ba228	-0.18323576
30	0xbdada4a4	-0.08478668
31	0xbe717d51	-0.2358296
32	0x3de35468	0.111000836
33	0xbde43728	-0.11143333
34	0x3d426bc3	0.04746605
35	0xbe37a155	-0.17932637
36	0xbe31a96f	-0.1734979
37	0x3cef5b74	0.029218413
38	0xbd5cf924	-0.053948537
39	0x3c0d770b	0.008634339
40	0xbe3aa9d7	-0.18228851
41	0x3d43e9c0	0.047830343
42	0xbe0d194c	-0.13779181
43	0xbd8ff0d6	-0.07028358
44	0x3b9b0c90	0.004731722
45	0xbe533cee	-0.20628712
46	0x3e70d96d	0.23520441
47	0xbe5c9363	-0.21540599
48	0xbe14da12	-0.14536312
49	0xbdc46d51	-0.09591163
50	0x3e44a775	0.19204505
51	0x3d70c59e	0.058782212
52	0xbd12d925	-0.035851616
53	0xbdfb5767	-0.1227253
54	0xbd91fb86	-0.071280524
55	0x3d9aed66	0.075648114
56	0xbafcf769	-0.0019299808
57	0x3e25fac7	0.16208945
58	0x3e61a3c5	0.2203513
59	0xbdd6fc45	-0.10497335
60	0x3c9292ee	0.017892327
61	0x3ca0e170	0.019638747
62	0xbd63c54c	-0.05560808
63	0xbe1b90bc	-0.1519193
64	0x3cca22fd	0.024674887
65	0x3d92cecc	0.071683496
66	0xbd41dd37	-0.047330108
67	0xbe2b573c	-0.16732496
68	0x3d8e7940	0.0695672
69	0x3e2e0357	0.16993462
70	0xbe52950a	-0.20564666
71	0x3d9e10ea	0.0771807
72	0xbdf7bab5	-0.120961584
73	0x3d85de78	0.06536573
74	0x3dcd0230	0.10010183
75	0xbce31f29	-0.02772482
76	0x3cf39eb1	0.029738756
77	0xbd9279c3	-0.071521305
78	0xbdff7cfa	-0.12475009
79	0xbda34bb1	-0.07973421
80	0x3e1f71bf	0.15570734
81	0xbd60604c	-0.054779336
82	0xbe4af983	-0.19821744
83	0x3ce1cc25	0.027563164
84	0xbd0561a8	-0.032563835
85	0x3e81436e	0.25246757
86	0x3e31802a	0.17334047
87	0xbe0929bb	-0.13394825
88	0xbe44c4f0	-0.1921575
89	0xbe8c9aaf	-0.27461764
90	0xbe16c34a	-0.14722934
91	0xbdaf2263	-0.085514806
92	0x3d49b5a9	0.04924551
93	0xbe405731	-0.18783261
94	0xbe4ab3b0	-0.19795108
95	0xbe599e8f	-0.21251892
96	0x3e1ddc68	0.1541611
97	0xbd9dfbe4	-0.0771406
98	0x3e5a65f5	0.21327956
99	0x3e58ba6b	0.21164863
100	0xbe17c84b	-0.148225
101	0xbd032f13	-0.032027315
102	0x3ca1a9ba	0.019734252
103	0xbe337b51	-0.1752751
104	0xbd5b5cbb	-0.05355523
105	0xbe409adb	-0.18809073
106	0xbe3db627	-0.18526517
107	0x3d26319c	0.040574655
108	0x3da04590	0.07825768
109	0xbdc2ee1b	-0.09518071
110	0xbb9523e7	-0.004551399
111	0xbdf477fb	-0.11936947
112	0xbdf2de09	-0.11858756
113	0x3de1add2	0.11019482
114	0xbcc61bb6	-0.024183135
115	0x3d9636c2	0.07334663
116	0x3c33a344	0.0109642185
117	0x3c8c209a	0.01710539
118	0xbe6f5acc	-0.2337448
119	0x3dc7cce3	0.09755876
120	0x3ce50e81	0.027961018
121	0xbd0691c5	-0.03285386
122	0x3dd2f9e9	0.10301573
123	0x3e5a2321	0.21302463
124	0xbe684fa1	-0.22686626
125	0x3d3f5dea	0.046720423
126	0xbb682fa9	-0.0035428798
127	0x3deae923	0.114702486
128	0x3ca110c5	0.019661317
129	0x3e254953	0.16141252
130	0xbe641f87	-0.22277652
131	0xbe41f408	-0.18940747
132	0xbd01bd3c	-0.03167461
133	0xbdf5c996	-0.1200134
134	0xbdf984b1	-0.12183512
135	0x3db035ef	0.08604037
136	0x3e42ebef	0.19035314
137	0x3d9b1f02	0.07574274
138	0x3e3a106a	0.18170324
139	0xbddfc9aa	-0.10927136
140	0xbe4c7e44	-0.19970042
141	0x3e55e785	0.20889099
142	0x3e4f3195	0.20233758
143	0xbdd2ff0c	-0.103025526
144	0xbdbb967a	-0.091595605
145	0x3c85e022	0.016342226
146	0xbe1aca1b	-0.1511616
147	0x3e10e7d5	0.14150937
148	0xbb291679	-0.0025800748
149	0x3e10aa28	0.1412741
150	0xbd95a7e8	-0.07307416
151	0x3e102f4d	0.14080544
152	0xbc2aed7f	-0.0104326
153	0xbe094cff	-0.13408278
154	0xbe3ef63f	-0.18648623
155	0xbe886cbf	-0.26645467
156	0x3d02ae75	0.031904656
157	0x3d9e1e84	0.07720664
158	0x3e071dff	0.13195036
159	0x3e43a656	0.19106421
160	0xbd170b7d	-0.03687619
161	0x3dde33fa	0.108497575
162	0xbdf93da3	-0.121699594
163	0x3caedab6	0.021344524
164	0xbe460014	-0.19335967
165	0x3e53541d	0.20637555
166	0x3e2d6131	0.16931607
167	0xbd7fb75a	-0.062430717
168	0x3e5e57b3	0.21713142
169	0x3dd35133	0.10318222
170	0x3dcaae4d	0.098965265
171	0x3da220b5	0.079163946
172	0xbe2e9f3e	-0.17052934
173	0xbe40339f	-0.18769692
174	0xbdfa164d	-0.12211285
175	0xbd9400f2	-0.07226743
176	0x3db2688b	0.08711346
177	0x3e4593e2	0.19294694
178	0x3dc7af2f	0.097502105
179	0xbe5bbf04	-0.21459585
180	0x3de3a1b9	0.111148305
181	0x3e47de44	0.19518381
182	0x3e42fe9a	0.19042435
183	0xba344ad4	-0.00068776053
184	0x3d7f558f	0.062337454
185	0xbc531cc1	-0.012885273
186	0xbe15cd8c	-0.14629191
187	0xbcd94c8b	-0.026525756
188	0xbe569ab8	-0.20957458
189	0x3e0465db	0.1292948
190	0x3d104615	0.035223085
191	0x3c00fc72	0.007872688
192	0xbe34e2bc	-0.17664617
193	0x3d85ed16	0.06539361
194	0x3d326291	0.04355103
195	0x3d4d4d59	0.050122593
196	0xbe2ee7ee	-0.17080662
197	0xbe117577	-0.14204966
198	0xbe39c5b0	-0.18141818
199	0x3d067077	0.0328221
200	0xbd4e8955	-0.05042394
201	0xbe15ff06	-0.14648065
202	0xbd267382	-0.0406375
203	0x3d16d468	0.03682366
204	0xbe4936a3	-0.19649749
205	0xbe0a2465	-0.13490446
206	0x3e2f7615	0.17134888
207	0x3dd847c6	0.10560565
208	0xbe9a87cf	-0.3018174
209	0x3de68280	0.1125536
210	0xbe14fe1c	-0.1455006
211	0x3d9d1a49	0.07671029
212	0x3d547eac	0.051878616
213	0x3d9fe274	0.078068644
214	0xbe4c6812	-0.19961575
215	0xbddb9066	-0.10720901
216	0x3e4eab36	0.201825
217	0xbe1f33b9	-0.15547074
218	0x3d9fa9bc	0.07796046
219	0x3e0b6913	0.13614301
220	0x3e6753b9	0.22590531
221	0x3e3e7498	0.18599164
222	0xbdb3514a	-0.08755739
223	0xbe4b2326	-0.19837627
224	0x3e384163	0.17993693
225	0xbd9d2563	-0.076731466
226	0x3e182a5f	0.14859913
227	0x3e7403f3	0.23829632
228	0xbe1cda08	-0.15317547
229	0xbe664830	-0.22488475
230	0x3d84b23d	0.06479309
231	0x3cdcee8d	0.026969219
232	0x3d3d55ab	0.046224277
233	0x3dcb1024	0.09915188
234	0x3e26b414	0.16279632
235	0x3e148ded	0.14507265
236	0xbdc68e9a	-0.09695168
237	0x3d9781e7	0.07397824
238	0x3e591dd8	0.2120279
239	0x3e568c3c	0.20951933
240	0x3e446f3b	0.19183056
241	0xbe067788	-0.13131535
242	0x3e250397	0.1611465
243	0xbde531e1	-0.11191154
244	0x3e1ede0a	0.15514389
245	0xbd6a3f17	-0.057189073
246	0x3d02bfa7	0.031921055
247	0x3e4370fa	0.19086066
248	0x3ddaf5cb	0.106914125
249	0x3e15c7ec	0.14627045
250	0xbd6f4b8f	-0.058421668
251	0xbe8b71d2	-0.27235276
252	0x3e0695b9	0.13143052
253	0xbe28a8cc	-0.16470641
254	0xbd9f5c0f	-0.07781231
255	0x3e006996	0.12540278

decoder.0.bias f4 [32]
0	0x3e09886b	0.13430946
1	0xbcfb73c4	-0.03069485
2	0x3e8cfd1e	0.27536863
3	0xbe51090e	-0.2041361
4	0x3cbc6ca4	0.023001023
5	0xbc840126	-0.016113829
6	0xbc493767	-0.012281275
7	0x3d7d56e1	0.061850432
8	0x3e00007c	0.12500185
9	0x3dd065c2	0.10175659
10	0xbe0a22c4	-0.13489825
11	0x3dc4e3fc	0.09613797
12	0xbd8720db	-0.065980636
13	0x3e71b729	0.23605026
14	0x3dee6683	0.11640646
15	0xbda1cf95	-0.07900921
16	0xbc8756de	-0.016520914
17	0x3d85e482	0.06537725
18	0x3e4a8312	0.19776562
19	0x3e5bfba5	0.21482714
20	0x3e985355	0.29751077
21	0x3e155965	0.14584883
22	0x3e8a98f3	0.27069816
23	0x3d7aa67c	0.061193928
24	0x3d7c4fe1	0.061599616
25	0x3d2746bd	0.040838946
26	0x3df33e5c	0.118771285
27	0xbd56f403	-0.0524788
28	0x3d9ddfce	0.07708703
29	0xbcf05afc	-0.02934026
30	0x3d4a3cdc	0.049374446
31	0x3dc4cff7	0.09609979

decoder.2.weight f4 [64, 32]
0	0x3d2fd5ec	0.04292862
1	0x3d12cb86	0.035838626
2	0x3e1d9c48	0.15391648
3	0x3e033d2e	0.12816307
4	0x3e705678	0.23470485
5	0xbdc4e6aa	-0.09614308
6	0x3e158e85	0.14605148
7	0x3df7d9ed	0.12102113
8	0xbd7e2317	-0.062045183
9	0x3d2760f7	0.040863957
10	0x3e7c8a89	0.24662222
11	0x3dd247a7	0.10267573
12	0x3daa4956	0.08314769
13	0x3d770087	0.060303237
14	0xbe159c48	-0.14610398
15	0x3e0d9b2c	0.13828725
16	0x3e0654c3	0.13118272
17	0xbdd1fe57	-0.102535896
18	0xbd800b8b	-0.06252202
19	0x3d9773cd	0.07395134
20	0x3dc07b32	0.09398498
21	0x3d759998	0.05996093
22	0x3d1ee131	0.038788978
23	0xbe230fe4	-0.1592403
24	0xbcf07b9a	-0.029355813
25	0xbe23c562	-0.15993264
26	0x3e1a3680	0.15059853
27	0xbcb06808	-0.021533981
28	0xbdad7e14	-0.08471313
29	0x3e804ca7	0.2505848
30	0x3dff3a48	0.12462288
31	0xbe289f5a	-0.16467038
32	0xbe852446	-0.26004237
33	0x3dad1611	0.084514745
34	0x3da339bc	0.07969996
35	0x3d19ead6	0.037577473
36	0x3e6c3cfe	0.23070142
37	0xbcbef03f	-0.023307918
38	0xba2aec73	-0.0006520219
39	0x3d1e0483	0.03857852
40	0xbc60f8fd	-0.013731238
41	0x3de8b01e	0.11361717
42	0xbd02305c	-0.0317844
43	0x3ddfc327	0.10925894
44	0x3d6efd6b	0.058347147
45	0x3ce7640b	0.028245946
46	0xbe05942f	-0.13044809
47	0xbdc1513f	-0.094393246
48	0xbda6daf8	-0.08147234
49	0xbd606d7d	-0.054791916
50	0xbdaaa525	-0.0833228
51	0xbd821384	-0.063513786
52	0x3e18432f	0.14869379
53	0x3e4925c2	0.1964331
54	0x3d1b5157	0.03791937
55	0x3cb6e93e	0.022328015
56	0xbe15e690	-0.14638734
57	0x3d13f276	0.0361199
58	0x3e58eba0	0.21183634
59	0x3d49d277	0.04927298
60	0x3e2c77e3	0.16842608
61	0x3e6f21f1	0.23352791
62	0x3da45b01	0.0802517
63	0x3d9ea469	0.077462025
64	0xbde8fa50	-0.11375868
65	0xbccb169a	-0.02479105
66	0xbdcb679f	-0.099318735
67	0xbe1cc8a6	-0.15310916
68	0x3e3ac8c2	0.18240646
69	0x3dbc1677	0.09183972
70	0x3da0049a	0.07813378
71	0xbd784080	-0.060608387
72	0x3db2d880	0.087327
73	0xbd74e6dc	-0.059790477
74	0x3dfd442c	0.123665184
75	0xbb9259eb	-0.0044662855
76	0xbe687e47	-0.22704421
77	0x3e3930ae	0.18084976
78	0xbd636915	-0.055520136
79	0xbd2865b2	-0.04111261
80	0xbd36de5c	-0.044645652
81	0x3e324b42	0.17411521
82	0x3e185d40	0.14879322
83	0x3da5981b	0.080856524
84	0xbde4d675	-0.11173717
85	0xbd5015f4	-0.050802186
86	0x3db9862d	0.09058795
87	0xbe008c08	-0.12553418
88	0x3d609318	0.05482778
89	0x3c71e51a	0.014764095
90	0x3d3dd573	0.04634614
91	0x3d5fa5d9	0.054601524
92	0x3c630531	0.013856218
93	0x3e454e40	0.19268131
94	0xbe455db6	-0.19274029
95	0xbce8533f	-0.028360007
96	0xbd0de610	-0.034643233
97	0xbc6624ba	-0.014046842
98	0x3c276c4d	0.010218692
99	0x3e2ace93	0.16680364
100	0x3e13bc10	0.14427209
101	0x3e8bead4	0.27327597
102	0x3d97f41c	0.07419607
103	0x3ba49a96	0.005023311
104	0xbccc8483	-0.02496553
105	0x3e294579	0.16530408
106	0x3d8aca58	0.06776875
107	0xbd662f5b	-0.056197505
108	0xbd49cddc	-0.04926859
109	0x3dd86e4a	0.10567911
110	0xbc842d37	-0.016134841
111	0xbcc90730	-0.02453956
112	0x3de622bc	0.11237094
113	0xbc5961e5	-0.013267969
114	0xbe1574af	-0.14595293
115	0xbd8855a5	-0.066569604
116	0x3e5dc4cd	0.21657105
117	0x3e5351c4	0.2063666
118	0xbcacaec6	-0.021079432
119	0x3db69db6	0.089168
120	0x3db31811	0.08744825
121	0x3da5266a	0.080639675
122	0x3ca533f4	0.020166375
123	0x3de6e305	0.11273769
124	0xbc2532b0	-0.010082886
125	0x3e9f282b	0.31085333
126	0xbd368a4d	-0.044565488
127	0xbdafbe71	-0.08581246
128	0xbe841180	-0.257946
129	0x3dbc42af	0.091924064
130	0x3c851b3c	0.016248338
131	0x3de37b9e	0.111075625
132	0x3dbd6967	0.092486195
133	0x3e2b9647	0.16756545
134	0x3e2a2be0	0.166183
135	0x3dba068c	0.0908328
136	0x3e1c6650	0.15273404
137	0x3e105a56	0.1409696
138	0xbda6684c	-0.08125362
139	0x3d96b963	0.073595785
140	0x3e00b881	0.12570383
141	0xbe46191a	-0.19345513
142	0xbe9c110a	-0.3048175
143	0x3ce53d00	0.027983189
144	0x3e43fa16	0.19138369
145	0xbd5c8c48	-0.05384472
146	0xbe028b8a	-0.12748542
147	0x3d501eb6	0.05081054
148	0x3e3d0d81	0.18462183
149	0x3e02f261	0.12787773
150	0x3c62e329	0.0138481045
151	0x3dd30d4a	0.10305269
152	0xbd4a90d7	-0.049454536
153	0x3c814b73	0.015783047
154	0xbc22352e	-0.009900374
155	0x3dbd6e52	0.092495576
156	0xbd5bcc34	-0.05366154
157	0x3e9fbc72	0.3119846
158	0x3dedd421	0.11612726
159	0x3cb8b978	0.022549376
160	0xbd6d0fe2	-0.057876475
161	0x3e3b8fc1	0.18316557
162	0x3e0a0314	0.13477737
163	0xbe4589a1	-0.19290783
164	0x3e15462b	0.14577548
165	0xbd64ca9a	-0.05585728
166	0x3e659bf7	0.22422777
167	0xbddbb2a9	-0.10727436
168	0xbd7d204b	-0.061798375
169	0xbd855760	-0.06510806
170	0x3dfeace7	0.12435322
171	0xbda13338	-0.07871097
172	0xbe51031a	-0.2041134
173	0xbd5b1e9b	-0.053495985
174	0x3e1ff95d	0.15622468
175	0xbd515393	-0.051105093
176	0x3bc33916	0.005957733
177	0x3df405a4	0.11915138
178	0xbd28a39b	-0.04117165
179	0x3e823a17	0.25434944
180	0x3d16676f	0.036719736
181	0x3d373c40	0.044735193
182	0x3d9423f0	0.07233417
183	0x3e7cbeda	0.24682179
184	0x3e684e16	0.22686037
185	0xbdc420b7	-0.09576552
186	0x3cba8a47	0.022771014
187	0xbe281849	-0.16415514
188	0xbdef50b0	-0.11685312
189	0x3d7a8ef0	0.061171472
190	0x3e3865b8	0.18007553
191	0xbdf94bfe	-0.121726975
192	0xbe0fe4c1	-0.14052106
193	0x3e7a2057	0.24426399
194	0xbd3bdcfd	-0.045865048
195	0xbd790b7b	-0.060801964
196	0x3e441fad	0.19152708
197	0x3dd38a3b	0.103291
198	0x3d27bdf7	0.04095265
199	0x3e48120b	0.19538133
200	0xbe2137d3	-0.15743951
201	0xbe491f52	-0.19640854
202	0x3c693a37	0.014235071
203	0x3e1195c7	0.14217292
204	0xbe2351e6	-0.1594921
205	0x3e47ede7	0.19524346
206	0x3ca88ea5	0.02057583
207	0x3dd5d58c	0.104411215
208	0x3e079302	0.13239673
209	0x3e0a8934	0.13528901
210	0xbde96c53	-0.11397614
211	0x3e220b6a	0.15824667
212	0xbd152aa0	-0.036417603
213	0x3d85f886	0.06541543
214	0xbdd5b64c	-0.10435161
215	0xbcee6495	-0.029100696
216	0x3e00d0b1	0.1257961
217	0x3de67b6d	0.1125401
218	0x3cd13357	0.025537176
219	0x3d8307ba	0.06397958
220	0x3d0d6b02	0.03452588
221	0x3cc0af30	0.023521036
222	0xbd011ee6	-0.031523608
223	0xbe0b1b04	-0.13584524
224	0x3c2710c8	0.010196872
225	0x3d7cb07a	0.06169174
226	0xbd91187e	-0.0708475
227	0xbdcca9ee	-0.09993349
228	0xbd2e6224	-0.042574063
229	0x3e3aae95	0.1823066
230	0x3d8ce78c	0.068801016
231	0x3e128c81	0.1431141
232	0x3d5e73c9	0.05430964
233	0xbd009d6f	-0.03140014
234	0x3db9e7ea	0.09077437
235	0xbe4532b7	-0.19257627
236	0xbdee4d95	-0.11635891
237	0xbddf9b22	-0.10918261
238	0x3d9a093a	0.07521291
239	0x3e68eaa7	0.22745763
240	0x3e313332	0.17304686
241	0xbdbb3b11	-0.091421254
242	0x3e29e19f	0.16589974
243	0xbcd37b3b	-0.025815597
244	0xbd3c71e0	-0.046007037
245	0x3e51e18e	0.20496199
246	0x3af93314	0.0019012415
247	0xbdbeebf9	-0.09322352
248	0xbcd992f6	-0.026559334
249	0xbdb2db66	-0.08733253
250	0xbe02424f	-0.12720607
251	0x3e165dd3	0.14684229
252	0xbe0bc9ff	-0.13651274
253	0x3d39e6f9	0.04538629
254	0xbd9ef8ba	-0.077622846
255	0xbc9c8eab	-0.019110998

decoder.2.bias f4 [64]
0	0x3dbd936a	0.092566326
1	0xbdeb71c2	-0.11496307
2	0xbca19a4a	-0.019726891
3	0xbe189ef0	-0.1490438
4	0xbafa7810	-0.0019109268
5	0x3d319ddf	0.04336345
6	0x3e672f82	0.22576717
7	0xbd2d13cd	-0.04225521
8	0x3e8dd894	0.27704298
9	0x3d9bffc6	0.07617144
10	0xbd98393c	-0.074327916
11	0x3d5a62de	0.053316943
12	0x3eb72278	0.35768485
13	0x3e5b6a01	0.21427156
14	0xbd4daa73	-0.05021138
15	0x3e12565e	0.14290759
16	0x3dfb9735	0.122847
17	0xbd8dc467	-0.069222264
18	0xbd58dfd0	-0.05294782
19	0xbddc6a54	-0.10762468
20	0x3dd7e97e	0.10542582
21	0x3c8415d5	0.016123692
22	0x3ea9b60a	0.33146697
23	0xbd40ccaf	-0.0470702
24	0x3e7d9811	0.2476504
25	0xbbb241b7	-0.0054399627
26	0x3dd5aed8	0.104337394
27	0xbe80482a	-0.25055057
28	0x3eb166ba	0.34648687
29	0x3e220949	0.15823855
30	0xbdd306d2	-0.10304035
31	0x3e3529d8	0.17691743
32	0xbd91224a	-0.07086618
33	0xbceec977	-0.0291488
34	0x3e4e6783	0.20156674
35	0x3e18417c	0.1486873
36	0x3e6c9701	0.23104478
37	0x3e581d1d	0.21104856
38	0xbe8bcb2f	-0.27303454
39	0x3d8f9b5d	0.07012055
40	0xbe02f7c8	-0.12789834
41	0x3dbb8b88	0.09157473
42	0xbd3af0ae	-0.045639686
43	0x3dcd79ba	0.10032983
44	0x3d2a62f0	0.04159826
45	0x3e61c1a7	0.22046529
46	0x3c4c3221	0.012463124
47	0x3e4d922a	0.20075288
48	0xbd686fd3	-0.05674727
49	0x3e5ecec9	0.2175857
50	0x3da35785	0.079756774
51	0x3e7ddbd1	0.24790885
52	0x3d844e7b	0.064602815
53	0x3d4b7960	0.0496763
54	0xbe1a9de0	-0.15099287
55	0xbe49a2d9	-0.19691028
56	0x3da8cc6b	0.08242115
57	0x3ddb9221	0.10721231
58	0x3e33c0f9	0.17554082
59	0x3db4f24e	0.088352785
60	0x3d25cf53	0.040480923
61	0x3e827781	0.254818
62	0x3db20985	0.08693222
63	0x3dc8e1c7	0.098086886
