Save_Models/model-lat17.pth (torch, 195126 bytes, 16 tensors)

encoder.0.weight f4 [128, 99]
0.08194434 0.05332886 -0.02372922 -0.005145547 0.08597401 -0.0697677 -0.038002867 0.011702672
-0.04795431 0.019744547 0.005371057 0.101510055 -0.06820094 0.034903176 0.106583424 0.10921826
0.04640391 0.11260499 0.03435677 -0.025952931 0.093081616 -0.05222413 -0.035291933 0.05873153
0.09759062 -0.011249517 0.080035605 -0.060456175 0.091263264 0.047187604 -0.031533845 0.11871778
-0.04525995 0.042001545 0.08421532 0.09532911 -0.026735034 0.06874384 -0.043186028 -0.013339408
-0.040705897 0.057233863 -0.06446605 0.066096075 0.0031363557 0.077875726 0.11281712 0.060784057
-0.041510228 0.019063894 0.10007266 -0.0036997886 0.006468252 0.10035029 -0.017122148 0.11985433
0.039511286 0.061607316 -0.025700608 0.06600514 0.0064641563 -0.036562696 0.01749007 0.09835916
-0.069741145 -0.056392204 -0.005483893 0.056926996 -0.039877895 -0.061995104 0.010107351 0.028030045
0.116246834 7.7014854e-05 -0.0007610888 -0.04876504 -0.0054420265 0.010162821 0.08636729 -0.039629426
0.029757593 -0.021315193 -0.022138309 0.060941644 0.11332471 0.012164101 0.0053286906 0.03703131
0.112557106 0.10674008 -0.08719626 0.004458997 -0.014351859 0.083253235 -0.043333374 0.011526351
-0.04723697 0.03192735 0.09672393 0.07960921 0.045948096 0.003955236 -0.09155784 0.0011189883
0.044561084 -0.018489592 0.10084455 -0.04566644 -0.07940123 0.05849794 -0.020426987 -0.01724509
0.08524014 0.02350325 -0.040735014 0.056595597 0.00030609427 0.092057966 0.01688145 0.14419392
0.07034962 0.14155091 0.086998105 0.016446361 -0.030085037 0.06896002 0.011893717 0.06124813
0.017901512 0.0065079844 0.08869744 -0.018203571 0.013938802 -0.02414735 0.13990982 0.13273351
0.105219156 -0.0105918795 0.106821634 0.043315753 -0.02610736 0.060568642 0.08958717 -0.0019060903
0.008427174 0.007488781 0.12234257 0.013264651 -0.020204993 0.025328267 0.12195839 -0.02209683
0.049805027 0.0073715346 -0.037614156 0.100015104 0.053063165 0.01430642 0.025776485 0.0071802675
0.015822912 0.0076932022 -0.086643636 0.017514965 0.0765624 0.07137636 -0.0744161 -0.0037299683
-0.050226323 0.05071056 -0.039568413 0.08007153 0.08372708 0.048929658 0.06855095 0.0715276
-0.06874999 0.071866184 -0.05505179 0.04501365 -0.10177951 -0.0027554561 0.076252274 -0.08876167
-0.04904988 -0.10333635 -0.077128224 -0.026073644 -0.037543602 -0.023080789 0.0034703314 -0.028326817
-0.12179087 -0.081569634 -0.100322746 -0.14146924 -0.005388754 -0.06360092 -0.005523855 -0.033520192
0.001661883 -0.13857104 -0.13681552 0.03024072 -0.10713566 -0.1299219 0.017690955 -0.04159389
-0.027823586 -0.06424211 -0.07766187 -0.035439733 0.016609022 -0.042574458 -0.12151278 -0.10457849
-0.11498514 0.0043896018 0.054405365 -0.12944584 -0.09529513 -0.05799341 0.016474715 -0.06396633
0.04700667 -0.051083714 -0.05527824 -0.0036970407 -0.029078817 0.025359137 -0.11148023 0.056658223
-0.044057537 0.0729989 -0.08132002 0.0161928 -0.12118584 0.056626227 0.0051736827 -0.10197654
0.04505813 -0.012987819 0.00022755582 0.059565336 0.08387783 -0.052455127 -0.052872557 -0.02739963
-0.006422355 0.03274244 -0.009058953 -0.059730425 0.041091863 0.015931454 0.071223035 0.012425689
00000000: 6fd2 a73d 5d6f 5a3d c863 c2bc fa9b a8bb
00000010: 2413 b03d 5ee2 8ebd e5a8 1bbd 90bc 3f3c
00000020: bd6b 44bd 51bf a13c b1ff af3b 81e4 cf3d
00000030: efac 8bbd a2f6 0e3d 6948 da3d d3ad df3d
00000040: 0712 3e3d 729d e63d afb9 0c3d 3e9b d4bc
00000050: 93a1 be3d f8e8 55bd 468e 10bd 7990 703d
00000060: 97dd c73d e54f 38bc b5e9 a33d e5a0 77bd
00000070: 3ce8 ba3d ca47 413d a229 01bd 4f22 f33d
00000080: 7f62 39bd d009 2c3d 1579 ac3d e93b c33d
00000090: 6e03 dbbc 92c9 8c3d d5e3 30bd 888d 5abc
000000a0: 3abb 26bd 0e6e 6a3d c706 84bd 615d 873d
000000b0: 518b 4d3b 4f7d 9f3d aa0c e73d b4f8 783d
000000c0: a106 2abd e22b 9c3c e5f2 cc3d 2778 72bb
000000d0: a1f3 d33b 7484 cd3d bf43 8cbc 3076 f53d
000000e0: 96d6 213d f457 7c3d 158a d2bc b42d 873d
000000f0: 46d1 d33b c4c2 15bd 5647 8f3c 8770 c93d
00000100: 72d4 8ebd 83fb 66bd 3bb2 b3bb 482c 693d
00000110: 0157 23bd 94ee 7dbd 4d99 253c 449f e53c
00000120: d212 ee3d 0983 a138 ce83 47ba dabd 47bd
00000130: 0753 b2bb f681 263c 55e1 b03d 7752 22bd
00000140: 32c6 f33c 339d aebc 665b b5bc f29d 793d
00000150: c916 e83d f04b 473c 4c9c ae3b 25ae 173d
00000160: 5784 e63d 8b9a da3d f493 b2bd c71c 923b
00000170: 0f24 6bbc ac80 aa3d 567e 31bd 05d9 3c3c
00000180: 8e7b 41bd 41c6 023d 3217 c63d 270a a33d
00000190: 1234 3c3d ed9a 813b ad82 bbbd 04ab 923a
000001a0: af85 363d 7c77 97bc 9687 ce3d bc0c 3bbd
000001b0: 1d9d a2bd 899b 6f3d 7f56 a7bc 9345 8dbc
000001c0: 6292 ae3d e389 c03c c2d9 26bd c9d0 673d
000001d0: 477b a039 e388 bc3d f74a 8a3c 92a7 133e
000001e0: 7613 903d b9f2 103e 102c b23d 85ba 863c
000001f0: e574 f6bc e93a 8d3d dddd 423c 52df 7a3d
00000200: 31a6 923c ee40 d53b 01a7 b53d a81f 95bc
00000210: 935f 643c aad0 c5bc 8544 0f3e 4beb 073e
00000220: 247d d73d 9089 2dbc 4dc5 da3d dc6b 313d
00000230: 1adf d5bc d316 783d 7a79 b73d c7d5 f9ba
00000240: 2112 0a3c 7364 f53b be8e fa3d fb53 593c
00000250: f184 a5bc 3a7d cf3c 52c5 f93d 6904 b5bc
00000260: 5b00 4c3d ea8c f13b 4d11 1abd b8d4 cc3d
00000270: c358 593d 7a65 6a3c 3529 d33c 7348 eb3b
00000280: 0d9f 813c 4217 fc3b 3872 b1bd 8b7b 8f3c
00000290: bfcc 9c3d c52d 923d 7867 98bd 7c72 74bb
000002a0: 1eba 4dbd e0b5 4f3d 7d12 22bd 8bfc a33d
000002b0: 1a79 ab3d 776a 483d 7164 8c3d 107d 923d
000002c0: cbcc 8cbd 942e 933d fc7d 61bd 3c60 383d
000002d0: c771 d0bd e294 34bb 272a 9c3d aec8 b5bd
000002e0: 87e8 48bd 02a2 d3bd 67f5 9dbd 6598 d5bc
000002f0: 52c7 19bd ec13 bdbc 806e 633b a40d e8bc
00000300: 7e6d f9bd fb0d a7bd 0376 cdbd 50dd 10be
00000310: 2594 b0bb 3341 82bd 7401 b5bb 784c 09bd
00000320: 8ad3 d93a 91e5 0dbe 5e19 0cbe 63bb f73c
00000330: f169 dbbd 3f0a 05be 9fec 903c 5b5e 2abd
00000340: 4aee e3bc 5e91 83bd 300d 9fbd 4129 11bd
00000350: a50f 883c 8e62 2ebd b1db f8bd 3f2d d6bd
00000360: 547d ebbd a6d6 8f3b 29d8 5e3d 738d 04be
00000370: 182a c3bd 7f8a 6dbd fbf5 863c c700 83bd
00000380: 118a 403d 283d 51bd 706b 62bd 0d4a 72bb
00000390: b336 eebc f7bd cf3c bf4f e4bd 7412 683d
000003a0: ad75 34bd 7380 953d 1c8b a6bd c3a6 843c
000003b0: 4830 f8bd e7f0 673d ff87 a93b 14d9 d0bd
000003c0: e08e 383d dcca 54bc 0d9c 6e39 c8fa 733d
000003d0: 24c8 ab3d 30db 56bd e590 58bd 3075 e0bc
000003e0: 9e72 d2bb f01c 063d 016c 14bc e4a7 74bd
000003f0: f14f 283d ae82 823c 62dd 913d 1e95 4b3c

encoder.0.bias f4 [128]
-0.023393173 -0.23037809 0.12078335 -0.041682687 -0.07450008 -0.06732847 -0.052551806 -0.05099884
-0.15167318 -0.13308917 -0.060952224 -0.11633791 -0.11459853 -0.14858821 -0.02728232 -0.02491294
0.010743182 -0.05718178 -0.047540158 -0.124046 -0.14339624 -0.2088811 -0.15190844 0.021518644
-0.15315059 -0.16372706 -0.037236758 -0.16859281 -0.12192207 -0.21801856 -0.107483566 0.034748033
-0.010126594 -0.049652312 -0.071782455 -0.105451204 -0.084568396 -0.041001458 -0.048798922 -0.09282107
0.0114076715 -0.14500731 -0.09667322 -0.15274912 -0.00188184 -0.07565563 -0.24913847 -0.14942254
-0.087181404 -0.093133815 -0.072674945 -0.02976836 -0.04962097 -0.0841347 -0.08953177 -0.16835909
-0.049462076 -0.016581673 -0.1927313 -0.09743094 -0.023097046 -0.18227838 -0.08961335 -0.066916496
-0.28488824 -0.047342237 0.0199681 -0.07551823 0.09808457 -0.13706015 -0.13099712 -0.026569372
-0.012234021 -0.06943716 -0.12117442 -0.07312952 -0.18314962 -0.0031207365 -0.09060955 -0.15770741
-0.0068745585 -0.01713932 -0.025361747 -0.23127027 -0.15533045 -0.14448582 -6.1019542e-05 -0.18557385
-0.045177244 -0.031569418 -0.14799087 -0.058550242 -0.04970212 -0.07902457 -0.06926129 -0.23824513
-0.08565685 -0.13666318 -0.08915579 -0.13943732 -0.16192904 -0.009437299 -0.043465946 -0.19996393
-0.14683266 -0.13001628 -0.038465213 0.045262527 0.00057940505 -0.069558896 -0.03988312 -0.15681398
0.000296264 0.011330017 -0.063434 0.051295895 -0.13607003 -0.27234662 -0.17131113 -0.19729036
-0.07761258 -0.1547552 -0.006244553 -0.16125564 -0.04909317 -0.1601485 0.03740618 -0.039335266
00000000: 0aa3 bfbc 3ce8 6bbe 435d f73d 77bb 2abd
00000010: 7f93 98bd 82e3 89bd 9040 57bd 29e4 50bd
00000020: 3750 1bbe 8748 08be 0aa9 79bd 9242 eebd
00000030: a2b2 eabd 8227 18be 2c7f dfbc 3916 ccbc
00000040: 2c04 303c 7137 6abd 78b9 42bd d40b febd
00000050: 77d6 12be ede4 55be e38d 1bbe de47 b03c
00000060: 82d3 1cbe 11a8 27be 9285 18bd 98a3 2cbe
00000070: 47b2 f9bd 4240 5fbe 5820 dcbd f453 0e3d
00000080: 04ea 25bc 3960 4bbd ae02 93bd cdf6 d7bd
00000090: 3232 adbd 25f1 27bd 61e1 47bd f918 bebd
000000a0: 3ee7 3a3c cc7c 14be 9cfc c5bd 446a 1cbe
000000b0: 13a8 f6ba 57f1 9abd 281e 7fbe 3902 19be
000000c0: 2a8c b2bd f1bc bebd 9ad6 94bd c7dc f3bc
000000d0: 5c3f 4bbd d04e acbd 6f5c b7bd 5366 2cbe
000000e0: bf98 4abd 4ad6 87bc 5b5b 45be df89 c7bd
000000f0: 0436 bdbc 2fa7 3abe 3487 b7bd 840b 89bd
00000100: dfdc 91be efe9 41bd 2494 a33c 4da9 9abd
00000110: 90e0 c83d 7f59 0cbe 1c24 06be 03a8 d9bc
00000120: 3471 48bc 1235 8ebd 4b2a f8bd eec4 95bd
00000130: 938b 3bbe 4585 4cbb 8091 b9bd 0d7e 21be
00000140: fa43 e1bb c267 8cbc 70c3 cfbc 1dd2 6cbe
00000150: f20e 1fbe 17f4 13be 3cef 7fb8 1207 3ebe
00000160: c60b 39bd ef4e 01bd eb8a 17be 61d2 6fbd
00000170: 7394 4bbd a2d7 a1bd ddd8 8dbd 88f6 73be
00000180: dc6c afbd 6ff1 0bbe 5097 b6bd a8c8 0ebe
00000190: bad0 25be e79e 1abc 5909 32bd 58c3 4cbe
000001a0: 4d5b 16be fd22 05be b38d 1dbd 3365 393d
000001b0: 37e3 173a e574 8ebd 7c5c 23bd d893 20be
000001c0: e253 9b39 89a1 393c afe9 81bd a51b 523d
000001d0: f155 0bbe 0471 8bbe 2f6c 2fbe 7c06 4abe
000001e0: 58f3 9ebd 2678 1ebe 1b9f ccbb 3320 25be
000001f0: eb15 49bd f8fd 23be 3937 193d 041e 21bd

encoder.3.weight f4 [64, 128]
-0.061672952 -0.052982334 -0.07748222 -0.077439606 0.0038687724 -0.03827392 -0.024829544 -0.08207473
0.007338098 0.017027464 -0.07207601 -0.029101593 0.049747135 -0.081279606 -0.04632681 -0.0710297
-0.07378142 -0.044382617 -0.05815391 0.058863956 0.0299812 -0.09406425 -0.09344424 -0.04372061
-0.090018645 -0.041770596 -0.0011322225 0.0075523136 -0.030620145 -0.095142655 0.05190234 0.063534476
0.030643608 -0.05484899 0.012333013 0.00466298 0.04967203 0.027235601 -0.063574456 -0.071844116
0.02410496 0.067775905 0.05298894 0.022536164 0.07706546 -0.030371271 -0.045198258 -0.034158558
-0.06929639 -0.042592168 -0.07434152 -0.06807594 0.00889521 0.0799218 -0.05763087 -0.06835286
-0.08274328 -0.075020954 -0.06502538 -0.051828824 0.012957806 0.061960824 0.024083033 -0.05552222
-0.028346965 0.07113737 -0.013914875 -0.019844368 0.001077156 -0.0029912645 -0.047135297 -0.06469317
-0.039270945 -0.0038792416 -0.07510163 0.049247902 0.0587096 0.022031486 0.046817467 -0.07909022
-0.052160766 0.05798106 -0.099720046 0.025012853 0.05195289 0.0329028 -0.018462248 -0.060446132
-0.020041665 -0.07882469 0.04048523 -0.09396317 -0.07782076 -0.052253198 0.020585876 -0.023204023
-0.039585445 -0.018235853 -0.006489876 -0.09575869 -0.075896785 0.084168665 0.035144884 0.03659712
0.017856788 0.014471813 0.012924351 0.06904966 -0.06420595 0.043197364 -0.025078578 0.0320345
-0.06580765 0.06359128 0.04938123 -0.08924716 0.00030449757 -0.07765016 -0.031299654 -0.05434138
0.0018010684 -0.047248777 -0.021755088 -0.053297013 0.05377166 -0.02196086 -0.016124649 -0.10304716
0.034106985 -0.010147426 -0.038920064 0.062135704 0.062023815 0.041539587 -0.054449428 -0.029639108
-0.03584073 -0.1183372 0.028525656 0.0503423 -0.065793075 -0.04590057 -0.010510384 0.085397236
-0.06561847 0.011309242 0.02486326 -0.19258334 -0.00938537 0.008352425 -0.10796258 0.016387079
-0.053521633 0.08723878 -0.027861262 -0.06376765 0.029328588 -0.07106973 -0.062941395 0.011163932
0.003000478 0.052969523 -0.014349702 0.08126496 0.07861436 0.011298815 -0.13550346 -0.02682409
0.10316462 0.034605805 -0.021810345 -0.02382462 0.07502701 -0.022083545 -0.18234947 0.11254657
-0.020742813 -0.03032314 -0.03328177 -0.023808444 -0.00939557 -0.04759454 -0.048903577 -0.028430915
0.048105344 0.020310428 -0.12273837 -0.009566044 -0.045098323 0.01910929 0.020019842 -0.112535164
0.07833045 -0.011591842 0.045538522 -0.022960974 0.050608557 -0.050879825 0.050935593 0.05627831
0.02777351 -0.047660507 -0.035988484 0.062955625 -0.01924157 -0.068387195 -0.040570952 -0.0034114968
-0.03543087 -0.015824988 0.022302322 -0.052119266 -0.08241124 0.009469119 -0.00927388 -0.03716395
-0.21514758 0.03411301 0.036714442 0.08478893 -0.040716406 -0.046156712 0.1204046 -0.08168303
-0.12544626 -0.04934603 -0.09786759 -0.029607214 -0.018438863 0.07876888 0.03529393 0.035400957
0.053640936 0.038416937 -0.024794167 0.012758145 0.022011744 -0.08671404 0.034236584 -0.03047965
-0.026462648 0.08837689 0.04543063 -0.004466619 -0.01830366 -0.04952322 -0.047546253 -0.0386308
0.0905422 0.048023984 -0.026069587 -0.13257526 0.059773017 0.02781904 -0.018299839 -0.015494858
00000000: c79c 7cbd 0104 59bd 00af 9ebd a898 9ebd
00000010: 3b8b 7d3b 1dc5 1cbd 5467 cbbc cc16 a8bd
00000020: 6d74 f03b 2e7d 8b3c 969c 93bd 7766 eebc
00000030: a7c3 4b3d ec75 a6bd 2ec1 3dbd 0578 91bd
00000040: b71a 97bd 8cca 35bd cb32 6ebd 551b 713d
00000050: 229b f53c c2a4 c0bd b25f bfbd 6214 33bd
00000060: b25b b8bd a517 2bbd 1567 94ba 6679 f73b
00000070: 19d7 fabc 27da c2bd 8c97 543d 5d1e 823d
00000080: 4e08 fb3c 56a9 60bd 6810 4a3c e9cb 983b
00000090: e674 4b3d 321d df3c 5333 82bd 0223 93bd
000000a0: c477 c53c 18ce 8a3d ee0a 593d c39d b83c
000000b0: 7fd4 9d3d 2ccd f8bc cf21 39bd d8e9 0bbd
000000c0: 44eb 8dbd 2075 2ebd 5e40 98bd 666b 8bbd
000000d0: 37bd 113c 0aae a33d 590e 6cbd 96fc 8bbd
000000e0: 4f75 a9bd 96a4 99bd 072c 85bd 764a 54bd
000000f0: fa4c 543c a2ca 7d3d c849 c53c 446b 63bd
00000100: e537 e8bc 78b0 913d 37fb 63bc a890 a2bc
00000110: 5c2f 8d3a 1709 44bb f110 41bd da7d 84bd
00000120: 92da 20bd e03a 7ebb e2ce 99bd 2bb8 493d
00000130: 7a79 703d 607b b43c acc3 3f3d 0efa a1bd
00000140: 87a6 55bd 8c7d 6d3d 063a ccbd c1e7 cc3c
00000150: 8ecc 543d 16c5 063d 243e 97bc 5d96 77bd
00000160: 6b2e a4bc d76e a1bd d7d3 253d c36f c0bd
00000170: 7e60 9fbd 7307 56bd b6a3 a83c 5d16 bebc
00000180: 5924 22bd 5b63 95bc 07a9 d4bb 221d c4bd
00000190: c66f 9bbd 9f60 ac3d 15f4 0f3d dde6 153d
000001a0: 6648 923c 2f1b 6d3c a8c0 533c e869 8d3d
000001b0: 697e 83bd b8ef 303d 9771 cdbc 9c36 033d
000001c0: 29c6 86bd 253c 823d f943 4a3d 37c7 b6bd
000001d0: f9a4 9f39 0c07 9fbd 1134 00bd 1195 5ebd
000001e0: d411 ec3a ef87 41bd ba37 b2bc f84d 5abd
000001f0: ac3f 5c3d 43e7 b3bc d717 84bc 640a d3bd
00000200: c4b3 0b3d 6441 26bc a56a 1fbd 0282 7e3d
00000210: af0c 7e3d 6a25 2a3d 5d06 5fbd b7cd f2bc
00000220: bbcd 12bd c65a f2bd a3ae e93c ba33 4e3d
00000230: 85be 86bd 3c02 3cbd bf33 2cbc bfe4 ae3d
00000240: fa62 86bd 664a 393c 09ae cb3c 9134 45be
00000250: 18c5 19bc 9cd8 083c 7c1b ddbd 323e 863c
00000260: 8039 5bbd 3faa b23d 4d3d e4bc 9d98 82bd
00000270: 8242 f03c 028d 91bd 6be7 80bd ede8 363c
00000280: aba3 443b 92f6 583d 031b 6bbc 3e6e a63d
00000290: 9100 a13d aa1e 393c 6bc1 0abe 32be dbbc
000002a0: f947 d33d d1be 0d3d 9cab b2bc d92b c3bc
000002b0: c3a7 993d 8de8 b4bc d2b9 3abe d17e e63d
000002c0: d5ec a9bc 3c68 f8bc 7752 08bd ed09 c3bc
000002d0: e0ef 19bc 7ef2 42bd 1e4f 48bd f3e7 e8bc
000002e0: 1c0a 453d 0e62 a63c 415e fbbd e6ba 1cbc
000002f0: 05b9 38bd 168b 9c3c a700 a43c d678 e6bd
00000300: b76b a03d b6eb 3dbc 9a86 3a3d a718 bcbc
00000310: eb4a 4f3d 5d67 50bd d7a1 503d 1684 663d
00000320: 4685 e33c aa37 43bd a968 13bd e1ee 803d
00000330: 7fa0 9dbc 960e 8cbd ba2d 26bd 6b93 5fbb
00000340: f61f 11bd 68a3 81bc 5cb3 b63c 037b 55bd
00000350: 39c7 a8bd 5d24 1b3c 79f1 17bc 3a39 18bd
00000360: a64f 5cbe 15ba 0b3d e261 163d d2a5 ad3d
00000370: 3fc6 26bd d20e 3dbd b096 f63d 6f49 a7bd
00000380: fc74 00be 101f 4abd ce6e c8bd d48a f2bc
00000390: 190d 97bc 9451 a13d 5e90 103d 9800 113d
000003a0: 99b6 5b3d 145b 1d3d 231d cbbc 8a07 513c
000003b0: f951 b43c 2197 b1bd a93b 0c3d 75b0 f9bc
000003c0: 32c8 d8bc f1fe b43d 7815 3a3d b75c 92bb
000003d0: 8ff1 95bc dcd8 4abd dcbf 42bd 543b 1ebd
000003e0: 306e b93d ccb4 443d e38f d5bc cfc1 07be
000003f0: 8dd4 743d c1e4 e33c 8be9 95bc 25de 7dbc

encoder.3.bias f4 [64]
-0.063417375 -0.10888307 0.046346758 -0.029146658 0.045800496 -0.118124545 -0.1393649 -0.06796772
-0.012847319 -0.00556957 -0.061569672 -0.056858007 0.008024788 -0.042626817 -0.09473989 -0.0287642
-0.13382712 0.03991963 -0.039370753 -0.052644696 -0.06317726 -0.0060701403 -0.041854195 0.03944492
-0.062984474 -0.108346686 -0.0025094491 -0.074834384 -0.12948196 -0.07874499 -0.0506551 -0.18408088
-0.11375726 -0.015790127 -0.074664645 0.0053213257 0.030878445 -0.029206969 -0.009308346 -0.008191279
-0.06560486 0.066131726 -0.07085699 -0.08952573 -0.17388184 -0.13457909 -0.035438843 -0.07319459
-0.030300973 -0.017526656 -0.08116569 -0.09492651 -0.10161948 -0.081091605 0.0138519555 -0.14302401
-0.12842703 -0.020229248 0.024544982 -0.013162672 -0.18204533 0.0066062408 -0.016396482 -0.105758324
00000000: f8e0 81bd 16fe debd 19d6 3d3d f9c4 eebc
00000010: 4d99 3b3d 48eb f1bd acb5 0ebe a932 8bbd
00000020: 907d 52bc f180 b6bb 7b30 7cbd f1e3 68bd
00000030: 677a 033c 7599 2ebd fd06 c2bd e6a2 ebbc
00000040: fa09 09be c482 233d 3a43 21bd f7a1 57bd
00000050: 1463 81bd 07e8 c6bb 4e6f 2bbd ff90 213d
00000060: 01fe 80bd dee4 ddbd 9275 24bb c542 99bd
00000070: eb96 04be 0e45 a1bd b97b 4fbd b37f 3cbe
00000080: 91f9 e8bd 4c5a 81bc c7e9 98bd 845e ae3b
00000090: cbf4 fc3c 7443 efbc 0882 18bc b734 06bc
000000a0: d75b 86bd 1270 873d 781d 91bd 4459 b7bd
000000b0: 150e 32be 1acf 09be 5228 11bd 0ce7 95bd
000000c0: bf39 f8bc 1094 8fbc 333a a6bd d468 c2bd
000000d0: e01d d0bd 5b13 a6bd 50f3 623c e374 12be
000000e0: 6082 03be cfb7 a5bc 8f12 c93c 3fa8 57bc
000000f0: 176a 3abe 2a79 d83b ea51 86bc d297 d8bd

encoder.6.weight f4 [32, 64]
0.096986674 -0.02463616 -0.02059861 -0.059707355 0.10551832 0.12682512 0.097725496 -0.06440588
-0.01087976 0.123645425 0.08047626 0.005882947 0.04568724 0.14023079 -0.015770683 0.123839356
0.05941356 0.092249736 0.14148237 0.12608826 -0.02450622 -0.044054843 0.032870047 -2.4854795e-05
0.11981925 0.088750914 -0.02056514 -0.07878307 0.13924763 0.10354243 -0.020726442 -0.049722992
-0.022601802 0.11001523 0.12634455 0.10246049 0.06833286 0.11662601 0.02034636 -0.03248801
0.048226014 -0.09591598 -0.046026237 0.052329015 0.06424277 0.08998357 0.17087705 0.08884411
0.008299488 0.14247328 0.14542809 0.14520553 -0.04192857 -0.041141253 0.07152357 0.050115276
0.10524572 0.14974634 -0.053123042 -0.033319406 -0.025385933 0.024394058 -0.04404803 -0.06709378
0.031281773 -0.018365279 0.045502417 -0.08736895 -0.13115513 -0.11431211 0.00097502174 -0.0467883
-0.0069959247 -0.013678776 0.082056075 -0.060957182 0.12694868 -0.15768364 -0.042498514 -0.25474903
-0.003931733 -0.0030081742 0.1100998 0.03488723 0.087489665 -0.029538518 -0.04567888 0.13947754
0.0062258267 0.01920593 -0.119209915 -0.010292164 0.066103145 -0.23836653 -0.17792594 -0.0019722583
0.07989782 -0.028231008 -0.022705678 -0.08225786 0.0045958953 0.0741844 -0.19212487 0.027073463
-0.057926208 -0.0010773584 0.073410794 -0.05670001 0.05740978 0.060951702 -0.18233433 0.047566444
0.12622346 -0.016373545 0.065173484 -0.03368275 -0.02884561 0.08338617 -0.04253687 0.19538577
0.10668443 0.0880811 -0.056886625 -0.1850243 0.08738163 -0.21105136 -0.19480315 -0.070072375
-0.121590614 -0.065353036 0.03699223 -0.024502845 -0.011118854 0.009857954 -0.087630145 -0.06854156
-0.11577959 0.03766888 0.11176766 0.09933109 -0.06759451 0.119109 -0.03181762 0.12338899
-0.0671608 0.05894164 0.02171955 -0.016313143 -0.05437261 0.013388699 -0.013494352 -0.00044971457
0.21054882 -0.090336055 -0.08516006 -0.14687586 0.08686396 0.012572874 -0.09525288 0.07116604
-0.18396208 0.053685695 0.13735346 0.080057256 0.17964208 -0.09611832 -0.01570314 -0.02809984
0.08239793 0.167466 0.058845334 -0.1912272 -0.09969819 -0.03283176 0.023733621 -0.07169964
0.07031554 -0.2542775 -0.074386634 -0.15804556 0.113114044 0.03650335 0.116641246 0.023298994
0.026399815 -0.023551684 0.07361876 -0.10663621 -0.09618579 0.13941708 0.018717313 0.03214609
-0.08080942 0.112515666 -0.081690215 -0.0006284246 0.09424172 -0.010936014 0.110667445 0.054235093
-0.16414014 0.11348418 -0.25786176 0.07072541 -0.098555006 -0.056699567 0.14318185 -0.057063494
-0.027280781 -0.11722853 0.07884967 -0.15807173 0.03755789 0.12627923 -0.014008554 -0.0003654766
-0.038244527 -0.063452244 0.025663288 -0.15681061 -0.044938993 0.00035177876 0.005732006 0.0528545
-0.11239643 -0.07796141 -0.050841045 -0.071850255 0.04810711 -0.07332876 0.07946392 0.14225338
0.0255813 -0.17194447 -0.08754353 -0.18457156 0.048603415 0.03254911 0.08414588 -0.16428652
0.10972793 -0.03023272 0.08624047 -0.14694926 -0.044925347 0.114414625 0.12919189 0.06712732
-0.018504562 -0.1461297 -0.08770743 0.054796223 -0.037117075 0.0054520452 0.058957115 0.08332592
00000000: f3a0 c63d c6d1 c9bc 6bbe a8bc b38f 74bd
00000010: fd19 d83d 72de 013e 4e24 c83d 3be7 83bd
00000020: 0541 32bc d039 fd3d bdd0 a43d bcc5 c03b
00000030: 8b22 3b3d a998 0f3e 8531 81bc 7d9f fd3d
00000040: a25b 733d 6eed bc3d c1e0 103e 481d 013e
00000050: 45c1 c8bc da72 34bd bea2 063d 447f d0b7
00000060: cc63 f53d 0ac3 b53d 3978 a8bc 0559 a1bd
00000070: ee96 0e3e 0e0e d43d 80ca a9bc 56aa 4bbd
00000080: 6a27 b9bc aa4f e13d 7760 013e ced6 d13d
00000090: 19f2 8b3d 9ed9 ee3d 69ad a63c 2612 05bd
000000a0: a488 453d 996f c4bd 0286 3cbd f356 563d
000000b0: b791 833d 4e49 b83d 65fa 2e3e e7f3 b53d
000000c0: 93fa 073c 84e4 113e 1aeb 143e c2b0 143e
000000d0: 4bbd 2bbd bb83 28bd f37a 923d ad45 4d3d
000000e0: 118b d73d 1b57 193e 8c97 59bd ee79 08bd
000000f0: 29f6 cfbc 0cd6 c73c b56b 34bd 7768 89bd
00000100: 5121 003d c872 96bc be60 3a3d 7eee b2bd
00000110: 884d 06be 781c eabd 9a98 7f3a 17a5 3fbd
00000120: 123e e5bb f21c 60bc 040d a83d 3dae 79bd
00000130: d6fe 013e d277 21be ec12 2ebd 776e 82be
00000140: c4d5 80bb ca24 45bb 017c e13d e9e5 0e3d
00000150: c82d b33d c3fa f1bc c719 3bbd 33d3 0e3e
00000160: 0502 cc3b c155 9d3c 5424 f4bd 77a0 28bc
00000170: 1661 873d 5b16 74be 3832 36be 0141 01bb
00000180: 78a1 a33d b744 e7bc 4201 babc cf76 a8bd
00000190: 2a99 963b feed 973d 62bc 44be 2bc9 dd3c
000001a0: 0844 6dbd 2636 8dba 6658 963d 453e 68bd
000001b0: 8426 6b3d 7ea8 793d dab5 3abe 08d5 423d
000001c0: b940 013e d021 86bc ad79 853d ecf6 09bd
000001d0: a14d ecbc 5ec6 aa3d 243b 2ebd 3513 483e
000001e0: 5e7d da3d dd63 b43d f301 69bd 0377 3dbe
000001f0: 24f5 b23d d91d 58be 7a7a 47be 1b82 8fbd
00000200: 8004 f9bd d0d7 85bd 2a85 173d 31ba c8bc
00000210: db2b 36bc 4283 213c 6f77 b3bd 845f 8cbd
00000220: da1d edbd af4a 1a3d 71e6 e43d 196e cb3d
00000230: fe6e 8abd 6bef f33d 3153 02bd 5eb3 fc3d
00000240: 9a8b 89bd ca6c 713d 33ed b13c 24a3 85bc
00000250: d0b5 5ebd 465c 5b3c 6a17 5dbc abc7 ebb9
00000260: 1c9a 573e 1c02 b9bd 6668 aebd a066 16be
00000270: bbe5 b13d 75fe 4d3c f113 c3bd 80bf 913d
00000280: 8e60 3cbe 88e5 5b3d 63a6 0c3e 0ff5 a33d
00000290: 18f4 373e afd9 c4bd dfa3 80bc a331 e6bc
000002a0: 3fc0 a83d 357c 2b3e ce07 713d 10d1 43be
000002b0: 912e ccbd 987a 06bd 036d c23c 43d7 92bd
000002c0: 9801 903d a930 82be 0558 98bd b2d6 21be
000002d0: 56a8 e73d 8984 153d 9be1 ee3d 88dd be3c
000002e0: 6d44 d83c 76ef c0bc 6fc5 963d 1664 dabd
000002f0: 0efd c4bd 5ac3 0e3e 0d55 993c 9eab 033d
00000300: 697f a5bd 9d6e e63d 334d a7bd dcbc 24ba
00000310: ce01 c13d f82c 33bc 9da5 e23d 9e25 5e3d
00000320: 5a14 28be 656a e83d 7506 84be 7cd8 903d
00000330: 35d7 c9bd ce3d 68bd 439e 123e 69bb 69bd
00000340: f27b dfbc 8315 f0bd f07b a13d 8edd 21be
00000350: 4dd6 193d 584f 013e 2284 65bc 709d bfb9
00000360: 4ba6 1cbd 40f3 81bd d13b d23c f692 20be
00000370: f311 38bd f26e b839 8dd3 bb3b f67d 583d
00000380: 1930 e6bd 3baa 9fbd b33e 50bd 3a26 93bd
00000390: f60b 453d 642d 96bd fbbd a23d dfaa 113e
000003a0: e08f d13c 3612 30be 064a b3bd 5400 3dbe
000003b0: 6014 473d 3752 053d ad54 ac3d ba3a 28be
000003c0: 09b9 e03d 9caa f7bc d89e b03d de79 16be
000003d0: a403 38bd 3752 ea3d e14a 043e 0c7a 893d
000003e0: e196 97bc 06a3 15be f49f b3bd 0172 603d
000003f0: 1308 18bd 12a7 b23b 047d 713d c8a6 aa3d

encoder.6.bias f4 [32]
-0.038438167 0.10516997 -0.024375293 0.04489441 0.009754536 -0.105698906 0.07315789 0.03350721
-0.10420821 -0.0036743763 0.00608154 0.017323932 -0.0069238194 -0.08700541 -0.04324844 0.025500651
-0.03387645 -0.07898911 -0.064632244 -0.14068519 0.042861212 -0.053254187 0.05743174 0.037289962
0.044626825 -0.015601462 0.056419794 -0.043768078 0.01173624 0.020032512 -0.17225204 0.016844248
00000000: 5771 1dbd 5a63 d73d b2ae c7bc 33e3 373d
00000010: 7dd1 1f3c ab78 d8bd ced3 953d db3e 093d
00000020: 1d6b d5bd cecd 70bb a847 c73b ebea 8d3c
00000030: 35e1 e2bb e42f b2bd 4725 31bd bee6 d03c
00000040: 08c2 0abd 0bc5 a1bd e95d 84bd c70f 10be
00000050: 3d8f 2f3d 1021 5abd 8b3d 6b3d 5cbd 183d
00000060: 9eca 363d 469d 7fbc 7118 673d 2846 33bd
00000070: 5c49 403c 391b a43c d762 30be f3fc 893c

encoder.9.weight f4 [17, 32]
-0.12817891 0.12187044 0.049209207 0.1203153 -0.010352597 -0.018670157 -0.12069153 -0.075607836
-0.055513203 -0.08722653 0.077952154 0.021920213 0.103393346 0.10629674 -0.15523233 0.024513248
-0.059038553 -0.05081293 0.012849154 0.042539157 0.17674388 0.12461818 -0.12953219 0.024494924
0.075097345 -0.043225903 0.18208003 0.0125884265 -0.14902684 0.039821573 -0.07204513 -0.1581837
0.01642898 0.041905954 0.12193838 0.16004522 0.017324341 0.14190085 -0.067388736 0.019282328
0.113057464 0.15483719 -0.085602224 0.14607129 0.027248688 0.06067201 0.105971135 -0.028156964
-0.14720659 -0.05507391 -0.013941035 0.034849852 -0.1058717 -0.16667974 -0.15970446 -0.12755439
-0.12985767 0.22119366 -0.10994122 0.011848723 0.16041707 0.15008454 0.15418309 -0.03329463
0.08728581 0.13833623 -0.024860075 -0.17208788 0.13468273 -0.031971015 0.18026742 -0.11096923
0.07539967 -0.052675873 -0.12462161 0.12194401 0.093735605 -0.001720229 0.031246878 -0.039675154
-0.10520141 0.09978065 -0.10079058 -0.15742545 0.024594827 -0.1294228 0.019467685 0.0064003915
0.02604201 -0.14054519 -0.052365817 -0.16086301 0.0989519 -0.0021484809 0.0676163 0.013624482
-0.10125978 -0.013243123 -0.031955503 0.17363301 -0.15846549 0.12438025 -0.052409075 0.12777573
0.17877267 0.07219264 0.052620497 0.114124805 0.14987165 0.025154553 0.0196981 -0.014792484
-0.04615684 -0.05068163 -0.05852148 0.060380507 0.042405333 -0.07065458 0.13601616 -0.109882124
0.16199613 -0.008153394 0.075126275 0.095531695 0.04158692 0.0059680347 -0.12961234 0.15434858
-0.009183452 -0.069775 0.03244389 -0.09744246 0.14274263 -0.10572855 0.15677953 -0.076448314
-0.049573764 0.0752589 0.13068059 -0.0894708 0.012781737 -0.09937818 -0.08905017 0.102045044
0.009322264 -0.11463325 0.17913033 0.22171679 -0.11732632 -0.035624437 -0.068510786 -0.06915604
-0.028006885 -0.173135 -0.17136 0.16583897 -0.104664125 0.16982676 0.1702127 -0.13683912
-0.18513653 0.03833548 0.07737909 -0.15406361 0.036850974 -0.16187742 -0.121376626 0.03299403
0.081003025 0.034437187 -0.1253256 0.05284747 -0.12033722 -0.17065756 0.052981276 0.14512783
0.05205357 0.089963384 -0.19435741 0.018522847 0.017565709 -0.032613024 -0.11083587 -0.029345023
0.044426955 -0.17077564 0.12486299 -0.07561578 0.06906448 -0.14949049 0.017079541 0.007368688
-0.078001164 0.12835352 0.1346415 -0.09754722 -0.117851 0.016802821 0.07806555 0.073393635
0.09574124 0.16809607 -0.12296065 0.04436573 0.12306161 -0.048935972 -0.062674604 0.03223586
0.012735719 -0.074522346 -0.031890906 0.22886099 0.02750712 -0.17362803 -0.1303653 -0.021342248
0.06467801 -0.10135601 -0.09526799 -0.046140496 -0.05536392 0.01936541 -0.08488805 0.082811736
0.06960825 -0.19882186 0.14643693 -0.00794641 0.0622666 0.09756064 -0.09190223 -0.21426156
0.009730558 -0.029717343 0.023490498 -0.18360263 0.1048137 -0.17252755 -0.18103428 0.08322901
-0.051465157 0.115669005 -0.1227327 -0.082901396 -0.095807925 -0.02864982 -0.1457813 0.08038437
0.12775749 -0.14019278 -0.13018014 -0.12163128 -0.17354397 -0.014642393 0.10577575 0.11347924
00000000: 5541 03be 3697 f93d 988f 493d de67 f63d
00000010: f09d 29bc 28f2 98bc 1f2d f7bd 48d8 9abd
00000020: d061 63bd d3a3 b2bd 61a5 9f3d 0592 b33c
00000030: e4bf d33d 1bb2 d93d 39f5 1ebe 02d0 c83c
00000040: 69d2 71bd 3821 50bd 4285 523c 8a3d 2e3d
00000050: 59fc 343e d137 ff3d 16a4 04be 94a9 c83c
00000060: a3cc 993d a50d 31bd 3073 3a3e b03f 4e3c
00000070: 7e9a 18be f21b 233d 668c 93bd e8fa 21be
00000080: 1196 863c 94a5 2b3d d4ba f93d e5e2 233e
00000090: c7eb 8d3c 754e 113e 1b03 8abd f9f5 9d3c
000000a0: ac8a e73d a48d 1e3e 3850 afbd b693 153e
000000b0: a438 df3c 3783 783d 6507 d93d 6fa9 e6bc
000000c0: 53bd 16be 2e95 61bd f068 64bc b8be 0e3d
000000d0: 43d3 d8bd 18ae 2abe 9189 23be 9e9d 02be
000000e0: 69f9 04be 9780 623e dd28 e1bd 2521 423c
000000f0: 5f44 243e c3af 193e 2ce2 1d3e f35f 08bd
00000100: e7c2 b23d 03a8 0d3e 5ba7 cbbc ce37 30be
00000110: 45ea 093e 0af4 02bd 0698 383e d643 e3bd
00000120: 246b 9a3d a8c2 57bd 9d39 ffbd c8bd f93d
00000130: 74f8 bf3d 4f79 e1ba 74f9 ff3c 6a82 22bd
00000140: d673 d7bd cc59 cc3d 4b6b cebd 2334 21be
00000150: 177b c93c 6987 04be b27a 9f3c 60ba d13b
00000160: 0e56 d53c 14eb 0fbe 8a7d 56bd 46b9 24be
00000170: 4ba7 ca3d 87cd 0cbb 6a7a 8a3d 3839 5f3c
00000180: 4a61 cfbd aff9 58bc c6e3 02bd dacc 313e
00000190: c744 22be 13bb fe3d e6aa 56bd a4d7 023e
000001a0: 2f10 373e bcd9 933d 9788 573d 44ba e93d
000001b0: f477 193e ec10 ce3c e95d a13c 2d5c 72bc
000001c0: f40e 3dbd 8a97 4fbd 38b4 6fbd 8d51 773d
000001d0: 37b1 2d3d 59b3 90bd d247 0b3e e109 e1bd
000001e0: 50e2 253e d095 05bc cedb 993d 1fa6 c33d
000001f0: 0c57 2a3d 818f c33b 19b9 04be 8e0d 1e3e
00000200: 3176 16bc 32e6 8ebd e2e3 043d ea8f c7bd
00000210: 202b 123e 3688 d8bd d08a 203e ef90 9cbd
00000220: dc0d 4bbd 5721 9a3d 22d1 053e 773c b7bd
00000230: 7e6a 513c ca86 cbbd ef5f b6bd fefc d03d
00000240: 69bc 183c d6c4 eabd f16d 373e ba09 633e
00000250: c848 f0bd eeea 11bd 624f 8cbd afa1 8dbd
00000260: b26e e5bc 4d4a 31be ff78 2fbe b1d1 293e
00000270: 255a d6bd 11e7 2d3e 3d4c 2e3e 8e1f 0cbe
00000280: 6e94 3dbe aa05 1d3d ee78 9e3d dac2 1dbe
00000290: 0cf1 163d 32c3 25be 4f94 f8bd bf24 073d
000002a0: eae4 a53d 020e 0d3d 5b55 00be 9776 583d
000002b0: 5c73 f6bd dbc0 2ebe e502 593d 649c 143e
000002c0: 2036 553d b93e b83d a105 47be 3abd 973c
000002d0: f6e5 8f3c 3c95 05bd ebfd e2bd f964 f0bc
000002e0: 0af9 353d cfdf 2ebe 2bb8 ff3d 72dc 9abd
000002f0: ae71 8d3d 0914 19be 65ea 8b3c 0975 f13b
00000300: 13bf 9fbd 1b6f 033e 76df 093e d6c6 c7bd
00000310: dd5b f1bd 12a6 893c d5e0 9f3d 674f 963d
00000320: fc13 c43d 6021 2c3e cbd2 fbbd d7b8 353d
00000330: ba07 fc3d 1671 48bd 8b5b 80bd c009 043d
00000340: 7aa9 503c 2c9f 98bd 0aa0 02bd 895a 6a3e
00000350: 9d56 e13c 8ccb 31be 7b7e 05be f0d5 aebc
00000360: e875 843d bd93 cfbd dd1b c3bd d1fd 3cbd
00000370: 47c5 62bd 35a4 9e3c c9d9 adbd 3399 a93d
00000380: c58e 8e3d f597 4bbe 90f3 153e a931 02bc
00000390: 430b 7f3d dfcd c73d 3d37 bcbd 6267 5bbe
000003a0: eb6c 1f3c c971 f3bc 256f c03c 5402 3cbe
000003b0: 91a8 d63d 10ab 30be 0d61 39be f973 aa3d
000003c0: 21cd 52bd dfe3 ec3d 485b fbbd 35c8 a9bd
000003d0: f236 c4bd 07b3 eabc b147 15be 90a0 a43d
000003e0: dcd2 023e b28e 0fbe f14d 05be d219 f9bd
000003f0: 83b5 31be a6e6 6fbc f5a0 d83d ce67 e83d

encoder.9.bias f4 [17]
0.054849803 0.030448949 -0.1680869 -0.11726522 0.07862688 0.1253856 0.1449066 -0.11944842
-0.05582134 0.18544675 -0.2078358 -0.06450649 0.11922748 0.07259788 0.099906355 0.07416675
0.18482958
00000000: 30aa 603d 1370 f93c f91e 2cbe bf28 f0bd
00000010: 2107 a13d 1565 003e 6562 143e 60a1 f4bd
00000020: eba4 64bd c1e5 3d3e e8d2 54be fb1b 84bd
00000030: 892d f43d 33ae 943d b49b cc3d bde4 973d
00000040: f743 3d3e

decoder.0.weight f4 [32, 17]
-0.1664797 -0.019797275 -0.06552356 0.20821814 0.16622278 -0.2028149 0.25959456 -0.049232155
0.23230346 0.033034194 -0.13899334 -0.2653068 0.11857246 0.002752826 0.005939383 -0.21151672
-0.16827388 -0.10190155 0.048848797 0.031530973 0.05056219 0.10961571 -0.13281262 -0.12747496
-0.1633208 -0.13817124 -0.11953221 0.21806973 0.04443373 0.2278746 -0.010449399 -0.198602
-0.009659486 -0.19671236 -0.12584358 0.037246075 -0.32237202 0.24048592 0.0036287212 -0.079183795
0.050222296 -0.027528921 0.22556435 0.15298486 -0.14085503 -0.21057707 -0.20669396 0.14858346
-0.013850827 0.04619234 0.14782009 0.02501987 0.012922819 0.18257098 -0.011036945 0.18913369
0.024840675 -0.116044454 -0.0698655 0.21248157 -0.22869544 0.25180644 -0.11552915 0.14765716
-0.043770336 -0.22862378 0.10661951 0.0034455797 -0.12625696 -0.16230384 -0.08356566 -0.11030057
0.15140685 -0.1593427 0.11593415 -0.12429538 0.2187214 -0.0014193889 0.11079232 0.22644468
-0.19056153 0.12513141 0.09755142 -0.21434025 -0.1945091 0.07605354 0.20885128 -0.093817405
0.24283949 0.19805734 -0.068092674 -0.050088212 -0.12408161 0.032199148 0.15827195 -0.11207788
0.014681086 0.20759004 0.04693009 0.16366608 0.23356523 -0.056518093 -0.05956985 0.15719333
-0.25076184 -0.25318086 0.20339209 -0.084096834 0.015791789 0.12255812 -0.22774622 0.109136395
0.1918714 0.23427325 -0.05508769 -0.13333769 -0.11586978 0.062044084 -0.08299788 -0.015009353
-0.07776424 0.1810595 -0.14216478 -0.13964428 0.09710171 -0.20360473 0.076041885 -0.15850966
-0.007662466 -0.029005777 0.15061453 0.1451606 -0.13748088 -0.19309568 -0.05720212 -0.1656009
-0.17701416 -0.15522215 0.15816014 -0.10847056 0.12992916 0.14776261 0.19124709 0.043185733
0.28263724 -0.056576476 -0.1314378 0.22219935 0.13981475 -0.24067622 -0.013381813 0.30315945
0.21299542 0.1953438 -0.071611464 0.056829583 0.009741022 -0.029788941 0.032164212 -0.1915714
-0.16881704 0.25281367 0.24132577 -0.1365599 -0.19974183 -0.00018462825 0.09240312 -0.061253242
-0.10540926 -0.17571586 0.038390435 0.00090385036 -0.02568809 0.06554821 -0.14167261 -0.0012843546
-0.19344744 -0.017319676 -0.04576838 0.1552327 -0.120129 -0.18138772 0.06373771 0.20793216
0.20450824 0.023092605 -0.21560538 -0.17812525 0.13248906 0.23842752 0.09962617 -0.2871726
0.16205747 -0.2743663 0.22427799 0.1779001 -0.1336179 0.00471684 -0.059463784 0.15798874
-0.05675297 0.28088418 0.03565959 0.035252694 0.13759553 0.021471238 0.017721705 -0.20382039
0.10754037 -0.068962894 0.041624047 0.093847305 0.23854513 0.06648688 0.042494874 -0.08689638
0.03599194 0.18199001 0.06296969 -0.11924877 -0.0054217353 -0.19296604 0.14076999 0.2995218
-0.20222415 0.13161922 0.059993483 -0.1109908 -0.24804461 0.036238395 0.08567393 0.014090119
-0.15747978 0.0849471 -0.1916796 0.03391001 -0.32831565 -0.10653428 -0.21753083 -0.053960077
-0.1922141 -0.18049607 -0.006934581 0.09044177 -0.094581805 0.11445575 0.15394434 0.15976222
0.013503144 -0.0042368826 -0.15990567 0.2571694 -0.25326812 0.11179757 0.09464849 -0.13686809
00000000: a879 2abe e52d a2bc 3731 86bd 2337 553e
00000010: 4e36 2a3e b6ae 4fbe 94e9 843e a8a7 49bd
00000020: f5e0 6d3e dd4e 073d 4554 0ebe 4bd6 87be
00000030: 1ed6 f23d c268 343b 289f c23b d797 58be
00000040: fd4f 2cbe c3b1 d0bd ad15 483d 9f26 013d
00000050: 4d1a 4f3d 347e e03d 0800 08be cc88 02be
00000060: 913d 27be c37c 0dbe 4ecd f4bd ac4d 5f3e
00000070: 2500 363d f657 693e f533 2bbc 535e 4bbe
00000080: d242 1ebc f76e 49be 24dd 00be 578f 183d
00000090: f20d a5be f141 763e d7cf 6d3b 1d2b a2bd
000000a0: e5b5 4d3d 5584 e1bc 57fa 663e 10a8 1c3e
000000b0: 4d3c 10be 84a1 57be 95a7 53be 4326 183e
000000c0: 94ee 62bc 2e34 3d3d 265e 173e 78f6 cc3c
000000d0: 3bba 533c e3f3 3a3e 4dd4 34bc 43ac 413e
000000e0: ac7e cb3c b7a8 edbd a515 8fbd c594 593e
000000f0: 232f 6abe c6ec 803e 8c9a ecbd 7033 173e
00000100: 8648 33bd 5a1c 6abe 545b da3d 3ccf 613b
00000110: 8149 01be fa32 26be 7924 abbd 44e5 e1bd
00000120: 660a 1b3e bc2a 23be e26e ed3d 948e febd
00000130: 81f8 5f3e ca0a baba 15e7 e23d 1de1 673e
00000140: 9022 43be 7322 003e 0ac9 c73d 037c 5bbe
00000150: 652d 47be f5c1 9b3d 1cdd 553e 5723 c0bd
00000160: eaaa 783e 8bcf 4a3e 2c74 8bbd 4c29 4dbd
00000170: 801e febd 41e3 033d 0b12 223e 1689 e5bd
00000180: f088 703c 7c92 543e c439 403d 1598 273e
00000190: b92b 6f3e 847f 67bd 84ff 73bd 4af7 203e
000001a0: db63 80be eca0 81be 0446 503e f63a acbd
000001b0: c85d 813c c0ff fa3d 4e36 69be e782 df3d
000001c0: f079 443e 54e5 6f3e a1a3 61bd ad89 08be
000001d0: 234d edbd f021 7e3d cbfa a9bd cae9 75bc
000001e0: dc42 9fbd a967 393e a593 11be e9fe 0ebe
000001f0: 43dd c63d c27d 50be d9bb 9b3d 5b50 22be
00000200: 6c15 fbbb 869d edbc b23a 1a3e fba4 143e
00000210: cac7 0cbe e0ba 45be c54c 6abd 4893 29be
00000220: 3343 35be 8ef2 1ebe bbf4 213e d025 debd
00000230: 260c 053e 154f 173e 47d6 433e 86e3 303d
00000240: d4b5 903e bcbc 67bd a197 06be 3a88 633e
00000250: 992b 0f3e d473 76be 643f 5bbc b737 9b3e
00000260: 791b 5a3e 3508 483e 08a9 92bd 23c6 683d
00000270: cf98 1f3c f007 f4bc 9fbe 033d 4b2b 44be
00000280: 60de 2cbe cb70 813e 1a1e 773e 5cd6 0bbe
00000290: 1f89 4cbe c598 41b9 d93d bd3d aee4 7abd
000002a0: cfe0 d7bd dcee 33be 4a3f 1d3d 5ff0 6c3a
000002b0: d46f d2bc 243e 863d a012 11be ca57 a8ba
000002c0: 1617 46be fee1 8dbc a077 3bbd 52f5 1e3e
000002d0: 3106 f6bd b4bd 39be eb88 823d 2bec 543e
000002e0: 9c6a 513e b42c bd3c a8c7 5cbe 7766 36be
000002f0: 36ab 073e 5826 743e ce08 cc3d 4908 93be
00000300: 65f2 253e bd79 8cbe 21a9 653e 722b 363e
00000310: 21d3 08be b98f 9a3b 4c90 73bd cdc7 213e
00000320: cd75 68bd 0dd0 8f3e ca0f 123d 2165 103d
00000330: d8e5 0c3e 73e4 af3c 1c2d 913c 4bb6 50be
00000340: 203e dc3d 6b3c 8dbd fa7d 2a3d 0433 c03d
00000350: 2d45 743e 462a 883d 1b0f 2e3d bbf6 b1bd
00000360: 496c 133d 975b 3a3e 41f6 803d b338 f4bd
00000370: d0a8 b1bb e498 45be 0226 103e ec5a 993e
00000380: d913 4fbe 30c7 063e babb 753d 254f e3bd
00000390: 68ff 7dbe b66e 143d d075 af3d 3eda 663c
000003a0: 6142 21be bff8 ad3d a847 44be 39e5 0a3d
000003b0: fd18 a8be a52e dabd 67c0 5ebe 3e05 5dbd
000003c0: c6d3 44be f6d3 38be 7b3b e3bb 8939 b93d
000003d0: 1bb4 c1bd c767 ea3d 96a3 1d3e b598 233e
000003e0: 4a3c 5d3c 8cd5 8abb 50be 23be b5ab 833e
000003f0: 5cac 81be 20f6 e43d 11d7 c13d 2627 0cbe

decoder.0.bias f4 [32]
-0.13044381 -0.10352192 0.07128724 -0.21196781 0.08987114 0.23496002 -0.084959015 -0.17152514
0.049856577 0.055498537 0.04956061 0.06711671 0.2544574 -0.037307307 0.09146634 0.1594612
-0.16726395 -0.10594871 0.11720112 -0.22527803 -0.18201809 0.06423243 -0.05307961 0.011197887
-0.03860164 -0.12772323 0.026865872 0.15780544 0.13662356 0.23846576 0.050559428 0.27390572
00000000: 1093 05be 4d03 d4bd 0bff 913d 170e 59be
00000010: 5c0e b83d 5c99 703e fefe adbd 49a4 2fbe
00000020: 6936 4c3d 6f52 633d 1100 4b3d 7c74 893d
00000030: 3e48 823e 8ccf 18bd b452 bb3d cc49 233e
00000040: 3e47 2bbe a3fb d8bd 2407 f03d 49af 66be
00000050: f362 3abe 4b8c 833d 016a 59bd 5877 373c
00000060: c11c 1ebd e1c9 02be d115 dc3c c097 213e
00000070: 0ce7 0b3e 5e30 743e 6717 4f3d 5f3d 8c3e

decoder.2.weight f4 [64, 32]
0.13192673 -0.110087566 -0.026803607 -0.09207785 0.25557315 0.15219386 -0.15937738 -0.07359876
0.11403334 0.1756088 -0.06489278 0.18787037 -0.025240632 0.17990875 0.111703016 0.22249201
-0.1286191 -0.022534708 -0.094274014 -0.023992851 0.012725908 0.16668054 0.14943981 0.06461467
-0.020043144 0.10958944 -0.025523487 -0.14521408 0.09722092 -0.104723535 -0.033224545 0.16720954
0.08776321 -0.010723924 0.048041012 0.018721856 0.14090855 -0.09983773 -0.02662839 -0.105354436
-0.05081722 0.031994358 0.040139794 -0.06518386 0.07248814 0.03236133 -0.0008130013 0.16824813
-0.095922835 0.12100709 0.18245035 0.023868835 0.05943963 0.06542875 -0.055442106 0.091499485
-0.06535067 -0.1282129 0.007183547 0.025120987 0.16169752 0.12650938 0.07548741 0.19210425
0.14414772 0.03280594 0.1248842 0.07271151 -0.178048 0.03866532 0.06552163 -0.15263225
-0.020149989 0.0072255377 -0.013723384 0.11030522 0.115078054 0.072839655 -0.012160073 0.011242879
-0.044807944 -0.0039003794 -0.11030628 0.05267413 -0.0012873813 -0.042811636 0.099496104 0.029578011
-0.11479115 0.14216499 -0.034907598 -0.09248063 -0.04917928 0.061586373 -0.05306886 0.1756078
-0.22209696 0.10669405 -0.0335584 -0.17884241 0.04338818 0.12619102 -0.07481031 0.18343984
0.19876613 -0.18386912 0.03606004 -0.02089378 0.10688038 0.061947342 -0.0139231365 0.2060248
-0.11681861 0.030552093 0.13866787 0.017028788 0.035058115 -0.051463608 -0.04854162 -0.062561035
-0.031115828 0.13700256 0.018012827 0.16505575 -0.033867408 0.10436931 -0.0849445 -0.037917346
0.0043101627 0.0029933872 0.13817391 -0.06288138 -0.040296543 -0.08423187 0.068374634 -0.062188987
0.065804355 0.09734124 0.15506347 0.12578715 0.13106687 0.12989798 0.103149645 -0.0882951
-0.011170711 0.062189512 -0.14021088 -0.095233984 0.003511935 -0.13885188 0.080753595 -0.108140044
-0.090653546 -0.06378816 0.057179388 0.03989091 -0.0054636584 0.04043498 -0.07970459 0.22326441
-0.049058445 0.09601032 -0.09699884 -0.07365534 -0.07466829 0.14320506 0.17378694 0.07784629
-0.026502019 -0.017139183 0.04874882 -0.07864876 -0.17374606 0.08745964 -0.07572721 -0.06985503
0.013933022 0.08343137 -0.00798324 -0.051287156 0.055311095 -0.10828485 -0.10980394 0.10172675
-0.076149404 -0.0172939 -0.07259455 -0.14963278 -0.09880215 -0.14995791 -0.11102025 0.11071197
0.056243397 -0.09927969 0.14003743 -0.034922294 -0.026619652 -0.08054171 0.06343154 0.07994489
0.025022266 0.026191024 0.14065564 -0.044983327 0.075410284 0.20080107 0.009295204 0.14059223
0.1458809 0.14846222 0.003814681 0.15952 0.15251122 -0.002597157 0.1605566 0.117496766
-0.047129333 -0.03478884 0.114293575 -0.015188566 0.06850001 -0.030088285 0.075365335 -0.07136155
-0.057166066 0.12545864 -0.14526483 0.07322845 -0.02328073 0.06193373 -0.056251753 0.05136624
-0.031281166 -0.05379257 0.10990938 0.0693216 -0.06388934 0.19348742 0.23179886 -0.058366276
0.091392204 -0.020542271 0.0852888 0.050142054 0.022070251 0.1159083 0.022613548 0.13356258
0.081679404 0.11919421 -0.016327241 0.062297676 0.13843073 -0.15769516 -0.0981144 -0.14692059
00000000: cd17 073e 9775 e1bd 3d93 dbbc 5093 bcbd
00000010: 7cda 823e b5d8 1b3e d333 23be f2ba 96bd
00000020: 508a e93d cbd2 333e 81e6 84bd 1761 403e
00000030: 71c5 cebc 003a 383e 8dc4 e43d f2d4 633e
00000040: bab4 03be b59a b8bc bc12 c1bd a88c c4bc
00000050: 5480 503c 4eae 2a3e c006 193e b254 843d
00000060: 8531 a4bc 6e70 e03d a216 d1bc 00b3 14be
00000070: c31b c73d 4b79 d6bd 7616 08bd fa38 2b3e
00000080: 33bd b33d 66b3 2fbc a7c6 443d 945e 993c
00000090: 554a 103e b977 ccbd c823 dabc 11c4 d7bd
000000a0: b825 50bd 840c 033d a069 243d 1e7f 85bd
000000b0: a974 943d 508d 043d 981f 55ba 3d49 2c3e
000000c0: 3173 c4bd 91d2 f73d 44d4 3a3e 9388 c33c
000000d0: f876 733d 82ff 853d 4317 63bd 1564 bb3d
000000e0: 92d6 85bd 3e4a 03be f663 eb3b 87ca cd3c
000000f0: 0994 253e ad8b 013e 2599 9a3d fab6 443e
00000100: 769b 133e 855f 063d 4ac3 ff3d c6e9 943d
00000110: 3752 36be 875f 1e3d 3430 863d a14b 1cbe
00000120: 9711 a5bc 34c4 ec3b 0bd8 60bc b4e7 e13d
00000130: 0bae eb3d f52c 953d 0b3b 47bc 0d34 383c
00000140: 8988 37bd 829d 7fbb 42e8 e1bd d4c0 573d
00000150: 59bd a8ba 415b 2fbd 9dc4 cb3d 964d f23c
00000160: 9f17 ebbd b393 113e 45fb 0ebd 7c66 bdbd
00000170: 3670 49bd fe41 7c3d bc5e 59bd 88d2 333e
00000180: 636d 63be 6982 da3d 8874 09bd 7722 37be
00000190: ceb7 313d 3838 013e 2636 99bd a7d7 3b3e
000001a0: 5989 4b3e 3048 3cbe b1b3 133d 6f29 abbc
000001b0: 1ae4 da3d 7fbc 7d3d de1d 64bc 2af8 523e
000001c0: 983e efbd 6248 fa3c f3fe 0d3e f57f 8b3c
000001d0: 1999 0f3d 81cb 52bd 94d3 46bd 0020 80bd
000001e0: 9fe6 febc 664a 0c3e a38f 933c 6004 293e
000001f0: 8db8 0abd 94bf d53d 62f7 adbd 384f 1bbd
00000200: 443c 8d3b b42c 443b 767d 0d3e f4c7 80bd
00000210: fd0d 25bd c281 acbd 0008 8c3d e1b9 7ebd
00000220: 6fc4 863d d85a c73d f5c8 1e3e 59ce 003e
00000230: 6536 063e fa03 053e 1f40 d33d 10d4 b4bd
00000240: 5c05 37bc 6eba 7e3d 7193 0fbe 090a c3bd
00000250: 7e28 663b 302f 0ebe 2462 a53d 8778 ddbd
00000260: 91a8 b9bd 5ea3 82bd ef34 6a3d a764 233d
00000270: 7d08 b3bb 269f 253d 293c a3bd 6d9f 643e
00000280: 82f1 48bd 0fa1 c43d 54a7 c6bd 9cd8 96bd
00000290: b0eb 98bd 59a4 123e 34f5 313e e06d 9f3d
000002a0: c31a d9bc 7967 8cbc d8ac 473d 9a12 a1bd
000002b0: 7dea 31be 0a1e b33d de16 9bbd 2710 8fbd
000002c0: 5447 643c 11de aa3d 23cc 02bc 7b12 52bd
000002d0: e38d 623d 73c4 ddbd e3e0 e0bd 1d56 d03d
000002e0: 38f4 9bbd f0ab 8dbc 74ac 94bd 5639 19be
000002f0: c858 cabd 918e 19be 965e e3bd f5bc e23d
00000300: 7a5f 663d 2653 cbbd f965 0f3e ae0a 0fbd
00000310: 7511 dabc 0df3 a4bd 65e8 813d 26ba a33d
00000320: 7ffb cc3c 8f8e d63c 0808 103e 7040 38bd
00000330: b570 9a3d cc9e 4d3e e94a 183c 69f7 0f3e
00000340: cd61 153e 7b06 183e baff 793b 3659 233e
00000350: e72b 1c3e 1035 2abb f368 243e 25a2 f03d
00000360: b00a 41bd be7e 0ebd c012 ea3d 77d9 78bc
00000370: bc49 8c3d b57b f6bc 2459 9a3d 0126 92bd
00000380: f726 6abd 3b78 003e 4ec0 14be ccf8 953d
00000390: 3bb7 bebc 39ae 7d3d 3d68 66bd 6865 523d
000003a0: ae20 00bd 9955 5cbd 2b18 e13d 7cf8 8d3d
000003b0: 6ad8 82bd 9121 463e ae5c 6d3e 7a11 6fbd
000003c0: d62b bb3d 4448 a8bc e5ab ae3d c161 4d3d
000003d0: accc b43c 5561 ed3d 0c40 b93c a1c4 083e
000003e0: 8847 a73d 181c f43d b5c0 85bc d92b 7f3d
000003f0: c9c0 0d3e d77a 21be 34f0 c8bd 5a72 16be

decoder.2.bias f4 [64]
0.21179865 0.11039219 -0.15601581 0.107090175 -0.14816856 -0.04451248 0.14253022 -0.085464075
0.019105367 -0.023576261 0.095211335 0.051299535 0.1977738 0.043570228 -0.1062833 -0.15206274
0.08269763 0.084309295 -0.092190735 -0.13557854 0.033521783 0.18628241 -0.20022704 -0.022124145
0.13044934 0.20667468 -0.06359383 0.17092691 0.056840826 -0.12773673 -0.039056588 -0.13547932
-0.01732342 -0.21791959 0.07383642 0.1007862 -0.0021889885 -0.1381581 -0.1297227 -0.04044396
0.09440454 -0.1311209 0.03469931 0.08834656 0.03645144 0.27373794 0.13179888 -0.067231745
-0.12239462 0.07648087 0.08164398 0.01991803 0.07195179 -0.06466261 0.1743815 -0.17401204
0.14765777 0.17285167 0.032216888 0.14661476 0.120596476 -0.10403641 -0.12937506 0.21620274
00000000: bfe1 583e 4d15 e23d 9cc2 1fbe 1852 db3d
00000010: 80b9 17be b852 36bd 71f3 113e ca07 afbd
00000020: dc82 9c3c 0123 c1bc 29fe c23d 761f 523d
00000030: 3785 4a3e b276 323d 0fab d9bd 56b6 1bbe
00000040: 605d a93d 5aaa ac3d 7fce bcbd 1ad5 0abe
00000050: 234e 093d d1c0 3e3e 5108 4dbe b23d b5bc
00000060: 8394 053e 87a2 533e 7b3d 82bd 7707 2f3e
00000070: edd1 683d 6bcd 02be cdf9 1fbd 17bb 0abe
00000080: d8e9 8dbc 5026 5fbe 8d37 973d ff68 ce3d
00000090: 2275 0fbb 5179 0dbe 07d6 04be 91a8 25bd
000000a0: 2b57 c13d 8f44 06be dd20 0e3d 0bef b43d
000000b0: 1b4e 153d 6127 8c3e 49f6 063e ccb0 89bd
000000c0: 08aa fabd 01a2 9c3d f634 a73d 232b a33c
000000d0: 765b 933d d56d 84bd 1091 323e 3630 32be
000000e0: 9933 173e 0700 313e dbf5 033d 2e22 163e
000000f0: 49fb f63d 0b11 d5bd e57a 04be 4064 5d3e
