Save_Models/model-lat5.pth (torch, 191970 bytes, 16 tensors)

encoder.0.weight f4 [128, 99]
0	0xbe13695d	-0.14395662
1	0xbcbdf5fa	-0.02318858
2	0xbd4639d2	-0.048394985
3	0xbd8c1702	-0.06840326
4	0xbe00e66a	-0.12587896
5	0xbda3dc54	-0.08001009
6	0xbdafa416	-0.08576219
7	0xbc10bc3e	-0.008833943
8	0xbdd73b2e	-0.105093345
9	0xbd770e4d	-0.060316373
10	0xbded0c3a	-0.11574598
11	0xbd4e4958	-0.050362915
12	0xbd107eec	-0.035277292
13	0xbd37c814	-0.044868544
14	0xbd7c357f	-0.061574455
15	0x3da0c315	0.07849709
16	0xbde7d176	-0.113192484
17	0xbcad8847	-0.021183146
18	0x3d112068	0.035431296
19	0x3d539be9	0.05166236
20	0xbcb59c75	-0.022169331
21	0xbdce5b54	-0.10076013
22	0xbb15748f	-0.002280507
23	0x3d6e01fc	0.05810736
24	0xbceaeee3	-0.028678363
25	0xbdc48285	-0.09595207
26	0x3bf41d5a	0.007449788
27	0xbd3b6956	-0.045754753
28	0xbd1819f8	-0.03713414
29	0xbd2d1d95	-0.04226454
30	0x3d42f0f5	0.047593076
31	0xbdde1bdd	-0.10845158
32	0x3c30bb0a	0.010786781
33	0xbcdd7d37	-0.027037246
34	0x3d612ba5	0.054973263
35	0xbd99fcab	-0.07518896
36	0xbda50f6d	-0.08059583
37	0xbd859f29	-0.06524498
38	0xbd17b0d8	-0.037033886
39	0x3dbd2792	0.09236063
40	0xbc303ac6	-0.0107562
41	0x3d58d452	0.05293686
42	0xbb1cbd51	-0.0023916552
43	0x3cea4770	0.028598517
44	0xbd17e857	-0.03708681
45	0xbdd189d7	-0.10231369
46	0xbdaaa727	-0.08332663
47	0xbd14231d	-0.0361663
48	0x3d03df37	0.032195296
49	0x3adefe4c	0.0017013042
50	0xbcb6aa26	-0.02229793
51	0x3d3f1fe5	0.046661276
52	0xbc7b4e45	-0.015338485
53	0x3c31d877	0.010854832
54	0xbd5cc497	-0.05389842
55	0xbd688004	-0.05676271
56	0xbcda98d4	-0.026684202
57	0x3db970e4	0.09054735
58	0xbca53d67	-0.02017088
59	0xbda3c1ea	-0.079959705
60	0xbd65a268	-0.056063086
61	0x3d7eccf3	0.062207174
62	0x3d22cb71	0.039744798
63	0xbd9289be	-0.071551785
64	0x3c2c23ee	0.010506613
65	0x3cfc9823	0.030834263
66	0x3aae8b59	0.0013316675
67	0xbd191540	-0.03737378
68	0x3c3866f5	0.011255016
69	0xbd455800	-0.048179626
70	0x3cb9f682	0.022700552
71	0x3da6e97b	0.081500016
72	0x3df7b293	0.12094607
73	0x3de5bf78	0.112181604
74	0x3d5c2774	0.053748563
75	0x3d916af4	0.07100478
76	0x3df62f19	0.12020702
77	0x3d8cf84a	0.06883295
78	0x3d3cc04a	0.04608182
79	0xbd4264ed	-0.04745953
80	0x3dde656f	0.10859191
81	0xbd92d1b6	-0.071689054
82	0x3d52d5d3	0.05147345
83	0xbd287000	-0.041122437
84	0xbd2bcfc8	-0.041946203
85	0xbc9b508e	-0.01895931
86	0x3cd12935	0.025532344
87	0x3c503ac9	0.012709328
88	0xbd27bc17	-0.04095086
89	0xbd2a7f63	-0.04162539
90	0x3d38cb38	0.04511568
91	0xbda32f64	-0.079680234
92	0x3b7118f8	0.0036788564
93	0x3d955e2d	0.07293353
94	0x3d8f94db	0.07010814
95	0x3d887486	0.0666285
96	0xbd667c9d	-0.056271184
97	0x3c8a31ae	0.016869392
98	0x3d989007	0.07449346
99	0xbcc274ae	-0.023737278
100	0xbd1bb190	-0.038011134
101	0xbca30683	-0.019900566
102	0xbcdee7c5	-0.027210126
103	0xbd3df681	-0.046377663
104	0x3bbdd39b	0.0057930476
105	0xbc8ed346	-0.017434727
106	0xbd689953	-0.056786846
107	0x3d4d083b	0.050056677
108	0x3da0ea8c	0.07857236
109	0x3d5b1d9c	0.053495035
110	0xbd017de2	-0.03161419
111	0xbdc6fd76	-0.097163126
112	0x3bbd2b91	0.005773016
113	0xbd4b3f80	-0.049621105
114	0x3d860f19	0.065458484
115	0x39817bac	0.0002469694
116	0xbd840ad9	-0.064473815
117	0xbd707d6b	-0.058713358
118	0x3bfef334	0.007780457
119	0x3d251acf	0.04030877
120	0x3d87721c	0.066135615
121	0x3d976de7	0.07394009
122	0x3ce64f20	0.028113902
123	0xbd803dee	-0.06261812
124	0xbda63621	-0.08115793
125	0x3d9e5781	0.07731534
126	0x3dbb0df9	0.091335244
127	0x3d81ac08	0.063316405
128	0x3d940be1	0.07228828
129	0x3cbfa583	0.023394352
130	0xbcb16e8d	-0.02165916
131	0xbd08d5ae	-0.033406906
132	0xbab4054f	-0.0013734492
133	0xbdd99e59	-0.106259055
134	0xbcc6f7bf	-0.024288056
135	0x3d6bf0b1	0.057602588
136	0x3d1a290a	0.037636794
137	0xbbd9f6a7	-0.0066517177
138	0xbd742b1d	-0.05961143
139	0x3ca8bf46	0.020599019
140	0x3d0c34dd	0.0342301
141	0xbb32eeac	-0.0027302904
142	0x3d4af561	0.049550418
143	0x3d36ef74	0.044661954
144	0xbde886e3	-0.113538526
145	0xbd24c524	-0.04022707
146	0xbddc3f0d	-0.107542135
147	0xbd51db1f	-0.05123436
148	0x3cf495bb	0.029856553
149	0xbd6e8176	-0.058228932
150	0xbbe116b7	-0.006869163
151	0xbdb268bb	-0.08711382
152	0xbd4f4170	-0.050599515
153	0xbc826025	-0.015914986
154	0xbc8814bb	-0.016611448
155	0xbd3a9dd0	-0.045560658
156	0xbce66575	-0.02812455
157	0x3d45f49a	0.048328973
158	0x3c4150e4	0.011799071
159	0xbd94dde8	-0.07268888
160	0x3c9f4286	0.0194409
161	0xbdc42092	-0.09576525
162	0xbd9fb742	-0.077986255
163	0xbdae2786	-0.08503632
164	0xba6a85db	-0.00089463376
165	0xbdf075da	-0.117412284
166	0xbd8d30a2	-0.068940416
167	0xbd7a471a	-0.061102964
168	0xbdec95de	-0.115520224
169	0xbcc3705c	-0.023857288
170	0xbd96c9d3	-0.07362714
171	0x3d8f6311	0.07001317
172	0xbd905a46	-0.07048468
173	0x3da6d645	0.081463374
174	0xbde3357f	-0.11094188
175	0xbdbe2e2c	-0.0928615
176	0x3d182034	0.037140086
177	0x3da25533	0.07926407
178	0x3c64fa80	0.0139757395
179	0x3d5176ec	0.051138803
180	0x3d6612aa	0.056170143
181	0x3d3cdfa1	0.046111707
182	0x3d784664	0.060614005
183	0xbd34cc73	-0.04414029
184	0xbdd85d4d	-0.10564671
185	0xbc9e7d88	-0.019346967
186	0x3d87f275	0.06638042
187	0x3d3b99f0	0.045801103
188	0xbd533ae4	-0.051569834
189	0xbdf7fa20	-0.121082544
190	0xbdacd169	-0.08438379
191	0x3cd3d27c	0.025857203
192	0x3d180af5	0.037119824
193	0xbd30ac8b	-0.0431333
194	0xbd9d0d28	-0.07668525
195	0x3ce063ac	0.027391277
196	0xbd460424	-0.048343793
197	0x3cfd6077	0.030929787
198	0xbe2646fe	-0.16238019
199	0xbd91d056	-0.07119815
200	0xbd901ea2	-0.07037093
201	0x3c589b23	0.013220581
202	0xbd88541f	-0.0665667
203	0xbdc0baeb	-0.09410652
204	0xbe0129a7	-0.12613545
205	0xbdfda19c	-0.1238434
206	0x3d6c763b	0.05772994
207	0x3c7e9c9a	0.015540266
208	0xbd60753b	-0.0547993
209	0xbd77f9bf	-0.06054091
210	0xbc2e885f	-0.010652631
211	0x3cfeb28b	0.031090995
212	0xbd6393ad	-0.055560756
213	0xbd5d172b	-0.053977173
214	0xbc1e1767	-0.009649134
215	0xbde9f4f5	-0.11423675
216	0xbd790c11	-0.060802523
217	0xbd4f5f16	-0.05062779
218	0xbddc2a04	-0.10750201
219	0x3d897840	0.06712389
220	0x3d5a0be1	0.053233985
221	0x3aa80cae	0.0012821162
222	0xbd828ac1	-0.063741215
223	0x3d90f29c	0.07077524
224	0xbdd1cbec	-0.10243973
225	0xbd31730e	-0.043322615
226	0x3d4199ce	0.04726582
227	0xbd022dc1	-0.031781916
228	0x395230d6	0.00020045353
229	0xbbba6ac9	-0.0056889993
230	0xbdb28e6f	-0.08718573
231	0xbdd04f12	-0.101713315
232	0xbd89b020	-0.06723046
233	0xbd24ccaa	-0.040234245
234	0xbc2df78c	-0.010618102
235	0xbcaeaf2a	-0.02132376
236	0x3d9ffdfa	0.07812114
237	0xbdbea682	-0.093091026
238	0x3cf44ed8	0.029822752
239	0x3d0cbd45	0.03436019
240	0xbd0c5ce6	-0.034268282
241	0xbc54ed44	-0.012996022
242	0x3d8b4dc1	0.0680194
243	0x3db3a75d	0.087721564
244	0x3d410cdb	0.0471314
245	0x3d15949e	0.036518686
246	0xbcbcad92	-0.023031984
247	0xbcbcc6e6	-0.02304406
248	0xbd6db279	-0.058031533
249	0xb9c43276	-0.0003742163
250	0x3d0ff551	0.03514606
251	0x3d100757	0.03516325
252	0x3d5aa13b	0.053376418
253	0x3da6fd68	0.08153802
254	0x3da169b2	0.07881488
255	0x3cf8c465	0.030367086

encoder.0.bias f4 [128]
0	0xbe8774cd	-0.264563
1	0xbe6d74eb	-0.23189132
2	0xbd48e484	-0.049046054
3	0xbe83620d	-0.25660744
4	0xbe265807	-0.16244517
5	0xbd9aa00d	-0.075500585
6	0xbdf34d5c	-0.118799895
7	0xbe8a1290	-0.26967287
8	0xbe3600bf	-0.17773722
9	0xbdbc22d0	-0.091863275
10	0xbda37cd2	-0.07982792
11	0xbdff1dbe	-0.12456845
12	0xbe38a618	-0.1803211
13	0xbe1bccc9	-0.15214838
14	0xbd289b15	-0.041163523
15	0xbe431313	-0.19050245
16	0xbde2562f	-0.110515945
17	0xbe311195	-0.17291863
18	0xbe193aaa	-0.14963785
19	0xbccde871	-0.02513525
20	0xbe240857	-0.16018806
21	0xbdf0083b	-0.1172032
22	0x3cf0b8b0	0.02938494
23	0x3dfa24c2	0.12214042
24	0xbe5dd800	-0.21664429
25	0xbead18bc	-0.33807933
26	0xbdd51372	-0.104040995
27	0xbdfc3835	-0.12315408
28	0xbc2663fc	-0.010155674
29	0xbd910a47	-0.070820384
30	0xbea6c5b2	-0.32572705
31	0xbd3d02cb	-0.04614524
32	0xbd09e43a	-0.03366492
33	0xbdb2f363	-0.087378286
34	0xbe609d8e	-0.21935102
35	0xbd878f82	-0.06619169
36	0xbc92280e	-0.017841365
37	0xbe8c15c1	-0.27360347
38	0xbe3eb684	-0.18624312
39	0xbe4da5cd	-0.20082779
40	0xbdffbd61	-0.12487293
41	0xbe74aa20	-0.23893023
42	0x3cc9b855	0.02462403
43	0xbe123fea	-0.14282194
44	0x3c2047bb	0.009782727
45	0xbe280d40	-0.16411304
46	0xbe8cd9f7	-0.27510044
47	0xbe067bef	-0.13133214
48	0xbea3b354	-0.31972754
49	0xbe627dea	-0.22118345
50	0xbd0d6114	-0.03451641
51	0xbd80e421	-0.06293512
52	0xbe828e2f	-0.25499102
53	0xbe6f7058	-0.233827
54	0xbe24638a	-0.16053596
55	0xbda36b51	-0.07979453
56	0xbe6df526	-0.23238048
57	0xbe63a71c	-0.22231716
58	0xbd0a6948	-0.03379181
59	0xbdae5480	-0.08512211
60	0xbe96c54c	-0.294474
61	0xbdfe4a0a	-0.124164656
62	0xbe19f900	-0.15036392
63	0xbe7a5273	-0.24445514
64	0xbeb0ff2b	-0.34569678
65	0xbdddf816	-0.10838334
66	0xbe85ec82	-0.26157004
67	0xbdf73665	-0.12070922
68	0xbe4c5689	-0.19954886
69	0xbdc88891	-0.09791673
70	0xbe5341bd	-0.20630546
71	0xbe145936	-0.14487156
72	0xbd353e2c	-0.044248745
73	0xbe835aff	-0.25655362
74	0xbe527086	-0.20550737
75	0xbc4057e9	-0.011739709
76	0xbd9578eb	-0.07298454
77	0xbe091645	-0.13387401
78	0xbe9518d7	-0.29120514
79	0xbe1404a7	-0.144549
80	0xbe3d9fad	-0.18517943
81	0xbe0a7b3d	-0.13523574
82	0xbe4259a5	-0.18979509
83	0xbdf7a655	-0.12092272
84	0xbdc2b7fc	-0.095077485
85	0xbd8ab4d7	-0.06772774
86	0xbe5988c8	-0.21243584
87	0xbde60fe9	-0.11233503
88	0xbe57452a	-0.21022478
89	0xbe6ca892	-0.2311118
90	0xbe1378a3	-0.14401488
91	0xbc82637f	-0.015916584
92	0xbdc1fbd0	-0.094718575
93	0xbe8954bd	-0.26822463
94	0xbda3ff96	-0.080077335
95	0xbda393f6	-0.07987206
96	0xbdddc099	-0.10827751
97	0xbe5a13aa	-0.21296564
98	0xbdfdfe9f	-0.12402081
99	0xbe91a496	-0.28445882
100	0xbde3dc5f	-0.11126017
101	0xbdd4aa1b	-0.103840075
102	0xbd07630b	-0.03305344
103	0xbd35cd02	-0.044384964
104	0xbe7e32b9	-0.24824037
105	0x3d5f42d2	0.054507084
106	0xbdd4fdeb	-0.103999935
107	0xbdfb9ce1	-0.12285782
108	0xbe4e7525	-0.20161875
109	0xbe48b89b	-0.19601671
110	0xbdebeaa3	-0.11519363
111	0xbe80a69a	-0.25127107
112	0xbdee697a	-0.11641212
113	0xbe03caf5	-0.1287039
114	0xbd359700	-0.044333458
115	0xbe91f32e	-0.28505844
116	0xbe00391b	-0.12521784
117	0xbe901bf5	-0.2814633
118	0xbdb0181e	-0.0859835
119	0x3dabcea1	0.08389021
120	0xbc93cf2e	-0.018043127
121	0xbe809a47	-0.25117704
122	0xbdff4f51	-0.124663
123	0xbdec7a30	-0.11546743
124	0xbea69255	-0.32533517
125	0x3c9e7c66	0.019346427
126	0xbd86f961	-0.06590534
127	0xbd0616d1	-0.032736603

encoder.3.weight f4 [64, 128]
0	0xbcf55845	-0.029949317
1	0x3d4dbd7b	0.05022953
2	0xbd764757	-0.06012663
3	0x3cc54056	0.02407853
4	0xbde9a9cd	-0.1140934
5	0x3d758cec	0.059948847
6	0xbc4d7bf1	-0.012541757
7	0x3daf886b	0.085709415
8	0xbc29d723	-0.010366234
9	0x3dd04847	0.10170036
10	0x3d2b4dc5	0.041822214
11	0xbcf67a94	-0.030087747
12	0xbd20b540	-0.039235353
13	0x3ce289e5	0.027653644
14	0xbe063830	-0.13107371
15	0x3d8bed36	0.06832354
16	0x3e0f381b	0.13986246
17	0x3d3bdad9	0.045863006
18	0xbc9b18bf	-0.018932698
19	0xbd28821e	-0.041139714
20	0x3df43fa2	0.119261995
21	0xbcfe6a04	-0.031056412
22	0xbe044dc8	-0.12920296
23	0x3db8eac8	0.09029156
24	0xbd52cf05	-0.05146696
25	0xbd0f6f31	-0.03501815
26	0x3d91c73e	0.071180806
27	0xbe275e44	-0.16344553
28	0x3b071ee9	0.002061779
29	0xbd6690ef	-0.056290563
30	0x3e01971f	0.12655304
31	0xbe7bbf04	-0.24584585
32	0xbd668a20	-0.05628407
33	0xbd04ea71	-0.032450143
34	0x3dfb542f	0.12271916
35	0x3c05fd6e	0.008178098
36	0xbd57b5c5	-0.052663583
37	0x3c82a617	0.015948338
38	0xbd622edc	-0.05522047
39	0xbcaa3100	-0.020775318
40	0xbd26ecc3	-0.040753137
41	0x3e29740d	0.16548176
42	0x3d448830	0.04798144
43	0x3c912488	0.017717615
44	0xbd788fcf	-0.06068402
45	0x3dc14521	0.094370134
46	0x3d6510a6	0.05592408
47	0xbdd0e44d	-0.10199795
48	0x3d2e5937	0.04256555
49	0xbd2bc0b5	-0.041931827
50	0x3dd63396	0.10459058
51	0xbdfd6376	-0.12372486
52	0x3de0ab07	0.10970121
53	0x3d8e1845	0.06938223
54	0x3c4f2a99	0.012644433
55	0x3bc0d513	0.0058847754
56	0x3ba057ee	0.0048932945
57	0x3dafd8e5	0.08586291
58	0xbd44081f	-0.047859307
59	0xbd8276f4	-0.06370345
60	0x3dc86d7e	0.09786509
61	0xbc933d5e	-0.017973598
62	0xbbae0b1c	-0.005311383
63	0xbdd5caca	-0.104390696
64	0x3dbd1b6c	0.09233746
65	0xbd240e06	-0.040052436
66	0xbce7c2dd	-0.02829116
67	0x3dac80a7	0.08422976
68	0xbdbdf701	-0.09275628
69	0x3d3bb4d6	0.045826755
70	0x3d704507	0.05865958
71	0x3d6a2a7f	0.057169434
72	0xbc595abf	-0.013266264
73	0x3d38e0a0	0.045136094
74	0xbdfd7d8c	-0.12377462
75	0x3d8388c4	0.0642257
76	0x3da65b30	0.081228614
77	0x3ce43929	0.027859287
78	0x3dbf8873	0.093521975
79	0x3d69d738	0.057090014
80	0x3cd161b4	0.025559284
81	0x3d7b2d2f	0.061322387
82	0xbcacf5c5	-0.021113286
83	0x3d0ebb40	0.034846544
84	0x3dd618e6	0.10453968
85	0x3deae8f6	0.11470215
86	0x3c8cc3a9	0.017183142
87	0xbd1d83a4	-0.03845562
88	0x3dc6c199	0.097048946
89	0xbd15497c	-0.036447033
90	0xbcebe493	-0.028795516
91	0xbdb4455c	-0.08802292
92	0x3db4a845	0.08821157
93	0x3dc62309	0.09674651
94	0x3d25dfe0	0.040496707
95	0xbe0bf4be	-0.1366758
96	0xbd4a4458	-0.049381584
97	0x3d42ab4e	0.04752665
98	0x3d98d4dd	0.074624754
99	0xbcf13c24	-0.029447623
100	0xbd01bafe	-0.03167247
101	0xbb61fc96	-0.0034482828
102	0xbbbd59b0	-0.005778514
103	0x3d0e7cf0	0.03478712
104	0x3d93feca	0.072263315
105	0x3b0c708d	0.002142939
106	0x3dd51af8	0.104055345
107	0x3d9b7fbb	0.07592722
108	0x3dd360cf	0.10321199
109	0x3cfea07b	0.031082382
110	0xbd45e796	-0.04831656
111	0x3cfb948a	0.030710477
112	0xbcfb1bbe	-0.030652877
113	0x3d79264d	0.060827542
114	0xbd92d49e	-0.0716946
115	0x3cb483a9	0.022035437
116	0x3d0cd776	0.034385167
117	0x3a9c41a1	0.0011921414
118	0xbc2f00f4	-0.01068138
119	0xbdd69ede	-0.1047952
120	0x3d118e4b	0.03553609
121	0xbcee094f	-0.029057173
122	0xbe044660	-0.12917471
123	0x3dd3bfa8	0.1033929
124	0x3d9e1ba1	0.077201135
125	0xbdd9ffdd	-0.10644505
126	0xbd940e2a	-0.07229264
127	0xbd84dd9d	-0.06487582
128	0xbd9f7ed6	-0.07787864
129	0xbd16539b	-0.036700826
130	0xbd9d6ac7	-0.07686382
131	0xb8c6914e	-9.468441e-05
132	0x3d01ad7c	0.03165959
133	0x3ca61e55	0.020278135
134	0x3d7be5db	0.061498504
135	0x3dbe5bad	0.092948295
136	0x3dc7e08a	0.09759624
137	0xbe2475b5	-0.16060527
138	0xbdce8dad	-0.10085616
139	0xbda62f0c	-0.08114442
140	0x3dd303e1	0.10303474
141	0xbc9439a0	-0.018093884
142	0x3ce5de3f	0.028060077
143	0xbe89067e	-0.26762766
144	0x3d823cb4	0.063592345
145	0xbe2c4e4d	-0.16826744
146	0xbd43c410	-0.0477944
147	0x3db113f5	0.086463846
148	0x3da135f5	0.078716196
149	0xbc151c6a	-0.009101013
150	0xbcdd3a6b	-0.027005395
151	0xbd83829c	-0.06421396
152	0xb9cfb7d7	-0.00039619088
153	0x3c35269f	0.011056571
154	0xbdb3b2e5	-0.08774356
155	0x3ccafc88	0.02477862
156	0xbdbc053e	-0.09180687
157	0xbccd6d6f	-0.025076596
158	0xbd83ca60	-0.06435084
159	0x3d94a89c	0.07258722
160	0x3da67ef9	0.08129687
161	0xbd481fb3	-0.048858356
162	0xbdec2459	-0.1153037
163	0x3c6d7102	0.014492275
164	0xbe72d910	-0.23715615
165	0xbc779f33	-0.01511364
166	0x3d88aa79	0.0667314
167	0xbc781206	-0.015141016
168	0xbe17f891	-0.14840914
169	0x3bcbd235	0.006220127
170	0xbe092ddd	-0.13396402
171	0xbd765b0c	-0.060145423
172	0xbcd05175	-0.025429467
173	0xbc3c9ea5	-0.011512433
174	0xbd6457ab	-0.05574767
175	0x3c3de6d2	0.011590676
176	0x3d802882	0.06257726
177	0xbc5582a6	-0.013031637
178	0xbdb969ac	-0.090533584
179	0x3cc9bd8f	0.024626521
180	0x3cc0bdca	0.023527998
181	0x3c3afe77	0.011413208
182	0x3cd37514	0.025812663
183	0xbdb03740	-0.08604288
184	0xbacfbe4a	-0.0015849557
185	0xbda480a7	-0.08032351
186	0x3d3c71e2	0.046007045
187	0x3a9f7f9e	0.001216877
188	0x3d65898f	0.05603939
189	0xbcddbeb6	-0.027068477
190	0x3d80ab7a	0.062827066
191	0x3dd27a0d	0.102771856
192	0x3d5052e8	0.050860316
193	0xbe9d42b6	-0.3071496
194	0x3db47c90	0.08812821
195	0x3d3d3cae	0.046200447
196	0x3df49221	0.119419344
197	0xbd9e6108	-0.07733351
198	0x3d8ef0c4	0.06979516
199	0x3dbdb945	0.09263853
200	0xbc477523	-0.012173924
201	0xbe69bd06	-0.22826013
202	0xbd1b8599	-0.037969206
203	0x3d6d8159	0.057984684
204	0xbdc21092	-0.09475817
205	0xbd4b484c	-0.049629495
206	0x3be9ea68	0.007138539
207	0x3c9ff4fc	0.019525997
208	0xbbe37bfb	-0.00694227
209	0xbe129909	-0.14316191
210	0xbde8e7b5	-0.113723196
211	0xbd66c67e	-0.05634164
212	0xbcf621f5	-0.030045489
213	0xbd031a12	-0.032007284
214	0xbcbb2aab	-0.022847494
215	0xbd110210	-0.035402358
216	0xbd28a1a8	-0.041169792
217	0x3c9de906	0.019276153
218	0xbd4612e8	-0.048357874
219	0xbc70d06d	-0.01469813
220	0xbe486005	-0.19567879
221	0x3d352722	0.044226773
222	0x3d32720f	0.043565806
223	0x3dbd4eb4	0.09243527
224	0xbce149e3	-0.027501052
225	0xbd8e0312	-0.06934179
226	0x3d577620	0.052602887
227	0x3c0ad038	0.008472495
228	0x3cd03cd7	0.025419636
229	0xbe616702	-0.2201195
230	0xbe43aa30	-0.1910789
231	0x3d56f1e8	0.052476794
232	0xbc938e1f	-0.018012105
233	0xbdc91513	-0.09818473
234	0xbd3e5a0f	-0.046472605
235	0xbd0a1183	-0.033708107
236	0x3ca247aa	0.019809563
237	0x3d781aa2	0.060572274
238	0x3c9d228b	0.01918151
239	0x3d8a52d9	0.06754083
240	0xbd4e2f60	-0.05033815
241	0xbbd6a551	-0.006550469
242	0x3daab809	0.08335883
243	0xbe5eac75	-0.21745475
244	0x3d64009d	0.055664647
245	0xbda3770e	-0.07981692
246	0xbe0ae7a3	-0.13564925
247	0xba11f586	-0.0005567897
248	0xbd8c27eb	-0.06843551
249	0xbdf7f66e	-0.121075496
250	0x3d1d6d9e	0.038434617
251	0x3c9847d8	0.018588945
252	0xbcc005e7	-0.023440314
253	0x3d7d5487	0.06184819
254	0xbd28ef28	-0.041243702
255	0x3d840566	0.06446342

encoder.3.bias f4 [64]
0	0xbd09cb27	-0.033641007
1	0xbd6e57a8	-0.058189064
2	0xbe5da108	-0.2164346
3	0xbde9aa2b	-0.1140941
4	0xbe174913	-0.1477397
5	0xbe06e077	-0.13171564
6	0xbdac6728	-0.08418113
7	0x3ce51fa4	0.027969189
8	0xbc61cacd	-0.013781262
9	0xbe8d5aa9	-0.2760823
10	0xbdef0c3f	-0.11672258
11	0xbe1f1b62	-0.1553779
12	0x3d39315c	0.04521309
13	0xbd1809b0	-0.037118614
14	0xbe16870b	-0.14699952
15	0xbdb6fbcf	-0.089347474
16	0xbb586f84	-0.0033025453
17	0x3bcaed42	0.006192834
18	0xbd70554f	-0.058675107
19	0xbabca94d	-0.0014393717
20	0xbe300262	-0.17188409
21	0xbd9b450e	-0.075815305
22	0xbda2a37d	-0.07941339
23	0xbe600616	-0.21877322
24	0xbd811068	-0.06301957
25	0xbe420f2b	-0.18951099
26	0xbe2aa975	-0.16666205
27	0xbeb8774a	-0.3602851
28	0xbe209dd8	-0.15685213
29	0x3ce692e7	0.02814622
30	0xbe0c07bd	-0.13674827
31	0xbe185c16	-0.14878878
32	0xbdcdf145	-0.10055784
33	0xbdab02b9	-0.08350129
34	0xbe5a5b69	-0.21323933
35	0xbb4c8726	-0.0031208484
36	0xbe03f8e0	-0.12887907
37	0xbc2399f6	-0.009985438
38	0x3d8efb60	0.0698154
39	0xbe725bb1	-0.2366779
40	0xbe227f65	-0.1586891
41	0xbdf095c5	-0.11747316
42	0xbe420975	-0.1894892
43	0xbdadc48e	-0.084847555
44	0xbe150f03	-0.14556508
45	0xbe156d2f	-0.14592431
46	0xbe7ab413	-0.24482755
47	0x3c755dcd	0.014975977
48	0xbdb5f2dc	-0.088842124
49	0xbcb197f5	-0.021678904
50	0xbe3130ce	-0.17303774
51	0xbe98e15e	-0.29859442
52	0xbe4c18d1	-0.19931342
53	0xbd7854f1	-0.06062788
54	0xbe16af1f	-0.14715241
55	0xbdeac7ff	-0.114639275
56	0xbdf1d672	-0.1180848
57	0xbd500679	-0.050787423
58	0x3a9e74b0	0.0012089219
59	0xbdf6aa6c	-0.12044224
60	0xbd922948	-0.0713678
61	0xbe11f393	-0.14253072
62	0xbe189dd8	-0.14903963
63	0xbdd5403a	-0.10412641

encoder.6.weight f4 [32, 64]
0	0xbdff60f0	-0.12469661
1	0xbd8e13f0	-0.069373965
2	0x3c8d261c	0.017230086
3	0xbce1d4ca	-0.027567286
4	0xbd2934e0	-0.04131019
5	0xbda79540	-0.08182764
6	0xbe867ae5	-0.26265636
7	0x3d5b7df0	0.0535869
8	0x3cc75f7d	0.024337525
9	0xbdd21490	-0.10257828
10	0x3db70e8e	0.08938323
11	0x3ce5df01	0.028060438
12	0x3d864c10	0.065574765
13	0xbd52ceba	-0.05146668
14	0x3da86d03	0.08223917
15	0x3dbdc488	0.09266001
16	0x3e12725c	0.14301437
17	0x3d98f95f	0.07469439
18	0x3dd72f87	0.10507112
19	0x3d041f5b	0.032256465
20	0x3c815578	0.015787825
21	0xbc4af49e	-0.012387423
22	0x3e05b77c	0.13058275
23	0xbe56153a	-0.20906535
24	0x3d3f97c1	0.046775583
25	0xbe75c1f0	-0.23999763
26	0xbd983974	-0.07432833
27	0x3d317982	0.04332877
28	0xbe158d52	-0.1460469
29	0xbda55853	-0.08073487
30	0x3dd20c10	0.10256207
31	0xbdcc91bf	-0.09988736
32	0xbe9106de	-0.28325552
33	0x3dab91bc	0.08377406
34	0x3d81674e	0.06318532
35	0xbd8b352d	-0.06797252
36	0x3d0e23d8	0.034702152
37	0xbdaf9742	-0.08573772
38	0x3cff1b5e	0.03114098
39	0xbe2b7c6e	-0.16746685
40	0xbd0dc2b4	-0.03460951
41	0xbe6b73b5	-0.22993357
42	0x3cd15f0f	0.025558023
43	0x3ca6f971	0.020382615
44	0xbd900977	-0.07033055
45	0xbda61b46	-0.08110671
46	0xbcee7db2	-0.02911267
47	0xbe180dd9	-0.14849032
48	0x3e01772e	0.1264312
49	0xbc06f5e3	-0.008237335
50	0xbcc49de1	-0.024001064
51	0x3c32d2cf	0.0109145185
52	0xbde0fa1e	-0.10985206
53	0x3df4e63d	0.11957977
54	0xbd865293	-0.065587185
55	0x3d16594c	0.036706254
56	0x3d84acda	0.06478281
57	0x3db015d6	0.08597915
58	0xbc38b239	-0.01127296
59	0x3de0819f	0.10962223
60	0xbdbd7e0f	-0.092525594
61	0x3e008e3e	0.12554261
62	0x3dbf0a03	0.093280815
63	0x3d88b612	0.06675352
64	0x3d4d505e	0.050125472
65	0x3acec624	0.0015775603
66	0xbb992aa4	-0.0046742726
67	0x3c93a742	0.01802409
68	0xbdbb5854	-0.09147707
69	0x3d5be10e	0.053681426
70	0x3d9492b0	0.07254541
71	0xbe1e619d	-0.15466924
72	0x3b80f65b	0.003935618
73	0x3db0e888	0.08638102
74	0xbd90917a	-0.070589975
75	0xbc89d8e9	-0.016827064
76	0xbe2be3d7	-0.16786133
77	0x3e103aca	0.14084926
78	0x3dcc6e34	0.09981957
79	0xbd6a292e	-0.05716818
80	0xbdec5a9e	-0.11540721
81	0xbda60d8d	-0.08108053
82	0x3d300937	0.042977538
83	0x3c825e72	0.015914176
84	0xbcf19c6c	-0.029493533
85	0xbe3f1509	-0.18660368
86	0xbdfe3202	-0.12411882
87	0x3e21159e	0.15730903
88	0x3dcd46e9	0.10023291
89	0x3d6ac064	0.057312384
90	0xbe0ee806	-0.13955697
91	0xbdf2ac88	-0.11849314
92	0x3d0e19e9	0.03469268
93	0xbe185ab0	-0.14878345
94	0xbd48e9b0	-0.049050987
95	0xbd657995	-0.056024153
96	0xbc66caf7	-0.0140864765
97	0xbd601f3a	-0.05471728
98	0xbd999258	-0.07498616
99	0xbe12ba71	-0.14328934
100	0x3ce5f3d7	0.028070373
101	0xbc641c63	-0.013922784
102	0x3d9ec1b2	0.07751788
103	0xbe24c797	-0.16091762
104	0x3dce1b04	0.100637466
105	0x398f996e	0.000273894
106	0x3d1e98ec	0.038720056
107	0x3cddf174	0.027092673
108	0x3d2bd40a	0.041950263
109	0xbd521ea3	-0.05129875
110	0x3dcaa7b2	0.098952666
111	0xbd0dab8b	-0.034587424
112	0xbdfaa20d	-0.1223794
113	0xbe1ba38b	-0.15199105
114	0xbbefc9b7	-0.0073177475
115	0xbd5e8ef4	-0.05433555
116	0x3dafda1e	0.085865244
117	0x3c5c6a97	0.013453147
118	0xbb49d19b	-0.00307951
119	0x3dc9f08a	0.09860332
120	0xbced4f8b	-0.028968593
121	0xbcf0d595	-0.029398719
122	0x3d80230e	0.06256686
123	0x3dea3c62	0.11437298
124	0xbdd8a455	-0.10578219
125	0xbcc9e3b8	-0.024644718
126	0xbdc66962	-0.09688069
127	0xbd582d68	-0.052777678
128	0xbd8642dd	-0.06555722
129	0x3ad9dd39	0.0016621716
130	0x3c6072c2	0.013699235
131	0x3dbe2c10	0.09285748
132	0x3d98a231	0.074528106
133	0x3da823c6	0.08209948
134	0x3d9d7ad1	0.07689441
135	0x3be08220	0.0068514496
136	0x3d9fba33	0.077991866
137	0xbe2b1232	-0.1670616
138	0x3db7a1c0	0.08966398
139	0x3cc25ad6	0.023724955
140	0xbd8765ff	-0.06611251
141	0xbc25de7d	-0.010123846
142	0x3deabf50	0.11462271
143	0x3cd13a97	0.025540633
144	0xbc5b151a	-0.01337173
145	0xbe1cbf93	-0.15307455
146	0xbdb29cf4	-0.08721343
147	0xbd049ede	-0.03237807
148	0xbdee548f	-0.11637222
149	0x3da37f64	0.07983282
150	0x3dc57e4c	0.0964323
151	0x3dd87239	0.10568661
152	0xbc36868c	-0.011140477
153	0x3de2eb0a	0.110799864
154	0xbe25f513	-0.1620677
155	0xbe5ba191	-0.21448351
156	0xbca0c5c0	-0.019625545
157	0x3cfe00b0	0.031006187
158	0x3ddf6881	0.109086044
159	0xbdea1344	-0.11429456
160	0x3ca09862	0.019603912
161	0xbd83a436	-0.06427805
162	0xbeae095f	-0.33991525
163	0xbd8d121c	-0.0688822
164	0xbdb130ea	-0.08651908
165	0x3d83d0d2	0.06436314
166	0xbd551e43	-0.052030813
167	0xbe3e925d	-0.1861052
168	0x3ddbaad6	0.10725944
169	0x3ddac17b	0.10681435
170	0x3de788a2	0.113053575
171	0x3dc1a571	0.094553836
172	0x3d25b457	0.04045519
173	0x3d3a89b6	0.045541488
174	0x3e13d5d1	0.14437033
175	0x3d69c861	0.05707586
176	0x3d1b231b	0.037875276
177	0xbdb04e4e	-0.086086854
178	0xbd889b83	-0.066702865
179	0x3d743489	0.059620414
180	0xbcd041b2	-0.025421951
181	0x3d8339fc	0.06407544
182	0xbd9004ba	-0.070321515
183	0xbd3a4811	-0.045478884
184	0xbd870c71	-0.0659417
185	0x3d840ee6	0.06448154
186	0xbd574526	-0.05255618
187	0x3c99687d	0.018726582
188	0x3d42550a	0.04744438
189	0xbcc45cdc	-0.02397006
190	0x3de27b73	0.11058702
191	0x3db0b708	0.086286604
192	0xbda656a7	-0.081219964
193	0xbdfc06a1	-0.12305952
194	0xbcf6a412	-0.030107532
195	0x3d490b6f	0.04908317
196	0x3d4b9c04	0.049709335
197	0x3d4a9019	0.04945383
198	0x3ddf3a04	0.108997375
199	0xbcaf6d55	-0.021414438
200	0xbddcd751	-0.10783256
201	0xbe066b74	-0.13126928
202	0x3d92f337	0.07175296
203	0x3cbfccdc	0.023413114
204	0xbd83bae3	-0.0643213
205	0xbd451ad3	-0.048121285
206	0xbd6f01f1	-0.05835146
207	0x3e0b2779	0.13589276
208	0x3c889154	0.01667086
209	0xbe554004	-0.20825201
210	0xbd9e722a	-0.07736619
211	0x3cff205f	0.031143365
212	0xbcb4235f	-0.021989523
213	0xbd214ce4	-0.03937997
214	0xbc5ff05b	-0.013668145
215	0xbd961386	-0.073279426
216	0x3d38b6ce	0.04509621
217	0xbd2d28ba	-0.042275168
218	0xbda19f71	-0.07891739
219	0xbe21249e	-0.15736625
220	0x3dded00c	0.108795255
221	0x3cdb0109	0.026733892
222	0x3add5c55	0.0016888479
223	0xbe1a5fbc	-0.15075582
224	0xbd77c117	-0.06048688
225	0x3c351c1b	0.011054064
226	0xbe3bddab	-0.18346278
227	0xbd8c2278	-0.06842512
228	0x3cc6327f	0.024194
229	0xba474cbf	-0.00076026836
230	0xbda8287c	-0.08210847
231	0xbdeb0f03	-0.11477473
232	0x3de0dc21	0.10979486
233	0x3dc0d482	0.09415533
234	0x3dd3340d	0.10312662
235	0x3d93d1fc	0.07217786
236	0x3de1bf62	0.110228315
237	0x3d8b2e84	0.067959815
238	0xbd971ba4	-0.07378319
239	0x3dc2176a	0.09477122
240	0xbdbfcc93	-0.09365191
241	0x3d7ff47a	0.06248901
242	0xbc71590a	-0.014730701
243	0x3de744b6	0.112924024
244	0x3c68ecdd	0.014216629
245	0x3d5f1727	0.05446544
246	0x3dc9a704	0.09846309
247	0x3dd6617d	0.10467813
248	0x3dc83b60	0.0977695
249	0x3d93e7ae	0.07221924
250	0xbda4ac54	-0.080406815
251	0x3dde28b6	0.10847609
252	0xbcf3be47	-0.029753817
253	0x3e0584f6	0.13039002
254	0xbc2982db	-0.01034614
255	0x3c9aac5d	0.018881017

encoder.6.bias f4 [32]
0	0xbdd049ac	-0.10170302
1	0x3cbd21c6	0.023087393
2	0x3df68649	0.120373316
3	0xbdfb8d73	-0.12282839
4	0x3d2782f3	0.040896367
5	0x3d191d7c	0.037381634
6	0x3d9c6284	0.07635978
7	0x3d4023c9	0.046909127
8	0xbdd9348d	-0.106057264
9	0xbe2b4c25	-0.16728266
10	0x3dc246ef	0.09486186
11	0x3d474dc5	0.04865815
12	0xbd924b3a	-0.071432546
13	0xbe0b00ab	-0.13574474
14	0xbe27fdd3	-0.1640542
15	0x3b9c8fe0	0.0047778934
16	0x3d6b7015	0.057479937
17	0xbcd1bd40	-0.025602937
18	0xbde22328	-0.11041862
19	0xbd9b42bb	-0.07581087
20	0xbc829a18	-0.015942618
21	0x3c327e02	0.0108943
22	0x3d8d8f6c	0.06912121
23	0xbe05e075	-0.13073905
24	0xbdb01195	-0.085971035
25	0xbbd59181	-0.0065175896
26	0xbe256eda	-0.16155568
27	0xbd477ea6	-0.048704766
28	0xbe13da5e	-0.14438769
29	0xbdde9568	-0.10868341
30	0xbe85b338	-0.26113296
31	0x3d6c5cf1	0.057705823

encoder.9.weight f4 [5, 32]
0	0xbdbeb4bb	-0.09311815
1	0x3dcb175e	0.09916566
2	0x3cfe1a95	0.031018535
3	0x3e0953b4	0.13410836
4	0xbcd91eaf	-0.026503889
5	0x3e4bffea	0.19921842
6	0x3e1a9e4f	0.15099452
7	0xbe628ce1	-0.22124054
8	0x3d0beef1	0.03416342
9	0xbba0113e	-0.004884868
10	0xbd9ed57e	-0.07755564
11	0x3e1ccfed	0.15313692
12	0xbe2c884f	-0.16848873
13	0xbd7829a5	-0.06058659
14	0xbe85b271	-0.26112702
15	0x3d175642	0.036947496
16	0x3c9235fe	0.017848011
17	0xbdb65585	-0.0890303
18	0xbdadf8ef	-0.08494746
19	0xbdd2fdf7	-0.10302346
20	0xbd82ccd9	-0.06386728
21	0xbddbcf9c	-0.10732958
22	0x3dc5aeec	0.09652504
23	0x3e395b41	0.18101217
24	0x3e0aba2a	0.13547578
25	0xbd1023e1	-0.035190467
26	0xbdb94f1a	-0.090482906
27	0x3dffb665	0.12485961
28	0x3df72f07	0.12069517
29	0xbe1164ef	-0.1419866
30	0xbd37e167	-0.044892695
31	0x3e303688	0.17208302
32	0xbe3bb1b6	-0.1832951
33	0xbc64ed88	-0.0139726475
34	0xbe25cd90	-0.16191697
35	0xbd6b683e	-0.05747246
36	0x3d42bda4	0.047544137
37	0x3ca738a7	0.020412756
38	0xbabd993a	-0.0014465221
39	0xbd3a48cf	-0.045479592
40	0xbd989040	-0.074493885
41	0x3de91faf	0.11382996
42	0xbe0b1741	-0.1358309
43	0xbd81e6f9	-0.06342883
44	0x3d32a484	0.043613926
45	0x3e0e87e7	0.1391903
46	0xbd113eca	-0.03546027
47	0xbdf2ae7e	-0.11849688
48	0xbdc1d660	-0.09464717
49	0x3d00d965	0.031457324
50	0xbe2a7fab	-0.16650264
51	0xbe1ce1bb	-0.15320484
52	0x3da6fa35	0.08153192
53	0xbda86464	-0.08222273
54	0xbd8801f7	-0.06641
55	0x3d39f31e	0.04539787
56	0xbd252858	-0.040321678
57	0xbe22b156	-0.15887961
58	0x3d06d89c	0.03292142
59	0x3e16d884	0.14731032
60	0x3e3a955b	0.18221037
61	0xbc936cfc	-0.017996304
62	0x3de84831	0.113418944
63	0xbcc0b964	-0.023525901
64	0x3a320601	0.0006791056
65	0x3dbb2887	0.09138589
66	0x3c802517	0.015642686
67	0xbc5db873	-0.013532746
68	0x3c77798f	0.015104665
69	0x3e0a904a	0.13531604
70	0xbe589cad	-0.21153517
71	0xbe100338	-0.14063728
72	0x3d38aa42	0.045084246
73	0xbc884b44	-0.016637452
74	0x3d6edbe6	0.05831518
75	0x3df9fa5e	0.12205957
76	0x3d13302f	0.035934623
77	0xbcc8ce6c	-0.024512492
78	0x3e270db4	0.16313821
79	0x3dbadd38	0.091242254
80	0x3cf4cc11	0.029882463
81	0x3e10683a	0.1410226
82	0xbd437941	-0.04772306
83	0x3d479ee7	0.048735525
84	0x3e2dfe3e	0.16991517
85	0x3d40587c	0.046959385
86	0x3e1896b3	0.14901237
87	0xbb59faae	-0.003326099
88	0x3d768cc2	0.06019283
89	0x3c8525bb	0.016253343
90	0x3dba2c72	0.090905085
91	0xbd93bd45	-0.07213835
92	0x3d2cee4f	0.042219456
93	0x3e587613	0.21138792
94	0xbd49a884	-0.049232975
95	0xbcf82950	-0.030293137
96	0xbe4591a9	-0.19293846
97	0x3e01f0cf	0.12689517
98	0x3ca9d59a	0.020731736
99	0x3d56b7bd	0.05242132
100	0xbe0a86b6	-0.1352795
101	0x3e2591f6	0.16168961
102	0x3dcc2fa1	0.09970022
103	0xbdf07477	-0.11740964
104	0xbd9d4310	-0.07678807
105	0xbda285f4	-0.07935706
106	0xbdf6ee65	-0.12057189
107	0xbcebcdbf	-0.02878463
108	0x3da352b7	0.07974761
109	0xbe0ca43f	-0.1373453
110	0x3e161fb3	0.1466053
111	0xbd7f66c6	-0.06235387
112	0xbe4ac29a	-0.19800797
113	0xbd432337	-0.047641005
114	0xbe1fda25	-0.1561056
115	0xbe1047e9	-0.14089932
116	0x3e06eb94	0.13175803
117	0xbe241eb4	-0.16027337
118	0x3dee26fb	0.11628529
119	0x3d6cd1c9	0.057817254
120	0xbc9cad23	-0.019125527
121	0x3e24bdc4	0.16088015
122	0x3da689f9	0.08131785
123	0x3db5b8ad	0.08873115
124	0x3ccc3de0	0.024931848
125	0x3ab89bd5	0.0014084528
126	0xbe02c823	-0.12771659
127	0x3dabf44c	0.08396205
128	0xbd577fc7	-0.052612092
129	0xbdad0fd1	-0.08450282
130	0xbe4c248b	-0.19935815
131	0xbe27cb40	-0.16386127
132	0x3e17b84a	0.14816394
133	0x3d56ae8a	0.052412547
134	0xbc009d1f	-0.007849961
135	0xbd8aa183	-0.06769087
136	0x3da503ca	0.08057363
137	0x3e642a2f	0.22281717
138	0x3e1b3c1b	0.15159647
139	0xbdec7c16	-0.11547105
140	0xbdc897fa	-0.09794612
141	0x3e614c38	0.22001731
142	0xbdaebf55	-0.085325874
143	0x3e5045f1	0.2033918
144	0xbd3685a3	-0.04456104
145	0xbda0fe4f	-0.078610055
146	0xbdd8b49d	-0.10581324
147	0x3e11aac3	0.14225297
148	0xbdc4070e	-0.09571658
149	0x3e2677b9	0.16256608
150	0xbe1d8c9c	-0.1538567
151	0xbe09bf04	-0.13451773
152	0xbde2fcbc	-0.110833615
153	0xbdce7bbd	-0.10082195
154	0xbc5df74f	-0.0135477325
155	0xbcb47fc1	-0.022033574
156	0x3b5f8e6c	0.003411199
157	0xbd8be1fb	-0.06830212
158	0x3d89037b	0.06690117
159	0xbdb08015	-0.0861818

encoder.9.bias f4 [5]
0	0x3ca9ac5d	0.020712072
1	0x3e15620c	0.14588183
2	0xbde31d4b	-0.110895716
3	0x3d838f0d	0.06423769
4	0xbd340cd4	-0.043957546

decoder.0.weight f4 [32, 5]
0	0xbe65d2d9	-0.22443713
1	0x3dc23bac	0.09484038
2	0x3e8248d4	0.25446188
3	0xbd26b78e	-0.040702395
4	0xbed99851	-0.4249902
5	0x3edd1524	0.43180192
6	0xbe2a8e24	-0.16655785
7	0x3e097453	0.1342328
8	0xbdba7e04	-0.09106067
9	0x3eb35aca	0.35030204
10	0x3eb70487	0.35745642
11	0x3ec5ea19	0.38655165
12	0xbdd6579f	-0.10465931
13	0x3e310658	0.17287576
14	0xbec84c0d	-0.39120522
15	0x3d80f220	0.06296182
16	0x3eb7c781	0.35894397
17	0x3e90d1c4	0.28285038
18	0xbec446c5	-0.38335243
19	0x3ec2bcfb	0.38034806
20	0x3d2dc139	0.0424206
21	0x3e98cf9e	0.298459
22	0x3d9b1f9f	0.075743906
23	0x3e5aae0e	0.21355459
24	0xbee72f08	-0.4515307
25	0xbb47b98c	-0.0030475585
26	0x3e8bb309	0.2728503
27	0x3ed0671e	0.40703672
28	0xbeac05d5	-0.335982
29	0x3b3c2bbf	0.0028712598
30	0x3e7c9ee1	0.24669982
31	0x3eb539f3	0.35395774
32	0x3e42149c	0.18953174
33	0x3edca0b0	0.43091345
34	0xbe1d3e68	-0.15355837
35	0x3e45821b	0.19287913
36	0x3d2afb5b	0.041743618
37	0xbd65e7c2	-0.056129225
38	0xbeb5d62b	-0.3551496
39	0x3d2cfebd	0.042235125
40	0xbee1ea92	-0.44124275
41	0x3eb3b43e	0.3509845
42	0xbe669a91	-0.225199
43	0xbe211f88	-0.15734684
44	0x3e47b10f	0.19501136
45	0x3e961e8d	0.29320183
46	0x3d806b4d	0.06270466
47	0x3b85bafa	0.0040811272
48	0xbe91b25e	-0.28456396
49	0x3c9c5a14	0.019085921
50	0x3e87253c	0.26395595
51	0x3e70f4ca	0.2353088
52	0xbebff500	-0.37491608
53	0x3e8e7fd0	0.27831888
54	0xbeaebbbf	-0.34127614
55	0x3eb10fc5	0.34582344
56	0xbead75cf	-0.33878943
57	0xbe3eca12	-0.18631771
58	0xbe895adc	-0.26827133
59	0x3e34834b	0.1762821
60	0x3d9be749	0.076124735
61	0x3e33fe58	0.17577493
62	0xbe072578	-0.13197887
63	0xbec6e3a8	-0.38845563
64	0x3dd9865a	0.10621329
65	0xbe2c627f	-0.16834448
66	0x3e36e101	0.1785927
67	0x3ed63d24	0.41843522
68	0x3e8146ac	0.2524923
69	0x3ecb020b	0.39649996
70	0xbe7d8d3b	-0.24760906
71	0xbe95c0d1	-0.2924867
72	0xbe869765	-0.2628738
73	0xbebf84ac	-0.37405908
74	0x3e2d5e62	0.16930535
75	0x3ee4fa3a	0.44722158
76	0x3e5730d9	0.21014728
77	0x3ec0ed10	0.37680864
78	0x3ea5d7c8	0.3239119
79	0xbeb3d018	-0.351197
80	0xbdb7f8a0	-0.08982968
81	0x3eb1ad3d	0.34702483
82	0xbe854768	-0.2603104
83	0xbdc82229	-0.097721405
84	0xbed9f2c0	-0.42568016
85	0x3e8267ac	0.2546972
86	0x3e2efed4	0.17089397
87	0xbe217e14	-0.15770751
88	0xbe414157	-0.18872581
89	0x3ec4614c	0.38355482
90	0xbe9361e7	-0.2878563
91	0x3ea7922b	0.32728705
92	0xbf0093f1	-0.5022574
93	0xbddff8fc	-0.10936162
94	0x3e14e780	0.14541435
95	0x3ec8b236	0.39198464
96	0xbeb792ae	-0.35854095
97	0x3d8a02e2	0.06738831
98	0x3ea767cd	0.3269638
99	0x3eb054fd	0.3443984
100	0x3e3c13c5	0.18366916
101	0xbe22382b	-0.15841739
102	0x3e9cedce	0.3065018
103	0x3e809182	0.25111014
104	0x3e9d13c9	0.30679157
105	0x3e85e4dd	0.2615117
106	0x3e244d77	0.16045175
107	0xbd1058ca	-0.035240926
108	0x3e392a8f	0.18082641
109	0xbe4a6feb	-0.19769256
110	0x3e91f166	0.28504485
111	0xbdea5b0a	-0.114431456
112	0xbe74922f	-0.2388389
113	0x3dff39dc	0.12462208
114	0xbcfc2a0d	-0.03078177
115	0x3d9299ac	0.07158217
116	0xbed5a4a7	-0.41727182
117	0xbe792c0b	-0.24333207
118	0xbd60000b	-0.05468754
119	0xbe33a0bf	-0.17541789
120	0xbcf99004	-0.03046418
121	0xbe0d1a2c	-0.13779515
122	0x3c947df3	0.018126464
123	0xbeb75654	-0.3580805
124	0xbebb3b6c	-0.36568773
125	0xbe5f7681	-0.2182255
126	0xbe73cbea	-0.23808256
127	0x3dbddf13	0.09271064
128	0xbe915c72	-0.28390843
129	0x3e26ba2f	0.16281961
130	0x3e2ea755	0.1705602
131	0x3e6368ae	0.22207901
132	0xbf0859db	-0.5326211
133	0xbe59e645	-0.21279247
134	0x3dec9229	0.11551315
135	0xbcf428fa	-0.029804695
136	0xbe6fc968	-0.23416674
137	0xbe8a75e0	-0.27043056
138	0xbd0578a5	-0.03258576
139	0xbe9cffec	-0.30664003
140	0x3ecf84f2	0.40531117
141	0xbd88d0aa	-0.066804245
142	0x3e87c2df	0.26515862
143	0xbe18fba2	-0.1493974
144	0x3e8fa6bd	0.280569
145	0xbec7dc65	-0.39035335
146	0xbe780662	-0.24221185
147	0xbdfb114c	-0.122591585
148	0x3ddd4a5e	0.108052
149	0xbea8e632	-0.32988125
150	0xbed5afcf	-0.41735694
151	0xbe4b2c02	-0.19841006
152	0xbe3209c0	-0.17386532
153	0xbeb9e0ab	-0.3630422
154	0x3ee3b494	0.44473708
155	0x3d4da621	0.05020726
156	0xbeb2ff27	-0.3496029
157	0xbe87c439	-0.26516894
158	0xbe7d2633	-0.24721603
159	0xbc15a25a	-0.009132946

decoder.0.bias f4 [32]
0	0x3ed43aa8	0.41451
1	0xbe8e4a7e	-0.27791208
2	0x3cda86f0	0.026675671
3	0xbe2ed05f	-0.17071675
4	0x3eb612bf	0.35561177
5	0x3e8c9c78	0.27463126
6	0x3df65fe6	0.1203001
7	0xbeabe6f4	-0.3357464
8	0x3ec2b0eb	0.38025603
9	0x3e7570f0	0.23968863
10	0x3e47137f	0.19441031
11	0x3e9fcab8	0.3120935
12	0xbe558a8e	-0.20853636
13	0x3ea4f86e	0.32220787
14	0xbe854b04	-0.26033795
15	0x3ee607de	0.44927877
16	0xbe1675b9	-0.14693345
17	0xbddcaf4d	-0.107756235
18	0x3c592263	0.013252827
19	0xbde3c181	-0.11120892
20	0xbe0ac3fc	-0.13551325
21	0x3e611807	0.21981822
22	0xbb1c4adc	-0.002384833
23	0x3f05a256	0.5220083
24	0xbe2ff5ec	-0.17183656
25	0x3ea0284a	0.31280738
26	0x3d6d05be	0.057866804
27	0xbdb722c6	-0.089421794
28	0x3f08fe82	0.5351335
29	0x3edaa968	0.42707372
30	0x3ea68c9b	0.32529148
31	0x3e7a85f9	0.24465169

decoder.2.weight f4 [64, 32]
0	0x3e155960	0.14584875
1	0x3da3888e	0.0798503
2	0xbe28fabf	-0.16501902
3	0xbdd31c2b	-0.10308107
4	0xbe1bb481	-0.15205576
5	0x3dd0c8b1	0.10194529
6	0x3d0be59a	0.034154512
7	0x3d42dc6f	0.047573503
8	0xbdcc54f6	-0.099771425
9	0x3c350779	0.011049145
10	0x3e2a1330	0.16608882
11	0x3ddf7138	0.10910267
12	0xbe599e72	-0.21251848
13	0xbe1e329b	-0.15448992
14	0xbdde8e78	-0.108670175
15	0x3dc25759	0.094893165
16	0x3ebe0c24	0.37118638
17	0xbd526726	-0.0513679
18	0xbe3b06fa	-0.1826438
19	0x3dce966a	0.10087283
20	0xbe518660	-0.20461416
21	0xbdf31937	-0.11870044
22	0xbde2d752	-0.11076225
23	0x3e28446c	0.16432351
24	0x3e535922	0.2063947
25	0xbdc3bf92	-0.095580235
26	0xbe0d292f	-0.13785242
27	0xbbd92a23	-0.0066273375
28	0xbd089c69	-0.03335229
29	0x3ddabeb9	0.10680909
30	0xbe2b43a9	-0.16725029
31	0xbc2f2de2	-0.010692092
32	0x3e23a673	0.15981464
33	0xbdc9c9fe	-0.0985298
34	0x3e1371d5	0.14398892
35	0xbc5e550d	-0.013570082
36	0x3d26d9b6	0.04073497
37	0x3dd9f19f	0.10641789
38	0x3dfc5f58	0.12322873
39	0x3d39a863	0.0453266
40	0x3e260027	0.16210996
41	0x3e19ca3c	0.15018553
42	0xbe10cc5b	-0.14140455
43	0xbe23cde3	-0.15996508
44	0xbdb2047a	-0.0869226
45	0xbda0fa6d	-0.07860265
46	0xbdd0befb	-0.10192677
47	0x3e3d4301	0.18482591
48	0x3dcc32c7	0.099706225
49	0x3e1fa677	0.15590845
50	0x3dd4b51e	0.10386108
51	0xbca5eae0	-0.020253599
52	0xbdeb343d	-0.11484573
53	0x3e07e45e	0.13270709
54	0xbcaed693	-0.021342551
55	0x3e34c396	0.17652735
56	0x3bb98895	0.005662034
57	0xbcc6e0a2	-0.024277035
58	0xbd979d0f	-0.074030034
59	0x3d2c3aed	0.042048384
60	0x3d98efca	0.07467611
61	0x3e22a9c7	0.15885077
62	0xbdc7b8ed	-0.09752069
63	0xbe1cea3f	-0.15323733
64	0x3c951524	0.018198557
65	0xbdb95d50	-0.09051001
66	0xbe054315	-0.13013871
67	0x3c6997cf	0.014257385
68	0xbdc906de	-0.09815763
69	0x3e182053	0.1485608
70	0xbe5c0ce2	-0.2148929
71	0xbd9a2c64	-0.07527998
72	0xbe836193	-0.2566038
73	0xbdf8f4a8	-0.121560395
74	0x3d2a91da	0.041643
75	0xbd0d27e0	-0.034461856
76	0xbe01eb4a	-0.12687412
77	0xbd935f79	-0.07195944
78	0x3de20f0a	0.11038025
79	0xbd177fcc	-0.03698711
80	0x3e408f99	0.18804778
81	0xbe139534	-0.14412385
82	0x3e1140f8	0.1418494
83	0x3e03ca6d	0.12870188
84	0x3e34775e	0.1762366
85	0x3bb85f9d	0.0056266324
86	0x3d380769	0.044928942
87	0x3a3ae6b7	0.0007129716
88	0x3ddc1593	0.107463025
89	0x3e0a573c	0.1350984
90	0xbdaf7ef0	-0.08569133
91	0x3dd12313	0.10211768
92	0x3d21307d	0.039352883
93	0x3e1ada7d	0.15122409
94	0x3e3e0eea	0.18560377
95	0x3dc54956	0.09633128
96	0x3adf2a37	0.0017026131
97	0x3dc9b817	0.098495655
98	0x3de850de	0.11343549
99	0xbdadc209	-0.08484275
100	0x3e03a9e2	0.12857774
101	0x3dc83656	0.09775989
102	0x3d11f6f5	0.035635907
103	0x3dd7436c	0.105109066
104	0x3dc8b82e	0.098007545
105	0x3db118ea	0.0864733
106	0xbde20b72	-0.11037339
107	0xbd00d228	-0.03145042
108	0x3d16253b	0.0366566
109	0x3dc52d0e	0.09627734
110	0xbe141656	-0.14461645
111	0x3dcd20c7	0.100160174
112	0xbce8257f	-0.028338192
113	0x3db2e252	0.087345734
114	0x3d54d334	0.05195923
115	0x3decf348	0.1156984
116	0xbdd9df30	-0.10638273
117	0xbdb64f31	-0.08901823
118	0xbd0d92b5	-0.03456374
119	0x3dc4b454	0.09604707
120	0x3e49f343	0.19721703
121	0xbd1abbb7	-0.037776675
122	0xbe5b0603	-0.21389012
123	0x3e567d04	0.20946127
124	0x3df7c8b0	0.12098825
125	0x3d065acb	0.03280143
126	0xbe09d28b	-0.13459222
127	0x3db59af1	0.08867443
128	0x3e277e14	0.16356689
129	0x3e00e714	0.1258815
130	0xbe0d973f	-0.13827227
131	0x3e3869b5	0.18009074
132	0x3e328d97	0.17436825
133	0x3bf1aa59	0.0073750434
134	0x3c406c11	0.011744515
135	0xbd415777	-0.047202554
136	0xbe9a0755	-0.3008372
137	0xbcb86ecf	-0.022513775
138	0xbb8d433b	-0.004310993
139	0xbe4fc1bc	-0.20288748
140	0x3ba91e90	0.005161114
141	0xba871b54	-0.0010307827
142	0x3dd2a121	0.10284639
143	0x3d4a1c70	0.049343526
144	0x3e6b3b4e	0.22971842
145	0x3bb72611	0.0055892547
146	0x3e204a02	0.15653232
147	0xbe226c7c	-0.15861696
148	0x3e30f7d1	0.17282034
149	0x3d7b2269	0.061312113
150	0xbe1b86cf	-0.15188144
151	0xbd6f6ac9	-0.058451448
152	0x3e46748c	0.19380397
153	0xbe817cb3	-0.2529045
154	0x3d756e5d	0.059919704
155	0x3c32a59f	0.010903745
156	0x3c14a15f	0.009071677
157	0x3e1b9791	0.15194537
158	0xbdcaaf45	-0.09896711
159	0xbe41a998	-0.18912351
160	0x3d80e9c4	0.06294587
161	0x3d49bc1c	0.04925166
162	0xbcc9f101	-0.024651052
163	0xbe52b055	-0.20575078
164	0xbd570f3d	-0.052504767
165	0xbdc42364	-0.09577063
166	0xbd8cb880	-0.06871128
167	0x3e07e3a1	0.13270427
168	0xbdaae56d	-0.08344541
169	0xbd3434f9	-0.04399583
170	0x3e0ac33d	0.1355104
171	0x3db51626	0.08842115
172	0xbd440fe7	-0.04786673
173	0xbe01c352	-0.12672165
174	0xbdc440eb	-0.095826946
175	0x3e0b932d	0.13630362
176	0x3d764c84	0.060131565
177	0x3e1ccf50	0.15313458
178	0x3d505d29	0.050870094
179	0x3cf01649	0.029307501
180	0x3d9d6a95	0.076863445
181	0xbe0aa191	-0.13538195
182	0x3de41d28	0.111383736
183	0x3d162844	0.036659494
184	0x3da64931	0.08119429
185	0xbe029a72	-0.12754229
186	0x3e24ef7d	0.16106983
187	0x3e1d5499	0.15364303
188	0xbde4bc0a	-0.11168678
189	0xbe4be68f	-0.1991217
190	0x3c427b81	0.011870266
191	0x3e1f5af3	0.15562038
192	0xbe00f559	-0.12593593
193	0x3d2c8117	0.042115297
194	0xbe4013e8	-0.18757594
195	0xbde65cb4	-0.112481505
196	0x3c341bf5	0.010992994
197	0xbd83d2f9	-0.06436724
198	0xbdd51ef7	-0.10406297
199	0x3d04685d	0.03232609
200	0x3e0de0c5	0.13855274
201	0x3e4a259e	0.19740912
202	0x3de608a8	0.1123212
203	0x3e424d34	0.18974763
204	0xbdfec987	-0.12440782
205	0xbda4487a	-0.08021636
206	0xbe419b5a	-0.18906918
207	0x3da5205b	0.08062812
208	0xbdc4758e	-0.09592734
209	0xbe2db90c	-0.16965121
210	0xbad76756	-0.0016433995
211	0x3dba4d1b	0.09096738
212	0x3d1d8e6d	0.038465906
213	0x3c3c2379	0.011483067
214	0x3d743427	0.05962005
215	0x3e1d53ac	0.1536395
216	0xbe193d52	-0.14964798
217	0xbe1241ca	-0.14282909
218	0x3d9971db	0.07492419
219	0x3e24435e	0.16041324
220	0x3d9fe36b	0.078070484
221	0xbdc56f44	-0.09640363
222	0x3dc88c98	0.09792441
223	0xbdd0db1b	-0.10198041
224	0x3bd998b5	0.0066405185
225	0xbd983dfc	-0.074336976
226	0x3e2cb9c1	0.16867734
227	0xbd5f3eeb	-0.054503363
228	0xbe1678bb	-0.14694493
229	0xbdf3a674	-0.11896983
230	0x3d95186b	0.07280048
231	0x3dbcd7e0	0.092208624
232	0x3dad7fd0	0.08471644
233	0x3d235c9a	0.039883234
234	0xbe335d7a	-0.17516127
235	0xbe123d6c	-0.14281243
236	0xbd8f4531	-0.06995619
237	0xbe3b27e1	-0.18276931
238	0x3d8226c4	0.0635505
239	0xbe248cbf	-0.16069315
240	0xbac1054b	-0.0014726309
241	0x3e1140db	0.14184897
242	0xbe0a61ae	-0.13513824
243	0xbdf0dd30	-0.11760938
244	0x3e27c793	0.16384725
245	0xbe289104	-0.16461569
246	0xbd387578	-0.045033902
247	0xbe288157	-0.16455589
248	0xbd7faa66	-0.062418364
249	0xbe369dad	-0.17833586
250	0xbdf16c95	-0.117882885
251	0xbe1cb439	-0.15303124
252	0x3dc30091	0.095215924
253	0xbdcf7ee1	-0.10131622
254	0x3e24dcf8	0.16099918
255	0xbde97648	-0.113995135

decoder.2.bias f4 [64]
0	0xbcca2b7a	-0.024678934
1	0xbde6920d	-0.11258326
2	0xbcd9ab1c	-0.02657085
3	0xbd098783	-0.0335765
4	0xbd895bfb	-0.06706997
5	0xbe97a49a	-0.2961777
6	0x3d9e0f18	0.07717723
7	0x3da05511	0.07828725
8	0x3bfe94fe	0.007769226
9	0xbd632a9a	-0.05546055
10	0x3dac50e9	0.0841387
11	0x3debae06	0.11507802
12	0xbb93643b	-0.0044980324
13	0x3e55b780	0.20870781
14	0xbe31718e	-0.17328474
15	0xbdf28289	-0.11841304
16	0x3d30c99f	0.04316103
17	0x3ddbe2f8	0.1073665
18	0xbe9adf20	-0.30248356
19	0x3caeefd7	0.021354599
20	0x3db80492	0.08985247
21	0xbe806edb	-0.25084576
22	0xbd825f8a	-0.06365879
23	0xbe1dcaa3	-0.15409331
24	0xbe2a3145	-0.16620357
25	0x3c8fbb66	0.017545413
26	0xbe55a46c	-0.20863503
27	0x3e2622eb	0.16224258
28	0x3e2f8076	0.17138848
29	0xbe15ef2b	-0.14642017
30	0x3ab565de	0.0013839563
31	0x3df01f04	0.11724666
32	0x3b88950e	0.0041681593
33	0xbe283d34	-0.16429597
34	0x3e4a3e03	0.19750218
35	0xbd3b6382	-0.045749195
36	0x3c03373d	0.008008775
37	0xbdeabad4	-0.11461416
38	0x3e6558f5	0.22397216
39	0xbe0e6dde	-0.13909099
40	0xbdc031e2	-0.093845144
41	0x3e71f570	0.23628783
42	0x3d8ea67e	0.069653496
43	0xbc9e38c4	-0.019314177
44	0x3d99a41b	0.07502004
45	0x3e28ed4a	0.16496769
46	0xbd42d7cc	-0.04756908
47	0x3caedb64	0.021344848
48	0x3dde2fe9	0.10848982
49	0xbd660ab2	-0.056162544
50	0xbdaa974f	-0.08329641
51	0x3e4de527	0.20106946
52	0xbb8ba724	-0.004261868
53	0x3d2b431e	0.041812055
54	0xbd524db0	-0.05134362
55	0xbd9ab4c7	-0.07554012
56	0x3dea3d06	0.114374205
57	0xbdd55938	-0.10417408
58	0xbea553d3	-0.32290515
59	0x3da210c7	0.07913356
60	0xbc3b13da	-0.011418307
61	0x3dca1422	0.09867121
62	0xbc3c633e	-0.011498271
63	0xbe1d6997	-0.1537231
