Save_Models/model-lat1.pth (torch, 190946 bytes, 15 tensors)

encoder.0.weight f4 [128, 99]
0.03827963 0.06581168 0.051972944 -0.010119358 -0.021659086 -0.095409125 0.041411255 -0.051033236
0.091937155 -0.05127233 -0.057425655 -0.077916056 0.008905668 0.041078076 0.08549158 0.045271505
-0.058239818 -0.07279271 -0.082679346 0.078513175 0.0028776366 0.08052583 -0.06210663 -0.08695263
0.059225716 0.009021975 0.09575175 -0.09878174 0.019131428 0.027917046 -0.08800277 -0.0053704204
0.054914266 -0.03352028 -0.06512617 0.059592962 0.06353169 -0.026495835 -0.0496364 -0.047952794
-0.005412471 0.003996562 0.0020565304 -0.059742026 0.026586689 0.0817163 0.03965037 -0.09874625
-0.1142767 -0.0018999558 -0.057509992 0.043139927 -0.05974598 -0.01816732 -0.043948084 0.07247871
-0.04241916 -0.09756397 -0.040651727 0.069723286 0.012043402 0.019104855 -0.07915276 0.029040594
0.08988643 -0.032011587 0.006133382 -0.02548537 -0.09291799 0.052494686 0.08086464 -0.08461189
-0.05384905 0.018364348 -0.0936601 0.020463342 0.03166161 -0.07691673 -0.041298695 -0.010585936
0.084496304 0.09413287 -0.06366506 -0.04820378 0.013680038 0.012031189 -0.027226169 -0.021345511
-0.07934339 0.08982776 -0.008324454 -0.06343067 -0.071614325 0.023727885 0.002327096 -0.06614407
-0.052955225 -0.077019244 0.0044231815 -0.07779449 -0.014065154 -0.04535846 -0.0393074 -0.007339799
-0.06719667 -0.06265687 -0.037446838 0.06652558 -0.026434535 -0.07872324 -0.0031131206 -0.062280543
-0.0014046421 -0.02515801 -0.012353402 -0.0048447587 0.067283526 -0.060240734 -0.01306182 0.00021058164
0.06001605 -0.07587075 0.08002856 -0.043051735 0.044368006 -0.08678966 0.05784559 0.014005356
-0.06741825 0.012685014 -0.04082367 0.057337962 -0.018584456 -0.07297126 0.08945602 -0.07060841
-0.08434321 0.059592735 0.07515599 -0.10917628 -0.034524802 0.021981126 -0.002714661 -0.044865668
-0.014761029 0.05130867 0.0656388 0.059562154 0.05004982 0.08647925 0.0151486015 -0.010512446
-0.032610487 -0.01310665 -0.06241249 -0.044857968 -0.03637248 -0.036949623 -0.058012605 -0.046447802
-0.0068086684 -0.03720542 -0.01696854 0.061042096 -0.078803286 0.008415449 -0.07763621 -0.078759134
-0.09755764 -0.043740258 -0.021976236 -0.04322513 -0.007945042 0.06584112 -0.07725367 -0.0050549284
-0.026923941 -0.03146857 -0.038541432 0.017470347 0.08472907 0.06490576 -0.01158917 0.074063584
-0.036798317 0.07199543 -0.04835214 -0.07548807 0.038173582 0.030121004 0.03719032 -0.045836076
-0.047493596 0.03596014 -0.06771001 0.0041885786 0.06627067 0.07620216 -0.011828495 -0.12144687
0.011482547 0.068368435 -0.029632835 -0.018332502 -0.08911545 -0.07585197 0.033059184 -0.10894683
-0.017105985 0.012797924 -0.055157535 -0.042749655 0.08410039 -0.040439595 0.050553665 0.025156042
-0.057464253 -0.08251325 0.01563245 -0.08984571 -0.07745198 0.045699038 0.049185622 0.01597282
-0.051051736 -0.09965607 0.07377899 -0.09665344 -0.096028395 0.056121852 -0.098334275 -0.04718199
-0.012723358 0.031051928 -0.107349515 -0.056516513 -0.007861173 -0.0133322 -0.018919094 0.08251595
0.06208564 -0.0727732 0.047287915 0.04624204 -0.05125853 -0.07336183 -0.0078121675 -0.025461879
0.089802034 -0.017905425 0.09206406 0.018333241 0.063334 0.07793 -0.018979741 -0.09504559
00000000: 1acb 1c3d 46c8 863d 95e1 543d aacb 25bc
00000010: 656e b1bc dc65 c3bd d99e 293d 3a08 51bd
00000020: 8c49 bc3d ef02 52bd 2a37 6bbd 7492 9fbd
00000030: 14e9 113c 7c41 283d 3616 af3d 9d6e 393d
00000040: e08c 6ebd 5814 95bd ca53 a9bd 84cb a03d
00000050: bb96 3c3b baea a43d 8663 7ebd 3814 b2bd
00000060: aa96 723d e8d0 133c 7e19 c43d 154e cabd
00000070: 83b9 9c3c 4ab2 e43c cc3a b4bd 5afa afbb
00000080: c8ed 603d 904c 09bd df60 85bd c017 743d
00000090: e71c 823d cb0d d9bc 8a4f 4bbd 266a 44bd
000000a0: 195b b1bb 98f5 823b dbc6 063b 0eb4 74bd
000000b0: 54cc d93c e05a a73d 6d68 223d 793b cabd
000000c0: e709 eabd f007 f9ba 998f 6bbd 7eb3 303d
000000d0: 33b8 74bd a2d3 94bc e802 34bd b86f 943d
000000e0: b7bf 2dbd 9ecf c7bd 6d82 26bd 15cb 8e3d
000000f0: b051 453c c981 9c3c d81a a2bd 8ae6 ed3c
00000100: 6016 b83d 951e 03bd 8afa c83b b2c6 d0bc
00000110: ca4b bebd ab04 573d 5c9c a53d 0049 adbd
00000120: d290 5cbd d470 963c ded0 bfbd bda2 a73c
00000130: 9baf 013d 8586 9dbd d228 29bd a270 2dbc
00000140: 660c ad3d bcc8 c03d d462 82bd 5471 45bd
00000150: 3d22 603c 771e 453c 6a09 dfbc c8dc aebc
00000160: ca7e a2bd 9ef7 b73d 4a63 08bc f0e7 81bd
00000170: 88aa 92bd fb60 c23c 3182 183b 8b76 87bd
00000180: 94e7 58bd 44bc 9dbd 56f0 903b b852 9fbd
00000190: 8871 66bc cbc9 39bd cc00 21bd b282 f0bb
000001a0: 689e 89bd 3f52 80bd db61 19bd 903e 883d
000001b0: 3d8d d8bc a639 a1bd 7f05 4cbb e219 7fbd
000001c0: f81b b8ba 2c18 cebc ec65 4abc c8c0 9ebb
000001d0: f2cb 893d fdbe 76bd 3e01 56bc 94cf 5c39
000001e0: 64d3 753d 2062 9bbd 03e6 a33d 0457 30bd
000001f0: 3abb 353d c7be b1bd 7fef 6c3d b876 653c
00000200: 9412 8abd ced4 4f3c b836 27bd 36db 6a3d
00000210: 6e3e 98bc f571 95bd b834 b73d 249b 90bd
00000220: 22bc acbd 8317 743d 62eb 993d d097 dfbd
00000230: e169 0dbd c311 b43c 74e8 31bb 10c5 37bd
00000240: 3ed8 71bc 0a29 523d a36d 863d 72f7 733d
00000250: 0a01 4d3d 081c b13d d731 783c 653c 2cbc
00000260: 9392 05bd 46bd 56bc 3da4 7fbd fdbc 37bd
00000270: 4ffb 14bd 7d58 17bd a09e 6dbd 0d40 3ebd
00000280: 401b dfbb b664 18bd 9c01 8bbc 4707 7a3d
00000290: 9e63 a1bd f4e0 093c bcff 9ebd 784c a1bd
000002a0: 4dcc c7bd fc28 33bd 8207 b4bc d50c 31bd
000002b0: ec2b 02bc b6d7 863d 2c37 9ebd d0a3 a5bb
000002c0: 998f dcbc 30e5 00bd 9fdd 1dbd f91d 8f3c
000002d0: 6f86 ad3d 50ed 843d 81e0 3dbc a6ae 973d
000002e0: d5b9 16bd 5772 933d e50c 46bd 7d99 9abd
000002f0: e75b 1c3d 53c0 f63c e154 183d 9cbe 3bbd
00000300: a588 42bd f14a 133d 8cab 8abd 5840 893b
00000310: ebb8 873d e10f 9c3d 4ecc 41bc 23b9 f8bd
00000320: 4b21 3c3c c004 8c3d 8fc0 f2bc 0b2e 96bc
00000330: 2982 b6bd 4758 9bbd 1169 073d 841f dfbd
00000340: da21 8cbc 62ae 513c deec 61bd 431a 2fbd
00000350: d33c ac3d fda3 25bd 5c11 4f3d 0b14 ce3c
00000360: a35f 6bbd b5fc a8bd a00f 803c 0701 b8bd
00000370: 259f 9ebd ea2e 3b3d dd76 493d 6ed9 823c
00000380: a01b 51bd 7b18 ccbd 7019 973d 3df2 c5bd
00000390: 89aa c4bd 07e0 653d 7b63 c9bd e741 41bd
000003a0: a275 50bc 9d60 fe3c 10da dbbd dc7d 67bd
000003b0: 26cc 00bc 4d6f 5abc 37fc 9abc 1ffe a83d
000003c0: 834d 7e3d 1e0a 95bd f9b0 413d 4b68 3d3d
000003d0: 77f4 51bd ba3e 96bd 36fd ffbb 6e95 d0bc
000003e0: 21ea b73d 66ae 92bc 158c bc3d 982f 963c
000003f0: 42b5 813d c499 9f3d 677b 9bbc 43a7 c2bd

encoder.0.bias f4 [128]
-0.14620297 -0.2633734 -0.10848618 -0.24391931 0.04463224 -0.20965585 -0.17331405 -0.5216588
-0.3057553 -0.27850884 -0.18469115 0.23307182 -0.12547734 -0.13737877 -0.23280661 -0.041593146
-0.13501915 -0.18793537 0.020189695 -0.089204736 -0.11283368 -0.33431986 -0.016457658 -0.24730174
-0.15353312 -0.2502175 0.16557239 -0.026164182 -0.36016566 -0.029795496 -0.06518664 -0.08280373
-0.1592608 -0.16935654 -0.16069849 -0.25606272 -0.03246555 -0.36407417 -0.22117473 -0.14534344
-0.37310794 -0.15395594 -0.20625332 -0.405702 -0.087041 0.24515173 -0.112971045 -0.16474308
-0.34717527 -0.20892586 -0.016444886 -0.0783024 -0.34260482 -0.07110544 -0.23957598 -0.44681066
-0.07626764 -0.23569503 -0.098651886 0.04017046 -0.078229375 -0.25883096 -0.3053001 0.14373381
-0.15085207 -0.333574 -0.1346747 -0.2174511 -0.23339762 -0.14049272 -0.19164245 -0.23329332
-0.19623618 -0.35354182 -0.21135664 -0.09660329 -0.1840784 -0.27016994 -0.26009908 -0.20413196
-0.14255106 -0.20593145 -0.41209364 -0.2082732 -0.06459998 -0.070192635 -0.24713907 -0.36844075
-0.10712958 -0.2028341 -0.18541968 -0.31971225 -0.14292614 -0.15828525 0.31572384 -0.18668525
-0.45599246 0.3351896 -0.34726676 -0.08370334 -0.1378459 -0.0071782237 -0.08793337 0.29705572
-0.35304412 -0.02536837 -0.15612139 -0.12444825 -0.1791968 -0.102837056 -0.2906447 -0.36603096
-0.25082967 0.3311611 -0.029804714 0.016639382 -0.24309668 -0.06449076 -0.2732746 -0.18340583
-0.3674899 -0.19951208 0.28144577 -0.117532454 -0.2330623 0.031823114 -0.2640427 -0.28145474
00000000: 3bb6 15be e1d8 86be 012e debd fcc5 79be
00000010: 4cd0 363d 06b0 56be 3d79 31be 6e8b 05bf
00000020: f58b 9cbe b698 8ebe ad1f 3dbe 61aa 6e3e
00000030: 227d 00be 05ad 0cbe db64 6ebe 935d 2abd
00000040: 7642 0abe 2172 40be dc64 a53c f9b0 b6bd
00000050: 5815 e7bd f92b abbe 36d2 86bc ab3c 7dbe
00000060: c937 1dbe 821c 80be cf8b 293e 4456 d6bc
00000070: a267 b8be af15 f4bc 9380 85bd 0195 a9bd
00000080: 4315 23be cd6b 2dbe 258e 24be a71a 83be
00000090: 99fa 04bd ee67 babe a17b 62be e9d4 14be
000000a0: 0108 bfbe a0a6 1dbe 1234 53be 2cb8 cfbe
000000b0: 8d42 b2bd 0e09 7b3e 5d5d e7bd 69b2 28be
000000c0: f5c0 b1be a9f0 55be 6db7 86bc 025d a0bd
000000d0: e669 afbe bb9f 91bd 6853 75be 5ec4 e4be
000000e0: 3532 9cbd 0a5a 71be 000a cabd c889 243d
000000f0: b936 a0bd 7e85 84be 4b50 9cbe f52e 133e
00000100: f778 1abe 36ca aabe 2ae8 09be 80ab 5ebe
00000110: c9ff 6ebe 53dd 0fbe eb3d 44be 72e4 6ebe
00000120: 23f2 48be 6f03 b5be e06d 58be f2d7 c5bd
00000130: 0c7f 3cbe b753 8abe b52b 85be f807 51be
00000140: e8f8 11be b2df 52be f0fd d2be 9245 55be
00000150: ff4c 84bd 28c1 8fbd 0612 7dbe 44a4 bcbe
00000160: c166 dbbd beb3 4fbe a8de 3dbe 53b1 a3be
00000170: 3b5b 12be 8715 22be 8ea6 a13e 6b2a 3fbe
00000180: d877 e9be f99d ab3e f3cc b1be a86c abbd
00000190: 7a27 0dbe 4e37 ebbb 6916 b4bd b017 983e
000001a0: 33c2 b4be 54d1 cfbc 49de 1fbe b9de febd
000001b0: 5e7f 37be 3c9c d2bd 62cf 94be 6968 bbbe
000001c0: bf6c 80be f38d a93e 0429 f4bc 504f 883c
000001d0: 56ee 78be bb13 84bd a6ea 8bbe bdce 3bbe
000001e0: a327 bcbe e54c 4cbe a919 903e dbb4 f0bd
000001f0: e2a7 6ebe f458 023d 9b30 87be d61a 90be

encoder.3.weight f4 [64, 128]
-0.057386663 -0.14020431 -0.14977862 0.07554027 0.06250516 -0.01302589 0.002622689 0.14514166
0.0495139 -0.1316249 -0.0077194255 0.011807653 -0.051337674 -0.096726425 0.02487463 0.04762481
-0.094187155 0.031805895 0.055559408 -0.102210835 -0.17429551 -0.0110885715 0.07761785 -0.038290165
0.07788768 0.06766986 -0.01127027 -0.018534083 0.10416583 -0.11013322 0.022010462 0.083875835
-0.019366872 -0.1196293 0.07692487 0.010648111 0.091135316 -0.10103179 0.022850033 -0.032484986
-0.07225861 0.09712697 -0.011799646 -0.060047388 -0.08503742 -0.045985684 0.04382282 -0.1479547
0.008132104 0.059543997 -0.09377113 -0.041823223 0.06541366 0.08439848 0.0062173028 0.020818597
0.032989416 -0.03331661 -0.03255158 -0.007608027 -0.058561455 -0.010022547 0.015973995 0.0853226
0.09258349 -0.04849562 0.05034117 -0.16375865 -0.13092685 -0.052972633 0.09068666 0.015249556
-0.004825664 -0.09785897 -0.10421022 0.057747938 -0.174666 0.0403457 0.021170318 0.012408798
0.005879326 0.040663082 -0.0017875276 0.05491318 -0.07807688 -0.056019552 -0.04119572 -0.028168041
0.047013767 -0.031359296 -0.04475258 -0.062038984 -0.03326812 -0.06224009 -0.05308441 -0.18669647
0.014504601 0.086564764 0.092046924 -0.029924117 -0.1705969 0.04655598 -0.034404516 0.030457629
0.055311482 -0.089198574 -0.024405856 -0.014139528 0.090685174 -0.12183098 0.043229725 -0.09512613
0.0034193143 -0.009931803 -0.012465811 0.02515415 -0.024394479 0.04170933 -0.039448243 0.07389397
-0.009473002 0.015907014 0.04318866 0.06479248 -0.032438524 0.060293604 -0.17932208 0.0102422675
-0.028693251 -0.06507493 -0.047967374 0.082388565 0.07921858 -0.03219648 -0.02136415 0.022978326
-0.016126895 -0.11630608 -0.019952696 0.049160723 -0.014983973 -0.042947154 0.09128406 -0.05816467
-0.109519 -0.05442992 0.019190734 -0.07351242 -0.049381033 0.013265642 0.045272265 -0.04383852
0.058706116 0.030345852 -0.17574385 0.030724874 0.010752212 -0.04518003 -0.07112642 0.00077998976
0.006613729 -0.16944672 -0.015823385 0.014078059 0.06821062 0.0039181644 0.042327166 0.067993104
-0.0060219755 0.029352015 0.05411639 0.010975867 -0.018324103 -0.026900446 0.025959782 0.0073661865
-0.010066223 0.027154258 0.032137685 0.04576153 0.035980836 -0.0540506 0.008357738 -0.01063113
0.010475732 0.097436845 -0.09611889 0.021992797 -0.06527283 -0.038876917 -0.024720967 0.018082332
-0.0063273297 -0.018384717 -0.025213415 -0.08946144 -0.13998152 -0.07455596 0.013964845 0.02368677
0.039513472 -0.120319605 -0.062253024 0.07256243 -0.09377552 -0.0036630793 0.026719568 -0.097827055
0.063558176 0.049980678 -0.077990666 -0.01593288 -0.00076355325 0.03324246 -0.026106767 -0.03343047
0.10319399 0.037141953 -0.041641194 0.0026055393 0.02421165 0.07046494 0.039245773 -0.08677826
-0.056509946 0.104168236 0.053046238 0.0100024585 -0.15414557 -0.049247656 -0.14844377 -0.05464084
0.011703358 -0.045286108 0.01946259 -0.057348974 0.030602895 -0.0048260135 0.025964558 -0.0299391
0.042976346 -0.113501 0.0018725661 0.026108779 -0.101157814 0.090550736 0.08860988 0.0046862806
0.013204364 0.05696737 -0.02782935 -0.047061816 -0.022600286 -0.03751958 -0.050746433 -0.024444247
00000000: 470e 6bbd b891 0fbe 915f 19be dbb4 9a3d
00000010: b502 803d 8b6a 55bc 6be1 2b3b 04a0 143e
00000020: 16cf 4a3d aec8 06be 3cf3 fcbb e374 413c
00000030: 7447 52bd 8118 c6bd e1c5 cb3c 3c12 433d
00000040: 32e5 c0bd e646 023d 4392 633d ea53 d1bd
00000050: 867a 32be d7ac 35bc 1bf6 9e3d 26d6 1cbd
00000060: 9383 9f3d 7f96 8a3d f0a6 38bc cad4 97bc
00000070: e554 d53d 878d e1bd 494f b43c 18c7 ab3d
00000080: 46a7 9ebc 3500 f5bd c98a 9d3d 6a75 2e3c
00000090: 27a5 ba3d c1e9 cebd fe2f bb3c fa0e 05bd
000000a0: 52fc 93bd 81ea c63d 4d53 41bc 40f4 75bd
000000b0: 1928 aebd 7c5b 3cbd 8f7f 333d 7081 17be
000000c0: 843c 053c 68e4 733d 140b c0bd d44e 2bbd
000000d0: 99f7 853d 1cd9 ac3d 84ba cb3b c38b aa3c
000000e0: e91f 073d ff76 08bd ce54 05bd c24c f9bb
000000f0: 23de 6fbd 9c35 24bc e5db 823c 9ebd ae3d
00000100: 6a9c bd3d 58a3 46bd 8b32 4e3d 59b0 27be
00000110: b011 06be d5f9 58bd edb9 b93d 46d9 793c
00000120: 9b20 9ebb 496a c8bd 2b6c d5bd 1a89 6c3d
00000130: a5db 32be 8841 253d 606d ad3c 454e 4b3c
00000140: 5ca7 c03b 558e 263d 794b eaba a5ec 603d
00000150: c5e6 9fbd c274 65bd d8bc 28bd aac0 e6bc
00000160: 8291 403d 9b72 00bd 7b4e 37bd 971c 7ebd
00000170: 2744 08bd 77ef 7ebd 0a6f 59bd 5c2d 3fbe
00000180: b5a4 6d3c de48 b13d 1983 bc3d 6c23 f5bc
00000190: f4b0 2ebe 7cb1 3e3d c0eb 0cbd 4782 f93c
000001a0: 4b8e 623d bead b6bd caee c7bc 7ba9 67bc
000001b0: 26b9 b93d 8582 f9bd a711 313d 7dd1 c2bd
000001c0: 9316 603b 00b9 22bc 673d 4cbc 1310 ce3c
000001d0: eed6 c7bc 67d7 2a3d 7b94 21bd b955 973d
000001e0: a634 1bbc 6d4f 823c 98e6 303d ebb1 843d
000001f0: 42de 04bd 6df6 763d 35a0 37be 2fcf 273c
00000200: 1c0e ebbc 0146 85bd 7079 44bd 56bb a83d
00000210: 5a3d a23d 75e0 03bd df03 afbc 0b3d bc3c
00000220: 8d1c 84bc e231 eebd d673 a3bc c15c 493d
00000230: 567f 75bc 5be9 2fbd 23f3 ba3d 143e 6ebd
00000240: 7f4b e0bd e8f1 5ebd e335 9d3c ae8d 96bd
00000250: c443 4abd 2358 593c 696f 393d 0590 33bd
00000260: d375 703d dd97 f83c 32f6 33be bbb2 fb3c
00000270: 0c2a 303c b20e 39bd baaa 91bd 3a78 4c3a
00000280: fbb7 d83b 7183 2dbe 0ba0 81bc a9a7 663c
00000290: 02b2 8b3d f263 803b 405f 2d3d f83f 8b3d
000002a0: fe53 c5bb a373 f03c 26a9 5d3d 1fd4 333c
000002b0: 6e1c 96bc 535e dcbc 9ca9 d43c 0d60 f13b
000002c0: cdec 24bc 9b72 de3c cea2 033d 7170 3b3d
000002d0: a460 133d 2964 5dbd e5ee 083c 312e 2ebc
000002e0: 68a2 2b3c f88c c73d fbd9 c4bd 3d2a b43c
000002f0: c3ad 85bd 673d 1fbd a083 cabc 6621 943c
00000300: 7d55 cfbb 8c9b 96bc 5d8c cebc 8f37 b7bd
00000310: 5157 0fbe ccb0 98bd cecc 643c c20a c23c
00000320: e1d8 213d 206a f6bd 07fd 7ebd 9c9b 943d
00000330: 610d c0bd 4610 70bb ffe2 da3c 8d59 c8bd
00000340: ca2a 823d 8ab8 4c3d 92b9 9fbd ac85 82bc
00000350: 3129 48ba 3f29 083d dcdd d5bc 63ee 08bd
00000360: 5f57 d33d 2922 183d f58f 2abd b2c1 2a3b
00000370: 8357 c63c ec4f 903d 2dc0 203d cdb8 b1bd
00000380: f976 67bd 2856 d53d 0347 593d 5ae1 233c
00000390: 56d8 1dbe e9b7 49bd a501 18be 13cf 5fbd
000003a0: 71bf 3f3c ed7d 39bd 0270 9f3c c2e6 6abd
000003b0: ecb2 fa3c 8923 9ebb a0b3 d43c d842 f5bc
000003c0: f707 303d 3673 e8bd e470 f53a 14e2 d53c
000003d0: d42b cfbd aa72 b93d 1979 b53d 5f8f 993b
000003e0: 1e57 583c 9e56 693d 61fa e3bc e4c3 40bd
000003f0: 3c24 b9bc 22ae 19bd 7edb 4fbd 4d3f c8bc

encoder.3.bias f4 [64]
0.019664781 -0.13210167 0.0017909942 0.06656006 -0.030701628 -0.02529767 -0.16503082 -0.23777325
-0.15502794 -0.23729798 0.060145542 -0.09177228 -0.13819136 -0.10537318 -0.35270292 -0.17522207
0.021373143 -0.15375814 0.019955378 -0.23919448 0.021541195 -0.0065519647 -0.07082862 -0.058888525
-0.17436807 0.06190999 -0.1904793 -0.18843824 -0.13128819 0.0325471 -0.048581183 -0.4540541
0.011841983 -0.023624772 -0.038413674 -0.14897625 -0.31032714 -0.10297168 -0.03724301 -0.13484977
0.0044773566 -0.22469424 -0.19591103 -0.1782192 -0.0597609 0.059415415 0.094895646 0.06644769
-0.041844953 -0.26797345 0.045638453 -0.29959708 0.049372792 -0.0998864 0.027683783 -0.091723315
0.0068828384 -0.16619036 -0.12284378 -0.14883062 -0.26618987 -0.19641592 -0.26324528 -0.023960382
00000000: 0918 a13c a945 07be cbbf ea3a a450 883d
00000010: fb81 fbbc 0f3d cfbc d7fd 28be d57a 73be
00000020: a5bf 1ebe 3efe 72be 2c5b 763d 1bf3 bbbd
00000030: 0982 0dbe e5cd d7bd 7a95 b4be 6a6d 33be
00000040: bb16 af3c c672 1dbe 7679 a33c 66ef 74be
00000050: 2977 b03c ddb1 d6bb 980e 91bd 1835 71bd
00000060: 8b8d 32be 5495 7d3d 010d 43be f4f5 40be
00000070: 6970 06be 1c50 053d 10fd 46bd c779 e8be
00000080: e004 423c bd88 c1bc a857 1dbd 3b8d 18be
00000090: 33e3 9ebe d1e2 d2bd 208c 18bd 0f16 0abe
000000a0: cab6 923b 3f16 66be e79c 48be 187f 36be
000000b0: d8c7 74bd 945d 733d a658 c23d ba15 883d
000000c0: 9d65 2bbd d133 89be 63ef 3a3d ca64 99be
000000d0: 203b 4a3d 3e91 ccbd 1ac9 e23c 6fd9 bbbd
000000e0: 6f89 e13b ce2d 2abe 8595 fbbd 0e67 18be
000000f0: 0a4a 88be 4121 49be 16c8 86be 9048 c4bc

encoder.6.weight f4 [32, 64]
-0.00085137744 -0.08808387 -0.0008624848 0.015586629 0.047621246 0.029231653 -0.03543509 0.11996639
-0.022959238 -0.0005847552 -0.14567798 0.07474283 -0.057471246 0.20068277 0.13468364 0.13137111
0.042762294 0.10035651 0.037351914 0.1081378 -0.07546092 -0.0060913195 -0.0043687313 -0.012871595
0.078464724 0.043927114 0.016374178 -0.052983083 -0.02615838 0.0048934664 -0.05346428 0.10191243
0.04917343 -0.05317287 -0.056309212 0.008852227 0.05837092 0.028050473 -0.101155505 -0.07200588
-0.11178293 0.12633505 0.027018003 -0.03764031 -0.14299187 0.0014841409 -0.01537996 -0.114999905
-0.0010588189 -0.12371925 -0.0910865 0.2037667 -0.04841478 0.010843829 -0.07637136 -0.15271753
-0.12763585 0.048942443 0.14248788 0.03882075 0.047135685 -0.058198582 0.10704662 -0.074328534
0.01064766 0.1632109 -0.03553775 0.120317616 -0.07752165 -0.01782134 0.08202802 -0.152119
0.02951809 0.0016320925 0.07478813 0.012039431 0.18304242 0.0027163667 -0.20448293 -0.15799563
0.16968128 -0.097295545 0.069393136 -0.00027690525 0.01414536 -0.12793508 0.0023981708 -0.1440202
-0.13730931 -0.011423319 -0.14035106 0.22448988 0.02020104 0.137905 0.13805304 0.17239346
-0.14805593 0.14161322 0.010861908 0.034286752 -0.050048627 -0.024826124 -0.0012345994 0.1601922
0.046836525 -0.11426301 0.12583037 0.17417596 0.14832486 0.056820083 0.20619945 0.022362089
-0.14162159 0.27578184 0.010010297 -0.07908253 0.01292616 0.08202705 0.0918156 0.10280661
0.092747726 -0.07181771 -0.10823204 0.025224373 0.15806265 0.034246173 0.06251431 0.11558646
-0.07261283 -0.028497197 -0.118665315 -0.07547651 0.04525506 -0.09977364 -0.14025858 0.1142916
-0.030653305 0.0789547 -0.107803404 0.13030957 -0.045594953 -0.027514096 0.015452019 0.08515317
-0.09321371 0.10474994 -0.047971386 0.13732725 -0.14059755 0.032515164 0.06116354 0.020506524
-0.07448136 -0.050389003 -0.027897071 0.029079318 0.02188039 -0.0651127 0.029069306 0.103879996
0.1331206 -0.031283833 0.014794434 -0.0058050305 0.22046408 0.030463114 -0.056833275 0.044113062
-0.0893221 0.09041546 -0.008269104 -0.051808365 -0.06691715 -0.04926798 0.06787179 0.056958746
-0.048598506 0.024518149 0.01052208 -0.035147227 -0.055435758 0.045024082 -0.004012152 -0.062138297
-0.07798432 0.013924426 -0.03467972 0.031727195 0.023938471 -0.11594907 0.113134705 -0.091863506
-0.10707215 -0.085071884 -0.023768103 -0.03740998 -0.086214185 -0.0018213639 0.03299055 0.051603664
-0.045702066 0.07654963 -0.08956195 -0.031872597 -0.04180835 0.03947114 0.1512691 -0.08163619
-0.097348526 0.107642934 -0.0089064 0.09274802 0.07743093 0.025138585 0.10569873 0.07531846
0.118391976 -0.16053113 0.0070790206 0.060781512 -0.035813417 -0.15632565 -0.2415236 0.11915383
0.13406567 -0.15502755 0.024356775 0.06463892 0.069421604 0.10231279 0.021813666 0.0064767655
-0.0775652 0.037916563 0.023682173 -0.057168245 -0.07723792 -0.15195923 -0.096669786 -0.09962268
0.114507675 0.023049917 -0.15864733 0.09549783 -0.17964916 0.055612795 -0.04465166 -0.09308805
0.04130253 0.1644753 -0.029490868 0.069204435 0.16367273 -0.13478556 0.07889432 -0.10512128
00000000: f92e 5fba 5165 b4bd 6018 62ba 0f5f 7f3c
00000010: 7f0e 433d 3877 ef3c 6324 11bd f0b0 f53d
00000020: 0315 bcbc 424a 19ba 9c2c 15be c512 993d
00000030: f866 6bbd c97f 4d3e 82ea 093e 2686 063e
00000040: 8427 2f3d b787 cd3d 52fe 183d 5a77 dd3d
00000050: 418b 9abd b199 c7bb 9327 8fbb 62e3 52bc
00000060: 1db2 a03d ebec 333d 2423 863c ca04 59bd
00000070: 194a d6bc 5f59 a03b 5cfd 5abd 77b7 d03d
00000080: 146a 493d cccb 59bd 7da4 66bd ee08 113c
00000090: 5916 6f3d 1bca e53c 9e2a cfbd d277 93bd
000000a0: 73ee e4bd fa5d 013e dc54 dd3c ba2c 1abd
000000b0: 766c 12be 8187 c23a 3afc 7bbc 1285 ebbd
000000c0: 11c8 8aba 8560 fdbd 8f8b babd 38a8 503e
000000d0: 944e 46bd 51aa 313c 9668 9cbd fc61 1cbe
000000e0: f9b2 02be df77 483d 58e8 113e 8202 1f3d
000000f0: 5911 413d a361 6ebd 423b db3d 8f39 98bd
00000100: 8673 2e3c c220 273e 0890 11bd 1569 f63d
00000110: acc3 9ebd 0ffe 91bc 4efe a73d 15c5 1bbe
00000120: eccf f13c f0eb d53a 852a 993d 0941 453c
00000130: 796f 3b3e 1205 323b f963 51be 9bc9 21be
00000140: eec0 2d3e e342 c7bd fd1d 8e3d 982d 91b9
00000150: f1c1 673c 6a01 03be a12a 1d3b 087a 13be
00000160: d09a 0cbe df28 3bbc 30b8 0fbe ade0 653e
00000170: a77c a53c f836 0d3e c75d 0d3e e987 303e
00000180: f99b 17be 0e03 113e 25f6 313c 4470 0c3d
00000190: caff 4cbd 2860 cbbc 48d2 a1ba 6d09 243e
000001a0: a8d7 3f3d ba02 eabd add9 003e 2f5b 323e
000001b0: 79e2 173e 2dbc 683d f325 533e b330 b73c
000001c0: 4005 11be 4733 8d3e 3b02 243c 06f6 a1bd
000001d0: 3fc8 533c ccfd a73d d109 bc3d 468c d23d
000001e0: 85f2 bd3d 2a15 93bd c3a8 ddbd 58a3 ce3c
000001f0: 2ddb 213e b745 0c3d 8107 803d 98b8 ec3d
00000200: 09b6 94bd f472 e9bc cd06 f3bd 6e93 9abd
00000210: 5f5d 393d 1f56 ccbd f29f 0fbe b711 ea3d
00000220: a41c fbbc 00b3 a13d 08c8 dcbd df6f 053e
00000230: c6c1 3abd 3e65 e1bc 772a 7d3c c964 ae3d
00000240: d4e6 bebd 2387 d63d a57d 44bd 849f 0c3e
00000250: cef8 0fbe 9f2e 053d 9f86 7a3d 4cfd a73c
00000260: af89 98bd b364 4ebd 6688 e4bc c037 ee3c
00000270: 813e b33c cf59 85bd c122 ee3c 09bf d43d
00000280: c450 083e 7a23 00bd 5b64 723c 2038 bebb
00000290: 56c1 613e c88d f93c 02ca 68bd e6af 343d
000002a0: 81ee b6bd be2b b93d 237b 07bc 0235 54bd
000002b0: dc0b 89bd 39cd 49bd 5d00 8b3d 934d 693d
000002c0: 3a0f 47bd 49da c83c cd64 2c3c 8af6 0fbd
000002d0: 9b10 63bd 2c6b 383d 5f78 83bb ba84 7ebd
000002e0: 3eb6 9fbd 4723 643c 520c 0ebd 60f4 013d
000002f0: 9d1a c43c b576 edbd 2bb3 e73d ef22 bcbd
00000300: a548 dbbd 2b3a aebd 53b5 c2bc 353b 19bd
00000310: 1091 b0bd d5ba eeba 1921 073d 5d5e 533d
00000320: 1732 3bbd 0dc6 9c3d 416c b7bd d78c 02bd
00000330: 3b3f 2bbd 7dac 213d 49e6 1a3e e030 a7bd
00000340: aa5e c7bd e673 dc3d 26ec 11bc adf2 bd3d
00000350: 1c94 9e3d 6fef cd3c 9378 d83d 9140 9a3d
00000360: 7e77 f23d 4662 24be 21f7 e73b 09f6 783d
00000370: 17b1 12bd d513 20be f651 77be ec06 f43d
00000380: 8348 093e 8bbf 1ebe dc87 c73c 6961 843d
00000390: ea2c 8e3d 5e89 d13d 93b2 b23c 0c3b d43b
000003a0: 81da 9ebd 664e 1b3d 1e01 c23c 4029 6abd
000003b0: ea2e 9ebd 339b 1bbe cffa c5bd fa06 ccbd
000003c0: 0083 ea3d 2ed3 bc3c 7274 22be 5e94 c33d
000003d0: f3f5 37be 3eca 633d a9e4 36bd f3a4 bebd
000003e0: d72c 293d 376c 283e d596 f1bc 0ebb 8d3d
000003f0: d399 273e 3a05 0abe 5893 a13d d349 d7bd

encoder.6.bias f4 [32]
-0.1805892 0.092547484 -0.097089075 0.07179505 -0.060426172 0.018407742 -0.06032367 -0.063889675
0.029336195 0.024845498 0.027655413 -0.22533332 0.08072663 0.07151858 -0.1205332 0.007149752
0.071447335 0.03810044 0.0072063548 -0.100553766 -0.059270464 0.078337945 -0.082918644 0.05015491
0.08855781 0.05421241 0.012459488 0.06470155 0.056906193 0.048229266 0.08561501 0.055665944
00000000: 60ec 38be 8989 bd3d a3d6 c6bd 4809 933d
00000010: 6f81 77bd d5cb 963c f415 77bd 97d8 82bd
00000020: 7652 f03c c988 cb3c 9b8d e23c c7bd 66be
00000030: 0154 a53d 5578 923d 1cda f6bd 7848 ea3b
00000040: fb52 923d 350f 1c3d 4923 ec3b 22ef cdbd
00000050: 96c5 72bd a56f a03d 40d1 a9bd 3c6f 4d3d
00000060: cc5d b53d d50d 5e3d e122 4c3c 3f82 843d
00000070: 7816 693d 0d8c 453d ec56 af3d f901 643d

encoder.9.weight f4 [1, 32]
-0.1142931 0.08293758 -0.18534876 -0.07939237 -0.1637491 0.16604817 -0.1699378 -0.11523431
0.17631397 0.16690058 0.13994592 -0.21658024 0.11849367 0.08205514 -0.101424776 0.19850206
0.065571636 0.15609626 0.11946705 -0.11649946 -0.13731366 0.08479128 -0.1811636 0.14947191
0.067932464 0.09708976 -0.08484444 -0.15061405 0.088194825 0.08449253 0.1279222 0.116396554
00000000: 8012 eabd 2edb a93d 11cc 3dbe 7898 a2bd
00000010: d8ad 27be 8808 2a3e 2d04 2ebe f7ff ebbd
00000020: a68b 343e fce7 2a3e fc4d 0f3e 36c7 5dbe
00000030: cfac f23d 860c a83d cbb7 cfbd 2044 4b3e
00000040: 6c4a 863d b3d7 1f3e 24ab f43d 4597 eebd
00000050: f49b 0cbe 0da7 ad3d f382 39be 2a0f 193e
00000060: 2d20 8b3d ffd6 c63d ecc2 adbd 923a 1abe
00000070: 7d9f b43d 6b0a ad3d 0afe 023e 5161 ee3d

decoder.0.weight f4 [32, 1]
-0.24090017 0.72263604 0.87755096 0.6441909 -0.37949067 -0.83618903 -0.29889876 -0.87184024
0.27585867 0.4520839 -0.5097851 0.74847376 0.37422067 0.5476613 -1.0118008 -0.7992174
0.731948 0.9466377 0.83999836 -0.7753996 0.479884 -0.21603349 -0.7712557 0.07998809
1.0032794 -0.7116178 0.3846971 -0.35545215 0.09275901 0.6196488 0.22366334 0.098923475
00000000: 89ae 76be adfe 383f 2ea7 603f b2e9 243f
00000010: 9a4c c2be 7c10 56bf 4209 99be ec30 5fbf
00000020: 593d 8d3e 8a77 e73e 4781 02bf fa9b 3f3f
00000030: da99 bf3e 8833 0c3f b082 81bf 8399 4cbf
00000040: f260 3b3f d956 723f 220a 573f 9780 46bf
00000050: 5bb3 f53e e237 5dbe 0371 45bf ccd0 a33d
00000060: 766b 803f 962c 36bf 05f7 c43e d3fd b5be
00000070: 70f8 bd3d 4ea1 1e3f 0108 653e 6498 ca3d

decoder.0.bias f4 [32]
-1.2166828 0.52070093 0.94339806 -0.81774414 1.020219 -0.2648174 1.0229425 0.5796117
0.17660113 -0.3824868 0.77070636 0.2266631 -0.27234975 -1.0178587 0.36342156 0.3168672
0.40612254 -0.84131694 0.65468353 0.6772177 -0.3684667 -0.6545265 0.6817778 1.0283949
0.32352838 -0.19999737 0.33112407 0.478387 -0.3513802 0.43311173 0.74593866 0.15853582
00000000: 43bc 9bbf a84c 053f 8982 713f ae57 51bf
00000010: 8996 823f 2596 87be c8ef 823f 6f61 143f
00000020: edd6 343e 4fd5 c3be 034d 453f 5f1a 683e
00000030: 6d71 8bbe 3249 82bf 6412 ba3e 6b3c a23e
00000040: 4bef cf3e 8c60 57bf 5799 273f 245e 2d3f
00000050: aba7 bcbe 0c8f 27bf fd88 2e3f 72a2 833f
00000060: 83a5 a53e 1ccc 4cbe 1889 a93e 24ef f43e
00000070: 1be8 b3be d2c0 dd3e d6f5 3e3f 3757 223e

decoder.2.weight f4 [64, 32]
-0.21923146 -0.10488911 0.05787733 0.14864145 0.02139078 -0.07942831 -0.12240471 -0.014413718
-0.11328702 0.09083401 0.07740602 -0.4942795 -0.04054053 -0.089050494 0.15464297 -0.005736516
-0.12685192 -0.00463897 -0.10554313 0.10403482 -0.003363207 -0.033748437 0.075552136 -0.08375317
-0.4698944 0.053154316 0.108345106 -0.003332204 0.020196468 0.1375771 0.16369042 0.15659525
0.21463646 -0.025867699 0.17315099 -0.1755291 0.06418599 0.037979525 0.04853455 0.018102417
0.12113841 -0.037970375 -0.12179987 0.18964922 -0.0913615 0.09943992 -0.0067156116 -0.13971259
0.08127472 -0.09089147 0.07680827 0.14980368 -0.10861546 0.036652684 0.05873682 -0.12614477
-0.106871806 -0.020061962 0.060866363 0.022521913 0.022341888 -0.06438024 0.08895478 -0.08749423
-0.21427438 -0.182937 -0.10998593 -0.2880211 0.06403263 0.06891298 0.12867709 0.1136469
-0.024417987 -0.3172085 0.10088182 0.09990886 -0.25059354 0.083890475 -0.01739567 -0.0046576695
-0.0009774694 -0.24149692 0.09920888 0.076852694 -0.077602096 -0.08392244 -0.0723059 0.20840281
0.02830046 -0.08401621 0.0008677617 0.119717866 -0.18342817 0.057211395 -0.07997224 -0.16730039
0.030307889 0.06751485 -0.08030172 -0.15811272 -0.08060574 -0.039803 0.09199487 -0.112328134
0.03407164 -0.00041748583 0.1744845 -0.15880483 -0.00036357343 -0.051428527 0.047411144 -0.019178316
-0.029063642 -0.05166304 -0.13131662 0.07535373 -0.072622366 -0.16196583 -0.11636873 -0.08575712
0.067194745 -0.1170222 -0.13752705 -0.07443106 0.02538842 0.029367924 -0.05703082 0.1711122
-0.30968824 0.069859356 -0.14652932 0.12330426 -0.12519576 0.085072644 0.024124555 0.18453583
0.11030334 0.0055129486 0.163245 -0.019722555 0.12844168 -0.049701866 0.16861852 0.047511615
0.14081329 0.048097968 -0.12953229 -0.049241647 0.15175626 0.135922 0.09452373 0.12414306
-0.12555572 0.062167548 -0.05318068 0.06823085 0.09884849 0.11467929 0.02780649 0.14084692
0.04466559 -0.04961106 -0.15932031 -0.091302335 0.05502817 -0.1485296 -0.12927991 -0.096019834
-0.16839582 -0.17370853 -0.13309182 -0.16957687 0.07015319 -0.10094712 0.13520662 -0.13919735
0.016840398 0.16768299 -0.13013364 0.061362967 -0.06047658 0.027356282 0.13756882 0.077665076
0.05517827 0.16645388 -0.052089795 -0.07912634 -0.12138625 0.13812585 -0.16301267 -0.063517004
0.11536811 -0.073754735 -0.033419337 0.046025984 0.11606527 -0.16913362 0.17673919 -0.014017524
0.15616049 0.08936342 0.24958485 -0.10343876 0.061752703 -0.08811541 -0.16777153 -0.19162293
-0.121363 -0.08279143 0.09568115 0.09947975 0.040604673 -0.08767374 -0.047880977 0.14867012
0.12078888 -0.4198553 0.0915412 0.1917657 0.022972725 0.077238955 0.039975144 0.08007165
-0.117628485 0.068310514 -0.08091124 0.15113033 -0.07136397 0.0797057 -0.082852714 -0.07954052
-0.025703967 0.01214084 -0.15577604 0.15922172 0.1357985 -0.053006507 -0.038199514 0.03237118
0.004475251 -0.13350773 -0.10005607 0.0021432936 0.101765916 0.037621647 -0.033790752 -0.17181818
-0.14584674 0.09487383 -0.15878916 -0.12643054 -0.03071642 0.16776724 0.041113958 0.05001065
00000000: 367e 60be 1ad0 d6bd c710 6d3d 7735 183e
00000010: b83b af3c 4fab a2bd 52af fabd 8427 6cbc
00000020: 0603 e8bd 2e07 ba3d 0c87 9e3d 3412 fdbe
00000030: d40d 26bd 1b60 b6bd ba5a 1e3e 62f9 bbbb
00000040: 78e5 01be 8002 98bb ff26 d8bd 3510 d53d
00000050: 4069 5cbb cd3b 0abd 14bb 9a3d c886 abbd
00000060: 0096 f0be 57b8 593d 0ae4 dd3d 1b61 5abb
00000070: 1073 a53c 03e1 0c3e 769e 273e 815a 203e
00000080: a9c9 5b3e 7fe8 d3bc 7e4e 313e e6bd 33be
00000090: f273 833d 6b90 1b3d 2acc 463d 854b 943c
000000a0: 6a17 f83d d386 1bbd 3672 f9bd 6833 423e
000000b0: bd1b bbbd 28a7 cb3d a20e dcbb d110 0fbe
000000c0: 5c73 a63d 4f25 babd a74d 9d3d 2366 193e
000000d0: c871 debd 2021 163d 0596 703d 182c 01be
000000e0: 9bdf dabd fc58 a4bc 024f 793d e07f b83c
000000f0: 5606 b73c cad9 83bd ec2d b63d 2d30 b3bd
00000100: be6a 5bbe d653 3bbe 4e40 e1bd 8077 93be
00000110: 8a23 833d 4022 8d3d edc3 033e b5bf e83d
00000120: 3b08 c8bc 2769 a2be 219b ce3d 049d cc3d
00000130: cc4d 80be c5ce ab3d 5d81 8ebc 5d9f 98bb
00000140: 6e1e 80ba f84a 77be 062e cb3d f264 9d3d
00000150: d9ed 9ebd 87df abbd 1e15 94bd 8c67 553e
00000160: 5ed6 e73c b110 acbd 807a 633a a42e f53d
00000170: 98d4 3bbe 7f56 6a3d 7cc8 a3bd cb50 2bbe
00000180: 4048 f83c 3a45 8a3d 3a75 a4bd 4de8 21be
00000190: 9f14 a5bd 7808 23bd ce67 bc3d 4b0c e6bd
000001a0: b48e 0b3d 00e2 dab9 11ac 323e bc9d 22be
000001b0: 009e beb9 b8a6 52bd 3032 423d d81b 9dbc
000001c0: e016 eebc a09c 53bd dd77 06be 0e53 9a3d
000001d0: 09bb 94bd 5fda 25be bb52 eebd 6ea1 afbd
000001e0: 669d 893d 56a9 efbd e4d3 0cbe 506f 98bd
000001f0: 60fb cf3c 0095 f03c 2699 69bd 0938 2f3e
00000200: 758f 9ebe 6c12 8f3d c80b 16be f286 fc3d
00000210: 5133 00be 913a ae3d dca0 c53c f6f6 3c3e
00000220: b8e6 e13d f7a5 b43b b329 273e 3291 a1bc
00000230: 3786 033e 2f94 4bbd 55aa 2c3e 8a9b 423d
00000240: 5c31 103e 6002 453d 1da4 04be 9cb1 49bd
00000250: fe65 1b3e 232f 0b3e a895 c13d b73e fe3d
00000260: ae91 00be 66a3 7e3d fcd3 59bd 9ebc 8b3d
00000270: 1471 ca3d fadc ea3d 70ca e33c 2d3a 103e
00000280: 44f3 363d f834 4bbd dd24 23be b8fc babd
00000290: 3865 613d 2518 18be f461 04be 0ca6 c4bd
000002a0: f46f 2cbe a6e0 31be 3949 08be 8fa5 2dbe
000002b0: 7aac 8f3d 5dbd cebd 9b73 0a3e c089 0ebe
000002c0: e0f4 893c 17b5 2b3e c141 05be bc57 7b3d
000002d0: 4ab6 77bd 481a e03c d7de 0c3e de0e 9f3d
000002e0: 9c02 623d e372 2a3e 1c5c 55bd fe0c a2bd
000002f0: 5b99 f8bd dd70 0d3e cbec 26be 3415 82bd
00000300: 1e46 ec3d b90c 97bd b7e2 08bd be85 3c3d
00000310: a1b3 ed3d 5d31 2dbe 1efb 343e c2a9 65bc
00000320: 89e8 1f3e 2b04 b73d 2c93 7f3e b3d7 d3bd
00000330: 67f0 7c3d da75 b4bd 4dcc 2bbe cd38 44be
00000340: 2a8d f8bd 8e8e a9bd 7bf4 c33d 0abc cb3d
00000350: 1651 263d 4a8e b3bd d81e 44bd fb3c 183e
00000360: 2960 f73d 46f7 d6be f479 bb3d 3a5e 443e
00000370: 4c31 bc3c 752f 9e3d fabc 233d 9bfc a33d
00000380: 34e7 f0bd 62e6 8b3d cbb4 a5bd e9c1 1a3e
00000390: 4627 92bd be3c a33d afae a9bd 24e6 a2bd
000003a0: 2091 d2bc 60ea 463c c183 1fbe 050b 233e
000003b0: c30e 0b3e 5a1d 59bd 1877 1cbd a497 043d
000003c0: 20a5 923b 40b6 08be 32ea ccbd 8076 0c3b
000003d0: a66a d03d 2819 1a3d 2c68 0abd 1bf1 2fbe
000003e0: d958 15be 364d c23d a099 22be 0277 01be
000003f0: 00a1 fbbc 2dcb 2b3e 1c67 283d f8d7 4c3d

decoder.2.bias f4 [64]
0.14464605 -0.053883553 0.120410345 -0.10563332 0.010553254 0.06248468 -0.039841194 0.030505717
-0.15014274 0.024982052 0.003081916 -0.03125132 0.09505957 0.14624345 0.05114752 -0.056539886
-0.075095184 -0.007197882 -0.006024223 0.06823258 -0.15326028 -0.065769635 -0.019622281 -0.0831607
-0.023562433 0.026882848 0.04702653 -0.0748608 0.029730054 0.022852222 0.19407342 0.14190558
0.044628784 -0.050457895 0.090910666 0.14135793 0.08809091 0.17410107 0.12767301 0.14536309
-0.0439305 0.20074576 -0.10840541 -0.15800548 -0.019419005 -0.14152189 -0.08687136 0.11067916
0.117011614 -0.05153938 0.237666 0.046368685 -0.1967317 0.020253262 0.14787094 0.13968717
-0.07432472 0.0076639247 0.21949188 0.10936821 -0.0056735193 0.011172856 0.2889404 -0.036296926
00000000: 181e 143e 00b5 5cbd b399 f63d 4856 d8bd
00000010: 8ee7 2c3c f0ef 7f3d 8530 23bd 20e7 f93c
00000020: 05bf 19be 29a7 cc3c f8f9 493b 6201 00bd
00000030: 98ae c23d d8c0 153e 1080 513d 5e96 67bd
00000040: 81cb 99bd 36dc ebbb d866 c5bb 86bd 8b3d
00000050: 43f0 1cbe 3bb2 86bd e8be a0bc 2850 aabd
00000060: 0106 c1bc 6b39 dc3c e49e 403d 9e50 99bd
00000070: 718c f33c 9534 bb3c 2fbb 463e b24f 113e
00000080: accc 363d f0ac 4ebd 5f2f ba3d 22c0 103e
00000090: 0269 b43d 8d47 323e b7bc 023e 10da 143e
000000a0: 78f0 33bd 4c90 4d3e a803 debd 30cc 21be
000000b0: 9b14 9fbc 1deb 10be 9de9 b1bd c1ab e23d
000000c0: c9a3 ef3d f51a 53bd b75e 733e 17ed 3d3d
000000d0: 0974 49be 2bea a53c 7b6b 173e 270a 0f3e
000000e0: 8f37 98bd a921 fb3b 7bc2 603e 71fc df3d
000000f0: eee8 b9bb 5b0e 373c ffef 933e 16ac 14bd

decoder.4.weight f4 [128, 64]
-0.11429642 0.040471125 -0.07102913 0.027064964 -0.09438503 0.064910665 -0.03071914 -0.08341901
-0.011616111 -0.05367585 -0.025159206 -0.047531657 0.07054829 0.09064079 -0.061897323 -0.078990445
0.04036548 0.10944806 -0.04747419 0.010523623 0.08120903 0.044512503 -0.022823796 -0.07196959
-0.033231072 -0.08825591 0.0011125049 -0.10101681 -0.017587243 0.047761425 0.0062082624 0.025390178
0.08077162 -0.10407938 -0.06548927 0.018664308 0.10441227 -0.075619616 -0.095707916 -0.02498003
0.06017196 -0.07908431 0.06014638 -0.0992322 0.054929867 -0.12785484 0.037669715 -0.0076534464
-0.051146988 -0.005413002 0.051727273 -0.04559174 -0.06592266 -0.024518464 0.04603543 0.029261362
-0.09027107 -0.054386258 -0.07217427 0.010470885 0.06651422 -0.037272036 -0.099099174 0.0270302
0.108251795 -0.045051415 0.05094438 0.083104864 -0.04189768 0.036001652 0.07758967 0.07493818
0.04187476 -0.037372716 0.05467386 0.059744965 -0.07634354 0.060621355 -0.1398758 -0.10455056
0.013968665 0.06263008 -0.13931605 0.074793346 -0.0966516 -0.060658924 0.01496011 -0.16831559
-0.027814308 0.04433945 0.019945268 0.032927815 -0.078845665 0.0770421 -0.011670535 0.10205651
0.11679408 -0.02315709 0.009494987 0.051898666 0.0449023 -0.007708298 -0.10988368 0.02973984
0.043543518 0.15719259 -0.07051504 -0.08590875 -0.056619786 0.07982521 0.0179146 -0.1347306
-0.10701892 -0.019666366 -0.03684945 0.06689507 0.06944919 -0.049247406 0.015563815 0.10198295
0.063262776 -0.12066492 -0.0018762067 0.07567386 0.1270004 0.13471512 0.08276918 0.03030816
0.047417663 -0.033536155 0.107610226 -0.06636217 0.05769003 0.09451294 0.05234836 0.09631999
0.0625613 -0.049214933 0.093804725 -0.020943532 0.05476324 0.07928153 0.060658693 -0.005423346
0.056133125 -0.096364886 -0.034182593 -0.008427085 -0.1374212 0.092691824 0.04032691 -0.06481275
0.06422573 0.060766045 0.108070835 0.009403149 0.14518979 0.06304436 -0.013630165 0.06964397
0.08463506 0.02920495 -0.021627381 0.021456594 -0.030421894 0.030223913 0.014203479 -0.001878204
0.08253485 0.028386021 0.0022611674 -0.013446915 0.11966673 0.018475223 -0.039905146 0.08176686
-0.08412666 -0.004967994 -0.068362944 0.08533973 0.14378186 0.07936975 -0.076329894 -0.11380678
0.04141453 -0.1328382 -0.017292827 -0.096602134 -0.020065412 0.053161927 0.0269192 -0.0042799697
-0.05556221 0.09168126 0.020435574 -0.04166177 -0.02426218 -0.039636478 -0.005517213 -0.030956581
-0.10587431 -0.108082764 -0.04005205 0.020274729 -0.07671966 0.042687897 0.095567025 0.084258735
0.036715742 0.11156675 0.07451075 -0.05105231 0.08774561 0.05414362 -0.015928566 0.038420092
0.0455677 0.071959585 0.027609836 0.065058425 -0.07687079 -0.055380333 -0.033901643 0.027615007
-0.117651425 0.06603439 -0.06174354 0.057066813 0.012360939 0.008952227 0.018666105 0.08687125
0.031954538 -0.013855824 -0.061650492 -0.048588905 0.06114685 -0.05387168 0.08522599 0.08402223
0.10321562 -0.050008394 -0.014303286 0.005815434 -0.07003065 -0.13821144 0.08148103 -0.061089292
0.105312645 -0.00041725844 0.0044323397 -0.0090128975 -0.084155954 -0.1299284 0.0907367 -0.0158128
00000000: 3e14 eabd 0dc5 253d b877 91bd 58b7 dd3c
00000010: f04c c1bd e2ef 843d b5a6 fbbc 96d7 aabd
00000020: 8051 3ebc 35db 5bbd ae1a cebc 8eb0 42bd
00000030: 9f7b 903d e1a1 b93d 0c88 7dbd bec5 a1bd
00000040: 4656 253d 4e26 e03d 4c74 42bd 466b 2c3c
00000050: eb50 a63d be52 363d f8f8 babc cb64 93bd
00000060: 4e1d 08bd 84bf b4bd 78d1 913a e7e1 cebd
00000070: 1f13 90bc 7ca1 433d ae6e cb3b 10ff cf3c
00000080: 976b a53d 9227 d5bd 3d1f 86bd e4e5 983c
00000090: 1ad6 d53d 75de 9abd 8302 c4bd eba2 ccbc
000000a0: e076 763d f4f6 a1bd 0d5c 763d 403a cbbd
000000b0: 24fe 603d 61ec 02be 8f4b 1a3d c3c9 fabb
000000c0: 817f 51bd 8d5f b1bb fadf 533d 68be 3abd
000000d0: 7602 87bd f2da c8bc a68f 3c3d 86b5 ef3c
000000e0: 0ae0 b8bd 20c4 5ebd 1bd0 93bd 138e 2b3c
000000f0: 9b38 883d 90aa 18bd 82f4 cabd 706e dd3c
00000100: 1eb3 dd3d d587 38bd 0eab 503d e232 aa3d
00000110: e79c 2bbd 7876 133d 55e7 9e3d 3079 993d
00000120: de84 2b3d 2214 19bd b3f1 5f3d 23b7 743d
00000130: 005a 9cbd 194e 783d 9a3b 0fbe 9b1e d6bd
00000140: d4dc 643c 3344 803d dea8 0ebe 412d 993d
00000150: 46f1 c5bd 7e75 78bd 401b 753c ec5a 2cbe
00000160: d5da e3bc 489d 353d 4264 a33c 51df 063d
00000170: d679 a1bd 40c8 9d3d c635 3fbc 0103 d13d
00000180: bc31 ef3d f0b3 bdbc dd90 1b3c b293 543d
00000190: 79eb 373d e495 fcbb b20a e1bd f7a0 f33c
000001a0: b05a 323d 18f7 203e 306a 90bd edf0 afbd
000001b0: 26ea 67bd 667b a33d a4c1 923c d2f6 09be
000001c0: bc2c dbbd 5c1b a1bc 73ef 16bd 4800 893d
000001d0: 603b 8e3d a6b7 49bd 5fff 7e3c 70dc d03d
000001e0: ea8f 813d 2b1f f7bd 0deb f5ba e6fa 9a3d
000001f0: 650c 023e c3f2 093e e382 a93d d248 f83c
00000200: 0639 423d 355d 09bd c062 dc3d e4e8 87bd
00000210: 624c 6c3d 0090 c13d 3c6b 563d 6a43 c53d
00000220: 2420 803d 9995 49bd b11c c03d c591 abbc
00000230: 6b4f 603d 5b5e a23d 4075 783d 53b6 b1bb
00000240: d9eb 653d f45a c5bd 0c03 0cbd c211 0abc
00000250: 25b8 0cbe 36d5 bd3d d42d 253d 8cbc 84bd
00000260: c888 833d d1e5 783d 3e54 dd3d aa0f 1a3c
00000270: a2ac 143e 671d 813d 0e51 5fbc 7fa1 8e3d
00000280: 2555 ad3d 383f ef3c e82b b1bc bdc5 af3c
00000290: 5637 f9bc 2498 f73c b5b5 683c 122e f6ba
000002a0: 0808 a93d cd89 e83c 1830 143b 7350 5cbc
000002b0: d513 f53d 5a59 973c 9473 23bd 6275 a73d
000002c0: 994a acbd 8eca a2bb df01 8cbd 99c6 ae3d
000002d0: 8d3b 133e 9c8c a23d d952 9cbd 8713 e9bd
000002e0: 48a2 293d bd06 08be b0a9 8dbc 57d7 c5bd
000002f0: 3860 a4bc 52c0 593d a785 dc3c fd3e 8cbb
00000300: 3395 63bd 62c3 bb3d 8168 a73c 88a5 2abd
00000310: 7bc1 c6bc dc59 22bd bdc9 b4bb a898 fdbc
00000320: a1d4 d8bd 7f5a ddbd 9e0d 24bd 3017 a63c
00000330: 321f 9dbd 81d9 2e3d a5b8 c33d d88f ac3d
00000340: 3f63 163d 1c7d e43d 1899 983d 3a1c 51bd
00000350: f8b3 b33d b3c5 5d3d a07c 82bc 635e 1d3d
00000360: 32a5 3a3d 8c5f 933d 062e e23c 5a3d 853d
00000370: 6f6e 9dbd 7dd6 62bd 73dc 0abd de38 e23c
00000380: 3bf3 f0bd 0a3d 873d cbe6 7cbd e4be 693d
00000390: 8985 4a3c 5dac 123c a9e9 983c 8ee9 b13d
000003a0: c3e2 023d 8a03 63bc 3a85 7cbd 2905 47bd
000003b0: 1f75 7a3d 8da8 5cbd f78a ae3d d913 ac3d
000003c0: b662 d33d 9ad5 4cbd 5458 6abc 658f be3b
000003d0: 3b6c 8fbd 4d87 0dbe 87df a63d c438 7abd
000003e0: 28ae d73d 7bc3 dab9 293d 913b d5aa 13bc
000003f0: f559 acbd f30b 05be 2ad4 b93d d889 81bc

decoder.4.bias f4 [128]
-0.026548112 0.14045693 0.09633246 -0.069834165 0.12273461 -0.027019655 0.031628683 0.06863884
-0.008974761 -0.014527702 0.033800464 0.23123917 0.14097781 -0.049093552 0.16714726 0.021789817
-0.045775756 -0.07970108 0.099334374 0.08220619 0.112182796 -0.01868042 0.07901049 -0.118879795
-0.07834828 -0.059877757 0.06886134 0.1765328 -0.02021887 -0.040889136 -0.052496545 0.0822409
0.13493007 0.0623112 -0.17911921 0.050459795 -0.07090399 0.12534526 -0.059239507 -0.06455788
-0.12141149 0.06307312 0.06102437 0.17407311 -0.023772266 0.12984467 0.006028943 0.08375695
-0.063267656 0.076284304 -0.0025964144 0.013290106 0.06537555 0.049604446 0.0064013917 0.04543196
-0.085486844 0.07868075 0.100527756 0.09283593 -0.013249942 0.033203125 0.13606095 -0.038575698
-0.121542 -0.02120541 -0.07799407 -0.032791004 0.04637693 -0.08329798 -0.0659041 0.06303031
-0.18691844 0.11353058 -0.028581746 0.07440341 -0.11996585 0.11869568 0.05568799 -0.015046345
0.14190832 -0.029695716 -0.0064208414 -0.12518217 -0.20490527 0.117728196 -0.05623305 0.062158316
-0.050162986 0.05792174 0.016085142 0.13183199 -0.079598226 0.14379802 0.01815046 0.069987275
-0.021644488 -0.09561076 0.11143043 -0.061849378 -0.121586315 -0.0815219 -0.13157983 0.054951828
0.13913257 0.030312499 0.12971228 -0.035625163 -0.1111598 0.024647295 -0.10640845 0.008681695
-0.045102816 0.078606024 0.042882975 -0.11642124 -0.0143199945 0.07406439 -0.05318564 0.058368746
-0.038332414 -0.033694144 0.0037643733 -0.015211216 0.0046423515 0.01034085 -0.08410974 0.11005599
00000000: 6d7b d9bc f1d3 0f3e f449 c53d 3705 8fbd
00000010: 495c fb3d 5358 ddbc 148d 013d 8592 8c3d
00000020: e00a 13bc 9905 6ebc 5b72 0a3d f6c9 6c3e
00000030: 7d5c 103e 5216 49bd a728 2b3e 8f80 b23c
00000040: 5c7f 3bbd 523a a3bd d26f cb3d b85b a83d
00000050: 18c0 e53d ae07 99bc 40d0 a13d 4077 f3bd
00000060: 1075 a0bd 6142 75bd 2d07 8d3d 04c5 343e
00000070: 0ba2 a5bc 5e7b 27bd 9e06 57bd eb6d a83d
00000080: 1c2b 0a3e 073a 7f3d 076b 37be eeae 4e3d
00000090: 1c36 91bd 825a 003e 20a5 72bd ec36 84bd
000000a0: 96a6 f8bd 7b2c 813d b1f4 793d 3940 323e
000000b0: 0ebe c2bc 00f6 043e 718e c53b c488 ab3d
000000c0: 7992 81bd f23a 9c3d 9b28 2abb bfbe 593c
000000d0: 9ee3 853d 082e 4b3d c4c2 d13b dd16 3a3d
000000e0: ba13 afbd 6023 a13d 7fe1 cd3d c420 be3d
000000f0: 4916 59bc 0000 083d 9053 0b3e 8d01 1ebd
00000100: 03eb f8bd f8b6 adbc 5bbb 9fbd dc4f 06bd
00000110: bcf5 3d3d 2298 aabd bbf8 86bd 0916 813d
00000120: 8c67 3fbe b982 e83d 4424 eabc d160 983d
00000130: a8b0 f5bd b816 f33d 1719 643d f284 76bc
00000140: 6a50 113e 6e44 f3bc ec65 d2bb c12f 00be
00000150: b0d2 51be 7b1b f13d a054 66bd b899 7e3d
00000160: b477 4dbd 593f 6d3d fdc4 833c f7fe 063e
00000170: 6504 a3bd ca3f 133e 46b0 943c 7d55 8f3d
00000180: c84f b1bc 93cf c3bd a335 e43d c655 7dbd
00000190: 3f02 f9bd f4f4 a6bd ddbc 06be 2b15 613d
000001a0: c578 0e3e eb51 f83c 4cd3 043e b1eb 11bd
000001b0: c0a7 e3bd 20e9 c93c acec d9bd ab3d 0e3c
000001c0: bbbd 38bd 32fc a03d 0fa6 2f3d 426e eebd
000001d0: 699e 6abc 12af 973d 30d9 59bd 1114 6f3d
000001e0: 7302 1dbd df02 0abd b4b3 763b 7738 79bc
000001f0: de1e 983b ab6c 293c ba41 acbd 0965 e13d
