Save_Models/model-lat11.pth (torch, 193526 bytes, 16 tensors)

encoder.0.weight f4 [128, 99]
0	0xbd18455d	-0.037175525
1	0xbc9c08ff	-0.019047258
2	0x3dc6822f	0.09692799
3	0x3d820cd7	0.06350105
4	0x3dbba958	0.09163159
5	0xbdb12849	-0.08650262
6	0x3cb42f79	0.021995293
7	0x3c8716e7	0.016490413
8	0x3da47889	0.08030803
9	0x3c920abb	0.017827382
10	0xbd6e7a34	-0.05822201
11	0x3d1d5782	0.038413532
12	0xbda4957f	-0.080363266
13	0x3b32fa9e	0.0027310024
14	0x3cbe71aa	0.023247559
15	0xbdbd14a5	-0.09232453
16	0xbbfa1e7b	-0.007633028
17	0x3cdfcea5	0.027320215
18	0x3d128f2a	0.035781063
19	0xbbd5f069	-0.0065289033
20	0xbcf0e644	-0.029406674
21	0xbc9584cf	-0.018251805
22	0xbb575e08	-0.0032862443
23	0x3c2afaad	0.010435742
24	0x3d9f3c88	0.07775217
25	0x3d55138f	0.052020606
26	0xbca35ddd	-0.019942218
27	0x3db337bf	0.08750867
28	0x3c807cc4	0.015684493
29	0xbca77ded	-0.020445788
30	0x3d8d9cbd	0.06914661
31	0xbdd5810b	-0.104250036
32	0x3b1a3643	0.0023530878
33	0x3d2bc71c	0.041937932
34	0x3db493c4	0.088172466
35	0xbd5bb22e	-0.053636722
36	0x3cdadbcb	0.026716134
37	0xbab57d53	-0.0013846554
38	0xbdb08d74	-0.0862073
39	0xbd1d1abd	-0.038355578
40	0xbd58139f	-0.052753087
41	0xbde22753	-0.11042657
42	0xbd4e138f	-0.05031162
43	0x3d940e09	0.072292395
44	0xbd5733fa	-0.052539803
45	0xbddfe86e	-0.10933004
46	0xbd3910aa	-0.045181908
47	0xbd941e71	-0.07232369
48	0xbda1fce0	-0.0790956
49	0x3da20f8c	0.079131216
50	0xbc318cb3	-0.010836768
51	0xbdcf4f1a	-0.10122509
52	0xbd31c30a	-0.043398894
53	0xbc9fb90e	-0.01949742
54	0xbc03b1b4	-0.008037973
55	0x3d02129f	0.03175604
56	0xbd63da8e	-0.055628352
57	0xbd123028	-0.035690457
58	0xbddbd261	-0.10733486
59	0x3da41576	0.08011906
60	0xbcbd4e71	-0.023108693
61	0x3cf56c5a	0.029958893
62	0x3da34604	0.07972339
63	0x3cca3c18	0.024686858
64	0xbd9cebd0	-0.07662165
65	0xbc46dcf9	-0.012137645
66	0xbd91dad7	-0.071218185
67	0xbdaedc86	-0.08538155
68	0x3d7549d4	0.05988486
69	0x3d5eb348	0.054370195
70	0xbdad8085	-0.08471779
71	0x3b9ac5e8	0.0047232993
72	0x3d9f4ff5	0.077789225
73	0x3c0c9d18	0.008582376
74	0xbbb46cd8	-0.0055061392
75	0x3b4282d7	0.0029680037
76	0xbdaa6513	-0.083200596
77	0xbc976815	-0.018482247
78	0xbd6b9b59	-0.057521198
79	0x3da618cc	0.081101984
80	0xbd469548	-0.04848221
81	0xbd2c5870	-0.042076528
82	0x3d0dca7d	0.034616936
83	0x3cf8827c	0.030335657
84	0x3d00e2ed	0.031466413
85	0xbcef7dc9	-0.029234784
86	0xbb03a5fe	-0.0020087953
87	0xbc1665eb	-0.009179573
88	0xbd0d6f63	-0.034530055
89	0xbd8e54f5	-0.06949798
90	0xbde3216f	-0.11090361
91	0x3c875e25	0.016524384
92	0xbdbaaa23	-0.09114482
93	0xbdc72368	-0.0972355
94	0xbae3f724	-0.0017392379
95	0xbddecddc	-0.10879108
96	0xbc3d923c	-0.0115705095
97	0x3c014a86	0.007891303
98	0xbd765993	-0.06014402
99	0xbcc4f369	-0.024041848
100	0xbd39d713	-0.045371126
101	0xbc3e805d	-0.011627284
102	0x3d469b92	0.048488207
103	0xbd2ccd72	-0.042188115
104	0x3d9d3a8e	0.07677184
105	0x3d784611	0.060613696
106	0x3d4bb747	0.049735334
107	0x3d0a07f1	0.03369898
108	0xbdbaf8ed	-0.0912951
109	0xbb844e58	-0.0040376596
110	0xbd375f8d	-0.04476886
111	0x3d6bd466	0.057575606
112	0xbde8e672	-0.11372079
113	0xbdc3afa9	-0.09554989
114	0xbd6c2593	-0.05765302
115	0xbd0bd5b3	-0.034139346
116	0xbc6d15b1	-0.014470504
117	0xbdb78366	-0.08960609
118	0xbb5dc926	-0.0033841818
119	0x3c2811da	0.010258162
120	0xbd5ebb2c	-0.05437772
121	0x3cff6579	0.031176316
122	0x3ce6437b	0.02810835
123	0xbc9999db	-0.018750122
124	0x3c8b631b	0.01701503
125	0xbc421cba	-0.011847669
126	0x3d892a34	0.06697503
127	0x3d8fa4ac	0.070138305
128	0x3d91b305	0.071142234
129	0x3d95f2b0	0.073216796
130	0xbc9128c1	-0.017719628
131	0x3ae32748	0.0017330432
132	0x3d54d513	0.051961016
133	0x3d4ce345	0.05002143
134	0x3d96694d	0.07344303
135	0xbca300a7	-0.019897772
136	0x3cc8fc34	0.024534322
137	0x3dd4dad4	0.10393301
138	0x3c752c80	0.014964223
139	0x3d994977	0.074847154
140	0xbd019e07	-0.031644847
141	0xbdb77d28	-0.089594185
142	0x3d8f624e	0.07001172
143	0x3d2ebb3a	0.042659022
144	0xbb33cf88	-0.002743693
145	0xbd019ae4	-0.031641856
146	0xbcf15a63	-0.029462045
147	0xbdb4deb9	-0.088315435
148	0xbd248ef1	-0.040175382
149	0x3da531a7	0.08066111
150	0x3d5432c7	0.051806238
151	0x3da4cf72	0.080473796
152	0x3cc38f6c	0.0238721
153	0x3bca0b70	0.0061659142
154	0xbdca883d	-0.09889267
155	0xbd705e53	-0.058683705
156	0xbd14354b	-0.036183637
157	0x3c927000	0.017875671
158	0x3dca120b	0.09866723
159	0xbd0e0fad	-0.03468292
160	0xbbe27260	-0.006910607
161	0xbd840079	-0.06445403
162	0x3ddc02b8	0.10742706
163	0xbd42b5f5	-0.04753681
164	0x3ca6e08b	0.020370742
165	0x3d4f50ab	0.05061404
166	0xbd760d23	-0.060071122
167	0x3d8db71c	0.06919691
168	0x3c9957ab	0.018718561
169	0xbd1086d6	-0.03528484
170	0xbd86710f	-0.06564533
171	0x3c4c3482	0.012463691
172	0x3caeb0de	0.021324571
173	0xbd65d8f1	-0.056115095
174	0xbca54a3b	-0.020176997
175	0xbda912a9	-0.08255512
176	0x3d9d1eca	0.07671888
177	0x3dc42b0b	0.09578522
178	0x3c0c423a	0.0085607115
179	0x3d8c22f0	0.06842601
180	0xbd044bc4	-0.03229882
181	0x3df2f097	0.11862295
182	0xbd0de2ab	-0.034639996
183	0x3d7c25d1	0.061559502
184	0x3dc3c098	0.09558219
185	0xbc3564e4	-0.0110714175
186	0x3d0821bd	0.0332353
187	0x3d8caa42	0.068684116
188	0x3d978e0f	0.074001424
189	0xbc90a93d	-0.017658824
190	0x3de2d3d9	0.11075563
191	0x3dbc0191	0.09179986
192	0x3db6af71	0.089201815
193	0xbcb14843	-0.021640902
194	0xbcc57c39	-0.024107086
195	0xbd420c6e	-0.047375135
196	0x3d85d07e	0.06533907
197	0x3c3b04b8	0.011414699
198	0xbd664912	-0.05622203
199	0xbdbe808a	-0.09301861
200	0xbb1784ef	-0.0023120006
201	0x3b328f78	0.0027246159
202	0x3cd21a1a	0.025647212
203	0xbd66ab07	-0.056315448
204	0x3d409c40	0.04702401
205	0x3d043f5f	0.032286998
206	0x3d3a778d	0.04552417
207	0xbdc888e5	-0.097917356
208	0x3c816552	0.015795384
209	0x3d47662d	0.048681427
210	0xbd81feda	-0.06347437
211	0xbdc2f836	-0.09519999
212	0x3d423069	0.04740945
213	0x3cc71500	0.024302006
214	0xbdb8f152	-0.09030403
215	0xbd9a7132	-0.075411215
216	0x3cceae78	0.025229678
217	0xbda9a01a	-0.0828249
218	0x3dacc296	0.08435552
219	0x3d532ce5	0.051556487
220	0xbdd92335	-0.10602418
221	0x3d612079	0.05496261
222	0x3d5e7147	0.05430725
223	0xbcd23ac7	-0.025662793
224	0x3d2cc3d0	0.04217893
225	0xbda8d56a	-0.082438305
226	0xbcbd2731	-0.023089977
227	0x3ae146b8	0.0017187214
228	0x3d3b5140	0.045731783
229	0xbd90b782	-0.07066251
230	0xbb94738e	-0.0045303768
231	0xbd192caf	-0.03739613
232	0xbdaebda3	-0.08532264
233	0xbda17706	-0.0788403
234	0xb9a136dc	-0.00030749186
235	0xbc389702	-0.011266472
236	0xbcb12730	-0.021625131
237	0xbd9187d9	-0.07105989
238	0x3cc34242	0.023835305
239	0xbdd177d6	-0.10227935
240	0x3b77ee7c	0.0037831357
241	0xbda52cae	-0.080651626
242	0xbd2a359a	-0.041555025
243	0xbdcb030b	-0.0991269
244	0xbdc5648c	-0.096383184
245	0xbd88f8bf	-0.066880696
246	0xbc76ddd5	-0.015067537
247	0x3d998996	0.074969456
248	0x3da91276	0.08255474
249	0xbd436a02	-0.04770852
250	0x3c9db0d7	0.019249363
251	0xbd0e12da	-0.034685947
252	0xbdc9291d	-0.09822295
253	0xbda8c282	-0.082402244
254	0x3db2e139	0.08734364
255	0x3cd7feba	0.02636658

encoder.0.bias f4 [128]
0	0xbdfb7fb4	-0.12280217
1	0xbe46b84c	-0.19406241
2	0xbddfe36d	-0.1093205
3	0xbd878096	-0.06616323
4	0xbe4babde	-0.19889781
5	0xbd2ed6bb	-0.04268525
6	0xbef2592e	-0.47333664
7	0xbcd1e7ff	-0.02562332
8	0xbe6f228e	-0.23353025
9	0xbe145d02	-0.14488605
10	0xbe889595	-0.26676622
11	0xbddf91ca	-0.10916479
12	0xbe559b76	-0.20860085
13	0xbea2d1ca	-0.3180068
14	0xbdd95a3c	-0.10612914
15	0xbe13a2b2	-0.14417532
16	0xbe0553b0	-0.13020205
17	0xbe0fb664	-0.1403442
18	0xbe78bf69	-0.24291767
19	0xbe03b1ae	-0.12860748
20	0xbe9b618b	-0.30347857
21	0xbe86d702	-0.26335913
22	0xbe48c15c	-0.19605011
23	0xbe7ceaed	-0.24698992
24	0x3e18827a	0.14893523
25	0xbe0f79ad	-0.1401126
26	0xbe5a6e18	-0.2133106
27	0xbe1f3527	-0.1554762
28	0xbe70945b	-0.23494093
29	0xbe3cf3f6	-0.18452439
30	0xbd9b2903	-0.07576182
31	0xbe90b6cc	-0.28264463
32	0xbdb355a4	-0.08756569
33	0xbdaebaf7	-0.085317545
34	0xbe421721	-0.18954135
35	0xbdeddb24	-0.116140634
36	0xbd68bcc3	-0.056820642
37	0x3e9531d2	0.29139572
38	0xbe90d76e	-0.2828936
39	0xbd1b742e	-0.037952594
40	0xbd027f29	-0.03185955
41	0xbe34ef09	-0.1766931
42	0xbd8936fb	-0.0669994
43	0xbe9258a8	-0.28583264
44	0xbe2a58d0	-0.16635442
45	0xbe9d43e7	-0.30715868
46	0xbeaf52ed	-0.34242955
47	0xbed90ad1	-0.42391065
48	0xbc4c5bb4	-0.012473036
49	0xbeb1a0c2	-0.3469296
50	0xbe285c15	-0.16441377
51	0xbdb0cbb9	-0.08632607
52	0xbdf88625	-0.12134961
53	0xbec8169d	-0.39079753
54	0xbeda51ea	-0.4264062
55	0xbe93bc6b	-0.2885469
56	0xbe66f842	-0.2255564
57	0xbdcd729f	-0.10031628
58	0xbe8b0283	-0.27150354
59	0xbe0fe3bf	-0.14051722
60	0xbe4a27b5	-0.1974171
61	0x3caf1f64	0.021377273
62	0x3e831aa2	0.25606257
63	0xbe8beb4b	-0.27327952
64	0xbe66a27d	-0.22522922
65	0xbd87654a	-0.06611116
66	0xbe6cd61a	-0.23128548
67	0xbddae69e	-0.10688518
68	0xbdd7cd77	-0.10537236
69	0x3b42d871	0.002973106
70	0xbe4e7d15	-0.20164903
71	0xbd9bad02	-0.07601358
72	0xbe134f5c	-0.14385742
73	0xbe968b84	-0.29403317
74	0xbeb1d1c9	-0.34730366
75	0xbd14bddb	-0.036313873
76	0xbe6701a4	-0.2255922
77	0xbe25cd2e	-0.16191551
78	0xbe36f58c	-0.17867106
79	0xbc84a37d	-0.016191239
80	0xbe571f63	-0.21008067
81	0xbdce15b9	-0.10062737
82	0xbdc3f416	-0.0956804
83	0xbe2ee224	-0.17078453
84	0xbc51580a	-0.012777338
85	0xbe2973f9	-0.16548146
86	0xbe7c78b9	-0.24655427
87	0xbe0020e8	-0.12512553
88	0xbe978977	-0.29597065
89	0x3d799898	0.06093654
90	0xbe0c6f97	-0.13714443
91	0xbe598113	-0.21240644
92	0xbe5360af	-0.2064235
93	0xbe84fcc8	-0.25974107
94	0xbe8c36a8	-0.2738545
95	0xbd9a2c38	-0.07527965
96	0xbec728b5	-0.38898245
97	0xbe63aa31	-0.22232892
98	0xbe7791ba	-0.24176684
99	0xbe077b3f	-0.13230608
100	0xbdf76b39	-0.12080998
101	0xbe44dcee	-0.19224903
102	0xbe530ddc	-0.20610756
103	0xbe713334	-0.23554689
104	0xbe4fc15f	-0.20288609
105	0xbdc17b23	-0.094473146
106	0xbd962e36	-0.07333033
107	0xbea88ccc	-0.3291992
108	0xbe50c8b7	-0.20389067
109	0xbea01ff1	-0.3127437
110	0xbd2ab888	-0.04167989
111	0xbe7913d1	-0.24323966
112	0xbdaa4fbb	-0.08315989
113	0xbd9c5c2d	-0.07634769
114	0xbde93ff6	-0.11389153
115	0xbe298651	-0.16555144
116	0xbe787255	-0.24262364
117	0xbdfa98ad	-0.12236152
118	0xbe894e66	-0.26817626
119	0xbdd33944	-0.10313657
120	0xbc8853e0	-0.016641557
121	0xbe6463e2	-0.22303727
122	0xbe25deeb	-0.16198318
123	0xbe5a3e2d	-0.2131278
124	0xbeac24a2	-0.336217
125	0xbe6a8f62	-0.22906259
126	0xbe081472	-0.1328905
127	0xbe4bc808	-0.19900525

encoder.3.weight f4 [64, 128]
0	0xbd237d54	-0.039914444
1	0x3dbbe318	0.09174174
2	0xbd8482f5	-0.064702906
3	0xbd142faf	-0.036178287
4	0x3d369057	0.044571247
5	0xbc5d8780	-0.013521075
6	0x3d8a1b85	0.0674353
7	0x3c2f1cba	0.010688001
8	0x3cabfdd5	0.02099506
9	0x3db5748f	0.088601224
10	0xbc155c58	-0.009116255
11	0xbd4386bc	-0.047735915
12	0xbdbe75e0	-0.092998266
13	0x3cfd3a2a	0.030911524
14	0xbdfc2edb	-0.123136245
15	0xbcd8ceb8	-0.026465759
16	0x3c41a7f7	0.011819831
17	0xbdbf63c6	-0.09345202
18	0xbd81863c	-0.06324431
19	0x3dd38065	0.10327224
20	0xbe427509	-0.18989958
21	0xbda8dcc3	-0.08245232
22	0x3da2fdde	0.079585776
23	0xbd992988	-0.074786246
24	0xbc05f631	-0.008176372
25	0x3dd20ac6	0.10255961
26	0x3d89967f	0.06718158
27	0xbd238a1a	-0.039926626
28	0xbc200c1a	-0.00976851
29	0xbd925715	-0.07145516
30	0xbd96ed02	-0.073694244
31	0xbc22d3d9	-0.009938204
32	0xbc8b1953	-0.016979849
33	0xbde359b8	-0.11101097
34	0x3d1ff816	0.039054953
35	0x3c7c2778	0.015390269
36	0xbcde0f46	-0.027106892
37	0x3d2b4670	0.04181522
38	0xbcf60952	-0.030033741
39	0x3bcfb967	0.0063392404
40	0xbd9a8aa6	-0.07545976
41	0xbc6c394f	-0.01441796
42	0xbcbb4d0d	-0.02286389
43	0x3cb2139c	0.021737866
44	0x3bcdb16a	0.006277253
45	0xbe1558f4	-0.14584714
46	0xbd475815	-0.048667986
47	0x3e21f14c	0.15814704
48	0x3d92eb76	0.07173817
49	0xbe41bb2e	-0.1891906
50	0xbda4b94d	-0.08043156
51	0x3cfbba22	0.030728403
52	0xbe0d1942	-0.13779166
53	0xbc9452fe	-0.01810598
54	0xbc170bf2	-0.009219157
55	0x3d77b3a4	0.060474053
56	0xbe1a47c8	-0.15066445
57	0x3da88d62	0.08230092
58	0xbc9b61a2	-0.018967453
59	0x3cb12343	0.02162326
60	0x3d844526	0.064585015
61	0x3b273dbf	0.0025518981
62	0x3c4e9cf9	0.012610667
63	0x3c4ac226	0.01237539
64	0x3d8f7f9c	0.070067614
65	0xbe16ccf1	-0.14726616
66	0x3d0d074f	0.0344308
67	0xbc89abc3	-0.016805535
68	0xbe15a1aa	-0.14612451
69	0xbd122ce6	-0.03568735
70	0x3c563936	0.013075164
71	0x3cc757de	0.02433389
72	0x3d4aa5a5	0.049474377
73	0xbe3e75a8	-0.1859957
74	0xbd4a4335	-0.0493805
75	0x3dd5ce78	0.104397714
76	0x3dd5b362	0.10434605
77	0x3dd68f0a	0.10476501
78	0x3ddba267	0.10724335
79	0xbaea37af	-0.0017869378
80	0xbd93e1b7	-0.07220786
81	0x3d736e68	0.059431463
82	0xbd59027b	-0.05298088
83	0xbdd1fe0e	-0.10253535
84	0xbd910447	-0.07080894
85	0xbd6eb56f	-0.058278497
86	0x3dc21560	0.09476733
87	0xbd9c281e	-0.07624839
88	0x3c8d3af5	0.017240027
89	0x3d8a18d0	0.06743014
90	0xbd4bd21a	-0.049760915
91	0xbc4811b5	-0.012211253
92	0x3d5c582a	0.053795017
93	0xbd2a5763	-0.041587245
94	0xbd316c88	-0.043316394
95	0xbc13ff2d	-0.009033007
96	0x3d084f7b	0.033278923
97	0x3d6c9b13	0.057765078
98	0xbd58feff	-0.05297756
99	0xbd420a62	-0.047373183
100	0x3d1c9191	0.03822476
101	0x3da52314	0.08063331
102	0x3cd9574d	0.026530886
103	0xbc48ba0a	-0.012251386
104	0x3d85fef5	0.0654277
105	0xbda18b79	-0.078879304
106	0x3b3bc561	0.0028651583
107	0x3d4313ae	0.04762619
108	0xbbd8667e	-0.006604015
109	0x3d1b3768	0.037894636
110	0xbdd951b7	-0.10611289
111	0xbddb377c	-0.10703942
112	0xb8f55b72	-0.000116995434
113	0x3cefdb10	0.029279262
114	0xbbb44280	-0.0055010915
115	0xbda6beac	-0.081418365
116	0xbd187c46	-0.03722789
117	0xbca242e2	-0.019807283
118	0xbb5e7b82	-0.0033948128
119	0xbc3d1e9e	-0.011542944
120	0xbe27beeb	-0.16381423
121	0x3c641a7e	0.013922332
122	0xbd84f6f3	-0.06492414
123	0x3d00942b	0.031391304
124	0xbcef8292	-0.029237065
125	0x3ddd50c7	0.10806423
126	0xbdeada9d	-0.114674784
127	0xbbd8a574	-0.0066115204
128	0xbe3905f0	-0.18068671
129	0x3c2b8705	0.010469203
130	0x3c5f193f	0.013616859
131	0xbca80f5f	-0.020515142
132	0x3c8fa795	0.017535964
133	0x3da71e17	0.08160036
134	0xbdf1cd33	-0.11806717
135	0x3d1459d9	0.036218498
136	0x3ae6798d	0.0017583832
137	0x3dd256a9	0.10270435
138	0x3d49d556	0.04927572
139	0xbbad69da	-0.0052921595
140	0x3d754ea1	0.05988944
141	0x3c4f696c	0.012659412
142	0xbdac39dc	-0.08409473
143	0xbd30d606	-0.04317286
144	0x3bad289c	0.005284382
145	0xbe68718a	-0.22699562
146	0xbbfde6f2	-0.007748478
147	0x3dc70e3f	0.09719514
148	0xbb569348	-0.0032741595
149	0xbd951193	-0.07278743
150	0x3d23ec87	0.040020492
151	0x3c96c963	0.018406576
152	0xbe2156d6	-0.15755782
153	0x3d6f10a7	0.05836549
154	0xbd026709	-0.031836543
155	0xbcaacdf2	-0.020850156
156	0xbb887a6b	-0.004164984
157	0xbdce3882	-0.10069372
158	0x3c608b4a	0.013705084
159	0xbd70e1fc	-0.058809265
160	0x3dc5f095	0.09665028
161	0xbc36eba6	-0.011164581
162	0xbb08214b	-0.0020771797
163	0x3ac317d8	0.0014884425
164	0xbdab6b8a	-0.08370121
165	0x3d82aef2	0.063810244
166	0x3d041672	0.032247968
167	0x3d04e55b	0.032445293
168	0x3ca0493c	0.01956617
169	0xbd5fd1ec	-0.054643556
170	0xbd67b556	-0.05656942
171	0x3cf1925b	0.029488733
172	0x3d924083	0.07141211
173	0xbd216be1	-0.039409522
174	0xbd4d35fb	-0.050100308
175	0x3d48f732	0.04906387
176	0x3d997d40	0.07494593
177	0xbda1985d	-0.07890389
178	0xbd5911a0	-0.052995324
179	0x3d1ef57c	0.03880833
180	0xbcf69c72	-0.030103896
181	0x3d95bf5b	0.07311889
182	0xba01fe66	-0.0004958868
183	0x3c6a3cd7	0.014296732
184	0x3d15e1bd	0.036592234
185	0xbb595ee3	-0.003316813
186	0x3d024a3e	0.031809084
187	0x3d5c8bcb	0.053844254
188	0x3d21b016	0.03947457
189	0x3d1faaad	0.03898113
190	0xbe7f5aae	-0.24936935
191	0xbd530ea5	-0.051527638
192	0xbd2dc9b5	-0.04242869
193	0xbc110c99	-0.008853101
194	0xbc384661	-0.011247248
195	0x3dc500f1	0.0961932
196	0x3cf421c9	0.029801266
197	0xbd85d4a2	-0.06534697
198	0xbdcadc44	-0.099052936
199	0xbcd3e989	-0.025868194
200	0x3ba6fbb0	0.0050959215
201	0xbdb525c1	-0.088450916
202	0xbda443a7	-0.08020716
203	0x3d9da8b3	0.076981924
204	0x3d2b73e1	0.041858558
205	0x3df9834d	0.12183247
206	0x3a81c55b	0.0009900735
207	0x3dac6e28	0.08419448
208	0x3cc0e4e8	0.023546651
209	0xbb59eff8	-0.0033254605
210	0xbd55aa37	-0.052164283
211	0xbce40e60	-0.027838886
212	0x3d428485	0.04748966
213	0x3df8fd78	0.1215772
214	0xbb2a2e03	-0.0025967367
215	0xbd9019cb	-0.070361696
216	0xbdaec823	-0.08534267
217	0x3bb46afb	0.005505917
218	0xbd39026b	-0.04516832
219	0x3d009c09	0.031398807
220	0x3d055d53	0.032559704
221	0x3dd22f26	0.10262899
222	0xbc089aac	-0.008337658
223	0x3d718800	0.05896759
224	0xbde40c77	-0.1113519
225	0x3c191f19	0.009345793
226	0xbb44f274	-0.003005174
227	0x3cbfd395	0.02341632
228	0x3da0a72d	0.07844386
229	0xbd83af7c	-0.06429955
230	0x3ce8eef7	0.02843426
231	0x3d8bea82	0.06831838
232	0x3d069078	0.03285262
233	0xbd800cd7	-0.06252449
234	0x3d0b38a6	0.03398957
235	0x3ce20eae	0.02759489
236	0x3e04b3ee	0.12959263
237	0xbce9dbb5	-0.028547147
238	0x3d084f66	0.033278845
239	0x3c566eda	0.0130879525
240	0x3c32ce6c	0.010913473
241	0xbd2c7dfc	-0.042112336
242	0x3d83f5aa	0.06443341
243	0xbdec1126	-0.11526708
244	0x3cae936f	0.021310536
245	0x3ca636e3	0.020289844
246	0x3c131c68	0.008978941
247	0xbe3925f6	-0.18080887
248	0xbc74306b	-0.014904122
249	0x3e08237a	0.13294783
250	0xbdc66093	-0.09686389
251	0xbda8f818	-0.08250445
252	0x3d8530bc	0.06503436
253	0x3d22ec79	0.0397763
254	0xbb901dc4	-0.0043980796
255	0x3dabde85	0.083920516

encoder.3.bias f4 [64]
0	0xbc0ad8db	-0.008474554
1	0xbe8ca48a	-0.27469283
2	0xbe987a6d	-0.29780903
3	0x3c8c392c	0.017117105
4	0xbe0e8998	-0.13919675
5	0xbe5c4204	-0.21509558
6	0xbc19a9c4	-0.009378854
7	0xbe17f980	-0.1484127
8	0xbe46280c	-0.19351214
9	0xbcbd4cdb	-0.023107937
10	0xbdd762eb	-0.10516914
11	0x3d02b8d2	0.03191454
12	0x3d3c5aab	0.045984905
13	0xbe0adb39	-0.1356019
14	0xbdf0c87c	-0.11756989
15	0xbe4d314c	-0.20038337
16	0xbe0395b6	-0.12850079
17	0xbe4aac8a	-0.19792381
18	0xbd2b0e5e	-0.04176175
19	0xbe877a8b	-0.2646068
20	0xbe2bd554	-0.16780597
21	0xbe34a5bc	-0.17641348
22	0x3c5ecad9	0.013598167
23	0xbe637f00	-0.22216415
24	0xbdbafc73	-0.09130182
25	0xbcd4affa	-0.025962818
26	0xbc9a91de	-0.018868383
27	0xbe75424e	-0.23951074
28	0xbe1989e3	-0.14994006
29	0xbe3e633e	-0.18592545
30	0xbe4bdd36	-0.19908604
31	0xbcb4b33f	-0.022058127
32	0x3d0535bb	0.032521944
33	0xbd95fc8f	-0.07323562
34	0xbc436b7a	-0.01192748
35	0xbda5c8c5	-0.080949344
36	0xbd9656eb	-0.07340797
37	0xbe428708	-0.18996823
38	0xbd4c0b64	-0.04981555
39	0xbe18c047	-0.14917098
40	0x3c853975	0.01626275
41	0xbdbb39d5	-0.0914189
42	0xbd2bdf27	-0.04196086
43	0xbce55af5	-0.027997473
44	0xbc6bef8b	-0.014400373
45	0xbd05cf28	-0.032668263
46	0xbdd234d5	-0.10263983
47	0xbe1fbcf0	-0.15599418
48	0xbe4e10a4	-0.20123535
49	0xbc83802e	-0.016052332
50	0xbd148441	-0.03625894
51	0x3cedcc07	0.029027952
52	0xbe5e00cc	-0.21679991
53	0xbe89f46a	-0.26944286
54	0x3bb8cb20	0.0056394488
55	0xbdc3078e	-0.09522925
56	0xbe0d8b5e	-0.13822696
57	0xbe23d736	-0.16000065
58	0xbda5f001	-0.08102418
59	0xbe4398fa	-0.19101325
60	0xbdcd9820	-0.10038781
61	0xbda66291	-0.08124269
62	0xbd434f03	-0.047682773
63	0xbd954b01	-0.072896965

encoder.6.weight f4 [32, 64]
0	0xbd684820	-0.05670941
1	0xbbe53de3	-0.006995903
2	0x3c1f9fd7	0.009742699
3	0xbd47b64d	-0.04875784
4	0xbe221484	-0.15828139
5	0xbd67a76a	-0.056556143
6	0x3b9cca68	0.004784871
7	0x3de8d71d	0.113691546
8	0xbdfa5b83	-0.12224486
9	0xbe0eceb6	-0.13946041
10	0xbd1ace4c	-0.037794396
11	0xbe126365	-0.14295729
12	0xbdd2e440	-0.102974415
13	0x3de8e820	0.11372399
14	0xbdd252c3	-0.10269692
15	0x3cb38091	0.021911891
16	0xbe3bc35c	-0.18336242
17	0xba8ae34f	-0.0010596308
18	0x3c80b339	0.01571046
19	0xbd7b14a0	-0.061298966
20	0x3dd5a9e3	0.10432794
21	0x3e02c1be	0.1276922
22	0xbe5b7b4d	-0.21433754
23	0xbca7c7eb	-0.02048107
24	0xbd8112ff	-0.06302451
25	0xbd46a958	-0.048501343
26	0xbe30e4c1	-0.17274763
27	0x3dceec6e	0.10103689
28	0xbe1476f9	-0.1449851
29	0x3d3b7249	0.045763288
30	0xbe26f74c	-0.16305274
31	0x3ce97126	0.028496336
32	0xbd4b81df	-0.0496844
33	0x3d5f6806	0.054542564
34	0x3e067c95	0.13133462
35	0xbd15ac7c	-0.036541447
36	0xbd42c4f4	-0.04755111
37	0xbe130483	-0.1435719
38	0x3ddaece8	0.106897175
39	0xbc87aa4d	-0.016560698
40	0x3b6b3e2b	0.003589521
41	0x3d3c2b40	0.045939684
42	0xbd7cfd2a	-0.061764874
43	0xbd5bbb2f	-0.05364531
44	0xbb891bc7	-0.0041842195
45	0xbe7226cc	-0.23647612
46	0xbd2bb415	-0.041919786
47	0x3dd9cf0e	0.10635196
48	0xbc74956d	-0.014928204
49	0x3d532a0b	0.051553767
50	0xbd5a0359	-0.05322585
51	0xbc360fee	-0.011112196
52	0x3d16d2d6	0.036822163
53	0x3d1e1d96	0.038602434
54	0xbe4a97ba	-0.19784442
55	0xbb13774d	-0.0022501529
56	0x3dee1ab2	0.116261855
57	0x3e20a2d5	0.15687115
58	0x3d22c30b	0.03973679
59	0x3dfeb288	0.12436396
60	0xbca98163	-0.02069158
61	0xbcac8b4a	-0.021062512
62	0xbe345649	-0.1761104
63	0xbcbc1625	-0.022959778
64	0xbce03070	-0.027366847
65	0xbd2742f3	-0.040835332
66	0x3e32406d	0.17407389
67	0xbcab34b9	-0.020899164
68	0xbd9b5949	-0.07585389
69	0x3d197910	0.03746897
70	0xbd80d29d	-0.06290171
71	0x3e1a306a	0.15057531
72	0xbda4bf26	-0.08044271
73	0x3d390e91	0.045179907
74	0xbd87e895	-0.066361584
75	0xbdd4e983	-0.10396101
76	0x3cea534a	0.028604168
77	0x3da4e107	0.08050733
78	0xbddb8a75	-0.10719768
79	0x3e20a8e0	0.1568942
80	0xbe00a189	-0.12561621
81	0x3d21d01c	0.03950511
82	0xbd328ac0	-0.043589354
83	0x3dc78a3a	0.097431615
84	0xbd368f59	-0.0445703
85	0x3d1253f9	0.035724614
86	0xbdbfdf2e	-0.0936874
87	0x3de6f49d	0.11277125
88	0xbcc4adfd	-0.024008745
89	0xbdbe43e2	-0.09290291
90	0xbcd39e7c	-0.025832407
91	0x3c0899ef	0.008337482
92	0xbdbaeaad	-0.09126792
93	0x3dca761d	0.098858096
94	0xbd874e19	-0.06606693
95	0x3e141a07	0.14463054
96	0xb7850d6f	-1.5861091e-05
97	0xbdc2ba05	-0.09508137
98	0xbd2fcd3e	-0.042920344
99	0xbce8cd07	-0.028418077
100	0x3d68fadd	0.056879867
101	0x3c067b5d	0.008208123
102	0x3ccd0318	0.02502589
103	0xbd383815	-0.04497536
104	0xbc98c707	-0.018649591
105	0xbda08499	-0.07837791
106	0x3daf90f9	0.08572573
107	0x3de2f00e	0.11080943
108	0xbe1a0456	-0.15040717
109	0xbe3d5760	-0.18490362
110	0xbe167fdc	-0.14697212
111	0x3d522ef6	0.051314317
112	0xbd10566f	-0.03523868
113	0xbd534481	-0.051579002
114	0x3db49222	0.08816935
115	0xbdd9fbb2	-0.1064371
116	0x3c3a601f	0.011375456
117	0xbda535bf	-0.08066892
118	0xbdf302b5	-0.11865751
119	0xbdbd8b6a	-0.09255107
120	0x3ccb0aca	0.024785418
121	0x3cbaf375	0.022821167
122	0x3dc03ec1	0.09386969
123	0x3d819eaa	0.06329091
124	0x3d8d512e	0.069002494
125	0x3dc1cacb	0.09462508
126	0x3c0520dc	0.00812551
127	0xbe0a9296	-0.1353248
128	0xbd946c50	-0.072472215
129	0xbd87c860	-0.066300154
130	0xbcf1a074	-0.029495455
131	0xbd6e0a5e	-0.058115356
132	0x3d3976c2	0.045279272
133	0x3dff94dd	0.12479565
134	0x3db4e571	0.08832825
135	0xbda0d3ea	-0.078529194
136	0x3d5df302	0.05418683
137	0x3c2deac3	0.010615054
138	0x3cbb6758	0.022876427
139	0x3dfe53e6	0.12418346
140	0xbd14306f	-0.036179002
141	0x3da88d94	0.08230129
142	0x3dfd1656	0.12357776
143	0x3cd9de1a	0.026595164
144	0x3e104c08	0.14091504
145	0xbd8e6892	-0.06953539
146	0x3d26843f	0.040653463
147	0x3dcb34bd	0.099221684
148	0xbe16a8c9	-0.14712824
149	0x3dd6a0ef	0.104799144
150	0xbde36e8e	-0.11105071
151	0x3e025650	0.12728238
152	0x3c9a9448	0.018869534
153	0xbda03d8f	-0.07824241
154	0xbd74cce7	-0.059765723
155	0x3cc25544	0.023722298
156	0x3e074e52	0.1321347
157	0x3d7315ec	0.05934708
158	0x3d02874f	0.03186732
159	0xbd9c9dbd	-0.07647274
160	0xbdfc006d	-0.12304769
161	0x3d6d1ca8	0.057888657
162	0x3dc2d673	0.09513559
163	0xbbeb7047	-0.0071850154
164	0x3ddffa52	0.10936417
165	0x3da9db21	0.08293749
166	0x3d9bffe4	0.07617167
167	0xbc7ad75e	-0.015310137
168	0xbd1aeabd	-0.03782152
169	0x3d686050	0.056732476
170	0xbdb17d2b	-0.08666452
171	0xbe03a1ff	-0.12854765
172	0x3dde2dd4	0.10848585
173	0x3bb4fec3	0.005523534
174	0x3da465f6	0.0802726
175	0x3cf3cbef	0.029760329
176	0xbe0801f2	-0.13281992
177	0xbe09522f	-0.13410257
178	0xbd728a17	-0.059213724
179	0x3d1cbd80	0.03826666
180	0x3dd39d4d	0.10332737
181	0x3d9ad7eb	0.07560714
182	0x3ce6ff5b	0.028197935
183	0x3ce583ad	0.02801689
184	0x3e308e8e	0.1724188
185	0x3e0bcdc2	0.13652709
186	0xbe3b1e7f	-0.18273352
187	0x3dbe8389	0.09302432
188	0xbd81f683	-0.063458465
189	0xbdb0f9b2	-0.086413756
190	0xbbb4efa5	-0.005521732
191	0x3d542786	0.051795505
192	0xbd35dafe	-0.0443983
193	0x3d835204	0.064121276
194	0xbd1a42d6	-0.037661396
195	0xbdb820db	-0.08990642
196	0xbd15b37d	-0.036548126
197	0xbde56125	-0.112001695
198	0xbe2420ea	-0.1602818
199	0xbda38caf	-0.07985818
200	0xbdaee3ba	-0.08539529
201	0xbe070cf4	-0.13188535
202	0x3d20e2d2	0.039278813
203	0xbe07534e	-0.13215372
204	0x3d6234a8	0.055226
205	0x3d258c0c	0.040416762
206	0x3b4db695	0.0031389345
207	0x3cee6b34	0.029103853
208	0xbda7b103	-0.08188059
209	0x3e1824bb	0.14857762
210	0x3de4857d	0.11158273
211	0x3d50a045	0.050934095
212	0xbd6fd95c	-0.0585569
213	0x3cab1a8b	0.02088668
214	0xbb2df446	-0.0026543303
215	0x3d790f88	0.060805827
216	0xbe157c90	-0.14598298
217	0x3e127077	0.14300714
218	0x3e210003	0.1572266
219	0x3bdf68af	0.006817899
220	0xbddd4c69	-0.1080559
221	0x3d90d391	0.07071603
222	0xbddd7ede	-0.108152136
223	0xbdb3d062	-0.0877998
224	0x3d26a6bc	0.040686354
225	0x3d7bd928	0.061486393
226	0x3de44f2a	0.11147912
227	0x3d4ac18f	0.049500998
228	0xbd786045	-0.060638685
229	0xbd3e0687	-0.046392944
230	0x3dedfedb	0.116208754
231	0xbc1a0847	-0.009401388
232	0x3d6d276a	0.057898916
233	0xbdb15028	-0.08657867
234	0xbcd4744e	-0.025934365
235	0xbd3421a6	-0.043977402
236	0xbdc2e09d	-0.09515498
237	0xbca17080	-0.019706964
238	0xbe083dde	-0.1330485
239	0x3e048436	0.1294106
240	0x3da84c6e	0.08217703
241	0x3e06a55e	0.1314902
242	0x3e098c05	0.1343232
243	0xbddea221	-0.108707674
244	0xbdbd4ed3	-0.0924355
245	0x3d0276d2	0.031851597
246	0xbdbf299f	-0.093341105
247	0x3c7d431d	0.015457896
248	0xbd5957af	-0.053062137
249	0x3da2a33b	0.0794129
250	0x3db34f4b	0.08755358
251	0xbe072ab4	-0.13199884
252	0x3e1cc67f	0.15310095
253	0x3a8ce84f	0.0010750386
254	0xbded8fab	-0.11599668
255	0xbe08f42b	-0.13374393

encoder.6.bias f4 [32]
0	0xbe3c1bbc	-0.18369955
1	0xbe3681a7	-0.17822896
2	0x3c93a8e0	0.018024862
3	0x3d88fc7a	0.06688781
4	0x3dd91dd0	0.106013894
5	0xbe11088a	-0.14163414
6	0xbd3ceaee	-0.046122484
7	0xbd29c3ca	-0.041446485
8	0x3dc924b5	0.098214544
9	0x3afa6130	0.001910245
10	0xbd962fd2	-0.0733334
11	0x3d0bf561	0.03416956
12	0xbd64c4ac	-0.055851623
13	0xbda7f93c	-0.082018346
14	0xbd31b06d	-0.043381143
15	0xbd90fc95	-0.07079426
16	0x3d882ce5	0.06649188
17	0x3d83af38	0.06429905
18	0x3dc03966	0.09385948
19	0x3b679bf3	0.0035340756
20	0x3d3764ec	0.04477398
21	0xbb2fa580	-0.0026801527
22	0x3cd0bbdf	0.025480209
23	0x3d236203	0.039888393
24	0x3c2f29f4	0.010691155
25	0x3ccdf348	0.02514042
26	0xbe019fea	-0.12658659
27	0xbdca1061	-0.09866405
28	0x3dc8e66b	0.09809574
29	0x3dd5d6be	0.104413494
30	0x3d268a87	0.040659454
31	0xbbf22643	-0.007389815

encoder.9.weight f4 [11, 32]
0	0xbdd18051	-0.102295525
1	0xbc8ec6f7	-0.017428858
2	0x3d4d3870	0.05010265
3	0xbe25659e	-0.16152045
4	0xbd8a63c7	-0.06757312
5	0xbd069ca7	-0.03286424
6	0xbe0f85a4	-0.14015824
7	0xbe49583d	-0.19662566
8	0xbc665ec6	-0.014060682
9	0x3e108528	0.14113295
10	0x3e4b4cb0	0.19853473
11	0x3e05a956	0.13052878
12	0x3d13ecd6	0.036114536
13	0xbd6170cd	-0.055039216
14	0x3c51c371	0.0128029445
15	0x3e548a5c	0.20755905
16	0xbe02f915	-0.1279033
17	0x3d3f88c3	0.046761286
18	0xbc7d6f00	-0.015468359
19	0xbd6802a1	-0.056643132
20	0x3dff5869	0.12468035
21	0xbe34bbeb	-0.1764981
22	0x3d0842b1	0.033266727
23	0x3d8a5f20	0.06756425
24	0x3dc456dc	0.095868796
25	0x3e4a5478	0.19758785
26	0x3baecd67	0.0053345445
27	0x3e040af5	0.12894805
28	0x3df327e1	0.11872841
29	0xbc805fd1	-0.015670689
30	0x3e210bd6	0.15727171
31	0x3cd60af2	0.026128266
32	0xbd375d7c	-0.044766888
33	0x3ce5a603	0.028033262
34	0x3d6423fd	0.055698384
35	0xbd274596	-0.040837847
36	0xbe0bc6b8	-0.13650024
37	0x3e0c792c	0.13718098
38	0xbe58664a	-0.2113277
39	0x3dffe561	0.124949224
40	0x3cc995be	0.024607535
41	0x3dadd033	0.084869765
42	0xbe1256ea	-0.14290968
43	0xbd40fede	-0.04711806
44	0xbd7f8232	-0.062380023
45	0xbcf438b8	-0.029812202
46	0x3dda4cc6	0.106591746
47	0xbde09549	-0.10965974
48	0x3b69ac32	0.0035655615
49	0xbd2e978f	-0.042625006
50	0x3de73d41	0.1129098
51	0xbcbfe62b	-0.023425182
52	0xbd683380	-0.05668974
53	0xbe126acc	-0.14298552
54	0xbcaa5ed1	-0.020797165
55	0xbdd64b52	-0.10463585
56	0x3d26a31b	0.040682893
57	0xbd99decc	-0.07513198
58	0x3d0f8d75	0.035047013
59	0x3e0fffe8	0.14062464
60	0x3d36b9fb	0.04461096
61	0x3d53a2f1	0.051669065
62	0xbca31409	-0.019907014
63	0x3e3777d3	0.17916803
64	0x3e2334a6	0.15938053
65	0xbbd34e2c	-0.006448528
66	0x3dfe9224	0.12430218
67	0x3dded597	0.10880583
68	0xbe278a83	-0.16361432
69	0xbce4b3fb	-0.027917853
70	0xbdd2cbb2	-0.10292758
71	0x3d0a7b3f	0.033808943
72	0xbd326c0f	-0.043560084
73	0xbdad2e5e	-0.084561095
74	0x3d1fd67e	0.039022915
75	0xbe424086	-0.18969926
76	0x3e236149	0.1595508
77	0xbe386558	-0.1800741
78	0xbd8f8769	-0.07008249
79	0x3e484392	0.19557026
80	0x3d8c1c7a	0.06841369
81	0xbda04a4e	-0.078266725
82	0xbcc8186a	-0.024425704
83	0xbe5488ef	-0.20755361
84	0x3e3032d8	0.17206895
85	0x3c134ac8	0.008989997
86	0xbe35cc81	-0.17753793
87	0x3d21e072	0.03952069
88	0xbc3cbc5c	-0.011519518
89	0xbe30a66f	-0.1725099
90	0xbdf233ad	-0.118262626
91	0x3dd3e16c	0.1034573
92	0x3d50b7a1	0.050956372
93	0xbd948a01	-0.07252885
94	0xbe253424	-0.16133171
95	0xbe352622	-0.17690328
96	0xbce30311	-0.027711423
97	0x3e10a465	0.14125212
98	0xbc8f314f	-0.017479567
99	0x3cee5898	0.02909498
100	0xbe0837bb	-0.1330251
101	0x3d126689	0.035742316
102	0xbd14fbac	-0.036372826
103	0x3dfc0906	0.123064086
104	0xbe84e067	-0.25952455
105	0xbdd0dd22	-0.10198428
106	0x3c745091	0.014911787
107	0xbca590ec	-0.020210706
108	0x3d8eecbe	0.06978749
109	0xbd888576	-0.06666081
110	0xbd5c8959	-0.053841922
111	0x3e028336	0.12745366
112	0x3d24bdaa	0.04021994
113	0x3d987dc8	0.07445866
114	0xbdcfa381	-0.10138608
115	0xbd8017ad	-0.06254516
116	0xbe202660	-0.15639639
117	0x3d8bd612	0.0682794
118	0x3e1d103b	0.15338223
119	0xbe2175d5	-0.15767606
120	0xbdf0f567	-0.11765557
121	0x3df44612	0.11927427
122	0x3da5de6f	0.080990665
123	0xbdafcfea	-0.08584578
124	0x3e140757	0.14455925
125	0x3dc79bc4	0.09746507
126	0xbe2fdf0e	-0.17174932
127	0x3da53e20	0.0806849
128	0x3d0ea40c	0.034824416
129	0xbb2c18fa	-0.0026260004
130	0x3e2ab2c7	0.1666976
131	0xbe1e772d	-0.1547515
132	0x3d6a572e	0.057212047
133	0x3e1c3154	0.15253192
134	0x3dc94eae	0.0982946
135	0xbdb216de	-0.08695768
136	0xbd8d6b81	-0.0690527
137	0xbd1f4b68	-0.038890272
138	0x3e4ddc5c	0.20103592
139	0xbd96143a	-0.07328077
140	0xbe43f474	-0.1913622
141	0x3ddf9603	0.10917284
142	0x3e177fe1	0.14794876
143	0xbda0aa5c	-0.078449935
144	0xbdc0076d	-0.09376416
145	0xbd9c5aee	-0.07634531
146	0x3d4a496b	0.049386423
147	0x3dcaded9	0.09905786
148	0x3e029cf7	0.1275519
149	0xbd5e4250	-0.05426246
150	0x3c610311	0.013733641
151	0x3dc7a339	0.09747929
152	0xbdafeeaa	-0.085904434
153	0xbda56cd5	-0.08077399
154	0x3dfd2436	0.12360422
155	0x3dc99f96	0.09844892
156	0xbe181e7d	-0.1485538
157	0xbdc77bda	-0.0974042
158	0xbd9c53a6	-0.07633142
159	0x3dc2ecf2	0.0951785
160	0xbdc5b4bb	-0.09653612
161	0xbe297981	-0.16550256
162	0xbdc837fe	-0.09776305
163	0x3da80225	0.08203534
164	0xbcf284ec	-0.029604398
165	0x3dae732e	0.085180625
166	0xbe54c556	-0.20778403
167	0xbe2c3d98	-0.16820371
168	0x3e4522f7	0.1925162
169	0x3dadfda1	0.084956415
170	0x3e608419	0.21925391
171	0x3d86e8fc	0.06587407
172	0x3dc64718	0.09681529
173	0x3e0e5243	0.13898568
174	0xbe06e84c	-0.13174552
175	0x3cf868f0	0.030323476
176	0x3cd36d1d	0.025808865
177	0xbe27cfe0	-0.16387892
178	0x3deb138f	0.1147834
179	0x3d428735	0.047492225
180	0x3dd05390	0.10172188
181	0xbcaf215b	-0.02137821
182	0x3e465b1a	0.1937069
183	0x3dda33df	0.10654425
184	0x3e264605	0.16237648
185	0x3e1b060b	0.15139024
186	0xbd0a18e7	-0.033715155
187	0xbcfca899	-0.030842112
188	0xbe1f6ae6	-0.15568122
189	0x3d12a032	0.035797305
190	0x3d1f384d	0.038872052
191	0x3e2c055e	0.16798922
192	0xbdc16779	-0.09443564
193	0x3e3595a1	0.1773286
194	0x3d0b457a	0.034001805
195	0x3d99614b	0.0748926
196	0xbd05e9a8	-0.032693535
197	0x3e535039	0.20636071
198	0x3dcc6213	0.09979644
199	0xbd93ae54	-0.07210985
200	0x3dce4ed5	0.1007363
201	0x3d05043d	0.032474745
202	0xbe03feb8	-0.12890136
203	0xbe190847	-0.14944564
204	0x3d8502f0	0.06494701
205	0x3e2efb1a	0.17087975
206	0x3e19fd93	0.15038137
207	0xbe0bac7b	-0.13640015
208	0x3d948254	0.072514206
209	0x3e6031c5	0.21893986
210	0x3d03cd15	0.032178003
211	0xbdae063d	-0.084972836
212	0x3e129a6b	0.14316718
213	0x3c269599	0.010167503
214	0x3e1612b4	0.14655572
215	0x3e39dd74	0.18150884
216	0x3d61efde	0.055160396
217	0xbd187a84	-0.037226215
218	0x3e2534de	0.16133448
219	0x3cd207bc	0.025638454
220	0x3cfb0d4f	0.030645994
221	0xbe2fc59b	-0.17165224
222	0xbd81b8cb	-0.063340746
223	0xbd94137b	-0.07230278
224	0xbdc68241	-0.09692813
225	0xbd8f6b9d	-0.070029475
226	0xbd946850	-0.072464585
227	0xbc54c1ca	-0.012985656
228	0x3e399a9e	0.18125388
229	0xbe09968a	-0.13436332
230	0x3dd8ff4d	0.1059557
231	0x3e8e83a2	0.27834803
232	0x3e377750	0.17916608
233	0x3cdc4e58	0.026892826
234	0xbe1e4768	-0.15456927
235	0x3d2c0e77	0.042005982
236	0x3e21a660	0.15786123
237	0x3d5ecdc3	0.05439545
238	0xbe327711	-0.17428233
239	0x3d7723bf	0.060336825
240	0xbd3fb473	-0.04680295
241	0xbd4e3ce4	-0.05035104
242	0x3dc0a76c	0.09406933
243	0x3e2557ce	0.16146776
244	0x3e0f9100	0.14020157
245	0x3b8a1122	0.004213468
246	0x3dde9e45	0.10870031
247	0x3e5d810f	0.21631263
248	0x3deb91fc	0.11502454
249	0x3ad7c440	0.0016461685
250	0xbdd16846	-0.10224967
251	0xbe39d1b4	-0.18146402
252	0xbc82969f	-0.015940962
253	0x3d2d6855	0.042335827
254	0x3e43b83a	0.19113246
255	0x3e119fde	0.1422114

encoder.9.bias f4 [11]
0	0xbc039754	-0.008031685
1	0x3e2310d8	0.15924394
2	0xbd65c541	-0.05609632
3	0xbe3250a1	-0.1741357
4	0x3dc6d227	0.09708052
5	0x3dce2fb6	0.10067694
6	0x3e1eae38	0.15496147
7	0x3c88cba1	0.01669866
8	0x3c29ec7a	0.010371322
9	0xbdb1fc8f	-0.0869075
10	0xbd8643eb	-0.06555923

decoder.0.weight f4 [32, 11]
0	0xbc9b20a9	-0.018936472
1	0x3e651401	0.22370912
2	0xbe0a1e86	-0.13488206
3	0x3cc73d64	0.024321266
4	0x3e31c494	0.17360145
5	0xbcd79216	-0.026314776
6	0x3e41178f	0.18856643
7	0x3e04da92	0.12974003
8	0xbe7b5321	-0.2454343
9	0x3d9f05f3	0.077648066
10	0x3e28d51e	0.16487548
11	0xbd7439d5	-0.059625465
12	0xbdf37c0f	-0.11888897
13	0xbccf76a7	-0.025325133
14	0x3d9efe44	0.07763341
15	0x3dbef4c3	0.09324028
16	0x3e03ea0b	0.12882249
17	0xbde80c2a	-0.11330445
18	0x3dc52297	0.09625738
19	0x3e87ac98	0.26498866
20	0x3d206bc6	0.03916528
21	0xbe019dbe	-0.1265783
22	0x3e0cdbee	0.13755772
23	0x3d405ec8	0.04696539
24	0x3e19f249	0.1503383
25	0x3e49db44	0.1971255
26	0xbe913f3b	-0.28368554
27	0x3dea5159	0.11441297
28	0x3e8499b5	0.2589852
29	0x3e09359e	0.1339936
30	0x3db76382	0.089545265
31	0xbd287a20	-0.041132092
32	0xbe60a6ca	-0.21938625
33	0xbd777471	-0.06041378
34	0xbe8ecfcd	-0.27892914
35	0xbd82b2c3	-0.06381752
36	0xbd87a33b	-0.066229306
37	0xbe927538	-0.28605056
38	0x3dd524f5	0.104074396
39	0x3c89b577	0.016810162
40	0xbe57b982	-0.2106686
41	0x3e1eb54f	0.15498851
42	0xbde626b4	-0.11237851
43	0xbe981e90	-0.29710817
44	0x3e769a42	0.24082282
45	0x3e24a985	0.16080292
46	0xbe834c76	-0.25644273
47	0x3e5157f8	0.20443714
48	0xbdd6f310	-0.10495579
49	0xbdce47b9	-0.10072274
50	0x3e69723f	0.22797488
51	0x3e478ccb	0.19487302
52	0x3e04be79	0.12963285
53	0x3e360f20	0.17779207
54	0x3d84791b	0.064684115
55	0x3dfccf38	0.12344211
56	0x3e8a82ba	0.2705286
57	0x3e451194	0.19244987
58	0x3e84eba5	0.25961033
59	0xbd861b29	-0.06548149
60	0xbd93d8fb	-0.0721912
61	0x3df8f60c	0.12156305
62	0x3e29725d	0.16547532
63	0x3d22cb83	0.039744865
64	0x3e50f34f	0.20405315
65	0x3e89f531	0.2694488
66	0x3e954ce4	0.29160225
67	0xbe87be16	-0.26512212
68	0x3e25c6a8	0.16189063
69	0xbce28854	-0.027652897
70	0xbe80e2c5	-0.2517301
71	0x3e8ac588	0.2710383
72	0xbc03d0bb	-0.008045371
73	0xbdf6ce25	-0.12051038
74	0x3cba208b	0.022720596
75	0x3e8c8363	0.2744399
76	0x3e1fae5e	0.1559386
77	0x3e53300b	0.20623796
78	0x3e75b6a5	0.23995455
79	0xbe99e530	-0.3005767
80	0xbb1c70e4	-0.0023871
81	0xbe9cd71c	-0.30632865
82	0xbe21d232	-0.1580284
83	0x3d8717de	0.06596349
84	0x3e63ebd8	0.22257936
85	0xbe2bd991	-0.16782214
86	0xbb8a8a2e	-0.004227898
87	0x3cf121a8	0.029434994
88	0xbe8e1a7a	-0.27754575
89	0xbe501a16	-0.20322451
90	0x3e27586e	0.16342327
91	0xbe3b98b4	-0.1831997
92	0xbdb4bdd3	-0.088252686
93	0xbe4825af	-0.19545625
94	0xbe1d2b70	-0.15348601
95	0xbe429450	-0.19001889
96	0xbd886e03	-0.06661608
97	0x3e44f43f	0.19233797
98	0xbe5f510e	-0.21808264
99	0xbe942325	-0.28933063
100	0xbe3e3418	-0.1857456
101	0x3e2b3b3b	0.16721813
102	0x3db4fd92	0.08837427
103	0x3dce2bef	0.100669734
104	0x3bbc4e1c	0.005746616
105	0xbda967fc	-0.082717866
106	0x3d41909d	0.047257055
107	0x3e4fb5bf	0.20284174
108	0xbe3871d5	-0.18012173
109	0xbe188263	-0.14893489
110	0x3e408bc6	0.1880332
111	0x3e5867b2	0.21133307
112	0xbdb511df	-0.08841299
113	0x3ce98393	0.028505122
114	0x3ab69888	0.0013930956
115	0xbe872bfc	-0.26400745
116	0x3e0582d7	0.13038193
117	0x3eaa38fd	0.33246604
118	0xbcf50b7b	-0.0299127
119	0x3e274e9e	0.16338584
120	0x3e520e4b	0.20513265
121	0x3ceaa02f	0.028640835
122	0x3e59f89b	0.21286242
123	0x3dbe1b95	0.092826046
124	0xbebd2887	-0.36944982
125	0xbdec4e21	-0.115383394
126	0xbe1b57df	-0.15170239
127	0xbe1bd46d	-0.15217753
128	0x3d7f6deb	0.062360685
129	0x3e3cf704	0.18453604
130	0xbd789c3f	-0.060695883
131	0x3ea1135a	0.31460077
132	0x3e77110e	0.241276
133	0x3d51f771	0.05126137
134	0x3e1de528	0.15419447
135	0x3e33f4d6	0.17573866
136	0xbe8a8ed3	-0.2706209
137	0x3a4ad53c	0.0007737463
138	0x3e839a22	0.25703532
139	0x3e9e84f5	0.30960813
140	0x3ddd13f7	0.107948236
141	0x3d76c80c	0.060249373
142	0x3da1bfc1	0.07897902
143	0xbd80245d	-0.06256936
144	0xbea05182	-0.31312186
145	0xbe0a9d00	-0.13536453
146	0x3e08a54f	0.1334431
147	0xbea6a5d3	-0.3254839
148	0x3d8628e3	0.06550767
149	0x3e88c113	0.26709804
150	0x3e3ac919	0.18240775
151	0xbe81e85f	-0.25372598
152	0xbe4a8609	-0.19777693
153	0x3c04c6a6	0.008104002
154	0xbc88cb46	-0.01669849
155	0x3d9473f6	0.0724868
156	0xbe244894	-0.16043311
157	0xbe166d1f	-0.14690064
158	0xbe21868d	-0.15773983
159	0x3ca54ef5	0.020179251
160	0x3d32a9d9	0.04361901
161	0x3d964c86	0.073388144
162	0xbe241768	-0.16024554
163	0xbdc66dc8	-0.09688908
164	0xbd1ae6f5	-0.037817914
165	0x3dd79277	0.10525983
166	0xbe459ca9	-0.19298042
167	0xbe93b471	-0.28848603
168	0xbeab6764	-0.33477318
169	0x3e9e0195	0.30860582
170	0x3e81ec51	0.25375608
171	0x3e547ccb	0.2075073
172	0xbdd0478b	-0.10169896
173	0xbc022e01	-0.0079455385
174	0xbe7a072d	-0.244168
175	0xbbedd1af	-0.0072576622
176	0x3de03987	0.109484725
177	0x3c4eeae0	0.012629241
178	0x3e4d7e7c	0.20067781
179	0xbe7f21ef	-0.24915288
180	0x3d36356f	0.044484552
181	0xbcd6cea1	-0.026221575
182	0x3e81808e	0.25293392
183	0x3e9be113	0.30445156
184	0x3e45dbec	0.19322175
185	0x3e738b1d	0.23783536
186	0x3e5ca232	0.21546248
187	0x3e85d675	0.2614018
188	0x3c006718	0.007837079
189	0x3e679657	0.22615944
190	0x3e4ef5c8	0.20210946
191	0x3c079365	0.008274888
192	0xbe39a876	-0.18130669
193	0x3e8654ec	0.26236665
194	0xbd94dbd9	-0.07268495
195	0x3e00f572	0.1259363
196	0xbe078ec6	-0.13238057
197	0x3e392f80	0.18084526
198	0xbe14281c	-0.14468426
199	0x3df79bf7	0.12090295
200	0xbdc397b6	-0.09550421
201	0x3e29d505	0.16585167
202	0x3ea8e151	0.32984403
203	0x3e58f6b1	0.21187855
204	0x3e0f5b2e	0.13999626
205	0x3e2dfb80	0.16990471
206	0xbe59da4c	-0.2127468
207	0x3d45255b	0.048131328
208	0x3e009303	0.1255608
209	0x3e8749d6	0.2642352
210	0xbe17b4d2	-0.14815071
211	0x3e28fe42	0.16503242
212	0xbe232009	-0.15930189
213	0xbe28bd28	-0.16478407
214	0xbe2be809	-0.16787733
215	0xbe15c596	-0.14626154
216	0xbd9835ee	-0.07432161
217	0x3dade762	0.084913984
218	0x3e94adc4	0.29038823
219	0xbe8d74b8	-0.27628112
220	0x3b9a1a00	0.0047028065
221	0x3da64360	0.081183195
222	0xbe3c6715	-0.18398698
223	0x3e1f77b0	0.15573001
224	0x3d36b55f	0.044606563
225	0x3e49d959	0.19711818
226	0xbd4e8b8d	-0.050426055
227	0x3eba3d8d	0.36375085
228	0xbe4658c5	-0.193698
229	0xbddf20fc	-0.10894963
230	0x3e16346d	0.14668436
231	0x3ea0fb27	0.31441614
232	0x3e80b34b	0.2513679
233	0xbd238e72	-0.03993077
234	0xbe58ae90	-0.2116034
235	0x3e0d4074	0.13794118
236	0x3e0acb01	0.13554002
237	0xbe7ef12b	-0.24896686
238	0xbe6385b1	-0.22218968
239	0xbe8f9a54	-0.2804743
240	0x3e9737d0	0.2953477
241	0x3ea73ed6	0.32665128
242	0x3d8a4557	0.06751507
243	0xbd3be717	-0.04587468
244	0xbd093d46	-0.0335057
245	0x3c9febbd	0.019521588
246	0x3d925d31	0.07146681
247	0xbea69acc	-0.32539976
248	0x3d2fa82e	0.042884998
249	0xbe8ac599	-0.2710388
250	0xbdb46887	-0.088089995
251	0xbe3c5236	-0.18390736
252	0xbdae7724	-0.08518818
253	0x3cc86354	0.024461426
254	0x3e8a032a	0.2695554
255	0x3e9b1508	0.30289483

decoder.0.bias f4 [32]
0	0xbd754eb2	-0.059889503
1	0xbdf17ca5	-0.11791352
2	0xbbbc5ae1	-0.0057481383
3	0xbde47bd8	-0.11156434
4	0xbea21316	-0.31655186
5	0x3e7f8e2f	0.24956582
6	0xbdc0459a	-0.093882754
7	0x3e9f9ef9	0.31175974
8	0x3e5b408e	0.21411344
9	0xbd7d64d6	-0.061863743
10	0xbe573288	-0.2101537
11	0xbc2a7dff	-0.010406016
12	0x3e9b79db	0.30366406
13	0x3dbe8a48	0.09303719
14	0x3d70204d	0.058624554
15	0x3d7b9222	0.06141866
16	0xbd92f3bb	-0.07175394
17	0xbea35240	-0.3189869
18	0xbd0812c6	-0.03322103
19	0xbe178e8c	-0.14800471
20	0x3eb80496	0.35941
21	0x3ea2f485	0.3182718
22	0x3e4c2144	0.19934565
23	0x3e947e19	0.29002455
24	0x3e6befac	0.23040646
25	0xbd350cc0	-0.044201612
26	0xbe55b2b2	-0.20868948
27	0x3df33ef7	0.11877244
28	0x3e874ee3	0.26427373
29	0x3e9bdae9	0.30440453
30	0x3ea988ef	0.33112285
31	0xbd3d6c94	-0.046246126

decoder.2.weight f4 [64, 32]
0	0x3c2faac8	0.01072187
1	0x3e60766f	0.21920179
2	0xbdb86093	-0.09002795
3	0xbe58501d	-0.21124311
4	0xbe605fd8	-0.21911561
5	0xbe011943	-0.12607293
6	0xbd832485	-0.0640345
7	0xbe0b3585	-0.13594635
8	0xbd98c379	-0.074591585
9	0x3d79e133	0.061005782
10	0xbdb07ea0	-0.08617902
11	0x3dd748d6	0.10511939
12	0x3d970b97	0.073752575
13	0xbd8e047d	-0.0693445
14	0xbdecf6da	-0.11570521
15	0x3e08239d	0.13294835
16	0x3caf2e6c	0.02138444
17	0x3e242964	0.16031414
18	0x3e058ce6	0.1304203
19	0xbda091b5	-0.078402914
20	0x3e004f9c	0.12530369
21	0xbd60456f	-0.054753717
22	0xbe34cc8c	-0.17656153
23	0xbdac8a66	-0.08424835
24	0xbe07a80f	-0.13247703
25	0x3c96abe0	0.018392503
26	0xbdf04ff9	-0.117340036
27	0x3e76d7f9	0.24105825
28	0xbe0ff010	-0.1405642
29	0xbd2615da	-0.040548183
30	0x3c5830be	0.013195215
31	0x3e4ed4b4	0.20198327
32	0xbde53c4e	-0.11193143
33	0xbdedfaef	-0.116201274
34	0x3dbe11b9	0.09280724
35	0x3e0ccc27	0.13749753
36	0xbdeeb0e7	-0.11654835
37	0xbe0bb2bf	-0.13642405
38	0x3d938aa4	0.07204178
39	0xbd74a719	-0.05972967
40	0xbe08b95c	-0.13351959
41	0xbd796055	-0.060882885
42	0xbd2b05d9	-0.041753624
43	0x3e9b8f05	0.30382553
44	0xbdd61fb1	-0.104552634
45	0xbe0a12a3	-0.13483672
46	0x3df91447	0.12162071
47	0xbd4eb785	-0.050467987
48	0xbd168340	-0.036746264
49	0x3dc86f31	0.09786833
50	0xbb88bdf1	-0.0041730334
51	0xbe00a260	-0.12561941
52	0x3c7941fe	0.015213488
53	0xbe5c3838	-0.21505821
54	0x3e0a607b	0.13513367
55	0x3e3b19a6	0.18271503
56	0x3e265a0d	0.16245289
57	0x3d0ee140	0.034882784
58	0xbdc4cc24	-0.09609249
59	0x3dd7985b	0.105271064
60	0x3dfa956c	0.12235531
61	0x3e33f46e	0.17573711
62	0x3db29b87	0.08721071
63	0x3dffb9c5	0.124866046
64	0x3c56eee8	0.013118483
65	0xbcaab1c9	-0.020836728
66	0xbde069b2	-0.1095766
67	0x3de566aa	0.11201222
68	0xbe285399	-0.1643814
69	0x3d916f33	0.07101288
70	0x3e3125cb	0.17299573
71	0x3df6e6d1	0.120557435
72	0xbe24e1f8	-0.16101825
73	0xbd95a422	-0.073066965
74	0x3d82448a	0.06360729
75	0x3df82984	0.121172935
76	0x3e30ac66	0.17253265
77	0x3e631627	0.22176419
78	0xbdc1c700	-0.09461784
79	0x3d5e38e8	0.05425349
80	0x3df0823d	0.11743591
81	0xbe426f58	-0.18987787
82	0x3e434621	0.19069721
83	0xbcfe4d94	-0.031042852
84	0x3e272914	0.16324264
85	0xbd1fbb37	-0.0389969
86	0xbe3d53cc	-0.18488997
87	0xbdd70d89	-0.105006285
88	0xbd2aaed1	-0.041670624
89	0xbc752dd1	-0.014964537
90	0x3cc64ee1	0.024207534
91	0xbd0b602e	-0.03402727
92	0x3d043dab	0.032285374
93	0xbe5b4f0a	-0.2141687
94	0x3d8dff98	0.06933516
95	0x3d6f121c	0.05836688
96	0xbaa90a1d	-0.0012896691
97	0x3e3e38ce	0.18576357
98	0x3e3d0f0f	0.18462776
99	0x3d83a8d6	0.06428687
100	0xbe1dad0e	-0.15398046
101	0xbcc0d63b	-0.023539653
102	0x3d8fd2b9	0.07022614
103	0x3e85da14	0.26142943
104	0xbe166ad3	-0.14689188
105	0x3d506577	0.050878014
106	0xbd3308a9	-0.04370943
107	0x3c8bd9a1	0.017071547
108	0xbd7743ac	-0.06036727
109	0x3e160475	0.14650138
110	0xbc7da398	-0.015480898
111	0xbe44c354	-0.19215137
112	0xbda1bddc	-0.07897541
113	0x3e107c82	0.14109996
114	0x3d5dc5ab	0.05414359
115	0x3cc13de0	0.023589075
116	0x3df90bcf	0.121604554
117	0xbdf14431	-0.117805846
118	0x3e0c7e16	0.13719973
119	0x3d9f97fd	0.07792661
120	0xbd8d5094	-0.06900135
121	0xbdf29479	-0.11844725
122	0x3d68de55	0.056852657
123	0x3da96edf	0.082731
124	0x3e404223	0.18775229
125	0x3d78134b	0.060565274
126	0x3ce998b2	0.028515194
127	0x3d97dc5b	0.07415076
128	0xbdea7191	-0.11447442
129	0xbd486dc9	-0.048932824
130	0xbe08e547	-0.13368712
131	0x3dea3f0d	0.11437807
132	0xbdb041e0	-0.08606315
133	0xbdf6914f	-0.12039434
134	0x3ccf0c40	0.025274396
135	0x3c96672a	0.01835974
136	0xbd83483d	-0.06410263
137	0x3cce0a56	0.025151413
138	0x3e03506f	0.12823652
139	0xbda4b288	-0.08041865
140	0x3dd30143	0.10302975
141	0xbe0570db	-0.13031332
142	0x3dcfd884	0.10148719
143	0xbddbe827	-0.10737639
144	0x3e1b400c	0.1516115
145	0xbd0e7d9c	-0.03478776
146	0x3df32d16	0.11873834
147	0xba02f7e9	-0.0004996048
148	0xbd903790	-0.07041848
149	0x3c494654	0.012284834
150	0x3d053903	0.032525074
151	0xbdb01ac6	-0.08598857
152	0x3df757c6	0.12077288
153	0x3dcc8a03	0.09987261
154	0xbd2186c8	-0.039435178
155	0x3cb98d92	0.022650514
156	0x3e032b04	0.12809378
157	0x3e189557	0.14900719
158	0xbd0cfaff	-0.034419056
159	0xbd5752d0	-0.05256921
160	0x3ce44d8a	0.027869005
161	0xbdfbbdb7	-0.122920446
162	0x3dc6905d	0.09695504
163	0x3dea58f4	0.11442748
164	0xbe11d6ff	-0.14242171
165	0xbe2e5348	-0.17023957
166	0xbd78086c	-0.060554907
167	0x3e11cbe6	0.14237937
168	0x3e2de75d	0.1698279
169	0xbd53988e	-0.05165916
170	0x3d4392aa	0.04774729
171	0x3cd8b7f3	0.026454901
172	0x3e2694a9	0.16267647
173	0x3de29641	0.11063815
174	0xbc868c94	-0.016424455
175	0xbc7bce25	-0.015368973
176	0x3df6dc9f	0.12053799
177	0xbdd75748	-0.105146945
178	0x3d704518	0.058659643
179	0x3e07750d	0.13228245
180	0x3a8d247c	0.001076832
181	0xbe5ffa20	-0.21872759
182	0x3cca7392	0.024713311
183	0x3d12e0d7	0.035858955
184	0xbc1db8a5	-0.009626542
185	0x3da370c6	0.07980494
186	0xbbbdef01	-0.0057963138
187	0xbdc1be1e	-0.0946009
188	0xbe1449ce	-0.14481279
189	0x3cac9415	0.021066705
190	0xbe33c127	-0.1755415
191	0x3db2eb71	0.08736313
192	0x3dfeccc1	0.124413975
193	0x3ce15469	0.02750607
194	0xbd86ed79	-0.06588263
195	0xbdfcdc30	-0.12346685
196	0xbdd01ee3	-0.10162141
197	0x3d8b0025	0.06787137
198	0xbe0e9a16	-0.13925967
199	0x3d3fb379	0.046802018
200	0xbe6e7133	-0.2328537
201	0x3dd29725	0.10282735
202	0xbd5a5384	-0.053302303
203	0xbdc34681	-0.09534932
204	0x3dec10a0	0.115266085
205	0xbc88c205	-0.016694078
206	0x3dc2fe3d	0.09521148
207	0xbe02db8d	-0.12779064
208	0xbd3f7778	-0.046744794
209	0x3b17caca	0.0023161643
210	0x3dc03e41	0.09386874
211	0xbe5e1fb6	-0.21691784
212	0xbe00cc7b	-0.12578003
213	0x3e312ffe	0.17303464
214	0x3d27aacc	0.04093437
215	0x3d84ed0b	0.06490525
216	0x3d6346c6	0.055487417
217	0xbcf5543e	-0.029947396
218	0x3cd117fa	0.025524128
219	0x3d9d2f86	0.0767508
220	0xbe80209a	-0.25024873
221	0xbd1a263e	-0.037634127
222	0xbe03a051	-0.12854125
223	0x3e061e86	0.13097581
224	0xbd814e5d	-0.06313775
225	0x3cee0f0f	0.029059915
226	0xbdd750d2	-0.10513462
227	0x3e2c7b8d	0.16844006
228	0x3d44cab5	0.04804488
229	0x3e1634a5	0.1466852
230	0xbdc7539d	-0.09732745
231	0x3d43a796	0.047767244
232	0xbd2bcf22	-0.041945584
233	0x3d420c98	0.04737529
234	0xbe004d7e	-0.12529561
235	0x3de914d0	0.11380923
236	0x3dad716e	0.084689006
237	0x3d4218a6	0.047386788
238	0xbc092e7e	-0.008372901
239	0xbd8bc63f	-0.06824922
240	0xbdea8839	-0.11451764
241	0xbe06185a	-0.13095227
242	0xbe431290	-0.1905005
243	0x3d0baf99	0.03410301
244	0xbdc506a0	-0.09620404
245	0xbd9f6dcc	-0.07784614
246	0x3e7e8c04	0.24858099
247	0x3e308aa7	0.17240392
248	0x3dcc68ab	0.09980901
249	0x3d99fb91	0.075186856
250	0xbe348aee	-0.17631122
251	0x3de2252c	0.11042246
252	0xbe27fd63	-0.16405253
253	0x3de73968	0.11290246
254	0x3d2556b6	0.040365897
255	0x3e2169e0	0.15763044

decoder.2.bias f4 [64]
0	0xbd2c851d	-0.042119134
1	0x3d73e44f	0.059543904
2	0x3dbfc563	0.093638204
3	0x3d3f0916	0.046639524
4	0x3e4bdd55	0.1990865
5	0x3e1dc473	0.1540697
6	0xbd980b2d	-0.074240066
7	0x3e1b06d2	0.1513932
8	0x3e20185e	0.15634295
9	0xbab3a4de	-0.001370575
10	0xbdb59985	-0.08867172
11	0x3e40a739	0.1881379
12	0xbd848573	-0.06470766
13	0x3d228319	0.039675806
14	0xbdd6b2c3	-0.10483315
15	0x3de2ba37	0.11070674
16	0x3e7ffbbc	0.24998373
17	0xbe2e5bbb	-0.1702718
18	0x3d2f96a1	0.04286826
19	0x3e7d9a74	0.2476595
20	0x3e419076	0.18902764
21	0xbdc0dcff	-0.09417152
22	0xbd8f8804	-0.07008365
23	0x3dd1ebe3	0.1025007
24	0x3db256fd	0.08707998
25	0x3e85c545	0.26127067
26	0x3e06e69a	0.13173905
27	0xbd9e1eed	-0.077207424
28	0x3e5fece4	0.2186771
29	0xbbc7e6a8	-0.0061004944
30	0x3e6df2db	0.23237173
31	0x3e3fdd83	0.18736844
32	0x3e8d17a3	0.27557096
33	0x3d9c08b2	0.07618846
34	0xbc13a3b1	-0.009011195
35	0x3dc42f4c	0.09579334
36	0xbd23ae53	-0.03996117
37	0x3d889983	0.06669905
38	0x3dc68fd3	0.09695401
39	0x3c4f1f23	0.012641701
40	0x3dde268c	0.10847196
41	0x3d7f581f	0.0623399
42	0x3ddfc97f	0.10927104
43	0x3e596165	0.2122856
44	0x3e15ac1f	0.1461644
45	0x3e1e2f64	0.15447766
46	0xbe990331	-0.29885247
47	0xbe37028a	-0.17872062
48	0x3e807410	0.2508855
49	0x3be75d04	0.007060649
50	0x3de82013	0.11334243
51	0x3e49fdb6	0.1972569
52	0x3e854308	0.26027703
53	0x3e76f25f	0.24115895
54	0xbc1543c3	-0.009110394
55	0xbde81260	-0.1133163
56	0xbe1a1b8a	-0.15049568
57	0xbdb5f6d9	-0.08884973
58	0x3bcba54b	0.006214773
59	0x3c585ab3	0.013205218
60	0x3df4041c	0.11914846
61	0xbcec7664	-0.028865047
62	0x3d5959d4	0.053064182
63	0x3e22bd7e	0.15892598
