Save_Models/model-lat1.pth (torch, 190946 bytes, 15 tensors)

encoder.0.weight f4 [128, 99]
000000 cf 2f 96 3d 7b fc 72 bd fc fc e3 3c ec 85 b1 3d
       0.073333375 -0.059322815 0.027830593 0.08668122
000010 41 6d 60 3d 6b 44 a3 bd a6 b5 fe 3c b2 97 9e 3d
       0.054791693 -0.07972034 0.031092476 0.07743777
000020 31 f4 c6 bd 4f 64 97 3c bf ff 35 3d 0f ce e7 3c
       -0.097145446 0.018480448 0.04443335 0.028296499
000030 d6 f7 a7 3d 20 c7 20 bc 8e a5 ae bd 06 91 8d bd
       0.08201568 -0.0098131 -0.08527671 -0.06912427
000040 15 2e c8 3d 5e 79 99 3d d4 7a 9d bc cb ea 73 3c
       0.097744144 0.07493852 -0.019223608 0.014887522
000050 5e 4e 4c 3d 15 74 1f 3d 53 83 89 bd 46 1d 19 3d
       0.049879424 0.038929064 -0.06714501 0.037381433
000060 ec ff 27 bd ed d2 b8 3d fc c0 77 3c b2 c1 8a 3c
       -0.04101555 0.09024606 0.015121695 0.016938064
000070 74 02 d4 3d e4 1c c0 3d a9 20 a9 3d 54 d5 00 3d
       0.103520304 0.093805104 0.082581826 0.031453446
000080 46 7c 57 3c 96 40 b6 3d a6 db 0e bd 97 78 d4 bb
       0.013152188 0.088990375 -0.03487744 -0.006484102
000090 72 6d b2 3d 9a df 61 bd 58 fa fe 3d ea a6 79 3d
       0.08712281 -0.055144884 0.12450093 0.060950197
0000a0 0c ff 86 3d 12 c6 d3 bc 23 7c f4 3d 14 e7 03 3d
       0.06591615 -0.025851283 0.1193774 0.032202795
0000b0 4f 5c 02 bc cb 2f 81 bc 72 25 41 bd 3e 3a d8 ba
       -0.007956578 -0.01576986 -0.04715485 -0.001649685
0000c0 9b bd 2f 3d 0a e2 81 3a 39 2e 8e bd c2 49 fd 3c
       0.04290543 0.0009909284 -0.0694241 0.03091896
0000d0 16 a5 8e bc 5c 39 68 bc 35 fd b1 3d f4 88 b0 3c
       -0.017412703 -0.014173832 0.086908735 0.02154968
0000e0 e4 76 f5 3d d1 75 9e bd 5a 34 7a 3d 80 0a de 3d
       0.11985567 -0.077373154 0.061085083 0.108418465
0000f0 b5 29 2c 3d 41 d0 40 3d 0f 45 0d 3d 12 3d 51 3d
       0.042031962 0.047073606 0.034489688 0.05108363
000100 dc fb ab 3d 2b c4 31 bd 52 8d fa 3d 51 e3 c1 3d
       0.08397648 -0.04339997 0.12233986 0.09467185
000110 0b ce f8 bc 20 0f 8d bd c2 5a 83 bd 65 a9 b4 3d
       -0.030371686 -0.068876505 -0.06413795 0.08821372
000120 c6 5b 99 3d 80 3c e8 3d e0 9a a0 3d 95 07 98 bd
       0.074882075 0.113396645 0.0784204 -0.07423321
000130 2a 77 cb 3d 66 3d 0e 3c 95 de 7b 3d 0a 9c c3 3d
       0.09934838 0.008681631 0.061491568 0.095512465
000140 ae 31 94 bd a9 4c 23 3a a7 89 03 bd f9 24 42 bd
       -0.07236038 0.000622938 -0.032113697 -0.04739854
000150 70 5d 69 3d cc 9c 56 3d d2 2c 9a bd 9b 72 5d bc
       0.056973875 0.052395627 -0.0752808 -0.013516094
000160 2c bb 8f 3d 1e 18 1c bd ec 06 bf 3d 33 b0 71 3c
       0.07018122 -0.038108937 0.09327492 0.014751482
000170 e4 bd d1 bc fa 74 b0 bc 0d 4d 22 3d 72 b3 b7 bb
       -0.025603242 -0.021540154 0.039624263 -0.0056061083
000180 71 92 a3 bd 4d b5 c2 3b 83 ef 8a bd 6a 73 d3 bd
       -0.07986916 0.005942023 -0.067839645 -0.10324748
000190 18 00 97 bd bd c3 28 bd 11 a3 b4 bd 4c f5 e7 bd
       -0.07373065 -0.041202296 -0.08820165 -0.113260835
0001a0 01 18 27 bd 03 f5 2c 3d e5 5f b6 bc e5 25 28 3d
       -0.040794376 0.04222585 -0.022262523 0.041051764
0001b0 92 1c ad 3c 5c f8 2c bd 67 a9 86 3d 6e 09 90 3b
       0.021131787 -0.04222904 0.0657528 0.0043956554
0001c0 85 d4 0a bd bb 8c f2 bd ad 2c a2 3d 48 c3 52 3d
       -0.03389408 -0.118432485 0.079186775 0.051455766
0001d0 25 7b e4 38 1d c2 e5 bd 2c fb 85 bc 62 e2 ee 3b
       0.00010894825 -0.11218665 -0.01635512 0.0072901705
0001e0 08 9d 89 bd 31 f2 80 bd 70 60 e3 bc f6 36 d2 bd
       -0.067194045 -0.06296194 -0.027755946 -0.10264389
0001f0 cf 79 d4 3c e6 c3 8e bc 4d d8 82 3d 14 4d ae bd
       0.02593699 -0.017427396 0.06388912 -0.08510795
000200 40 71 5b 3d a4 ad 8c 3c 87 00 f6 bc f3 cb 98 3d
       0.0535748 0.017172642 -0.030029548 0.07460775
000210 db 90 ad 3c 0b a2 6a 3d 8f 33 8a 3d 5c ff 03 bd
       0.021187237 0.057283442 0.06748115 -0.03222595
000220 59 9d 9a 3c 60 24 dc bd fb e8 5b bc 81 dc 44 3d
       0.018873857 -0.107491255 -0.013422246 0.04806185
000230 77 79 3d 3d 22 02 61 3d eb 45 a9 3c 75 46 f1 bd
       0.046258416 0.054933675 0.020663222 -0.11781017
000240 e6 10 c9 3c bc bb c8 bd 4d 35 02 bd 99 e9 d5 3b
       0.02454419 -0.098014325 -0.031789113 0.006528091
000250 07 a2 a3 3d 0f d9 05 bb 09 f3 9b bd b1 fa 74 3b
       0.07989889 -0.0020423566 -0.07614715 0.003738087
000260 62 bf e8 bd 04 89 05 3d 4f ea f4 bc cf a4 b0 3b
       -0.113646284 0.03260137 -0.029896883 0.0053907405
000270 69 e1 80 bd da fb c5 bd bd 5f af 3d dc d0 94 bd
       -0.062929936 -0.096671775 0.085631825 -0.07266399
000280 7f 40 3a 3d fc 78 09 bd fa de 19 bd f0 f1 5d 3d
       0.045471665 -0.033562645 -0.037566163 0.054185808
000290 32 39 90 bd 2f 3f 4e 3d 7f c9 7a 3c 27 35 ab bc
       -0.07042159 0.050353225 0.0153068295 -0.020899368
0002a0 28 df 9e bd f8 9a d1 3c ae ca b0 bd b0 f9 49 3c
       -0.077574074 0.02558659 -0.08632408 0.012327597
0002b0 65 1e 81 bd 16 34 9e 3c 30 15 a4 bd e7 66 4a 3d
       -0.063046254 0.019311946 -0.08011854 0.04941454
0002c0 f6 fa 00 3d 01 73 8c bd 89 97 f2 bc 6c a5 a6 3d
       0.031489335 -0.06857873 -0.029613273 0.081370205
0002d0 43 c1 de bd 46 1a a5 3d 4f 51 95 3d 9a cc b5 bd
       -0.108767055 0.08061652 0.07290899 -0.08876915
0002e0 d4 05 e6 bb b1 83 f3 3c 79 10 f4 3c 4c 10 b5 bd
       -0.0070197377 0.029725881 0.029793011 -0.08840999
0002f0 d4 79 80 3d b9 51 8e bd 0c 31 be 3c a0 05 8d bd
       0.06273237 -0.06949181 0.023216747 -0.068858385
000300 7f fe 7d bd 5a 93 ad bb 3d 2b e4 3b 77 95 d2 bd
       -0.062010285 -0.0052971067 0.006963162 -0.102824144
000310 fb 75 e6 bd 77 cf 53 bd 37 b4 41 bd ad 78 d7 bd
       -0.11252972 -0.051711526 -0.047291007 -0.10521064
000320 ff 6f b1 bd 55 27 a0 bd 6f 2d 1b 3c 71 90 a9 bc
       -0.0866394 -0.07820002 0.009471281 -0.020698758
000330 f3 87 a6 bd 82 78 23 bd 09 19 85 bc 4e 83 bc 3d
       -0.08131399 -0.039909847 -0.01624729 0.09204732
000340 2a 6f 9a bd 79 eb 4d bc ff fb d3 3d 66 2d 72 3d
       -0.07540734 -0.012568348 0.10350799 0.059125327
000350 ff b4 cd 3c 9e 5e 16 3d 60 3d 4b 3d 6f 1c a5 bd
       0.02511072 0.036711328 0.04961908 -0.08062064
000360 ba 75 7c 3a 01 3f 9c bc bb 40 98 3d b5 f6 4d bd
       0.000963058 -0.019073011 0.07434221 -0.050284106
000370 fe 32 11 3d a1 15 87 3c 7c 1d d3 bb 20 8c f4 3d
       0.03544902 0.016489806 -0.006442724 0.11940789
000380 fc 9b ba 3c 51 45 10 3d fc 95 9d bd bd 13 14 3d
       0.022779457 0.035222355 -0.07694623 0.036151636
000390 cf 35 82 bd d0 42 c2 3d 24 27 65 3c b0 ae da 3c
       -0.063579194 0.094854 0.013986383 0.026694626
0003a0 76 49 5f 3c 53 eb 4f 3c 82 f1 8d bd fe ff 7a b8
       0.013628354 0.012690383 -0.069308296 -5.9843056e-05
0003b0 d2 65 f7 bb fa b6 80 3d 73 fa c8 3d 9f 52 e8 bc
       -0.0075499797 0.062849 0.098133944 -0.02835971
0003c0 dd 99 81 3d 8b 00 96 3d 2f c1 b1 bc 0a 36 a1 3d
       0.06328175 0.07324322 -0.021698562 0.07871635
0003d0 37 ba ec 3c fb 8b 52 bd 1c cd 84 3d 37 12 4e 3d
       0.028897388 -0.051403027 0.06484434 0.05031034
0003e0 78 cb f1 bc a8 2f ee 3b d7 c5 78 bd 84 4d 8d bd
       -0.029515967 0.0072688647 -0.06073555 -0.068995506
0003f0 15 f3 ee bc 95 ce b0 bc 87 84 ab 3d 2e 9a 61 3d
       -0.029168645 -0.021582881 0.08374887 0.055078678

encoder.0.bias f4 [128]
000000 98 e2 be bd 70 44 47 bc a4 c1 82 bc ac 29 55 3d
       -0.09320563 -0.012162313 -0.015961476 0.052041695
000010 f2 b5 0d bd 20 1f 45 3d f1 6a 35 3d 31 2f 26 bd
       -0.034597345 0.048125386 0.04429144 -0.04057235
000020 5d ff 8e 3a 61 2c 09 3d a8 06 ac bd de 38 2d bd
       0.0010909844 0.03348959 -0.08399707 -0.04229056
000030 d6 ed 9f bd d9 83 33 3d fc 07 9c bc 1e db fb bc
       -0.078090355 0.04382691 -0.019046776 -0.030744132
000040 2e 6c 5d 3e d3 9d cc bd 95 ca a7 bc 1b 4a fe bd
       0.21623299 -0.0999104 -0.02048234 -0.12416478
000050 9a 07 b4 bd d3 67 40 3d 0c d0 0b be 47 01 4d bd
       -0.087905124 0.046974014 -0.13653582 -0.050050046
000060 fe 61 c3 bd ac e7 c6 3c fa 07 83 bd 70 92 aa bd
       -0.09540175 0.024280392 -0.06398006 -0.08328712
000070 d2 2a 92 3c 55 9a bb bd 08 c5 2d bd 35 16 b7 bd
       0.017842684 -0.09160296 -0.04242423 -0.089397825
000080 32 9c 0b 3d c9 bc 6c 3c a6 df 54 3d 35 d6 1f 3d
       0.034084506 0.014449307 0.0519711 0.039022643
000090 13 38 f8 bd 6e 67 ef bd bd 71 ce bd 8c 96 ac bd
       -0.1212007 -0.116896495 -0.100802876 -0.08427152
0000a0 1c 7b 14 be 29 7d cb bd 16 8b 0f bd 0a 3d 56 bd
       -0.14500087 -0.09935982 -0.035044752 -0.052304305
0000b0 de 83 60 3d 6e e5 02 be b5 29 23 bd 50 b6 00 be
       0.05481326 -0.12782833 -0.039834697 -0.12569547
0000c0 bd f3 91 bd 5d 51 98 bd 70 3f 74 3c 3f b3 b7 bd
       -0.071265675 -0.07437394 0.014907703 -0.08969735
0000d0 f8 20 13 3c 3c f4 c7 bd 74 e8 bb bd 32 94 6a 3d
       0.008980028 -0.09763381 -0.09175196 0.057270236
0000e0 ef c9 28 3d 84 15 d2 bd 40 0e a7 bc 2d b2 14 be
       0.041208204 -0.1025801 -0.020392537 -0.14521094
0000f0 45 59 16 be e0 54 0d be 59 a9 2e 3c f2 15 3b 3d
       -0.14682491 -0.13801908 0.010660493 0.045675226
000100 4f 9b 87 bc d1 8b 29 3d c3 69 89 bd 61 0b a3 3a
       -0.01655355 0.041393105 -0.067096256 0.0012439304
000110 eb c7 2d 3a 6d 7d 12 be e6 33 9b 3c b9 eb 10 be
       0.00066292164 -0.14305659 0.018945646 -0.14152421
000120 a9 dd ac bd 9a 02 4f 3c a2 4e e4 bd bf 14 f7 3c
       -0.08440716 0.012634898 -0.111478105 0.03016126
000130 47 be 0e bc 64 15 a8 bd 0c b7 94 bd 76 df 43 3c
       -0.008712358 -0.08207205 -0.07261476 0.011955133
000140 81 53 1f bd d5 53 4c bd 30 6b f4 bd a1 d1 c6 3d
       -0.038897995 -0.049884636 -0.11934507 0.09707952
000150 f7 66 a0 bd 06 90 67 bd 9c 83 3b 3d 7d 9b e1 bd
       -0.07832139 -0.056533836 0.04577981 -0.11015985
000160 73 a8 b0 bd 15 2b 9f bc 2e fa 7f bd 49 4c 0b be
       -0.08625879 -0.019429723 -0.06249445 -0.13603319
000170 4f 75 09 3d 3f 17 99 bd d7 fd 71 bd 53 aa 9a ba
       0.03355914 -0.07475137 -0.05907997 -0.0011800028
000180 71 7a df bc 86 18 20 bc 2e 19 aa bd 45 a6 20 3d
       -0.027280064 -0.009771472 -0.08305584 0.039221067
000190 fa d4 a7 3c a6 07 29 bd 66 ad c2 3b 73 48 c3 3b
       0.020487297 -0.04126706 0.005941081 0.0059595644
0001a0 b5 33 a3 bd 0f cc c8 bb 09 99 01 be 7d f1 19 bd
       -0.07968847 -0.0061278413 -0.12656035 -0.037583817
0001b0 99 d2 6a 3d e7 d1 da bd 6e 04 56 bd e6 99 17 be
       0.057329748 -0.10684567 -0.05225032 -0.14804801
0001c0 a7 d8 ee 3c 67 f2 2a be 41 69 3a be 23 4e e5 bd
       0.029156042 -0.16694032 -0.18204214 -0.11196544
0001d0 23 03 21 bd d0 63 cb bd 5d 2a 3d be 10 4e 80 3d
       -0.039309632 -0.09931147 -0.18473192 0.06264889
0001e0 b7 21 2d bd 13 94 f9 bc 69 1c 3e bc 05 e6 6a bd
       -0.04226848 -0.030466115 -0.011603453 -0.05734827
0001f0 6d d8 63 bd ac e3 ea bd b9 89 af 3b 9c 3d fc bd
       -0.05562632 -0.11469206 0.005356994 -0.123164386

encoder.3.weight f4 [64, 128]
000000 d8 77 8f 3c ba b5 b1 3d 2d b7 27 bd 9b e1 32 3d
       0.0175132 0.0867724 -0.040946174 0.043672185
000010 e4 9e a9 bd c6 63 fb bb 4f 8e fd 3b a5 bc ba bc
       -0.08282259 -0.007671806 0.007737912 -0.02279503
000020 52 74 f4 3c 0b 39 cd 3d e2 a7 df bc 2e f0 e6 bd
       0.029840622 0.10020646 -0.027301732 -0.112762794
000030 71 a2 14 bd 86 55 89 bc 89 25 e9 3d 6b 36 f0 bd
       -0.03628773 -0.016764414 0.113841124 -0.117291294
000040 4a 6b aa bd 1a 0c ee bc 7f bb be 3c 09 89 c8 3d
       -0.08321245 -0.029058505 0.023282764 0.097917624
000050 1d 1b 95 bd 96 af 07 3c 36 6a b3 b9 fe 6f 01 3b
       -0.07280562 0.008281609 -0.00034220674 0.001975059
000060 28 70 a6 bc 5a 8b 13 bd 3a ec 90 3c 2e e9 54 bc
       -0.020317152 -0.036021568 0.017690767 -0.0129950475
000070 38 f8 9f 3d c8 e3 73 bd 41 da b3 3c 59 64 8b 39
       0.07811016 -0.0595434 0.021954658 0.0002658691
000080 e8 aa 32 3d 2e 0d 6b 3d c2 6a e8 bd 5b aa 51 3d
       0.04362002 0.057385616 -0.113484874 0.051187854
000090 52 c7 95 bc 33 ee 86 bc ae b5 d8 3d 2c f1 5e b9
       -0.01828352 -0.016471004 0.10581528 -0.00021261413
0000a0 76 41 70 3c 96 c8 51 bc b4 e0 c9 bc f9 29 16 bc
       0.014664045 -0.012804171 -0.02464328 -0.0091652805
0000b0 54 55 bb bd a8 a8 8b bd 28 1a b0 3c e6 34 3a bc
       -0.091471344 -0.06819278 0.021496847 -0.011365151
0000c0 90 b1 43 3a aa 15 ae 3d 77 1b 51 3d 1d 77 6b 3c
       0.00074651185 0.08500226 0.051051583 0.014371661
0000d0 2b 6c 29 3d 3e 39 b2 bc 20 a3 4e bd c0 08 28 3d
       0.041362923 -0.02175581 -0.050448537 0.04102397
0000e0 b2 d4 73 bd ad 09 d0 bc 68 bf 38 3c 51 03 7a bd
       -0.059529014 -0.025395239 0.011276104 -0.06103832
0000f0 ec 88 23 bd 82 ca 52 3d a6 6d 7c 3d b3 da 97 bc
       -0.0399255 0.051462658 0.061628006 -0.018536901
000100 1f ed 51 3d ea 5f 89 bd c2 d7 1d 3d 1d f8 b5 3c
       0.051251527 -0.06707747 0.03853584 0.022213036
000110 01 c3 8f 3d 52 cc 7c bd ea aa 84 3d a9 1a e2 bd
       0.07019616 -0.061718293 0.06477912 -0.11040241
000120 c6 a7 b7 3d 8e 33 c3 bc 4f cc ae 3d 85 d4 2b bd
       0.08967547 -0.023828294 0.085350625 -0.04195072
000130 00 b1 fc 3d f3 22 87 3d a7 ca 9f bd d3 e5 24 bc
       0.123384476 0.06598463 -0.07802325 -0.01006456
000140 a3 5b 70 bd df b4 49 3c 02 b9 18 3d 26 dc d1 bd
       -0.05868114 0.012311189 0.037285812 -0.10247068
000150 54 63 a9 3c d0 4c d8 bc f4 9c 23 3c 67 76 b2 3d
       0.020677246 -0.026403815 0.009986151 0.0871399
000160 91 8f c7 3c 4a b0 13 3d 4d 78 49 bc 8b 59 6f bd
       0.02436045 0.036056794 -0.012296748 -0.058435004
000170 d9 3b d9 3d 52 49 25 3d 7b 9b bf 3d 72 64 99 bd
       0.10607118 0.040353127 0.093558274 -0.074898615
000180 8f 5e 05 3d 09 79 dc 3d b0 a9 b6 3c d3 95 78 bd
       0.03256088 0.10765273 0.02229771 -0.06068976
000190 0b 42 da 3d 41 22 d1 3d 38 cb e6 bd 33 76 46 bd
       0.10657128 0.102116115 -0.1126923 -0.048452567
0001a0 35 a8 4e bd cc 03 50 3d 88 ed 48 3d 3b 3b a2 3d
       -0.050453383 0.05078487 0.049054652 0.079214536
0001b0 b8 58 00 be eb a3 44 3c a5 e1 00 3d 1a af ba 3b
       -0.12533844 0.012001972 0.03146519 0.0056971433
0001c0 19 4a 99 bd fc e4 ed 3c 18 2c 70 3d f6 60 01 be
       -0.07484836 0.029039852 0.0586358 -0.12634644
0001d0 ca 93 45 bd 48 40 8f 3d 9c a8 09 3d 50 a7 3b 3d
       -0.048236646 0.069946826 0.033608064 0.04581386
0001e0 d2 03 18 bb 39 e7 ea bc 64 59 00 be df 7d 57 bc
       -0.0023195636 -0.028674709 -0.125341 -0.013152569
0001f0 d2 9f 95 bc bb e9 1f 3d 55 19 c0 3d 0d c3 32 3d
       -0.018264685 0.039041262 0.09379832 0.043643046
000200 e7 97 5c bd f3 ef 2a bd 61 94 34 3c 2b 68 aa 3d
       -0.053855803 -0.04173274 0.011021704 0.0832065
000210 a8 e4 ee ba b9 cc 25 3d 5c 27 87 3c 2a ae 40 3d
       -0.0018226104 0.040478442 0.01649826 0.047041096
000220 d4 5e 84 3d 67 4c ef bc 59 75 70 3c 13 72 8f 3c
       0.064633995 -0.029211236 0.014676415 0.01751045
000230 f6 ab 19 3d cc b4 88 3d 18 5c ea 3c 4d f2 c5 3c
       0.03751751 0.06675109 0.028608367 0.02416339
000240 69 ab 37 bd 20 fc b7 3d 50 8b 40 3c 2f 48 a1 bc
       -0.044841204 0.08983636 0.011751965 -0.01968774
000250 65 0f 39 3d 0c 12 50 bd dc d4 88 3b b5 e9 d0 3c
       0.045180697 -0.05079846 0.0041757654 0.025502065
000260 cf 26 d5 3b 9e 0d 2c 3d cf c8 8d bd b7 bc 47 3d
       0.0065048705 0.042005174 -0.06923067 0.048763957
000270 57 42 62 bd 74 a7 55 3d 7d b4 a2 3d 44 1d 83 bd
       -0.055239048 0.05216165 0.07944582 -0.06402066
000280 29 71 8b 3d 98 dd 7f 3d c0 b5 f5 3c f8 a5 19 bd
       0.06808693 0.062467188 0.029993892 -0.037511796
000290 3e 50 f8 bc dc 3d 98 3d 93 e8 85 bd 76 7c 49 3c
       -0.0303117 0.07433674 -0.06538501 0.01229774
0002a0 58 7d 64 bd 23 94 c0 3d 2f 73 18 3b 4c 5a f4 3c
       -0.0557836 0.09403255 0.0023262014 0.029828213
0002b0 28 8a 85 bc bc 39 9b bc 07 f7 c4 bb 80 6c 60 bd
       -0.01630123 -0.018948428 -0.0060108933 -0.054790974
0002c0 ef 96 ca bd 93 08 28 3c c5 a5 ee bc 63 7a 8a bd
       -0.098920695 0.0102559505 -0.02913178 -0.06761625
0002d0 cf 5c 80 3d 13 8c a2 3d 84 1d 15 bd a8 1b 36 bd
       0.06267702 0.07936873 -0.0364051 -0.04445997
0002e0 db 7c 55 bb fc 18 5c bb 94 40 08 bd 2f 59 47 bd
       -0.003257564 -0.0033584228 -0.03326471 -0.048669036
0002f0 4c 51 c7 3c fa e7 a1 3d 8c 84 01 bd 9c e8 c0 3d
       0.024330758 0.07905574 -0.031620547 0.09419367
000300 18 17 bd 3d 98 30 88 3d 2f 0f a5 bd 63 4d 7c 3d
       0.092329204 0.066498935 -0.08059537 0.06159724
000310 c5 47 c4 3d 54 31 ca 3c 51 3e 58 3d 33 c6 1c bc
       0.095840015 0.024681725 0.052793805 -0.009568739
000320 0e 0e a0 bd cc 67 fa bb 8a ba 81 3d 7d e2 00 3d
       -0.07815181 -0.007641768 0.06334408 0.031465996
000330 d6 bd 47 bd 37 20 e6 3c c4 a5 4a bd 98 e2 88 bd
       -0.048765026 0.028091533 -0.049474493 -0.06683844
000340 b5 d4 89 3c 56 d4 cc 3a 4e eb 47 3d 64 91 0e bc
       0.01682506 0.0015627246 0.04880839 -0.008701656
000350 76 3f 1f bd e0 d9 59 3d 9a c2 ad 3c b5 e3 1d bd
       -0.03887888 0.053186297 0.021210957 -0.038547236
000360 22 20 9b bc 42 ee 34 bc a7 9e c8 bc 88 21 78 3c
       -0.01893622 -0.011043133 -0.024489714 0.015144713
000370 07 ef a7 3d 88 3b 88 bd 35 00 94 3c b2 3b 61 bd
       0.08199888 -0.0665198 0.018066505 -0.05498857
000380 d1 cc 35 3d 9e 8d cb 3d 68 b6 06 3d 50 5d e4 bd
       0.04438478 0.09939121 0.0328888 -0.111506104
000390 40 a9 ac 3c ba 37 a3 3d c5 e4 20 be 07 34 97 3d
       0.021076798 0.079696134 -0.15712269 0.0738297
0003a0 0d d1 13 bd 18 30 3b 3c 77 c0 4d bd 07 2b 83 3d
       -0.03608804 0.011425041 -0.050232377 0.06404691
0003b0 20 49 8b bd cb 14 68 3b 6f d5 2d 3d e9 00 82 bd
       -0.06801057 0.0035412784 0.042439874 -0.0634783
0003c0 31 ad 3f 3c 8e 6f d9 bc d7 32 79 bd 8e cd 88 bd
       0.011699007 -0.026542451 -0.0608395 -0.066798314
0003d0 fb 45 8f 3c 43 c8 42 bd 11 16 95 bc c9 b5 79 3c
       0.017489424 -0.047554266 -0.018198999 0.015241095
0003e0 7c 5f 9e 3d a8 c1 87 bd bd 47 5c 3c 32 06 ac 3c
       0.07733056 -0.06628734 0.013444838 0.020999048
0003f0 0d 36 11 3d 4a b5 f2 3c 90 5a 2b 3d 32 af ab 3d
       0.035451937 0.029627461 0.041834414 0.08383025

encoder.3.bias f4 [64]
000000 73 8b cc bd 34 61 ba bd 05 c0 2b bd d9 03 73 bc
       -0.09987535 -0.09100571 -0.04193117 -0.01483246
000010 0c 1a c3 bb 3e 03 0d bd 00 05 d1 3b e8 57 04 bd
       -0.0059540328 -0.03442692 0.00637877 -0.032310396
000020 1a 36 93 bb cc 16 8d bd f3 05 ba 3c 2e 46 f7 3c
       -0.0044925334 -0.06889114 0.022707915 0.030184831
000030 c6 8a e1 bd 65 15 f2 bd 5b 69 af bc 45 53 c0 bd
       -0.11012797 -0.11820487 -0.021412542 -0.093908824
000040 5d 90 21 b9 a4 6e 86 bd 04 1b 94 bd 5b 54 29 bb
       -0.00015407936 -0.06564072 -0.07231715 -0.0025837633
000050 38 b5 68 3d 14 24 8a bd 5a 9e 8e bc 2c e3 4d bd
       0.05681345 -0.067451626 -0.017409492 -0.050265476
000060 4a d7 0f bc ad af 9f bd 4d 63 4c bc 16 0e ef bd
       -0.008779356 -0.07797179 -0.012474847 -0.116726086
000070 5c 44 b1 bd 16 89 97 3c 0c 00 c8 bd 30 0a 25 ba
       -0.08655617 0.018497985 -0.09765634 -0.00062957685
000080 1e b2 e2 3d 85 c8 84 bc 72 52 cd bd fb fc a9 bc
       0.110691294 -0.016208896 -0.10025491 -0.020750513
000090 de de 13 bd 10 fd cf bd b7 99 90 bd bf c8 ad bd
       -0.036101215 -0.1015569 -0.07060569 -0.08485555
0000a0 63 2f 97 bd 96 42 16 bd dc 8c 87 bd 10 7d c0 bd
       -0.07382085 -0.036684595 -0.06618664 -0.09398854
0000b0 2b 65 22 be 44 ad 0a bd 57 70 31 b9 4c b9 04 3d
       -0.15858905 -0.033856645 -0.00016921885 0.032403275
0000c0 41 c4 14 3d 5c 25 a6 bd 91 e7 bf 3b 7b f0 98 bd
       0.036319975 -0.081125945 0.0058564623 -0.07467743
0000d0 56 75 d5 ba 9f 3d 4f bd e3 cb d1 bd 07 06 c2 bc
       -0.0016285579 -0.050595876 -0.102439664 -0.023684515
0000e0 75 e5 4c bb c9 8e f1 bd 7e 0f 0d be 14 29 41 bd
       -0.0031264697 -0.11794812 -0.13775441 -0.047158316
0000f0 5d fc 8c bc b3 8a a9 bd a1 60 8a 3c e5 bd 88 bd
       -0.01721018 -0.08278408 0.01689178 -0.066768445

encoder.6.weight f4 [32, 64]
000000 63 cd 4f bd ad c8 f9 bd a6 95 b2 bd 4b 9e 95 3d
       -0.05073298 -0.12196479 -0.087199494 0.073055826
000010 eb ff 14 be 5c 23 45 bb 2d 54 c7 bc 2c fd 04 3e
       -0.1455075 -0.003008089 -0.02433213 0.12987202
000020 95 80 27 3d c2 bd 62 3d 09 46 f7 3d f4 a0 b8 3d
       0.04089411 0.05535675 0.12073905 0.09015074
000030 0d d8 04 bd c0 be 3a 3d a0 fd aa 3b 96 85 39 bd
       -0.032432605 0.04559207 0.0052182227 -0.045293413
000040 2d dc cc bd c9 dd b4 bc ef fa 9f bc 6f 99 6c bd
       -0.10002933 -0.022078412 -0.019528834 -0.057763513
000050 22 92 a0 bd a1 f5 eb 3d 26 ee 1a 3d 46 8a dc bc
       -0.078403726 0.11521459 0.037824772 -0.026921403
000060 95 95 ac 3a e1 cd a3 bd bb a8 42 bd c8 5d 8f bc
       0.0013167138 -0.07998253 -0.047524195 -0.017500773
000070 3f ad 92 3d 19 df 1c 3d 78 63 92 bd 44 32 ce 3d
       0.0716195 0.0382987 -0.071478784 0.10068181
000080 f0 11 9a bd 8a 57 0a be 61 87 e1 bd a7 7e d4 3d
       -0.075229526 -0.13509956 -0.110121496 0.103757195
000090 d0 d9 c6 3d 50 df a2 3d a3 af 1d bd 50 79 06 bd
       0.09709513 0.0795275 -0.03849758 -0.032830536
0000a0 cd b3 72 bc 88 09 e2 bb 71 df c8 bc 33 ee fa 3d
       -0.014813376 -0.006898109 -0.024520608 0.12252464
0000b0 f3 61 dc 3d 51 dc 5b 3d b6 00 ba 3d e9 87 a6 bd
       0.1076087 0.053676907 0.09082167 -0.081313916
0000c0 8e e4 09 be 6f 72 3a 3d 46 71 fb bc 90 b6 bd 3d
       -0.13466093 0.04551929 -0.030693661 0.09263337
0000d0 89 a0 d2 bd 1d de 80 bd b8 ba cd bc 15 bc 5e bd
       -0.10284526 -0.06292365 -0.025113449 -0.054378588
0000e0 bd bf b0 bd 1f b6 64 3d f2 2d b3 bd ea b9 1d bd
       -0.08630321 0.055837747 -0.08748998 -0.03850738
0000f0 5f df bd bd f9 ba d2 3d 1b 8a f6 bc 70 0e 1a be
       -0.0927112 0.102895685 -0.03009515 -0.1504457
000100 6e b0 15 be b4 f5 8d bd 59 e3 92 bd 0a 91 01 3e
       -0.14618084 -0.0693163 -0.071722694 0.12652984
000110 37 7d 55 3d 50 b8 0e 3d b6 83 65 bd a4 8d 32 bc
       0.052121367 0.034843743 -0.056033812 -0.010898028
000120 36 b9 e4 bc 16 e4 45 bc 34 c9 d8 3d 24 32 84 3d
       -0.027920347 -0.012078306 0.105852515 0.06454876
000130 e1 d7 10 3e 86 fe 26 3d fa 73 ff bd 1f 02 00 bd
       0.14144851 0.040770076 -0.12473293 -0.031252023
000140 56 46 1c bc 66 b5 76 3d 8f 0f d8 3b 81 3a 6b bd
       -0.009538254 0.06023159 0.0065936516 -0.05742884
000150 fb f8 49 bd 17 05 23 bd 8d 97 a7 bd 0e ba 32 3d
       -0.049309712 -0.039799776 -0.08183203 0.043634467
000160 73 bb a8 3c 30 8a 04 3d 8f 89 dc 3d e4 de ac 3c
       0.020597195 0.03235835 0.10768425 0.021102376
000170 b2 58 08 3d 46 c9 e9 3c 56 98 be bd 06 5f 06 3e
       0.03328771 0.028538357 -0.093063995 0.13122186
000180 4b 2f a3 bd ed c3 10 be 00 18 8c 3b 92 c5 b7 3d
       -0.07968005 -0.1413724 0.004275322 0.089732304
000190 9e af ab bc af 21 96 bd 6e a9 04 bd e0 84 68 bc
       -0.020957764 -0.073306434 -0.032388143 -0.014191836
0001a0 1d d5 8f 3c 6f 27 1f 3d c9 83 b7 bd 17 36 9d 3b
       0.017557675 0.038855966 -0.08960683 0.004797708
0001b0 0f 9e de bc c1 78 0d 3e b0 c7 c2 bc 77 53 fc bc
       -0.027174978 0.13815595 -0.023776859 -0.030801518
0001c0 be e5 f6 bc 64 6a ac bd c2 a4 19 3e c0 4f 50 bd
       -0.030138846 -0.0841873 0.15004256 -0.050857306
0001d0 a7 5e b3 bb ed 0a 23 3d 45 6d 99 3d 84 55 30 3d
       -0.00547393 0.03980534 0.07491545 0.043050304
0001e0 a7 24 75 3d 0a 26 d7 bc 6e bf 8c bb a8 e1 32 3d
       0.059849408 -0.026263256 -0.004295281 0.043672234
0001f0 c6 66 86 bd 51 8a 19 3e 92 64 39 3d a9 32 83 3d
       -0.06562571 0.1499417 0.045261927 0.06406147
000200 26 99 3b 3d cc 42 93 bd e1 fd 1c 3e 7b 8f 18 be
       0.04580035 -0.07190475 0.15331222 -0.14898483
000210 84 07 76 3c 6d 78 30 3e a3 ed e3 bb 91 5a 9c bd
       0.01501644 0.17233439 -0.0069558187 -0.07634462
000220 5c 86 89 bd 5e f0 ad 3d da 0f 12 3e 6a 47 ce bb
       -0.0671508 0.08493112 0.1426386 -0.0062951343
000230 7c 86 e2 bd 88 14 30 ba 3a 66 30 3e 8f 0a 8d 3d
       -0.11060807 -0.00067169266 0.17226496 0.068867795
000240 fe 11 d8 bd 99 b8 e6 bd 33 5e df bc b1 70 f2 bc
       -0.10550307 -0.11265678 -0.027266597 -0.029594751
000250 21 47 28 3e 5e 76 ce bd a6 fc 87 bd cb 09 03 bd
       0.16433384 -0.100811705 -0.06639986 -0.03199176
000260 d1 8a dc bd c5 6c 05 be fd 18 8a 3c fe bc 35 3e
       -0.10768665 -0.13029774 0.016857618 0.17747876
000270 ea 4f f0 3d de 37 5f 3c 4b 11 7e 3c 84 d4 2a bd
       0.117339924 0.01362416 0.015507053 -0.041706577
000280 10 42 2e 3d 2e b8 b6 bc de 3d 41 3d fa c8 c2 3b
       0.04254347 -0.02230462 0.04717814 0.0059443684
000290 4b 5f 36 bd 60 e0 25 3e dc c2 78 bc ec 17 29 bd
       -0.044524472 0.16198874 -0.015183177 -0.04128258
0002a0 e8 b7 d9 bc 94 a5 04 bd a8 44 b9 3c 07 d5 b0 bc
       -0.026576951 -0.03238447 0.022615746 -0.021585954
0002b0 e7 51 bd 3c 14 42 21 be f9 27 be bc 8a fd 4a 3d
       0.023110343 -0.15747863 -0.02321242 0.0495582
0002c0 9e 41 9f bc 22 ab 2e 3d 8d 97 a5 3d 6b 42 09 be
       -0.019440468 0.042643674 0.08085547 -0.13404243
0002d0 a7 e6 5f 3d 40 1a db 3d 4d 4f 50 3d 24 75 76 bd
       0.054663327 0.10698366 0.050856877 -0.060170308
0002e0 27 c0 3c 3d 94 99 c2 bd cc 37 b7 3d af 7b b0 bd
       0.04608169 -0.09501949 0.08946189 -0.08617341
0002f0 23 d3 1a bd 63 ec b6 bd 32 1c 7f 3d 98 91 46 bc
       -0.037799012 -0.08931806 0.06228275 -0.012119673
000300 33 a8 0e 3d a8 ef 38 bd ce b1 bd 38 b0 a7 82 3d
       0.034828376 -0.04515043 9.045341e-05 0.0637964
000310 bf 04 88 3d 2b 45 a8 bd 53 5c 70 bd c0 62 05 be
       0.0664153 -0.08216318 -0.058681797 -0.13025951
000320 c6 e1 b4 bd 5d 83 85 bd 04 93 6c bd 38 cd 1f 3c
       -0.08832125 -0.06519196 -0.057757393 0.009753518
000330 13 b2 b2 3d 5c 96 de 3b a1 65 26 3d 38 f8 9b 3c
       0.08725371 0.0067928266 0.040624265 0.019039258
000340 c4 a2 00 bd 53 7e 27 bc 7f 90 57 bd 76 2f 33 bd
       -0.031405225 -0.010222989 -0.052628037 -0.043746434
000350 02 7d 16 3d d3 df 6d bd 34 bc 52 bd 7f 5b 6e bd
       0.03674031 -0.058074784 -0.051449016 -0.058192726
000360 26 c3 e9 3d f9 3e 89 3d 9d 31 49 3e 2a 80 c1 bc
       0.11414175 0.06701464 0.19647832 -0.023620684
000370 f0 73 65 3d 8a 26 82 3d 90 ca 55 3d 84 75 0c bd
       0.05601877 0.06355007 0.05219513 -0.03429176
000380 31 50 ff 3d a8 9e 17 bd ec 25 a7 3d 1f 33 8c bd
       0.12466467 -0.03701654 0.0816153 -0.06845688
000390 90 25 7f 3d d4 f4 30 3c 8a ca 80 bd f3 58 3a bc
       0.06229168 0.010800559 -0.06288631 -0.011373746
0003a0 94 09 9c bd 30 4c 93 3b 51 ab e7 bc ac 7d ff 3d
       -0.076190144 0.0044951662 -0.028279932 0.12475142
0003b0 4b 03 4f 3d 70 e8 3a 3e 4e df 33 bd d9 75 08 be
       0.05054025 0.1825273 -0.04391413 -0.13326205
0003c0 82 8d d3 bd 91 10 96 bc 0c 19 33 3d f2 8e 35 3d
       -0.10329725 -0.018318446 0.04372506 0.044325776
0003d0 d4 a7 07 3d 79 d8 d6 bd c5 07 f9 3d 45 73 4b bd
       0.033119038 -0.10490508 0.12159685 -0.049670476
0003e0 6e 37 2c 3c 48 94 85 bd d0 7f 7c 3d 27 d5 75 bc
       0.010511262 -0.06522423 0.06164533 -0.015004433
0003f0 4a 1c 21 bd 13 37 9b bd 20 4d 8c 3d d6 bf 24 bc
       -0.03933362 -0.07578864 0.06850648 -0.010055503

encoder.6.bias f4 [32]
000000 d8 83 4b 3d b1 51 9e bc 83 22 f4 bd e2 ba 82 bd
       0.049686283 -0.019326063 -0.11920645 -0.06383301
000010 f8 4f bc bd 55 0e 4f bd 0f 1e e9 bc 01 dd 5d 3c
       -0.0919494 -0.050550777 -0.028456716 0.013541461
000020 47 e4 0c bd 66 f5 d9 bc 43 38 34 bd 49 83 63 3c
       -0.03439739 -0.026606273 -0.043998968 0.013886281
000030 3b 51 ce bd 07 95 35 bc 18 e9 49 bd f4 f8 99 bd
       -0.10074087 -0.011082894 -0.04929456 -0.07518187
000040 b7 05 ef bc ac d2 ff bd 7a 56 70 bd d1 45 10 be
       -0.02917753 -0.12491354 -0.05867622 -0.14089133
000050 bc e0 1e bd 30 6d 55 3d 14 62 a2 bc 54 a2 28 be
       -0.038788542 0.052106082 -0.019822158 -0.16468173
000060 2f 8c a5 3d 2f ce 21 3b 13 90 e0 bd 64 2a e7 bd
       0.080833785 0.0024689545 -0.1096498 -0.11287382
000070 47 02 77 bd 17 48 e8 bd da 59 a6 bd 3b a7 1e be
       -0.060304906 -0.11341875 -0.081226066 -0.15493481

encoder.9.weight f4 [1, 32]
000000 07 2e 2f 3e 4c a0 e3 3d 02 2d f1 bd aa 0c 93 3d
       0.17107402 0.111145586 -0.11776163 0.0718015
000010 7d 1a b6 3d 3a eb ae 3d e3 9a 4d be 14 ba 96 3d
       0.08891771 0.0854096 -0.20078616 0.0735971
000020 cd 1b 0d be 47 5b cb bd 91 7b 38 be d4 af 2b 3e
       -0.13780136 -0.09929519 -0.18015887 0.16766292
000030 27 29 f8 3d 5b 89 f9 bd 05 24 79 3d f3 4f 8e bd
       0.12117224 -0.121844016 0.060825367 -0.06948843
000040 55 33 94 bd dd 7a 05 be e3 03 24 3e 4e f0 9c bd
       -0.07236353 -0.1303515 0.16017108 -0.07663022
000050 94 46 85 bd 3c 8e b5 3d 09 6b 16 be ac c0 59 3d
       -0.06507602 0.0886502 -0.14689268 0.05316226
000060 60 7f 2d be 40 25 8e bd 8e 6b a4 3d 8c 9a cf bd
       -0.16943121 -0.069406986 0.08028327 -0.10136899
000070 c0 70 fb 3d e2 60 23 3e fb 2f 96 3d d2 82 19 3e
       0.12277365 0.15954927 0.0733337 0.1499131

decoder.0.weight f4 [32, 1]
000000 61 96 80 bf 22 0a 4d bf fc a6 94 be 53 a8 0c 3e
       -1.0045892 -0.80093586 -0.2903365 0.13736086
000010 c9 a1 d4 bc 7b 63 a8 3c 60 2a 13 bf 8b 2d 49 3f
       -0.025956051 0.020555248 -0.57486534 0.7858512
000020 3b 06 4f bf a7 eb c0 3d b2 1f 3a 3e 45 34 62 bf
       -0.8086888 0.09419947 0.18176153 -0.88361007
000030 fb 0e c7 be 80 41 7b bf 14 41 a3 3e fb fb ca 3c
       -0.38878617 -0.9814682 0.31885588 0.024778357
000040 d0 46 0c 3f 87 ba 73 3f d7 0a 6a bf 9c 22 7c bf
       0.5479555 0.95206493 -0.9142279 -0.9849031
000050 b9 a2 66 bf bb db 82 be 26 5a c3 3e 28 5f 4e bf
       -0.90092045 -0.25558266 0.38154715 -0.80613947
000060 27 de f1 be d7 de be 3e f9 99 f0 3e 73 71 69 3f
       -0.472398 0.37279388 0.46992472 0.91188735
000070 75 00 20 3e 68 c8 55 bd 1d 53 2d bf 65 bd a6 be
       0.15625174 -0.052193075 -0.67704946 -0.32566372

decoder.0.bias f4 [32]
000000 45 d5 fb bd 11 83 76 bf 49 3a 22 3f f8 02 81 3e
       -0.12296537 -0.9629374 0.63370186 0.25197577
000010 7f 00 4a 3f 24 fe c6 3e 3e 19 61 bf 9c 52 a8 3e
       0.78907007 0.3886577 -0.8792914 0.32875526
000020 38 70 52 bf 23 e0 06 3f eb 96 7d 3f d5 7a d3 3b
       -0.8220248 0.52685755 0.9905841 0.0064538517
000030 79 78 4c 3e 2a b0 ce 3b 7c ed b7 3e 19 c1 d8 3e
       0.19967832 0.0063076215 0.35923374 0.42334822
000040 cc 56 b8 3d 20 f1 b9 3e 4a c1 0a 3f 23 e7 7a bf
       0.0900093 0.36316776 0.54201186 -0.98008937
000050 80 1a c9 be 99 c7 24 3f 07 dd 6d 3f 42 ad 6b bf
       -0.3927803 0.6436706 0.92915386 -0.92061245
000060 e9 82 43 3f 08 9e 5e bf 0a 0d 54 bf bd 41 e4 be
       0.7637163 -0.86959887 -0.82832396 -0.44581404
000070 28 dd 3c 3f 08 a5 08 3e bb 27 4b 3e fb 37 bd be
       0.7377496 0.13344204 0.19839375 -0.36956772

decoder.2.weight f4 [64, 32]
000000 50 d0 0f 3e a0 e2 17 3e 9a 8e e7 bc 2e 8e cd 3d
       0.14044309 0.14832544 -0.02826624 0.10036884
000010 b9 4c 80 3d 4d 40 1d be e9 91 08 3e 05 dc a3 bc
       0.06264634 -0.1535656 0.1333691 -0.020002374
000020 fd d9 cb 3d 21 c3 08 ba 5f 2d b7 bd 51 0a 01 3d
       0.09953687 -0.0005217065 -0.08944201 0.03150398
000030 dc cb 13 be 21 36 fc 3d 16 24 e3 bd 0b f9 2c be
       -0.14433235 0.12315012 -0.11090867 -0.16891877
000040 1a 70 6e 3a ff b8 ce bb 12 a1 28 3e cf a7 0a 3c
       0.0009095684 -0.0063086743 0.16467693 0.00846286
000050 25 bb 2b be 20 16 21 3e 59 52 f4 3c 8a 39 94 bd
       -0.16770609 0.15731096 0.029824423 -0.07237537
000060 00 df 3f 3e 2d 0d 7e bd 44 2a 72 3d 4c 6f 81 3d
       0.18737411 -0.062024284 0.05912234 0.06320056
000070 84 c9 cc bb 39 9a 3e 3e 4c 3f c5 bd d1 b4 83 3d
       -0.0062496085 0.18613519 -0.096312135 0.06430972
000080 1b c8 b8 bd a1 1c 31 3e bd 11 14 3e e0 93 8d 3d
       -0.09022542 0.17296077 0.14459892 0.069129705
000090 58 da e8 3c b5 84 d6 bd 38 5d a6 3c aa 46 bb 3d
       0.028424427 -0.104745306 0.020308122 0.091443375
0000a0 58 32 bf bc d4 f6 3d bd 07 ac bb bd a2 8a 0f be
       -0.023339435 -0.04637797 -0.09163671 -0.14017728
0000b0 28 17 f3 bc 9d 17 1b be d0 2a 00 3c a3 23 b6 bd
       -0.029674128 -0.15145727 0.007822707 -0.08893516
0000c0 06 94 90 bd e8 5b eb bc f7 02 2b be 86 9c cd 3d
       -0.07059483 -0.028730348 -0.1670035 0.1003962
0000d0 5c ea 18 3d e4 e8 93 3d 38 a3 df bd 25 21 91 bd
       0.037332878 0.07222155 -0.109198034 -0.070864
0000e0 0e d9 5b bd b6 9e db bd 82 e6 10 be 44 3a c0 bd
       -0.053673796 -0.10723631 -0.14150432 -0.09386113
0000f0 13 02 21 3e 3e 47 18 be 29 bc 0b 3e 7e f8 cc 3d
       0.15723448 -0.14870927 0.13645996 0.100083336
000100 04 4c 7c 3d 62 16 b9 bd 05 5d ee 3c d9 00 35 3d
       0.06159593 -0.09037472 0.02909709 0.04419026
000110 6b e0 54 3e a2 70 77 bd 38 4e 1e be e0 d6 05 3e
       0.20788734 -0.06041015 -0.15459526 0.1307025
000120 3f 60 38 3d e1 a7 a4 bd 91 bb 5e 3d b6 91 bf bd
       0.045013662 -0.08039833 0.054378096 -0.09353964
000130 c2 e7 0b be 17 8b a5 bd af af 85 bd ba 7e 21 bc
       -0.13662627 -0.0808317 -0.065276496 -0.009856874
000140 ea ed 07 bd 3e 52 9b bd 4e 4c e3 bd dc 67 8c bd
       -0.033185877 -0.07584046 -0.11098538 -0.06855747
000150 44 43 44 be 89 7c 8c 3c 66 78 2e 3e 8c ab 7f bd
       -0.19166285 0.017149227 0.17038116 -0.06241946
000160 13 82 26 3d 29 60 46 3d 59 a8 f1 bd 51 e4 87 bd
       0.040651392 0.04843155 -0.11799688 -0.06635345
000170 4a 2d 04 3e 02 3c 29 bd 8f 79 bb bd 2b 87 36 3c
       0.12907901 -0.041316994 -0.09154045 0.011140625
000180 f6 d4 7e 3d 4e 5c 27 3e d9 e3 73 bc fc 28 28 bd
       0.062214814 0.16343805 -0.014885866 -0.04105471
000190 e7 f4 c3 3d 0e dc 05 3e 26 15 99 bd b4 c2 76 3d
       0.09568196 0.13072225 -0.07474737 0.060244277
0001a0 00 a0 18 3e 42 95 f9 3d 3a 5b 9c bd 22 92 87 bd
       0.14904785 0.12186672 -0.076345876 -0.066196695
0001b0 c0 da 02 3e ba 3f 13 be 47 ea 2f be f8 e2 e9 bd
       0.12778759 -0.14379779 -0.17179213 -0.11420244
0001c0 e4 32 05 be 0c b5 30 bd 6a bb d3 3d f9 68 45 bd
       -0.13007694 -0.04314141 0.10338481 -0.048195813
0001d0 39 5e 75 bd 7a e9 02 be f8 e7 33 3d e7 87 b8 bd
       -0.05990431 -0.12784377 0.043922395 -0.09010296
0001e0 e7 5b 28 3d 78 2c b1 3c 20 8b ea 3b d1 54 03 be
       0.04110327 0.02162765 0.0071576983 -0.12825324
0001f0 80 b4 f7 bb 98 e8 a5 3d 6b 72 90 bd c2 8d 01 be
       -0.007559359 0.08101004 -0.070530735 -0.12651733
000200 c9 8e 31 be 6c c7 8e 3d f3 7d ee bd 3d db d5 3d
       -0.17339624 0.069716305 -0.11645117 0.10442207
000210 da 60 04 be ae 83 2b 3e 56 27 e1 3d 0c cd bb 3d
       -0.12927571 0.1674945 0.10993831 0.09169969
000220 e0 9f 93 bd 5a 76 6f bd 74 ef 95 bd 93 62 19 3e
       -0.07208228 -0.05846248 -0.07321063 0.1497901
000230 f0 ed 08 be 30 00 6a bd d7 49 c0 3b e5 d3 f1 bd
       -0.13372016 -0.057129085 0.0058681774 -0.11807994
000240 53 c9 fc bd 87 a9 39 3d 96 b5 9e 3d 51 f8 b3 bd
       -0.12343087 0.04532769 0.077494785 -0.08787597
000250 d7 ec 1b be cd 3a 94 bd 38 25 01 b9 c8 29 d1 bc
       -0.15227066 -0.07237778 -0.00012316264 -0.025532618
000260 66 7d 56 bc 16 e2 2b be cb 44 29 3e 2a 10 bd 3b
       -0.013091421 -0.16785464 0.16530149 0.005769749
000270 1c dc cb bd 18 20 cf bc 20 24 f3 bc bc 2c 06 be
       -0.09954092 -0.025283858 -0.029680312 -0.13103002
000280 17 83 b1 bd b8 be 6c 3d 66 dc fa bd 12 71 21 be
       -0.086675815 0.05779907 -0.12249069 -0.15765789
000290 7c d3 16 3d 68 d4 82 3c 42 f6 b1 3d d8 a3 31 be
       0.03682278 0.015970424 0.08689548 -0.17347658
0002a0 14 d2 41 bd b8 4a 28 3d 48 83 a9 bc 00 e1 57 3a
       -0.047319487 0.041086882 -0.020692483 0.0008235127
0002b0 83 75 d7 bd 08 e6 b0 3c 38 99 a7 bc 40 a8 d4 bc
       -0.105204605 0.021594062 -0.020458803 -0.025959134
0002c0 3a ab 2b be 4a 29 c8 bd e0 19 70 bd a3 01 84 bd
       -0.16764536 -0.097735 -0.058618426 -0.06445625
0002d0 60 a2 7e bc 24 a8 24 be 12 37 c6 3d 6a 05 82 bd
       -0.015541643 -0.16079766 0.096784726 -0.06348689
0002e0 03 0f 1c 3e b2 58 11 be 14 00 18 bd 30 22 0a bd
       0.15240102 -0.14193991 -0.03710945 -0.03372401
0002f0 0a 7b 33 be 6d 75 fa bd 9e e0 ee 3d e0 4a 02 be
       -0.17527404 -0.122294284 0.11663936 -0.12723875
000300 f5 3d c7 3d 68 7a 89 3d 49 a9 c3 3d c4 41 52 3d
       0.09728614 0.067128 0.09553773 0.05133225
000310 cc a0 ba 3d eb 9e 17 3e e3 b7 c7 3d 95 a3 55 3b
       0.09112701 0.14806716 0.097518705 0.0032598723
000320 ba 2e da 3c 07 83 8e 3d a3 7f 1b 3b 57 c4 12 3e
       0.02663361 0.06958585 0.00237272 0.1433271
000330 4c d0 12 3d 0f df 2f 3d a3 1b 1f be a0 45 2a 3e
       0.03584318 0.042937335 -0.15537886 0.16628122
000340 19 45 da bd 2d 50 23 3d 46 59 02 be 6d 93 09 bc
       -0.106577106 0.039871383 -0.12729368 -0.008396965
000350 e8 a7 f3 3d 94 b2 35 3e 3a 68 d5 bd 79 75 a1 3d
       0.1189726 0.17743903 -0.1042027 0.07883734
000360 b9 8d fc 3c 92 b0 6d bd 78 fd 9f bc 3b 4d 2f bd
       0.030829297 -0.05802972 -0.019530043 -0.042798262
000370 77 1d 1b be be dc 48 3e 82 c4 0c bd 2a b1 50 bc
       -0.15147959 0.19615456 -0.034367092 -0.012737552
000380 fd 20 21 bc 03 04 b5 3d b9 24 3c 3e 54 4a d4 3d
       -0.009834525 0.08838656 0.18373384 0.103657395
000390 32 55 9a 3d 85 d8 91 bb 10 dd 05 3d 9a 6d ce bd
       0.07535781 -0.00445086 0.032681525 -0.100794986
0003a0 fb 9b ad bd a9 7b 1b 3e ba 87 12 3e 88 03 17 3e
       -0.084770165 0.15183891 0.14309588 0.14747441
0003b0 32 a1 8a bd 7b d5 1a 3e 2d 12 3f bc 6b c2 a5 3d
       -0.06769027 0.15120499 -0.011662048 0.08093723
0003c0 25 e3 ca 3d 8c 80 61 3d a5 8d b9 bd 6b fc b5 bd
       0.09906606 0.055054232 -0.0906022 -0.088860355
0003d0 2c 54 94 bc c5 d6 3e 3d 0f 99 3f bd f4 c4 f3 3d
       -0.018106543 0.04659154 -0.046776827 0.119028
0003e0 04 a7 0a 3d 42 d1 a0 3d d1 55 00 3d 80 df 10 3e
       0.033850685 0.07852413 0.03133184 0.14147758
0003f0 ac e8 20 3e 96 79 21 be 27 24 18 3e a1 a0 d6 bc
       0.15713757 -0.15769038 0.14857541 -0.02619964

decoder.2.bias f4 [64]
000000 0d 1d 39 bd 58 cd 9a 3c 91 ea 12 bd aa 1e 1a be
       -0.04519372 0.018896744 -0.03586823 -0.1505076
000010 98 e5 31 3e 08 7f 3d 3d 67 cd 2a 3a 0e 40 cb 3d
       0.1737274 0.046263725 0.00065155927 0.09924327
000020 72 49 ba bb 86 7c d0 3d 4d b4 73 bd 0b ef 9e bd
       -0.005685025 0.10180001 -0.05949812 -0.077604376
000030 46 fe d2 3d 61 a2 13 bd 05 42 09 3e ae 16 32 3e
       0.10302405 -0.03604353 0.1340409 0.17391464
000040 05 76 d5 3c 9c c8 fd 3d 09 d9 c2 3d 59 a1 94 3d
       0.026057253 0.12391779 0.095140524 0.07257337
000050 0e 01 07 be 39 6a 0a 3e f9 59 63 bd d3 b7 fd 3d
       -0.13183996 0.13517083 -0.055505726 0.12388577
000060 89 ae f1 3d 07 66 0f 3d bd 68 8b 3d 6a 63 ed bd
       0.11800868 0.03500941 0.068070866 -0.11591227
000070 ac d4 0e bd 0a 45 54 bd 08 f0 86 bd fa 33 99 bd
       -0.03487079 -0.051823653 -0.06588751 -0.07480617
000080 42 3b f9 bd 5c 1f 20 be 3a 5e e4 3d 18 3d 00 3e
       -0.12169506 -0.15636963 0.11150785 0.12523305
000090 78 00 32 3e a2 37 b9 bd 7c c6 1c 3e 43 20 9b 3d
       0.17382991 -0.09043814 0.15310091 0.07574513
0000a0 9a 3c 5c bc 54 6d bf bd 19 00 9f bd c9 b8 96 bd
       -0.013442183 -0.093470246 -0.077636905 -0.07359464
0000b0 0e 78 68 3c 80 69 04 3e 6d 25 d6 3d 4e a8 a1 bd
       0.0141887795 0.1293087 0.10456357 -0.0789343
0000c0 a0 66 cc 3d 10 18 3e 3c cf 68 d4 bd 77 fd 52 be
       0.09980512 0.011602417 -0.10371553 -0.20604502
0000d0 98 96 30 be 7a 30 32 3d f0 95 81 3d 8c 46 c2 3d
       -0.17244947 0.043503262 0.063274264 0.09486112
0000e0 45 06 5d 3d 2c 73 0e be e5 f0 a4 3d 2a 3e f8 bd
       0.053961057 -0.13911122 0.080537595 -0.12121232
0000f0 4d 97 84 3d 8b aa 32 3e b4 26 ed 3c 82 d0 06 be
       0.06474171 0.1744787 0.02894912 -0.13165477

decoder.4.weight f4 [128, 64]
000000 fd 97 ba bd d6 dc f1 3d 46 66 99 3d d0 44 67 bd
       -0.09111021 0.11809699 0.0749021 -0.05646211
000010 cd d7 df 3d 3a e0 ad 3d 2c ff 86 3c e4 59 e1 bc
       0.109298326 0.084900334 0.016479097 -0.027508684
000020 dc e0 f6 3c 40 bc 74 bd 82 8a f5 bd e4 35 c4 3d
       0.030136518 -0.05974984 -0.11989309 0.09580591
000030 b0 7e 9d 3d 99 1e d9 3b 70 e5 ea 3c 06 c7 ba 3d
       0.07690179 0.006625962 0.028673857 0.09119992
000040 aa d5 40 bd 9d 5b 0e be 53 46 fa bd 66 a1 b8 bb
       -0.047078766 -0.13902135 -0.122204445 -0.0056344746
000050 b4 ab e3 bb 86 a6 c4 bc 5b 57 96 3d ea 80 c9 bc
       -0.006947959 -0.024005186 0.073408805 -0.024597604
000060 ac 4c 09 3c 6e 87 39 3d 2e ff 00 bc d6 7f e1 bd
       0.008380096 0.04529517 -0.00787334 -0.11010711
000070 3c bd 3d 3d 89 54 b8 bc 08 b0 52 bd 63 f0 00 3e
       0.046323046 -0.022501247 -0.051437408 0.125917
000080 d0 8c 1f 3c ea b9 c7 3d 20 fc 57 bc eb 38 84 3c
       0.009738162 0.09752257 -0.01318267 0.016140422
000090 2c fe df bd 69 b8 b6 bc 9f ec 87 bd b1 ca 01 be
       -0.10937151 -0.02230473 -0.06636929 -0.12674977
0000a0 48 b8 83 bd 1c 5f fd bd bc 1c 06 bd 35 3b dd bc
       -0.06431633 -0.12371656 -0.032742247 -0.027005771
0000b0 3a 54 cc 3d ef 37 2e be 8d f8 39 3d e1 dd da bd
       0.099770024 -0.17013524 0.045403052 -0.10686851
0000c0 27 eb d7 3d a0 2c 65 bd a0 0c 4c bc a0 89 56 3d
       0.105428986 -0.05595076 -0.012454182 0.052377343
0000d0 ae 9b 88 3d 6f ac c0 bc b4 a3 c5 bc dc 8f f3 3c
       0.066703185 -0.023519723 -0.024125911 0.029731683
0000e0 ba d2 84 bd 94 4a 58 3d d9 37 86 3d 1c 82 d0 3c
       -0.064855054 0.0528055 0.06553621 0.025452666
0000f0 6d e5 8c 3d 78 cb c9 bd e4 ca e8 bc 3b 00 b9 bd
       0.06879697 -0.09853262 -0.028417058 -0.09033247
000100 83 49 fd bd 10 ac 1d bd 72 a6 86 3d 0e c4 d2 bd
       -0.12367537 -0.03849417 0.06574716 -0.10291301
000110 a8 e7 ca bd 34 87 f3 3d 90 be 24 be d9 2a 0a bd
       -0.09907466 0.11891022 -0.16088319 -0.03373227
000120 a2 59 04 3e bc 52 81 bd 05 91 05 be 24 92 b7 3d
       0.12924817 -0.063146085 -0.13043602 0.08963421
000130 cc ee ee 3d cf ef 9d bd cb 45 fb bd 8f d1 f4 bc
       0.11666641 -0.077117555 -0.12269171 -0.029885082
000140 32 22 74 be b5 19 c6 bd a4 e2 bc 3d b2 ea 95 bd
       -0.2384117 -0.09672872 0.09222916 -0.07320155
000150 68 e2 bd bd ef 76 83 3d bd 39 13 3e 28 9b 74 bd
       -0.09271699 0.06419169 0.14377494 -0.05971828
000160 e2 fa 2c be a5 24 ed 3d 49 59 5d 3d 56 9f 91 3d
       -0.16892579 0.11579255 0.054040227 0.07110469
000170 e6 dd bc 3d ad 41 f6 3d 84 43 62 bd 7f b3 84 bd
       0.09222011 0.120242454 -0.05524017 -0.06479549
000180 af c4 25 bd 60 62 e5 3c a9 2d 85 bc b0 87 48 3d
       -0.040470775 0.02800101 -0.016257124 0.048957527
000190 c9 9c a9 3c e7 05 03 bd e1 43 29 3d 0e 27 c1 bd
       0.020704644 -0.03198805 0.0413245 -0.09431277
0001a0 f6 40 73 bd 00 e3 72 bc 94 9c b3 bc 63 49 86 bd
       -0.059388123 -0.014824629 -0.021925248 -0.06556966
0001b0 be 8c 95 bd 7d f8 bf bd d5 03 55 be 2b 18 fd bb
       -0.07302235 -0.09373567 -0.20802243 -0.0077238283
0001c0 d2 78 e1 bd 04 fa 8a bd c4 10 6e 3d e6 e5 d9 3c
       -0.11009373 -0.06785968 0.058121458 0.026598882
0001d0 30 d6 62 3d 47 13 26 bd 39 29 79 bb 1f c7 d9 bd
       0.055380046 -0.040545728 -0.0038018955 -0.106336825
0001e0 e0 e7 87 bc 5a 26 d0 3c 87 b2 b4 3d 93 de 7b 3b
       -0.016590059 0.025408912 0.08823114 0.0038432225
0001f0 f8 88 df 3d 5f 07 fc 3c ce ca 44 3d f9 31 c1 bd
       0.109147966 0.030765234 0.048044972 -0.0943336
000200 9c 26 02 bb e8 e5 85 bd 2f d5 e9 3d 9e 86 fc 3d
       -0.0019859439 -0.06537992 0.11417615 0.12330364
000210 cb 20 08 3e 72 4d f9 3d a8 e4 6c bd 91 30 9c bd
       0.1329376 0.12172975 -0.05783525 -0.07626451
000220 27 c8 ea 3d 90 32 25 3d c4 f1 42 be 4e 57 a5 ba
       0.11463957 0.040331423 -0.19037539 -0.001261452
000230 70 e1 c4 bd fb 2e 14 bb 49 a5 31 be f2 08 4b bd
       -0.09613311 -0.002261101 -0.17348208 -0.049569078
000240 d6 a2 c3 bd e9 5e 4a be ef a8 a2 be 51 a2 89 3d
       -0.09552543 -0.19762768 -0.3176951 0.067204125
000250 ca 09 e5 3d 22 74 2a 3d 50 e1 f9 3d 54 54 6e bd
       0.11183508 0.04161466 0.12201178 -0.05818589
000260 41 e6 ca bd 54 3b 1e 3c 20 6b 92 3d 89 58 bc bd
       -0.09907199 0.0096577 0.07149339 -0.09196574
000270 58 52 d6 bd cb 9c 13 3e 10 44 62 bc 69 69 83 bd
       -0.104649246 0.1441528 -0.013810173 -0.0641659
000280 20 16 c1 3c 34 ea 87 3d 2e b6 9e bd a5 f9 9a bd
       0.02357012 0.066364676 -0.07749592 -0.07567147
000290 45 18 a4 bd 09 02 98 bc 4c 6e 30 bb da aa a6 3d
       -0.080124415 -0.018555658 -0.002692121 0.08138056
0002a0 56 b2 f4 3d 7a 61 e1 bd 43 59 0c 3d b6 3a cc 3d
       0.119480774 -0.1100492 0.034264814 0.09972136
0002b0 ae 7a 82 bd 90 34 06 bd 3d 78 64 3c 02 b3 bd bd
       -0.063710555 -0.03276497 0.013944683 -0.09262659
0002c0 69 88 9e bc 38 f1 4b 3d 72 32 b4 bd 22 97 15 bd
       -0.019352155 0.04979059 -0.08798684 -0.036521085
0002d0 9c f6 cd 3d e2 7c 41 3d ed 99 b7 3d 05 33 ff bb
       0.10056803 0.04723824 0.08964906 -0.0077880644
0002e0 e8 38 dd 3c 35 e7 e8 3d d7 5b 12 3e 65 5a b2 bd
       0.027004674 0.11372224 0.14292847 -0.08708648
0002f0 37 ea 99 bb 89 e8 c4 bd 53 2f c6 bc da 22 d7 bd
       -0.00469711 -0.09614665 -0.024192488 -0.10504694
000300 31 f5 07 3e 18 6b 98 3d ba 3e 3c 3c 38 4e 29 3d
       0.13277127 0.074423015 0.011489565 0.04133436
000310 c2 1e 90 3d 58 24 00 3d be d8 ce 3d 8d ea fa 3d
       0.070371166 0.03128466 0.10099934 0.12251768
000320 6a bc 11 3e 80 45 ca bd 5f 27 ad 3d 8e e2 21 3c
       0.1423203 -0.09876537 0.08454775 0.009880675
000330 e2 df da 3d 16 5a 51 bc f9 ab db 3d d0 9a 2a bc
       0.106872335 -0.012777826 0.107261606 -0.010412887
000340 81 aa 88 3c b5 ad 5a bc 76 d5 9d 3d d9 be 14 3e
       0.016682865 -0.013347079 0.0770673 0.14525928
000350 d8 c6 7e bd c7 b0 5a bd a0 3b 50 bd a5 67 49 bd
       -0.06220135 -0.053391244 -0.050838113 -0.04917111
000360 0e 28 f3 3d a1 1e 6a ba 84 d2 92 3d f0 6b 82 bd
       0.11872874 -0.00089309557 0.07169059 -0.06368244
000370 1e af c1 3d a2 08 bd bd e4 09 a5 bd a4 b8 f6 bd
       0.09457229 -0.09230162 -0.08058527 -0.12046936
000380 82 d9 83 3c e0 e2 5c 3c f9 ab 5b bd 0d 5a df 3c
       0.016094927 0.013481826 -0.053630803 0.02726462
000390 1b 2f b9 3d 0a b9 a1 bd 5b 25 0f 3d aa 30 b8 bd
       0.09042188 -0.078966215 0.034947734 -0.08993657
0003a0 d1 08 f2 bd 8e 34 f0 bd d1 5c 99 bc 3a c9 d1 bd
       -0.11818088 -0.11728774 -0.018721016 -0.10243459
0003b0 91 94 c3 3c 47 a1 cb bb 80 31 29 bc 03 db 87 bd
       0.023874553 -0.006214294 -0.010326743 -0.0663357
0003c0 36 7d 63 3d 2c 6f d5 bd 08 cb 9f bd 8e a3 c1 bd
       0.055539332 -0.10421595 -0.07802397 -0.09455024
0003d0 72 ab eb 3d 9e 7b db 3d 12 59 b8 bd 19 f4 7f bd
       0.1150731 0.107169375 -0.09001364 -0.06248865
0003e0 09 4f ad bd 0a 84 bc bc 03 b9 4a 3c 63 c5 9d bd
       -0.084623404 -0.02301218 0.012373212 -0.07703664
0003f0 ff 2e e2 bc 59 40 ae 3d 5e 16 b8 3d b4 aa 37 bd
       -0.0276103 0.08508367 0.08988641 -0.04484053

decoder.4.bias f4 [128]
000000 9e a4 13 3e e0 8c 4b 3c 12 bb 15 3e d7 b7 5f 3d
       0.14418265 0.012423724 0.14622143 0.054618683
000010 26 e8 a5 3d ce 7e b7 bd bd 5e ff 3d 6f 9f be bd
       0.081009194 -0.08959733 0.12469242 -0.09307753
000020 ec 4e 13 3c a1 43 fd 3d 1d 3a a7 3d c8 10 42 bd
       0.008990984 0.12366415 0.08165381 -0.047379285
000030 42 fe 82 bd f4 65 88 bd 63 84 fe 3d f8 6c d5 3d
       -0.06396152 -0.06660071 0.124275945 0.10421175
000040 29 fc ea 3d 18 af 36 be a5 14 6b 3d 7f fd 1b 3e
       0.11473877 -0.1784023 0.057392735 0.1523342
000050 9e 9a b4 bd f5 d8 37 3a 9f 47 0f 3c a6 18 f6 3d
       -0.088185534 0.0007013225 0.008745103 0.1201642
000060 3a 1a 2a bd 40 9e 16 3e dc 37 c2 bc ad 2c a7 bd
       -0.041528918 0.14708805 -0.023708276 -0.08162818
000070 18 b3 93 bd a7 ca b1 3c 14 10 05 3d 53 4d d5 bd
       -0.07211894 0.021703077 0.032486036 -0.10415139
000080 76 69 dd 3d bb 52 aa bd 9c 08 17 3d 53 ab d7 3d
       0.10811131 -0.08316561 0.036873445 0.105307244
000090 2a ca 24 be fc 18 7a bd 96 fa 45 bd 7e 49 85 bd
       -0.16092744 -0.061058983 -0.04833468 -0.06508158
0000a0 b8 1a 7a bd b6 f8 19 bd 6c 95 ef bc 4a ef 30 3e
       -0.061060637 -0.037590705 -0.029246055 0.17278782
0000b0 9f 55 85 bd ed e2 c4 ba 2e 4d 7d bd 24 44 07 3d
       -0.065104716 -0.0015021242 -0.061841182 0.03302397
0000c0 d9 02 d8 bd 3a f1 aa bd 1b 13 14 3d 23 58 e8 3d
       -0.10547418 -0.083467916 0.036151033 0.11344936
0000d0 16 05 c5 bd 53 c5 c3 3d af 0d 99 3d 33 4f ba bd
       -0.09620111 0.09559121 0.07473313 -0.09097137
0000e0 e3 c7 aa 3d 68 23 fe 3c d6 3f ed 3d 53 8b eb 3d
       0.083389066 0.031022742 0.11584441 0.11501183
0000f0 63 61 b0 3d ca b4 65 bd df 8f 1b 3d 58 ad b4 bc
       0.08612325 -0.056080617 0.037979003 -0.022055313
000100 3f 2d 0d 3e d1 d8 01 bd f4 c2 f2 3d 6e 5f a4 bc
       0.13786791 -0.031700913 0.118535906 -0.020065036
000110 f6 0d d6 3d 22 c9 58 3d bb c7 e0 3d 28 70 b8 3d
       0.104518816 0.05292619 0.109755956 0.09005767
000120 27 c2 00 be 2a 18 12 3d d4 3f 15 3d ee c7 3f 3d
       -0.12574063 0.035667576 0.036437824 0.046821527
000130 a0 eb bc 3d a2 9f 5a 3d 32 ec 33 3d ac 31 92 bd
       0.092246294 0.053374894 0.043926425 -0.071383804
000140 29 cb c5 bd 41 8c 5f bc 5d 61 9c 3d 71 ec 63 3d
       -0.0965789 -0.013644279 0.07635758 0.05564541
000150 61 5b 89 3d 8c 90 c8 bd 44 bf 3c bd 18 56 66 bd
       0.06706882 -0.09793195 -0.046080843 -0.05623445
000160 17 6a d5 bd 2e ad a3 bd 0b 8e 21 bd 40 4f aa bc
       -0.10420626 -0.07992016 -0.039442103 -0.020789742
000170 e1 d3 c8 3d 83 b5 80 3d 25 18 9b 3d 60 1c d4 bd
       0.09806038 0.062846206 0.075729646 -0.103569746
000180 07 d9 96 bb 7f cc a9 bd da 06 b5 bd 01 0b 87 ba
       -0.0046035084 -0.08290958 -0.088391975 -0.0010302962
000190 2f cf c9 3d e3 91 77 3d 4b 31 38 bd 32 92 c8 bd
       0.0985397 0.060441863 -0.044968884 -0.097935095
0001a0 57 89 af bd 32 fc 89 3d 85 19 ae bd d9 69 b8 bc
       -0.08571117 0.067375556 -0.08500961 -0.02251141
0001b0 56 f8 f9 bd e3 45 a5 bd 6f 65 af bc 0b 1a b3 bd
       -0.122055694 -0.080699705 -0.021410672 -0.08745202
0001c0 61 a8 2d 3d ec f8 c2 bd e6 9f f8 bd 66 f3 f1 3c
       0.042396907 -0.09520134 -0.12139873 0.029535007
0001d0 b4 2f 1f bd ea 6b ca bd 7e 32 98 bd ad 13 6d bd
       -0.038863853 -0.09883864 -0.074315056 -0.057880092
0001e0 8d f2 2d bd 58 95 c4 bd 56 8b cb bd 56 67 d4 3d
       -0.042467643 -0.095987976 -0.099386856 0.10371272
0001f0 5a 4b 88 bd 8e 12 85 bd 53 16 ea bd 57 77 ff 3d
       -0.06654997 -0.0649768 -0.11430039 0.12473934
