Save_Models/model-lat16.pth (torch, 194870 bytes, 16 tensors)

encoder.0.weight f4 [128, 99]
000000 ee 33 18 bd 03 c2 bb 3d f1 18 80 bc 26 76 b7 bd
       -0.0371589 0.09167864 -0.015636893 -0.08958082
000010 04 e4 82 bd 1b ae 1c 3d 0b 29 8c 3d 32 52 15 bd
       -0.06391147 0.038251977 0.06843766 -0.03645534
000020 09 d5 d7 bd 1e 5f 86 bd 56 b2 97 3c 8a dd c3 bd
       -0.1053868 -0.06561111 0.018517654 -0.095637396
000030 a1 86 88 bd 74 39 b1 3d 14 47 83 3d ce 10 3b 3c
       -0.066663034 0.086535364 0.064100415 0.011417581
000040 2a 08 a3 bd e2 f6 46 bd fd ce d8 bd 1f b7 6b 3d
       -0.079605415 -0.04857529 -0.10586355 0.057547685
000050 24 1c 96 3c 75 a5 b3 bd ed c6 1c 3d d9 a6 b7 3d
       0.018323965 -0.08771793 0.038275648 0.089673705
000060 01 42 b8 3d 54 e8 31 3d ab 20 20 3c d1 02 44 3d
       0.08996964 0.043434456 0.009773414 0.04785425
000070 9b b5 ae bc 6c 5f 85 bd b6 0a 3b bd 1e b8 1c 3b
       -0.02132683 -0.06512341 -0.04566451 0.0023913453
000080 34 ce 1e 3d fe f4 8f bd 03 81 55 3d 04 b8 72 3c
       0.03877087 -0.070291504 0.05212499 0.014814381
000090 42 a8 8f bc 41 2c c9 bd c7 58 96 3d dd f6 e6 bd
       -0.017536286 -0.09822894 0.07341152 -0.11277554
0000a0 f6 98 fb 3c 03 d7 f0 3c 69 14 4e 3d 9c e4 49 bd
       0.030712586 0.0293994 0.050312433 -0.049290285
0000b0 95 83 b0 bd e1 ad d9 bd 82 d4 85 3d aa 84 ed bd
       -0.08618847 -0.10628868 0.06534673 -0.11597569
0000c0 b6 01 68 3d c1 0d 0b 3a e8 e8 34 bd 4b 30 d5 bd
       0.056642257 0.00053044787 -0.04416743 -0.10409602
0000d0 1d 5c 38 3d b2 ad e0 bd b9 66 1a 3b a7 60 9f 3d
       0.04500972 -0.1097063 0.0023559763 0.07782107
0000e0 2b 44 87 3d f4 58 32 bd 8f 22 1f bd 3e 37 48 bc
       0.06604799 -0.043541864 -0.038851317 -0.012220202
0000f0 9e 2a 53 bc 0f 48 be bd 4e 1e 9d bd 79 5f e3 bb
       -0.012888579 -0.09291088 -0.07671796 -0.0069388715
000100 53 81 2b bd 32 80 d1 bc c9 8b b5 3d 22 59 ae 3d
       -0.04187138 -0.025573824 0.088645525 0.085130945
000110 a8 7a e2 bc 9f 3c 9a 3d 8a 33 14 3c ad ef 2b bc
       -0.027646378 0.07531094 0.009045491 -0.010494155
000120 18 a6 74 3b dc 75 8e bd 5c 5a 26 bd 8c c7 20 bd
       0.0037330445 -0.06956074 -0.040613517 -0.039252803
000130 ac a8 3b 3d 39 59 15 bc cb 1b 87 bc 0d 8c 3a bd
       0.045815155 -0.009115511 -0.016492745 -0.04554372
000140 81 b0 79 3d 89 b4 4e bd 0a b3 83 bd df 17 ac bd
       0.060959343 -0.05046514 -0.06430633 -0.084029905
000150 a4 ec 0b 3d 32 10 84 3d fd 17 e2 bd 36 c6 3d 3b
       0.034161225 0.064484015 -0.11039732 0.0028957254
000160 a7 2d b8 bc c3 41 8b bd 0e a2 d7 bc a1 57 a6 bb
       -0.022482706 -0.067996524 -0.02632239 -0.005076364
000170 66 c6 b3 bd 92 2a 34 3d 5f 11 1e 3d 8d d2 91 bd
       -0.08778076 0.04398591 0.038590785 -0.071202375
000180 18 75 b0 3c 81 85 a6 bd 1f 7c 9a bc d2 37 82 bc
       0.02154021 -0.081309326 -0.018858014 -0.015895758
000190 aa 01 91 3d 7d 32 0c 3d 19 7b 34 3d b9 53 9f 3d
       0.070803955 0.034227837 0.044062708 0.07779641
0001a0 0c 0f de bc 16 09 97 ba ec e9 aa bd d9 fa 27 3d
       -0.027106784 -0.0011523094 -0.08345398 0.04101071
0001b0 06 b8 6d 3c d4 20 7c 3c 9d af 83 3d 7c b6 1a bd
       0.014509207 0.015388686 0.0642998 -0.037771687
0001c0 a0 5e 99 bd bb 3e ba 3d c8 d0 56 bd 96 b6 96 bc
       -0.074887514 0.09093996 -0.052445203 -0.01839761
0001d0 6b cf f1 3c 5a 59 ed bc 6d 0d 86 bd d2 f5 71 bd
       0.02951785 -0.02897327 -0.065455295 -0.059072323
0001e0 1e 04 51 bd 5c b8 17 bc 7c fb 0c bd 3e 05 0d 3d
       -0.051029317 -0.009260263 -0.03441952 0.034428827
0001f0 3e 61 e2 bc 18 55 c4 3b d5 2e 15 bd 6a f1 a3 3c
       -0.02763426 0.0059915893 -0.036421616 0.020012576
000200 53 63 6d 3d ac 79 c5 3d f5 28 2b 3d ad 97 30 3d
       0.05795605 0.09642348 0.041787107 0.0431134
000210 df ac 4b bd 60 fc d1 3d e4 9e d4 3c b0 39 af 3c
       -0.04972541 0.10253215 0.025954671 0.021389812
000220 0f 0b ad 3c 71 be 1f 3d 00 6d 96 bd 0d 08 53 3c
       0.021123437 0.03899998 -0.07345009 0.012880337
000230 c6 ac 05 3d 68 b7 50 bc 6b af d8 3d b0 01 7e 3c
       0.032635473 -0.01273904 0.10580333 0.015503332
000240 6d 5b cf 3b 95 a8 3c 3d 96 7c ef 3d c1 75 fa 3c
       0.0063280375 0.04605921 0.11693685 0.030573728
000250 15 61 cb 3d 98 4c 93 3d 77 7d 68 3d e5 c9 94 3d
       0.09930626 0.071923435 0.056760278 0.07265071
000260 6c 36 65 bd e7 50 17 bd 9a 98 b5 bd d2 12 73 3c
       -0.055960104 -0.03694239 -0.08866997 0.01483603
000270 5f d6 88 3d 41 bd ed bb e9 46 42 bd 08 91 84 3d
       0.06681513 -0.007255227 -0.047430906 0.06472975
000280 3c 74 c6 ba 81 f5 88 3d 4f 63 08 3d 5e df a2 3d
       -0.0015140842 0.06687451 0.033297833 0.0795276
000290 4c c8 ad bc 8d 8e 93 bd 85 0d 40 bd 78 df 57 bc
       -0.021213673 -0.07204924 -0.046887893 -0.013175838
0002a0 ae c0 a9 bd 8f 13 33 3c 6f dd 5e bd c4 80 86 bd
       -0.08288704 0.010929956 -0.054410394 -0.06567529
0002b0 6d 57 6e 3d db ea 5c 3d a4 55 1b bc ca 83 a6 bc
       0.058188844 0.053934913 -0.009480868 -0.020326514
0002c0 2a ff 9c bd 33 e7 b0 bd 8f 18 57 3d fb 99 20 bd
       -0.07665856 -0.08637848 0.052513655 -0.039209347
0002d0 1d 66 8f 3d 9b a2 46 3d a0 cf 7b 3d 2d f9 1f bd
       0.070018984 0.048494916 0.061477304 -0.039055992
0002e0 fa 74 2d bd 70 ad dc 3d df 11 40 3d 23 eb a9 3d
       -0.042347886 0.10775268 0.046892043 0.08296802
0002f0 0c 5c a5 3d 12 15 90 bd f9 29 82 3d 0d 2d 53 bd
       0.08074197 -0.07035269 0.06355662 -0.051556636
000300 7c 79 4d bd ec 57 2e 3d 3c 3e 8a 3d dc 50 45 3b
       -0.050164685 0.042564318 0.067501515 0.003010801
000310 91 7d 1b bc 42 62 4f 3c 45 1c 7d bd 44 28 c3 3c
       -0.009490387 0.012657704 -0.061794538 0.023822911
000320 99 a8 b8 bd f6 26 9d 3d 17 f9 f5 3c ec 62 a9 bd
       -0.090165325 0.07673447 0.030026002 -0.08270821
000330 34 9a 1c bd 40 e6 48 3d e5 55 fe 3c f4 aa f1 3c
       -0.038232997 0.04904771 0.031046817 0.029500462
000340 77 4e 4e 3d 71 a7 66 bd c0 0d 0c bd f1 20 d0 3d
       0.0503678 -0.05631203 -0.0341928 0.10162533
000350 4c a5 c9 3b d1 d1 52 3d b3 50 b8 3d 3d 6f 2a bd
       0.006153738 0.051469628 0.08999767 -0.04160999
000360 63 ba d8 3c 25 ae 5b bc 5f 8b 15 3d 70 b6 14 bc
       0.026456064 -0.0134082185 0.036509868 -0.0090767
000370 61 b1 cb bd 26 f8 a3 bd 5b 86 08 bc e7 d1 7b ba
       -0.09945942 -0.08006315 -0.008332814 -0.0009606168
000380 63 8f 78 3d c2 47 3c bd 92 3c 72 bc e1 36 ea 3c
       0.06068362 -0.04596687 -0.014784949 0.028590621
000390 34 a9 8c bd 9e 1d 38 3d f6 3a 86 3d 94 d0 cc bd
       -0.068682104 0.04495012 0.06554215 -0.100007206
0003a0 91 e2 5f 3b 3f d7 66 bd 18 4a 6e bd 30 30 d4 bd
       0.0034162144 -0.05635762 -0.05817613 -0.103607535
0003b0 19 3f 83 3d 8e 02 a1 bd 8e 23 9f 3d d7 20 d2 bd
       0.06408519 -0.078618154 0.077704534 -0.1026017
0003c0 85 ba 69 bb cd e9 3d bd 4c 88 5a bd 9f a8 22 3d
       -0.0035664153 -0.046365548 -0.05335264 0.03971159
0003d0 da 4c f2 3c b2 d0 a3 3d 7e 66 0f 3d 4d a4 a2 3c
       0.029577661 0.0799879 0.035009854 0.019853735
0003e0 61 1c 3b bc c9 6a eb bc bf 42 a0 3d 4c b7 b1 bd
       -0.01142034 -0.028737443 0.07825231 -0.08677539
0003f0 3e b6 bd bc a1 e6 a6 bd 54 ec 97 3d 77 c2 b4 bd
       -0.023158189 -0.08149458 0.07418123 -0.08826154

encoder.0.bias f4 [128]
000000 12 03 ed bd 91 83 81 be 12 cf 74 be 41 67 aa be
       -0.11572851 -0.2529569 -0.23907116 -0.332819
000010 e7 ee 8d be 56 25 87 be 1b 40 02 bf f9 00 b7 be
       -0.2772133 -0.26395673 -0.5087907 -0.3574293
000020 ae cf c5 be 10 29 39 be 11 78 58 be 80 76 35 be
       -0.3863501 -0.1808207 -0.21139552 -0.17720985
000030 a7 47 88 3d c9 89 63 be a1 4c ad be 20 5a e1 bd
       0.066542916 -0.2222053 -0.33847526 -0.11003518
000040 18 c1 e3 3b a2 e3 9d be fd 71 dc be ea 79 80 be
       0.006950509 -0.30837733 -0.43055716 -0.25093013
000050 9d e4 e9 bd 3d da 83 be 5d 27 ff 3b 0d 44 bb be
       -0.11420558 -0.2575244 0.007786675 -0.36575356
000060 dd a9 5a be a2 4d 31 be 9c 41 f8 be 2f cf 79 be
       -0.2135386 -0.17314771 -0.48487556 -0.2439544
000070 ab 4b 7a be 04 02 b1 be 82 48 59 be 9a 1f a5 be
       -0.24442928 -0.3457185 -0.21219066 -0.32250673
000080 24 6d 2e be ec 99 9d be 20 fe 55 be 6d 21 cb be
       -0.17033821 -0.30781496 -0.20897722 -0.3967394
000090 d9 b3 77 be 84 91 c5 be 43 4e 7d bd 0d 76 fa be
       -0.241897 -0.38587582 -0.061842214 -0.4891819
0000a0 8c e5 c5 3d e3 58 73 be eb 74 3b be 08 ae e0 be
       0.09662923 -0.23764376 -0.1830632 -0.43882775
0000b0 e3 a0 f2 be 36 c1 8c be 8b cc 12 be 03 b6 8d be
       -0.47388372 -0.27491158 -0.1433584 -0.27677926
0000c0 9e 7f 71 bd d6 26 53 be eb f3 b8 be e5 59 6c be
       -0.058959596 -0.20620283 -0.36123595 -0.23081167
0000d0 e9 3e 5d be 4a ec 57 be f3 7d 67 be ab 43 90 be
       -0.2160603 -0.21086231 -0.2260664 -0.28176627
0000e0 81 a6 94 be 3a a0 73 bd f6 ad 67 be a9 0f 90 bc
       -0.29033282 -0.059478976 -0.22624955 -0.017585592
0000f0 86 0a 4e be 08 47 bf be f7 f5 e8 bd 69 dd 8f bd
       -0.20121202 -0.3735888 -0.11375039 -0.070246525
000100 4f e7 a1 be e8 6a 8d be 6e 1f 9c be 64 68 9f be
       -0.31621787 -0.27620625 -0.3049273 -0.3113433
000110 ff e8 d3 be 92 08 48 be a0 78 85 be 85 60 30 be
       -0.413887 -0.1953452 -0.26068592 -0.1722432
000120 2d 39 c2 be 1b d5 a8 be 5b a1 9d be c5 13 28 be
       -0.37934247 -0.32975087 -0.30787167 -0.16413791
000130 e7 0b 91 be a3 89 0a be eb d4 3b 3e 69 10 95 be
       -0.28329393 -0.13529067 0.1834294 -0.29114082
000140 3b 06 86 be 4e 7e bd bd 16 5a 30 be 75 45 c4 be
       -0.26176628 -0.09252606 -0.17221865 -0.38334242
000150 ec 21 cd bd 14 9b 18 be 63 03 09 be a7 64 0d be
       -0.10016236 -0.14902908 -0.13380198 -0.13807927
000160 ff 1d 71 be ed 83 bd be b3 40 a0 bd 90 c2 d7 be
       -0.23546599 -0.37014714 -0.078248404 -0.42140627
000170 bb 7e a6 3c 9e 9a a8 be 8d 80 cb be 89 b8 0e be
       0.020324102 -0.32930464 -0.39746514 -0.13937582
000180 b0 29 07 be 44 77 7c bd 82 00 10 bd 88 e6 ea be
       -0.13199496 -0.061637178 -0.035156734 -0.45879006
000190 0c da ad bd 58 03 9b be 8e a7 58 bd 3f 85 a5 bd
       -0.08488855 -0.3027599 -0.052894168 -0.08082055
0001a0 be bf 3f 3e 56 1d 61 be 20 91 a9 be 76 ec 4d be
       0.18725488 -0.21983847 -0.33118534 -0.20109734
0001b0 e7 92 70 be ee 37 e1 bd 32 a7 2d 3e 40 6b 65 3d
       -0.23493539 -0.10996996 0.16958311 0.056010485
0001c0 a4 67 75 be cf 7b ae be 51 97 9f be b8 5f e2 be
       -0.23965317 -0.34078833 -0.31170133 -0.44213653
0001d0 0f 42 63 be 87 ce e7 be 2f 3d 65 be 37 86 4f be
       -0.22193168 -0.45274755 -0.22386621 -0.20266043
0001e0 0a 6d 9b be 5c 33 25 be f1 2f 7c 3d fa 35 23 3d
       -0.30356628 -0.16132873 0.061569158 0.039846398
0001f0 07 73 52 be d5 33 7d be 86 57 06 be 0e f5 4d be
       -0.20551692 -0.24726804 -0.13119325 -0.20113012

encoder.3.weight f4 [64, 128]
000000 a0 fc 9d 3d aa 6b dd bc 26 ed c3 3d 7d f5 35 3a
       0.077142 -0.027028877 0.09566717 0.00069411827
000010 59 c4 80 bd 80 2c c7 3d c9 10 80 3d 87 55 09 3d
       -0.0628745 0.097252846 0.062532015 0.03352883
000020 48 da de bd a9 10 bf 3b e9 5f 41 bd 15 a2 9a 3c
       -0.108814776 0.0058308435 -0.047210608 0.018876115
000030 c4 aa 65 bd af 17 2d 3c 91 e4 17 be a0 e1 d1 3d
       -0.056071058 0.010564729 -0.14833285 0.10248113
000040 24 dc d5 3b 04 90 b8 3d 39 ed 14 bd 01 74 3b be
       0.006526487 0.09011844 -0.036359046 -0.1830597
000050 1e 6c c9 bd 67 56 44 3d 11 d7 6f be 3f 75 82 bd
       -0.09835075 0.047933962 -0.23421885 -0.06370019
000060 a5 f8 54 ba 26 ac 0e 3d 49 b7 1d 3c d9 78 85 3d
       -0.0008124209 0.034832142 0.009626218 0.065171905
000070 dd 70 40 3b bb 12 61 3d 0b cf 89 bd 00 77 0c 3c
       0.0029364147 0.054949503 -0.067289434 0.008573294
000080 60 c5 24 bd 39 a4 b0 bd 27 15 fe bd 2c 04 86 be
       -0.040227294 -0.08625073 -0.12406378 -0.26175058
000090 a8 6b 07 3d e4 b0 7a 3c 94 56 a5 bc f7 91 6e bd
       0.033061653 0.015300963 -0.020182885 -0.05824467
0000a0 db 20 e7 bd c6 8b 76 3d b8 02 52 3d 02 ab c4 3d
       -0.112855636 0.060191892 0.051272124 0.0960293
0000b0 5a 65 f4 bb 21 32 18 be fd 1b a5 3d 16 78 9b 3d
       -0.007458371 -0.14862873 0.08061979 0.07591264
0000c0 55 75 0a bd 1c a0 d2 ba e3 1d 75 3c 7f d7 9d 3b
       -0.033803303 -0.0016069445 0.014960739 0.004816949
0000d0 bc 91 99 3b 35 fd 8a bd 38 8d 2d 3d 08 92 e0 bd
       0.0046865623 -0.06786577 0.042371005 -0.10965353
0000e0 57 28 ef 3c ab 0e ba 3d 6d 37 72 bc ee 5f 08 3d
       0.02919404 0.09084829 -0.014783722 0.03329461
0000f0 1e 8d 80 bb a7 ac ba bd 31 0a 0e be 42 cd 03 be
       -0.0039230725 -0.09114962 -0.13871075 -0.12871268
000100 92 9e 75 3b e6 e9 20 3d 57 43 25 bc c5 3d 42 3d
       0.0037478548 0.039285563 -0.010086856 0.04742219
000110 04 c1 72 bd 76 58 12 be 6c 37 0c bd 5d 25 59 bd
       -0.059266105 -0.14291558 -0.034232542 -0.053014148
000120 97 00 c9 bd 86 e0 2e bd 71 10 ab 3d 2a 39 92 bd
       -0.09814566 -0.04269459 0.08352745 -0.071398094
000130 ad ed 9f 3d ef b1 42 3a 09 d9 05 be 20 0b fb bd
       0.07809005 0.0007427027 -0.13071074 -0.12257981
000140 fc 1a 2c be 3b 47 79 3b 1f 0d da bc 10 7f 3f 3d
       -0.16807169 0.0038036841 -0.026617585 0.046752036
000150 58 93 eb 3d 45 a7 1b 3b a5 33 10 be 94 21 f8 3d
       0.11502713 0.0023750823 -0.14082201 0.121157795
000160 10 c7 d4 bd a4 f0 07 3b 77 2a 7b bd 41 78 b9 bc
       -0.10389531 0.0020742798 -0.061319795 -0.02264035
000170 48 a0 ae 3d 9b 5c c7 bc fc a2 d3 3d 3c d4 e3 3c
       0.08526665 -0.02433615 0.10333821 0.027811162
000180 30 71 f0 bd b2 e8 a8 3d ae e7 5b 3a d5 1b 4c bb
       -0.11740339 0.08247508 0.000838871 -0.003114452
000190 96 b9 54 bd f4 dd 7d 3d 7f e9 c4 3b c1 46 c1 bb
       -0.0519348 0.06197925 0.00600928 -0.005898327
0001a0 a2 a9 12 be 04 78 8d bd 48 e8 74 bd 36 f9 59 3d
       -0.14322522 -0.06907657 -0.059791833 0.05321618
0001b0 7e ec 60 3d 04 b6 27 bd 0c 93 f1 bd 13 98 da bd
       0.054913037 -0.040945068 -0.11795625 -0.10673537
0001c0 e2 07 9d 3d 82 23 df bd 94 1f c7 bc 58 4e e1 3d
       0.07667519 -0.108954445 -0.02430705 0.11001271
0001d0 c2 eb 21 be 99 e0 64 3d ae 63 d2 3d d2 db 77 3d
       -0.1581259 0.055878256 0.10272919 0.06051237
0001e0 42 9a 05 3d b9 49 97 bd 98 85 e5 3d 84 17 e0 bd
       0.032617815 -0.07387108 0.112071216 -0.10941985
0001f0 cb 21 ec bc 43 b1 54 3c 97 6a 81 3d 77 18 c8 bd
       -0.028824707 0.012981716 0.063191585 -0.09770291
000200 b8 f2 18 bc 4f 13 8d bc 2d 34 e7 bb 74 06 0b ba
       -0.009335212 -0.017221121 -0.0070557804 -0.0005303391
000210 bc 53 b7 3c 50 f1 91 bd 2d cf 86 3c e2 4a 2f bb
       0.022378795 -0.07126105 0.016456211 -0.0026747514
000220 51 2a 73 3d bc aa 7e bc 0c ff 0a 3c 37 49 a0 bc
       0.059366528 -0.015543636 0.0084836595 -0.019566162
000230 7d 9a 06 3c 3d ab 99 bd d9 a5 c8 bc 5d 68 08 be
       0.008215544 -0.07503364 -0.024493145 -0.13321061
000240 8b 03 b8 bd ea 84 74 3c 81 15 a3 3c 80 34 8f 3b
       -0.08985051 0.014924267 0.019907715 0.004370272
000250 7b ed c3 3d 17 84 e8 3c ca e5 4f 3d 55 78 9e 3d
       0.0956678 0.028383298 0.050756253 0.07737795
000260 76 d7 d6 bc da 5f 12 be 9a c0 af 3d ef 60 14 3d
       -0.026225787 -0.14294377 0.08581658 0.036225256
000270 cb d3 36 3b 4f b2 0a bb c3 6f 08 3d d2 b2 37 bc
       0.0027897235 -0.002116341 0.03330971 -0.011212068
000280 a7 b8 be 3c 1b f6 b7 3d 77 e9 bb 3c ea e4 e4 bb
       0.023281408 0.08982488 0.022938473 -0.0069852965
000290 bf 09 b9 3d 2e 74 86 bc 67 01 33 bd 6b 71 1c 3e
       0.09035062 -0.01641282 -0.04370251 0.1527764
0002a0 4c e8 f4 3a c6 1e f5 bd 31 79 2d be 61 4a d7 bd
       0.0018684953 -0.1196876 -0.16940762 -0.105122335
0002b0 8d ec ca 3b 90 2b b1 3d 46 1e 0e be 6f dc 93 bd
       0.00619275 0.08650887 -0.13878736 -0.07219779
0002c0 65 53 8c 3d f9 ad bd 3d f7 f5 4d 3d 97 41 4d 3d
       0.06851844 0.09261698 0.0502834 0.05011138
0002d0 da b2 00 be 41 ab 86 bc bb 24 b2 bc c5 f7 dc 3d
       -0.12568226 -0.016439082 -0.02174603 0.10789446
0002e0 f0 3c 9b 3d 92 c1 e0 bd d2 6c 11 3d 4e a3 f5 bc
       0.07579982 -0.109744206 0.03550417 -0.029985096
0002f0 43 1d 97 bd 92 8b 08 3d ec e0 d4 3d 29 fb a4 3d
       -0.07378628 0.03333623 0.10394463 0.080557175
000300 68 78 a4 bd 2f da 6d bd ca ee cd bc 41 6a 8c bd
       -0.08030778 -0.058069404 -0.025138278 -0.06856204
000310 f0 04 d6 3b c8 25 f3 3d 9b 09 76 3c 7d 1a ad 3d
       0.0065313503 0.118724406 0.015016939 0.08452318
000320 e4 7d d9 bb 97 52 83 3d d7 15 5d 3d 50 ec 8e 3b
       -0.006637322 0.06412237 0.053975906 0.0043616667
000330 6f 19 8c 3c 94 16 0e be 0f c4 c2 3b 76 18 97 3c
       0.017101971 -0.138758 0.005943782 0.018444281
000340 d3 47 d4 bb f3 4a c5 3d b5 5d 79 bd 61 89 bc bd
       -0.0064782887 0.09633436 -0.06088038 -0.092058904
000350 53 79 c2 bd 9b 78 0e be 0b 47 c9 3d 20 82 39 bd
       -0.09495797 -0.13913195 0.098280035 -0.045290112
000360 91 25 9f 3c be e5 30 3d 1a c0 bb bc 42 21 17 bd
       0.019427093 0.04318785 -0.02291875 -0.03689695
000370 06 5a 87 bc c8 a2 9b 3c de 11 3e bd 1c f6 b5 bd
       -0.016522419 0.018998519 -0.04640376 -0.08884832
000380 c3 d2 0d 3d 62 81 8b 3c d3 99 4a 3d 83 d9 9c 3c
       0.034624826 0.017029468 0.049463104 0.019146686
000390 05 89 93 3d a9 a5 1f 3d b7 e0 df 3c 6e 46 13 be
       0.07203869 0.038976345 0.027328832 -0.14382336
0003a0 62 11 a8 3d 34 27 b2 bc aa c0 f2 3d 39 c5 41 bc
       0.082064405 -0.02174721 0.11853154 -0.011826807
0003b0 83 fc 55 bc 35 de 43 3d 05 cc bf 3b 48 dd 66 3b
       -0.013060692 0.047819335 0.0058531784 0.0035227109
0003c0 7f 6f c7 bd 38 87 4b 3c fb 9a b2 bc fc 31 0f bd
       -0.09738063 0.012422375 -0.021802416 -0.03495978
0003d0 71 eb 63 bd b8 f0 f6 bc 62 a6 70 bd e0 97 4b bd
       -0.055644456 -0.03014408 -0.058752425 -0.049705386
0003e0 7f ff 31 3d 06 c0 89 bc a4 08 75 bd 24 b9 36 bd
       0.04345655 -0.016815197 -0.059822693 -0.044610158
0003f0 4f ad c7 3d 25 24 18 be ce f1 c7 ba 5d 75 25 bc
       0.09749853 -0.14857538 -0.0015254559 -0.010098782

encoder.3.bias f4 [64]
000000 59 e9 98 bd 26 0b 60 b9 de f7 82 bd d1 93 2b be
       -0.074663825 -0.00021366458 -0.06394933 -0.16755606
000010 99 ba 27 be f3 90 c1 be 52 52 db 3c 09 51 37 be
       -0.16379775 -0.378059 0.026772652 -0.17902006
000020 0e e7 d2 bd 44 2f 24 be 53 86 2c be 45 ae d9 bd
       -0.102979764 -0.16033655 -0.16848116 -0.106289424
000030 49 6a 93 be 96 aa 17 be ec 68 72 be 6a 4e a8 bd
       -0.28792027 -0.14811167 -0.23672837 -0.08218081
000040 92 96 77 be 47 9e fd bd bf 0d 19 3d ac 3b bf bd
       -0.24178532 -0.12383705 0.037366625 -0.093375534
000050 c6 80 94 bd 27 48 7f be 32 35 21 be f3 dd 12 bc
       -0.07251124 -0.24929868 -0.15742949 -0.00896405
000060 2b e3 3c be 4e 0c 5e bd 8f 48 a0 bd c2 04 d9 bd
       -0.18446033 -0.054210953 -0.078263395 -0.105966106
000070 d6 1c 41 bd ec f8 23 bd 87 9d 96 bd 50 21 83 bd
       -0.04714664 -0.040032312 -0.07354265 -0.06402838
000080 e7 58 22 be 33 e9 64 be cf ff d9 3b 13 3a 92 be
       -0.15854226 -0.22354583 0.006652809 -0.28559932
000090 58 63 82 be 02 80 f4 ba 94 cf 26 be b2 6d 77 be
       -0.25466418 -0.0018653872 -0.16290122 -0.24162939
0000a0 82 63 6b be 32 6c 71 bb a4 0e c8 bd cf 46 37 bc
       -0.22987178 -0.003683817 -0.097684175 -0.011186316
0000b0 4b f3 9a bd f0 63 be bd 40 e6 a3 bd f3 64 e0 3b
       -0.07565936 -0.09296405 -0.08002901 0.0068479716
0000c0 16 05 10 bb 2e c9 51 be ac fb 85 be 38 28 ce 3c
       -0.0021975688 -0.204869 -0.26168573 0.025165662
0000d0 73 c4 16 be 90 ac ff 3c 17 21 0f 3c cb 33 88 be
       -0.14723377 0.031210214 0.008735917 -0.26602015
0000e0 96 fd a0 bd 52 c1 86 bd df dc 0e be 43 6b 6c bd
       -0.07860868 -0.06579842 -0.13951443 -0.05771948
0000f0 14 8b 5d be 4d e6 b6 bd 16 b2 88 be 67 ef 3a be
       -0.21635085 -0.08930645 -0.2669837 -0.18255387

encoder.6.weight f4 [32, 64]
000000 df 2c c7 3d 19 1b 03 be 72 7d c6 3c 3b 9e a6 bc
       0.09725355 -0.12803306 0.024229739 -0.020339122
000010 f1 1a b4 3d b4 89 d6 3c eb 86 a7 bd 67 c4 e4 3d
       0.08794201 0.026188709 -0.081800304 0.11170273
000020 a0 9b fe 3d b3 82 f9 3d 3e 2b 97 bc 11 aa 64 3d
       0.12432027 0.12183132 -0.018453237 0.05582625
000030 4b d0 0d bd 76 27 c4 bc dd 89 f6 bd 8d ed 01 be
       -0.03462247 -0.023944598 -0.12038014 -0.12688275
000040 c5 41 4b 3d 27 49 00 3e 52 4c 1a be da 7a 1c be
       0.04962327 0.12527905 -0.15068176 -0.15281239
000050 56 7b 07 be e5 41 0e 3e 72 4c ba bb 4f e8 e6 3d
       -0.13230643 0.13892324 -0.0056853825 0.11274778
000060 e9 f9 6c be 91 e4 61 3d f5 f4 b4 3d 4c 93 13 be
       -0.23142208 0.05514962 0.08835784 -0.14411658
000070 94 49 7e bd 9e ef 07 3e 9e 56 09 3e 58 63 d4 3d
       -0.06208189 0.13275 0.13411948 0.10370511
000080 a0 06 00 be 64 a6 8c bc 8c cf a8 3d 1e 14 e8 3d
       -0.12502527 -0.017169185 0.082427114 0.11331962
000090 e8 2d d1 bd bb ea 9f bc 08 c8 28 3d c7 7c 7c bd
       -0.10213834 -0.019521108 0.04120639 -0.061642434
0000a0 86 32 ac bd 7d 0d 8b 3d 7b e5 7c bc f8 cf 7a be
       -0.08408074 0.06789682 -0.015435572 -0.24493396
0000b0 19 7c 1b 3e ea e7 1c bd 66 00 8c bd c6 ce fa bc
       0.15184058 -0.038307108 -0.068360135 -0.030616175
0000c0 81 51 25 bd e7 a9 38 3e 94 1e fd 3d 10 e9 a7 3d
       -0.04036093 0.18033563 0.12359348 0.0819875
0000d0 b3 ea c8 3d 94 6f 6d bd 3c c5 ad bb bb 7f 2f ba
       0.0981039 -0.057967737 -0.005303053 -0.00066947535
0000e0 55 a9 00 be 47 ae 95 3d 7c fb 92 bc 2b a8 6c 3c
       -0.12564595 0.073086314 -0.017942183 0.014444391
0000f0 be 14 27 3d 57 28 a3 3d 4b 86 e5 bb 1d 43 e0 3d
       0.040791266 0.079666786 -0.0070045344 0.10950301
000100 e1 40 e6 bd 3b 94 02 bb d6 4f d7 3d 50 c5 89 be
       -0.112428434 -0.0019924778 0.10513274 -0.2690835
000110 b9 13 fe bc 1b db 04 be 6f fc 5d bc 8b 03 0d 3c
       -0.031015264 -0.12974207 -0.013548954 0.008606802
000120 0a 85 37 3e 5f 44 1a 3b f0 9c 02 be a6 eb 54 bc
       0.17921844 0.0023539288 -0.1275518 -0.012995636
000130 5e 1d bf 3d 59 ca ab bd 48 0e 25 bd f1 fd 65 3d
       0.09331773 -0.08388204 -0.040296823 0.05615038
000140 3a 37 a6 3d ac 70 cd bd e0 3c 8a bc 1d 98 93 3e
       0.081160024 -0.10031256 -0.01687473 0.2882699
000150 b0 8f 6f 3d 14 1c d0 3d 25 09 8a bd 2a 7a 71 bc
       0.05848664 0.101616055 -0.067400254 -0.014738599
000160 22 4d 2a 3c 2d 3a cb 3c aa 55 7b 3d b6 f1 cb bd
       0.010394366 0.024808014 0.061360992 -0.09958212
000170 a9 25 3f 3d 66 64 a3 3d d9 64 72 3c 49 1d a4 3d
       0.046666775 0.07978134 0.014794552 0.08013398
000180 c8 e9 76 be 7f f6 43 bd 51 a8 40 3d 3a ad 87 3d
       -0.24112618 -0.0478425 0.04703552 0.06624837
000190 ea a8 ca bd 67 71 95 ba df f9 19 3e d2 63 df bd
       -0.09895499 -0.0011401594 0.15036725 -0.10907711
0001a0 e2 81 c4 3d c4 e8 03 bd 52 43 bb 3d fa 4f 47 bd
       0.09595086 -0.032204404 0.091437 -0.048660256
0001b0 07 54 78 bd 77 3e 4d bd 3c 4c 51 bd 5a d3 b4 3d
       -0.06062701 -0.0501084 -0.051098093 0.088293746
0001c0 0b ba 72 bd 31 4f 0f 3d 9e 3f 78 bd 3a c2 d3 3c
       -0.059259456 0.034987632 -0.060607545 0.02584945
0001d0 0a 73 f7 bb 6f dd 8e 3b 49 8a 0f 3d dc c2 00 3d
       -0.0075515555 0.004359893 0.03504399 0.031435832
0001e0 53 ed 70 3d ab 83 f2 3c e4 09 5a 3d 1f a2 24 bd
       0.05882008 0.0296038 0.05323209 -0.040193673
0001f0 46 96 26 be 90 12 29 bd df 50 1a 3d 96 cc 60 3d
       -0.16268262 -0.04127747 0.03767478 0.05488261
000200 9e a0 1b 3d 12 3c 3a be 0b 88 ca bd dd 14 66 3c
       0.037994973 -0.18186978 -0.098892294 0.01404306
000210 8c 49 17 3e 7b 43 68 3d cf 1a 63 be 79 9c 54 3d
       0.1477415 0.05670498 -0.22178195 0.051907036
000220 52 67 c4 3d ac e2 af 3d ae 12 20 3d 66 df 0a 3e
       0.09590019 0.08588156 0.039080314 0.13561782
000230 7d 0e b6 3d 11 42 ba 3d bf 34 01 bd 1e 9d a4 bd
       0.08889482 0.090946324 -0.031544443 -0.0803778
000240 87 a6 47 3d cf 8e 3c 3d 9d 7c 0a be 90 cf 9b bd
       0.048742797 0.04603463 -0.13524099 -0.07607949
000250 c6 37 25 be 43 f1 2f ba 18 00 6e 3d a7 1e 77 3d
       -0.16134557 -0.0006711671 0.05810556 0.060331967
000260 64 ef dd bd dc a6 87 3d 02 a6 fd 3d dc bf 2b bd
       -0.10836676 0.06623623 0.12385179 -0.04193102
000270 1f 0d 06 be f0 f2 8f 3d 4d 5b cc 3d 5a 43 e5 3d
       -0.13090943 0.070287585 0.09978352 0.11194487
000280 2f 73 15 3d d6 51 a0 bd 31 d9 81 ba 4a 95 a4 3d
       0.0364868 -0.07828109 -0.0009906647 0.08036287
000290 b8 4f 8e be 19 38 74 be 88 61 15 3e 21 47 01 bd
       -0.27795196 -0.23849525 0.14587986 -0.031561974
0002a0 c3 39 00 be 01 4f 84 bd 9f 23 d2 bd 03 38 93 be
       -0.12522034 -0.06460381 -0.102607004 -0.2875367
0002b0 76 14 8f 3b ad 57 12 3e 42 db 53 be 01 37 ed bc
       0.004366453 0.14291258 -0.20689109 -0.028956892
0002c0 62 7f 86 3d 5a 82 3e 3d ed 48 41 3d a9 d1 11 3e
       0.06567265 0.04651103 0.047188688 0.14240135
0002d0 08 10 a0 ba 62 f2 b9 bd 7b 76 41 3d ad bf 1f be
       -0.0012211809 -0.09079434 0.047232132 -0.15600462
0002e0 32 27 d4 bd 21 77 82 3d 50 14 72 be 72 18 b4 bd
       -0.103590384 0.06370378 -0.23640561 -0.08793725
0002f0 6f 61 38 3d 34 53 a1 3d c5 1c f8 3d 6d 3f 84 bc
       0.045014795 0.07877198 0.12114862 -0.016143525
000300 c9 4f 89 bd 62 2d b8 3c 69 b5 cf bc 9a f6 be bb
       -0.06704671 0.022482578 -0.025355058 -0.005827737
000310 4a 8b 2e 3d 6f a1 0c 3e 7d c2 a7 3d 96 8a 0c 3e
       0.042613305 0.13733457 0.081913926 0.13724741
000320 73 60 be 3c cd e6 41 bb a4 eb 88 bd ab a9 78 bd
       0.02323935 -0.002958703 -0.0668557 -0.060708683
000330 94 79 2d 3e 03 23 0c 3d cf c1 b7 3d df 16 f9 3c
       0.1694091 0.034213077 0.08972513 0.030406414
000340 02 4f 1c 3e 2a 9f 9f 3d 72 e7 45 3d 1e 9e 79 bc
       0.15264514 0.0779403 0.048316427 -0.015235452
000350 c4 92 9d 3d 40 fe a1 3d c2 2a 09 3d 32 e9 93 bd
       0.07694009 0.079098225 0.033488043 -0.07222213
000360 13 85 8a 3c 50 bc 67 3d 31 41 61 bc 3b 68 dc 3d
       0.016909158 0.056576073 -0.013748453 0.10762068
000370 e6 0b f1 3c 06 4e d4 3d 7e 2c d4 3d 31 a3 8b bd
       0.029424619 0.10366444 0.10360049 -0.06818236
000380 67 6e af 3c 87 30 a4 bb c0 b7 27 bc 75 11 2e bd
       0.021414949 -0.0050106677 -0.0102366805 -0.042497117
000390 10 52 e9 bc a5 25 ee 3d 3a 18 86 3d 9b e4 b8 bd
       -0.028481513 0.11628274 0.065475896 -0.09027978
0003a0 70 6e f0 3d d0 ab e3 bd d9 2d 95 3d 87 31 22 3e
       0.11739814 -0.11116755 0.07284135 0.15839206
0003b0 59 ea 4a 3c 4d 0d 00 3d a5 e7 ad 3c 2b 94 68 bd
       0.012384974 0.031262685 0.02122862 -0.05678193
0003c0 0d 18 b4 3c a3 69 98 3d a3 91 c0 3d e3 95 a4 bc
       0.021984125 0.074420236 0.09402778 -0.020091003
0003d0 f4 8d 7b 3d 32 09 b2 bc b7 68 43 3d bc a9 64 3d
       0.061414674 -0.0217329 0.047707286 0.055825934
0003e0 86 f8 a4 3b 3c 6e e3 3d b9 95 0c 3e 7a 5c 8e bd
       0.005034509 0.1110501 0.1372899 -0.06951232
0003f0 df 22 0f 3d 00 27 88 3d 8b 47 c6 3d c9 04 cf 3d
       0.034945365 0.06648064 0.096816145 0.101083346

encoder.6.bias f4 [32]
000000 02 78 60 3d 8d c9 9c 3d 02 61 e8 3c 0b df 9a bd
       0.05480195 0.0765563 0.02836657 -0.07562073
000010 e4 c2 53 3c b1 87 fe 3c fd c4 1f 3d 2e d1 4b 3c
       0.0129248835 0.031070562 0.039006222 0.012440009
000020 57 f6 2c 3d c2 9c 12 3d 77 55 67 3d b9 c2 b4 3c
       0.042227115 0.035794027 0.05647799 0.022065507
000030 e7 37 66 bd 8d cb 1b 3d 42 35 1a 3d dc 00 fe 3c
       -0.056205656 0.038035918 0.037648447 0.03100627
000040 de 9e 02 3d 00 86 12 3d 56 9e cf 3c 7e 8c 4d 3d
       0.03188979 0.035772324 0.025344055 0.050182812
000050 a1 df f4 bc 74 6a 8d 3a 7d f3 06 3c 81 3c 8d 3c
       -0.02989179 0.0010789172 0.008236763 0.017240765
000060 6b c8 90 bd ec b3 86 3c dd 6b 56 3b 1e 83 59 bd
       -0.07069477 0.016443215 0.00327181 -0.05310356
000070 c9 7b 97 bc dc 84 2a 3c b7 84 2c 3c 16 8c 26 bd
       -0.018491643 0.010407653 0.010529689 -0.04066094

encoder.9.weight f4 [16, 32]
000000 a4 91 ce bd f5 51 01 3d 35 29 12 be 38 e5 db bd
       -0.100863725 0.0315723 -0.14273532 -0.107370794
000010 0a b2 36 3d 4d 13 35 3d 72 a1 71 3d 54 9d 08 3c
       0.044603385 0.04420786 0.058991857 0.008338291
000020 be 6a df bd 1b e2 92 bd 64 93 48 bd 85 05 48 3d
       -0.10909031 -0.071720324 -0.048968688 0.04883339
000030 dd 11 14 3d 48 1c 9f bd 8b c9 36 3e 40 f9 22 bd
       0.03614985 -0.07769066 0.1785032 -0.039788485
000040 ba 49 f6 bd 08 a6 5d bc 89 bd fb 3c ad 49 86 bc
       -0.12025781 -0.0135283545 0.030730026 -0.016392553
000050 73 71 0c 3b db f0 8a 3d 81 98 cd 3d d5 c5 1c 3e
       0.0021429926 0.06784221 0.100388534 0.15309842
000060 26 c3 39 3c 1c f1 a7 3d c3 99 38 bd e8 bf 0e 3e
       0.011338031 0.08200285 -0.045068514 0.13940394
000070 65 cf 1e bc ee 5b 9d bc 69 ee 3d 3c 32 2a e8 3d
       -0.009693001 -0.019208875 0.011592486 0.11336173
000080 1e a3 14 3e 79 d4 86 3a 80 dd f2 bd ac 43 29 3d
       0.1451535 0.001028671 -0.11858654 0.041324303
000090 79 cb a2 3d 0e c0 9a 3d 71 a7 32 3c c7 37 04 be
       0.079489656 0.07556163 0.010904179 -0.12911902
0000a0 52 0d 3f 3e bd 2f b9 bd 47 26 83 3d 51 58 3c be
       0.18657425 -0.090423085 0.06403785 -0.18393065
0000b0 01 b7 1c 3a 94 93 9c 3d 90 4c 20 3e d3 18 d1 3d
       0.00059781974 0.07645336 0.15654206 0.10209813
0000c0 b3 6b 2d bc db 0d 2f bd c4 8f 10 3e c4 48 9d bc
       -0.0105847595 -0.042737823 0.14117342 -0.019199736
0000d0 e6 ef e5 3c d9 e9 d4 bd 43 1f 19 3e 2a 9a 14 3d
       0.028068494 -0.103961654 0.14953332 0.036279835
0000e0 55 6f 85 bd 13 ec 29 3c f1 98 2b be 42 bc 6f bd
       -0.065153755 0.010371226 -0.16757561 -0.058529146
0000f0 7c 04 8c 3d 17 ea a1 3c b0 11 ec bd 17 d1 c2 3d
       0.06836793 0.019764943 -0.11526811 0.09512537
000100 43 f2 17 3e 47 16 d2 bd 94 ff 05 be 2d c3 ca 3d
       0.1483851 -0.10258155 -0.13085777 0.09900508
000110 ea da 03 3d f4 91 a1 bc 1b 50 27 3d 2a e2 d5 3d
       0.032191195 -0.019722916 0.04084788 0.10443528
000120 9d 69 fb 3d e8 fc 06 3e bd d9 d3 bd a4 e0 df 3c
       0.122760035 0.13182414 -0.10344265 0.027328797
000130 5a 96 aa bd 1f 47 51 3d dc 4c 92 bd 25 6a 3e bd
       -0.083294585 0.051093217 -0.07143566 -0.046487946
000140 2f ca c6 3d 1a 2f 8e 3d 82 1c 7b 3d e6 a0 e5 3c
       0.09706532 0.06942578 0.061306484 0.028030824
000150 13 9b e0 3d 82 c8 86 be 94 e7 df bc dd 6d 29 3e
       0.10967078 -0.2632485 -0.027332105 0.16545816
000160 ab de ae bc 73 a0 a9 3d a2 ba c7 3d 61 14 81 3d
       -0.02134641 0.082825564 0.09752394 0.06302715
000170 e6 ea 41 bd 83 d8 00 3e 14 db 71 3d f2 e4 30 bd
       -0.047343157 0.12582593 0.05904682 -0.04318709
000180 45 77 03 be d9 07 02 bd 93 38 53 be 25 ff ef bd
       -0.12838466 -0.031745765 -0.2062705 -0.11718587
000190 29 14 52 3e 1c 42 60 be 95 5a c7 bc 54 7d ad 3d
       0.20515503 -0.21900219 -0.024335185 0.0847117
0001a0 db 71 47 3d 49 51 8c 3d 63 b1 38 be 64 1e 36 3e
       0.048692565 0.068514414 -0.18036418 0.1778503
0001b0 00 72 2f 3e 82 eb 94 bd f2 6b 13 3d 13 5f 0a be
       0.17133331 -0.07271482 0.035991617 -0.1351283
0001c0 83 c0 39 be ee 12 2f 3e 3b b4 fc bd c3 60 6e bd
       -0.18139844 0.17097065 -0.12339064 -0.058197748
0001d0 5d 06 38 3e 8e a5 f7 3d a4 ab 87 3c c4 6d 22 3e
       0.17971177 0.12092124 0.016561337 0.15862185
0001e0 52 0a 02 bd ff 91 1e be 63 14 13 bd 1b cb 18 3e
       -0.031748123 -0.1548538 -0.035908114 0.14921229
0001f0 3b 70 c6 bd be 6d 87 3d 48 de 9c bd 95 8b 9c 3d
       -0.09689375 0.066127285 -0.07659584 0.07643811
000200 0a 05 ae bc 8b 8c 07 3e a3 a6 3e 3d df 2f 10 be
       -0.021242637 0.13237207 0.046545636 -0.14080761
000210 f4 cd 0b be 58 56 0e be cb b1 58 be b8 63 3a 3e
       -0.13652784 -0.13900125 -0.21161573 0.18202102
000220 de fc 92 3d 55 d9 da bc 9f f8 a9 bd ba 2b 09 bd
       0.07177137 -0.02671496 -0.08299374 -0.033488967
000230 99 eb ca 3d 79 16 ed bc 54 f3 68 bd 29 7e fc 3c
       0.09908218 -0.02894138 -0.05687268 0.030821877
000240 b3 ef 17 3e fc ad 91 3d a2 19 18 be ac 16 b0 bd
       0.14837532 0.07113263 -0.14853528 -0.08598074
000250 24 05 49 bd 49 90 2c 3e c6 9b 91 3d d8 e2 14 3e
       -0.049077168 0.16851915 0.071097896 0.14539659
000260 68 f4 ec bd 75 13 07 3e 13 89 29 bd ed 0c 02 be
       -0.11570054 0.13191016 -0.04139049 -0.12700243
000270 8a fa b9 bd 28 92 69 3d c2 ed 1a bd 1b dd 19 3e
       -0.0908099 0.05702415 -0.0378244 0.15025751
000280 3f 73 de 3d 45 87 09 3d 75 d2 bd bb 85 78 3c be
       0.10861825 0.03357627 -0.0057929107 -0.1840535
000290 58 8b 72 3b ca 95 4c 3d d7 d1 86 bd 84 11 05 3e
       0.0037009325 0.049947537 -0.065829925 0.12994963
0002a0 05 a7 ed 3d bb 0c 2d 3e 26 2c 9f 3d 4f 68 c3 bd
       0.11604122 0.16899388 0.077720925 -0.0954138
0002b0 2b e2 ae 3d 22 49 20 be 6d 77 18 be 57 50 1e be
       0.08539232 -0.15652898 -0.14889307 -0.15460335
0002c0 0d 43 f1 3d 5a b7 14 be 7c fa 2a 3e a6 b2 22 be
       0.11780367 -0.14523068 0.16697115 -0.15888461
0002d0 ba 6f 81 bc c7 ce 1b be d7 65 de bd f2 06 c7 bd
       -0.015800346 -0.15215598 -0.10859268 -0.097181216
0002e0 af 5b c4 3d 57 f4 fb bd b1 f2 88 bd 9a d2 ef 3c
       0.095878 -0.123024635 -0.06686915 0.029275227
0002f0 14 a7 ce 3d d9 06 c4 bd 34 81 04 bd f2 66 94 3d
       0.100904614 -0.095716186 -0.03234978 0.07246198
000300 b8 0b 17 3e 7e a8 0a be 5f 9c 01 3e 7c d0 ab 3d
       0.14750564 -0.13540837 0.12657307 0.083893746
000310 5f 60 29 3e 56 06 16 bb 7a 9c 70 bd bf 54 3c be
       0.16540669 -0.002289196 -0.058742978 -0.18391703
000320 8c 44 3b 3e 6c 39 40 3e 2f a2 1c be 05 01 44 be
       0.18287867 0.18771905 -0.15296243 -0.19141014
000330 90 fe 81 3d 0b a7 e3 bd 28 4f ca 3d a6 59 08 be
       0.06347382 -0.11115845 0.09878379 -0.13315448
000340 5f ff 1e be b4 d7 69 bd 18 e7 24 be d7 5a 19 be
       -0.15527104 -0.057090476 -0.1610378 -0.14976059
000350 cf 40 03 be d0 dc 27 3e f4 c2 24 be 75 f3 02 3e
       -0.12817691 0.16392827 -0.16089994 0.12788184
000360 2b a7 0a be 8d 66 52 bd 66 86 6e 3e c0 40 9a 3d
       -0.13540332 -0.05136733 0.23293456 0.07531881
000370 b9 67 aa bd 4a 80 46 3d 0f 12 07 be 04 d2 0e 3e
       -0.08320565 0.04846219 -0.13190483 0.13947302
000380 55 ac 91 bd b3 80 2e be f1 8b 4b 3d be 84 42 bb
       -0.07112948 -0.17041282 0.049694005 -0.0029681171
000390 e8 08 17 3d 51 62 2c 3d c4 3b 3e be 83 dc 34 be
       0.036873728 0.04208595 -0.18577486 -0.17662244
0003a0 26 9e 05 3e 95 aa cc 3d 3f 7f 78 3d 40 8f 9e bd
       0.1304861 0.099934734 0.060668226 -0.077421665
0003b0 45 4d 19 bd 9f 3f 89 3d 34 e3 51 be c3 94 e6 bb
       -0.037427206 0.06701588 -0.20496827 -0.0070367767
0003c0 c8 11 00 3e 21 53 1f be 68 21 a2 3d 78 62 ec bc
       0.12506783 -0.15559055 0.07916528 -0.028855547
0003d0 2d 96 92 bd 5a 81 87 3d 1f c3 3f be bb 0e d7 3d
       -0.0715755 0.06616469 -0.18726777 0.105008565
0003e0 1f 18 14 3e 11 53 b4 bd c9 91 df 3c 7f d1 04 3e
       0.14462326 -0.08804906 0.027291195 0.12970541
0003f0 3c 5f 08 3e e3 cb 3a be d4 1c 03 3e b1 be 0c be
       0.13317579 -0.18241839 0.12803966 -0.13744618

encoder.9.bias f4 [16]
000000 10 34 b2 3d 2a 00 e5 3b 1c 92 9a bd ba 70 0a 3e
       0.087013364 0.006988545 -0.075473994 0.13519564
000010 78 dd 41 3e b8 c2 b0 bd b9 49 ca bd ee a7 26 bd
       0.1893214 -0.0863089 -0.09877343 -0.040687494
000020 30 e7 1d be 12 d0 dd 3d 39 38 87 be c8 a9 3d be
       -0.15420222 0.10830702 -0.26410082 -0.18521798
000030 3c 38 71 bd 17 13 85 bb 4f b9 4c bd 8c c2 26 3e
       -0.05889152 -0.0040611136 -0.04998141 0.16285151

decoder.0.weight f4 [32, 16]
000000 ad 71 29 3e 5a 4e 34 3d fa 1c 18 3e d5 c3 8e 3e
       0.1654727 0.044020034 0.14854804 0.27883783
000010 d8 73 0a 3d fa 1c 6d be 45 8c 6d 3e 9a 7e 42 be
       0.033801883 -0.23155585 0.2319804 -0.18993607
000020 7e 21 af bc 6c 00 32 be 29 a8 10 3d 72 cd 05 be
       -0.021378275 -0.17382973 0.03531662 -0.13066652
000030 e7 b0 12 3d 49 63 48 be 79 e7 76 3e 7c 3a 6d be
       0.03581324 -0.19569124 0.24111737 -0.23166841
000040 c7 f6 7d 3e 2e b1 27 3e 71 41 a0 3d 1b 38 35 be
       0.2480117 0.16376182 0.07824982 -0.17697184
000050 da c8 d3 bd 7c a5 76 3e 47 f8 c7 bd 17 5e 60 3e
       -0.10341044 0.24086565 -0.09764152 0.21910892
000060 ba e1 44 3d 6c 94 77 3d 27 87 8a 3d aa e9 81 be
       0.048066832 0.06044428 0.067640595 -0.25373584
000070 5d fd 2d 3e 52 0d a6 3d c5 1e 79 3d 4f 34 79 3e
       0.16991182 0.081080094 0.06082036 0.2433636
000080 ac 6b 26 bc 7e bc e9 3d bb 0d 7c bd c6 e1 ef 3d
       -0.010157507 0.11412905 -0.061536532 0.11712985
000090 48 dc 69 3e 87 f7 58 be d6 a5 0e be 94 be 21 be
       0.22837937 -0.21188174 -0.13930449 -0.15795356
0000a0 fc e7 8c 3d 2d 92 6a be 08 63 6e bd 27 59 32 3e
       0.06880185 -0.22907324 -0.058199912 0.17416821
0000b0 33 76 4c 3d ed d9 bb 3d ed e3 2f 3e a8 51 03 3e
       0.04991741 0.091724254 0.1717679 0.12824118
0000c0 71 cb 47 bc 6b 41 9a 3c 1c ef 0b be 05 7c 04 be
       -0.0121945 0.018830022 -0.13665432 -0.12937935
0000d0 9c dd e0 3d a2 75 32 3e 3b 2b 70 3e c3 85 4b be
       0.10979769 0.17427686 0.23453991 -0.19875245
0000e0 2b dd ae bc c9 4a df 3d 89 70 a7 bd 6a 42 bc 3a
       -0.021345695 0.10902936 -0.08175761 0.0014363055
0000f0 cb e0 24 be bc c4 e9 3d 01 78 b7 3d 12 e2 00 3d
       -0.16101377 0.11414477 0.08958436 0.031465597
000100 32 3a 8c 3c a4 e3 43 3c bc dc d1 3b ce 0f 51 3d
       0.017117593 0.011956129 0.0064044874 0.051040463
000110 55 3e 6b 3d 17 32 2b be e7 5e 46 3c d5 3e 1f be
       0.05743249 -0.16718327 0.012107587 -0.15551312
000120 2c 14 91 be cf 8e 16 3d d9 fa 71 be 38 02 37 3d
       -0.28335702 0.036757287 -0.23630847 0.04467985
000130 60 f8 fc 3d e6 c7 2b be f7 9c 47 3e 31 18 a1 bc
       0.12352061 -0.16775474 0.19493471 -0.019664856
000140 af d6 25 be 33 42 a7 bd f4 95 f9 3d 27 fc 07 3d
       -0.16195177 -0.081669234 0.121868044 0.033199456
000150 9d 58 8e 3e b3 3f 77 3d 53 fb 1a be 00 46 d9 3d
       0.27801982 0.060363483 -0.15134935 0.106090546
000160 ed c4 4a 3e c2 a3 79 bd 5c f5 be 3c 7d 44 28 3c
       0.19801684 -0.060947187 0.023310356 0.010270235
000170 e4 ee 02 3e 33 15 6e be 56 63 27 bd af c9 2a be
       0.12786442 -0.23250274 -0.04086622 -0.16678499
000180 21 b3 3a 3e 75 f7 19 3c 35 56 b2 bc bb 99 fa 3c
       0.18232395 0.009397377 -0.021769622 0.030590883
000190 24 f8 7c bd bb 15 7d bd 03 f3 69 bc a1 d5 89 be
       -0.061760083 -0.061788302 -0.01427913 -0.26920798
0001a0 be 66 a5 3d d1 bc 41 3d 39 a2 35 3e 0b 60 26 be
       0.08076237 0.04729921 0.17737664 -0.16247575
0001b0 6b 0c e3 3d b1 7f 11 bd bd 69 61 be 37 39 17 be
       0.11086353 -0.035522167 -0.22012992 -0.1476792
0001c0 de 6c 31 be 25 34 8f 3d c3 31 15 3e bb 8b 20 3e
       -0.17326686 0.06992368 0.14569764 0.15678303
0001d0 e4 a3 2b be 68 41 84 be d2 37 ba 3d 35 22 80 be
       -0.16761738 -0.2583115 0.09092678 -0.25026098
0001e0 62 36 44 be 18 80 e3 bd ab 1a 35 be f1 75 cd 3d
       -0.1916137 -0.11108416 -0.17685954 0.10032261
0001f0 0c 72 59 3e 6a f1 3e 3e 2f 86 a6 3d b4 5e 14 3e
       0.21234912 0.1864678 0.08131062 0.14489251
000200 fc 40 75 3e ea 89 82 be 1d 5a d0 bd 4e 86 46 bc
       0.23950571 -0.25495845 -0.10173438 -0.012116982
000210 b1 a0 01 be 83 a3 17 be 26 bc 8e bd 1b 4a 3a 3e
       -0.12658955 -0.14808469 -0.0696948 0.18192331
000220 85 95 7c be a3 3c f2 bd cd 8b df 3d 1f af 8d 3d
       -0.24666412 -0.11827972 0.10915337 0.06918167
000230 fc 9e 08 3d c9 de 40 be 67 aa 7a be b6 20 0c 3e
       0.033354744 -0.18834986 -0.24479066 0.13684353
000240 67 50 42 be 83 0e 48 be ae 27 4a be 60 ff f9 bd
       -0.18975984 -0.19536786 -0.19741699 -0.12206912
000250 99 a7 75 3e a8 d6 19 be 52 48 da 3c 40 45 1b 3e
       0.23989715 -0.15023291 0.026645813 0.15163136
000260 d9 34 08 3e c0 4d 2d 3e 66 e3 3e be 38 9a 1b be
       0.1330141 0.1692419 -0.18641433 -0.15195549
000270 b0 97 40 3e 58 09 65 3e 94 99 1d bc b6 4d 08 3e
       0.18807864 0.22366846 -0.009619135 0.13310894
000280 4c 57 37 3e 9f 82 99 3e 3a 43 a2 3d 90 fd 3d bd
       0.17904395 0.29982468 0.07922979 -0.046384394
000290 bf a1 16 be 6b e0 e2 3c c8 6f 16 3e 07 b4 00 3e
       -0.14710139 0.027694901 0.14691079 0.12568675
0002a0 99 33 09 3e d6 60 6f be cb 47 14 be 8c e6 e2 ba
       0.13398589 -0.23376784 -0.14480512 -0.001731114
0002b0 d0 0e 84 bb 4a e7 31 be 75 ba 43 be e3 ee 43 be
       -0.004030086 -0.17373386 -0.19114096 -0.19134097
0002c0 f8 b3 ed bc 0e 89 53 3e 4e aa 87 bd f7 a8 5b be
       -0.02901648 0.20657751 -0.0662428 -0.21451174
0002d0 b0 3b 8c 3e 6f 99 7e be 37 bf 8d be 8e 9b a2 be
       0.27389288 -0.24863218 -0.27684948 -0.31759304
0002e0 4c f0 1a be e9 45 5d be 0f ff 6d be c7 fb 73 be
       -0.15130728 -0.216087 -0.23241828 -0.23826514
0002f0 97 5c 67 bd 11 d3 4f 3d c6 15 88 3c f8 e6 c8 bd
       -0.056484785 0.050738398 0.016611945 -0.09809679
000300 b0 3a 9a 3e 98 cf 05 3e 32 f8 2e be e5 73 1b be
       0.301229 0.13067472 -0.17086866 -0.15180929
000310 1d be b3 3d d9 c4 5c be 62 d7 5d be ec b8 78 3e
       0.087764956 -0.21559466 -0.21664193 0.24289292
000320 d1 a2 04 3e 8c f1 6d be b3 49 32 bd ed cd 91 3e
       0.12952735 -0.23236674 -0.043527316 0.2847742
000330 f5 4d cb 3d bb 29 f1 3d 6a 97 ab 3d e9 6b 02 3e
       0.099269785 0.117755376 0.08378489 0.12736477
000340 ec dc 45 be a7 9c 3b 3e a6 eb 5d bd 33 b1 07 be
       -0.19322556 0.18321477 -0.05417981 -0.1325119
000350 83 12 4d bd 26 e1 9e bd 45 3c 0e be 32 7f f3 3a
       -0.050066482 -0.077577874 -0.13890179 0.0018577336
000360 a6 38 2f be e4 c1 7f 3e df 07 28 be 5a 75 5f be
       -0.17111453 0.24976307 -0.16409253 -0.2182211
000370 12 93 50 3e 09 36 3c 3d ed a2 13 be 4b 60 a2 bd
       0.20368603 0.04594997 -0.1441762 -0.07928523
000380 26 91 4a be 2b f6 91 be 49 a2 08 3e 6f aa d1 bc
       -0.19781932 -0.28508124 0.13343157 -0.025593964
000390 b5 15 26 3e 46 d2 e0 3d 75 73 60 3e a0 61 60 3e
       0.16219218 0.109776065 0.21919043 0.21912241
0003a0 d9 f3 8d be f2 fa e2 bd d0 7e 48 be d2 3c e4 3d
       -0.27725103 -0.1108302 -0.19579625 0.11144413
0003b0 f6 a9 d0 3d ff b9 8e 3e eb cd 0d be a3 d2 25 3e
       0.101886675 0.2787628 -0.13848083 0.16193633
0003c0 7d 34 5e be 70 c7 9f bd db da 28 3e 23 20 61 be
       -0.2169971 -0.078017116 0.16489737 -0.21984915
0003d0 c1 3f 8b be b5 6f f8 bd 1b b8 39 3e 93 54 63 3e
       -0.27197078 -0.121306814 0.18136637 0.22200231
0003e0 8d c7 98 bb cd 4a 43 3e 9d 17 60 be be 6c 71 be
       -0.00466246 0.19071503 -0.21884008 -0.23576638
0003f0 2b 97 74 bc 44 b7 cb bd 5e b3 02 be 6c 82 0d 3d
       -0.014928619 -0.099470645 -0.12763736 0.034548208

decoder.0.bias f4 [32]
000000 b4 30 62 3c 54 93 89 3d 6f ce 2f 3c 40 6e 48 bd
       0.013805557 0.06717554 0.01073037 -0.048933268
000010 77 e3 99 3d 59 88 5f bd ea 28 8b bc 42 17 80 3e
       0.075140886 -0.05457339 -0.016987283 0.25017744
000020 68 77 44 3e 19 b7 b6 bd da a6 96 3d ee 88 3f 3e
       0.19186175 -0.08921642 0.07356043 0.18704578
000030 c5 2a ec 3d ea bd 09 3e 2b 4d ac 3d 1b 69 da 3d
       0.11531595 0.13451353 0.08413156 0.106645785
000040 6e 0c 95 3e bb fa a4 be a7 1b 59 be 7b 47 da 3c
       0.29111046 -0.32222542 -0.21201955 0.026645413
000050 dd 93 1e 3d d6 a2 b1 bd 8d 08 b6 bc 18 71 8d 3e
       0.038715232 -0.086736366 -0.022220874 0.27625346
000060 4c d5 28 bc 69 39 84 bc 7e b3 78 3e a5 6f 92 bc
       -0.01030476 -0.016140657 0.24287221 -0.017875502
000070 12 48 08 3e 15 84 cc bd e4 36 88 3e ee 7f 65 bc
       0.13308743 -0.0998613 0.26604378 -0.014007552

decoder.2.weight f4 [64, 32]
000000 46 e0 21 3e b7 91 b0 be d4 58 19 3e c9 e7 c3 3d
       0.1580821 -0.34486172 0.14975291 0.09565694
000010 e2 c5 17 3e 63 67 1f 3e f6 f2 40 bd d0 4d b6 bd
       0.1482158 0.15566783 -0.047106706 -0.0890156
000020 a8 24 52 bc 2f 9c af be c8 56 33 bc 8f 42 0b be
       -0.012826122 -0.34298846 -0.010945983 -0.13599609
000030 df 40 8b 3d 2a f2 a3 3c c1 c2 0a 3e c5 51 c3 bd
       0.067994826 0.020012934 0.13550855 -0.09537081
000040 89 af 0c 3e f6 84 57 be 78 12 9d bc 98 3f 93 be
       0.13738836 -0.21046814 -0.019173846 -0.28759456
000050 34 75 bb bd ba 7c cb 3c d9 38 ec 3d fc 3f bd bd
       -0.09153214 0.024839748 0.1153428 -0.0924072
000060 64 b8 d0 bd 28 22 19 3d 2c 3c f2 bb 22 e4 db bc
       -0.1019142 0.03738609 -0.007392427 -0.02684218
000070 e2 7a 21 3e 2b fb 7a bd 88 c0 b7 3d f4 60 96 bd
       0.15769532 -0.06127469 0.08972269 -0.07342711
000080 98 8e 1d be 9d 87 c3 3d 99 51 3f 3b db 9e ad bb
       -0.15386426 0.095473506 0.0029192923 -0.005298478
000090 c8 48 d7 b7 3b c9 14 bc b7 b8 39 3e 11 a2 92 bc
       -2.5663889e-05 -0.00908118 0.1813687 -0.017899545
0000a0 00 8b e5 bc f6 6d 5b bd ca 2d 10 be b7 5c e1 3c
       -0.028020382 -0.053571664 -0.14079967 0.02751003
0000b0 61 dd ae 3d c9 0c a3 3c 39 fe 14 3e ef a2 15 3e
       0.085383184 0.019903557 0.14550103 0.14612935
0000c0 44 b6 fb bd dd c0 65 3b c8 b9 ee bd ea cb 15 3d
       -0.12290624 0.0035057582 -0.11656529 0.03657142
0000d0 26 f0 c9 3c db 3e 2a bd 6c 76 20 bd 21 c9 86 3d
       0.024650645 -0.04156385 -0.039175436 0.06581331
0000e0 92 96 0e 3d f8 18 94 3d 32 7c 34 bd 17 39 36 be
       0.034811564 0.07231325 -0.044063754 -0.17795216
0000f0 3e df a5 bd 9d 50 f7 bc ef fe 17 be a4 d2 20 3d
       -0.08099221 -0.030189807 -0.14843343 0.039263383
000100 72 62 00 be 05 ad 03 3e 0a f4 21 bc 59 d5 de bd
       -0.12537554 0.1285897 -0.009884844 -0.108805366
000110 14 98 a6 bd 10 bd 91 3d 4d bf 28 3e 38 de bb bd
       -0.08134475 0.07116139 0.16479225 -0.09173244
000120 91 61 c5 3d b5 06 1b be 08 07 ab 3d 71 18 11 3c
       0.0963775 -0.15139277 0.083509505 0.008855925
000130 f0 e5 4a 3d 60 d5 af bd 24 02 cd bd fa 1c f9 3d
       0.04953569 -0.0858562 -0.10010174 0.1216373
000140 f3 31 3c bd 44 60 46 bb b5 8c a4 bd 03 c4 12 3e
       -0.045946073 -0.003026978 -0.0803465 0.14332585
000150 6f bc 4c 3e c7 de b9 3d b8 7e ed 3d 9e 0e a2 3c
       0.19993757 0.090756945 0.11596435 0.01978236
000160 f1 59 c4 3d 8b 5b 25 3e 44 3b 1b be b0 92 4e bd
       0.095874675 0.16148202 -0.15159327 -0.05043286
000170 36 a7 25 be d5 92 8f 3d a2 0d 2c 3d ff 5c 72 bd
       -0.16177067 0.07010428 0.04200519 -0.05917072
000180 a2 77 79 be 36 2f 86 3d 04 e9 54 be 8d 81 85 3d
       -0.24362043 0.065519735 -0.20792013 0.065188505
000190 a1 25 ab 3d 25 d5 80 bb 37 51 3c bd 33 40 95 3d
       0.083567865 -0.003931659 -0.04597589 0.07287636
0001a0 75 ac 41 3d 4a ef 79 3d 37 af e2 bd 35 b5 3f be
       0.04728361 0.06101922 -0.11068576 -0.18721469
0001b0 12 7f 9e bd ea c1 fd 3d ce c6 cb 3c 8b f5 3e 3e
       -0.077390805 0.12390502 0.02487507 0.18648355
0001c0 10 22 bd 3d d5 88 2e 3e f9 8c b7 3c cb 0f a6 bc
       0.092350125 0.17044385 0.022406088 -0.020271203
0001d0 a4 df 31 bc a4 11 1a be 24 e6 92 3d a7 64 28 3e
       -0.010856543 -0.15045792 0.07172802 0.16444646
0001e0 d3 a0 25 3e da 15 74 bb d2 82 3c 3e 4c d5 5c 3d
       0.16174631 -0.003724447 0.18409279 0.053914353
0001f0 f6 3c 6f be 1f aa 37 be 9f 7c 67 bd e2 45 34 be
       -0.23363099 -0.1793599 -0.056515332 -0.17604783
000200 91 f7 90 bd 8b 8d f1 bd 97 b4 c5 3d 68 14 0c 3e
       -0.070784695 -0.11794575 0.096535854 0.1367966
000210 38 d4 28 3e 40 9d e6 3c 9d a7 3a 3c a5 07 34 bc
       0.16487205 0.028151155 0.011392501 -0.010988151
000220 e3 84 2f be 52 01 cb bb cd 53 3f 3d b6 51 0b 3e
       -0.17140536 -0.0061952258 0.046710778 0.13605389
000230 bb d6 15 3d 13 25 07 3e 41 1d 87 be 9f 6f ef bd
       0.036581736 0.13197736 -0.26389506 -0.11691212
000240 36 c7 06 bd 69 3e a8 3d 83 24 a2 bc 10 14 e5 3d
       -0.032904826 0.08215029 -0.0197928 0.11185467
000250 dc aa 4b 3e e0 65 3b be 6a 5a 8c bc 51 cb 2b bb
       0.19889396 -0.18300581 -0.017132957 -0.0026213715
000260 d4 ee d8 bd 31 0a 43 3e 10 92 55 bd 57 e3 4f bd
       -0.10592428 0.19046856 -0.05214125 -0.050753918
000270 d9 03 1e bc 27 51 c9 3d db 9a 3e be 82 56 2d 3e
       -0.009644472 0.09829932 -0.1861376 0.16927531
000280 1e 11 12 be 0f 56 f0 bd 1e ea 3c bd ec 4e 92 3d
       -0.14264342 -0.117351644 -0.04612171 0.071439594
000290 51 71 34 3c 65 d6 a0 3d ea f6 52 3e 17 70 a5 3d
       0.011013345 0.078533925 0.20602003 0.0807802
0002a0 e7 98 67 3d 7b fe 46 3e 2c 8c b7 3d d2 9d 3e 3e
       0.056542303 0.19433014 0.089622825 0.18614891
0002b0 67 9b a1 bc b1 d7 12 be 6c d6 03 3e 21 53 4a 3e
       -0.019727422 -0.14340092 0.12874764 0.19758274
0002c0 45 8e c8 3d 50 f5 63 3c 67 d5 e2 bc 7a fd 0c 3d
       0.09792761 0.0139134675 -0.027689649 0.03442142
0002d0 51 52 a8 bd 97 b5 9a bc 2e 6b e2 3d 51 bf 59 3d
       -0.082188256 -0.018885417 0.11055599 0.05316097
0002e0 ba 0a 92 bd 0d e5 eb bd 7f 97 43 3e e9 63 75 bd
       -0.07130952 -0.11518297 0.1910076 -0.059909735
0002f0 87 68 25 be 19 76 80 bd b4 e3 27 3d 77 46 59 3e
       -0.16153155 -0.06272525 0.04098864 0.21218286
000300 69 ce 6d 3d 27 fe 18 be b5 b3 c0 3d 89 94 08 be
       0.058058176 -0.14940701 0.094092764 -0.13337912
000310 df 7c e8 3d 02 27 0b 3e 7c bf ea 3d 6a 61 ee 3d
       0.11351942 0.13589099 0.11462304 0.11639674
000320 27 7d 8c 3d 7f 94 4c 3d 33 c0 1b 3d f1 b5 1f 3d
       0.068598084 0.049946304 0.038025092 0.038991872
000330 9a f9 33 bd df 8b 98 bd 2b 8f 09 be e0 4b 34 be
       -0.04393921 -0.07448553 -0.1343352 -0.17607069
000340 47 26 a1 3d 54 ed 20 be 0f 44 70 bd 78 a3 40 be
       0.07868629 -0.15715533 -0.058658656 -0.18812358
000350 08 b4 83 bd 3b 25 53 bd 37 1c ff bd 54 b3 3e bd
       -0.064308226 -0.051549178 -0.124565534 -0.04655774
000360 b9 31 57 be 4c 5b f2 bd c6 88 a6 3d 66 0e dc 3a
       -0.21015061 -0.1183382 0.08131556 0.0016788959
000370 31 d1 b2 bc f6 89 6f 3d fc ea 08 be 3d dd 46 3d
       -0.021828266 0.05848118 -0.1337089 0.048550833
000380 18 b6 ba bd 7a f3 80 bc 0e 14 02 3d 54 6e b7 bc
       -0.09116763 -0.015741099 0.031757407 -0.022391476
000390 72 2f 48 3c e7 97 b1 3c 90 a7 4a bd d8 81 98 3c
       0.012218343 0.021678878 -0.049476206 0.018616602
0003a0 4d f9 fc 3d 92 ca f3 bd 35 77 02 3e 50 b0 6b 3c
       0.12352238 -0.119038716 0.12740786 0.014385298
0003b0 bb 82 53 3d ed 65 06 3e 69 34 38 3d 84 0b 07 3e
       0.051638346 0.13124819 0.044971857 0.13187987
0003c0 71 c2 b2 3d 61 ac 42 bd 06 da 41 bd 70 b0 be bc
       0.08728493 -0.047527675 -0.047327064 -0.023277491
0003d0 85 bc 45 3e ec 45 d6 3d 4b a7 07 3e 01 d9 9a bd
       0.19310196 0.10462555 0.13247411 -0.075609215
0003e0 46 e0 27 bd c2 a1 1c 3d 9c 4a f5 bd af ec cf bd
       -0.04098537 0.0382402 -0.11977121 -0.10152566
0003f0 08 f1 88 3d 5b 40 c0 3c 23 2d 8d 3d 30 c7 fc bb
       0.06686598 0.023468187 0.06893375 -0.0077141747
